HGAT-MADDPG_ver1/data/test_model/model_2065.pt (torch, 238891 bytes, 22 tensors)

encoding_layer.layer.0.weight f4 [64, 187]
-0.14653899 -0.090535514 -0.20969392 -0.085980855 0.034198273 0.0012302367 -0.027412524 0.10623109
-0.09871661 -0.2636045 -0.0681874 -0.16272973 0.07546645 0.006531817 0.06256076 -0.14767236
-0.16154855 -0.38683924 0.102734715 0.08355252 0.12068803 0.14297003 -0.039443593 0.1369656
0.084093235 0.06128625 -0.15974031 -0.16197287 -0.18973118 0.11689299 0.07297482 0.09664197
0.09581264 -0.035885427 0.2513646 -0.22980474 -0.38934505 -0.07444595 0.011764307 -0.19669573
0.20559157 0.21953073 0.043164685 0.05095455 -0.08538006 0.012837953 -0.07597034 -0.2880254
0.010152086 -0.035693254 0.1762137 0.14817378 0.16314809 0.14786837 -0.025392193 0.11255928
0.18674824 0.068468556 0.030667989 0.03506615 0.08116747 0.119340815 -0.042554107 -0.04790163
0.08888783 -0.10191693 -0.049354326 -0.04334035 -0.066821 -0.06544881 0.024062572 0.116826564
-0.040758822 0.0056485725 0.13999777 -0.06888795 0.060635656 -0.06854148 -0.16335557 0.14854781
-0.20141214 -0.16288657 -0.07216433 -0.19221926 -0.032076698 0.12613057 0.11052563 0.05358376
0.12026261 0.013702648 -0.06982423 -0.044784896 0.012138059 0.019756945 0.03198587 -0.08933682
-0.18035537 0.09134031 -0.020947473 -0.05223631 -0.090783276 -0.12980011 0.108726725 0.080331475
-0.08031023 -0.02820374 0.0024746822 0.0934433 -0.02651966 0.07111327 0.030492527 0.030669967
0.11670356 -0.01507096 0.07431456 -0.038333368 0.09203965 0.0038164698 -0.24119519 0.03196197
-0.056451738 -0.06313427 -0.09333482 0.04119357 -0.14396186 0.10339344 0.08263993 -0.006407476
-0.0038598052 -0.11641154 0.010227564 0.08351782 -0.0421012 -0.029357927 0.03169369 0.009937344
0.04584252 -0.09875641 0.04224702 -0.05536728 0.092766955 0.08865732 -0.08584366 0.05440946
0.048405126 0.08747018 -0.00670699 -0.04000275 -0.0741479 0.05549504 -0.01698463 0.0034847914
0.04922392 -0.0320917 -0.053252306 0.02527041 0.10735337 0.048704438 0.046391938 -0.022852542
0.023734089 -0.0037323127 0.027681245 -0.004174789 0.040816598 0.055254158 0.0853982 -0.052341636
-0.019106386 -0.081822544 -0.09060128 -0.040492434 0.0061920146 -0.059324846 0.00612689 0.01397737
-0.018162914 0.051980972 0.012086588 0.014511534 0.048045903 0.06963231 0.05691372 -0.13176593
0.008981775 0.04874251 -0.034537695 -0.16088252 -0.020086572 0.0149948485 -0.04493656 -0.1481413
-0.24098404 0.060416378 0.07020751 0.059707988 -0.035289727 0.051570002 -0.029077446 -0.1375529
0.09669471 -0.01612212 0.11085112 -0.13704267 0.21311623 0.038034067 -0.051298928 0.06895228
0.04192534 0.047646746 0.1457114 -0.07495192 -0.0740148 -0.46403638 0.102069184 -0.033256765
0.19781983 0.16149269 0.17218201 0.21277404 -0.052949958 -0.02020041 0.04294724 0.020754376
0.066248804 -0.040461924 0.04976345 0.3694876 0.18563595 -0.034675643 0.28882536 -0.1032626
-0.01764087 -0.017414827 -0.046974204 -0.017159812 0.066014305 -0.0006438809 0.04972121 0.019609729
0.03405444 0.07045415 -0.10473256 -0.15709013 0.13102631 0.028013337 0.0519664 0.058954522
0.04625659 0.04389267 -0.107914284 0.038476177 0.034423456 0.07420742 -0.0360995 -0.120055445
00000000: 510e 16be af6a b9bd 01ba 56be bb16 b0bd
00000010: 7d13 0c3d e53f a13a 3b90 e0bc b08f d93d
00000020: ef2b cabd 2bf7 86be d6a5 8bbd 9fa2 26be
00000030: 278e 9a3d da08 d63b db1f 803d 6c37 17be
00000040: fc6c 25be cb0f c6be 9466 d23d 951d ab3d
00000050: 492b f73d bc66 123e 9b8f 21bd b640 0c3e
00000060: 1339 ac3d 4a07 7b3d f792 23be 37dc 25be
00000070: e448 42be 9865 ef3d d373 953d 3aec c53d
00000080: 6b39 c43d 99fc 12bd dcb2 803e ef51 6bbe
00000090: 3c58 c7be 1e77 98bd 14bf 403c 9b6a 49be
000000a0: 9986 523e aacc 603e 74cd 303d b8b5 503d
000000b0: bedb aebd 4756 523c 5696 9bbd 1178 93be
000000c0: ef54 263c 1733 12bd 5d71 343e deba 173e
000000d0: 4b10 273e ce6a 173e 4a03 d0bc 7b85 e63d
000000e0: ee3a 3f3e 3e39 8c3d 6f3b fb3c 86a1 0f3d
000000f0: 213b a63d f568 f43d 374d 2ebd 8034 44bd
00000100: d30a b63d d3b9 d0bd c327 4abd a785 31bd
00000110: 73d9 88bd 070a 86bd df1e c53c c442 ef3d
00000120: b9f2 26bd a917 b93b 935b 0f3e 2015 8dbd
00000130: 185d 783d 7a5f 8cbd af46 27be eb1c 183e
00000140: fc3e 4ebe bdcb 26be e4ca 93bd 20d5 44be
00000150: db62 03bd 5f28 013e 435b e23d a57a 5b3d
00000160: 3e4c f63d 1281 603c 0200 8fbd 5e70 37bd
00000170: b6de 463c 51d9 a13c 9e03 033d 39f6 b6bd
00000180: 14af 38be a110 bb3d 099a abbc bef5 55bd
00000190: 95ec b9bd 52ea 04be 1eac de3d d484 a43d
000001a0: b179 a4bd 880b e7bc 472e 223b 335f bf3d
000001b0: c23f d9bc d6a3 913d 77cb f93c 953f fb3c
000001c0: 4702 ef3d 30ec 76bc 3b32 983d 7303 1dbd
000001d0: 497f bc3d bd1d 7a3b dffb 76be 8eea 023d
000001e0: f039 67bd 8a4c 81bd 5326 bfbd 97ba 283d
000001f0: bd6a 13be f1bf d33d 203f a93d cef5 d1bb
00000200: c9f4 7cbb 2c69 eebd 8391 273c 640b ab3d
00000210: 4f72 2cbd 0980 f0bc 3ed1 013d 3ed0 223c
00000220: 5ec5 3b3d cd40 cabd 360b 2d3d cdc8 62bd
00000230: 9afc bd3d f891 b53d cdce afbd 74dc 5e3d
00000240: 7444 463d 9123 b33d 4fc6 dbbb ecd9 23bd
00000250: dbda 97bd c44e 633d 5a23 8bbc 1961 643b
00000260: 059f 493d 9672 03bd 171f 5abd e403 cf3c
00000270: 15dc db3d 4e7e 473d 7905 3e3d 4135 bbbc
00000280: fe6d c23c d199 74bb c7c3 e23c abcc 88bb
00000290: 4e2f 273d 2f52 623d 40e5 ae3d 2f64 56bd
000002a0: ff84 9cbc 9492 a7bd 2a8d b9bd 65db 25bd
000002b0: 62e6 ca3b 9cfe 72bd 14c4 c83b 5701 653c
000002c0: 64ca 94bc 00ea 543d d306 463c c9c1 6d3c
000002d0: c8cb 443d 629b 8e3d 5c1e 693d a6ed 06be
000002e0: 4b28 133c 3aa6 473d 6677 0dbd 63be 24be
000002f0: 988c a4bc f4ac 753c 660f 38bd 5ab2 17be
00000300: 85c4 76be 2a77 773d f4c8 8f3d 5d90 743d
00000310: f68b 10bd 113b 533d d333 eebc abda 0cbe
00000320: e007 c63d 8912 84bc e905 e33d ea54 0cbe
00000330: 243b 5a3e 9cc9 1b3d d31e 52bd da36 8d3d
00000340: e8b9 2b3d 3c29 433d 5f35 153e 6480 99bd
00000350: 1295 97bd 2d96 edbe a609 d13d 3f38 08bd
00000360: 4891 4a3e 575e 253e 7b50 303e 70e1 593e
00000370: 0ee2 58bd 557b a5bc 72e9 2f3d 1505 aa3c
00000380: 74ad 873d 67bb 25bd c2d4 4b3d 7b2d bd3e
00000390: 5a17 3e3e 0c08 0ebd ebe0 933e 587b d3bd
000003a0: 9683 90bc 8aa9 8ebc 0668 40bd bc92 8cbc
000003b0: 8232 873d 1eca 28ba 78a8 4b3d 95a4 a03c
000003c0: ab7c 0b3d 444a 903d 067e d6bd 3cdc 20be
000003d0: c32b 063e 3a7c e53c b8da 543d 4c7a 713d
000003e0: 8d77 3d3d cdc8 333d 2a02 ddbd 3299 1d3d
000003f0: 9cff 0c3d 0ffa 973d 12dd 13bd a1df f5bd

encoding_layer.layer.0.bias f4 [64]
-0.049653612 -0.023532989 0.04782335 0.010552884 -0.056610487 0.0017480088 0.044117182 -0.101286195
-0.022158662 -0.035712883 0.041641116 -0.09946296 0.023560882 0.03446778 -0.097900495 -0.05705788
0.0006243775 0.04364926 0.020984264 -0.09058763 0.019423746 0.080245145 0.05220735 -0.031059885
0.06387147 -0.01152819 -0.011024649 -0.09744078 -0.02190497 0.10534134 0.048482034 0.001997866
0.03681092 -0.004935862 0.08676852 -0.045602832 0.050542634 0.08076914 -0.07411689 -0.084976435
-0.06576426 -0.09031171 0.047313165 0.026912393 0.012445192 -0.009885471 -0.057984807 0.042279385
0.042022627 -0.01095209 -0.04317278 0.12617983 -0.033376392 0.027223086 -0.049182747 -0.043169092
0.0037916373 0.04385555 -0.037107266 0.11803169 0.02803753 0.021097468 0.03545392 -0.017684104
00000000: 9661 4bbd 41c8 c0bc 6be2 433d 01e6 2c3c
00000010: 66e0 67bd 711d e53a 38b4 343d 236f cfbd
00000020: 1586 b5bc ac47 12bd e08f 2a3d 3db3 cbbd
00000030: c002 c13c 162e 0d3d 0e80 c8bd 86b5 69bd
00000040: 44ad 233a 91c9 323d 31e7 ab3c 0286 b9bd
00000050: 8c1e 9f3c 9157 a43d 60d7 553d 4d71 febc
00000060: 0ccf 823d bce0 3cbc bba0 34bc 088f c7bd
00000070: 0d72 b3bc 33bd d73d 1995 463d a1ee 023b
00000080: 0cc7 163d 03bd a1bb b2b3 b13d 09ca 3abd
00000090: cb05 4f3d 4a6a a53d 99ca 97bd 2008 aebd
000000a0: 6aaf 86bd 59f5 b8bd 73cb 413d 6177 dc3c
000000b0: ebe6 4b3c acf6 21bc 7a81 6dbd 262d 2d3d
000000c0: eb1f 2c3d 6570 33bc f1d5 30bd 4935 013e
000000d0: afb5 08bd f302 df3c d973 49bd 13d2 30bd
000000e0: 1e7d 783b e1a1 333d cafd 17bd 99ba f13d
000000f0: f6ae e53c 99d4 ac3c 2138 113d 41de 90bc

relational_layer.layers.0.att_src f4 [1, 1, 64]
-0.026176983 -0.22809856 0.0494536 -0.13694583 -0.23291512 0.426854 0.06150077 1.0478725
0.31728902 -0.17621332 0.12325807 0.020088648 -0.41124842 0.24801339 -0.085820556 -0.36075795
0.24454372 0.79323417 0.68703496 -0.6354916 -0.35758397 -0.53178066 -0.22997974 0.60248005
-0.39021975 0.44822758 0.012213882 -0.96566826 -0.091058925 -0.46575025 -0.06764337 0.05849548
-0.65326476 -0.37305614 -0.57172847 -0.21297443 -0.2868581 0.82786626 -0.18038428 0.1794922
-0.0022381458 0.13050097 -0.60945696 0.44626534 -0.65022814 0.0040038535 0.38573262 -0.25606704
0.40285084 -0.4449529 0.117183246 -0.12351003 0.0052924375 0.23764487 0.20926535 -0.38330427
0.105073884 -0.6689795 -0.8665788 0.18019506 0.84516346 -0.13920833 -0.61817616 0.47482023
00000000: 1d71 d6bc ab92 69be dc8f 4a3d 873b 0cbe
00000010: 4d81 6ebe 9c8c da3e 3be8 7b3d b020 863f
00000020: b573 a23e 4471 34be ba6e fc3d f390 a43c
00000030: 278f d2be 39f7 7d3e b0c2 afbd 44b5 b8be
00000040: ab69 7a3e 6511 4b3f 86e1 2f3f 94af 22bf
00000050: 3f15 b7be c722 08bf cf7f 6bbe 223c 1a3f
00000060: e2ca c7be 167e e53e bc1c 483c 0936 77bf
00000070: 1a7d babd d176 eebe 9b88 8abd f598 6f3d
00000080: 5c3c 27bf 3701 bfbe cc5c 12bf f815 5abe
00000090: 11df 92be 0bef 533f a8b6 38be cecc 373e
000000a0: dbad 12bb 0ca2 053e 5f05 1cbf e47c e43e
000000b0: 5a75 26bf c232 833b bf7e c53e 381b 83be
000000c0: 7742 ce3e ded0 e3be c5fd ef3d d4f2 fcbd
000000d0: 2f6c ad3b 2d59 733e a849 563e 7540 c4be
000000e0: fa30 d73d 3e42 2bbf 1cd8 5dbf 0e85 383e
000000f0: a25c 583f a18c 0ebe cb40 1ebf a31b f33e

relational_layer.layers.0.att_dst f4 [1, 1, 64]
-0.023195487 0.47186622 -0.24636613 0.67061347 -0.24657948 0.8074158 0.5843085 0.6908517
0.8281595 0.7355332 -0.09261859 0.45954248 -0.6707743 -0.39212716 0.79575217 0.10557186
0.6361176 0.15917706 0.41420448 0.052232277 0.16665143 0.8703412 -0.80800706 -0.12048809
-0.23091352 0.2542194 -0.119509324 0.11971824 -0.56888336 -0.8574048 -0.004372943 0.26008675
-0.52160907 -0.08636419 -0.402052 -0.43884665 0.7524574 0.43750483 -0.052918196 0.5155062
0.84905165 0.44768086 -0.45101166 0.006480718 -0.23873693 -0.13469188 1.0354995 -0.37321058
0.5213902 0.011077892 0.11010268 0.21148892 -0.44264868 -0.035047445 -0.2558863 0.6557102
0.31168118 0.32896495 -0.55400145 0.23025472 0.6228146 0.14840347 0.22941653 0.18061167
00000000: 7604 bebc 7398 f13e 6747 7cbe 53ad 2b3f
00000010: 557f 7cbe cdb2 4e3f 3e95 153f a8db 303f
00000020: 4302 543f e74b 3c3f d1ae bdbd 2749 eb3e
00000030: ddb7 2bbf e4c4 c8be 6ab6 4b3f 0f36 d83d
00000040: 9ad8 223f 50ff 223e 9c12 d43e 83f1 553d
00000050: aca6 2a3e aece 5e3f 8dd9 4ebf 76c2 f6bd
00000060: 9874 6cbe 0c29 823e 4ec1 f4bd d62e f53d
00000070: 57a2 11bf e27e 5bbf e84a 8fbb 172a 853e
00000080: 2c88 05bf b5df b0bd c2d9 cdbe 82b0 e0be
00000090: 0ca1 403f a200 e03e c0c0 58bd 37f8 033f
000000a0: 735b 593f 6d36 e53e 00eb e6be 345c d43b
000000b0: 7477 74be abec 09be 3f8b 843f 7515 bfbe
000000c0: d479 053f 0c80 353c 847d e13d 8d90 583e
000000d0: d9a2 e2be e98d 0fbd 8703 83be a0dc 273f
000000e0: ad94 9f3e 186e a83e 0ad3 0dbf e5c7 6b3e
000000f0: c770 1f3f 14f7 173e 2bec 6a3e 44f2 383e

relational_layer.layers.0.bias f4 [64]
-0.1842229 -0.16705917 -0.13076396 -0.038896322 -0.0289148 -0.23980261 -0.1699399 -0.2767488
-0.24040852 -0.20184205 -0.23264329 -0.20057254 -0.15387005 0.13029978 -0.28058085 -0.23333688
-0.24803086 -0.22286913 -0.18561184 -0.054830648 -0.07809539 -0.1974958 -0.2531951 -0.1718093
-0.12053113 -0.23938939 -0.13164824 -0.011649216 -0.24804647 -0.0614175 -0.19711879 -0.17949109
-0.0051893047 -0.023339445 -0.076142274 -0.23597085 -0.17141852 -0.13412601 -0.24961779 -0.24488698
-0.20817068 -0.1323895 -0.17467746 -0.17887436 -0.05185124 0.054876987 -0.23044646 0.046308283
-0.13374907 -0.09311192 0.028919807 -0.2696282 -0.23739783 -0.20859374 -0.26215562 -0.25306574
-0.13703899 -0.31800345 0.043070786 -0.13473684 -0.19786482 -0.24380888 -0.23621546 -0.14191094
00000000: eea4 3cbe 8f11 2bbe fde6 05be c051 1fbd
00000010: bbde ecbc d18e 75be ba04 2ebe 05b2 8dbe
00000020: a72d 76be afaf 4ebe 0b3a 6ebe e362 4dbe
00000030: 1c90 1dbe 4e6d 053e 4ba8 8fbe ddef 6ebe
00000040: cdfb 7dbe ce37 64be 0811 3ebe 1a96 60bd
00000050: 7af0 9fbd 573c 4abe caa2 81be c7ee 2fbe
00000060: 06d9 f6bd 7e22 75be ccce 06be 5adc 3ebc
00000070: e5ff 7dbe eb90 7bbd 82d9 49be 83cc 37be
00000080: 0b0b aabb 5d32 bfbc 7bf0 9bbd 58a2 71be
00000090: 5688 2fbe 5458 09be ce9b 7fbe a7c3 7abe
000000a0: b22a 55be 1d91 07be a6de 32be d72a 37be
000000b0: f761 54bd b1c6 603d 28fa 6bbe c1ad 3d3d
000000c0: 84f5 08be 76b1 bebd 3be9 ec3c b50c 8abe
000000d0: 6b18 73be 9999 55be 4339 86be d591 81be
000000e0: f353 0cbe 59d1 a2be fe6a 303d 74f8 09be
000000f0: 139d 4abe 09a9 79be 77e2 71be 1a51 11be

relational_layer.layers.0.lin_src.weight f4 [64, 64]
0.0022508234 -0.24633956 -0.008535669 -0.09052067 0.00840564 -0.18168345 0.005049878 -0.054455034
0.30364147 -0.28120568 0.10159106 0.12722923 -0.033410087 -0.09900877 -0.2655461 0.08012623
-0.15258217 0.2964205 -0.13356291 0.07260245 0.060901206 -0.075708956 -0.14604072 0.105158284
-0.0062620705 0.10033071 -0.09932765 -0.16348886 -0.14198516 0.15254751 -0.2133789 -0.18989706
0.027804885 0.15731137 0.08963457 -0.021834321 -0.029074641 0.10842342 0.22930305 0.13735488
0.19693077 0.18447301 0.029256625 0.12110825 -0.087979436 0.11135766 -0.10889367 0.11637836
0.063457124 0.02109708 0.0710698 0.029411417 -0.023728551 -0.30971768 -0.06311001 0.10997922
0.1803215 0.3113819 -0.048760563 -0.118445866 0.08736638 0.15174493 -0.33523366 -0.04177921
0.11852054 -0.07908268 -0.11682268 -0.07117494 -0.062080096 -0.1134202 0.05357405 0.17367336
-0.08159145 -0.09231443 0.03541614 0.12120221 0.016954435 0.23996918 -0.5224797 0.014650046
0.11915552 0.28410575 0.17702593 0.16651 -0.1649588 0.0385202 -0.18363594 0.1467282
-0.21951096 -0.017920943 0.18883991 0.08993002 -0.35690543 0.0723195 -0.23034813 -0.035346884
-0.010277969 -0.07512625 0.28448635 0.12862127 -0.035120063 -0.27624834 -0.24315625 -0.1863644
-0.288999 0.21168399 0.13447864 0.051429044 0.045906715 0.055084668 -0.11189522 -0.15733981
-0.3615962 0.05585703 -0.01239025 0.23397925 0.36756724 -0.55133194 -0.04491782 0.051791664
0.22174707 -0.05344908 0.15189587 0.07743275 -0.03189527 0.094086505 -0.091282174 -0.009516151
0.0833639 0.06891086 -0.14067665 -0.14018776 0.12251711 0.055967823 0.16296442 -0.016756734
-0.06708513 0.2527893 -0.1392842 -0.21158212 0.031387888 0.20293605 0.1541965 -0.06380035
0.055551294 0.20823753 0.03436365 -0.13839479 0.21021104 0.27662238 0.10075169 -0.17334934
0.063466325 0.1591784 0.12930931 0.13743405 -0.10533528 -0.1368349 -0.27265513 -0.093402974
-0.046957415 -0.053320285 0.2867767 0.09105485 -0.24928258 0.39384684 0.10499517 -0.21429078
-0.199146 -0.099028215 -0.0118698105 -0.04431248 -0.7314781 -0.06445814 -0.10373078 -0.19525106
-0.036477633 -0.015543802 0.3905389 0.22012044 0.09658677 0.015618625 -0.058392793 -0.073190905
-0.025879052 -0.4008247 -0.4210401 -0.25799164 -0.059927948 -0.033895228 0.067026176 -0.1493739
0.21065457 0.10062059 0.07971687 -0.11208377 -0.23272826 -0.016261542 0.18769938 0.0117757525
-0.03890609 0.062358126 0.21407497 -0.20691915 0.19599232 -0.04449844 -0.044972245 -0.19074303
-0.027545346 0.12618382 0.0076322937 -0.057402916 0.22948243 0.05644305 -0.11391064 -0.25212428
0.064305715 0.05043251 -0.0372764 0.13735515 -0.35500067 0.10904564 0.049155843 -0.3791322
0.051040284 0.22540195 0.06959539 0.14165282 0.073240444 -0.15915075 -0.10505014 0.06855408
-0.112877764 0.020928679 -0.21419817 0.08389697 0.051579725 0.15461446 -0.10964057 -0.26733539
0.1495253 -0.08672889 -0.04838763 0.11915179 -0.27503696 -0.023760213 -0.0066445842 0.18666139
0.04738715 0.18566209 0.14381514 0.19222502 -0.24800402 0.13051544 -0.1600286 -0.28354213
00000000: 8d82 133b 7040 7cbe 31d9 0bbc e762 b9bd
00000010: cfb7 093c 3a0b 3abe 7279 a53b 3e0c 5fbd
00000020: e576 9b3e 31fa 8fbe f90e d03d 6148 023e
00000030: 04d9 08bd 1cc5 cabd a9f5 87be 3919 a43d
00000040: 803e 1cbe 6ec4 973e b7c4 08be 98b0 943d
00000050: 8b73 793d 4c0d 9bbd b38b 15be 3a5d d73d
00000060: 0e32 cdbb 307a cd3d 4c6c cbbd a069 27be
00000070: 8f64 11be 6a35 1c3e 0080 5abe 6074 42be
00000080: 12c7 e33c 3b16 213e 5492 b73d e4dd b2bc
00000090: f12d eebc 190d de3d 6bce 6a3e c2a6 0c3e
000000a0: 38a8 493e 7ee6 3c3e 97ab ef3c 9a07 f83d
000000b0: 902e b4bd 7c0f e43d a503 dfbd c757 ee3d
000000c0: cff5 813d c9d3 ac3c 0b8d 913d 36f0 f03c
000000d0: 6162 c2bc 5193 9ebe d23f 81bd c93c e13d
000000e0: 33a6 383e 736d 9f3e 28b9 47bd bf93 f2bd
000000f0: 25ed b23d 0663 1b3e bfa3 abbe ad20 2bbd
00000100: e6ba f23d 1af6 a1bd bb40 efbd 2bc4 91bd
00000110: b347 7ebd da48 e8bd 7770 5b3d 6ed7 313e
00000120: 6b19 a7bd 590f bdbd 8410 113d dd38 f83d
00000130: 07e4 8a3c 7bba 753e 3bc1 05bf bf06 703c
00000140: cf07 f43d 4f76 913e 4946 353e 9981 2a3e
00000150: f6ea 28be 5bc7 1d3d 0f0b 3cbe eb3f 163e
00000160: 7bc7 60be f1ce 92bc 405f 413e 3b2d b83d
00000170: 4fbc b6be 3f1c 943d 61e0 6bbe e5c7 10bd
00000180: ed64 28bc cbdb 99bd 32a8 913e 4bb5 033e
00000190: 0eda 0fbd 6c70 8dbe f4fd 78be 4fd6 3ebe
000001a0: adf7 93be b0c3 583e c5b4 093e 43a7 523d
000001b0: ae08 3c3d 76a0 613d 5229 e5bd b01d 21be
000001c0: 2323 b9be 57ca 643d 7a00 4bbc 4298 6f3e
000001d0: c631 bc3e 1724 0dbf bffb 37bd 7f23 543d
000001e0: aa11 633e 6ced 5abd 978a 1b3e 1095 9e3d
000001f0: 9da4 02bd 6db0 c03d 26f2 babd a1e9 1bbc
00000200: b1ba aa3d 2321 8d3d 8a0d 10be 618d 0fbe
00000210: 40ea fa3d 843e 653d 25e0 263e 6b45 89bc
00000220: ee63 89bd 996d 813e 84a0 0ebe fca8 58be
00000230: 9690 003d 78ce 4f3e b0e5 1d3e c2a9 82bd
00000240: c189 633d 383c 553e e6c0 0c3d 5db7 0dbe
00000250: 9041 573e 73a1 8d3e e756 ce3d 7d82 31be
00000260: a2fa 813d aaff 223e a969 043e 83bb 0c3e
00000270: 06ba d7bd 731e 0cbe 7499 8bbe 0f4a bfbd
00000280: 6b56 40bd 5f66 5abd 65d4 923e f77a ba3d
00000290: ef43 7fbe 4ba6 c93e b507 d73d 0b6f 5bbe
000002a0: eeec 4bbe 4ecf cabd 9879 42bc 0181 35bd
000002b0: 2642 3bbf a102 84bd ce70 d4bd e5ef 47be
000002c0: 9269 15bd 6eab 7ebc b7f4 c73e 4167 613e
000002d0: 49cf c53d 43e5 7f3c 482d 6fbd 1de5 95bd
000002e0: 4e00 d4bc e538 cdbe 9192 d7be 7b17 84be
000002f0: 0277 75bd b9d5 0abd 0545 893d 79f5 18be
00000300: d5b5 573e 2b12 ce3d 9942 a33d 2d8c e5bd
00000310: 5150 6ebe ed36 85bc 4434 403e 16ef 403c
00000320: fe5b 1fbd 3c6b 7f3d 7836 5b3e 9de2 53be
00000330: 36b2 483e ff43 36bd d134 38bd 2452 43be
00000340: c7a6 e1bc 5536 013e 5218 fa3b 521f 6bbd
00000350: 71fd 6a3e d430 673d fb49 e9bd 6f16 81be
00000360: b7b2 833d 5292 4e3d 23af 18bd d4a6 0c3e
00000370: a6c2 b5be 5253 df3d a357 493d 9e1d c2be
00000380: 9e0f 513d c5cf 663e 0788 8e3d 700d 113e
00000390: 16ff 953d 6af8 22be 8724 d7bd 1566 8c3d
000003a0: 752c e7bd 9f72 ab3c c456 5bbe 2dd2 ab3d
000003b0: 4345 533d 4153 1e3e 3c8b e0bd 2fe0 88be
000003c0: 291d 193e eb9e b1bd 1c32 46bd db05 f43d
000003d0: a5d1 8cbe c7a4 c2bc d0ba d9bb 2a24 3f3e
000003e0: 0719 423d 341e 3e3e 4744 133e a3d6 443e
000003f0: c4f4 7dbe d7a5 053e 8ade 23be 6f2c 91be

relational_layer.layers.0.lin_dst.weight f4 [64, 64]
0.0022508234 -0.24633956 -0.008535669 -0.09052067 0.00840564 -0.18168345 0.005049878 -0.054455034
0.30364147 -0.28120568 0.10159106 0.12722923 -0.033410087 -0.09900877 -0.2655461 0.08012623
-0.15258217 0.2964205 -0.13356291 0.07260245 0.060901206 -0.075708956 -0.14604072 0.105158284
-0.0062620705 0.10033071 -0.09932765 -0.16348886 -0.14198516 0.15254751 -0.2133789 -0.18989706
0.027804885 0.15731137 0.08963457 -0.021834321 -0.029074641 0.10842342 0.22930305 0.13735488
0.19693077 0.18447301 0.029256625 0.12110825 -0.087979436 0.11135766 -0.10889367 0.11637836
0.063457124 0.02109708 0.0710698 0.029411417 -0.023728551 -0.30971768 -0.06311001 0.10997922
0.1803215 0.3113819 -0.048760563 -0.118445866 0.08736638 0.15174493 -0.33523366 -0.04177921
0.11852054 -0.07908268 -0.11682268 -0.07117494 -0.062080096 -0.1134202 0.05357405 0.17367336
-0.08159145 -0.09231443 0.03541614 0.12120221 0.016954435 0.23996918 -0.5224797 0.014650046
0.11915552 0.28410575 0.17702593 0.16651 -0.1649588 0.0385202 -0.18363594 0.1467282
-0.21951096 -0.017920943 0.18883991 0.08993002 -0.35690543 0.0723195 -0.23034813 -0.035346884
-0.010277969 -0.07512625 0.28448635 0.12862127 -0.035120063 -0.27624834 -0.24315625 -0.1863644
-0.288999 0.21168399 0.13447864 0.051429044 0.045906715 0.055084668 -0.11189522 -0.15733981
-0.3615962 0.05585703 -0.01239025 0.23397925 0.36756724 -0.55133194 -0.04491782 0.051791664
0.22174707 -0.05344908 0.15189587 0.07743275 -0.03189527 0.094086505 -0.091282174 -0.009516151
0.0833639 0.06891086 -0.14067665 -0.14018776 0.12251711 0.055967823 0.16296442 -0.016756734
-0.06708513 0.2527893 -0.1392842 -0.21158212 0.031387888 0.20293605 0.1541965 -0.06380035
0.055551294 0.20823753 0.03436365 -0.13839479 0.21021104 0.27662238 0.10075169 -0.17334934
0.063466325 0.1591784 0.12930931 0.13743405 -0.10533528 -0.1368349 -0.27265513 -0.093402974
-0.046957415 -0.053320285 0.2867767 0.09105485 -0.24928258 0.39384684 0.10499517 -0.21429078
-0.199146 -0.099028215 -0.0118698105 -0.04431248 -0.7314781 -0.06445814 -0.10373078 -0.19525106
-0.036477633 -0.015543802 0.3905389 0.22012044 0.09658677 0.015618625 -0.058392793 -0.073190905
-0.025879052 -0.4008247 -0.4210401 -0.25799164 -0.059927948 -0.033895228 0.067026176 -0.1493739
0.21065457 0.10062059 0.07971687 -0.11208377 -0.23272826 -0.016261542 0.18769938 0.0117757525
-0.03890609 0.062358126 0.21407497 -0.20691915 0.19599232 -0.04449844 -0.044972245 -0.19074303
-0.027545346 0.12618382 0.0076322937 -0.057402916 0.22948243 0.05644305 -0.11391064 -0.25212428
0.064305715 0.05043251 -0.0372764 0.13735515 -0.35500067 0.10904564 0.049155843 -0.3791322
0.051040284 0.22540195 0.06959539 0.14165282 0.073240444 -0.15915075 -0.10505014 0.06855408
-0.112877764 0.020928679 -0.21419817 0.08389697 0.051579725 0.15461446 -0.10964057 -0.26733539
0.1495253 -0.08672889 -0.04838763 0.11915179 -0.27503696 -0.023760213 -0.0066445842 0.18666139
0.04738715 0.18566209 0.14381514 0.19222502 -0.24800402 0.13051544 -0.1600286 -0.28354213
00000000: 8d82 133b 7040 7cbe 31d9 0bbc e762 b9bd
00000010: cfb7 093c 3a0b 3abe 7279 a53b 3e0c 5fbd
00000020: e576 9b3e 31fa 8fbe f90e d03d 6148 023e
00000030: 04d9 08bd 1cc5 cabd a9f5 87be 3919 a43d
00000040: 803e 1cbe 6ec4 973e b7c4 08be 98b0 943d
00000050: 8b73 793d 4c0d 9bbd b38b 15be 3a5d d73d
00000060: 0e32 cdbb 307a cd3d 4c6c cbbd a069 27be
00000070: 8f64 11be 6a35 1c3e 0080 5abe 6074 42be
00000080: 12c7 e33c 3b16 213e 5492 b73d e4dd b2bc
00000090: f12d eebc 190d de3d 6bce 6a3e c2a6 0c3e
000000a0: 38a8 493e 7ee6 3c3e 97ab ef3c 9a07 f83d
000000b0: 902e b4bd 7c0f e43d a503 dfbd c757 ee3d
000000c0: cff5 813d c9d3 ac3c 0b8d 913d 36f0 f03c
000000d0: 6162 c2bc 5193 9ebe d23f 81bd c93c e13d
000000e0: 33a6 383e 736d 9f3e 28b9 47bd bf93 f2bd
000000f0: 25ed b23d 0663 1b3e bfa3 abbe ad20 2bbd
00000100: e6ba f23d 1af6 a1bd bb40 efbd 2bc4 91bd
00000110: b347 7ebd da48 e8bd 7770 5b3d 6ed7 313e
00000120: 6b19 a7bd 590f bdbd 8410 113d dd38 f83d
00000130: 07e4 8a3c 7bba 753e 3bc1 05bf bf06 703c
00000140: cf07 f43d 4f76 913e 4946 353e 9981 2a3e
00000150: f6ea 28be 5bc7 1d3d 0f0b 3cbe eb3f 163e
00000160: 7bc7 60be f1ce 92bc 405f 413e 3b2d b83d
00000170: 4fbc b6be 3f1c 943d 61e0 6bbe e5c7 10bd
00000180: ed64 28bc cbdb 99bd 32a8 913e 4bb5 033e
00000190: 0eda 0fbd 6c70 8dbe f4fd 78be 4fd6 3ebe
000001a0: adf7 93be b0c3 583e c5b4 093e 43a7 523d
000001b0: ae08 3c3d 76a0 613d 5229 e5bd b01d 21be
000001c0: 2323 b9be 57ca 643d 7a00 4bbc 4298 6f3e
000001d0: c631 bc3e 1724 0dbf bffb 37bd 7f23 543d
000001e0: aa11 633e 6ced 5abd 978a 1b3e 1095 9e3d
000001f0: 9da4 02bd 6db0 c03d 26f2 babd a1e9 1bbc
00000200: b1ba aa3d 2321 8d3d 8a0d 10be 618d 0fbe
00000210: 40ea fa3d 843e 653d 25e0 263e 6b45 89bc
00000220: ee63 89bd 996d 813e 84a0 0ebe fca8 58be
00000230: 9690 003d 78ce 4f3e b0e5 1d3e c2a9 82bd
00000240: c189 633d 383c 553e e6c0 0c3d 5db7 0dbe
00000250: 9041 573e 73a1 8d3e e756 ce3d 7d82 31be
00000260: a2fa 813d aaff 223e a969 043e 83bb 0c3e
00000270: 06ba d7bd 731e 0cbe 7499 8bbe 0f4a bfbd
00000280: 6b56 40bd 5f66 5abd 65d4 923e f77a ba3d
00000290: ef43 7fbe 4ba6 c93e b507 d73d 0b6f 5bbe
000002a0: eeec 4bbe 4ecf cabd 9879 42bc 0181 35bd
000002b0: 2642 3bbf a102 84bd ce70 d4bd e5ef 47be
000002c0: 9269 15bd 6eab 7ebc b7f4 c73e 4167 613e
000002d0: 49cf c53d 43e5 7f3c 482d 6fbd 1de5 95bd
000002e0: 4e00 d4bc e538 cdbe 9192 d7be 7b17 84be
000002f0: 0277 75bd b9d5 0abd 0545 893d 79f5 18be
00000300: d5b5 573e 2b12 ce3d 9942 a33d 2d8c e5bd
00000310: 5150 6ebe ed36 85bc 4434 403e 16ef 403c
00000320: fe5b 1fbd 3c6b 7f3d 7836 5b3e 9de2 53be
00000330: 36b2 483e ff43 36bd d134 38bd 2452 43be
00000340: c7a6 e1bc 5536 013e 5218 fa3b 521f 6bbd
00000350: 71fd 6a3e d430 673d fb49 e9bd 6f16 81be
00000360: b7b2 833d 5292 4e3d 23af 18bd d4a6 0c3e
00000370: a6c2 b5be 5253 df3d a357 493d 9e1d c2be
00000380: 9e0f 513d c5cf 663e 0788 8e3d 700d 113e
00000390: 16ff 953d 6af8 22be 8724 d7bd 1566 8c3d
000003a0: 752c e7bd 9f72 ab3c c456 5bbe 2dd2 ab3d
000003b0: 4345 533d 4153 1e3e 3c8b e0bd 2fe0 88be
000003c0: 291d 193e eb9e b1bd 1c32 46bd db05 f43d
000003d0: a5d1 8cbe c7a4 c2bc d0ba d9bb 2a24 3f3e
000003e0: 0719 423d 341e 3e3e 4744 133e a3d6 443e
000003f0: c4f4 7dbe d7a5 053e 8ade 23be 6f2c 91be

action_layer.layer1.0.weight f4 [128, 128]
-0.11303587 -0.089583755 -0.1094889 0.015994053 0.06715635 0.124080114 0.022077115 0.14265789
-0.058544464 0.21160403 0.2103331 -0.094997056 -0.08748341 -0.103539735 0.1255914 0.06364198
0.07156711 -0.06326645 0.070152506 -0.01602164 -0.05186321 -0.21231043 -0.0608176 0.073369674
0.006197382 -0.079487555 0.023547532 0.03344366 0.05460177 0.02038624 0.0027415303 0.00458503
-0.15729865 -0.03745602 0.0860476 -0.11939923 0.0056777955 -0.1839431 0.002608932 0.15046358
0.103412695 -0.1584432 0.07615619 -0.02319458 -0.046188325 0.026281511 -0.003646897 0.051951002
-0.0042450256 0.0046898914 -0.16333659 0.13306642 -0.11434871 -0.014417686 0.04289522 0.06312355
-0.111018166 0.078506544 -0.10519187 0.0028744345 0.053318042 0.060455576 0.0063412893 -0.0073988615
0.09910282 -0.013154678 -0.125739 -0.042545583 -0.003592031 -0.0013892961 -0.017315375 -0.03485211
-0.027561035 -0.065923676 -0.021309964 -0.12742154 0.062048975 0.048566744 0.05105444 -0.05945523
0.12678201 0.076694794 0.027032683 0.03245652 -0.051327154 0.049596116 0.1250245 -0.30701873
-0.15907682 -0.038030364 -0.056504983 0.06671027 0.020245193 -0.015868533 0.08131599 0.00042581803
0.07431018 0.087515205 0.092733696 -0.05341165 -0.062535115 0.058043238 0.23211908 -0.06034795
-0.08825082 -0.09966679 -0.17936663 -0.090361394 -0.031842 0.057794794 0.007281658 0.029939683
-0.02771192 -0.50840604 0.050837904 0.092127524 -0.048711814 0.050921455 -0.03757283 0.1038663
-0.20753352 -0.009006819 -0.02825474 -0.034119096 0.016705155 0.027442418 0.041394573 -0.053571012
0.15513922 0.031196577 0.065280005 -0.031543046 -0.09984881 -0.08455421 -0.12921904 0.113501325
-0.10210597 -0.091158755 -0.16197425 -0.27974457 0.15841135 -0.15795629 -0.09528244 -0.1059739
-0.13672358 -0.22494514 0.12177458 -0.06816121 -0.03869437 0.08728488 -0.13851035 -0.047494188
-0.17460957 -0.1672566 0.019325303 -0.19544142 -0.04179968 0.14478405 0.044919837 -0.34801117
-0.1764432 -0.10510945 -0.12067933 -0.5026729 -0.0692817 -0.4081956 -0.10031773 -0.21454306
0.10971224 0.1125602 -0.1107968 -0.23939067 -0.10858356 0.1408113 -0.029957546 -0.054158803
0.017162584 0.19233581 0.050909072 0.053654578 0.12346612 0.055510666 -0.27655154 -0.2050013
-0.15018587 -0.058166105 0.04237406 0.018542754 -0.16046788 -0.070526116 0.086520456 -0.2456588
0.094909854 0.07202387 0.04519231 -0.066264234 -0.20421134 -0.07818164 -0.049354624 0.07058477
0.0917284 0.09806737 0.02638372 -0.1298803 0.12911913 -0.12349934 -0.081910774 0.15430151
-0.06473041 -0.08048283 0.20645072 -0.0082989475 -0.00316189 0.12578884 0.16603944 0.08368084
-0.03427861 -0.019945506 -0.06201578 -0.24150245 0.09299645 -0.015777461 -0.18620284 -0.089888155
-0.2546288 0.029990088 -0.34188145 -0.031489212 -0.15124169 -0.3252969 -0.10620116 -0.31365916
0.14231303 -0.066838786 -0.17629325 -0.18722647 -0.09008358 -0.11574164 0.006446125 -0.3302584
-0.24762213 0.023875853 -0.07199929 0.18377689 0.059671696 0.06964071 0.05774454 0.08660418
-0.28833592 -0.09837244 0.09687276 0.06585984 -0.16780409 -0.13574807 0.057766136 0.12557763
00000000: 5a7f e7bd b077 b7bd b73b e0bd f605 833c
00000010: 4589 893d b71d fe3d 11db b43c e914 123e
00000020: 52cc 6fbd baae 583e 8f61 573e d18d c2bd
00000030: 812a b3bd a40c d4bd 089b 003e ba56 823d
00000040: c791 923d d791 81bd 1eac 8f3d d03f 83bc
00000050: 846e 54bd e867 59be e01b 79bd d742 963d
00000060: 6913 cb3b 5fca a2bd c1e6 c03c 38fc 083d
00000070: 1ba6 5f3d 0b01 a73c 3fab 333b 053e 963b
00000080: e612 21be 7c6b 19bd b939 b03d 9587 f4bd
00000090: cd0c ba3b 945b 3cbe 9efa 2a3b 2013 1a3e
000000a0: 09ca d33d ef3e 22be c7f7 9b3d 8f02 bebc
000000b0: f82f 3dbd 534c d73c c700 6fbb 93ca 543d
000000c0: db19 8bbb a9ad 993b b541 27be 9042 083e
000000d0: a82f eabd 2838 6cbc e6b2 2f3d eb46 813d
000000e0: 7e5d e3bd 0ac8 a03d d66e d7bd 0261 3c3b
000000f0: 0564 5a3d 44a0 773d 97ca cf3b 2672 f2bb
00000100: 6bf6 ca3d b886 57bc b9c1 00be 4744 2ebd
00000110: 4868 6bbb 0b19 b6ba f9d8 8dbc 16c1 0ebd
00000120: aec7 e1bc fe02 87bd 3c92 aebc cb7a 02be
00000130: 1127 7e3d eced 463d 761e 513d 5487 73bd
00000140: 25d3 013e 2912 9d3d a573 dd3c 21f1 043d
00000150: 6c3c 52bd 4c25 4b3d 6c06 003e 8f31 9dbe
00000160: 09e5 22be bac5 1bbd c571 67bd 659f 883d
00000170: 3fd9 a53c bafe 81bc ff88 a63d 5440 df39
00000180: f02f 983d 2c3b b33d 2aeb bd3d 2dc6 5abd
00000190: 6912 80bd bfbe 6d3d a0b0 6d3e 692f 77bd
000001a0: d9bc b4bd 1a1e ccbd e3ab 37be 650f b9bd
000001b0: c26c 02bd 3cba 6c3d f99a ee3b 1144 f53c
000001c0: 1c04 e3bc e626 02bf 683b 503d 5bad bc3d
000001d0: 0a86 47bd 0493 503d f8e5 19bd dbb7 d43d
000001e0: ab83 54be 5691 13bc 7c76 e7bc 77c0 0bbd
000001f0: 40d9 883c ecce e03c 5b8d 293d 476d 5bbd
00000200: d1dc 1e3e f78f ff3c 86b1 853d 4833 01bd
00000210: 887d ccbd c22a adbd ff51 04be 6273 e83d
00000220: ef1c d1bd 71b1 babd 94dc 25be ae3a 8fbe
00000230: 9636 223e 4bbf 21be 7123 c3bd d808 d9bd
00000240: 4401 0cbe 0558 66be f364 f93d 1b98 8bbd
00000250: fd7d 1ebd 6ac2 b23d a8d5 0dbe 4489 42bd
00000260: dacc 32be 5045 2bbe 1950 9e3c cc21 48be
00000270: 2436 2bbd 4542 143e ddfd 373d 852e b2be
00000280: 87ad 34be a043 d7bd b926 f7bd 2caf 00bf
00000290: 90e3 8dbd 04ff d0be 6273 cdbd 2db1 5bbe
000002a0: d0b0 e03d f685 e63d 6fe9 e2bd d422 75be
000002b0: 0f61 debd d630 103e 8769 f5bc 9fd5 5dbd
000002c0: 8c98 8c3c aef3 443e 0886 503d e7c4 5b3d
000002d0: cedb fc3d 275f 633d 2a98 8dbe dceb 51be
000002e0: 53ca 19be 953f 6ebd 6c90 2d3d f9e6 973c
000002f0: b151 24be ff6f 90bd a331 b13d fb8d 7bbe
00000300: 1960 c23d 4081 933d 921b 393d 8bb5 87bd
00000310: c71c 51be b21d a0bd 1328 4abd bf8e 903d
00000320: 19dc bb3d 8cd7 c83d ac22 d83c 57ff 04be
00000330: ce37 043e 39ed fcbd d6c0 a7bd 3701 1e3e
00000340: 6191 84bd 2fd4 a4bd d167 533e 4ff8 07bc
00000350: b637 4fbb cace 003e 3e06 2a3e dc60 ab3d
00000360: ba67 0cbd c264 a3bc 4204 7ebd 6b4c 77be
00000370: ec74 be3d bc3f 81bc f5ab 3ebe 4817 b8bd
00000380: b55e 82be c6ad f53c 160b afbe d5fa 00bd
00000390: 1adf 1abe 518d a6be fe7f d9bd ef97 a0be
000003a0: 82ba 113e c6e2 88bd 3886 34be 4cb8 3fbe
000003b0: bd7d b8bd f409 edbd 043a d33b a117 a9be
000003c0: a890 7dbe 4b97 c33c 5d74 93bd 0230 3c3e
000003d0: 4f6a 743d ca9f 8e3d 8a85 6c3d 885d b13d
000003e0: c4a0 93be 7d77 c9bd 3a65 c63d 86e1 863d
000003f0: d6d4 2bbe 8b01 0bbe 2f9c 6c3d 6c97 003e

action_layer.layer1.0.bias f4 [128]
0.09861106 -0.018006787 -0.061888434 -0.10525316 0.011170552 -0.019399734 -0.058995526 -0.06623514
0.0076385997 0.046392716 -0.07646124 -0.065756164 -0.13178186 -0.04934897 -0.11770722 -0.042451717
-0.05291994 0.0018560198 -0.07089887 -0.04455315 -0.058754623 0.04632346 -0.109842554 -0.1432465
-0.08315278 -0.07194802 -0.023967097 -0.103776954 -0.09520188 -0.008408758 0.07780686 -0.033481084
-0.15993603 -0.034122717 -0.087070845 -0.036652286 -0.024626885 -0.03546155 -0.028345728 -0.17547546
0.05680244 -0.04607469 -0.055041026 -0.084191464 0.07915124 0.018113077 -0.01863917 -0.0071739685
0.03679725 0.01386897 -0.1237047 0.014893392 -0.20411348 -0.06366122 0.0077049076 -0.10925595
-0.033273555 -0.028483544 -0.04870105 -0.11513073 -0.07212177 -0.13198335 -0.06909806 -0.03940146
-0.029776074 -0.12359996 0.037785035 -0.21505982 -0.16388857 -0.07951352 -0.12214982 0.005745023
0.08682884 -0.03819063 -0.040423576 0.024744762 -0.027923916 -0.12510088 -0.05340816 -0.0933906
-0.025540195 -0.102943905 -0.03437439 0.12178902 -0.107267775 -0.092040144 -0.041755144 0.12631519
-0.021831235 -0.10794963 -0.031574376 -0.11882897 -0.17846183 -0.040661197 0.0133849345 -0.17462781
0.054413445 -0.0087429285 -0.1221482 -0.105085425 -0.16065203 -0.083767466 -0.0132275885 0.0060955635
-0.048380572 -0.03671781 0.053663526 0.020362223 -0.021533549 0.022120602 -0.056788154 -0.037718564
-0.07632437 -0.028569257 -0.08425157 -0.20108695 0.062029134 -0.11948429 -0.11717409 0.11182465
-0.08841079 0.046356417 0.026266705 -0.012618 -0.08142059 -0.12660085 -0.008303095 0.033942983
00000000: 98f4 c93d f882 93bc ba7e 7dbd f88e d7bd
00000010: b104 373c 31ec 9ebc 4ba5 71bd 4aa6 87bd
00000020: 384d fa3b 4a06 3e3d b697 9cbd 2bab 86bd
00000030: d3f1 06be 2522 4abd 7c10 f1bd dae1 2dbd
00000040: 94c2 58bd b145 f33a 6d33 91bd 5d7d 36bd
00000050: b0a8 70bd abbd 3d3d 22f5 e0bd 36af 12be
00000060: 014c aabd 7c59 93bd a556 c4bc 0389 d4bd
00000070: 34f9 c2bd e3c4 09bc 3459 9f3d 7623 09bd
00000080: 45c6 23be 43c4 0bbd 3352 b2bd b520 16bd
00000090: 52be c9bc 2140 11bd 4d35 e8bc d7af 33be
000000a0: ada9 683d d0b8 3cbd b372 61bd 936c acbd
000000b0: 0c1a a23d e061 943c 2cb1 98bc 9c13 ebbb
000000c0: b7b8 163d ad3a 633c e458 fdbd 6a03 743c
000000d0: 2003 51be d060 82bd 7379 fc3b 95c1 dfbd
000000e0: da49 08bd 5256 e9bc c17a 47bd a9c9 ebbd
000000f0: 94b4 93bd a526 07be 4983 8dbd 6d63 21bd
00000100: f4ec f3bc fa21 fdbd 7bc4 1a3d a438 5cbe
00000110: 68d2 27be fcd7 a2bd af29 fabd bf40 bc3b
00000120: 52d3 b13d c76d 1cbd 3193 25bd 87b5 ca3c
00000130: b2c0 e4bc 721a 00be 84c2 5abd 9243 bfbd
00000140: ac39 d1bc 41d4 d2bd 29cc 0cbd 866c f93d
00000150: 35af dbbd 8b7f bcbd 7107 2bbd c558 013e
00000160: 6bd7 b2bc b214 ddbd 2254 01bd 9a5c f3bd
00000170: b3be 36be 5b8c 26bd 7c4c 5b3c a2d1 32be
00000180: a2e0 5e3d 803e 0fbc d628 fabd 0737 d7bd
00000190: f781 24be 478e abbd 87b8 58bc 4bbd c73b
000001a0: b52a 46bd 6a65 16bd 49ce 5b3d adce a63c
000001b0: 2067 b0bc 4436 b53c b29a 68bd c87e 1abd
000001c0: f44f 9cbd 130a eabc 168c acbd bde9 4dbe
000001d0: 4312 7e3d 2eb4 f4bd f8f8 efbd 5204 e53d
000001e0: b710 b5bd 3ae0 3d3d 462d d73c babb 4ebc
000001f0: d7bf a6bd a7a3 01be b409 08bc cc07 0b3d

action_layer.layer1.1.weight f4 [2, 128]
-0.025866749 0.37249696 0.3486549 -0.17592639 -0.28329873 -0.104307555 0.06223305 0.22970931
0.015629793 -0.034569547 0.31051135 0.04304263 -0.15460478 -0.14906968 0.032128293 0.09332185
-0.27882087 -0.11558024 0.090950824 0.07843972 0.05461033 0.019542828 -0.32954904 0.20534904
0.27217263 -0.28489673 -0.05497569 -0.08688035 0.23741029 -0.08857234 -0.011362418 0.05275847
0.099692844 0.07843874 -0.09427612 -0.037048932 0.024015348 -0.19298102 -0.062280692 0.12911983
-0.043784242 0.0010528638 0.017010495 0.10890411 0.05536087 -0.14084858 -0.10954779 0.09455194
0.0151730515 -0.16622971 0.18583848 -0.062512904 -0.11410576 -0.066713534 0.24423937 -0.22800857
0.0017250357 -0.25493038 -0.1884924 0.28949666 0.023709513 0.06658744 0.022065526 0.033827946
-0.10879738 0.2436995 0.00042791464 0.16592373 -0.05109639 0.036407005 -0.17525418 0.041452996
-0.047307122 0.039734405 -0.23971404 -0.10976651 0.12746103 -0.07612333 -0.19856508 0.22321063
-0.2209176 0.015720854 -0.07740431 0.034699425 0.39162177 -0.24776521 0.3155563 0.035410035
-0.12488642 -0.1362442 -0.1434295 0.32693252 -0.12465922 -0.017076993 0.075051494 0.33837193
-0.074381255 0.17197178 -0.56257474 0.19317071 0.04473181 -0.42901605 0.003915417 -0.09636828
-0.024388991 0.08926544 0.04894659 0.019010108 -0.049777415 -0.13012601 0.039033107 0.054597933
0.25997567 -0.23027879 0.052372474 0.42698574 0.12089324 0.42782634 -0.1309519 -0.04052431
0.12351843 0.035563912 -0.10873434 -0.027571816 -0.114234634 0.07785374 -0.1257313 -0.047909804
0.041396648 -0.1182848 -0.1278775 -0.31104317 -0.06698897 -0.061147742 0.14346768 -0.2926069
0.067717865 -0.10748523 -0.076210976 -0.042794686 0.046345912 -0.07334344 0.06987128 0.044084843
0.096382916 -0.06598061 0.21751949 -0.06851687 0.083421305 0.04580108 0.030562505 0.0131651135
-0.11906068 0.037553903 0.03797935 -0.27201316 0.09509886 0.31774756 0.05948237 -0.005226393
-0.17143267 0.20919088 0.10387233 0.3187076 -0.20248115 0.26982662 -0.040497012 -0.12903991
0.013894322 0.05644153 -0.0498354 0.018533962 -0.0027656013 0.53624433 -0.041254517 0.18200582
0.057075445 0.3212599 -0.07569141 -0.04257235 -0.10489921 -0.090359844 0.09888848 0.05841439
0.25436977 0.0024541186 -0.21705617 -0.12197299 0.31616184 0.022867944 -0.19586101 -0.06129135
-0.019854216 -0.17900923 0.030021999 -0.15014203 -0.12991993 0.07848876 0.008710248 -0.028373376
0.04282972 -0.047374245 0.06516015 0.07962111 -0.073590495 -0.012930086 -0.15674584 -0.020726975
0.085579254 -0.08044817 -0.01629283 0.032431234 0.13014938 0.007834449 0.19325967 0.03883034
0.08526233 -0.0153838005 -0.046353254 0.03030828 -0.24795401 -0.10276812 -0.047649678 -0.15554157
-0.041143466 -0.011698186 0.15672481 0.26103848 -0.05647137 -0.14449793 0.16256978 -0.060257223
-0.31265113 -0.26318392 0.048442353 -0.05505322 -0.051176473 0.019740822 -0.030693773 -0.034077194
-0.013056803 0.13122234 -0.09059652 -0.16025859 0.07968001 -0.042126007 -0.0033935388 0.045473736
-0.08411572 0.0313732 -0.13037424 0.068971775 -0.035569333 0.0024111692 0.09777182 -9.158042e-05
00000000: 81e6 d3bc ecb7 be3e e582 b23e 0c26 34be
00000010: 880c 91be 339f d5bd 15e8 7e3d eb38 6b3e
00000020: 0d0a 803c cc98 0dbd 58fb 9e3e 784d 303d
00000030: b750 1ebe b9a5 18be f598 033d 871f bf3d
00000040: 9cc1 8ebe 55b5 ecbd 6d44 ba3d 01a5 a03d
00000050: 15af 5f3d 4818 a03c a7ba a8be 0547 523e
00000060: 365a 8b3e fcdd 91be 302e 61bd 53ee b1bd
00000070: af1b 733e 6a65 b5bd 6f29 3abc 4419 583d
00000080: c32b cc3d 7da4 a03d d713 c1bd 9fc0 17bd
00000090: d6bb c43c d19c 45be 0a1a 7fbd fd37 043e
000000a0: 1b57 33bd 3f00 8a3a 9859 8b3c 1e09 df3d
000000b0: 14c2 623d 9c3a 10be 975a e0bd 73a4 c13d
000000c0: 6498 783c 1f38 2abe 714c 3e3e c406 80bd
000000d0: 48b0 e9bd 1ba1 88bd e319 7a3e 147b 69be
000000e0: 981a e23a 3c86 82be 2704 41be e838 943e
000000f0: 743a c23c ff5e 883d c3c2 b43c 2c8f 0a3d
00000100: 29d1 debd 5d8c 793e bb59 e039 e9e7 293e
00000110: 734a 51bd 831f 153d d575 33be 9eca 293d
00000120: 1dc5 41bd 8bc0 223d 9977 75be 44cd e0bd
00000130: 2585 023e 8ce6 9bbd a554 4bbe 5491 643e
00000140: 3938 62be 05c9 803c 2786 9ebd fc20 0e3d
00000150: a682 c83e 2ab6 7dbe 9890 a13e 1d0a 113d
00000160: 74c4 ffbd 9983 0bbe 2fdf 12be b363 a73e
00000170: 554d ffbd 0de5 8bbc 99b4 993d 163f ad3e
00000180: 3355 98bd 5f19 303e e604 10bf 8bce 453e
00000190: b438 373d fea7 dbbe e64c 803b bc5c c5bd
000001a0: 6ccb c7bc cdd0 b63d 387c 483d 16bb 9b3c
000001b0: 67e3 4bbd c13f 05be 2ee1 1f3d 15a2 5f3d
000001c0: 881b 853e 34ce 6bbe 8584 563d e09d da3e
000001d0: e096 f73d 0e0c db3e 4118 06be d2fc 25bd
000001e0: 3bf7 fc3d 77ab 113d 1cb0 debd 4ade e1bc
000001f0: d9f3 e9bd c871 9f3d b5bf 00be 123d 44bd
00000200: 888f 293d 4d3f f2bd 52f2 02be 0d41 9fbe
00000210: 8331 89bd 0e76 7abd 31e9 123e 92d0 95be
00000220: aaaf 8a3d 3721 dcbd 8014 9cbd 7b49 2fbd
00000230: 36d5 3d3d 1635 96bd ac18 8f3d 4f92 343d
00000240: 6864 c53d d820 87bd 6ebd 5e3e 9352 8cbd
00000250: cad8 aa3d ea99 3b3d 385e fa3c 7db2 573c
00000260: 16d6 f3bd 1fd2 193d 3c90 1b3d 4f45 8bbe
00000270: 31c3 c23d cfaf a23e c9a3 733d 2a42 abbb
00000280: 0c8c 2fbe 2236 563e 04bb d43d a42d a33e
00000290: 3857 4fbe b726 8a3e 32e0 25bd 0a23 04be
000002a0: 03a5 633c 3c2f 673d 3420 4cbd 89d4 973c
000002b0: 173f 35bb 4f47 093f 7ffa 28bd bc5f 3a3e
000002c0: f1c7 693d 2d7c a43e 1904 9bbd 5860 2ebd
000002d0: 66d5 d6bd 950e b9bd 0b86 ca3d ed43 6f3d
000002e0: c13c 823e 47d5 203b f943 5ebe facc f9bd
000002f0: f7df a13e 8e55 bb3c ca8f 48be a30c 7bbd
00000300: 4fa5 a2bc 324e 37be b2f0 f53c d5be 19be
00000310: bb09 05be b7be a03d 6eb5 0e3c 486f e8bc
00000320: 376e 2f3d 7f0b 42bd af72 853d 6410 a33d
00000330: 9db6 96bd b6d8 53bc fb81 20be 9ecb a9bc
00000340: 2d44 af3d 03c2 a4bd 8b78 85bc 9dd6 043d
00000350: e145 053e 105c 003c dde5 453e 900c 1f3d
00000360: 049e ae3d 560c 7cbc e9dc 3dbd 1249 f83c
00000370: a8e7 7dbe 1878 d2bd 4f2c 43bd 4a46 1fbe
00000380: 0d86 28bd c0a9 3fbc 787c 203e d6a6 853e
00000390: 864e 67bd 44f7 13be b178 263e 47d0 76bd
000003a0: cf13 a0be 0bc0 86be 7d6b 463d 7c7f 61bd
000003b0: 6c9e 51bd 81b7 a13c 8271 fbbc 8794 0bbd
000003c0: 33ec 55bc 265f 063e ab8a b9bd d41a 24be
000003d0: 462f a33d 528c 2cbd 2266 5ebb ab42 3a3d
000003e0: dd44 acbd 2f81 003d d380 05be 1341 8d3d
000003f0: 26b1 11bd b504 1e3b 983c c83d dd0e c0b8

action_layer.layer1.1.bias f4 [2]
-0.006407694 -0.018206108
00000000: a2f7 d1bb fa24 95bc

encoding_layer.layer.0.weight f4 [64, 187]
-0.11499962 0.0128087755 0.0489533 0.06129107 0.02433706 -0.084604576 -0.07404029 -0.16489483
-0.3584743 -0.42942345 -0.10779819 -0.058389578 0.08341506 0.09261497 0.11055331 -0.08020645
-0.044666644 -0.09848701 0.015401677 0.08781329 -0.1079471 -0.04810103 -0.07746483 -0.08513779
-0.004499852 -0.16585647 0.09025507 0.09039437 0.2619714 -0.10173157 0.008327425 0.15793462
0.017813727 -0.087234855 0.11015886 -0.03360983 0.14508754 -0.06861643 -0.07756167 0.015231024
-0.22820738 -0.19325812 -0.0049932497 0.048490502 0.009933007 0.012763186 -0.19162507 -0.03477637
0.09672584 -0.053030666 -0.13683715 -0.06905104 -0.06098723 0.02884257 0.07575515 0.09944391
0.12842415 -0.18049304 -0.0009199164 -0.0383607 0.06922558 0.10545089 -0.19162719 0.003447392
-0.057754636 -0.04667912 0.012619894 -0.20698684 0.03353564 0.023773694 -0.03472978 -0.09523313
-0.0698883 0.13368359 0.13293974 -0.069103435 0.0052588964 -0.11807607 0.05089029 0.2186753
0.015022173 -0.060825393 -0.14828122 0.07809866 0.17554054 0.019635657 0.039480362 -0.14510795
-0.0062232665 0.18310623 -0.07809721 -0.00930114 -0.09711312 -0.03370192 0.07201308 -0.06848172
-0.01231697 -0.070319265 -0.034229066 0.024382427 -0.038243417 0.041720793 0.036533866 -0.06573781
0.071205996 -0.0073950132 0.10520473 0.10621729 -0.10731941 0.17806001 0.017471805 0.056618992
0.08835337 -0.11229589 0.175321 -0.03777091 0.033439383 -0.06298173 -0.0301633 -0.0049124854
-0.08116222 -0.007345223 -0.0034302888 -0.06532637 0.016464433 -0.10055785 0.024898026 0.06213745
0.0039841244 0.040401526 0.020845328 -0.0018253772 0.08020975 0.0033403826 0.003948499 -0.034132905
0.06356666 0.099416085 -0.037752043 0.0010617216 0.018637184 -0.06826938 0.10561482 -0.020222994
0.012694677 -0.044725582 -0.035537913 -0.029325416 -0.0009985135 0.07280788 0.047245175 -0.020908058
0.013864048 0.04742067 0.017466346 0.02450072 0.04111396 0.037585136 -0.0018676727 0.003380795
0.017913988 -0.0050200233 0.02261641 -0.0019454901 0.050085306 0.066774294 -0.0063405493 0.0054891817
0.09591336 0.022100205 0.018251376 0.008811602 0.081026554 0.12178535 0.045275595 0.09861534
0.0025783237 0.074574776 0.007577773 -0.021336995 0.03016483 0.08636925 0.082228675 -0.3856625
-0.015668903 0.020447364 -0.037069354 0.035862274 0.07004289 -0.02861607 -0.0015998178 -0.022976365
0.09573285 0.065014355 0.085066736 0.16116865 0.014236314 -0.06032645 -0.026528385 0.10580066
0.05716759 -0.29040104 -0.48793858 -0.11971783 -0.712408 0.16510463 0.010080483 -0.0952722
-0.04614759 -0.12730478 -0.040340398 0.024731832 -0.04782273 0.021776784 0.22073308 -0.03794026
-0.048540935 0.027103575 -0.0023634466 -0.03660516 -0.087646335 -0.08245009 -0.08474902 0.00183993
0.09929153 -0.031616345 -0.12600161 -0.17493811 0.1821553 -0.058095578 -0.024128908 0.007639214
-0.2017654 0.22429599 0.018374307 0.047278024 -0.054740835 0.053671166 0.086219326 -0.047212556
-0.1459588 -0.15223856 -0.13370198 -0.081292115 -0.27969941 -0.01463717 -0.13355476 0.07285523
0.009942956 -0.23258291 -0.2110641 0.077464804 0.20339528 0.19673942 -0.04467006 -0.0058400654
00000000: ec84 ebbd e6db 513c 4183 483d 580c 7b3d
00000010: 845e c73c 2a45 adbd 70a2 97bd 31da 28be
00000020: f289 b7be 64dd dbbe 4cc5 dcbd e929 6fbd
00000030: 84d5 aa3d ebac bd3d c669 e23d 4743 a4bd
00000040: 5ff4 36bd 8fb3 c9bd 5157 7c3c 74d7 b33d
00000050: 5f13 ddbd 9605 45bd e1a5 9ebd b95c aebd
00000060: 7f73 93bb 47d6 29be a6d7 b83d af20 b93d
00000070: 1e21 863e a458 d0bd c16f 083c 9db9 213e
00000080: 18ee 913c 30a8 b2bd f89a e13d 76aa 09bd
00000090: d491 143e c586 8cbd a7d8 9ebd 8b8b 793c
000000a0: 32af 69be 75e5 45be 6a9e a3bb fa9d 463d
000000b0: 0dbe 223c af1c 513c 5d39 44be ab71 0ebd
000000c0: 3218 c63d af36 59bd 0a1f 0cbe a26a 8dbd
000000d0: bfcd 79bd 4147 ec3c 8425 9b3d 40a9 cb3d
000000e0: 9f81 033e 2bd3 38be 8b26 71ba 1c20 1dbd
000000f0: 24c6 8d3d a3f6 d73d eb39 44be a4ed 613b
00000100: 2090 6cbd 9b32 3fbd acc3 4e3c 5cf4 53be
00000110: ab5c 093d 0dc1 c23c d040 0ebd 9609 c3bd
00000120: 9921 8fbd 5ae4 083e 5b21 083e 1a86 8dbd
00000130: d252 ac3b ded1 f1bd 5672 503d 6bec 5f3e
00000140: 8f1f 763c 0c24 79bd 08d7 17be 31f2 9f3d
00000150: e6c0 333e f5da a03c 29b6 213d 2e97 14be
00000160: 8bec cbbb 3380 3b3e 6ef1 9fbd cf63 18bc
00000170: 3ee3 c6bd 060b 0abd 987b 933d 2540 8cbd
00000180: 1ecd 49bc 8c03 90bd c733 0cbd a8bd c73c
00000190: 21a5 1cbd 6ce3 2a3d 89a4 153d 8ca1 86bd
000001a0: 73d4 913d de51 f2bb 9475 d73d 7388 d93d
000001b0: 47ca dbbd 5d55 363e 0821 8f3c 51e9 673d
000001c0: 9df2 b43d 63fb e5bd 5987 333e abb5 1abd
000001d0: bcf7 083d 91fc 80bd 0619 f7bc eaf8 a0bb
000001e0: 6138 a6bd 32b0 f0bb b2ce 60bb d5c9 85bd
000001f0: 6be0 863c 46f1 cdbd f2f6 cb3c d783 7e3d
00000200: 428d 823b 127c 253d d2c3 aa3c 7f41 efba
00000210: 0245 a43d 52ea 5a3b 6962 813b f2ce 0bbd
00000220: 3d2f 823d a99a cb3d e3a1 1abd 7729 8b3a
00000230: 02ad 983c d1d0 8bbd 954c d83d b1aa a5bc
00000240: 56fd 4f3c 2c32 37bd 3490 11bd db3b f0bc
00000250: 8ee0 82ba 4c1c 953d 2884 413d 6047 abbc
00000260: 0826 633c 2d3c 423d 9515 8f3c bcb5 c83c
00000270: 1d67 283d dff2 193d b2cc f4ba 5490 5d3b
00000280: 5bc0 923c 027f a4bb 0d46 b93c d1ff feba
00000290: 4026 4d3d f6c0 883d 62c4 cfbb 98de b33b
000002a0: 396e c43d 7d0b b53c e983 953c 8a5e 103c
000002b0: 40f1 a53d 996a f93d e772 393d d7f6 c93d
000002c0: 18f9 283b a9ba 983d f84e f83b ecca aebc
000002d0: 3c1c f73c 5de2 b03d 8267 a83d 8e75 c5be
000002e0: 125c 80bc 3b81 a73c 09d6 17bd 52e4 123d
000002f0: a672 8f3d 406c eabc fab0 d1ba ee38 bcbc
00000300: 960f c43d 3f26 853d 7837 ae3d 6509 253e
00000310: 6e3f 693c de18 77bd 0e52 d9bc 04ae d83d
00000320: 9028 6a3d 72af 94be 16d3 f9be 9f2e f5bd
00000330: 5f60 36bf 3011 293e 9c28 253c 121e c3bd
00000340: 4105 3dbd 2f5c 02be f93b 25bd 699a ca3c
00000350: c4e1 43bd 3a65 b23c da07 623e 3f67 1bbd
00000360: dcd2 46bd 5108 de3c 0ee4 1abb 4bef 15bd
00000370: ec7f b3bd 98db a8bd e590 adbd ce29 f13a
00000380: 5c59 cb3d 2480 01bd 9106 01be fa22 33be
00000390: eb86 3a3e a1f5 6dbd fda9 c5bc 5f52 fa3b
000003a0: 979b 4ebe d9ad 653e b785 963c 9aa6 413d
000003b0: ed37 60bd 4cd6 5b3d c293 b03d f461 41bd
000003c0: 3976 15be 6de4 1bbe 2ce9 08be 7b7c a6bd
000003d0: c334 8fbe bed0 6fbc 94c2 08be 1f35 953d
000003e0: c8e7 223c 372a 6ebe 3021 58be dea5 9e3d
000003f0: da46 503e 0f76 493e f4f7 36bd 055e bfbb

encoding_layer.layer.0.bias f4 [64]
-0.10487725 0.020886693 -0.05999272 -0.09331748 -0.066239275 -0.11036106 0.04666967 0.11821348
0.034227535 0.03891609 0.035610802 -0.008081855 -0.056940123 0.008142803 0.083503604 0.05792061
0.04994567 0.040475458 0.08908885 -0.10453417 -0.03643749 -0.019122984 0.07359661 -0.07117792
-0.007852987 -0.06054332 0.0039137607 0.093571894 0.059943773 -0.016497683 -0.006081866 0.09387814
0.050337084 -0.035300218 0.047266465 0.050065506 -0.08034132 -0.011898432 -0.02697416 -0.044580087
0.053101826 0.03223211 -0.039902057 0.10605326 -0.038868815 0.046442464 0.011024628 0.029732425
0.032422148 0.062023133 0.041975982 0.03857959 -0.02308334 0.12348644 0.032705292 0.039971504
0.026922228 0.0022877106 0.005921629 -0.10847119 -0.015126805 0.069554254 0.015203629 0.056929313
00000000: e2c9 d6bd 921a ab3c edba 75bd 3c1d bfbd
00000010: 75a8 87bd fb04 e2bd b228 3f3d e919 f23d
00000020: 2c32 0c3d 7a66 1f3d a2dc 113d c269 04bc
00000030: 0c3a 69bd 6469 053c f003 ab3d 293e 6d3d
00000040: d593 4c3d 98c9 253d 3774 b63d 0316 d6bd
00000050: 7a3f 15bd cea7 9cbc d2b9 963d bbc5 91bd
00000060: d1a9 00bc 46fc 77bd 013f 803b 9fa2 bf3d
00000070: 9a87 753d 2626 87bc 644a c7bb 2f43 c03d
00000080: 422e 4e3d f696 10bd 7b9a 413d 7d11 4d3d
00000090: fd89 a4bd a4f1 42bc eaf8 dcbc 9c99 36bd
000000a0: 4d81 593d d105 043d 5770 23bd 7432 d93d
000000b0: e834 1fbd 743a 3e3d a4a0 343c 6a91 f33c
000000c0: 16cd 043d f80b 7e3d 02ef 2b3d a205 1e3d
000000d0: 4619 bdbc 75e6 fc3d fcf5 053d 29b9 233d
000000e0: 018c dc3c 6aed 153b 390a c23b 2526 debd
000000f0: 6bd6 77bc 7672 8e3d a418 793c b62e 693d

relational_layer.layers.0.att_src f4 [1, 1, 64]
0.38091183 0.5045413 -0.29605016 -0.06111173 0.11764744 0.26015848 -0.3091576 0.57668656
0.17019527 -0.035553582 -0.38453183 0.2708283 0.03349221 -0.0018779278 0.40812102 -0.6450727
0.15378939 -0.39199343 0.47428802 0.2873562 -0.16150698 0.26363504 0.033382412 0.32715306
0.4178908 0.4929397 -0.012369403 -0.20259109 -0.6116712 -0.17997558 -0.2061108 0.43534267
-0.09987197 -0.2656378 0.28156048 -0.023789907 -0.5436795 0.05531181 -0.4482527 0.18813123
-0.31365812 -0.063936286 -0.3984923 -0.671768 -0.47538134 -0.25607345 -0.03774082 0.059621625
-0.34385774 -0.59927624 -0.020430187 0.2853154 0.21869975 -0.64104974 0.11967998 -0.28205848
-0.4525193 0.0750453 0.0723156 -0.07430695 0.38677067 0.16460258 0.1685204 -0.1027849
00000000: e006 c33e 9e29 013f e393 97be 4b50 7abd
00000010: 24f1 f03d 7e33 853e e849 9ebe bba1 133f
00000020: ab47 2e3e a2a0 11bd 5be1 c4be 02aa 8a3e
00000030: 212f 093d cd24 f6ba 3df5 d03e 7c23 25bf
00000040: f77a 1d3e 5db3 c8be e1d5 f23e 5a20 933e
00000050: 1662 25be 2cfb 863e ffbb 083d 9b80 a73e
00000060: c8f5 d53e 9862 fc3e 09a9 4abc 0a74 4fbe
00000070: 7c96 1cbf 854b 38be b60e 53be 3ce5 de3e
00000080: ad89 ccbd ad01 88be b228 903e 0de3 c2bc
00000090: 942e 0bbf a38e 623d 6181 e5be 79a5 403e
000000a0: cc97 a0be 07f1 82bd 2f07 ccbe fdf8 2bbf
000000b0: 2f65 f3be 0f1c 83be 1e96 1abd ce35 743d
000000c0: 1f0e b0be 2b6a 19bf 355d a7bc dc14 923e
000000d0: d4f2 5f3e d61b 24bf c71a f53d f869 90be
000000e0: 9cb0 e7be 5ab1 993d 341a 943d 3e2e 98bd
000000f0: ce06 c63e 948d 283e 9d90 2c3e e480 d2bd
