HGAT-MADDPG_ver1/data/test_model/model_2200.pt (torch, 238891 bytes, 22 tensors)

encoding_layer.layer.0.weight f4 [64, 187]
-0.14340737 -0.087345876 -0.19952571 -0.120677665 -0.013201878 0.007939816 0.009829206 0.12579377
-0.07988033 -0.23798394 -0.08180927 -0.16676424 0.0786015 -0.00044025196 0.07907568 -0.17325391
-0.1332149 -0.3827991 0.1338122 0.07224218 0.15063024 0.10566529 -0.047203813 0.11583127
0.057743717 0.0724256 -0.086937666 -0.2195721 -0.15540074 0.10358101 0.04335257 0.078936815
0.10510699 -0.059111252 0.25840852 -0.23918884 -0.457166 -0.08579832 0.03938936 -0.21533802
0.25813672 0.26746488 0.083958015 0.066309005 -0.1279695 -0.06740912 -0.10299144 -0.28527486
-0.037681304 -0.016710667 0.19325483 0.16475087 0.115386106 0.15464269 -0.048372675 0.11265083
0.18662891 0.008215089 0.07324389 0.03577931 0.0400265 0.078685224 -0.080479406 -0.04019243
0.06308401 -0.15365583 -0.10892101 -0.008060854 -0.0503812 -0.058622595 -0.0476698 0.039033115
-0.057777174 0.03701946 0.17469919 -0.10230037 0.032332323 -0.09800606 -0.19662432 0.14495403
-0.17180869 -0.13809852 -0.07612408 -0.119133525 -0.04581604 0.11585494 0.09789185 0.017958738
0.13825007 0.023002014 -0.08073037 -0.049106162 -0.00062849134 0.0024290697 0.030666314 -0.09282889
-0.18028887 0.113215424 -0.027290318 -0.063905366 -0.10769665 -0.1459438 0.13329028 0.08876762
-0.1038481 -0.052474417 -0.030724745 0.14095858 -0.022817357 0.077710204 0.017157914 0.01855248
0.14469881 -0.009094101 0.07008265 -0.015877921 0.10796529 0.0018504624 -0.19183044 0.0212857
-0.058576144 -0.065202296 -0.119456865 -0.0019676078 -0.15910575 0.12298711 0.104587816 -0.019201333
-0.011792406 -0.1014648 0.004020652 0.07873565 -0.054370593 -0.028284715 0.019696753 0.021598369
0.057913296 -0.0797355 0.044270627 -0.04020453 0.08887107 0.095258035 -0.094251044 0.059473976
0.038257215 0.08176563 -0.0015973402 -0.026087128 -0.059552524 0.057219576 -0.018950641 0.0071843355
0.07972031 -0.010599482 -0.05474494 0.021454623 0.10553472 0.075627714 0.04395442 -0.022679077
0.028149515 0.0030998292 0.030633183 -0.013703023 0.03661289 0.0496068 0.081940435 -0.0315491
-0.0047142645 -0.09001017 -0.09281233 -0.043409266 0.0037638461 -0.07284969 0.00036447396 0.008359844
-0.021767437 0.05265449 0.022309281 0.011462602 0.048091773 0.070231095 0.049638003 -0.064963475
0.022938501 0.067682 -0.034537695 -0.14090733 -0.029119931 0.0036525598 -0.07744016 -0.16104522
-0.2372295 0.0664613 0.035260394 0.045186885 -0.070077665 0.09334282 -0.0042042285 -0.16003194
0.12431081 -0.019667078 0.1238457 -0.112284966 0.19003227 -0.025307313 0.022156337 0.07779509
0.04759205 0.015876237 0.16573232 -0.08162592 0.027317896 -0.4805989 0.102925554 -0.030058373
0.2168554 0.16770911 0.13290761 0.23441598 -0.065374106 -0.0043577068 0.07841166 0.010415103
0.030312143 -0.07414432 0.09482297 0.3803246 0.20058952 -0.04564734 0.27054742 -0.116127916
-0.035315 -0.047490127 0.011149915 -0.021414125 0.08382569 0.046033923 0.08440824 0.016037323
0.04853538 0.062251624 -0.12899049 -0.18336473 0.15882857 0.025654264 0.04065964 0.07169154
0.03348595 0.04455853 -0.08609837 0.064759925 0.064357586 0.11763199 -0.062289335 -0.11294339
00000000: 62d9 12be 65e2 b2bd 7850 4cbe da25 f7bd
00000010: b14c 58bc 0116 023c ae0a 213c 15d0 003e
00000020: 4c98 a3bd 10b2 73be 9e8b a7bd 3fc4 2abe
00000030: d3f9 a03d 9ed1 e6b9 6ef2 a13d 7969 31be
00000040: 7d69 08be 3efe c3be 1106 093e b5f3 933d
00000050: d03e 1a3e 0b67 d83d c958 41bd f238 ed3d
00000060: ad84 6c3d df53 943d 600c b2bd 82d7 60be
00000070: 5f21 1fbe 4822 d43d 7792 313d a0a9 a13d
00000080: 5542 d73d a41e 72bd 1f4e 843e ebed 74be
00000090: a911 eabe 08b7 afbd bd56 213d 9281 5cbe
000000a0: 7f2a 843e 28f1 883e 2ef2 ab3d 04cd 873d
000000b0: 700a 03be cb0d 8abd 2ded d2bd 8c0f 92be
000000c0: b657 1abd cfe4 88bc 98e4 453e 74b4 283e
000000d0: 8d4f ec3d a75a 1e3e 6d22 46bd 7ab5 e63d
000000e0: a61b 3f3e 9598 063c e500 963d 538d 123d
000000f0: d4f2 233d b825 a13d 63d2 a4bd d1a0 24bd
00000100: 3032 813d f457 1dbe fa11 dfbd ac11 04bc
00000110: 845c 4ebd 3f1e 70bd 6941 43bd 30e1 1f3d
00000120: c2a7 6cbd b8a1 173d 58e4 323e db82 d1bd
00000130: e66e 043d 67b7 c8bd e357 49be d46e 143e
00000140: 9eee 2fbe b369 0dbe f1e6 9bbd 47fc f3bd
00000150: 9aa9 3bbd 5b45 ed3d 867b c83d 341e 933c
00000160: 6d91 0d3e b86e bc3c f755 a5bd 8b23 49bd
00000170: 57c1 24ba 0731 1f3b ec37 fb3c 131d bebd
00000180: a59d 38be 7ddd e73d f28f dfbc d1e0 82bd
00000190: 1090 dcbd 4b72 15be 3f7d 083e cccb b53d
000001a0: 50ae d4bd 6aef 56bd 76b2 fbbc 7257 103e
000001b0: 77eb babc 8726 9f3d c18e 8c3c 5ffb 973c
000001c0: ed2b 143e 6dff 14bc 7e87 8f3d 6a12 82bc
000001d0: e81c dd3d 378b f23a 336f 44be 595f ae3c
000001e0: 8aed 6fbd c888 85bd cda5 f4bd fbf2 00bb
000001f0: 9eec 22be aae0 fb3d 2332 d63d 1d4c 9dbc
00000200: f034 41bc c7cc cfbd acbf 833b 2840 a13d
00000210: b3b3 5ebd 59b5 e7bc 165b a13c 10ef b03c
00000220: 7e36 6d3d 5e4c a3bd 1e55 353d 81ad 24bd
00000230: 0902 b63d a516 c33d b106 c1bd fc9a 733d
00000240: 99b3 1c3d bd74 a73d d85d d1ba acb4 d5bc
00000250: 59ed 73bd 135f 6a3d 603e 9bbc 936a eb3b
00000260: 6744 a33d 73a9 2dbc 3b3c 60bd 9bc1 af3c
00000270: 9622 d83d b4e2 9a3d 8d09 343d 79c9 b9bc
00000280: d099 e63c 8126 4b3b 71f2 fa3c a582 60bc
00000290: 66f7 153d 8030 4b3d 63d0 a73d a139 01bd
000002a0: 1e7a 9abb 4157 b8bd 6414 bebd eacd 31bd
000002b0: dcaa 763b 3832 95bd de16 bf39 baf7 083c
000002c0: a051 b2bc 3cac 573d f4c1 b63c a3cd 3b3c
000002d0: e1fb 443d 52d5 8f3d 3851 4b3d 920b 85bd
000002e0: 86e9 bb3c dc9c 8a3d 6677 0dbd 034a 10be
000002f0: ec8c eebc c95f 6f3b f298 9ebd 0ae9 24be
00000300: 4aec 72be dd1c 883d 346d 103d e215 393d
00000310: e184 8fbd 852a bf3d a0c3 89bb 6adf 23be
00000320: aa96 fe3d da1c a1bc d0a2 fd3d a9f5 e5bd
00000330: d297 423e 4851 cfbc 3581 b53c 0853 9f3d
00000340: e2ef 423d e20e 823c bcb5 293e 7e2b a7bd
00000350: c8c9 df3c 0f11 f6be a2ca d23d fa3c f6bc
00000360: 580f 5e3e f0bb 2b3e ef18 083e be0a 703e
00000370: dce2 85bd 18cb 8ebb 4b96 a03d 1ca4 2a3c
00000380: 2c51 f83c fad8 97bd 8c32 c23d e8b9 c23e
00000390: 5767 4d3e b5f8 3abd 3185 8a3e 79d4 edbd
000003a0: 76a6 10bd 0285 42bd 22ae 363c ad6c afbc
000003b0: ceac ab3d 118e 3c3d 3ade ac3d b460 833c
000003c0: 09cd 463d 8ffb 7e3d 1516 04be f7c3 3bbe
000003d0: f5a3 223e e428 d23c b98a 263d 04d3 923d
000003e0: 9028 093d 0183 363d 5854 b0bd daa0 843d
000003f0: e9cd 833d 0ae9 f03d 1a23 7fbd dd4e e7bd

encoding_layer.layer.0.bias f4 [64]
-0.049665023 -0.02248146 0.058442667 0.016409464 -0.06462357 0.00067545613 0.045331072 -0.09991965
-0.016513111 -0.032768328 0.0463642 -0.09717469 0.022391474 0.033040345 -0.117176816 -0.05641402
0.003788428 0.04414415 0.019983187 -0.09481814 0.02307587 0.07628842 0.056677744 -0.03744776
0.060204647 -0.012983039 -0.010910112 -0.095370494 -0.022841182 0.10748713 0.048257016 0.006452881
0.03738605 -0.0023745364 0.08969691 -0.04660189 0.053154312 0.08592222 -0.07105007 -0.083915785
-0.067313306 -0.09350522 0.050536156 0.027793795 0.0071893414 -0.0054581147 -0.056598064 0.04098358
0.041744713 -0.026239926 -0.04745558 0.12473125 -0.036471456 0.029156478 -0.050054274 -0.04364227
0.007211997 0.042668797 -0.044816844 0.12001715 0.025464134 0.019708572 0.035471156 -0.015344072
00000000: 8d6d 4bbd 0a2b b8bc 9461 6f3d 246d 863c
00000010: 5d59 84bd 1811 313a 13ad 393d aca2 ccbd
00000020: 8146 87bc 1538 06bd 63e8 3d3d 8603 c7bd
00000030: 536e b73c 5055 073d 66fa efbd 6312 67bd
00000040: 4647 783b 7fd0 343d c8b3 a33c 0330 c2bd
00000050: 9b09 bd3c 1a3d 9c3d ec26 683d d362 19bd
00000060: 2699 763d d0b6 54bc 54c0 32bc 9b51 c3bd
00000070: 6e1d bbbc 3622 dc3d 26a9 453d b072 d33b
00000080: 1d22 193d 1c9e 1bbb 03b3 b73d a0e1 3ebd
00000090: 56b8 593d fdf7 af3d b382 91bd 0adc abbd
000000a0: 8fdb 89bd aa7f bfbd 00ff 4e3d d0af e33c
000000b0: 9194 eb3b fcd9 b2bb 5fd3 67bd 66de 273d
000000c0: 81fc 2a3d 1df5 d6bc c860 42bd 1973 ff3d
000000d0: 1863 15bd 91d9 ee3c b605 4dbd 3dc2 32bd
000000e0: 9e52 ec3b 7ac5 2e3d de91 37bd 8dcb f53d
000000f0: 299a d03c df73 a13c 344a 113d b465 7bbc

relational_layer.layers.0.att_src f4 [1, 1, 64]
-0.0105959885 -0.28596345 0.004086489 -0.1382225 -0.27347463 0.4336525 0.048427597 1.088652
0.3469574 -0.19125131 0.10926647 -0.011058338 -0.4406763 0.27236664 -0.084085666 -0.45280477
0.21930917 0.8221938 0.7459455 -0.67256427 -0.3987622 -0.5480526 -0.27867872 0.6240414
-0.42460543 0.4574145 0.044487085 -1.1087507 -0.15432674 -0.4527639 -0.11374679 0.048312042
-0.7691946 -0.46753561 -0.6066899 -0.21129647 -0.36202523 0.8353255 -0.23495218 0.23795334
0.032463975 0.0565491 -0.6872605 0.47297072 -0.70033735 0.024615983 0.38200277 -0.23507474
0.41171438 -0.5196127 0.115674324 -0.15283062 -0.055202242 0.28467128 0.24525774 -0.43012124
0.10612333 -0.69662404 -0.8724234 0.17047961 0.8949229 -0.18556908 -0.6622686 0.44376293
00000000: cc9a 2dbc cd69 92be f4e7 853b 338a 0dbe
00000010: de04 8cbe b307 de3e 045c 463d f358 8b3f
00000020: 66a4 b13e 62d7 43be 19c7 df3d 082e 35bc
00000030: 53a0 e1be a473 8b3e 1b35 acbd 07d6 e7be
00000040: 9592 603e 4b7b 523f 49f6 3e3f 2c2d 2cbf
00000050: 8f2a ccbe 2d4d 0cbf faae 8ebe 2dc1 1f3f
00000060: e265 d9be 3c32 ea3e 1738 363d 8beb 8dbf
00000070: d407 1ebe abd0 e7be 14f4 e8bd d9e2 453d
00000080: f0e9 44bf d460 efbe 0750 1bbf 1a5e 58be
00000090: 5f5b b9be e4d7 553f 4e97 70be 0aaa 733e
000000a0: f2f8 043d 07a0 673d 4ef0 2fbf 3829 f23e
000000b0: 4f49 33bf 75a7 c93c de95 c33e 6fb7 70be
000000c0: 3acc d23e 5705 05bf a9e6 ec3d a17f 1cbe
000000d0: bf1b 62bd 6fc0 913e d824 7b3e da38 dcbe
000000e0: 3057 d93d f455 32bf 2457 5fbf 3592 2e3e
000000f0: ab19 653f d205 3ebe 6f8a 29bf e534 e33e

relational_layer.layers.0.att_dst f4 [1, 1, 64]
0.012753831 0.4842442 -0.19592519 0.6908434 -0.2712952 0.7946661 0.5991172 0.7330214
0.8146416 0.6909829 -0.06420842 0.46688414 -0.67158955 -0.38103917 0.7804932 0.19371648
0.6140748 0.18602593 0.36567253 0.09633997 0.23679993 0.85201204 -0.80050313 -0.062286872
-0.21345408 0.26341012 -0.045430314 0.107871346 -0.5533686 -0.8306762 0.036050167 0.29027122
-0.47732794 -0.052568525 -0.39513215 -0.3893423 0.72953326 0.4704861 -0.086086474 0.5156143
0.84304446 0.4356467 -0.42491695 0.01535966 -0.17669307 -0.15433528 1.0523978 -0.4245076
0.51951087 0.015961802 0.14292595 0.22617537 -0.42638192 0.012186329 -0.2932843 0.6466407
0.27945113 0.35282645 -0.5345786 0.22030735 0.6256808 0.20671587 0.27264377 0.19382313
00000000: 72f5 503c dbee f73e 9da0 48be 1ddb 303f
00000010: 34e7 8abe 3d6f 4b3f bf5f 193f 4aa7 3b3f
00000020: 5a8c 503f 41e4 303f b47f 83bd 700b ef3e
00000030: 4bed 2bbf 9117 c3be 67ce 473f 9d5d 463e
00000040: 0234 1d3f 957d 3e3e 6e39 bb3e e44d c53d
00000050: ae7b 723e 761d 5a3f c6ed 4cbf 8520 7fbd
00000060: b593 5abe b1dd 863e 2315 3abd a7eb dc3d
00000070: 91a9 0dbf 32a7 54bf 57a9 133d 6e9e 943e
00000080: 5464 f4be 1852 57bd c34e cabe e057 c7be
00000090: b1c2 3a3f 8ee3 f03e 1b4e b0bd 4cff 033f
000000a0: c3d1 573f 160d df3e b78e d9be 15a7 7b3c
000000b0: 07ef 34be 110a 1ebe f9b4 863f 0f59 d9be
000000c0: aafe 043f 53c2 823c 2e5b 123e 849a 673e
000000d0: bb4e dabe 2ba9 473c 5c29 96be 3f8a 253f
000000e0: 3814 8f3e aba5 b43e 25da 08bf 4098 613e
000000f0: 9e2c 203f 53ad 533e f797 8b3e 9279 463e

relational_layer.layers.0.bias f4 [64]
-0.17227755 -0.12551206 -0.1352991 -0.005296926 -0.026352007 -0.2170112 -0.16940413 -0.31891108
-0.23370956 -0.19475892 -0.22377868 -0.21503046 -0.11298433 0.09401657 -0.3072202 -0.23720454
-0.27131993 -0.23544928 -0.19310181 5.9778442e-05 -0.0030321914 -0.19475144 -0.27813047 -0.16039053
-0.11154487 -0.24985677 -0.13342075 -0.023944022 -0.24970298 -0.047843497 -0.22174695 -0.18489575
0.0040012277 -0.029864721 -0.10048989 -0.2184735 -0.15166564 -0.13466233 -0.25181958 -0.26112258
-0.2209728 -0.12710406 -0.17891756 -0.1856691 -0.00040621086 0.086467326 -0.22679292 0.0147718545
-0.13144669 -0.08972387 0.0011935027 -0.2947444 -0.22879602 -0.20818429 -0.25404903 -0.2598463
-0.1406349 -0.34753376 0.043261897 -0.14613183 -0.21215874 -0.26138774 -0.23034325 -0.1416256
00000000: 8769 30be 3c86 00be d98b 0abe d691 adbb
00000010: 2ae0 d7bc 2f38 5ebe 4778 2dbe 5048 a3be
00000020: 8f51 6fbe e26e 47be 3d26 65be f230 5cbe
00000030: 5464 e7bd c28b c03d f74b 9dbe bfe5 72be
00000040: 72ea 8abe 9e19 71be 7bbc 45be 9dba 7a38
00000050: bbb7 46bb ec6c 47be 1e67 8ebe 6a3d 24be
00000060: a371 e4bd 74da 7fbe 739f 08be 4126 c4bc
00000070: 23b2 7fbe 8bf7 43bd a211 63be 5055 3dbe
00000080: bb1c 833b dca6 f4bc a5cd cdbd 84b7 5fbe
00000090: 3d4e 1bbe ece4 09be 7fee 80be dcb1 85be
000000a0: b246 62be 9127 02be 2a36 37be 0a20 3ebe
000000b0: b3f8 d4b9 c815 b13d 673c 68be a605 723c
000000c0: f699 06be 26c1 b7bd 4e6f 9c3a bde8 96be
000000d0: 8149 6abe 432e 55be b712 82be 930a 85be
000000e0: 9802 10be f2ef b1be 6333 313d 95a3 15be
000000f0: 2440 59be 9dd4 85be 1adf 6bbe 4d06 11be

relational_layer.layers.0.lin_src.weight f4 [64, 64]
0.07300847 -0.24562038 -0.03764959 -0.063031994 -0.007704708 -0.12390263 0.048427947 -0.008730486
0.3047364 -0.25408858 0.14282028 0.10747102 -0.016362848 -0.01124183 -0.25211382 0.0542063
-0.10831212 0.30544972 -0.11064817 0.103529304 0.09935188 -0.09246915 -0.11169469 0.07980996
0.035417825 0.0254022 -0.09074337 -0.17537646 -0.14044651 0.20450108 -0.30592304 -0.2442177
0.0305241 0.1541049 0.13929942 -0.062180616 0.0045179953 0.1520093 0.26948234 0.064523906
0.11791381 0.16514364 0.009782266 0.16691491 -0.12964118 0.14167865 -0.074031815 0.14478764
0.067807905 0.060501184 0.13937157 0.000300883 -0.06054926 -0.23138194 -0.09283392 0.12956129
0.2254733 0.29511163 -0.028137073 -0.094240054 0.16799876 0.12102974 -0.30450574 -0.0014013858
0.053941254 -0.015535252 -0.1498901 -0.07129962 0.000991361 -0.14567481 0.058915682 0.1652009
-0.08372017 -0.108169585 0.043173704 0.10592679 -0.012399307 0.21375002 -0.5729897 0.02512408
-0.0042809136 0.35252094 0.16385259 0.14756393 -0.25031492 0.10035468 -0.19228451 0.10737285
-0.2802758 0.049378987 0.17704992 0.037406426 -0.42967364 -0.04013426 -0.23198698 -0.032235485
0.04307237 -0.11213644 0.23362668 0.10593882 -0.029188275 -0.3255549 -0.18203966 -0.23147796
-0.25941655 0.26197556 0.13056108 0.055024378 0.03554128 0.059663355 -0.15892515 -0.1303386
-0.42434984 0.07001863 -9.14423e-05 0.19822714 0.33955452 -0.620779 -0.0001267603 0.09486088
0.20793928 -0.042727653 0.1028745 0.11639495 -0.001944643 0.08166395 -0.0664202 -0.045754425
0.0626717 0.09514266 -0.100934185 -0.12920584 0.15165633 0.13387248 0.16041015 -0.05807139
-0.033497754 0.17834303 -0.08180181 -0.22688854 0.0008174883 0.24282005 0.1312776 -0.08416036
0.04336829 0.18672366 -0.0024773427 -0.21243337 0.20779839 0.2794266 0.1253307 -0.18372908
0.0389182 0.18985043 0.13791011 0.06966884 -0.1307559 -0.14825585 -0.15511608 -0.09426494
0.07664182 -0.08734594 0.38383114 0.06942638 -0.24626291 0.39819553 0.15384789 -0.12308002
-0.20786911 -0.017662127 0.027073631 -0.2030762 -0.75417864 -0.09890928 -0.07277666 -0.1866303
-0.107803896 0.018357644 0.37182796 0.16164723 0.058472805 -0.016001929 -0.032385413 -0.063561015
0.018980898 -0.51294225 -0.34226277 -0.20895128 -0.022243587 -0.0076044123 0.07701815 -0.16668186
0.24996132 0.11556406 0.0049177376 -0.07179948 -0.23782551 0.017364899 0.19431295 0.036867034
-0.065362416 0.05644998 0.30112 -0.20759399 0.29203257 -0.041692853 -0.09092767 -0.20763478
-0.103404544 0.08865628 0.07057722 -0.04235564 0.24735726 0.095855124 -0.071572706 -0.27669066
0.029121177 0.027268728 -0.048343647 0.13919537 -0.275693 0.13027517 0.012789114 -0.39349338
0.18633819 0.31854042 0.1608756 0.11892415 0.052119415 -0.105915636 -0.10748433 0.036987558
-0.1383281 -0.010263931 -0.17763329 0.009237907 -0.0006337129 0.1581684 -0.13893428 -0.2413929
0.114963666 -0.10220438 -0.09605155 0.06058934 -0.30457434 -0.004953454 -0.051210377 0.2169962
0.024957908 0.22237875 0.08149059 0.26196647 -0.24268284 0.16184746 -0.097710505 -0.32791582
00000000: 7785 953d e983 7bbe 7536 1abd eb16 81bd
00000010: c677 fcbb a9c0 fdbd 625c 463d 500a 0fbc
00000020: 6906 9c3e e617 82be 7b3f 123e c419 dc3d
00000030: 610b 86bc a72f 38bc 1015 81be 6d07 5e3d
00000040: bfd2 ddbd e863 9c3e 829b e2bd 2c07 d43d
00000050: 0079 cb3d 7760 bdbd 30c0 e4bd 6873 a33d
00000060: 4812 113d 4618 d03c a9d7 b9bd e395 33be
00000070: 36d1 0fbe bb68 513e f2a1 9cbe 3414 7abe
00000080: ad0d fa3c adcd 1d3e 82a4 0e3e 1ab1 7ebd
00000090: b10b 943b 53a8 1b3e 97f9 893e 1c25 843d
000000a0: cc7c f13d 6a1b 293e cc45 203c beeb 2a3e
000000b0: a8c0 04be 3514 113e fe9d 97bd 3643 143e
000000c0: dfde 8a3d 17d0 773d 6cb7 0e3e d5bf 9d39
000000d0: 8002 78bd 63ef 6cbe b61f bebd b7ab 043e
000000e0: 79e2 663e df18 973e b87f e6bc ee00 c1bd
000000f0: de07 2c3e 71de f73d 2de8 9bbe b4ae b7ba
00000100: 81f1 5c3d 9287 7ebc ca7c 19be 8905 92bd
00000110: 8ef0 813a c72b 15be 9251 713d 6d2a 293e
00000120: 7b75 abbd 0488 ddbd e9d6 303d 25f0 d83d
00000130: 7726 4bbc 49e1 5a3e 74af 12bf 04d1 cd3c
00000140: e846 8cbb a07d b43e f9c8 273e 001b 173e
00000150: 4729 80be c186 cd3d 3be6 44be 4ce6 db3d
00000160: 4f80 8fbe 9f41 4a3d 934c 353e 7b37 193d
00000170: 2ffe dbbe d263 24bd ff8d 6dbe 5b09 04bd
00000180: a76c 303d caa7 e5bd d53b 6f3e 74f6 d83d
00000190: 401c efbc 22af a6be 9b68 3abe 8f08 6dbe
000001a0: 3fd2 84be a921 863e ceb1 053e 3e61 613d
000001b0: bc93 113d 9061 743d 46bd 22be 7b77 05be
000001c0: 6244 d9be ed65 8f3d b6c4 bfb8 0efc 4a3e
000001d0: 17da ad3e 5feb 1ebf f5ea 04b9 6c46 c23d
000001e0: 09ee 543e 3103 2fbd deaf d23d 7a60 ee3d
000001f0: 64e3 feba 6e3f a73d 5007 88bd fe68 3bbd
00000200: 055a 803d 28da c23d 95b6 cebd 894e 04be
00000210: cc4b 1b3e de15 093e 8f42 243e 44dc 6dbd
00000220: f134 09bd 8e9f 363e b587 a7bd 7855 68be
00000230: b64c 563a d2a5 783e a36d 063e 445c acbd
00000240: f3a2 313d 7d34 3f3e ea5a 22bb 2288 59be
00000250: 1ac9 543e 0111 8f3e b156 003e 7a23 3cbe
00000260: b168 1f3d 2768 423e 4f38 0d3e 89ae 8e3d
00000270: e0e4 05be 62d0 17be c0d6 1ebe fa0d c1bd
00000280: 63f6 9c3d 6ee2 b2bd 8485 c43e 6b2f 8e3d
00000290: 582c 7cbe 49e0 cb3e 4d8a 1d3e 6111 fcbd
000002a0: a4db 54be 2ab0 90bc 85c9 dd3c 35f3 4fbe
000002b0: da11 41bf f390 cabd ee0b 95bd 031c 3fbe
000002c0: 4ac8 dcbd c562 963c 3c60 be3e da86 253e
000002d0: 2e81 6f3d 7a16 83bc 91a6 04bd 472c 82bd
000002e0: d47d 9b3c 2f50 03bf 113d afbe 53f7 55be
000002f0: 2f38 b6bc 6f2e f9bb b1bb 9d3d a6ae 2abe
00000300: dcf5 7f3e daac ec3d f924 a13b 9b0b 93bd
00000310: 8888 73be d540 8e3c f9f9 463e e301 173d
00000320: bbdc 85bd 1838 673d 672c 9a3e 8593 54be
00000330: 4b85 953e 20c6 2abd 4938 babd 369e 54be
00000340: c3c5 d3bd 6c91 b53d ca8a 903d 1c7d 2dbd
00000350: 394b 7d3e b14f c43d b694 92bd 66aa 8dbe
00000360: 898f ee3c ab62 df3c fd03 46bd 3b89 0e3e
00000370: a227 8dbe db66 053e 6f89 513c f777 c9be
00000380: 70cf 3e3e bb17 a33e 93bc 243e 818e f33d
00000390: 2b7b 553d 4cea d8bd bf20 dcbd 4480 173d
000003a0: e2a5 0dbe 0c2a 28bc 80e5 35be 975a 173c
000003b0: c11f 26ba e6f6 213e ca44 0ebe b32f 77be
000003c0: 1272 eb3d 8850 d1bd adb6 c4bd 872c 783d
000003d0: 2bf1 9bbe 9550 a2bb f9c1 51bd 4034 5e3e
000003e0: 8774 cc3c 41b7 633e 8ae4 a63d 7820 863e
000003f0: da81 78be 57bb 253e 721c c8bd 95e4 a7be

relational_layer.layers.0.lin_dst.weight f4 [64, 64]
0.07300847 -0.24562038 -0.03764959 -0.063031994 -0.007704708 -0.12390263 0.048427947 -0.008730486
0.3047364 -0.25408858 0.14282028 0.10747102 -0.016362848 -0.01124183 -0.25211382 0.0542063
-0.10831212 0.30544972 -0.11064817 0.103529304 0.09935188 -0.09246915 -0.11169469 0.07980996
0.035417825 0.0254022 -0.09074337 -0.17537646 -0.14044651 0.20450108 -0.30592304 -0.2442177
0.0305241 0.1541049 0.13929942 -0.062180616 0.0045179953 0.1520093 0.26948234 0.064523906
0.11791381 0.16514364 0.009782266 0.16691491 -0.12964118 0.14167865 -0.074031815 0.14478764
0.067807905 0.060501184 0.13937157 0.000300883 -0.06054926 -0.23138194 -0.09283392 0.12956129
0.2254733 0.29511163 -0.028137073 -0.094240054 0.16799876 0.12102974 -0.30450574 -0.0014013858
0.053941254 -0.015535252 -0.1498901 -0.07129962 0.000991361 -0.14567481 0.058915682 0.1652009
-0.08372017 -0.108169585 0.043173704 0.10592679 -0.012399307 0.21375002 -0.5729897 0.02512408
-0.0042809136 0.35252094 0.16385259 0.14756393 -0.25031492 0.10035468 -0.19228451 0.10737285
-0.2802758 0.049378987 0.17704992 0.037406426 -0.42967364 -0.04013426 -0.23198698 -0.032235485
0.04307237 -0.11213644 0.23362668 0.10593882 -0.029188275 -0.3255549 -0.18203966 -0.23147796
-0.25941655 0.26197556 0.13056108 0.055024378 0.03554128 0.059663355 -0.15892515 -0.1303386
-0.42434984 0.07001863 -9.14423e-05 0.19822714 0.33955452 -0.620779 -0.0001267603 0.09486088
0.20793928 -0.042727653 0.1028745 0.11639495 -0.001944643 0.08166395 -0.0664202 -0.045754425
0.0626717 0.09514266 -0.100934185 -0.12920584 0.15165633 0.13387248 0.16041015 -0.05807139
-0.033497754 0.17834303 -0.08180181 -0.22688854 0.0008174883 0.24282005 0.1312776 -0.08416036
0.04336829 0.18672366 -0.0024773427 -0.21243337 0.20779839 0.2794266 0.1253307 -0.18372908
0.0389182 0.18985043 0.13791011 0.06966884 -0.1307559 -0.14825585 -0.15511608 -0.09426494
0.07664182 -0.08734594 0.38383114 0.06942638 -0.24626291 0.39819553 0.15384789 -0.12308002
-0.20786911 -0.017662127 0.027073631 -0.2030762 -0.75417864 -0.09890928 -0.07277666 -0.1866303
-0.107803896 0.018357644 0.37182796 0.16164723 0.058472805 -0.016001929 -0.032385413 -0.063561015
0.018980898 -0.51294225 -0.34226277 -0.20895128 -0.022243587 -0.0076044123 0.07701815 -0.16668186
0.24996132 0.11556406 0.0049177376 -0.07179948 -0.23782551 0.017364899 0.19431295 0.036867034
-0.065362416 0.05644998 0.30112 -0.20759399 0.29203257 -0.041692853 -0.09092767 -0.20763478
-0.103404544 0.08865628 0.07057722 -0.04235564 0.24735726 0.095855124 -0.071572706 -0.27669066
0.029121177 0.027268728 -0.048343647 0.13919537 -0.275693 0.13027517 0.012789114 -0.39349338
0.18633819 0.31854042 0.1608756 0.11892415 0.052119415 -0.105915636 -0.10748433 0.036987558
-0.1383281 -0.010263931 -0.17763329 0.009237907 -0.0006337129 0.1581684 -0.13893428 -0.2413929
0.114963666 -0.10220438 -0.09605155 0.06058934 -0.30457434 -0.004953454 -0.051210377 0.2169962
0.024957908 0.22237875 0.08149059 0.26196647 -0.24268284 0.16184746 -0.097710505 -0.32791582
00000000: 7785 953d e983 7bbe 7536 1abd eb16 81bd
00000010: c677 fcbb a9c0 fdbd 625c 463d 500a 0fbc
00000020: 6906 9c3e e617 82be 7b3f 123e c419 dc3d
00000030: 610b 86bc a72f 38bc 1015 81be 6d07 5e3d
00000040: bfd2 ddbd e863 9c3e 829b e2bd 2c07 d43d
00000050: 0079 cb3d 7760 bdbd 30c0 e4bd 6873 a33d
00000060: 4812 113d 4618 d03c a9d7 b9bd e395 33be
00000070: 36d1 0fbe bb68 513e f2a1 9cbe 3414 7abe
00000080: ad0d fa3c adcd 1d3e 82a4 0e3e 1ab1 7ebd
00000090: b10b 943b 53a8 1b3e 97f9 893e 1c25 843d
000000a0: cc7c f13d 6a1b 293e cc45 203c beeb 2a3e
000000b0: a8c0 04be 3514 113e fe9d 97bd 3643 143e
000000c0: dfde 8a3d 17d0 773d 6cb7 0e3e d5bf 9d39
000000d0: 8002 78bd 63ef 6cbe b61f bebd b7ab 043e
000000e0: 79e2 663e df18 973e b87f e6bc ee00 c1bd
000000f0: de07 2c3e 71de f73d 2de8 9bbe b4ae b7ba
00000100: 81f1 5c3d 9287 7ebc ca7c 19be 8905 92bd
00000110: 8ef0 813a c72b 15be 9251 713d 6d2a 293e
00000120: 7b75 abbd 0488 ddbd e9d6 303d 25f0 d83d
00000130: 7726 4bbc 49e1 5a3e 74af 12bf 04d1 cd3c
00000140: e846 8cbb a07d b43e f9c8 273e 001b 173e
00000150: 4729 80be c186 cd3d 3be6 44be 4ce6 db3d
00000160: 4f80 8fbe 9f41 4a3d 934c 353e 7b37 193d
00000170: 2ffe dbbe d263 24bd ff8d 6dbe 5b09 04bd
00000180: a76c 303d caa7 e5bd d53b 6f3e 74f6 d83d
00000190: 401c efbc 22af a6be 9b68 3abe 8f08 6dbe
000001a0: 3fd2 84be a921 863e ceb1 053e 3e61 613d
000001b0: bc93 113d 9061 743d 46bd 22be 7b77 05be
000001c0: 6244 d9be ed65 8f3d b6c4 bfb8 0efc 4a3e
000001d0: 17da ad3e 5feb 1ebf f5ea 04b9 6c46 c23d
000001e0: 09ee 543e 3103 2fbd deaf d23d 7a60 ee3d
000001f0: 64e3 feba 6e3f a73d 5007 88bd fe68 3bbd
00000200: 055a 803d 28da c23d 95b6 cebd 894e 04be
00000210: cc4b 1b3e de15 093e 8f42 243e 44dc 6dbd
00000220: f134 09bd 8e9f 363e b587 a7bd 7855 68be
00000230: b64c 563a d2a5 783e a36d 063e 445c acbd
00000240: f3a2 313d 7d34 3f3e ea5a 22bb 2288 59be
00000250: 1ac9 543e 0111 8f3e b156 003e 7a23 3cbe
00000260: b168 1f3d 2768 423e 4f38 0d3e 89ae 8e3d
00000270: e0e4 05be 62d0 17be c0d6 1ebe fa0d c1bd
00000280: 63f6 9c3d 6ee2 b2bd 8485 c43e 6b2f 8e3d
00000290: 582c 7cbe 49e0 cb3e 4d8a 1d3e 6111 fcbd
000002a0: a4db 54be 2ab0 90bc 85c9 dd3c 35f3 4fbe
000002b0: da11 41bf f390 cabd ee0b 95bd 031c 3fbe
000002c0: 4ac8 dcbd c562 963c 3c60 be3e da86 253e
000002d0: 2e81 6f3d 7a16 83bc 91a6 04bd 472c 82bd
000002e0: d47d 9b3c 2f50 03bf 113d afbe 53f7 55be
000002f0: 2f38 b6bc 6f2e f9bb b1bb 9d3d a6ae 2abe
00000300: dcf5 7f3e daac ec3d f924 a13b 9b0b 93bd
00000310: 8888 73be d540 8e3c f9f9 463e e301 173d
00000320: bbdc 85bd 1838 673d 672c 9a3e 8593 54be
00000330: 4b85 953e 20c6 2abd 4938 babd 369e 54be
00000340: c3c5 d3bd 6c91 b53d ca8a 903d 1c7d 2dbd
00000350: 394b 7d3e b14f c43d b694 92bd 66aa 8dbe
00000360: 898f ee3c ab62 df3c fd03 46bd 3b89 0e3e
00000370: a227 8dbe db66 053e 6f89 513c f777 c9be
00000380: 70cf 3e3e bb17 a33e 93bc 243e 818e f33d
00000390: 2b7b 553d 4cea d8bd bf20 dcbd 4480 173d
000003a0: e2a5 0dbe 0c2a 28bc 80e5 35be 975a 173c
000003b0: c11f 26ba e6f6 213e ca44 0ebe b32f 77be
000003c0: 1272 eb3d 8850 d1bd adb6 c4bd 872c 783d
000003d0: 2bf1 9bbe 9550 a2bb f9c1 51bd 4034 5e3e
000003e0: 8774 cc3c 41b7 633e 8ae4 a63d 7820 863e
000003f0: da81 78be 57bb 253e 721c c8bd 95e4 a7be

action_layer.layer1.0.weight f4 [128, 128]
-0.077577285 -0.055445492 -0.1849203 0.017658722 0.042115923 0.11818435 0.023844523 0.13688941
-0.053667657 0.27555993 0.24735336 -0.10482058 -0.07416812 -0.09667275 0.18201579 0.07293359
0.11596153 -0.06622203 0.032751627 -0.011201281 -0.06223599 -0.19831625 -0.034662485 0.056293707
0.004679054 -0.06630507 0.01993456 0.048972417 0.094199434 -0.027116375 -0.05661159 0.014212835
-0.17175467 -0.023420217 0.07611239 -0.077731945 -0.05280878 -0.17068858 -0.013738841 0.12749653
0.097226314 -0.18229759 0.05593619 -0.04076241 -0.019581264 0.083027825 -0.020822478 0.038716838
-0.018816479 0.011501476 -0.15552469 0.17813 -0.11589579 -0.025007317 0.0542883 0.05637098
-0.12621662 0.049261574 -0.07217456 0.024592156 0.07657999 0.035102215 -0.004489362 -0.016906535
0.22563228 -0.082149066 -0.020466236 0.027218277 0.031589624 -0.0050012013 0.0066234944 -0.034230676
-0.04394126 0.007955538 -0.026088502 -0.14051135 0.10662689 0.062069543 0.014038652 -0.0783028
0.06703956 -0.045823373 0.03501518 0.07566454 -0.041457612 0.07672665 0.15232578 -0.34432852
-0.14085753 -0.0134129375 -0.032586806 0.04237806 0.04184132 0.052244667 0.11832433 0.0061492496
0.104407884 0.041723564 0.05088772 -0.055443805 -0.107828155 0.01669085 0.2790594 -0.14117274
-0.11807691 -0.0139435865 -0.088959835 -0.08624443 0.035784017 -0.03592905 -0.037932463 -0.0061047627
-0.04237378 -0.37638757 0.059129566 0.043190558 -0.03316581 -0.018471312 -0.03125639 0.14155474
-0.20252238 0.023912637 -0.03368474 -0.00064157794 -0.0140428 0.057819355 0.036267407 -0.0027841227
0.11562 0.029478522 0.072233975 -0.03227482 -0.07337755 -0.09203861 -0.16634747 0.11510871
-0.09868915 -0.055956297 -0.20478508 -0.31627572 0.17018583 -0.18416631 -0.10587845 -0.11009336
-0.14892437 -0.23765327 0.12839441 -0.08845885 -0.03777271 0.09131861 -0.1716843 -0.056362927
-0.17487232 -0.16970177 0.037122663 -0.20820726 -0.034711443 0.13269818 0.068471774 -0.40070626
-0.20877202 -0.07602161 -0.13012525 -0.5126084 -0.078218274 -0.4310831 -0.12461424 -0.2106136
0.115920015 0.09877878 -0.10747755 -0.25230017 -0.111842155 0.16061099 -0.017933866 -0.027999831
0.02033386 0.1976615 0.03776991 0.023562493 0.13367453 0.06233206 -0.3174905 -0.20593838
-0.15253222 -0.05660813 0.0415772 -9.6227646e-05 -0.1793003 -0.048795626 0.08006129 -0.22377634
0.106128156 0.06602994 0.043820903 -0.081323065 -0.21267624 -0.11351724 -0.041401125 0.081962585
0.046684854 0.097596325 0.03410453 -0.15710264 0.15700547 -0.11084759 -0.08560147 0.10351209
-0.05712702 -0.062475186 0.18304078 -0.0048856535 0.011801827 0.08067445 0.17459613 0.06388193
-0.0541649 -0.0015620799 -0.08169095 -0.25622752 0.06995381 0.0156170735 -0.20785318 -0.076069005
-0.26263902 -0.016965194 -0.2747997 -0.07150704 -0.14130081 -0.32244185 -0.12874351 -0.2912243
0.14713034 -0.06984254 -0.16492335 -0.19296382 -0.053344805 -0.10189131 0.0075041703 -0.3208908
-0.25910094 0.02746301 -0.081674986 0.15272242 0.07240146 -0.010286288 0.05063863 0.066292964
-0.31377867 -0.060765263 0.057138376 0.026488062 -0.18879388 -0.15669721 0.046790592 0.17120865
00000000: d7e0 9ebd d01a 63bd bf5b 3dbe 06a9 903c
00000010: bf81 2c3d a30a f23d 9755 c33c bd2c 0c3e
00000020: 9ed2 5bbd 3116 8d3e 334a 7d3e 2cac d6bd
00000030: 75e5 97bd 5dfc c5bd 5962 3a3e 355e 953d
00000040: 3d7d ed3d 6a9f 87bd 9226 063d 9485 37bc
00000050: 2aeb 7ebd 6a13 4bbe 40fa 0dbd 3b94 663d
00000060: c052 993b f4ca 87bd cd4d a33c 4d97 483d
00000070: a2eb c03d 2923 debc 8ee1 67bd f3dc 683c
00000080: 75e0 2fbe c1db bfbc d0e0 9b3d ed31 9fbd
00000090: 054e 58bd fdc8 2ebe e018 61bc 738e 023e
000000a0: 971e c73d 38ac 3abe 591d 653d 7cf6 26bd
000000b0: e368 a0bc 7e0a aa3d e793 aabc 8c95 1e3d
000000c0: 0425 9abc b070 3c3c dd41 1fbe b667 363e
000000d0: c65a edbd 25dc ccbc 695d 5e3d 42e5 663d
000000e0: ee3e 01be 81c6 493d 41d0 93bd 7d75 c93c
000000f0: f8d5 9c3d 57c7 0f3d 7f1b 93bb 937f 8abc
00000100: 260c 673e c53d a8bd cfa8 a7bc ddf8 de3c
00000110: 1f64 013d 1ee1 a3bb e609 d93b 7735 0cbd
00000120: c0fb 33bd f257 023c 8eb7 d5bc 35e2 0fbe
00000130: 335f da3d a23c 7e3d 6002 663c 385d a0bd
00000140: 094c 893d 4ab1 3bbd 146c 0f3d 03f6 9a3d
00000150: 75cf 29bd dd22 9d3d 4afb 1b3e d44b b0be
00000160: f53c 10be f0c1 5bbc be79 05bd 9e94 2d3d
00000170: ce61 2b3d 81fe 553d 0754 f23d a57f c93b
00000180: cdd3 d53d 54e6 2a3d a46f 503d 0b19 63bd
00000190: 02d5 dcbd 40bb 883c e0e0 8e3e 968f 10be
000001a0: 4fd2 f1bd a473 64bc 9330 b6bd eba0 b0bd
000001b0: 4392 123d 572a 13bd 125f 1bbd 760a c8bb
000001c0: 2190 2dbd dfb5 c0be d831 723d 95e8 303d
000001d0: dfd8 07bd 2651 97bc b306 00bd baf3 103e
000001e0: 0762 4fbe 6fe4 c33c 03f9 09bd 912f 28ba
000001f0: c613 66bc fdd3 6c3d 228d 143d d475 36bb
00000200: 2eca ec3d f17c f13c 68ef 933d 9a32 04bd
00000210: f846 96bd bd7e bcbd fe56 2abe 1ebe eb3d
00000220: 891d cabd 6e32 65bd 2eb3 51be e4ee a1be
00000230: 3245 2e3e 1896 3cbe cdd6 d8bd a178 e1bd
00000240: a17f 18be 615b 73be d379 033e ea29 b5bd
00000250: 8fb7 1abd 4005 bb3d 02ce 2fbe d0dc 66bd
00000260: bb11 33be 4dc6 2dbe ef0d 183d 4934 55be
00000270: 962d 0ebd 08e2 073e ee3a 8c3d 5f29 cdbe
00000280: 55c8 55be 38b1 9bbd 8e3f 05be 4e3a 03bf
00000290: e730 a0bd edb6 dcbe c035 ffbd 17ab 57be
000002a0: 7967 ed3d 874c ca3d 311d dcbd 7d2d 81be
000002b0: 800d e5bd 3577 243e 0bea 92bc e75f e5bc
000002c0: 3293 a63c c767 4a3e 9fb4 1a3d 2106 c13c
000002d0: fae1 083e e74f 7f3d 1d8e a2be 83e1 52be
000002e0: 6831 1cbe eddd 67bd db4c 2a3d d3cd c9b8
000002f0: 7f9a 37be ecdd 47bd 2cf7 a33d a025 65be
00000300: b859 d93d b53a 873d 8c7d 333d b58c a6bd
00000310: cdc7 59be ba7b e8bd 3a94 29bd 00dc a73d
00000320: 9e38 3f3d 95e0 c73d 31b1 0b3d 84df 20be
00000330: 0bc6 203e 1004 e3bd d34f afbd 26fe d33d
00000340: 06fe 69bd fbe5 7fbd 0b6f 3b3e d517 a0bb
00000350: 735c 413c a538 a53d 54c9 323e 88d4 823d
00000360: 04dc 5dbd b4be ccba 964d a7bd 4130 83be
00000370: f143 8f3d c1de 7f3c 77d7 54be 11ca 9bbd
00000380: 9f78 86be 97fa 8abc 8cb2 8cbe 4872 92bd
00000390: 29b1 10be 1917 a5be 57d5 03be 5a1b 95be
000003a0: 56a9 163e 9b09 8fbd abe1 28be 4f98 45be
000003b0: 1580 5abd 64ac d0bd 8be5 f53b cd4b a4be
000003c0: e1a8 84be 1bfa e03c 3745 a7bd 4463 1c3e
000003d0: 3747 943d d287 28bc 746a 4f3d 9bc4 873d
000003e0: 99a7 a0be ffe4 78bd ee09 6a3d 7efd d83c
000003f0: 2f53 41be 3c75 20be 7ea7 3f3d 5251 2f3e

action_layer.layer1.0.bias f4 [128]
0.078062214 -0.014945875 -0.06946219 -0.108213946 0.0037964128 -0.012265594 -0.04147518 -0.068786785
-0.016140826 0.05634467 -0.076355636 -0.07100643 -0.12298098 -0.039083667 -0.12299169 -0.035822183
-0.045120195 -0.0037491475 -0.06745256 -0.052049406 -0.06296004 0.021078631 -0.10820989 -0.1515134
-0.09273655 -0.067303374 -0.02714449 -0.10851353 -0.11086559 -0.008176766 0.0772461 -0.044749297
-0.14759414 -0.044094704 -0.08796409 -0.048657067 -0.024766417 -0.03596129 -0.038824305 -0.17197782
0.046131626 -0.043324023 -0.06935367 -0.08752402 0.069110915 0.024094908 -0.046236545 -0.006660012
0.021363612 0.0009917916 -0.122593276 0.025078824 -0.20755006 -0.04854216 0.0057648905 -0.12345046
-0.035443734 -0.04211183 -0.044296708 -0.12853324 -0.06324383 -0.1362047 -0.0732263 -0.048264097
-0.029740205 -0.11817898 0.022118859 -0.20865668 -0.17495416 -0.08206338 -0.12884885 0.0069030137
0.09176822 -0.025129098 -0.028972812 0.0036688058 -0.013325658 -0.13302673 -0.04759501 -0.070990644
-0.034158897 -0.10441059 -0.03121521 0.120614864 -0.10804317 -0.093647525 -0.048276078 0.13195474
-0.0208774 -0.10177798 -0.030824764 -0.11702069 -0.19071136 -0.015185885 0.022327999 -0.18292198
0.06213938 -0.009561499 -0.12573823 -0.106443286 -0.17975265 -0.08510586 -0.013235823 0.008045611
-0.047275923 -0.029302875 0.05145251 0.011354698 -0.029145427 0.03648864 -0.07190529 -0.023872878
-0.09643059 -0.024939455 -0.10377281 -0.2000662 0.06615589 -0.12551591 -0.12561516 0.12167803
-0.086566366 0.049289774 0.020599913 -0.014725081 -0.084140666 -0.11189768 -0.018226368 0.028318333
00000000: 15df 9f3d 8bdf 74bc 3142 8ebd 469f ddbd
00000010: 3dcd 783b a1f5 48bc e1e1 29bd 16e0 8cbd
00000020: c439 84bc abc9 663d 5860 9cbd d26b 91bd
00000030: 74dd fbbd 3216 20bd 11e3 fbbd 48ba 12bd
00000040: f4cf 38bd 42b4 75bb 9124 8abd c231 55bd
00000050: 32f1 80bd 18ad ac3c 269d ddbd 5426 1bbe
00000060: a9ec bdbd 5ad6 89bd 1f5e debc 573c debd
00000070: 800d e3bd d8f7 05bc 3433 9e3d 0a4b 37bd
00000080: eb22 17be a69c 34bd 8426 b4bd a24c 47bd
00000090: f1e2 cabc 254c 13bd 3c06 1fbd f41a 30be
000000a0: 84f4 3c3d 8874 31bd 4c09 8ebd cb3f b3bd
000000b0: 068a 8d3d af62 c53c 8862 3dbd 3b3c dabb
000000c0: be02 af3c 01ff 813a 2f12 fbbd 1b72 cd3c
000000d0: 0188 54be 25d4 46bd 68e7 bc3b 98d3 fcbd
000000e0: 732d 11bd 747d 2cbd 7770 35bd 389e 03be
000000f0: fb85 81bd 3f79 0bbe acf7 95bd 93b0 45bd
00000100: bba1 f3bc d207 f2bd 9c32 b53c 19aa 55be
00000110: 2f27 33be d810 a8bd f4f0 03be ad32 e23b
00000120: faf0 bb3d 8adb cdbc 6458 edbc 5970 703b
00000130: dc53 5abc 2938 08be fcf2 42bd 8b63 91bd
00000140: 33ea 0bbd 38d5 d5bd 0ab7 ffbc ed04 f73d
00000150: bd45 ddbd 46ca bfbd 23bd 45bd 251f 073e
00000160: 1507 abbc f970 d0bd 3784 fcbc 8ba8 efbd
00000170: d749 43be 38ce 78bc 35e9 b63c e64f 3bbe
00000180: dd85 7e3d d5a7 1cbc 86c1 00be f0fe d9bd
00000190: 1411 38be fb4b aebd 11db 58bc bdd1 033c
000001a0: 66a4 41bd 950c f0bc debf 523d 0e09 3a3c
000001b0: 64c2 eebc 1d75 153d 1543 93bd 0e91 c3bc
000001c0: 677d c5bd d44d ccbc d786 d4bd 27de 4cbe
000001d0: bd7c 873d 3e87 00be 43a1 00be 5532 f93d
000001e0: b549 b1bd 13e4 493d 26c1 a83c 7741 71bc
000001f0: f151 acbd 9c2a e5bd 774f 95bc d9fb e73c

action_layer.layer1.1.weight f4 [2, 128]
-0.038508408 0.4038112 0.3450269 -0.17543279 -0.292158 -0.10641152 -0.010296428 0.22585997
0.03771509 -0.025930135 0.3185319 0.047275603 -0.11888349 -0.11497748 0.03377 0.09583622
-0.27327698 -0.12419326 0.12633662 0.105217375 0.06429747 0.019946104 -0.339365 0.20385452
0.26374048 -0.30053258 -0.06749922 -0.09574275 0.200556 -0.09170985 -0.0071269237 0.05393252
0.05381297 0.06288655 -0.16096146 -0.048224036 0.04648357 -0.21223593 -0.06234252 0.13745391
-0.056626033 0.013128857 0.019276045 0.12650135 0.06612198 -0.16201808 -0.123916484 0.11674602
0.010646831 -0.19810717 0.2713956 -0.055224206 -0.10737532 -0.09370757 0.19068852 -0.28640318
0.13389555 -0.29857305 -0.19886838 0.29124677 0.03421675 0.06362165 0.0043230047 0.040396098
-0.10478565 0.23772791 0.0028374789 0.17153789 -0.029909216 0.033524077 -0.18569104 0.038179137
-0.046122808 0.05367338 -0.22119328 -0.15351513 0.14238289 -0.079809904 -0.20647858 0.22957155
-0.25908464 -0.010345108 -0.101639606 0.03433801 0.36756346 -0.25098634 0.30967325 0.040658027
-0.12081217 -0.098033845 -0.15310779 0.28518572 -0.19872677 -0.060442444 0.09523547 0.34631103
-0.04889497 0.175515 -0.42611355 0.1788151 0.07021511 -0.4722541 0.02745073 -0.08895033
-0.02939569 0.112667695 0.043720193 0.03073128 -0.050983626 -0.16342148 0.033612046 0.04179326
0.2471164 -0.236838 0.06512554 0.4150984 0.12782365 0.42989606 -0.17033166 -0.046221063
0.1557795 0.04661189 -0.16878371 -0.050723128 -0.09499609 0.08829698 -0.121423244 -0.06856084
0.036028784 -0.13634828 -0.090936825 -0.30140635 -0.07488898 -0.010723899 0.12276442 -0.24547656
0.0585271 -0.11562291 -0.08523714 -0.061274726 0.0111559825 -0.04795703 0.06534296 0.07840319
0.08532764 -0.06754626 0.16739142 -0.059153114 0.05664951 0.078905374 0.035501674 0.014708371
-0.10936131 0.1685335 0.03444898 -0.27875075 0.08937269 0.3035866 0.051577855 -0.006637086
-0.109353766 0.22420341 0.17047592 0.3038804 -0.2604116 0.26353148 -0.032351296 -0.19530304
0.010348342 0.057850942 -0.041411735 0.0025745782 -0.0066600908 0.549652 -0.03637767 0.13922243
0.05920185 0.30562145 -0.10397462 -0.024898326 -0.10199321 -0.08379235 -0.010612364 0.035162646
0.3110797 0.07105797 -0.21176788 -0.106325336 0.27865198 0.030708184 -0.19550502 -0.054287348
-0.0052591837 -0.14290012 0.03805729 -0.10616265 -0.13623595 0.055353884 -0.022876598 -0.015729293
0.035702392 -0.040948696 0.089914896 0.07945546 -0.09424796 -0.0047945217 -0.16248785 -0.17348711
0.060718495 -0.088144585 0.020908233 0.03747204 0.14875856 0.0017076316 0.203038 0.033637572
0.063432544 -0.0006387202 -0.025075397 0.13582934 -0.25427732 -0.17571779 -0.050355215 -0.091082044
-0.060169686 -0.012145483 0.2535288 0.24800666 -0.059557613 -0.11783069 0.118644334 -0.047075342
-0.3243277 -0.24884778 0.045743924 -0.052193355 -0.045079708 0.046158228 -0.03765838 -0.04254235
-0.0011536297 0.12530059 -0.11974 -0.14865156 0.07439555 -0.043623224 -0.06786286 0.04325217
-0.0711546 0.03319482 -0.10097249 0.049588248 -0.019650336 0.021773435 0.06416072 -0.0029254588
00000000: feba 1dbd 57c0 ce3e 5ea7 b03e a7a4 33be
00000010: bc95 95be 48ee d9bd 59b2 28bc d647 673e
00000020: 237b 1a3d 6f6b d4bc 9d16 a33e 10a4 413d
00000030: 3079 f3bd 5079 ebbd 6952 0a3d c845 c43d
00000040: f6ea 8bbe 0959 febd 635e 013e 357c d73d
00000050: 64ae 833d 0366 a33c 40c1 adbe 3dbf 503e
00000060: fe08 873e 68df 99be 083d 8abd c614 c4bd
00000070: 8d5e 4d3e 60d2 bbbd f888 e9bb 59e8 5c3d
00000080: fd6a 5c3d aaca 803d 15d3 24be 9186 45bd
00000090: 8e65 3e3d 6054 59be df5a 7fbd b8c0 0c3e
000000a0: b3f0 67bd 6b1a 573c cce8 9d3c 9289 013e
000000b0: f66a 873d 11e8 25be edc7 fdbd 8a18 ef3d
000000c0: 0c70 2e3c 9bdc 4abe 5df4 8a3e c732 62bd
000000d0: 97e7 dbbd c1e9 bfbd da43 433e 70a3 92be
000000e0: ea1b 093e 91de 98be 27a4 4bbe 4c1e 953e
000000f0: dd26 0c3d 114c 823d fea7 8d3b 6176 253d
00000100: dc99 d6bd f26e 733e fff4 393b a1a7 2f3e
00000110: 2c04 f5bc 8b50 093d cb25 3ebe ba61 1c3d
00000120: 45eb 3cbd 9ed8 5b3d 7e80 62be 1233 1dbe
00000130: d2cc 113e 6073 a3bd 1f6f 53be ce14 6b3e
00000140: bea6 84be 877e 29bc 6d28 d0bd 03a6 0c3d
00000150: 4731 bc3e 4881 80be 7e8d 9e3e 0889 263d
00000160: 5f6c f7bd f8c5 c8bd 4ac8 1cbe dd03 923e
00000170: 087f 4bbe 7f92 77bd d00a c33d ae4f b13e
00000180: 1846 48bd 34ba 333e 8e2b dabe 4e1b 373e
00000190: f1cc 8f3d 4acb f1be 5ae0 e03c 972b b6bd
000001a0: 3bcf f0bc 52be e63d f213 333d 2ac0 fb3c
000001b0: 35d4 50bd f657 27be c9ac 093d 692f 2b3d
000001c0: 150c 7d3e a985 72be 8a60 853d c787 d43e
000001d0: 34e4 023e 561b dc3e 6c6b 2ebe 4c52 3dbd
000001e0: a984 1f3e 1cec 3e3d a3d5 2cbe 0ec3 4fbd
000001f0: 4f8d c2bd 0cd5 b43d c0ac f8bd a069 8cbd
00000200: eb92 133d e29e 0bbe 163d babd ef51 9abe
00000210: 655f 99bd 4bb3 2fbc ea6b fb3d 355e 7bbe
00000220: 1dba 6f3d b4cb ecbd cf90 aebd 35fb 7abd
00000230: 95c7 363c 976e 44bd 88d2 853d da91 a03d
00000240: 42c0 ae3d b255 8abd a868 2b3e 894a 72bd
00000250: 5109 683d 2499 a13d 346a 113d 61fb 703c
00000260: d3f8 dfbd 0c94 2c3e 601a 0d3d 6bb8 8ebe
00000270: 0709 b73d b46f 9b3e 4d43 533d ea7b d9bb
00000280: def4 dfbd 9495 653e 3d91 2e3e 3696 9b3e
00000290: ab54 85be 99ed 863e cb82 04bd 85fd 47be
000002a0: 188c 293c 1cf5 6c3d 5a9f 29bd 41ba 283b
000002b0: e43c dabb feb5 0c3f c000 15bd 5390 0e3e
000002c0: a47d 723d 6a7a 9c3e a5f0 d4bd 93f7 cbbc
000002d0: d1e1 d0bd 539b abbd 7bdf 2dbc b506 103d
000002e0: d745 9f3e d786 913d aed9 58be 19c1 d9bd
000002f0: 79ab 8e3e bb8f fb3c 7832 48be 695c 5ebd
00000300: 3b55 acbb 6954 12be f6e1 1b3d ce6b d9bd
00000310: 7081 0bbe c1ba 623d b467 bbbc b8da 80bc
00000320: ac3c 123d d2b9 27bd 4d25 b83d 8bb9 a23d
00000330: 1305 c1bd 5d1b 9dbb 3763 26be 9ba6 31be
00000340: f5b3 783d 2685 b4bd be47 ab3c 487c 193d
00000350: 2a54 183e 9cd2 df3a 32e9 4f3e 8dc7 093d
00000360: ece8 813d c96f 27ba eb6a cdbc d916 0b3e
00000370: a330 82be 5def 33be 4541 4ebd 3989 babd
00000380: 7d74 76bd d9fd 46bc 87ce 813e 75f5 7d3e
00000390: aff2 73bd 3851 f1bd cdfb f23d 13d2 40bd
000003a0: 480e a6be f4d1 7ebe fb5d 3b3d b3c8 55bd
000003b0: 80a5 38bd 6910 3d3d ac3f 1abd e340 2ebd
000003c0: 6435 97ba cc4e 003e 3f3a f5bd 1d38 18be
000003d0: b25c 983d 44ae 32bd affb 8abd 3029 313d
000003e0: 81b9 91bd 4bf7 073d aaca cebd 0c1d 4b3d
000003f0: bef9 a0bc 345e b23c b266 833d 0eb9 3fbb

action_layer.layer1.1.bias f4 [2]
-0.009633963 -0.017588334
00000000: c5d7 1dbc 6915 90bc

encoding_layer.layer.0.weight f4 [64, 187]
-0.11989414 0.0019909465 0.07123301 0.06452425 0.012597674 -0.09291351 -0.06805064 -0.1569398
-0.37890342 -0.42518765 -0.1107792 -0.046204086 0.09082777 0.08103001 0.15751971 -0.07827614
-0.034690455 -0.09687485 0.036538597 0.09418365 -0.105269894 -0.044022758 -0.0936615 -0.09831746
-0.03228072 -0.1485663 0.09636079 0.08948184 0.25786412 -0.09262352 -0.0064807553 0.18012626
-0.014240017 -0.10375765 0.16205421 -0.041389592 0.115119174 -0.013548065 -0.05813101 0.006941055
-0.2372089 -0.19261177 -0.02706481 0.03565873 0.0275158 -0.007414294 -0.2382747 -0.01246603
0.099887975 -0.060275756 -0.1192323 -0.05082835 -0.030389685 0.044226106 0.06888174 0.09046937
0.11943622 -0.19611321 0.030463345 -0.03521541 0.05527996 0.10181427 -0.17578661 -0.004127892
-0.06088409 -0.032517735 0.0201627 -0.2482414 0.054397922 0.04166857 -0.008727358 -0.0656097
-0.1018453 0.10910024 0.1488829 -0.0657884 0.007884924 -0.12307728 0.082519576 0.21213377
0.046493143 -0.025111364 -0.138483 0.059108518 0.18179199 0.03231919 0.044262044 -0.18527529
0.0016156314 0.1857337 -0.094835974 -0.021917308 -0.105499186 -0.07366874 0.088245906 -0.07767183
-0.020132793 -0.07120309 -0.016804997 0.015307231 -0.024127867 0.046226665 0.029239116 -0.059518613
0.058861807 -0.015261392 0.09665175 0.10400012 -0.11574642 0.16884363 0.01915735 0.062463865
0.093712464 -0.11475543 0.17721827 -0.045493584 0.01927476 -0.04922338 -0.048620272 0.005015822
-0.07739239 -0.0024647564 -0.008293911 -0.04599514 0.030334422 -0.07659668 0.044420794 0.069384605
-0.007130736 0.05158153 0.028461142 0.010670418 0.04627525 -0.005346294 0.008651403 -0.03649151
0.0621373 0.107190736 -0.07000837 0.0016001823 0.017649343 -0.07053351 0.10711545 0.0066296924
0.010555782 -0.036530137 -0.027124403 -0.031781226 -0.006788052 0.077308 0.041987233 -0.024218772
0.008350393 0.044270817 0.0131551195 0.030130258 0.049793333 0.033085972 -0.00592055 -0.0033076792
0.0128398 -0.009141312 0.03511266 0.007205686 0.051784553 0.06838857 -0.0048151785 0.006118464
0.09479982 0.024911284 0.019269086 0.009769347 0.077965386 0.12244352 0.047544926 0.10066371
0.004624333 0.075159915 0.010582779 -0.018770356 0.03266693 0.08884822 0.08480857 -0.41723153
0.0025568046 0.13961068 -0.037069354 0.03888953 0.07476789 -0.034208264 0.004022111 -0.07611593
0.08064042 0.054054126 0.088988915 0.17747597 0.01338952 -0.065917954 -0.036847938 0.097066775
0.034317926 -0.3154263 -0.478212 -0.14017339 -0.73300916 0.17791069 -0.0018666164 -0.1059722
-0.041448154 -0.113275655 -0.036923088 0.028246695 -0.04508283 0.03011029 0.20551439 -0.0643049
-0.07236232 0.071441986 -0.008193858 -0.016112236 -0.13157348 -0.11086861 -0.13545033 -0.004467607
0.07543515 -0.057600193 -0.14047465 -0.1714801 0.21796061 -0.054832846 -0.05373547 0.014697979
-0.17909414 0.22566919 0.037179876 0.051541056 -0.07047577 0.053964216 0.086271696 -0.05505263
-0.16695397 -0.17275378 -0.15412782 -0.10188905 -0.2594767 -0.008641643 -0.1683909 0.051020276
-0.014563724 -0.22785176 -0.2136344 0.04389498 0.21167177 0.20400408 -0.08045284 -0.028983338
00000000: 0f8b f5bd 8a7a 023b 9de2 913d 4a25 843d
00000010: 7966 4e3c 7049 bebd 225e 8bbd d4b4 20be
00000020: a1ff c1be 32b2 d9be 35e0 e2bd 7f40 3dbd
00000030: e903 ba3d 10f3 a53d d94c 213e 3e4f a0bd
00000040: 9417 0ebd 5266 c6bd 7fa9 153d 5ce3 c03d
00000050: be97 d7bd 3551 34bd 9ad1 bfbd aa5a c9bd
00000060: ca38 04bd c421 18be ce58 c53d 4142 b73d
00000070: c406 843e 66b1 bdbd 845c d4bb 0573 383e
00000080: f64e 69bc e47e d4bd 8af1 253e 2288 29bd
00000090: 9ac3 eb3d b4f8 5dbc c81a 6ebd ca71 e33b
000000a0: e4e6 72be 053c 45be 05b7 ddbc e30e 123d
000000b0: d168 e13c 9bf3 f2bb 48fe 73be 523e 4cbc
000000c0: 1192 cc3d b6e3 76bd 1030 f4bd 6331 50bd
000000d0: caf3 f8bc 6f26 353d df11 8d3d 0148 b93d
000000e0: fa9a f43d e7d1 48be 448e f93c 093e 10bd
000000f0: 3d6d 623d 0084 d03d 6801 34be 4543 87bb
00000100: 9861 79bd 5131 05bd 3f2c a53c fe32 7ebe
00000110: 5bd0 5e3d aaac 2a3d 31fd 0ebc 615e 86bd
00000120: 4594 d0bd f26f df3d c274 183e 12bc 86bd
00000130: c52f 013c f10f fcbd 0600 a93d 9839 593e
00000140: 986f 3e3d 59b6 cdbc 7dce 0dbe c61b 723d
00000150: ae27 3a3e 2161 043d 1e4c 353d ceb8 3dbe
00000160: 98c3 d33a fa30 3e3e 5d39 c2bd ed8b b3bc
00000170: f50f d8bd a3df 96bd 45ba b43d 6912 9fbd
00000180: 87ed a4bc edd2 91bd a2aa 89bc 2ecb 7a3c
00000190: cea7 c5bc 2c58 3d3d df86 ef3c cac9 73bd
000001a0: 1419 713d eb0a 7abc 5af1 c53d 04fe d43d
000001b0: 760c edbd 58e5 2c3e e0ef 9c3c 1cda 7f3d
000001c0: 52ec bf3d e504 ebbd b578 353e 7b57 3abd
000001d0: 1ae6 9d3c 749e 49bd 0d26 47bd c45b a43b
000001e0: e77f 9ebd c087 21bb 2fe3 07bc 6665 3cbd
000001f0: e57f f83c b8de 9cbd 94f2 353d 8419 8e3d
00000200: f3a8 e9bb 2847 533d 5727 e93c fad2 2e3c
00000210: 1e8b 3d3d f72f afbb 9dbe 0d3c 1f78 15bd
00000220: ae83 7e3d d186 db3d 8c60 8fbd 35bd d13a
00000230: 5b95 903c df73 90bd 585f db3d e43d d93b
00000240: 29f2 2c3c a0a0 15bd ff33 debc 082d 02bd
00000250: 4f6e debb a853 9e3d cefa 2b3d 7266 c6bc
00000260: 16d0 083c 5155 353d 9288 573c bbd3 f63c
00000270: 18f4 4b3d 2885 073d 2c01 c2bb a6c5 58bb
00000280: 065e 523c 71c5 15bc 4bd2 0f3d ad1d ec3b
00000290: 0a1c 543d 4e0f 8c3d a5c8 9dbb 657d c83b
000002a0: 6826 c23d c012 cc3c 34da 9d3c 9c0f 203c
000002b0: 51ac 9f3d abc3 fa3d 78be 423d c628 ce3d
000002c0: b887 973b 71ed 993d 6463 2d3c 4ac4 99bc
000002d0: c2cd 053d 0ef6 b53d 1eb0 ad3d 5f9f d5be
000002e0: 1090 273b 1af6 0e3e 09d6 17bd a14a 1f3d
000002f0: e81f 993d f71d 0cbd eacb 833b abe2 9bbd
00000300: ce26 a53d dc67 5d3d d23f b63d 43bc 353e
00000310: b85f 5b3c feff 86bd dded 16bd f2ca c63d
00000320: f490 0c3d 8e7f a1be 34d8 f4be 9d89 0fbe
00000330: 7da6 3bbf 382e 363e 41a9 f4ba f407 d9bd
00000340: 8ac5 29bd 11fd e7bd aa3c 17bd 9d65 e73c
00000350: c6a8 38bd dba9 f63c 5d72 523e 4ab2 83bd
00000360: b232 94bd 2d50 923d 883f 06bc cffd 83bc
00000370: 33bb 06be 150f e3bd 7eb3 0abe 0165 92bb
00000380: be7d 9a3d 2eee 6bbd 96d8 0fbe 7b98 2fbe
00000390: 1131 5f3e 6898 60bd b919 5cbd cbcf 703c
000003a0: 7464 37be d315 673e ed49 183d b71c 533d
000003b0: 9a55 90bd 9509 5d3d 37af b03d de7e 61bd
000003c0: fbf5 2abe 5ee6 30be afd3 1dbe 35ab d0bd
000003d0: 21da 84be ae95 0dbc aa6e 2cbe a3fa 503d
000003e0: b09c 6ebc f951 69be fac2 5abe 39cb 333d
000003f0: 7cc0 583e 72e6 503e 75c4 a4bd 776e edbc

encoding_layer.layer.0.bias f4 [64]
-0.10979256 0.024362376 -0.059763502 -0.094562694 -0.06886784 -0.115620464 0.04247481 0.12033655
0.027010217 0.04179457 0.035965953 -0.007149182 -0.06300109 0.012559659 0.07900654 0.058426958
0.049843453 0.043059103 0.09069815 -0.10465373 -0.030786883 -0.014651624 0.0840074 -0.06556949
-0.00897485 -0.061501123 0.00838752 0.09224386 0.079194315 -0.024576014 0.0045882836 0.0912433
0.046512224 -0.032522824 0.048378766 0.051217306 -0.08469906 -0.015188361 -0.017344085 -0.038837384
0.052581012 0.034605928 -0.04013128 0.101705216 -0.04785487 0.04552764 0.014432539 0.03506463
0.029720346 0.05891344 0.05058921 0.051863234 -0.026339266 0.123710185 0.03793911 0.04316512
0.027001714 -0.00073117064 0.004044357 -0.10763029 -0.020395203 0.07191221 0.012536049 0.0531329
00000000: ecda e0bd 9b93 c73c 93ca 74bd 16aa c1bd
00000010: 950a 8dbd 6cca ecbd 11fa 2d3d 0273 f63d
00000020: 8844 dd3c c830 2b3d 0951 133d af43 eabb
00000030: b706 81bd 07c7 4d3c 2ece a13d 1b51 6f3d
00000040: a628 4c3d be5e 303d f4bf b93d b254 d6bd
00000050: c634 fcbc 5d0d 70bc 120c ac3d 4c49 86bd
00000060: 400b 13bc 9ae8 7bbd cf6b 093c 59ea bc3d
00000070: a130 a23d a353 c9bc 5059 963b c4dd ba3d
00000080: 9a83 3e3d a736 05bd d028 463d 3dc9 513d
00000090: b376 adbd 9ad8 78bc 2f15 8ebc f313 1fbd
000000a0: 305f 573d f2be 0d3d b260 24bd d34a d03d
000000b0: 7803 44bd 317b 3a3d 7576 6c3c ee9f 0f3d
000000c0: 1578 f33c 384f 713d a236 4f3d 8b6e 543d
000000d0: 72c5 d7bc c45b fd3d 0a66 1b3d e9cd 303d
000000e0: b332 dd3c 08ac 3fba 8786 843b 456d dcbd
000000f0: d713 a7bc b546 933d 0064 4d3c e2a1 593d

relational_layer.layers.0.att_src f4 [1, 1, 64]
0.38351464 0.5220357 -0.3177165 -0.09683561 0.12992565 0.28805012 -0.28589106 0.6169442
0.182949 -0.011110452 -0.37187976 0.23400636 -0.00370879 0.0007455363 0.43472275 -0.62687075
0.21581559 -0.42562866 0.47189677 0.3394776 -0.19374548 0.2829096 0.034167558 0.35981634
0.44648534 0.548622 -0.004684185 -0.1677146 -0.6007952 -0.16597636 -0.22312216 0.4448827
-0.07681931 -0.2608896 0.2758014 -0.020206472 -0.53363824 0.059386984 -0.4186988 0.17491284
-0.31673846 -0.06535895 -0.41334566 -0.65511334 -0.47456118 -0.22069816 -0.04913384 0.058061156
-0.3178228 -0.59466606 0.022708882 0.23882675 0.23685905 -0.62216717 0.114938386 -0.2847556
-0.48911858 0.06949223 0.09805167 -0.06114547 0.35439032 0.20654796 0.09509606 -0.05921373
00000000: 085c c43e 22a4 053f bdab a2be c051 c6bd
00000010: 3b0b 053e 4e7b 933e 5060 92be 0ef0 1d3f
00000020: fc56 3b3e 9d08 36bc 0667 bebe 5d9f 6f3e
00000030: 2c0f 73bb 1870 433a fb93 de3e 9a7a 20bf
00000040: c3fe 5c3e 00ec d9be 749c f13e 02d0 ad3e
00000050: 3765 46be 87d9 903e 48f3 0b3d d939 b83e
00000060: ba99 e43e 7e72 0c3f cb7d 99bb 60bd 2bbe
00000070: b7cd 19bf b5f5 29be 237a 64be aac7 e33e
00000080: 7153 9dbd 5293 85be d735 8d3e 0b88 a5bc
00000090: 849c 08bf c43f 733d b05f d6be 5a1c 333e
000000a0: 8b2b a2be eada 85bd 0ba2 d3be 82b5 27bf
000000b0: aff9 f2be b3fe 61be 9140 49bd 89d1 6d3d
000000c0: acb9 a2be 093c 18bf fa07 ba3c 008f 743e
000000d0: 2e8b 723e 5946 1fbf d164 eb3d 7ccb 91be
000000e0: c06d fabe f151 8e3d 50cf c83d ac73 7abd
000000f0: a672 b53e 4f81 533e b9c1 c23d 198a 72bd
