HGAT-MADDPG_ver1/data/logs/20240406-18-12-59/model_800.pt (torch, 238869 bytes, 22 tensors)

encoding_layer.layer.0.weight f4 [64, 187]
00000000: cd55 19be 415c b4bd 20c3 4e3c 81c6 b03c
00000010: cb80 643d 1a3e 97bd ebd3 c6bd 54d8 613b
00000020: 533d acbc 1fab e0bd 97d8 18bc 0e2d 29be
00000030: 2522 043e 0578 183d a905 ca3d 461f 95bd
00000040: aa6d 7f3d ad52 12be bac8 02bd 442b fb3c
00000050: 35e5 123d 515f d73d 0a1b c43d 003c 833d
00000060: a59f 7a3d a886 f2bc 4235 363b 3798 72bd
00000070: aa03 f5bd 6666 a3bc b0c9 7bbc 1352 88bd
00000080: 223b a23d 45e3 853d cc06 d83d dcc5 42be
00000090: 1f8d 94be 2c39 023d 3797 aabd bd67 d8bd
000000a0: 9f35 313d 72fd 973d 7466 29bd 1062 babd
000000b0: 690b 193d 7695 5f3d 8021 ca3d 1d39 60be
000000c0: 3c55 82bd 71a9 d2bd aedd 6c3e 72d2 363e
000000d0: 6539 b33d 8ee8 c23d 027d 9abb 7520 d13b
000000e0: ad64 833d 8ced f5bc 9f01 ed3c 88ce 813c
000000f0: 9469 f1bb 4d4a 423d 2780 803d e371 46bc
00000100: dec0 a93d f6cc dbbd d7e1 21bd 8177 043d
00000110: b563 43bd 5e19 71bd c07e 2ebd 3cd6 713d
00000120: f9da 3cbd 1726 47bd 8bd4 24bd f6eb 46bd
00000130: cd72 943d 8d34 02be cfd0 c2bd d10a 753d
00000140: f067 f9bd 78a1 a8bd e0be 24bd 5c72 a4bd
00000150: fbbc 55bd cb90 81bd e5cc 5abd b043 ab3d
00000160: 94a8 063d 00eb 443d 7e6b 2c3c 74c8 a03c
00000170: ae2e abbc 8ce2 f03c 551a febc 2ff5 aa3d
00000180: 2e05 1abc e836 a83d 87c7 8cbd e510 17bd
00000190: c3dc 733d 92f1 3e3c 86a5 313d f738 443d
000001a0: df9a 99bc b850 c5bc c319 823c 5b90 973d
000001b0: 601a d53d 2b42 513d c2bd 773d 43b8 203d
000001c0: 48c0 333c ee70 bfbc ab47 693c 1d8a d5bd
000001d0: 6175 633c 2d1d f43c 36ce 48bd 3654 793d
000001e0: 1a77 2bbc 93fc 0fbd 2037 d3bd a69f 763c
000001f0: c91f d3bd 16e2 c43c ab17 5abc 6fd9 b63d
00000200: 38b5 aa3c 0726 98bd 8d67 17bd 11f3 1c3d
00000210: ae16 edbc 80f4 15be 0525 243d 3ca6 813d
00000220: 8752 a63d 2521 88bd 9f9d 463b 3653 9fbd
00000230: ea19 20bc e6d8 c5bb 9a3e 42bd eaf3 18bd
00000240: b701 203d 681e c43c 5a52 9ebd eca3 0e3c
00000250: 1801 183d a009 133d 55b9 c03b 64e6 063b
00000260: dc67 303d 0a10 333c 1ee9 6dbd a3eb 09bc
00000270: b2f3 833d b22b 1fbd e8ee 59bd 1118 8dbc
00000280: 7020 8c3a 3432 cfbc ffd6 a03c c850 873c
00000290: 0dcd 443d 2465 c73c 190e 693d 7498 593d
000002a0: d277 bdbc 3b4a 4dbd 77d8 2cbd 8ae2 263c
000002b0: d8db 243d 8b8a 163c a88b 633b 14d5 e53c
000002c0: 4e98 cabb a3e7 6b3d ddcd 6cbc e83c 383c
000002d0: c2cd 1e3d 5c8b 783d ad94 f63c eac0 60be
000002e0: c92d b9bd 2391 83bd 6677 0dbd 8374 a9bd
000002f0: 3a81 cf3c 7737 903d dac8 45bd 8234 36bd
00000300: 8b55 06be 982a 72bc 033e c93d ae7b 92bb
00000310: d521 3a3c d055 90ba 483e b93c 5767 c2bd
00000320: 05ad 3e3d 9962 59bc a1d8 053e a167 aebc
00000330: 9cb6 6f3d 5de3 173d 5d1c dfbb 0de9 85bc
00000340: 551e 9a3d 3b0e e23d e907 873d a15c 8dbd
00000350: d8f4 1fbc 80d0 7cbe 0bd1 ca3d 9bc3 b1bd
00000360: f8a6 ba3c c636 143e c891 1c3e a692 453c
00000370: 4121 debc 60d4 bbbc 282c 9dbc da20 aa3c
00000380: aa8e 013e 2de1 b53b 5927 e93d 0ce7 bd3d
00000390: b210 9b3c 7fd1 b3bd 51ea d23d 5a58 f63c
000003a0: 5036 b6bb 5172 9b3d f009 0c3e 6cd2 3cbd
000003b0: 40ae fa3c e209 7dbd 8e55 38bd 580b 153d
000003c0: 0dea f1bd 57bc 4e3d 6372 21bd 6719 7cbd
000003d0: d25a 133e 328f 9b3d c4f3 3cbd 6b92 0bbe
000003e0: f94c 9dbd 3169 ba3c d272 d7bd d921 a03c
000003f0: 0484 bfbd d200 73bd c180 a33d f8fe 8ebd
-0.14974137 -0.088066585 0.012619764 0.021579029 0.05578689 -0.07384892 -0.09708389 0.0034461217
-0.021025335 -0.10970139 -0.009328983 -0.16521093 0.1290365 0.037223835 0.09864361 -0.072813556
0.062360443 -0.14289351 -0.03192971 0.03066028 0.03586312 0.10516227 0.0957547 0.064079285
0.061187405 -0.029605225 0.002780274 -0.059227195 -0.119635895 -0.019946288 -0.01536791 -0.066562794
0.07921435 0.06537489 0.105481714 -0.1902079 -0.29013917 0.031792805 -0.08329623 -0.105666615
0.043264028 0.07421388 -0.041357473 -0.09100735 0.037364397 0.054585896 0.09869671 -0.21896787
-0.063639134 -0.10286225 0.23131439 0.17853716 0.087511815 0.095170125 -0.004714609 0.006382043
0.06415687 -0.030020498 0.028931437 0.015845552 -0.007367322 0.04743414 0.06274443 -0.012112114
0.082887396 -0.107324526 -0.03952202 0.03234053 -0.04770251 -0.058862083 -0.042601347 0.0590422
-0.046107266 -0.04862031 -0.04024176 -0.048564874 0.07248459 -0.12715359 -0.09512483 0.05982477
-0.12178028 -0.08233923 -0.040221095 -0.08029625 -0.05218218 -0.06326445 -0.05341806 0.0836252
0.032875612 0.048075676 0.010523675 0.019626833 -0.020896282 0.029404901 -0.031018415 0.08347546
-0.009400649 0.082135975 -0.06873994 -0.036881346 0.059536707 0.011654275 0.043370746 0.04790589
-0.018750606 -0.024086341 0.015881425 0.074005805 0.10405421 0.051088493 0.0604837 0.039238226
0.010971136 -0.023369279 0.014238278 -0.10426734 0.013882966 0.029799068 -0.049024783 0.060871325
-0.010465408 -0.035152983 -0.10313249 0.015052712 -0.10308797 0.024033587 -0.013311307 0.08928191
0.020838365 -0.07429128 -0.036963988 0.038317744 -0.028941479 -0.1464405 0.040074367 0.06330535
0.081212096 -0.06646947 0.0030306352 -0.07779543 -0.009771803 -0.006037819 -0.047422983 -0.03734199
0.039064135 0.02394028 -0.07730551 0.008706074 0.037110418 0.03589785 0.0058814683 0.00205841
0.043067798 0.010929117 -0.058083646 -0.008417997 0.064429656 -0.03886003 -0.053206354 -0.01722339
0.001069082 -0.025292493 0.019633768 0.016518012 0.048047114 0.02434022 0.05689821 0.053123906
-0.023128424 -0.05011962 -0.042198624 0.010185847 0.04024872 0.009188305 0.0034720693 0.028055705
-0.006182707 0.057593953 -0.0144533785 0.01124499 0.038770445 0.06067978 0.030100191 -0.21948591
-0.09041936 -0.06424167 -0.034537695 -0.08274176 0.025330175 0.07041829 -0.04828725 -0.04448367
-0.1311857 -0.014780663 0.09826281 -0.00447031 0.011360605 -0.0011011902 0.022612706 -0.09492367
0.046551723 -0.013268136 0.13070919 -0.021289648 0.05852376 0.037082065 -0.006808801 -0.016346479
0.075253166 0.110378705 0.065933056 -0.06902433 -0.009762965 -0.24688911 0.09903153 -0.08679887
0.022784695 0.1447402 0.15289986 0.0120588895 -0.027115466 -0.022928417 -0.019186094 0.020767618
0.12652078 0.0055505247 0.11384458 0.09272584 0.01892886 -0.087801926 0.102985986 0.030071426
-0.005560674 0.075901635 0.13675666 -0.04609911 0.030600667 -0.061777003 -0.045003466 0.03638777
-0.1181222 0.050472584 -0.03941573 -0.061547663 0.14390114 0.07595672 -0.04613091 -0.13630073
-0.07680697 0.022755237 -0.10519947 0.01954739 -0.09351352 -0.059326954 0.07983542 -0.06982225

encoding_layer.layer.0.bias f4 [64]
00000000: d333 27bd d900 b9bb 7233 683d 48c7 35bc
00000010: 1e47 31bd 4d62 a9bc 625f eb3c f5c5 cabd
00000020: 407e 41bd 8680 41bd fcfd fa3c f822 8ebd
00000030: fdcc ea3c 99bf f63b 099a 993d 9c35 fbbc
00000040: 8b43 72bc d41a 2a3d f9e4 533c 843a 92bd
00000050: 1543 9fba 5154 783d d3e7 553d 603f c8bc
00000060: 47d0 743d e1c7 89bc 0a84 033c 9dd2 88bd
00000070: 3f77 d2bc d882 b93d 6414 5f3d 5748 913c
00000080: 2899 3e3d d603 77bc 2a5f 823d 3d77 07bc
00000090: ca0a 513b 6f03 753d 5764 8ebd d742 77bd
000000a0: b617 8dbd 0ea7 61bd 68e0 453d 4522 ea3c
000000b0: ff23 c63c c268 95bc 8d58 7fbd 68ff 303d
000000c0: 8839 c63c 63d0 693d 5722 50bd d3a0 f93d
000000d0: e507 57bd 0662 463d b28d 1bbd 341b 6dbd
000000e0: 9839 443b b6af 293d 061e 39bc b730 833d
000000f0: 6b8c 123d 6293 a9bc 5f2e f03c 684e 95bc
-0.040820908 -0.005645853 0.056689687 -0.011094876 -0.043280713 -0.020676756 0.028732006 -0.099010386
-0.047239542 -0.04724171 0.030638687 -0.069402635 0.0286622 0.0075301644 0.07500083 -0.030665211
-0.014786611 0.04152949 0.012933009 -0.07140067 -0.0012150729 0.060627285 0.052223038 -0.024444282
0.05976894 -0.016818943 0.008027086 -0.06680796 -0.025691627 0.090581596 0.054462805 0.01773469
0.04653278 -0.015076598 0.06365807 -0.008268175 0.00318973 0.059817728 -0.06952732 -0.060366478
-0.06889288 -0.055090956 0.048309714 0.028580794 0.024187086 -0.018238429 -0.062340308 0.043212324
0.024197355 0.0570835 -0.050814 0.12188878 -0.052497763 0.048433326 -0.037976928 -0.05788727
0.0029941555 0.041427337 -0.011298662 0.06405776 0.035778444 -0.02070016 0.029318986 -0.018225864

relational_layer.layers.0.att_src f4 [1, 1, 64]
00000000: 82dc 9bbd e859 90bd e4f3 28be afe0 24be
00000010: da24 223d f8b6 a43e d84f fe3c 1a84 033f
00000020: 1087 cb3e 3c0c 50bd 29df 243d cfe4 3c3e
00000030: b7db 44be 7814 3a3e 1303 76bd 527c 2f3e
00000040: e83d 143e fb06 563e 43b5 c23e fc6c b2be
00000050: 245b 08bc 88d8 a4be c0f1 83bd 0fab 0f3f
00000060: 7627 f7bd 1f59 2e3e f537 3fbd 45dc c9be
00000070: c424 6b3d eb0f ccbe a95b 24bd 238d 493e
00000080: 239e 27be 866b 51bc fb7d 9fbe ed09 c9bd
00000090: f8e9 46bc 7133 eb3e 051b b6bd da8a 283e
000000a0: 807d 3f3e 6e59 893d b474 dbbe 659d 453e
000000b0: bd99 f4be 284e a5be e6ef f73e 77e1 20be
000000c0: 2c18 be3e f687 a1be fd4c 183d df0f 163d
000000d0: 6762 e2bd 464b 853e 432f a43d 111e a13b
000000e0: 0d6c 093c 9993 1abe 8cf5 16bf 3d8a 13bd
000000f0: e060 183f 7ea1 8b3d 125e 49be a6bf 8f3e
-0.07610418 -0.07048398 -0.16499287 -0.16101335 0.039585926 0.32170844 0.031043932 0.51373446
0.39751482 -0.050792918 0.040251885 0.18446659 -0.1922444 0.1817187 -0.060061526 0.17137268
0.1447674 0.209011 0.38028917 -0.34848773 -0.008322511 -0.3219645 -0.064425945 0.5612039
-0.120680735 0.17026184 -0.046684224 -0.39425865 0.05740811 -0.39855894 -0.040126476 0.19682746
-0.16368918 -0.012781983 -0.31150803 -0.09816346 -0.012140743 0.45937684 -0.08891872 0.16459218
0.18700218 0.067065105 -0.42862475 0.19298322 -0.47773543 -0.3228619 0.48425215 -0.15711008
0.37127817 -0.31549042 0.037182797 0.03663623 -0.11053925 0.26033992 0.08016827 0.0049169143
0.008387578 -0.15095367 -0.58968425 -0.036020506 0.5952282 0.068179116 -0.19664791 0.28075904

relational_layer.layers.0.att_dst f4 [1, 1, 64]
00000000: 8bea 09be bc80 a9bc 563d 96be 7fef 3c3e
00000010: c21b 55bd 4318 e43e d319 aa3e 328f 0e3e
00000020: af94 ec3e 508c f63e 7cee 3dbe 228d 7b3e
00000030: 6c44 d5be a5a9 b3be ae91 cd3e ffb8 e1bd
00000040: 5b89 d13e 8b24 6fbd 8148 e33e e5b6 8d3e
00000050: c992 b23d 18fb 133f 1f46 02bf b29a eebd
00000060: 3fd2 9e3c fe90 f03e edf4 72be 5e0f 4ebe
00000070: c6c0 efbe 42be e0be 1d77 0ebe fd4d 3e3e
00000080: ad5a 7ebe d64d 1abe 20fe fabe 0e51 91be
00000090: 3c57 0e3f fbf5 b33e 43c6 debd c087 5d3e
000000a0: 1f9b f33e 426d d83e 1806 6abd 7d1e b13c
000000b0: 6de2 9cbe e00d e8bd 1717 223f 0cb3 5ebe
000000c0: a01d 993e ad99 2d3d b7ea 29be e5f1 7a3d
000000d0: 2192 9ebe 2613 64be c74e 7b3c 52d9 e63e
000000e0: 552c 7b3e 82cc 903d a7f8 91be 0827 333e
000000f0: e561 c03d 649b b63c ad8f 953b 5188 41be
-0.13468377 -0.020691268 -0.2934367 0.18450736 -0.052028425 0.4454976 0.33222827 0.13921812
0.46207187 0.48153925 -0.18548006 0.24565557 -0.41653764 -0.35090366 0.40150207 -0.11021613
0.40925106 -0.05838446 0.44391254 0.276786 0.08719403 0.57805014 -0.50888246 -0.116505995
0.019387363 0.4698562 -0.23726244 -0.2012305 -0.46826762 -0.43895155 -0.13912626 0.18584438
-0.24839278 -0.15068755 -0.49022007 -0.28382152 0.5560186 0.35148606 -0.10877659 0.21633816
0.47579286 0.42270857 -0.057134718 0.021620983 -0.306415 -0.113307714 0.6331648 -0.21747988
0.29905415 0.042382885 -0.16593443 0.061265845 -0.30970863 -0.2227293 0.015338606 0.45087677
0.2452863 0.07070257 -0.2851002 0.17495358 0.09393672 0.022290893 0.0045642466 -0.18899657

relational_layer.layers.0.bias f4 [64]
00000000: d3c2 3bbd f1a4 97bd 5b0e a2ba adad 893c
00000010: b1d9 18bc 3df2 15be 29a1 9fbd 54b3 bcbd
00000020: b4f4 b0bd 94f1 9ebc fedd 00be 23b1 97bd
00000030: d82b 88bd 7f4e 9cbd eb1d ffbd 3d4c 00be
00000040: 4ce2 e8bd a2a0 dbbd c547 25bd 930f 98bd
00000050: 8f0c 21bd 0e3d 3ebd 021d 08bd 9a35 abbd
00000060: 873d 9abb 6e80 ccbd 616e 7cbd 8e26 8abc
00000070: 5dee d1bd 3d23 45bc 4ff1 40bd 1e16 02bd
00000080: 9cb7 b83c f0c1 d2ba 3af9 593d 56de f8bd
00000090: 6d80 53bd 29f8 e5bc b79a 0abe 6aea c5bd
000000a0: ae24 dcbd 7f4f a5bd 4609 a7bd 2dcb 91bd
000000b0: 71a6 afbc a633 783d e0b9 efbc 65de 413d
000000c0: 5c71 b3bc 2593 3d3d fdfe c93c c2c4 c0bd
000000d0: 1a52 cfbd cee6 33be 9e82 e8bd c4f6 d1bd
000000e0: 42d9 26bd 9449 07be dbc5 2dbd 0383 32bd
000000f0: 5114 e8bd c2b9 87bd 400b 05be 7149 30bd
-0.045840096 -0.07404507 -0.0012363897 0.016806448 -0.009329245 -0.14643188 -0.07794411 -0.092138916
-0.086404234 -0.019402303 -0.12584683 -0.07406833 -0.066489875 -0.076321594 -0.12456878 -0.12529083
-0.11371288 -0.10723998 -0.040351648 -0.074248455 -0.039318617 -0.046444945 -0.03323079 -0.08359833
-0.0047070417 -0.099854335 -0.061628703 -0.016864087 -0.10250542 -0.012032327 -0.04710513 -0.031759374
0.02254849 -0.0016079526 0.053216197 -0.12151782 -0.05163615 -0.028072434 -0.13535582 -0.096638516
-0.107491836 -0.08071803 -0.08156066 -0.07118831 -0.02144167 0.06059613 -0.029263437 0.047331233
-0.02190464 0.046282906 0.02465772 -0.094125286 -0.101230815 -0.17568514 -0.11353038 -0.10252145
-0.040734537 -0.13211662 -0.042425018 -0.043581974 -0.11332 -0.06627227 -0.12992573 -0.04303879

relational_layer.layers.0.lin_src.weight f4 [64, 64]
00000000: 64aa f23d ef80 a3be 6544 2cbe 96e0 a7bd
00000010: cd75 cebc 8bd1 17be c569 d8bd 3496 203d
00000020: 55e6 6b3e 7f55 803c 0a3a da3d d588 c2bc
00000030: 47ec 29be 4e57 993d b6f6 b4be 318d 5f3e
00000040: 5bcf d6bd 35bc 7d3e d135 adbd 6e83 3b3e
00000050: 41c7 853c 445b abbd ee38 9abe c132 1a3d
00000060: 3de6 ebbd 2427 48bc a1f3 aebd 3554 80be
00000070: af54 fcbd 45a6 6e3e b036 8abc 5f6b 38be
00000080: ccb6 0c3d f9f3 953d dd30 263d a47c 36be
00000090: 6765 0b3e 075e c63b 0d4f eb3d 51d2 113d
000000a0: 1b32 183e d70d 223e 1da1 e93d 341c 8b3d
000000b0: 05c9 5bbb 4548 b33d 7f4e 5a3c 8900 f33d
000000c0: b195 3b3e 6277 ce3c 100e 84bd 3729 29be
000000d0: ec7a 58be 1688 41bd ccc7 c5bd 78e0 d63d
000000e0: d95d fa3d 280e 6e3e c9e0 21be 9c6f 66be
000000f0: ec78 363e 40ed 383e c841 3abe 0a96 c1bd
00000100: 6aea 363c 62b3 adbd 0a87 18be 4c33 13be
00000110: efc3 cdbd 69e9 463c 3727 33be 7d8a 0d3c
00000120: 9395 563d fae5 463e 5587 76bd e063 803d
00000130: 47fb af3d 441f e1bd c2fb 39be ee51 c13d
00000140: ea00 1a3d 6916 aa3d ae49 163e 2934 f73d
00000150: 2bbc 06be 5fae e4ba c010 e3bd 92c4 fdbd
00000160: 1a85 ecbd c3bc 19be 8fc4 c13d f04f a93d
00000170: ee77 75be 09de 233e d7b0 ebbd dbc8 70bd
00000180: 1fc6 64bc 1971 3c3e 2c9a e63d 3426 0d3e
00000190: 016a 29be 9743 28be 2722 52bd d7fa 1fbe
000001a0: 4fa9 8e3d da30 0c3e 9195 eabd eb8d 93bd
000001b0: a02c a13d b7dd 4abd 9259 89bd 3d77 2dbd
000001c0: d894 66be f309 7f3e d0ff 8fbc d88e 543e
000001d0: b613 a13e e46d 41be 40da 95bc ee8d 063e
000001e0: de1a 2f3d dbd2 11be b291 333e 0902 87bc
000001f0: cf8e 73bd 7430 8a3e eea5 72bc ef53 c63d
00000200: f725 273d 1f78 dd3d 84cc 8abe 61e7 bfbd
00000210: 72d1 05be dbc5 8e3d e676 f7bc ac7e 8d3d
00000220: c02c 8d3d 36b6 1a3e 201e f63d 6a0f 17be
00000230: 48c0 39be 44cc 5e3e 04ac 8c3e 8d08 3a3e
00000240: 48db e3bb 7647 063e ffd4 83be e76a d03d
00000250: 7728 133e 4bf3 ec3c f24d a7bd 4a01 fc3d
00000260: 44ca 70bd 5865 26bd 9b5d fc3c 1aab e53d
00000270: 4e17 2ebb cca0 78be de46 a0be b511 0c3e
00000280: 8d57 a03d 2c2f 2c3d 9fd8 333e e167 b0bc
00000290: 1cae 85be 982d 743d da71 28be ebb9 04be
000002a0: 5758 1abe c9f7 0cbe f992 ef3d ab82 62be
000002b0: 4d16 80bd b16e e5bd 3f7f 58be afe4 173e
000002c0: b157 80bb e844 b73d 7fae 733e 15b2 84bd
000002d0: b39a 363e 181a 553e 43e1 bcbd f1b3 cabc
000002e0: 903d 32be 137e bebc 2bcc a9be a846 79be
000002f0: 9b3d 133d 9f5c 60bd b75d 063e 32af b2bc
00000300: b5af b4bc 0bad f93b 9bd6 2d3e bc27 2bbe
00000310: a921 4abe 0384 333e 578d e13d 4e73 fa3c
00000320: acb9 13be cc40 333e 24f7 653e 8dc0 28bd
00000330: 4bcb 653d 0106 153e a12c c2bd feb1 fcbd
00000340: f647 4cbd 4e7a 2b3e 758c 4cbd c446 a2bd
00000350: 3f7b 873d 1fb8 343d 6700 4cbe 3380 05be
00000360: ee44 c93d 9633 743a 1913 d13b ceab d13d
00000370: 64b7 8bbe ac7b 413d 9374 073e 5d28 84be
00000380: 62e8 62bd f69d 3e3c 45fb 25be f302 a33d
00000390: 0f52 f23d 8f01 24bc bb10 57be 5d9d 523d
000003a0: 4b48 c3bd d81c 953e ada4 c1bd 7202 9bba
000003b0: 07ae cfbd 9f3e a33d 80f6 cebd 734a c8bd
000003c0: 357d 303e abee b0bd 9ca4 82bb f107 80bd
000003d0: 80b1 08be 7659 fd3d caad 0ebd ebbb 363c
000003e0: 0708 163e 2c55 6c3d a4fd ab3d 022f 1a3e
000003f0: c468 43be 4f1d babd ad18 f5bd b564 d7be
0.11848906 -0.31934306 -0.16822965 -0.08197133 -0.025202656 -0.14826028 -0.10567049 0.039205745
0.23037083 0.015665768 0.10655601 -0.023746887 -0.16594039 0.07487355 -0.35344476 0.21831204
-0.10488769 0.24778827 -0.0845753 0.18311855 0.016330363 -0.08367017 -0.3012156 0.03764606
-0.11518524 -0.012216363 -0.08542562 -0.25064245 -0.123208396 0.23305614 -0.01687178 -0.18009709
0.034354016 0.07321925 0.040573943 -0.17820984 0.136129 0.0060536894 0.11489687 0.035600964
0.14862864 0.15825592 0.11407683 0.06792489 -0.0033536565 0.08754019 0.013324379 0.118653364
0.18318821 0.02520341 -0.06447995 -0.16519628 -0.21140641 -0.047248922 -0.09657249 0.10492033
0.12224931 0.23247588 -0.15808405 -0.22503513 0.17819566 0.18059254 -0.18189156 -0.09452446
0.011164287 -0.0848148 -0.14895263 -0.14375037 -0.10047137 0.01214061 -0.17495428 0.008638975
0.05238874 0.19423667 -0.060187656 0.0626905 0.08592849 -0.109922916 -0.18162444 0.09439455
0.037598528 0.08305056 0.14676544 0.12070496 -0.13157718 -0.0017446986 -0.11087179 -0.123910084
-0.115488246 -0.15013413 0.09461319 0.082672 -0.23971531 0.16002668 -0.11508339 -0.0587853
-0.013963251 0.18402518 0.11259875 0.13784105 -0.16544344 -0.16432033 -0.0513021 -0.15623032
0.06965887 0.1369051 -0.11454309 -0.07204803 0.0786984 -0.04952785 -0.06706537 -0.042350043
-0.22517717 0.24906139 -0.017578036 0.20757616 0.3146035 -0.18889576 -0.018292546 0.1314008
0.042750232 -0.14240591 0.17536047 -0.016480463 -0.059462365 0.26990092 -0.0148100685 0.09683978
0.04080769 0.10813927 -0.27109158 -0.09370304 -0.13068178 0.06971332 -0.030208062 0.06908926
0.06893301 0.1510857 0.12017465 -0.14751974 -0.18139756 0.21757609 0.27474988 0.18167324
-0.0069536306 0.13113198 -0.2574844 0.1017664 0.14370905 0.028924605 -0.08169164 0.12304933
-0.058786646 -0.040623993 0.030806353 0.11214276 -0.0026564184 -0.24280089 -0.31304067 0.1367863
0.07829199 0.042037174 0.17563103 -0.021533908 -0.26109397 0.059613794 -0.16449681 -0.12961547
-0.15072761 -0.13766398 0.11697955 -0.22120158 -0.062542535 -0.11202753 -0.2114229 0.1483333
-0.0039167036 0.0894869 0.23797034 -0.06479279 0.1783245 0.20810735 -0.09222653 -0.024744006
-0.17406297 -0.023253476 -0.3316358 -0.2434336 0.035947423 -0.05477583 0.13121687 -0.021812055
-0.02205644 0.0076195053 0.16976397 -0.16714376 -0.19739403 0.17530827 0.110132866 0.03057256
-0.14426297 0.17505187 0.22457558 -0.041199256 0.05610208 0.14553072 -0.094811685 -0.12338637
-0.049873315 0.16745874 -0.049938638 -0.07923654 0.06615304 0.044120904 -0.19922028 -0.13037185
0.098276004 0.0009315548 0.0063804504 0.10237847 -0.27288353 0.047237083 0.13228063 -0.25812045
-0.0553974 0.0116343405 -0.16209133 0.07959547 0.11832058 -0.010010137 -0.21002476 0.051419605
-0.09535273 0.2912357 -0.094552375 -0.001182629 -0.10140615 0.079709284 -0.1010561 -0.09779825
0.17235263 -0.08639272 -0.003986908 -0.06251515 -0.13348961 0.12370579 -0.034833707 0.011153202
0.146515 0.057698414 0.083979875 0.15056995 -0.19082934 -0.090876214 -0.11967597 -0.4206902

relational_layer.layers.0.lin_dst.weight f4 [64, 64]
00000000: 64aa f23d ef80 a3be 6544 2cbe 96e0 a7bd
00000010: cd75 cebc 8bd1 17be c569 d8bd 3496 203d
00000020: 55e6 6b3e 7f55 803c 0a3a da3d d588 c2bc
00000030: 47ec 29be 4e57 993d b6f6 b4be 318d 5f3e
00000040: 5bcf d6bd 35bc 7d3e d135 adbd 6e83 3b3e
00000050: 41c7 853c 445b abbd ee38 9abe c132 1a3d
00000060: 3de6 ebbd 2427 48bc a1f3 aebd 3554 80be
00000070: af54 fcbd 45a6 6e3e b036 8abc 5f6b 38be
00000080: ccb6 0c3d f9f3 953d dd30 263d a47c 36be
00000090: 6765 0b3e 075e c63b 0d4f eb3d 51d2 113d
000000a0: 1b32 183e d70d 223e 1da1 e93d 341c 8b3d
000000b0: 05c9 5bbb 4548 b33d 7f4e 5a3c 8900 f33d
000000c0: b195 3b3e 6277 ce3c 100e 84bd 3729 29be
000000d0: ec7a 58be 1688 41bd ccc7 c5bd 78e0 d63d
000000e0: d95d fa3d 280e 6e3e c9e0 21be 9c6f 66be
000000f0: ec78 363e 40ed 383e c841 3abe 0a96 c1bd
00000100: 6aea 363c 62b3 adbd 0a87 18be 4c33 13be
00000110: efc3 cdbd 69e9 463c 3727 33be 7d8a 0d3c
00000120: 9395 563d fae5 463e 5587 76bd e063 803d
00000130: 47fb af3d 441f e1bd c2fb 39be ee51 c13d
00000140: ea00 1a3d 6916 aa3d ae49 163e 2934 f73d
00000150: 2bbc 06be 5fae e4ba c010 e3bd 92c4 fdbd
00000160: 1a85 ecbd c3bc 19be 8fc4 c13d f04f a93d
00000170: ee77 75be 09de 233e d7b0 ebbd dbc8 70bd
00000180: 1fc6 64bc 1971 3c3e 2c9a e63d 3426 0d3e
00000190: 016a 29be 9743 28be 2722 52bd d7fa 1fbe
000001a0: 4fa9 8e3d da30 0c3e 9195 eabd eb8d 93bd
000001b0: a02c a13d b7dd 4abd 9259 89bd 3d77 2dbd
000001c0: d894 66be f309 7f3e d0ff 8fbc d88e 543e
000001d0: b613 a13e e46d 41be 40da 95bc ee8d 063e
000001e0: de1a 2f3d dbd2 11be b291 333e 0902 87bc
000001f0: cf8e 73bd 7430 8a3e eea5 72bc ef53 c63d
00000200: f725 273d 1f78 dd3d 84cc 8abe 61e7 bfbd
00000210: 72d1 05be dbc5 8e3d e676 f7bc ac7e 8d3d
00000220: c02c 8d3d 36b6 1a3e 201e f63d 6a0f 17be
00000230: 48c0 39be 44cc 5e3e 04ac 8c3e 8d08 3a3e
00000240: 48db e3bb 7647 063e ffd4 83be e76a d03d
00000250: 7728 133e 4bf3 ec3c f24d a7bd 4a01 fc3d
00000260: 44ca 70bd 5865 26bd 9b5d fc3c 1aab e53d
00000270: 4e17 2ebb cca0 78be de46 a0be b511 0c3e
00000280: 8d57 a03d 2c2f 2c3d 9fd8 333e e167 b0bc
00000290: 1cae 85be 982d 743d da71 28be ebb9 04be
000002a0: 5758 1abe c9f7 0cbe f992 ef3d ab82 62be
000002b0: 4d16 80bd b16e e5bd 3f7f 58be afe4 173e
000002c0: b157 80bb e844 b73d 7fae 733e 15b2 84bd
000002d0: b39a 363e 181a 553e 43e1 bcbd f1b3 cabc
000002e0: 903d 32be 137e bebc 2bcc a9be a846 79be
000002f0: 9b3d 133d 9f5c 60bd b75d 063e 32af b2bc
00000300: b5af b4bc 0bad f93b 9bd6 2d3e bc27 2bbe
00000310: a921 4abe 0384 333e 578d e13d 4e73 fa3c
00000320: acb9 13be cc40 333e 24f7 653e 8dc0 28bd
00000330: 4bcb 653d 0106 153e a12c c2bd feb1 fcbd
00000340: f647 4cbd 4e7a 2b3e 758c 4cbd c446 a2bd
00000350: 3f7b 873d 1fb8 343d 6700 4cbe 3380 05be
00000360: ee44 c93d 9633 743a 1913 d13b ceab d13d
00000370: 64b7 8bbe ac7b 413d 9374 073e 5d28 84be
00000380: 62e8 62bd f69d 3e3c 45fb 25be f302 a33d
00000390: 0f52 f23d 8f01 24bc bb10 57be 5d9d 523d
000003a0: 4b48 c3bd d81c 953e ada4 c1bd 7202 9bba
000003b0: 07ae cfbd 9f3e a33d 80f6 cebd 734a c8bd
000003c0: 357d 303e abee b0bd 9ca4 82bb f107 80bd
000003d0: 80b1 08be 7659 fd3d caad 0ebd ebbb 363c
000003e0: 0708 163e 2c55 6c3d a4fd ab3d 022f 1a3e
000003f0: c468 43be 4f1d babd ad18 f5bd b564 d7be
0.11848906 -0.31934306 -0.16822965 -0.08197133 -0.025202656 -0.14826028 -0.10567049 0.039205745
0.23037083 0.015665768 0.10655601 -0.023746887 -0.16594039 0.07487355 -0.35344476 0.21831204
-0.10488769 0.24778827 -0.0845753 0.18311855 0.016330363 -0.08367017 -0.3012156 0.03764606
-0.11518524 -0.012216363 -0.08542562 -0.25064245 -0.123208396 0.23305614 -0.01687178 -0.18009709
0.034354016 0.07321925 0.040573943 -0.17820984 0.136129 0.0060536894 0.11489687 0.035600964
0.14862864 0.15825592 0.11407683 0.06792489 -0.0033536565 0.08754019 0.013324379 0.118653364
0.18318821 0.02520341 -0.06447995 -0.16519628 -0.21140641 -0.047248922 -0.09657249 0.10492033
0.12224931 0.23247588 -0.15808405 -0.22503513 0.17819566 0.18059254 -0.18189156 -0.09452446
0.011164287 -0.0848148 -0.14895263 -0.14375037 -0.10047137 0.01214061 -0.17495428 0.008638975
0.05238874 0.19423667 -0.060187656 0.0626905 0.08592849 -0.109922916 -0.18162444 0.09439455
0.037598528 0.08305056 0.14676544 0.12070496 -0.13157718 -0.0017446986 -0.11087179 -0.123910084
-0.115488246 -0.15013413 0.09461319 0.082672 -0.23971531 0.16002668 -0.11508339 -0.0587853
-0.013963251 0.18402518 0.11259875 0.13784105 -0.16544344 -0.16432033 -0.0513021 -0.15623032
0.06965887 0.1369051 -0.11454309 -0.07204803 0.0786984 -0.04952785 -0.06706537 -0.042350043
-0.22517717 0.24906139 -0.017578036 0.20757616 0.3146035 -0.18889576 -0.018292546 0.1314008
0.042750232 -0.14240591 0.17536047 -0.016480463 -0.059462365 0.26990092 -0.0148100685 0.09683978
0.04080769 0.10813927 -0.27109158 -0.09370304 -0.13068178 0.06971332 -0.030208062 0.06908926
0.06893301 0.1510857 0.12017465 -0.14751974 -0.18139756 0.21757609 0.27474988 0.18167324
-0.0069536306 0.13113198 -0.2574844 0.1017664 0.14370905 0.028924605 -0.08169164 0.12304933
-0.058786646 -0.040623993 0.030806353 0.11214276 -0.0026564184 -0.24280089 -0.31304067 0.1367863
0.07829199 0.042037174 0.17563103 -0.021533908 -0.26109397 0.059613794 -0.16449681 -0.12961547
-0.15072761 -0.13766398 0.11697955 -0.22120158 -0.062542535 -0.11202753 -0.2114229 0.1483333
-0.0039167036 0.0894869 0.23797034 -0.06479279 0.1783245 0.20810735 -0.09222653 -0.024744006
-0.17406297 -0.023253476 -0.3316358 -0.2434336 0.035947423 -0.05477583 0.13121687 -0.021812055
-0.02205644 0.0076195053 0.16976397 -0.16714376 -0.19739403 0.17530827 0.110132866 0.03057256
-0.14426297 0.17505187 0.22457558 -0.041199256 0.05610208 0.14553072 -0.094811685 -0.12338637
-0.049873315 0.16745874 -0.049938638 -0.07923654 0.06615304 0.044120904 -0.19922028 -0.13037185
0.098276004 0.0009315548 0.0063804504 0.10237847 -0.27288353 0.047237083 0.13228063 -0.25812045
-0.0553974 0.0116343405 -0.16209133 0.07959547 0.11832058 -0.010010137 -0.21002476 0.051419605
-0.09535273 0.2912357 -0.094552375 -0.001182629 -0.10140615 0.079709284 -0.1010561 -0.09779825
0.17235263 -0.08639272 -0.003986908 -0.06251515 -0.13348961 0.12370579 -0.034833707 0.011153202
0.146515 0.057698414 0.083979875 0.15056995 -0.19082934 -0.090876214 -0.11967597 -0.4206902

action_layer.layer1.0.weight f4 [128, 128]
00000000: 748c 00bd 7c78 75bb 4b72 7a3d 9e3c 2abd
00000010: 303a d23d fe56 d03c 541e 933d b58d 0e3d
00000020: 76ae 84bd bbc3 77bd 74b7 583d b86b 0abc
00000030: e958 013d c9be 92bd 9fea bb3c 941d e53c
00000040: d9fe 5bbd a570 e8bc bc82 7b3d faea 25bd
00000050: bd17 39bd db28 ca3c fa12 adbc ce6b b33d
00000060: aaf5 4e3d ad22 5d3c a5c3 87bd 24b5 733d
00000070: f4b5 4fbd 4776 aa3d 324d f13c 695e 063c
00000080: 802f 55bd 27cb 173d a725 3dbc fbbe 94bd
00000090: 0776 773d 69a2 103d 9aa2 edbc a945 093c
000000a0: 26e3 7b3c 7cae febd b946 d53c 1c28 1fbc
000000b0: b3ed 51bd a491 a23c 612b 8e3d 9b81 213d
000000c0: 2d64 c7bc 4d10 e43d daa0 8fbd 62fe 993a
000000d0: d631 0cbe 428f 503d 1710 ee3c 255b a3bc
000000e0: 0e24 d3bd 8103 883d cb4f 05be 3201 2abd
000000f0: 3954 293d cfb4 843d b619 733d 5f1b d93c
00000100: c30d 05bd 7bf6 dbbd 24c6 d33b 125f 37bc
00000110: 7c7d 553c db37 5a3d b92c d03d b811 51bd
00000120: f8ff 57bc 057a eabb c95b c53b 9978 0dbd
00000130: aa72 b8bb 2146 fbbc 1057 033e a1b4 59bd
00000140: 1531 2b3c 23e7 00bd 9a78 983c e287 cc3d
00000150: 6ec9 8c3d f63b adbc 9b2a b63c dfed 91bd
00000160: a641 fbbd 28f8 0fbd b05e 103d 793d 33bd
00000170: 8c67 703d a14c c4bc b103 edbd 3b83 2dbd
00000180: 2398 51bd ee37 1fbc 59d7 4a3d 2dd9 9dbd
00000190: 3e7a 03be 3241 2bbe 95be 39bd 1cdd 5c3b
000001a0: 3111 00be 7cbd c4bd cca7 f63d 3fb8 85ba
000001b0: e68b 6d3c f2c3 f53c 6ebd 013d dff2 3abc
000001c0: dc7a 97bd ba48 adbd 44bb 3b3b 539b 583d
000001d0: 13c1 a83d de4f 5d3d d1a1 7dbd 7ee4 54bd
000001e0: 772f aebd b89c c8bc 38b5 453d 83fb d83d
000001f0: db08 09bd 2f7d ad3b d860 2fbd 754c 273d
00000200: a31e 1ebd 496b 853d 1125 dd3d fbc4 4fbd
00000210: 1347 a7bd 0b30 ff3c d4a4 edbd da01 42bd
00000220: ba1e 62bd 6427 43bc a595 c7bd d22c 14bd
00000230: 48ce b4bc 0d66 1cbd 044c 80bd aa02 31be
00000240: e185 0bbe 7cfe c0bd d248 b0bb ce34 2f3c
00000250: 4183 36bc 7eb3 e53d 4c87 f4bd cbd7 1fbd
00000260: 16cc 38bd 398f 3ebd 954c b23d 3d3d 0cbe
00000270: efb1 d73b be54 0c3e 788c da3d 06e0 9abd
00000280: eca3 033c ef07 1abe decd 8abd b918 1fbe
00000290: 59e5 bfbd d5b9 a3bd 4ba8 27be 6955 143d
000002a0: 2db3 28bd bcc9 283d 8e8d 7e3d cbe1 7fbd
000002b0: e90c ccbd 62e3 e93d dc88 44bd 8a64 8cbd
000002c0: 160c d0bc a343 ea3d 41c7 3c3e 8ac0 443e
000002d0: c57e 9b3d f2be 8c3a 0c5a bcbd 11a1 6fbe
000002e0: f418 ca3c 66bb d1bc a1cb 153d 5419 923c
000002f0: 3c14 63be 92b7 71bd b330 083d bf9e 10be
00000300: 03a1 993d 4afd 7b3d 4adb 23bd bc0f 0abc
00000310: e1eb e23c 08ed 03bd 7ab7 23bd 2c4e 113d
00000320: c0f3 b23c 0143 1dbd 7b6b e2bd e544 a8bc
00000330: 8bfa 04bc cc5e a33b 63c5 1c3c 9e8a 8c3d
00000340: 0057 473c b849 6bbd 7d6d ef3d d5ed 463c
00000350: 7ebc f6bd 5712 c93d c671 de3c f856 f4bc
00000360: ccbe c2bd 3467 7cbd a824 f33d 687e aebd
00000370: c7ff d6ba 2746 063d ab5d 37bd 65a8 08be
00000380: 0174 883d a1a1 2eba da9a 1fbe b102 ddbd
00000390: bca7 d7bd adf8 b1bd 0e0a 4fbd a183 24be
000003a0: 9a51 fa3d 751a 923c c8fa 3bbe da65 c4bd
000003b0: 8fe0 a1bd 73d5 723d ca40 003e 6d92 8cbd
000003c0: 023c c3bd 1595 963d 5e7d e23d 495e a2bd
000003d0: 2706 29bc d141 963d 8821 a0bd 6551 08bc
000003e0: c16f d2bc 695c 27bd aac5 ccbd fa22 d13c
000003f0: d5c7 1b3d d8cd 2d3d 4f8b c93d 327a 00bd
-0.031383947 -0.0037455847 0.061144155 -0.041561715 0.10265005 0.025432106 0.07183519 0.03480311
-0.06478588 -0.060489397 0.05290933 -0.008448534 0.031578932 -0.07165296 0.022939024 0.027968206
-0.05370984 -0.028374026 0.061403975 -0.040507294 -0.045188654 0.024677685 -0.021127213 0.087607965
0.050527252 0.013497037 -0.06629113 0.05949892 -0.050710633 0.08323341 0.029455755 0.00820122
-0.052047253 0.037058976 -0.011544622 -0.07262989 0.060415294 0.035311136 -0.029008199 0.008378425
0.015373981 -0.12435624 0.0260347 -0.009714153 -0.05125208 0.019844837 0.069418676 0.039430242
-0.02433976 0.111359216 -0.07013102 0.0011748786 -0.13690886 0.05091787 0.029060407 -0.019940922
-0.10309611 0.06641293 -0.1301872 -0.041505046 0.041340087 0.06479799 0.05935069 0.02650231
-0.032483827 -0.10740372 0.006462829 -0.0111921 0.013030406 0.053275924 0.1016478 -0.05104229
-0.013183586 -0.007155659 0.0060229045 -0.03453884 -0.0056289034 -0.030673089 0.1282618 -0.053150777
0.010448714 -0.03147043 0.018612195 0.09986855 0.06874357 -0.021146756 0.022237113 -0.071254484
-0.12268381 -0.03514877 0.03524655 -0.043759797 0.0586925 -0.02396232 -0.1157297 -0.04236148
-0.05117048 -0.0097179245 0.049521778 -0.077074386 -0.128396 -0.16724089 -0.04534777 0.0033701127
-0.12506558 -0.09606454 0.120437235 -0.0010202004 0.014498686 0.03000066 0.031674795 -0.011410444
-0.073964804 -0.08461137 0.0028645555 0.052882504 0.08239951 0.054031245 -0.0619219 -0.05197572
-0.08505147 -0.024488792 0.048268527 0.10594847 -0.03345571 0.005294464 -0.042816967 0.0408444
-0.038603436 0.06514604 0.107980855 -0.050724965 -0.08167853 0.031150838 -0.11603704 -0.047365047
-0.055205084 -0.011911247 -0.09745339 -0.036175556 -0.022071019 -0.03818326 -0.06264499 -0.17286173
-0.1362529 -0.09423539 -0.0053797746 0.010693742 -0.011139692 0.11215876 -0.11939868 -0.039024156
-0.045116507 -0.046523307 0.08706013 -0.13695236 0.0065824906 0.13704202 0.106713235 -0.0756226
0.0080346875 -0.15042089 -0.06777547 -0.15536775 -0.093699165 -0.07994429 -0.16372792 0.036214266
-0.0411865 0.041208014 0.062146716 -0.062471192 -0.099634 0.11420323 -0.04798208 -0.06855114
-0.025396388 0.11438682 0.18435384 0.19214073 0.07592539 0.0010738058 -0.091968626 -0.23401286
0.024670102 -0.025602054 0.03657115 0.017834343 -0.22175688 -0.059012957 0.03324957 -0.14123057
0.07501414 0.061520852 -0.040004052 -0.008426603 0.027700366 -0.032208472 -0.0399699 0.03547494
0.021844745 -0.038393978 -0.110556565 -0.020540664 -0.008116375 0.004985666 0.009568545 0.06862377
0.0121667385 -0.05744335 0.11690805 0.0121416645 -0.12047671 0.09817951 0.02715386 -0.029826626
-0.09509048 -0.06162186 0.11872226 -0.08520204 -0.0016403132 0.032781746 -0.044767063 -0.13345487
0.06662751 -0.0006661658 -0.15586415 -0.10791529 -0.1053004 -0.08690009 -0.0505467 -0.16065837
0.122225955 0.017834881 -0.18357384 -0.09589739 -0.07904159 0.059285592 0.12524715 -0.06863866
-0.0953293 0.07352654 0.11059068 -0.0792814 -0.010316408 0.07336772 -0.078188956 -0.008320187
-0.025688054 -0.040859614 -0.09998639 0.025529373 0.03803237 0.042432636 0.09841024 -0.031366535

action_layer.layer1.0.bias f4 [128]
00000000: 4425 8b3d cad9 503c d73f 33bd 83b1 f5bc
00000010: ce4b 6c3d 0f70 a33c 4fb8 cdbd 955b bbbd
00000020: 2f3c ebba 8d4c 883c 78b3 1cbd 3a66 79bc
00000030: 456e 5cbd 0b73 98bd 223e 40bd ecc3 48bd
00000040: 9791 11bd 534d 23bd a1b0 12bd 97e6 c4bc
00000050: 4b65 89bd 7c11 cd3c b633 b5bd 4a0d e4bd
00000060: f785 58bd f0bd cbbc 21c1 5ebd 773f c4bd
00000070: 866d c4bd 9c8d bcbb d257 873d 9195 983c
00000080: ebf1 f6bd ba1c 373b e98d ffbd 246a 13bd
00000090: 5264 0cbd 2fc1 4cbd 8d7f f5ba 4c79 d5bd
000000a0: 3480 123d e87e 9cbd 7c4e 163d deea 00bd
000000b0: 156a 223d e769 1e3b 3ed9 98bc a2e0 d6bc
000000c0: eafc 6b3d 0a4e 273c cac3 d0bd b177 c5bc
000000d0: 7ba0 23be 1c60 80bd 9774 453c 8576 bdbd
000000e0: 015d 63bd 8db6 033d 2ef4 64bc 65e9 c4bd
000000f0: 5265 10bd 3da6 9abd 38a1 fcbc 024a 1dbd
00000100: 591e d33b 3068 b2bd 6e83 663d 5f30 0abe
00000110: f282 0abe 5d59 b9bc 4bfb 89bd 9633 533d
00000120: b295 413d abf8 a7bd 49a5 5dbd 1ca7 b13d
00000130: 3ac8 13bd 3465 0ebe 8b4f 06bd 9849 40bd
00000140: f555 683d ad57 9ebd a0f9 6fbd dee8 c93d
00000150: 22ca 44bd 9001 82bd ff6b c53b 7cd1 b33d
00000160: 1364 7fbd 6c6c ddbd 5f1b 21bd bf61 9cbd
00000170: 5b30 04be c48b 013d 2842 16bd 62c6 17be
00000180: da7a f73c 638e 023d 0b79 91bd f91a c6bd
00000190: 0353 7bbd 06d1 62bd 1ffb 26bc ca30 ed3a
000001a0: 2f6b 34bd a2c1 e0bc 9df4 9c3d 46ce 6c3d
000001b0: 13fd 023c 09fe 153d 5e8a 1b3c 3d69 f3bc
000001c0: 0308 4ebd 00c3 983c 44ac 85bd 378e 1ebe
000001d0: 7165 543d bdc6 d1bd 3813 e4bd a6a8 8b3d
000001e0: 04a3 27bd 1e73 c73c 2791 19bc c673 ce3c
000001f0: af76 8fbc 0dcc 91bd 0113 aa3b aa42 db3c
0.06794217 0.012747237 -0.043762054 -0.02999187 0.05768948 0.019950895 -0.1004492 -0.09148327
-0.0017947013 0.016638065 -0.038257092 -0.015222127 -0.0538161 -0.07443818 -0.046934254 -0.04901497
-0.035539236 -0.039868664 -0.035812978 -0.024035735 -0.06708773 0.025032751 -0.08847754 -0.11135347
-0.052862134 -0.024870843 -0.0543834 -0.095824175 -0.095912024 -0.005754186 0.06608547 0.018626006
-0.12057861 0.0027940706 -0.12478239 -0.035989895 -0.03427536 -0.04998892 -0.001873003 -0.10423526
0.035766795 -0.07641393 0.036695942 -0.031473987 0.03965195 0.002417201 -0.018658277 -0.02623016
0.057614245 0.010211477 -0.10193594 -0.024104925 -0.15979187 -0.062683314 0.012051723 -0.092511214
-0.055508617 0.032156516 -0.013974233 -0.09614829 -0.035252877 -0.07551239 -0.030838594 -0.038400657
0.0064428267 -0.087112784 0.056277685 -0.13495015 -0.13526514 -0.02262562 -0.067373835 0.051562868
0.0472619 -0.082017265 -0.054112706 0.08674452 -0.036079623 -0.13905793 -0.0327907 -0.046945184
0.0567226 -0.077315666 -0.05858767 0.09858869 -0.04804433 -0.06347954 0.006024837 0.0878019
-0.062351298 -0.108116955 -0.039332744 -0.07635831 -0.12909071 0.03162743 -0.036684185 -0.14821771
0.030209947 0.03187407 -0.07103165 -0.096731134 -0.061358463 -0.05537512 -0.010191708 0.0018096205
-0.04404753 -0.027436081 0.07663844 0.057813905 0.007994908 0.03661922 0.0094934385 -0.029713267
-0.05030061 0.01864767 -0.06526998 -0.15483938 0.051854555 -0.102429844 -0.11136478 0.068192765
-0.04092695 0.024346884 -0.009372986 0.02520169 -0.017512647 -0.07118998 0.0051902537 0.026765186

action_layer.layer1.1.weight f4 [2, 128]
00000000: 4b37 a8bc a1e5 413e 3ddb ec3d 1619 aebd
00000010: fcb2 fbbd abd7 aabd bbb5 133e 79ce 233e
00000020: 4464 96bc 8e55 803c e456 513e 5350 5e3d
00000030: a354 1bbd c2e1 e1bd b286 9dbd e913 613d
00000040: 6f2e 4fbe cbe8 dfbd 981a 413d fc7b 033d
00000050: 48bf bbbc 432f 1abd fb23 a7be 8422 4e3e
00000060: 36e9 5a3e ae10 3fbe 40bb 7fbd 9d77 fcba
00000070: d0b2 813d 437f 4dbc 7fdd 5dbc b6fa 4c3d
00000080: 2da5 bc3d 8b38 7a3d 00cd c2bd 78e1 853d
00000090: 66a1 8dbd 2b91 353c cabd d6bc 6134 693d
000000a0: 8903 57bd 01a7 74bd 93a2 0b3d 74d0 093d
000000b0: f2a9 843d ddee 3e3e 3ec5 9abd b025 173e
000000c0: 7ea9 2a3d 6ad0 34be 28df 033e aa7b 29bd
000000d0: d8fa 68bd 9d49 b6bd 311a 5c3d 6055 01be
000000e0: 1924 2c3d 8cb9 48bd 9dd2 37be 5831 333e
000000f0: 0302 e63d bf19 7e3d 52f2 abbc dcf2 9e3c
00000100: 76cf d0bd 48a1 573e 3869 a1bb b2f9 8d3d
00000110: 94ed 093d 6487 eb3c 1023 cebd 8d14 633d
00000120: d590 8dbd 0adc 333e af3b 99be 05b2 efbd
00000130: 75cd bf3d 77a0 91bd 4f4c 10be f8aa 253e
00000140: fe9a 0ebe 2f34 2c3d a0d7 afbd ea3e e43b
00000150: 2c26 743e ac29 04be 3a3d a33e 28b8 a5bb
00000160: a7be 38be 80f2 25be 00a0 a4bd 1401 2b3e
00000170: 5e90 5ebe 4360 5abd 7db8 aa3d ffe9 883d
00000180: 66d8 8dbd 3270 dc3d 5aca 18be 0b01 163e
00000190: d3c9 b63c fe17 7fbd 624b 453c 4981 b6bc
000001a0: 4865 dabd d0a3 e83d 6d6f 273d a5a2 833b
000001b0: b3c1 81bd f449 e2bd 0340 8c3d 8421 cd3d
000001c0: 8f6f 1e3e ae42 41be 2338 79bd 12df 413e
000001d0: 4e18 d93d 0911 ba3e e307 1abe 5406 23bc
000001e0: 71c9 043c 6a77 6c3d 0ed9 eabd fe53 10bd
000001f0: defa acbd ce70 303e 5c24 8fbd 6633 5dbd
00000200: d4a5 bb3c 8b58 adbd 434d b7bb f6e2 87be
00000210: 0c7a 113e 02b6 a8bd c8f6 2a3d 4a9d d6bd
00000220: 954e 543d 292b eabd df5c be3d 7c53 10bd
00000230: bc12 f9bd ef31 cbbc 5d4b b03c 64fe b53c
00000240: cd2f aa3d 5b98 b8bc dc6f 033e a109 9bbd
00000250: 51f5 193d ba74 773d 019a 5d3d 5619 363e
00000260: ab3f ea3c f089 1d3d 8450 c4bb e225 adbe
00000270: 41aa 913e d2e8 933e b6a7 813d c580 1f3d
00000280: f37b 27be 1b68 a33d 7d4e bb3c 9bd6 333e
00000290: c1df 96be d7d6 e83d c761 87bd 4388 c4bc
000002a0: 5459 2abb 678a 8b3d 002c 3cbd 3d9d 213d
000002b0: 477c 7c3c 04f8 643d e411 04bc 116c 8dbd
000002c0: bcf3 7b3d 0567 5f3e bc41 22be d0d2 e7bc
000002d0: 8da3 74bd df4e d8bc 2637 143e 3a0a 3bbb
000002e0: fd71 7d3e 5f23 ae3d 47cf 33be d572 11be
000002f0: fa59 983d 2da4 dc3c 2273 86be fa90 7fbd
00000300: a058 66bd 0761 04bb bd96 733d 91bc 03be
00000310: 0fa2 35be 708e 203d 79e3 793d 5862 cdbc
00000320: c1af 69bc 09b6 493d bb56 77bd 5b4e 57bd
00000330: 6b0e e93b 0211 a1bd 7807 adbd bbe7 6dbd
00000340: e236 01bc 88d1 07be 9e1c 803d c4f5 203d
00000350: de02 02ba 055d 283e 0cfe 5e3e 4c82 3f3d
00000360: 70f4 fcbb 6e2d 043b b3f5 cdbc f069 2f3e
00000370: e5c3 7abb f2b2 a7bd cfa2 a0bb 2b21 cdbd
00000380: 5aac a9bb 19aa 7dbc d69d b33d c920 e03d
00000390: 9119 36bd 41c2 1c3e aa49 923d 0d45 c0bd
000003a0: 0159 6abe 03e9 28be 02cb 3e3d 1457 3abd
000003b0: 8a46 ddbc a7d1 bc3c bc3e bbbc f9e3 e7bd
000003c0: dbef e03c 97c2 5b3d 0bb6 12be 6a29 73be
000003d0: 1677 f63c d125 9b3d 75d5 fd3c f1e0 723d
000003e0: 5ba0 1fbe c2fc 123d ded0 e3bd c47e 3c3d
000003f0: 5faf 12bc fa54 453d 1937 d8bc 7778 22bc
-0.020534178 0.18935253 0.11565254 -0.085008785 -0.12289998 -0.08341917 0.14424793 0.15996732
-0.018358357 0.015665796 0.20443302 0.054275822 -0.037922513 -0.11029388 -0.07691707 0.05495063
-0.20232557 -0.109330736 0.047144502 0.032100663 -0.022918358 -0.03764273 -0.32644638 0.20130354
0.21378025 -0.18658707 -0.062434435 -0.0019261722 0.06332934 -0.012542549 -0.013541578 0.050043784
0.09211192 0.06108908 -0.09511757 0.065371454 -0.0691555 0.011081974 -0.026213545 0.056934718
-0.052493606 -0.05972958 0.03409059 0.033646062 0.06477727 0.18645807 -0.07557152 0.1476047
0.041665547 -0.17657629 0.12878096 -0.0413777 -0.05687985 -0.08900759 0.053735916 -0.12630224
0.042026613 -0.049005076 -0.17951436 0.17499292 0.112308525 0.062036272 -0.02098957 0.019402914
-0.1019582 0.21057618 -0.004925873 0.06932391 0.033673838 0.028751083 -0.100652814 0.05543952
-0.0691239 0.17564407 -0.29928347 -0.117038764 0.0936536 -0.07110684 -0.1409161 0.161785
-0.13926312 0.042041954 -0.08586049 0.0069655078 0.23842686 -0.12906522 0.3188265 -0.0050573535
-0.18041478 -0.16205788 -0.0803833 0.1669963 -0.21734759 -0.05331446 0.083359696 0.06685256
-0.0692604 0.10763587 -0.14920941 0.14648835 0.022313034 -0.06227874 0.012041898 -0.022278445
-0.10663849 0.1135937 0.04087775 0.0040171915 -0.06335773 -0.11049262 0.06848147 0.10016158
0.15472244 -0.18873093 -0.06084455 0.18932751 0.10600339 0.36341122 -0.15042071 -0.009950239
0.008104668 0.05773107 -0.11467181 -0.03523635 -0.084462866 0.17230532 -0.06989357 -0.054004095
0.022906221 -0.08464154 -0.005593927 -0.26540345 0.14206713 -0.0823784 0.041739255 -0.10479219
0.051832754 -0.114340134 0.092950575 -0.035235867 -0.121617764 -0.024804084 0.021520311 0.02221603
0.083098985 -0.022533586 0.1283564 -0.07570196 0.037587468 0.060414053 0.054101948 0.17783102
0.028594812 0.038461626 -0.0059910435 -0.33817965 0.28450206 0.28888565 0.063308164 0.038941164
-0.16355877 0.07978841 0.022864575 0.17562334 -0.29467586 0.113691024 -0.066104464 -0.023990756
-0.0025993185 0.068135075 -0.0459404 0.039456595 0.015410489 0.05590059 -0.008060906 -0.06905378
0.06151174 0.21816643 -0.15845388 -0.028298765 -0.059726287 -0.026404796 0.14474162 -0.002854003
0.24750514 0.0850284 -0.17559539 -0.14203961 0.07439037 0.026933754 -0.26259714 -0.06239412
-0.056236863 -0.0020199434 0.059469927 -0.12864901 -0.17737602 0.03919834 0.06100795 -0.025071308
-0.014263094 0.049245868 -0.060385447 -0.05256496 0.0071123145 -0.07864572 -0.0844869 -0.058082324
-0.00788662 -0.13263524 0.06255458 0.03929688 -0.00049595337 0.16441734 0.21776599 0.04675512
-0.007719569 0.002016868 -0.025141573 0.17130256 -0.0038263735 -0.08188428 -0.004902221 -0.10016092
-0.0051780166 -0.015482449 0.08770339 0.10943753 -0.044457976 0.15308477 0.071429566 -0.093881704
-0.22885515 -0.16495137 0.046580322 -0.0454932 -0.027011175 0.023049189 -0.022857063 -0.11322779
0.027458122 0.053652372 -0.14327256 -0.23746267 0.030086081 0.07575572 0.030985573 0.059296552
-0.15588515 0.03588558 -0.11123823 0.04601933 -0.008952945 0.048176743 -0.02639346 -0.009916416

action_layer.layer1.1.bias f4 [2]
00000000: 5765 63b8 61e8 11bd
-5.4215398e-05 -0.035622004

encoding_layer.layer.0.weight f4 [64, 187]
00000000: d75d 7abd 7553 2cbc d62a 753d 54c8 f63d
00000010: 65ad 1d3d 98f0 40bd dc2b 7fbd 3aa4 efbd
00000020: a5c4 a9be 94a2 c0be 6809 0bbd 45c7 47bd
00000030: 4122 1c3d ad8a f63d 4099 943d e908 dcbd
00000040: 5953 4dbd fc08 99bd e4f5 b13c ab09 3a3d
00000050: a02a 5e3b d95a a9bd 1e3c 48bd d7e5 0cbd
00000060: de02 9c3d 5895 e8bd 11a1 503d a583 d53c
00000070: 2251 cb3d 598f b7bc 588e 243b d320 9a3d
00000080: c931 63bd 165e 953c e9f5 7bbd 5c56 b0bc
00000090: 9816 c73c cbd0 903d 043e 51bd 8333 173d
000000a0: 58de 12be 621e 19bd 248c 9b3d 97a8 6c3c
000000b0: bd81 253d e568 3dbd f6b5 55ba 189c f1bc
000000c0: 88a7 613b 0200 b93c b070 59bd c281 2c3a
000000d0: 31d7 e9bd 4a22 9f3d 8467 fa3a 87a9 8e3d
000000e0: d320 963d acba 4ebd 43d5 083d 3c80 22bd
000000f0: 78c7 c5bc 317d 4f3b b968 93bc 5f07 cabc
00000100: 03e2 88bd c95f 2cbe 2672 cebd 39e5 a93d
00000110: ac50 973d 5427 e83b a312 00be 37e6 2abe
00000120: e766 bebd 7756 9d3d 9026 273d 2dc2 0cbe
00000130: 78eb b4bd 068a 243d 5ef4 b43d 9e42 0d3e
00000140: 705e 43bd 4497 febd baf1 51bd 8654 0a3d
00000150: ae6a b33d a629 75bb efad bebc 40f5 90bc
00000160: 31e2 d0bc 141b b03d 508a e2bc 10dc 403d
00000170: 9156 0cbe 0049 873c 0af8 823b 2b66 533c
00000180: f90c 223d a60a afbd 142c 16bd 1511 603c
00000190: cd87 d43d b8f8 5d3d 7e06 82bc 62df 95bd
000001a0: e022 423d f2a3 e93a 7b88 623d 7f22 34bd
000001b0: e223 513d 379a d13d c5c4 183d bda8 eb3c
000001c0: 7a86 d7bc 0446 973c 4a7d c03d b174 14bd
000001d0: a792 0d3d abb5 5fbd 58b8 503d 70c2 833a
000001e0: b3ff 433c 11fa 543d 3387 a93c 92e9 cb3d
000001f0: ca43 463c f5d9 f1bc 5c76 b93d ddf6 ec3c
00000200: 642b 173d e017 a3bc 33dd 1e3d 68cc 8f3c
00000210: 5919 a73d 7a43 bebc f4d3 2e3d 709c b5bc
00000220: c154 b23d 7b47 bb3d 7d30 98bc dfd2 ab3c
00000230: ec67 b73d 0ba5 cc3c 7ff5 063e b560 a6bc
00000240: 89cf bdbb 27a7 63bd 7b8e d1bc 2373 f33c
00000250: 13d5 843c 529a a23d b596 2f3d 9063 7bbc
00000260: b74d 633a 310f 98bb 4fa6 583c 054d 443b
00000270: a297 df3c 5a33 f23c 0173 b2bc 955f 35bb
00000280: b8be b9bb 73b1 03bd 8013 be3b 6845 623b
00000290: f9b4 f23c 8c86 163d 4a4a 2abd 1bbb c33c
000002a0: 3e82 733d 2b36 983b 1289 4ebc 20e2 b3bc
000002b0: 3cd9 77bc 8486 8e3d bd3c 933c d2b5 813d
000002c0: defe 02bd a987 423d 0d00 89bc 3c28 1fbd
000002d0: 8888 3c3c ce71 8b3d 1c86 613d d921 8dbd
000002e0: 2a5e 68be e1f6 013d 09d6 17bd 9eff ad3d
000002f0: 0cb3 38bc 86d7 4cbd 715e 243c 8010 8d3d
00000300: 5eec a03d d29e b03d e74d 5ebc 2bf7 983d
00000310: 10db 6ebd 0236 93bd 6ddb 8bbd 2c33 a03d
00000320: 10d3 653c 2b8c 00be 94e1 b2bd 588e f3bc
00000330: d462 7dbb 9a7e c2bd 7354 2ebe d2d3 4ebd
00000340: 1b98 26bc 9ca7 0abe 22dc 6e3a 4056 17bd
00000350: d8e5 883b 6ff1 3e3c e7be ee3c 9874 a23b
00000360: 3a62 c93c 8fe8 6d3d 3130 7b3d 85f7 e4bc
00000370: a15b 873c caf1 723d 11eb c1bc cc75 bebc
00000380: 4c80 3e3d 7f49 bc3d cc4a 043d 0d48 94be
00000390: 698d c43c d04a 31be 35c0 143d 2612 bbbc
000003a0: 7663 a3be a0e1 4fbd a794 983c e861 903c
000003b0: 8fb3 b8bd 731f 2f3b d2c5 af3c 5844 f53d
000003c0: ac25 87bd 3ab7 e7bd 9b1b 12be 5dd7 cebd
000003d0: 9f7b 8bba e3a0 73bc d282 fcbc 049b 3d3d
000003e0: 7d4a 143d e70d 0abe 5e07 eabc 61bb a03d
000003f0: e074 0b3e 5a6c 113e abeb cdbd e048 8dbd
-0.06112465 -0.010517945 0.059855305 0.12049928 0.03849544 -0.047104448 -0.062297687 -0.117012456
-0.3315784 -0.37624037 -0.033944517 -0.048774023 0.038118605 0.12038169 0.072557926 -0.10743887
-0.050128315 -0.07472417 0.021723695 0.045419376 0.0033899918 -0.08269281 -0.048885457 -0.03439888
0.076177344 -0.1135661 0.050934855 0.02606375 0.09927584 -0.02240722 0.0025109258 0.07525792
-0.0554674 0.01823334 -0.061513815 -0.021525554 0.024302766 0.07071074 -0.051084533 0.03691436
-0.1434263 -0.03738249 0.07595089 0.014444492 0.04040693 -0.046242613 -0.00081524195 -0.029493377
0.0034432132 0.022583012 -0.053085983 0.0006580615 -0.11417998 0.07770212 0.0019104336 0.069659285
0.073304795 -0.050470993 0.033406507 -0.039673075 -0.024142966 0.0031660313 -0.017994272 -0.024661718
-0.06683733 -0.16833414 -0.10080366 0.08295674 0.07388434 0.0070847664 -0.1250711 -0.16689382
-0.09296971 0.076825075 0.04080826 -0.13745947 -0.088339746 0.040170692 0.08835672 0.13794944
-0.047697484 -0.124311954 -0.05125592 0.033772014 0.08760582 -0.0037408858 -0.023276297 -0.01769507
-0.025498481 0.08598915 -0.027653843 0.047084868 -0.13704897 0.016514301 0.0039968537 0.012902777
0.039563153 -0.08546953 -0.03666313 0.013675948 0.103774644 0.054192275 -0.015872236 -0.073179975
0.04739654 0.0017825349 0.05530594 -0.04397821 0.05105961 0.10234492 0.03729703 0.028766984
-0.02630924 0.018466003 0.09398897 -0.036244098 0.034563687 -0.05461661 0.050957054 0.0010052454
0.011962819 0.051996294 0.02069435 0.099566594 0.012101123 -0.029522875 0.090557784 0.028926307
0.036906615 -0.019908845 0.03878517 0.017553523 0.081591316 -0.023225535 0.042682603 -0.022169322
0.08707572 0.09144493 -0.018577809 0.020974575 0.089553684 0.024981042 0.13179587 -0.020309785
-0.0057925624 -0.05557933 -0.025580635 0.029717987 0.016214883 0.079395905 0.042868335 -0.015343562
0.0008670943 -0.004640483 0.013223245 0.0029953134 0.027293984 0.029565502 -0.021783354 -0.002767538
-0.0056684874 -0.03215165 0.0058006644 0.0034526233 0.02962731 0.036749408 -0.041574754 0.02389293
0.05945038 0.004645129 -0.012605922 -0.02195841 -0.015127476 0.069592506 0.017973298 0.063335076
-0.03198134 0.047492657 -0.016723657 -0.03885673 0.011507161 0.06808816 0.055059537 -0.068912216
-0.2269217 0.031729583 -0.037069354 0.08496021 -0.011273157 -0.050010227 0.010032282 0.06887913
0.078575835 0.086240426 -0.013568378 0.074690185 -0.058314383 -0.071880355 -0.068289615 0.0782226
0.014027372 -0.1255347 -0.08734432 -0.02973096 -0.0038663642 -0.094968036 -0.17024402 -0.050494976
-0.010168101 -0.135405 0.0009111782 -0.03694749 0.00417779 0.011654242 0.029143764 0.0049577467
0.02458297 0.058083113 0.061325256 -0.027950058 0.016523184 0.05931262 -0.023671659 -0.02324953
0.046509072 0.09193706 0.032297894 -0.2896122 0.02399321 -0.17313695 0.036316115 -0.022835802
-0.3191182 -0.050752282 0.01862557 0.01762481 -0.09018623 0.0026721626 0.021456633 0.11975926
-0.06598982 -0.113142446 -0.14268343 -0.10099671 -0.00106417 -0.014869901 -0.030824099 0.046290413
0.03620385 -0.13481866 -0.028567966 0.0784824 0.13618803 0.14201489 -0.10054716 -0.068986654

encoding_layer.layer.0.bias f4 [64]
00000000: cb2c 20bd 6fcb 1c3d 97f4 12bd a411 9bbd
00000010: 6d9f 04bc a998 a0bd 97ef 6d3d b8e1 4e3d
00000020: 0a7a 1e3d 9bdf 86bb 36ab 593d 6a4e f4bb
00000030: da92 12bd d8c0 863c 1982 4d3d a58d 1c3d
00000040: 27a6 3e3d 68ff 263d b3b4 be3d cfe9 7bbd
00000050: 004e a8bc 7a77 acbc 0a86 ebbc bacf 2bbd
00000060: af6d 4dbd 018f 7bbd 5818 afbb 38af 0c3d
00000070: 82b7 133d d809 24bd 5417 7fbc 0340 4f3c
00000080: 2d15 8d3c c32c 0cbd aa6d 403d 0ac0 603d
00000090: 949f 54bd 7541 fa3c 315f a43a b03a 8fbd
000000a0: c182 873b b5b5 4b3d 7469 a1bd e9a9 953d
000000b0: 55a2 52bc fde5 7ebd 6878 3bbd 7c84 023d
000000c0: 8785 8cbc d0dc 7e3d 1c9a 1e3d 1aec 113d
000000d0: 3c8a 6ebd d919 893d e764 443d f700 6b3c
000000e0: 20ad 1e3c ca90 083c 150b 893c 745c 81bd
000000f0: 5e11 7f3b fa38 473d 3442 56bb 4c83 253d
-0.039105218 0.038279947 -0.03587779 -0.07571724 -0.008094651 -0.078416176 0.05808982 0.05050823
0.038690604 -0.0041160113 0.053141795 -0.0074556367 -0.03578458 0.016449377 0.0501729 0.03822102
0.046545174 0.040770918 0.093118094 -0.061502274 -0.020545006 -0.021053065 -0.028750438 -0.04194615
-0.05015343 -0.061415676 -0.005343478 0.03434679 0.03606368 -0.04004845 -0.015569527 0.012649539
0.017222011 -0.034222376 0.046979584 0.054870643 -0.051909998 0.03054879 0.0012540576 -0.069936156
0.00413546 0.049733836 -0.07881442 0.073077984 -0.012856086 -0.062231053 -0.045769125 0.03186463
-0.017153515 0.062222302 0.03872119 0.035625555 -0.0582373 0.06694383 0.04794779 0.014343492
0.009684831 0.008335302 0.016728917 -0.06316462 0.0038920264 0.04863832 -0.0032693269 0.040408418
