HGAT-MADDPG_ver1/data/logs/20240406-18-12-59/model_2638.pt (torch, 238891 bytes, 22 tensors)

encoding_layer.layer.0.weight f4 [64, 187]
0	0xbe012d59	-0.12614955
1	0xbe0f44ee	-0.13991138
2	0xbe7ee10f	-0.2489054
3	0xbdfb1cb6	-0.122613356
4	0xbceaffab	-0.028686365
5	0x3cda5e0e	0.026656177
6	0x3d6eb274	0.058275655
7	0x3dc3dd84	0.09563735
8	0xbdf65b1f	-0.12029099
9	0xbe8d9fea	-0.27661067
10	0xbe0d3660	-0.13790274
11	0xbe267b11	-0.16257884
12	0x3ce5544b	0.027994296
13	0x3d10b78c	0.035331294
14	0x3dcd630b	0.100286566
15	0xbe42358b	-0.18965738
16	0xbe250bc9	-0.16117777
17	0xbec7ad5e	-0.38999456
18	0x3e0f8cc5	0.14018543
19	0x3cbe0f98	0.023200795
20	0x3df79c10	0.120903134
21	0x3db37124	0.08761814
22	0xbd559c4f	-0.05215102
23	0x3ddf73bf	0.10910749
24	0x3d4a2da8	0.049359947
25	0xbb4f018e	-0.003158662
26	0xbe1a6f00	-0.15081406
27	0xbe96e676	-0.29472703
28	0xbde05ca8	-0.10955173
29	0x3decf9a9	0.115710564
30	0x3ddc94e1	0.10770584
31	0x3e41b0a5	0.18915041
32	0x3d316ee0	0.04331863
33	0xbd14749c	-0.03624402
34	0x3ea09ef1	0.31371263
35	0xbe42cf72	-0.19024447
36	0xbebb6c35	-0.36605993
37	0xbe2ea3f0	-0.17054725
38	0x3d80c441	0.062874325
39	0xbe3f7743	-0.18697838
40	0x3e9152c5	0.2838346
41	0x3e95013e	0.2910251
42	0x3db09a29	0.08623154
43	0x3d6dc89c	0.058052644
44	0xbe1564fc	-0.14589304
45	0xbdb54693	-0.088513516
46	0xbdf624b7	-0.120187216
47	0xbeafd260	-0.3434019
48	0xbe1502b2	-0.1455181
49	0x3d84dc83	0.06487372
50	0x3e7a71d1	0.2445748
51	0x3e5b4f0b	0.21416871
52	0x3dfe2721	0.12409807
53	0x3e2846fe	0.16433331
54	0xbdb51064	-0.08841017
55	0x3ddba1f8	0.107242525
56	0x3e4130ae	0.18866226
57	0x3db9dbe3	0.09075143
58	0x3e1e44b9	0.15455903
59	0xbca89907	-0.020580782
60	0x3d3551e3	0.044267546
61	0x3d5d168b	0.053976577
62	0xbd1de8d0	-0.038552105
63	0xbcb6cae8	-0.02231355
64	0x3bdedb05	0.0068010115
65	0xbdc743ed	-0.09729753
66	0xbcf36bd0	-0.029714495
67	0x3b0c1545	0.0021374982
68	0xbbd8449a	-0.006599975
69	0xbc0a7478	-0.00845062
70	0xbe3087d6	-0.17239317
71	0xbdb674e0	-0.08909011
72	0xbdd36cfb	-0.10323521
73	0xbd092ca4	-0.03348984
74	0x3e4cf344	0.20014673
75	0xbe258151	-0.16162612
76	0xbcd19669	-0.025584416
77	0xbc6ff625	-0.014646088
78	0xbe2faac7	-0.1715499
79	0x3dd172e6	0.10226993
80	0xbe3517b0	-0.17684817
81	0xbe11cc87	-0.14238177
82	0xbd9e5595	-0.07731167
83	0xbda0dca1	-0.078545816
84	0xbd6de26b	-0.058077257
85	0x3e0d94d6	0.13826308
86	0x3dfda437	0.12384837
87	0xbc91d7a2	-0.017803017
88	0x3d818910	0.06324971
89	0x3d848896	0.06471364
90	0xbddf2f36	-0.10897677
91	0xbd9ec6a5	-0.07752732
92	0x3ddbf353	0.1073977
93	0xbbc596bc	-0.006029932
94	0xbcd1ed84	-0.025625952
95	0xbba78355	-0.0051120915
96	0xbda8165d	-0.082073905
97	0x3d75d4e9	0.0600175
98	0x3cf0a7e2	0.029376928
99	0xbd661d72	-0.056180425
100	0xbd6aae81	-0.057295326
101	0xbdc2df22	-0.095152155
102	0x3d835745	0.0641313
103	0x3dc7c4b2	0.097543135
104	0xbdbdeda1	-0.0927384
105	0x3c09d993	0.00841369
106	0x3cca00d7	0.024658604
107	0x3d2351ac	0.03987281
108	0xbd4d0c4d	-0.05006056
109	0x3de2190c	0.110399336
110	0x3d56ada2	0.052411683
111	0x3d859ea2	0.065243974
112	0x3e1bb278	0.15204799
113	0xbe0a37e4	-0.13497883
114	0x3d3daf18	0.04630956
115	0xbd0eb3d9	-0.034839485
116	0x3d9e5e4a	0.07732828
117	0xbd2c8a22	-0.04212392
118	0xbe258279	-0.16163053
119	0x3bfa78b5	0.007643784
120	0xbd3f9cff	-0.046780583
121	0xbd449eed	-0.048003126
122	0xbdfd7807	-0.12376409
123	0xbcf099b1	-0.02937016
124	0xbe163ac6	-0.14670858
125	0x3d8eb8dc	0.06968853
126	0x3d47447e	0.048649304
127	0x3abf8f23	0.0014614802
128	0x3d2f7555	0.042836506
129	0xbd7e9d0d	-0.062161494
130	0x3d2650d5	0.04060443
131	0x3def7b8f	0.11693489
132	0xbdea24e2	-0.11432816
133	0x3b652dd3	0.003496994
134	0x3d6a8f71	0.057265703
135	0x3d9d8ca9	0.076928444
136	0x3dec9082	0.11551
137	0xbc9a10eb	-0.018806895
138	0xbcbdfad3	-0.023190891
139	0xbce2edc6	-0.02770127
140	0x3d86ced9	0.06582422
141	0x3d94ada9	0.072596855
142	0xbe2e6f8c	-0.1703474
143	0x3da7c35b	0.08191558
144	0x3cedbf02	0.029021744
145	0x3dd2dbcb	0.102958284
146	0x3c7449f1	0.014910207
147	0xbca2a10b	-0.019852182
148	0xbd745782	-0.059653766
149	0x3d6701df	0.05639827
150	0x3bf6af3b	0.0075282133
151	0x3c91f181	0.017815353
152	0x3d0ec4ca	0.03485564
153	0xbb4495e5	-0.002999657
154	0xbd74c5c8	-0.05975893
155	0x3d1ec087	0.038757827
156	0x3de8cb96	0.11366956
157	0x3dfc8c2a	0.12331422
158	0x3cf3c2b7	0.029755933
159	0xbcf38f3d	-0.029731387
160	0x3d59d9a3	0.05318607
161	0x3cde7cb9	0.027159082
162	0xbd1b13f1	-0.037860814
163	0xbb1c776e	-0.0023874897
164	0x3ccd9676	0.02509616
165	0x3d01de3a	0.031706072
166	0x3d8a0ff8	0.06741327
167	0x3bcca509	0.0062452597
168	0x3bb61b8e	0.005557484
169	0xbdbd7c36	-0.09252207
170	0xbdb17bb5	-0.08666173
171	0xbd16d4ae	-0.03682392
172	0xbd0b2870	-0.03397411
173	0xbd8d749e	-0.069070086
174	0xbb31de1b	-0.0027140442
175	0x3b1d86eb	0.0024036716
176	0xbcf51901	-0.02991915
177	0x3d850cce	0.06496583
178	0x3d1bdf01	0.03805447
179	0x3c936bff	0.017995832
180	0x3d67d6b1	0.05660123
181	0x3da0b0e8	0.07846242
182	0x3d69f894	0.05712183
183	0xbdf1c854	-0.11805788
184	0xbd419e22	-0.047269948
185	0xbcc5a4c2	-0.024126414
186	0xbd0d7766	-0.034537695
187	0xbe0e4517	-0.13893543
188	0xbd2e34cc	-0.04253082
189	0xbcf1d92c	-0.029522501
190	0xbda96d23	-0.08272769
191	0xbdeb481d	-0.11488364
192	0xbe6a9dbf	-0.22911738
193	0x3d7f89a3	0.06238712
194	0x3c0b1c8d	0.008490694
195	0xbb4c2ff5	-0.0031156514
196	0xbe0fc88c	-0.14041346
197	0x3e1ebeee	0.15502521
198	0x3cd6b15b	0.026207617
199	0xbe2c3c7f	-0.16819952
200	0x3da36b1a	0.079794124
201	0xbd02d066	-0.031937025
202	0x3e072849	0.13198961
203	0xbdb30db0	-0.08742845
204	0x3e3656ac	0.178065
205	0xbba49766	-0.005022931
206	0x3cf24316	0.029573005
207	0x3dc82393	0.0977241
208	0x3d84a8f2	0.06477536
209	0xbd94caf3	-0.07265272
210	0x3e2d9ffc	0.1695556
211	0x3cf8c518	0.03036742
212	0xba8c7a08	-0.001071752
213	0xbeff4cc6	-0.4986326
214	0x3e0c4a7a	0.13700286
215	0xbd0952a8	-0.033526093
216	0x3e77e16e	0.24207088
217	0x3de606c0	0.11231756
218	0x3e13408c	0.14380091
219	0x3e8f5d64	0.2800094
220	0x3d5e857b	0.054326516
221	0x3cdfec7d	0.027334446
222	0x3c46ea6b	0.012140851
223	0xbd4a2925	-0.049355645
224	0x3daff7b2	0.08592166
225	0xbe113362	-0.14179757
226	0x3e38fe35	0.18065722
227	0x3ef0a149	0.4699805
228	0x3e38a40f	0.18031333
229	0xbd67ffd9	-0.05664048
230	0x3e923bff	0.28561398
231	0xbe0c05e8	-0.13674128
232	0x3c2515d3	0.010076004
233	0xbd8a3d49	-0.067499705
234	0xbd4814bd	-0.048847903
235	0x3ca107a1	0.019656958
236	0x3b87a24f	0.0041392217
237	0x3d897fc6	0.06713824
238	0x3de64a5d	0.112446524
239	0x3d8c4d16	0.068506405
240	0x3c2aea4b	0.010431836
241	0x3d428876	0.04749342
242	0xbdebdf39	-0.11517186
243	0xbe308d80	-0.17241478
244	0x3e7f37c5	0.24923618
245	0x3d47eca9	0.04880968
246	0x3c5bc5e2	0.013413878
247	0x3d7b958f	0.061421927
248	0x3d0721ee	0.032991342
249	0x3e09174f	0.13387798
250	0xbddf1ffe	-0.10894774
251	0x3d9f9dd4	0.07793775
252	0x3ce75894	0.02824048
253	0x3db4bbef	0.08824908
254	0xbd937769	-0.0720051
255	0xbdc6c7f5	-0.097061075

encoding_layer.layer.0.bias f4 [64]
0	0xbd52b519	-0.05144224
1	0xbc62646e	-0.01381789
2	0x3d482707	0.048865344
3	0x3d162c7e	0.036663525
4	0xbd87e39b	-0.06635209
5	0xbb58bde2	-0.0033072163
6	0x3d8a723a	0.06760068
7	0xbde8e942	-0.113726154
8	0xbc2b901b	-0.010471369
9	0xbcd76b41	-0.02629626
10	0x3d60caad	0.054880787
11	0xbde03618	-0.109478176
12	0x3cca351c	0.024683528
13	0x3cbbde00	0.022933006
14	0xbe0d6291	-0.13807131
15	0xbd8302f0	-0.06397045
16	0x3c20b040	0.009807646
17	0x3d338b31	0.043833915
18	0x3c7c783c	0.0154095255
19	0xbdd59bd4	-0.104301125
20	0x3d02b266	0.031908415
21	0x3da554d8	0.08072823
22	0x3d9af5d8	0.07566422
23	0xbd2d4e35	-0.042310912
24	0x3d85a872	0.06526269
25	0xbb89f3bf	-0.004209965
26	0xbbad02ec	-0.0052798893
27	0xbdcfd93f	-0.10148858
28	0xbc138b50	-0.009005383
29	0x3de2afff	0.11068725
30	0x3d3cb4c5	0.046070833
31	0x3aa6da84	0.0012729918
32	0x3d2d4249	0.042299543
33	0x3c98a31b	0.018632462
34	0x3dc64ad8	0.09682244
35	0xbd46774d	-0.048453618
36	0x3d610279	0.054934
37	0x3db81872	0.089890376
38	0xbdb2d714	-0.08732429
39	0xbda40f4f	-0.080107324
40	0xbd91e3c2	-0.071235195
41	0xbdbec00b	-0.09313973
42	0x3d67a13b	0.056550246
43	0x3d0a1363	0.033709895
44	0x3b94aea9	0.0045374227
45	0x390c3ea7	0.0001337478
46	0xbd6e44d5	-0.058171112
47	0x3d1e1714	0.038596228
48	0x3ce86d05	0.028372297
49	0xbce4c50f	-0.027925996
50	0xbd3a110a	-0.045426406
51	0x3e004d3f	0.12529467
52	0xbd575e2e	-0.05258005
53	0x3c77e6dc	0.015130725
54	0xbd5e92d1	-0.054339234
55	0xbd63e818	-0.055641264
56	0x3a8dbd43	0.0010813851
57	0x3d432404	0.04764177
58	0xbd56aed7	-0.052412834
59	0x3e06fb65	0.13181837
60	0x3c6b42e2	0.014359208
61	0x3cec159a	0.028818894
62	0x3d09b885	0.033623237
63	0xbcb3e567	-0.021959973

relational_layer.layers.0.att_src f4 [1, 1, 64]
0	0x3d231bf7	0.03982159
1	0xbeb6be5d	-0.3569211
2	0xbdc3f50e	-0.09568225
3	0xbe7e5b6a	-0.24839559
4	0xbea7eecf	-0.32799384
5	0x3ea863ab	0.3288854
6	0xbd80b434	-0.06284371
7	0x3f98d20d	1.1939102
8	0x3ec70278	0.3886907
9	0xbe474811	-0.19461085
10	0xbc014113	-0.00788905
11	0xbd720594	-0.05908735
12	0xbee3c5ba	-0.4448679
13	0x3e7b8bc3	0.24565034
14	0xbde850b5	-0.11343519
15	0xbefda4fa	-0.4953993
16	0x3e1f24a5	0.15541323
17	0x3f37c7b7	0.71789116
18	0x3f741567	0.9534516
19	0xbf254a82	-0.64566815
20	0xbec051ed	-0.37562504
21	0xbf1f7529	-0.6228815
22	0xbe9a62b4	-0.3015343
23	0x3f23f702	0.6404878
24	0xbf0230f3	-0.5085594
25	0x3efd70d1	0.49500135
26	0xbd31f076	-0.043442212
27	0xbfb42173	-1.4072708
28	0xbe4adc00	-0.19810486
29	0xbed9a476	-0.42508286
30	0xbe2d66db	-0.16933767
31	0x3d391847	0.04518917
32	0xbf62cc78	-0.88593245
33	0xbf1d7222	-0.6150228
34	0xbf23d2c3	-0.6399347
35	0xbe3873c2	-0.18012908
36	0xbf09c6e0	-0.53819084
37	0x3f3aacfa	0.7292019
38	0xbe8e3976	-0.27778214
39	0x3eab9eaa	0.3351949
40	0x3d6649d0	0.056222737
41	0xbcc15fc9	-0.023605244
42	0xbf624d98	-0.8839965
43	0x3edf1470	0.4357028
44	0xbf5388ab	-0.82630414
45	0xbd4b4817	-0.049629297
46	0x3e926e58	0.2859981
47	0xbef6eb1e	-0.48226255
48	0x3ef78e6c	0.48350847
49	0xbf2c8ceb	-0.67402524
50	0x3d0f4e37	0.0349867
51	0xbe92b727	-0.2865536
52	0xbde30841	-0.11085559
53	0x3ed004a6	0.40628546
54	0x3e9edd4d	0.31028214
55	0xbef3ee71	-0.47642854
56	0x3e4d20c4	0.2003203
57	0xbf407fad	-0.7519482
58	0xbf5960b1	-0.84913164
59	0x3de7f72a	0.1132644
60	0x3f6bce8e	0.9211205
61	0xbe7d8a72	-0.24759844
62	0xbf37963d	-0.7171362
63	0x3efb7cb9	0.49118593

relational_layer.layers.0.att_dst f4 [1, 1, 64]
0	0x3e3f6815	0.18692048
1	0x3ed986bb	0.42485604
2	0xbe8bdfa7	-0.2731907
3	0x3f219257	0.6311392
4	0xbea8c493	-0.32962474
5	0x3f48eadf	0.78483385
6	0x3ef8e2bf	0.48610494
7	0x3f3a2b64	0.7272246
8	0x3f29edbf	0.66378397
9	0x3f2c2947	0.67250484
10	0xbd3ebea0	-0.046568513
11	0x3f04cbf3	0.518737
12	0xbf36506f	-0.7121648
13	0xbe9f1997	-0.3107421
14	0x3f4ebd8e	0.8075799
15	0x3ead461b	0.3384255
16	0x3f23611f	0.6382007
17	0x3e586907	0.21133815
18	0x3ede852f	0.43460986
19	0x3e1d6ed8	0.15374315
20	0x3eb218f3	0.3478466
21	0x3f74e072	0.95654976
22	0xbf551bc8	-0.83245516
23	0xbe1393f9	-0.14411916
24	0xbe301bd6	-0.17198119
25	0x3e91be3c	0.2846545
26	0xbe17b92c	-0.14816731
27	0x3e3137dc	0.17306465
28	0xbf1074f1	-0.5642844
29	0xbf5bbcea	-0.85835135
30	0x3dca40d6	0.09875648
31	0x3eb0183b	0.34393486
32	0xbedeee31	-0.435411
33	0xbe23e23d	-0.16004272
34	0xbeb29235	-0.34877172
35	0xbec222f3	-0.3791729
36	0x3f32e309	0.6987768
37	0x3ee714bc	0.45133007
38	0xbc385eb2	-0.011253046
39	0x3eff1e4f	0.4982781
40	0x3f49c824	0.78821015
41	0x3ee0a2d4	0.43874228
42	0xbf029b16	-0.5101789
43	0x3d8c472d	0.06849513
44	0xbdf0c00d	-0.11755381
45	0xbd538715	-0.051642496
46	0x3f745316	0.9543928
47	0xbf083098	-0.5319915
48	0x3f13a5fc	0.5767515
49	0x3d4d3230	0.05009669
50	0x3dcd04e2	0.10010697
51	0x3db4eb5f	0.08833956
52	0xbebd5567	-0.3697922
53	0x3c9dd473	0.019266343
54	0xbe854d5b	-0.2603558
55	0x3f3d65a5	0.7398322
56	0x3eb31ab9	0.34981325
57	0x3e8d6c91	0.27621892
58	0xbec61cf9	-0.3869398
59	0x3e7418d1	0.23837592
60	0x3f03b086	0.5144123
61	0x3e458a38	0.19291008
62	0x3e850329	0.25978974
63	0x3e0ca3b0	0.13734317

relational_layer.layers.0.bias f4 [64]
0	0xbe3f51e9	-0.1868359
1	0xbe322245	-0.17395885
2	0xbe1d6024	-0.15368706
3	0xba4a4302	-0.00077156734
4	0xba0fbc27	-0.0005483054
5	0xbe62dffb	-0.22155754
6	0xbe1854cf	-0.14876102
7	0xbec2db49	-0.38057926
8	0xbe6f942a	-0.23396364
9	0xbe3115b6	-0.17293438
10	0xbe8cd961	-0.27509597
11	0xbe2ba947	-0.16763793
12	0xbb6d1cf6	-0.0036180592
13	0x3d9c820a	0.076419905
14	0xbe94e0d9	-0.29077795
15	0xbe5cc55f	-0.21559666
16	0xbe7c75be	-0.2465429
17	0xbe8cf533	-0.27530822
18	0xbe43c4df	-0.19118069
19	0x398ed044	0.0002723952
20	0xb93be541	-0.00017919113
21	0xbe750e9b	-0.23931353
22	0xbeac079f	-0.33599564
23	0xbe1c3bd9	-0.15257205
24	0xbd95a46b	-0.07306751
25	0xbe846b9c	-0.2586335
26	0xbe231ef0	-0.1592977
27	0xba5ec90b	-0.00084985857
28	0xbe9cd4dc	-0.3063115
29	0xbd09cd65	-0.033643145
30	0xbe4fcebf	-0.20293711
31	0xbe700645	-0.23439892
32	0xb964d553	-0.00021823244
33	0xbc38d2c4	-0.011280719
34	0xbe0c952b	-0.13728778
35	0xbe470607	-0.19435893
36	0xbddde1ee	-0.10834108
37	0xbe213a6c	-0.15744942
38	0xbe8b37ed	-0.27191105
39	0xbe8fe0c3	-0.28101167
40	0xbe41941d	-0.18904157
41	0xbe199a34	-0.1500023
42	0xbbb5a131	-0.005542897
43	0xbe52c6db	-0.2058367
44	0xbbcda401	-0.0062756543
45	0x3d25393c	0.040337786
46	0xbe5b5e2c	-0.21422642
47	0xbadbb757	-0.0016763014
48	0xbdea0446	-0.11426596
49	0xbde4c7c3	-0.11170914
50	0xbd75a2ac	-0.05996959
51	0xbe8df72a	-0.27727634
52	0xbe5c7f33	-0.21532898
53	0xbe50c5e8	-0.20387995
54	0xbe9389b7	-0.28816006
55	0xbe89572b	-0.26824316
56	0xbe145925	-0.14487131
57	0xbebaf8d1	-0.36517957
58	0x3d388566	0.045049094
59	0xbe2cf446	-0.16890058
60	0xbe743e0e	-0.23851797
61	0xbe5c34dd	-0.2150454
62	0xbe8228d3	-0.2542177
63	0xbe00e8d6	-0.1258882

relational_layer.layers.0.lin_src.weight f4 [64, 64]
0	0x3ddcf9fa	0.10789867
1	0xbe4329a6	-0.19058856
2	0xbdf72567	-0.12067681
3	0xbe0dbc91	-0.13841464
4	0xbd73d3b3	-0.059528064
5	0xbd9b1ec1	-0.07574225
6	0x3dcb8979	0.0993833
7	0xbd1c467d	-0.03815316
8	0x3e93de02	0.28880316
9	0xbe6bf88b	-0.2304403
10	0x3ddddc10	0.10832989
11	0x3db3d539	0.08780903
12	0x3d2a1f89	0.04153398
13	0xbd4102ac	-0.04712169
14	0xbe0a2884	-0.13492018
15	0x3e12e1f7	0.14344011
16	0xbc99ac78	-0.018758997
17	0x3e8a6760	0.27031994
18	0xbe434162	-0.1906791
19	0xbe14e068	-0.14538729
20	0x3e98adc3	0.2982007
21	0xbda903c7	-0.082526736
22	0xbd1e9c35	-0.03872319
23	0x3dc6d7b5	0.097091116
24	0x3c851bbf	0.016248582
25	0xbd99695f	-0.07490801
26	0xbe5f5266	-0.21808776
27	0xbd9b8be0	-0.075950384
28	0xbde2525f	-0.11050867
29	0x3e821bed	0.2541193
30	0xbe571b47	-0.21006499
31	0xbdc130e2	-0.09433152
32	0x3d36e52f	0.04465216
33	0x3e0d06c7	0.13772117
34	0x3e43a2eb	0.19105117
35	0xbda274f2	-0.07932462
36	0x3d1998c7	0.037499215
37	0x3e2c4cb0	0.16826129
38	0x3e2c0bf2	0.16801432
39	0x3e1872ed	0.1488759
40	0x3e256e4f	0.1615536
41	0x3e51b53d	0.20479293
42	0xbca7f60f	-0.020503072
43	0x3ebba262	0.36647326
44	0xbe07b4f2	-0.13252619
45	0x3e4d71af	0.20062898
46	0xbd47b329	-0.048754845
47	0xbc8e31e6	-0.017357778
48	0xbcd50b90	-0.02600649
49	0xbdc31884	-0.0952616
50	0x3df2377f	0.11826991
51	0xbe1dfb01	-0.15427782
52	0xbe2587ef	-0.16165136
53	0xbd8f8377	-0.07007497
54	0xbe077f54	-0.13232166
55	0x3e273d66	0.16332015
56	0x3e3480a3	0.17627196
57	0x3e9ec0f3	0.31006584
58	0xbdd44bf5	-0.1036605
59	0xbbb2958c	-0.0054499563
60	0x3e39c47c	0.18141359
61	0x3e12278c	0.14272898
62	0xbe8ce9ff	-0.27522275
63	0x3d38e454	0.045139626
64	0x3deca869	0.11555559
65	0x3da42637	0.080151014
66	0xbd5cee6f	-0.053938325
67	0xbd061b20	-0.032740712
68	0x3df3d504	0.11905864
69	0xbe147e23	-0.14501242
70	0x3dc421c4	0.09576753
71	0x3e605128	0.21905959
72	0x3cb1a4b1	0.021684976
73	0xbd9df281	-0.077122696
74	0xbcfeb9c6	-0.031094443
75	0x3e05151f	0.12996338
76	0x3d11fbfb	0.035640698
77	0x3e9ccfb3	0.30627212
78	0xbf0d75b0	-0.552577
79	0x3b3b6146	0.0028591915
80	0xbd729593	-0.059224676
81	0x3e8a47a0	0.2700777
82	0x3df6e628	0.120556176
83	0x3dfe09ba	0.12404199
84	0xbe72fea6	-0.23729953
85	0x3dc45a89	0.09587581
86	0xbe7656c6	-0.24056539
87	0x3da1fa7c	0.07909104
88	0xbed341f8	-0.41261268
89	0x3d877e4e	0.066158876
90	0x3d0b8068	0.034058005
91	0x3dc956fa	0.098310426
92	0xbeb8e7ea	-0.36114436
93	0xbd4d5e79	-0.050138924
94	0xbebc063c	-0.36723506
95	0xbd24df80	-0.04025221
96	0x3dffe74d	0.12495289
97	0xbd6decfc	-0.058087334
98	0x3e181ea5	0.1485544
99	0xbd6a2929	-0.05716816
100	0xbce85aaa	-0.028363544
101	0xbe871eda	-0.26390725
102	0xbc9f9951	-0.019482287
103	0xbe3ba6a2	-0.18325284
104	0xbe224038	-0.1584481
105	0x3e90d582	0.28287894
106	0x3d8c37f0	0.06846607
107	0x3e72894b	0.23685186
108	0x3daae882	0.083451286
109	0x3dee727b	0.11642929
110	0xbe6559a8	-0.22397482
111	0xbcc31f30	-0.023818582
112	0xbf020c8f	-0.5080041
113	0x3e27d1ef	0.16388677
114	0xbd4729db	-0.0486239
115	0x3e835949	0.25654057
116	0x3e684d3e	0.22685716
117	0xbe73950c	-0.23787326
118	0x3df56669	0.11982424
119	0x3db47815	0.08811966
120	0x3e6ca6d3	0.23110513
121	0xbd73ed59	-0.059552524
122	0xbe4a2763	-0.19741587
123	0x3df84c9f	0.12123989
124	0x3d4f3b0b	0.050593417
125	0x3e04d608	0.12972271
126	0xbdf4c0bd	-0.119508244
127	0x3dc87d09	0.097894736
128	0xbdb5603c	-0.08856246
129	0x3d3d9f8e	0.04629474
130	0xbda305b0	-0.07960069
131	0xbe0d5ee1	-0.13805725
132	0x3e1774ec	0.14790696
133	0x3e52c546	0.20583066
134	0x3de3e782	0.11128141
135	0xbe862467	-0.26199648
136	0xbda1695e	-0.07881425
137	0x3e0664e3	0.13124423
138	0xbd7f2179	-0.06228778
139	0xbe34e7fb	-0.17666619
140	0x3d5bc947	0.05365875
141	0x3e79285f	0.24331807
142	0x3dc331d7	0.095309906
143	0x3d6c1d5c	0.057645187
144	0x3c95f89b	0.01830702
145	0xbc8038c4	-0.015652068
146	0xbdc899eb	-0.097949825
147	0xbe9800a1	-0.2968798
148	0x3e6d205e	0.23156878
149	0x3ead75d3	0.33878955
150	0x3e712dd4	0.23552638
151	0xbe76118f	-0.24030136
152	0xbbb4be31	-0.0055158366
153	0x3decfb3d	0.115713574
154	0x3e49eb73	0.19718723
155	0x3dbcc735	0.09217683
156	0xbae4a942	-0.0017445462
157	0xbe5c3b7d	-0.21507068
158	0xbdb39285	-0.08768181
159	0xbe0b61d3	-0.13611536
160	0x3da08b5e	0.07839082
161	0xbdcbd8a1	-0.09953428
162	0x3e8e8305	0.27834335
163	0xbcd1ad1d	-0.025595242
164	0xbe17cf87	-0.14825259
165	0x3ea7dd61	0.32786086
166	0x3dd0d010	0.10195935
167	0xbe00405c	-0.12524551
168	0xbe5c81d7	-0.21533905
169	0xbe2d36b7	-0.16915403
170	0x3e4b41e8	0.1984936
171	0xbda77cd3	-0.08178105
172	0xbf148cf8	-0.580276
173	0xbc627166	-0.013820982
174	0xbd0c4cd3	-0.034252953
175	0xbe8f4baf	-0.2798743
176	0xbddd877b	-0.108168565
177	0x3de006bb	0.10938784
178	0x3ef55aa1	0.47920707
179	0x3d876829	0.06611664
180	0x3d56885b	0.052376132
181	0x3cacf6f5	0.021113852
182	0xbd1d9077	-0.03846785
183	0xbdeb1d09	-0.114801474
184	0x3daaf037	0.083465986
185	0xbf1676da	-0.58775103
186	0xbe953ac2	-0.2914639
187	0xbe1a4343	-0.15064721
188	0xbe30e966	-0.17276534
189	0xbd9f00d2	-0.07763828
190	0x3e002297	0.12513195
191	0xbda28611	-0.079357274
192	0x3e1df140	0.15424061
193	0x3e123112	0.14276531
194	0x3a59904d	0.00082993956
195	0x3a840d3b	0.0010074744
196	0xbe3d52a5	-0.18488558
197	0x3e2c8108	0.16846097
198	0x3e66ef4a	0.22552219
199	0x3b8fc5e1	0.0043876027
200	0xbd7899c0	-0.060693502
201	0x3cb83b19	0.022489117
202	0x3e86db35	0.26339117
203	0xbe440f9c	-0.1914658
204	0x3eaa14ea	0.3321908
205	0xbe094c87	-0.13408099
206	0xbe268ebb	-0.16265385
207	0xbdce2301	-0.1006527
208	0xbe52fbfc	-0.20603937
209	0x3e3d1f08	0.18468869
210	0x3d3ba1c0	0.045808554
211	0xbd94394b	-0.0723749
212	0x3e49e04e	0.19714472
213	0x3e7c6d99	0.24651183
214	0xbe046ae2	-0.12931398
215	0xbea2403b	-0.3168963
216	0xbd56a40d	-0.052402545
217	0xbd799ab8	-0.060938567
218	0xbda35bfb	-0.07976528
219	0x3e0fee9f	0.1405587
220	0xbd7b8754	-0.061408356
221	0x3b6cd099	0.0036135076
222	0x3e88434d	0.26613846
223	0xbec2fb10	-0.3808217
224	0x3decd38e	0.11563788
225	0x3e2c8b23	0.16849951
226	0x3e643a08	0.22287762
227	0x3dde29cd	0.108478166
228	0x3d8715fb	0.06595989
229	0xbe2aa0de	-0.16662928
230	0x3e00243b	0.12513821
231	0xbcd9e558	-0.026598617
232	0x3bc271e1	0.0059339856
233	0x3c2c5b27	0.010519779
234	0xbd2799c6	-0.040918134
235	0x3b99fe5e	0.0046995124
236	0xbcacb282	-0.021081213
237	0x3e1371ab	0.1439883
238	0x3b29ee9d	0.0025929578
239	0xbe773276	-0.24140343
240	0xbdcc536e	-0.099768505
241	0xbde28a2f	-0.11061513
242	0xbe29ce73	-0.1658266
243	0xbc502e2b	-0.01270632
244	0xbe532628	-0.20620024
245	0x3d63dc06	0.055629753
246	0xbe205e1e	-0.15660903
247	0x3e8be6ae	0.27324432
248	0xbc95215f	-0.01820439
249	0x3e855d30	0.2604766
250	0xbd77b785	-0.060477752
251	0x3e8c83e4	0.27444375
252	0xbddd50e5	-0.10806445
253	0x3dec74d8	0.11545724
254	0xbe05987b	-0.13046448
255	0xbec26a65	-0.37971798

relational_layer.layers.0.lin_dst.weight f4 [64, 64]
0	0x3ddcf9fa	0.10789867
1	0xbe4329a6	-0.19058856
2	0xbdf72567	-0.12067681
3	0xbe0dbc91	-0.13841464
4	0xbd73d3b3	-0.059528064
5	0xbd9b1ec1	-0.07574225
6	0x3dcb8979	0.0993833
7	0xbd1c467d	-0.03815316
8	0x3e93de02	0.28880316
9	0xbe6bf88b	-0.2304403
10	0x3ddddc10	0.10832989
11	0x3db3d539	0.08780903
12	0x3d2a1f89	0.04153398
13	0xbd4102ac	-0.04712169
14	0xbe0a2884	-0.13492018
15	0x3e12e1f7	0.14344011
16	0xbc99ac78	-0.018758997
17	0x3e8a6760	0.27031994
18	0xbe434162	-0.1906791
19	0xbe14e068	-0.14538729
20	0x3e98adc3	0.2982007
21	0xbda903c7	-0.082526736
22	0xbd1e9c35	-0.03872319
23	0x3dc6d7b5	0.097091116
24	0x3c851bbf	0.016248582
25	0xbd99695f	-0.07490801
26	0xbe5f5266	-0.21808776
27	0xbd9b8be0	-0.075950384
28	0xbde2525f	-0.11050867
29	0x3e821bed	0.2541193
30	0xbe571b47	-0.21006499
31	0xbdc130e2	-0.09433152
32	0x3d36e52f	0.04465216
33	0x3e0d06c7	0.13772117
34	0x3e43a2eb	0.19105117
35	0xbda274f2	-0.07932462
36	0x3d1998c7	0.037499215
37	0x3e2c4cb0	0.16826129
38	0x3e2c0bf2	0.16801432
39	0x3e1872ed	0.1488759
40	0x3e256e4f	0.1615536
41	0x3e51b53d	0.20479293
42	0xbca7f60f	-0.020503072
43	0x3ebba262	0.36647326
44	0xbe07b4f2	-0.13252619
45	0x3e4d71af	0.20062898
46	0xbd47b329	-0.048754845
47	0xbc8e31e6	-0.017357778
48	0xbcd50b90	-0.02600649
49	0xbdc31884	-0.0952616
50	0x3df2377f	0.11826991
51	0xbe1dfb01	-0.15427782
52	0xbe2587ef	-0.16165136
53	0xbd8f8377	-0.07007497
54	0xbe077f54	-0.13232166
55	0x3e273d66	0.16332015
56	0x3e3480a3	0.17627196
57	0x3e9ec0f3	0.31006584
58	0xbdd44bf5	-0.1036605
59	0xbbb2958c	-0.0054499563
60	0x3e39c47c	0.18141359
61	0x3e12278c	0.14272898
62	0xbe8ce9ff	-0.27522275
63	0x3d38e454	0.045139626
64	0x3deca869	0.11555559
65	0x3da42637	0.080151014
66	0xbd5cee6f	-0.053938325
67	0xbd061b20	-0.032740712
68	0x3df3d504	0.11905864
69	0xbe147e23	-0.14501242
70	0x3dc421c4	0.09576753
71	0x3e605128	0.21905959
72	0x3cb1a4b1	0.021684976
73	0xbd9df281	-0.077122696
74	0xbcfeb9c6	-0.031094443
75	0x3e05151f	0.12996338
76	0x3d11fbfb	0.035640698
77	0x3e9ccfb3	0.30627212
78	0xbf0d75b0	-0.552577
79	0x3b3b6146	0.0028591915
80	0xbd729593	-0.059224676
81	0x3e8a47a0	0.2700777
82	0x3df6e628	0.120556176
83	0x3dfe09ba	0.12404199
84	0xbe72fea6	-0.23729953
85	0x3dc45a89	0.09587581
86	0xbe7656c6	-0.24056539
87	0x3da1fa7c	0.07909104
88	0xbed341f8	-0.41261268
89	0x3d877e4e	0.066158876
90	0x3d0b8068	0.034058005
91	0x3dc956fa	0.098310426
92	0xbeb8e7ea	-0.36114436
93	0xbd4d5e79	-0.050138924
94	0xbebc063c	-0.36723506
95	0xbd24df80	-0.04025221
96	0x3dffe74d	0.12495289
97	0xbd6decfc	-0.058087334
98	0x3e181ea5	0.1485544
99	0xbd6a2929	-0.05716816
100	0xbce85aaa	-0.028363544
101	0xbe871eda	-0.26390725
102	0xbc9f9951	-0.019482287
103	0xbe3ba6a2	-0.18325284
104	0xbe224038	-0.1584481
105	0x3e90d582	0.28287894
106	0x3d8c37f0	0.06846607
107	0x3e72894b	0.23685186
108	0x3daae882	0.083451286
109	0x3dee727b	0.11642929
110	0xbe6559a8	-0.22397482
111	0xbcc31f30	-0.023818582
112	0xbf020c8f	-0.5080041
113	0x3e27d1ef	0.16388677
114	0xbd4729db	-0.0486239
115	0x3e835949	0.25654057
116	0x3e684d3e	0.22685716
117	0xbe73950c	-0.23787326
118	0x3df56669	0.11982424
119	0x3db47815	0.08811966
120	0x3e6ca6d3	0.23110513
121	0xbd73ed59	-0.059552524
122	0xbe4a2763	-0.19741587
123	0x3df84c9f	0.12123989
124	0x3d4f3b0b	0.050593417
125	0x3e04d608	0.12972271
126	0xbdf4c0bd	-0.119508244
127	0x3dc87d09	0.097894736
128	0xbdb5603c	-0.08856246
129	0x3d3d9f8e	0.04629474
130	0xbda305b0	-0.07960069
131	0xbe0d5ee1	-0.13805725
132	0x3e1774ec	0.14790696
133	0x3e52c546	0.20583066
134	0x3de3e782	0.11128141
135	0xbe862467	-0.26199648
136	0xbda1695e	-0.07881425
137	0x3e0664e3	0.13124423
138	0xbd7f2179	-0.06228778
139	0xbe34e7fb	-0.17666619
140	0x3d5bc947	0.05365875
141	0x3e79285f	0.24331807
142	0x3dc331d7	0.095309906
143	0x3d6c1d5c	0.057645187
144	0x3c95f89b	0.01830702
145	0xbc8038c4	-0.015652068
146	0xbdc899eb	-0.097949825
147	0xbe9800a1	-0.2968798
148	0x3e6d205e	0.23156878
149	0x3ead75d3	0.33878955
150	0x3e712dd4	0.23552638
151	0xbe76118f	-0.24030136
152	0xbbb4be31	-0.0055158366
153	0x3decfb3d	0.115713574
154	0x3e49eb73	0.19718723
155	0x3dbcc735	0.09217683
156	0xbae4a942	-0.0017445462
157	0xbe5c3b7d	-0.21507068
158	0xbdb39285	-0.08768181
159	0xbe0b61d3	-0.13611536
160	0x3da08b5e	0.07839082
161	0xbdcbd8a1	-0.09953428
162	0x3e8e8305	0.27834335
163	0xbcd1ad1d	-0.025595242
164	0xbe17cf87	-0.14825259
165	0x3ea7dd61	0.32786086
166	0x3dd0d010	0.10195935
167	0xbe00405c	-0.12524551
168	0xbe5c81d7	-0.21533905
169	0xbe2d36b7	-0.16915403
170	0x3e4b41e8	0.1984936
171	0xbda77cd3	-0.08178105
172	0xbf148cf8	-0.580276
173	0xbc627166	-0.013820982
174	0xbd0c4cd3	-0.034252953
175	0xbe8f4baf	-0.2798743
176	0xbddd877b	-0.108168565
177	0x3de006bb	0.10938784
178	0x3ef55aa1	0.47920707
179	0x3d876829	0.06611664
180	0x3d56885b	0.052376132
181	0x3cacf6f5	0.021113852
182	0xbd1d9077	-0.03846785
183	0xbdeb1d09	-0.114801474
184	0x3daaf037	0.083465986
185	0xbf1676da	-0.58775103
186	0xbe953ac2	-0.2914639
187	0xbe1a4343	-0.15064721
188	0xbe30e966	-0.17276534
189	0xbd9f00d2	-0.07763828
190	0x3e002297	0.12513195
191	0xbda28611	-0.079357274
192	0x3e1df140	0.15424061
193	0x3e123112	0.14276531
194	0x3a59904d	0.00082993956
195	0x3a840d3b	0.0010074744
196	0xbe3d52a5	-0.18488558
197	0x3e2c8108	0.16846097
198	0x3e66ef4a	0.22552219
199	0x3b8fc5e1	0.0043876027
200	0xbd7899c0	-0.060693502
201	0x3cb83b19	0.022489117
202	0x3e86db35	0.26339117
203	0xbe440f9c	-0.1914658
204	0x3eaa14ea	0.3321908
205	0xbe094c87	-0.13408099
206	0xbe268ebb	-0.16265385
207	0xbdce2301	-0.1006527
208	0xbe52fbfc	-0.20603937
209	0x3e3d1f08	0.18468869
210	0x3d3ba1c0	0.045808554
211	0xbd94394b	-0.0723749
212	0x3e49e04e	0.19714472
213	0x3e7c6d99	0.24651183
214	0xbe046ae2	-0.12931398
215	0xbea2403b	-0.3168963
216	0xbd56a40d	-0.052402545
217	0xbd799ab8	-0.060938567
218	0xbda35bfb	-0.07976528
219	0x3e0fee9f	0.1405587
220	0xbd7b8754	-0.061408356
221	0x3b6cd099	0.0036135076
222	0x3e88434d	0.26613846
223	0xbec2fb10	-0.3808217
224	0x3decd38e	0.11563788
225	0x3e2c8b23	0.16849951
226	0x3e643a08	0.22287762
227	0x3dde29cd	0.108478166
228	0x3d8715fb	0.06595989
229	0xbe2aa0de	-0.16662928
230	0x3e00243b	0.12513821
231	0xbcd9e558	-0.026598617
232	0x3bc271e1	0.0059339856
233	0x3c2c5b27	0.010519779
234	0xbd2799c6	-0.040918134
235	0x3b99fe5e	0.0046995124
236	0xbcacb282	-0.021081213
237	0x3e1371ab	0.1439883
238	0x3b29ee9d	0.0025929578
239	0xbe773276	-0.24140343
240	0xbdcc536e	-0.099768505
241	0xbde28a2f	-0.11061513
242	0xbe29ce73	-0.1658266
243	0xbc502e2b	-0.01270632
244	0xbe532628	-0.20620024
245	0x3d63dc06	0.055629753
246	0xbe205e1e	-0.15660903
247	0x3e8be6ae	0.27324432
248	0xbc95215f	-0.01820439
249	0x3e855d30	0.2604766
250	0xbd77b785	-0.060477752
251	0x3e8c83e4	0.27444375
252	0xbddd50e5	-0.10806445
253	0x3dec74d8	0.11545724
254	0xbe05987b	-0.13046448
255	0xbec26a65	-0.37971798

action_layer.layer1.0.weight f4 [128, 128]
0	0xbdf001b2	-0.11719073
1	0xbd12628e	-0.03573852
2	0xbe57c7a4	-0.2107225
3	0x3d2dbd12	0.04241664
4	0x3d86f611	0.06589902
5	0x3e332d0b	0.17497651
6	0x3c983afd	0.018582815
7	0x3dcc7c2a	0.0998462
8	0xbc884a15	-0.016636888
9	0x3da0788f	0.07835495
10	0x3e811c3b	0.2521685
11	0xbe23b318	-0.15986288
12	0xbe0d0f43	-0.13775353
13	0xbdf4e5d8	-0.11957902
14	0x3e11220a	0.14173141
15	0x3e08ed1e	0.13371703
16	0x3e01b5b5	0.12666972
17	0xbce78b65	-0.02826471
18	0x3dbff29d	0.09372447
19	0x3cf4b1c6	0.029869925
20	0xbd83f77f	-0.064436905
21	0xbe51d1cc	-0.20490187
22	0xbc2486ea	-0.010041932
23	0x3da97bff	0.082756035
24	0xbd2666e8	-0.040625483
25	0x3d0c8223	0.034303796
26	0x3d410b75	0.047130067
27	0xbc17c400	-0.009263039
28	0x3da19bea	0.07891066
29	0x3a6e3464	0.00090867863
30	0xbd3c1bcf	-0.045924958
31	0x3d8545bc	0.065074414
32	0xbe13cb50	-0.14433026
33	0xbd856070	-0.065125346
34	0x3dc06ed5	0.093961395
35	0xbd8c4184	-0.068484336
36	0xbe0556e1	-0.13021423
37	0xbe108116	-0.14111742
38	0xbda44b6f	-0.080222
39	0x3e3282f5	0.17432769
40	0x3d5f8406	0.054569267
41	0xbe1be1d5	-0.15222867
42	0x3dc65eb2	0.096860304
43	0xbcd55614	-0.026042022
44	0x3d01812c	0.03161733
45	0x3d3a8e91	0.04554612
46	0x3d462d54	0.048383072
47	0x3db02c87	0.08602243
48	0x3d0fa11c	0.035065755
49	0xbd9d82aa	-0.07690938
50	0xbe44d12f	-0.19220422
51	0x3e2b3836	0.16720662
52	0xbd97faf5	-0.07420913
53	0x3cd969b3	0.02653966
54	0x3d837545	0.06418852
55	0x3d82205d	0.06353829
56	0xbe1feada	-0.15616933
57	0x3e0e7ff5	0.13915999
58	0xbd8118e6	-0.06303577
59	0xbc2a15c3	-0.010381165
60	0x3d7cf85f	0.061760303
61	0xbd2bad52	-0.041913338
62	0x3cfe1ae5	0.031018684
63	0x3d0be5dc	0.034154758
64	0x3e462e6d	0.19353648
65	0xbd47fd13	-0.048825335
66	0x3d8cf2cd	0.06882248
67	0xbc48cc96	-0.012255808
68	0xbd2e527e	-0.04255914
69	0xbd900f27	-0.0703414
70	0x3dee821f	0.116459124
71	0xbdad8499	-0.084725566
72	0x3d045781	0.032310013
73	0xbbcd19d4	-0.0062591825
74	0x3d1e4e09	0.03864864
75	0xbe229b4c	-0.15879554
76	0x3c9132bb	0.017724385
77	0x3d206de3	0.039167296
78	0x3de7ef6a	0.113249615
79	0x3d0264fa	0.03183458
80	0x3de7b80b	0.113144
81	0x3d3b3d77	0.045712914
82	0x3d4cb2f4	0.04997535
83	0x3d27b047	0.040939596
84	0x3c1407da	0.009035075
85	0xbdf7e9c2	-0.12105133
86	0x3e41bbb0	0.18919253
87	0xbe9864ee	-0.29764503
88	0xbcd4d96c	-0.025982581
89	0x3dea3e6f	0.114376895
90	0xbdc0db8d	-0.09416876
91	0xbdbed1c7	-0.093173556
92	0xbe2f8b61	-0.17143013
93	0xbc7e29d7	-0.015512905
94	0x3d437b5a	0.04772506
95	0x3e0167aa	0.12637201
96	0x3dca528f	0.09879028
97	0x3d0f8a52	0.035044022
98	0xbe50a438	-0.20375144
99	0xbdd8bdb0	-0.10583055
100	0xbe43d3ee	-0.19123814
101	0x3d559312	0.05214221
102	0x3e17d79d	0.14828344
103	0xbe10db8d	-0.14146252
104	0xbdfb7608	-0.12278372
105	0xbc877f68	-0.016540244
106	0xbd2a33d1	-0.041553322
107	0xbdabe16d	-0.08392606
108	0x3d34ffdd	0.044189323
109	0xbdbce3f3	-0.09223165
110	0xbda7a515	-0.08185784
111	0xbad1a003	-0.0015993122
112	0x3dd1684a	0.1022497
113	0xbe4edb14	-0.20200759
114	0x3e021896	0.12704691
115	0xbdd6cfff	-0.10488891
116	0x3dc6de0f	0.09710323
117	0xbe245c18	-0.16050756
118	0xbc86f595	-0.016474525
119	0x3dec925d	0.11551354
120	0x3cacbe6a	0.02108689
121	0x3d510246	0.05102756
122	0xbcb57a86	-0.02215315
123	0x3df8e03d	0.12152145
124	0x3d4c2b71	0.049846116
125	0xbd155c90	-0.036465228
126	0xbda73591	-0.08164514
127	0x3d3a1035	0.045425612
128	0x3e04e0bc	0.12976354
129	0xbb0a69df	-0.0021120233
130	0x3d8df914	0.069322735
131	0xbd4365f8	-0.047704667
132	0xbd20d5de	-0.03926646
133	0xbe03ddfe	-0.12877652
134	0xbe1317d5	-0.1436456
135	0x3dc0cbe2	0.094138876
136	0xbdc99543	-0.098429225
137	0xbda844ad	-0.08216224
138	0xbe555224	-0.20832115
139	0xbe9f66d5	-0.31133142
140	0x3dd722d6	0.10504691
141	0xbde5846c	-0.11206898
142	0xbde56f5f	-0.11202883
143	0xbdd7fb56	-0.105459854
144	0xbe4feee0	-0.20305967
145	0xbe97a777	-0.29619953
146	0x3e1b19e3	0.15146594
147	0xbd024096	-0.031799875
148	0xbd60c20f	-0.05487257
149	0x3dcbb937	0.09947436
150	0xbe50e088	-0.20398152
151	0xbd06b9b2	-0.032891937
152	0xbdcc5a24	-0.099781305
153	0xbe145eff	-0.14489363
154	0x3ca837c7	0.02053441
155	0xbe5df0e7	-0.21673928
156	0xbd4dd14d	-0.050248433
157	0x3e1b217d	0.15149494
158	0x3d9c5960	0.076342344
159	0xbec8c1bf	-0.39210317
160	0xbe4409cf	-0.19144367
161	0xbde17e01	-0.110103615
162	0xbdcb03d9	-0.09912843
163	0xbf04fa10	-0.51944065
164	0xbda54d3d	-0.08071373
165	0xbeb9daac	-0.36299646
166	0xbddedb45	-0.10881666
167	0xbe4e9e4c	-0.20177573
168	0x3dbe7f15	0.09301583
169	0x3e099738	0.13436592
170	0xbd6b926e	-0.057512693
171	0xbe577880	-0.21042061
172	0xbe052fa2	-0.13006452
173	0x3dc8bb3a	0.09801336
174	0xbd369c6e	-0.044582777
175	0xbd6e723d	-0.058214415
176	0x3b4e930b	0.003152075
177	0x3e3620f9	0.17786016
178	0xbc926a16	-0.017872851
179	0xbd1b0111	-0.037842814
180	0x3b90cbc9	0.0044188243
181	0xbd23d4a0	-0.039997697
182	0xbec52144	-0.38501942
183	0xbe6f04a8	-0.2334162
184	0xbe407e48	-0.18798172
185	0xbe53e862	-0.20694116
186	0x3c710a48	0.014711924
187	0xbd179057	-0.037002888
188	0xbe379cc5	-0.17930897
189	0xbc9e9029	-0.01935585
190	0x3d0b20fd	0.033967007
191	0xbe3e4713	-0.185818
192	0x3e063220	0.13105059
193	0x3e1e7813	0.15475492
194	0x3c94f426	0.018182825
195	0xbc96b835	-0.018398384
196	0xbe4d3dde	-0.20043132
197	0xbcad4261	-0.021149816
198	0xbd43274f	-0.04764491
199	0x3d35abe9	0.0443534
200	0xbd1511de	-0.036393993
201	0x3dc453ef	0.095863216
202	0x3dc6d42a	0.09708436
203	0xbe1765a7	-0.14784871
204	0x3e0ceadc	0.13761467
205	0xbe0e09ac	-0.13870877
206	0xbda33cd7	-0.07970589
207	0x3e04dd72	0.129751
208	0xbcca18be	-0.024670001
209	0xbe014764	-0.1262489
210	0x3e3a9f35	0.18224795
211	0xbd7ccfcc	-0.061721608
212	0x3c868f72	0.016425822
213	0x3dc57a27	0.09642439
214	0x3e3e0a1c	0.18558544
215	0x3b851d05	0.0040622973
216	0xbcc127f2	-0.023578618
217	0x3cda5e0d	0.026656175
218	0xba35685f	-0.00069201546
219	0xbe9defe3	-0.30847082
220	0x3b070544	0.0020602504
221	0x3c8ab9dd	0.01693433
222	0xbe2ddae9	-0.16978039
223	0xbd960a95	-0.07326237
224	0xbe5966ff	-0.21230696
225	0xbd1e4bdb	-0.03864656
226	0xbe5b9428	-0.21443236
227	0xbb896a4e	-0.0041935807
228	0xbdff9b5d	-0.12480805
229	0xbeb65bc7	-0.35616896
230	0xbd9778cf	-0.07396089
231	0xbe954fef	-0.29162547
232	0x3d89ebe9	0.067344494
233	0xbbc2c857	-0.0059442925
234	0xbde8dee3	-0.11370637
235	0xbe3cb83a	-0.18429652
236	0xbd11c839	-0.035591338
237	0xbd7c3822	-0.06157697
238	0x3b66a33f	0.0035192517
239	0xbe874fa6	-0.26427954
240	0xbe5beb96	-0.21476588
241	0xbe022941	-0.1271105
242	0xbe080acb	-0.13285367
243	0x3df25da8	0.1183427
244	0xbd9f1f90	-0.07769692
245	0xbd8c9e57	-0.068661384
246	0x3d934c46	0.071922824
247	0x3df666ff	0.12031364
248	0xbeb2f0eb	-0.3494943
249	0xbd28be0c	-0.041196868
250	0x3d942533	0.07233658
251	0xbcc697c1	-0.024242284
252	0xbe423d02	-0.18968585
253	0xbe18cac4	-0.14921099
254	0x3db00124	0.085939676
255	0x3e1aff71	0.15136506

action_layer.layer1.0.bias f4 [128]
0	0x3d7579dc	0.059930667
1	0xbc218f72	-0.00986086
2	0xbd954b4e	-0.07289754
3	0xbded3260	-0.11581874
4	0x3b2ecf4a	0.0026673847
5	0xbd4b5857	-0.049644794
6	0xbd83b509	-0.06431014
7	0xbda7fe35	-0.08202783
8	0xbd9ad294	-0.07559696
9	0x3cb3a144	0.021927483
10	0xbd960a46	-0.07326178
11	0xbd42cf5c	-0.047561035
12	0xbde35175	-0.11099521
13	0xbc685fcf	-0.014182999
14	0xbe214566	-0.1574913
15	0xbd8f70b9	-0.07003922
16	0xbd67e34b	-0.056613248
17	0xbc88fa8d	-0.016721034
18	0xbd6d3dfa	-0.057920434
19	0xbda0e2de	-0.078557715
20	0xbd930ef3	-0.07180586
21	0xbd12b338	-0.035815448
22	0xbdf15fe5	-0.117858686
23	0xbe28c1f3	-0.16480236
24	0xbdb62afe	-0.08894919
25	0xbdaddbe0	-0.084892035
26	0xbd1991f3	-0.037492704
27	0xbe0b56cf	-0.13607334
28	0xbe0702c8	-0.13184655
29	0xbc806a34	-0.015675642
30	0x3d654912	0.05597789
31	0xbd382584	-0.044957653
32	0xbddcf6e4	-0.10789278
33	0xbd6396ef	-0.055563863
34	0xbdd9a332	-0.1062683
35	0xbd656948	-0.056008607
36	0xbd5577b5	-0.052116115
37	0xbd345076	-0.044022046
38	0xbd969f9b	-0.07354661
39	0xbe315f7c	-0.1732158
40	0x3d6a3a31	0.057184402
41	0xbd674d76	-0.056470357
42	0xbd7f29e7	-0.06229582
43	0xbdc1c3b1	-0.09461153
44	0x3dbc6636	0.09199183
45	0x3c08fcc1	0.0083610425
46	0xbcc81d35	-0.02442799
47	0xbcc815b2	-0.024424408
48	0xbb99ae87	-0.0046899947
49	0xbc7354e3	-0.014851782
50	0xbdfc558e	-0.12321006
51	0x3d0b4c96	0.034008585
52	0xbe5dc40c	-0.21656817
53	0xbd1b4306	-0.037905715
54	0xb9cbc506	-0.0003886597
55	0xbdfaacd0	-0.122399926
56	0xbd55c985	-0.052194137
57	0xbd94a99f	-0.07258915
58	0xbd658b61	-0.056041125
59	0xbe0b54d4	-0.13606578
60	0xbd927752	-0.07151665
61	0xbe16e436	-0.14735493
62	0xbd9b6440	-0.075874805
63	0xbcc805ad	-0.024416769
64	0xbd6f19a4	-0.058374062
65	0xbdf25141	-0.11831904
66	0x3caf8b05	0.021428594
67	0xbe3951bc	-0.18097585
68	0xbe3c0b8c	-0.1836378
69	0xbd9c9f9a	-0.07647629
70	0xbe200731	-0.15627743
71	0x3cc50107	0.024048341
72	0x3d9e51bc	0.07730433
73	0xbd482bfb	-0.048870068
74	0xbc6c9305	-0.014439349
75	0xbc995c61	-0.018720808
76	0xbcb19fa0	-0.02168256
77	0xbe0e887c	-0.13919252
78	0xbd85e2bc	-0.06537387
79	0xbda7e309	-0.081976004
80	0xbd42607f	-0.047455307
81	0xbe0f8d3d	-0.14018722
82	0xbd389728	-0.04506603
83	0x3e00a45a	0.12562695
84	0xbde918cf	-0.11381685
85	0xbdeef600	-0.116680145
86	0xbd3ecebc	-0.046583876
87	0x3de50354	0.111822754
88	0xbc9b00d2	-0.01892129
89	0xbdecddf0	-0.11565769
90	0xbcbf9098	-0.023384377
91	0xbde7f7ef	-0.113265865
92	0xbe574d64	-0.21025616
93	0x3cc992af	0.024606077
94	0xbc2b80c5	-0.010467713
95	0xbe3bb228	-0.1832968
96	0x3d530f26	0.05152812
97	0xbccd64a3	-0.025072401
98	0xbe186665	-0.1488281
99	0xbdce3cbb	-0.10070177
100	0xbe2e36d6	-0.17013106
101	0xbdcf4c2a	-0.10121949
102	0xbcfdeedf	-0.030997692
103	0x3d3ac9d0	0.04560262
104	0xbd84c4c1	-0.0648284
105	0xbc8ef9b0	-0.017453045
106	0x3d031e7e	0.0320115
107	0x3d3ffcd4	0.046871975
108	0xbc23c0ed	-0.009994728
109	0x3d25791f	0.040398713
110	0xbdcafaa3	-0.099110864
111	0xbd07f09a	-0.03318844
112	0xbdb5d47e	-0.0887842
113	0xbd2efc1a	-0.04272089
114	0xbde87c54	-0.11351839
115	0xbe4f4f14	-0.2024501
116	0x3d8b3333	0.06796875
117	0xbe059660	-0.13045645
118	0xbe19de33	-0.15026169
119	0x3e0667f9	0.131256
120	0xbdd57643	-0.10422947
121	0x3d439439	0.047748778
122	0x3c913c51	0.017728956
123	0xbcf29bcd	-0.029615307
124	0xbdb8c07f	-0.09021091
125	0xbe0cb379	-0.13740338
126	0xbc7e46ab	-0.015519778
127	0x3c4a8c06	0.012362486

action_layer.layer1.1.weight f4 [2, 128]
0	0xbd287ce2	-0.041134723
1	0x3eae074d	0.33989945
2	0x3e83f26b	0.25770888
3	0xbe35c911	-0.17752482
4	0xbe907187	-0.28211614
5	0xbd6457b1	-0.05574769
6	0x3d029a2f	0.031885322
7	0x3e7039e7	0.23459588
8	0x3d9d3c52	0.07677521
9	0xbd0b6b07	-0.034037616
10	0x3ef22239	0.47291735
11	0x3d1ee2a3	0.038790356
12	0xbe1a5965	-0.15073164
13	0xbd9a8ed2	-0.07546772
14	0x3d98c76b	0.07459911
15	0x3d747225	0.05967917
16	0xbe74f4b8	-0.23921478
17	0xbe221587	-0.15828525
18	0x3ddb0d34	0.10695878
19	0x3e198d6c	0.14995354
20	0x3db32298	0.087468326
21	0x3d4e83f7	0.05041882
22	0xbea8a5eb	-0.32939085
23	0x3e3fc320	0.18726778
24	0x3e80df0c	0.2517017
25	0xbe9951a8	-0.2994511
26	0xbd84b970	-0.06480682
27	0xbdc8732f	-0.097875945
28	0x3e533f2d	0.20629568
29	0xbc82bcec	-0.015959226
30	0xbb08c8d7	-0.0020871663
31	0x3d647b6d	0.05578177
32	0x3d1c32b5	0.038134295
33	0xbe1188e8	-0.14212382
34	0xbe832143	-0.25611314
35	0xbd78d465	-0.06074943
36	0x3dce8a88	0.100850165
37	0xbe88a7e6	-0.26690596
38	0xbdae14cc	-0.085000604
39	0x3e36fad4	0.17869121
40	0xbd899018	-0.06716937
41	0x3c5594db	0.013035978
42	0xbb67d163	-0.0035372607
43	0x3de743b3	0.112922095
44	0x3d872121	0.06598116
45	0xbddc3c83	-0.10753729
46	0xbdcefd43	-0.101068996
47	0x3e703d4f	0.23460887
48	0xbb16b368	-0.0022995118
49	0xbe3a9207	-0.18219768
50	0x3e97ee7e	0.29674143
51	0xbd6c6379	-0.057712052
52	0xbde1cf33	-0.11025848
53	0xbe394c83	-0.18095593
54	0x3e330f61	0.17486335
55	0xbe955807	-0.29168722
56	0x3e055fab	0.13024776
57	0xbe9a7e3b	-0.3017443
58	0xbe5b706c	-0.21429604
59	0x3e89e74c	0.26934278
60	0x3dbe2ab0	0.09285486
61	0x3d58753a	0.05284617
62	0x3d0c0dd2	0.034192868
63	0x3d00f0f2	0.031479783
64	0xbdd7f0c4	-0.10543969
65	0x3e00528c	0.12531489
66	0x3c427363	0.011868331
67	0x3e7f7dad	0.24950285
68	0xbd317e50	-0.04333335
69	0x3d96aa49	0.07356698
70	0xbe0f68ec	-0.14004868
71	0x3cd81004	0.026374824
72	0xbd1a34a9	-0.037647877
73	0x3d94dfba	0.07269235
74	0xbe9f0b9b	-0.31063542
75	0xbe14594e	-0.14487192
76	0x3e04de77	0.12975489
77	0xbd8dd936	-0.06926195
78	0xbe3b1d53	-0.18272905
79	0x3e3c601a	0.18396035
80	0xbea315dc	-0.31852615
81	0xbc6f0dd7	-0.014590702
82	0xbe24e938	-0.16104591
83	0x3d222219	0.0395833
84	0x3eb12774	0.34600413
85	0xbe6859fe	-0.2269058
86	0x3e9c5789	0.30535534
87	0x3d429719	0.04750738
88	0xbe21a23d	-0.15784545
89	0xbe068807	-0.13137828
90	0xbe566d1d	-0.20940061
91	0x3e7e3cf9	0.24827947
92	0xbe3aac5e	-0.18229815
93	0xbdfd4f25	-0.12368611
94	0x3d88db34	0.06682435
95	0x3ea1d36d	0.31606618
96	0xbdaa8273	-0.083256625
97	0x3e8bd124	0.27308
98	0xbed6d397	-0.41958305
99	0x3e1cd3ed	0.15315218
100	0x3d9d1c91	0.07671464
101	0xbeec3c78	-0.46139884
102	0x3cd4db35	0.025983432
103	0xbd85df9e	-0.06536792
104	0xbd84558c	-0.06461629
105	0x3dea90f0	0.11453426
106	0x3d6ca1c8	0.057771474
107	0x3c9a21e9	0.018814998
108	0xbd584c76	-0.052807294
109	0xbe52d3dc	-0.2058863
110	0x3c655705	0.013997798
111	0x3d83636b	0.06415447
112	0x3e6183cc	0.22022933
113	0xbe667dfc	-0.22508997
114	0x3b830282	0.0039981017
115	0x3ed0a3fe	0.40750116
116	0x3e1f08a3	0.15530638
117	0x3eda2611	0.42607167
118	0xbe8f6e8d	-0.2801403
119	0xbd7b4254	-0.061342552
120	0x3e8fd7df	0.28094384
121	0x3d3d4789	0.0462108
122	0xbe0f13d0	-0.13972402
123	0xbd909090	-0.07058823
124	0xbe0b4677	-0.13601099
125	0x3dfcf0b2	0.123505965
126	0xbddc68bb	-0.10762163
127	0xbd517284	-0.0511346
128	0x3ccbcf69	0.024879174
129	0xbe5a8ad0	-0.21342015
130	0xbd286835	-0.041115005
131	0xbe8c67df	-0.27422997
132	0xbd9fae41	-0.07796908
133	0x3d0aebb2	0.033916183
134	0x3e187e3c	0.14891905
135	0xbe15fd07	-0.14647304
136	0x3e2370f3	0.15961055
137	0xbe151cb2	-0.14561728
138	0x3c0a1ee7	0.008430219
139	0xbda8d98d	-0.082446195
140	0xba6db913	-0.0009068411
141	0xbd85f308	-0.06540495
142	0x3d53761b	0.051626306
143	0x3dfcba48	0.12340218
144	0x3e1b3ce7	0.15159951
145	0xbd9ded04	-0.07711223
146	0x3e72c3c7	0.23707496
147	0xbd8b1da5	-0.067927636
148	0x3dad8542	0.084726825
149	0x3dea720f	0.11447536
150	0x3d641927	0.05568805
151	0x3d889f60	0.06671023
152	0xbdee5daf	-0.116389625
153	0x3e3b4088	0.18286335
154	0x3d67d38a	0.056598224
155	0xbe91c4a4	-0.28470337
156	0xbd9cd802	-0.07658388
157	0x3e9e506c	0.30920732
158	0x3d3b1ded	0.045682836
159	0xbcdafd1f	-0.026732026
160	0xbd3deed4	-0.046370342
161	0x3e86b58f	0.26310393
162	0x3df16004	0.11785892
163	0x3e96072c	0.29302347
164	0xbe9eae4a	-0.30992347
165	0x3e6cda95	0.23130257
166	0xbd06d5a8	-0.032918602
167	0xbe25a4db	-0.16176169
168	0x3c88046c	0.016603671
169	0x3de8bce2	0.113641515
170	0xbd5db58e	-0.054128222
171	0xbc631161	-0.013859124
172	0xbccb16c3	-0.024791127
173	0x3ef5c40c	0.48001134
174	0xbd4b5c3f	-0.04964852
175	0x3dbb5151	0.09146369
176	0x3d8ba332	0.068182364
177	0x3e9d9e34	0.30784762
178	0xbd7526fe	-0.05985164
179	0xbc59c75d	-0.013292161
180	0xbeb57b33	-0.35445556
181	0xbd3e5b4b	-0.046473783
182	0xbcb66660	-0.022265613
183	0x3dd90e78	0.10598463
184	0x3ea7d375	0.32778516
185	0x3d70ec13	0.058818888
186	0xbe5f9f8d	-0.21838208
187	0xbdeecc23	-0.1166003
188	0x3e198609	0.14992537
189	0x3dc529fe	0.0962715
190	0xbe3e25ee	-0.18569157
191	0xbd7f4c39	-0.06232855
192	0x3d34676e	0.04404395
193	0xbd8b48d0	-0.06800997
194	0x3d4b9bf3	0.04970927
195	0xbe66965a	-0.22518292
196	0xbe420b19	-0.18949546
197	0x3dd0b980	0.10191631
198	0x3da350b9	0.07974381
199	0xbd23d301	-0.03999615
200	0x3d271c25	0.040798325
201	0xbcf247d5	-0.029575268
202	0xbc83da73	-0.016095376
203	0x3d734862	0.0593952
204	0xbdb8cb3c	-0.09023139
205	0xbc2e4956	-0.010637602
206	0xbe476054	-0.1947034
207	0xbe836073	-0.25659522
208	0x3dee4b4a	0.11635454
209	0xbdc411e6	-0.09573726
210	0x3d8291a4	0.06375435
211	0x3d47b29b	0.048754316
212	0x3df62e42	0.12020542
213	0xbd21c823	-0.039497506
214	0x3e6df332	0.23237303
215	0x3d12f345	0.03587653
216	0x3df0c75b	0.11756774
217	0xbc30dfaf	-0.010795518
218	0x3b723ab3	0.0036961257
219	0x3e35f081	0.17767526
220	0xbe8931f4	-0.26795924
221	0xbe2a02a4	-0.1660257
222	0xbd9d3878	-0.07676786
223	0x3b8d2515	0.004307399
224	0xbd8aec6a	-0.06783374
225	0xbcd68932	-0.026188467
226	0x3e99ed59	0.30063894
227	0x3e8428bb	0.25812325
228	0xbd2c8018	-0.042114347
229	0xbd8dfa84	-0.06932548
230	0x3e07e447	0.13270675
231	0xbd146ab3	-0.03623457
232	0xbe961467	-0.2931244
233	0xbe7c3974	-0.24631292
234	0x3d5b58e2	0.053551562
235	0xbd34a933	-0.044106673
236	0xbcf70d8b	-0.030157825
237	0xbcedc143	-0.029022818
238	0xbd873892	-0.06602587
239	0xbd2e8301	-0.042605404
240	0xbd6ee2e3	-0.058321845
241	0x3e077d5f	0.13231419
242	0xbe64dcf6	-0.22349915
243	0xbdfbe42e	-0.12299381
244	0x3cf84793	0.030307567
245	0xbce4336a	-0.027856547
246	0xbd034234	-0.032045558
247	0x3d4bc9f9	0.049753163
248	0xbe37f1a0	-0.17963266
249	0x3d506c11	0.05088431
250	0xbdf0244f	-0.11725675
251	0x3d24efb0	0.040267646
252	0x3cf077f2	0.02935407
253	0xbc2deab2	-0.010615038
254	0x3ce01110	0.027351886
255	0xbd1a1e8e	-0.037626795

action_layer.layer1.1.bias f4 [2]
0	0xbb21b6ef	-0.0024675687
1	0xbcab46d9	-0.020907806
