hcanet-3.27_maddpg/data/logs/20240414-11-14-22/model_2400.pt (torch, 268587 bytes, 16 tensors)

FC1.weight f4 [128, 180]
0	0xbd94c1ec	-0.0726355
1	0x3d95c57c	0.07313058
2	0xbbfc6e58	-0.0077035837
3	0x3d794a3e	0.06086182
4	0x3b3fc465	0.0029261347
5	0xbdacb1a4	-0.0843232
6	0xbd96a234	-0.073551565
7	0x3e11ce72	0.14238909
8	0xbcd2e95d	-0.025746042
9	0xbd8c6b2c	-0.06856379
10	0x3de62522	0.11237551
11	0xbdb76b94	-0.08956066
12	0x3df6832d	0.120367385
13	0xbc8b6779	-0.017017113
14	0xbbff2059	-0.0077858386
15	0x3ddb1fdc	0.10699436
16	0x3d6a2ac9	0.05716971
17	0xbdcb94bc	-0.09940478
18	0x3c5213c9	0.0128221
19	0xbcd690de	-0.026192125
20	0xbd16baf9	-0.036799405
21	0xbd1060a9	-0.035248432
22	0x3b86c395	0.0041126707
23	0xbcd166a8	-0.025561646
24	0xbdb69002	-0.08914186
25	0xbdb982da	-0.09058161
26	0x3dd6a4d7	0.104806595
27	0xbe36af46	-0.17840299
28	0xbe8427d8	-0.25811648
29	0xbe726c14	-0.23674041
30	0x3e0d6621	0.1380849
31	0xbdb3877e	-0.087660775
32	0x3d38022a	0.04492394
33	0x3c5b371e	0.01337984
34	0x3c2f5044	0.010700289
35	0xbd4efd92	-0.050534792
36	0xbea2eb28	-0.31820035
37	0xbe113d92	-0.14183643
38	0xbe45740d	-0.19282551
39	0xbe363b4f	-0.17796062
40	0x3c524f5d	0.0128363045
41	0x3d62f168	0.055406004
42	0x3de324aa	0.110909775
43	0xbe35e22b	-0.17762057
44	0xbe19707c	-0.14984316
45	0x3e91db97	0.28487846
46	0xbe860f37	-0.26183483
47	0xbdd098dd	-0.10185406
48	0x3d3bd33b	0.045855742
49	0x3da836a2	0.082135454
50	0xbc369c56	-0.011145672
51	0xbe1b31b5	-0.1515568
52	0x3c00eb9e	0.0078686755
53	0xbe937228	-0.28798032
54	0xbe90d579	-0.28287867
55	0xbc5c28ba	-0.013437444
56	0x3e256563	0.16151957
57	0xbd42e061	-0.047577266
58	0x3d6e7cb3	0.05822439
59	0x3ca52b4b	0.020162245
60	0xbd921b85	-0.07134155
61	0xbdb4a04b	-0.08819636
62	0xbbf5d8da	-0.0075026574
63	0x3daabbb2	0.08336581
64	0x3dfaf46e	0.122536525
65	0xbddc2a2c	-0.10750231
66	0xbd6a038b	-0.057132285
67	0xbda55cd4	-0.08074346
68	0xbd9f3fbe	-0.0777583
69	0xbd2751e9	-0.0408496
70	0xbba8af6a	-0.005147864
71	0x3da64426	0.08118467
72	0xbd9b5679	-0.07584853
73	0x3cbcd409	0.023050325
74	0x3d4d56bf	0.050131556
75	0x3bad213b	0.0052835024
76	0x3cc211ef	0.023690192
77	0xbc88c8ca	-0.016697306
78	0x3d05c1be	0.03265547
79	0x3e11dbff	0.14244078
80	0x3dd2fa2f	0.10301625
81	0xbd95ee11	-0.07320798
82	0x3cea1b94	0.028577603
83	0x3d0029a3	0.031289708
84	0x3d523025	0.051315445
85	0x3c6fce41	0.014636577
86	0x3d2d67eb	0.042335432
87	0xbcdb6609	-0.026782053
88	0xbae70008	-0.0017623911
89	0x3dbc8bd0	0.092063546
90	0x3d934ea7	0.07192736
91	0xbd458a9d	-0.048227895
92	0xbd793358	-0.06083998
93	0x3cdab803	0.026699072
94	0x3e16570b	0.14681642
95	0x3de1ef19	0.110319324
96	0xbc9e901e	-0.01935583
97	0x3b849b66	0.0040468452
98	0x3dbb261b	0.091381274
99	0xbc8ab42d	-0.016931618
100	0x3d87dabf	0.066335194
101	0x3ab7dd11	0.0014027675
102	0xbd5c4022	-0.0537721
103	0x3d123d07	0.03570273
104	0x3cf9c304	0.030488499
105	0x39a18e58	0.00030814367
106	0x3c1c64e3	0.009545538
107	0x3d676973	0.05649705
108	0x3d8f301b	0.06991597
109	0x3d4173dd	0.047229636
110	0x3d00a74d	0.03140955
111	0x3d2b3150	0.041795075
112	0xbc358058	-0.011077963
113	0xbd4e937a	-0.050433613
114	0x3c2ab056	0.010418018
115	0xbdbc20ac	-0.09185919
116	0x3d2373c1	0.039905313
117	0xbd746946	-0.05967071
118	0xbdae2320	-0.08502793
119	0x3d1b48a0	0.037911057
120	0x3c5ff4c8	0.0136692
121	0xbd290c0d	-0.04127126
122	0xbd8b1159	-0.06790418
123	0x3d47ee89	0.04881147
124	0xbce3898d	-0.02777555
125	0x3d968ce3	0.07351091
126	0x3d2342ad	0.03985851
127	0x3d943f09	0.072385855
128	0xbce27703	-0.02764464
129	0xbd732c76	-0.059368573
130	0xbd69e43a	-0.05710242
131	0x3d987636	0.07444422
132	0xbd076a04	-0.03306009
133	0xbd96ff8e	-0.07372962
134	0x3d684423	0.056705605
135	0x3caec3ad	0.02133354
136	0x3da19d2e	0.07891308
137	0x3d2a791d	0.04161941
138	0x3b8b0d7a	0.00424355
139	0xbd65d7bf	-0.056113955
140	0xbd1998d0	-0.03749925
141	0xbcc75293	-0.024331367
142	0xbd395957	-0.045251217
143	0xbd7d53ba	-0.061847426
144	0x3d61f6b2	0.055166908
145	0x3d983955	0.0743281
146	0xbd23c822	-0.039985783
147	0xbc000235	-0.007813026
148	0x3d8c8eea	0.06863196
149	0x3d05b1eb	0.03264038
150	0xbba0d1ea	-0.004907836
151	0xbc3b8c09	-0.011446961
152	0x3cdc07d9	0.02685921
153	0xbcb75f36	-0.022384267
154	0xbd45f87d	-0.04833268
155	0xbc73054c	-0.014832806
156	0x3d3e9293	0.046526503
157	0xbd10254a	-0.03519181
158	0xbd331e44	-0.043730035
159	0xbca3aaf1	-0.019978972
160	0xbd006e95	-0.03135546
161	0xbd59bc1e	-0.05315792
162	0xbc11ae98	-0.008891724
163	0x3d0231d3	0.031785797
164	0x3d82627d	0.063664414
165	0x3cbdb03b	0.023155322
166	0x3d6cbd87	0.057797935
167	0x3cb2ce8b	0.021827003
168	0xbcbd0bdc	-0.023076944
169	0xbd790156	-0.06079229
170	0xbccbc0f9	-0.02487229
171	0x3cca3e0c	0.02468779
172	0x3bfe2cf5	0.007756824
173	0xbcd09262	-0.025460426
174	0xbc12ba87	-0.008955604
175	0x3c62d8c7	0.013845629
176	0x3d866b55	0.06563441
177	0x3dec1b9a	0.11528702
178	0x3dead583	0.114665054
179	0x3c11496a	0.008867601
180	0x3d23476b	0.03986303
181	0x3e0fa354	0.14027148
182	0x3d882cd7	0.066491775
183	0x3d30aa3c	0.0431311
184	0xbd6a2c95	-0.057171423
185	0xbe600154	-0.21875507
186	0xbe405093	-0.18780737
187	0xbe5de86b	-0.21670692
188	0xbdd80f72	-0.10549821
189	0x3d455447	0.048176076
190	0xbea387f7	-0.3193967
191	0x3c203b71	0.009779797
192	0xbe262563	-0.162252
193	0x3d6338ec	0.055474207
194	0xbcadbbd9	-0.021207737
195	0xbc3c2915	-0.011484404
196	0x3d825543	0.06363919
197	0xbd467bce	-0.048457913
198	0x3ba67fce	0.0050811535
199	0xbde286b0	-0.11060846
200	0x3e10863f	0.14113711
201	0xbc0676ea	-0.008207062
202	0x3dcaa575	0.0989484
203	0xbba77c74	-0.0051112715
204	0x3d078843	0.033088934
205	0xbb847730	-0.0040425286
206	0xbd5dcd9e	-0.05415117
207	0x3d9ace95	0.07558934
208	0x3e43477d	0.1907024
209	0x3d4f13d5	0.050556023
210	0x3d89401b	0.0670168
211	0xbb9f23a4	-0.0048565436
212	0xbdc1e055	-0.09466616
213	0xbdd110ba	-0.102082685
214	0xbd5c97c3	-0.05385567
215	0xbd58a7a6	-0.052894257
216	0x3df9cf8d	0.1219779
217	0x3dfb9eac	0.12286124
218	0xbdb01413	-0.08597579
219	0xbe40bab7	-0.18821226
220	0x3d6939e1	0.056939963
221	0xbd9ba1cf	-0.07599222
222	0x3d6555e3	0.05599011
223	0xbd2c70ce	-0.042099766
224	0xbdf7d5df	-0.121013395
225	0x3d027e64	0.031858817
226	0x3cc2d144	0.023781426
227	0x3d7a3ea3	0.06109489
228	0xbd97b7ca	-0.07408102
229	0xbdc8fcd4	-0.09813848
230	0x3e486bc4	0.1957236
231	0x3dbd1085	0.092316665
232	0x3d978371	0.07398117
233	0xbd6cf75c	-0.057853088
234	0xbd2fb995	-0.042901594
235	0x3c6ad129	0.014332094
236	0x3e42cac9	0.19022669
237	0x3e453958	0.19260156
238	0x3dd4e4ed	0.10395227
239	0x3b5716ff	0.0032820103
240	0x3d8c46ca	0.068494394
241	0x3e6eb90a	0.23312774
242	0x3dbb5765	0.091475286
243	0x3d82c11e	0.063844904
244	0x3d93e14b	0.072207056
245	0x3da55190	0.080721974
246	0x3d17a04d	0.03701811
247	0xbc66ee1f	-0.014094858
248	0x3dae7263	0.08517911
249	0x3e078cbc	0.1323728
250	0xbd349e28	-0.044096142
251	0x3d2662f7	0.040621724
252	0xbdad556b	-0.08463558
253	0x3d08da06	0.03341105
254	0x3cc2f086	0.023796331
255	0xbc2caa0b	-0.010538588

FC1.bias f4 [128]
0	0x3d4f8a09	0.05066875
1	0xbc3f8118	-0.011688493
2	0xbdaaee34	-0.08346215
3	0xbd9a0be8	-0.07521802
4	0xbcbf2761	-0.023334207
5	0xbd3c749c	-0.046009645
6	0xbd4336ba	-0.047659613
7	0xbdaf718f	-0.085665815
8	0x3b78d06c	0.0037966026
9	0x3d84d8b3	0.064866446
10	0x3d359cc5	0.04433896
11	0xbd924900	-0.0714283
12	0xbc8bccbb	-0.017065397
13	0xbd5fb6f1	-0.054617826
14	0xbb8075d3	-0.0039202957
15	0xbc21189d	-0.009832528
16	0x3d29431c	0.041323766
17	0xbcaad207	-0.020852102
18	0x3cb5b5bf	0.02218139
19	0x3d7c2fed	0.061569143
20	0x3d325fec	0.04354851
21	0xbc944a9b	-0.01810198
22	0xbd1f92f8	-0.03895852
23	0xbcbef0cc	-0.02330818
24	0x3c68ebfc	0.014216419
25	0xbcf6f3e2	-0.03014559
26	0x3d828ddc	0.06374714
27	0xbd87660f	-0.06611263
28	0xbbc93eb9	-0.0061415103
29	0xbd459077	-0.048233476
30	0x3ce13cef	0.027494876
31	0xbda351ca	-0.079745844
32	0xbd438bcf	-0.047740754
33	0x3d982322	0.07428576
34	0xbd76d8e8	-0.06026545
35	0x3d183640	0.03716111
36	0xbd054f5d	-0.03254639
37	0xbd1790b3	-0.03700323
38	0x3d527790	0.051383555
39	0x3d6d849f	0.057987805
40	0x3d261b3f	0.040553328
41	0x3aa2ae31	0.0012411532
42	0x3ba5f5dd	0.0050647096
43	0x3d531544	0.051533952
44	0x3ced87ba	0.028995384
45	0xbd2afd7d	-0.04174565
46	0xbd87261c	-0.06599066
47	0x3d40a6cd	0.047034074
48	0x3bd98667	0.0066383365
49	0xbd8a0bd9	-0.06740541
50	0xbd7c82a1	-0.061648015
51	0xbd117d5b	-0.03551994
52	0x3cd3efeb	0.025871238
53	0xbd6edea0	-0.05831778
54	0x3d2250f2	0.039627977
55	0x3bcc15af	0.006228171
56	0xbcc3aa7d	-0.023885006
57	0xbcf6b779	-0.030116783
58	0x3d950a0e	0.072773084
59	0xbb350cdf	-0.002762608
60	0x3d28e710	0.041235983
61	0xba10938c	-0.000551515
62	0x3cd3c8db	0.025852611
63	0xbc8e56d1	-0.017375382
64	0xbc6ea843	-0.014566484
65	0xbc2cc409	-0.010544785
66	0xbc62ec58	-0.013850294
67	0xbd157689	-0.036489997
68	0xbd4f2106	-0.050568603
69	0x3ce98a16	0.028508227
70	0xbdb5df46	-0.08880477
71	0xbd393395	-0.045215208
72	0x3cf6e02c	0.03013619
73	0x3d167bd6	0.036739193
74	0xbc1ee92b	-0.009699146
75	0x3d6efced	0.058346678
76	0xbd9d9588	-0.076945364
77	0xbce98128	-0.02850397
78	0x3caf7f4e	0.021423008
79	0x3d770fd4	0.06031783
80	0xbbcf788e	-0.00633151
81	0x3d218e6a	0.039442457
82	0xbd0cbbd1	-0.034358803
83	0x3d134ca2	0.035961755
84	0x3be1d3f7	0.0068917233
85	0x3bec9d4b	0.007220899
86	0xbd07ad84	-0.03312446
87	0xbcb04e3d	-0.021521682
88	0x39c91e54	0.00038360304
89	0x3d944783	0.07240202
90	0xbcc1ccb1	-0.023657175
91	0x3d839c74	0.064263254
92	0xbd35090f	-0.044198092
93	0x3d80b2d7	0.06284111
94	0x3d8eb3a7	0.0696786
95	0x3cc44601	0.023959162
96	0xbd81742f	-0.063209884
97	0x3d6f370c	0.058402106
98	0xbd2e3c34	-0.042537883
99	0x3d5376e3	0.05162705
100	0x3d81b6f8	0.06333727
101	0xbd2f2964	-0.042764083
102	0x3d7ec413	0.06219871
103	0x3c4a4e02	0.0123477
104	0xbd0c883f	-0.034309622
105	0x3c2ce483	0.010552528
106	0xbc8c46d0	-0.01712361
107	0x3d1d6752	0.038428612
108	0xbc967145	-0.018364558
109	0xbd299a68	-0.04140702
110	0xbc396f1c	-0.011317994
111	0xbc94ba76	-0.018155318
112	0x3c906e46	0.017630707
113	0x3d37275f	0.04471528
114	0xbcf3b662	-0.029750053
115	0xbb369b49	-0.0027863553
116	0x3d97db43	0.07414868
117	0xbd179f51	-0.03701717
118	0x3d4c72e3	0.049914252
119	0xbd3cb393	-0.046069693
120	0xbc002987	-0.007822401
121	0x3d079ceb	0.033108633
122	0xbc3b5d28	-0.011435784
123	0xbd09f4e6	-0.03368082
124	0xbcd6f29c	-0.026238732
125	0x3d6441aa	0.055726685
126	0xbd55fea1	-0.052244786
127	0xbd96f131	-0.07370222

FC2.weight f4 [64, 128]
0	0x3c45ab08	0.012064703
1	0xbdb5630a	-0.08856781
2	0x3daa930c	0.08328828
3	0xbddc2ebe	-0.10751103
4	0xbd1e815c	-0.038697585
5	0xbc19fadc	-0.009398188
6	0x3d80f33a	0.06296392
7	0xbe45bef7	-0.19311129
8	0x3e12aad5	0.1432298
9	0x3d0706d6	0.032965504
10	0xbcf8c66c	-0.030368052
11	0x3cc23579	0.023707138
12	0xbbba0c4b	-0.005677735
13	0x3d3ee194	0.046601847
14	0xbcf43f17	-0.02981524
15	0x3dc3fc91	0.095696576
16	0xbe32eedb	-0.17473929
17	0xbcb0ca6b	-0.021580895
18	0xbdbe16f9	-0.092817254
19	0xbe85e1e3	-0.261489
20	0xbb364a02	-0.0027815108
21	0xbe124143	-0.14282708
22	0x3d62b3bf	0.0553472
23	0x3dbf5fda	0.09344454
24	0x3d18177e	0.03713178
25	0xbea6f4cc	-0.3260864
26	0xbe0b45ba	-0.13600817
27	0x3d69e4ff	0.057103153
28	0xbc8e6a99	-0.017384814
29	0xbd80f1f7	-0.06296151
30	0x3dbd026f	0.0922898
31	0xbd54f01f	-0.05198681
32	0x3dba0333	0.090826415
33	0xbda13ad5	-0.078725494
34	0xbdb3f080	-0.08786106
35	0xbc8580a9	-0.016296702
36	0x3e1afdf1	0.15135933
37	0x3c14c6f0	0.0090806335
38	0xbe89aad8	-0.26888156
39	0xbe2d64fd	-0.16933055
40	0x3cecb9fc	0.028897278
41	0x3c5ecd7b	0.013598795
42	0xbd25a150	-0.040437043
43	0x3d01be8f	0.03167587
44	0xbc83fbaf	-0.016111223
45	0xbe44eb19	-0.19230308
46	0xbd2ee832	-0.042701907
47	0x3e5997fd	0.21249385
48	0x3d1960e8	0.037445933
49	0x3d086858	0.033302635
50	0x3d064982	0.032784946
51	0x3d6ffb0c	0.058589026
52	0x3e20d07f	0.15704535
53	0x3cf243ef	0.029573409
54	0xbd1bfc42	-0.03808237
55	0xbb96ea43	-0.004605563
56	0xbc9dc42c	-0.019258581
57	0xbbca4e5f	-0.0061738933
58	0xbca0f67f	-0.019648788
59	0x3c2e35ae	0.010632915
60	0x3d41c198	0.047303766
61	0xbc35e92c	-0.011102956
62	0xbdc0c051	-0.094116814
63	0x3dcddf8e	0.10052405
64	0xbdca820e	-0.09888087
65	0x3d880c98	0.06643027
66	0x3e77ee4b	0.24211995
67	0x3dbe9281	0.09305287
68	0x3d9c930c	0.076452345
69	0xbdb468ab	-0.08809026
70	0xbc2bb3d8	-0.01047989
71	0xbdfe4054	-0.12414613
72	0x3db52bae	0.08846222
73	0x3d2f7527	0.042836335
74	0x3be645e0	0.0070273727
75	0xbc98caf9	-0.018651472
76	0x3d1de62d	0.03854959
77	0x3d859532	0.065225974
78	0x3e273d6c	0.16332024
79	0x3e2a2204	0.16614538
80	0xba9397d3	-0.0011260457
81	0x3dc5de13	0.09661498
82	0xbe5da472	-0.21644762
83	0x3e380e9d	0.17974325
84	0x3d93bcd7	0.07213753
85	0xbe4a74e4	-0.19771153
86	0xbd03aa4f	-0.03214484
87	0x3cdbd27f	0.02683377
88	0xbdfbee05	-0.12301258
89	0xbda5df9b	-0.0809929
90	0x3d409065	0.047012705
91	0xbcbe038b	-0.023195049
92	0x3d2523c7	0.040317323
93	0x3d861c2d	0.06548343
94	0xbd1af436	-0.037830554
95	0x3b762be7	0.003756279
96	0x3da13047	0.07870536
97	0x3c3c2455	0.011483272
98	0x3d2ff8c4	0.04296185
99	0xbe00d7d1	-0.12582327
100	0x3c9fd4c2	0.01951063
101	0x3cea1e2e	0.028578844
102	0xbe5d2d0e	-0.21599218
103	0x3d4cf2dc	0.050036296
104	0xbc3920f4	-0.011299361
105	0xbcc5d46b	-0.02414914
106	0x3d82ea8d	0.06392393
107	0xbe21e390	-0.15809464
108	0xbdb35368	-0.08756143
109	0xbdddbca3	-0.10826995
110	0xbd1dc3a9	-0.038516674
111	0xbe1c520b	-0.15265672
112	0x3ca87ac6	0.020566355
113	0x3e06107e	0.13092229
114	0xbd78a5c5	-0.060704965
115	0x3d56e731	0.052466575
116	0x3d83709f	0.06417965
117	0x3d89c66a	0.067272976
118	0xbc9517d4	-0.018199839
119	0xbd4973ca	-0.04918269
120	0xbb88b726	-0.0041722236
121	0x3d14b88a	0.036308803
122	0xbe0ea1f2	-0.13928965
123	0xba27ee07	-0.0006406013
124	0xbce5863e	-0.028018113
125	0xbd9a60b0	-0.07537973
126	0xbe26e8ca	-0.1629974
127	0x3dbc82a2	0.09204604
128	0xbd971c72	-0.073784724
129	0xbd8988c2	-0.067155376
130	0xbde5199e	-0.11186527
131	0x3e178529	0.1479689
132	0xbdcdd5cd	-0.10050545
133	0xbae4bf16	-0.0017451968
134	0x3d6241a5	0.055238385
135	0x3e079322	0.1323972
136	0x3cdb17c8	0.026744738
137	0x3e24580f	0.16049217
138	0xbe22619d	-0.15857549
139	0x3d0819ec	0.033227846
140	0x3a9fb858	0.0012185676
141	0xbd1e0877	-0.03858229
142	0x3e19151a	0.14949456
143	0xbe61e62d	-0.22060461
144	0xbc1a9b5e	-0.0094364565
145	0x3d6e53a3	0.05818523
146	0x3d9a65bb	0.07538935
147	0xbd36ef39	-0.044661734
148	0xbd110b35	-0.03541108
149	0xbbc6f3a9	-0.006071527
150	0xbd2cb7bb	-0.042167407
151	0xbd7386ee	-0.05945485
152	0xbd9e41d8	-0.077274024
153	0xbc07228d	-0.008247984
154	0xbc932ac8	-0.017964736
155	0xbe14a6cc	-0.14516753
156	0xbd28de7a	-0.041227795
157	0x3d28b499	0.041187856
158	0xbe680702	-0.22658923
159	0xbc001364	-0.007817123
160	0x3d348c51	0.04407913
161	0x3e071a37	0.13193594
162	0x3d601b83	0.054713737
163	0x3cdb8fca	0.026801962
164	0x3e11b304	0.14228445
165	0x3e01bbe8	0.12669337
166	0x3ce875c6	0.028376471
167	0xbe167ce2	-0.14696077
168	0xbba8a566	-0.00514667
169	0x3ddbef33	0.10738983
170	0xbe79ed56	-0.24406943
171	0xbcde965f	-0.027171312
172	0x3deedcae	0.11663185
173	0x3cbc60cf	0.02299538
174	0x3d8996f3	0.067182444
175	0x3d83f8a1	0.064439066
176	0x3e182e7c	0.14861482
177	0xbd47c745	-0.048774023
178	0xbe560244	-0.20899302
179	0xbd04890f	-0.03235727
180	0xbe7c0555	-0.24611409
181	0xbd6e16e1	-0.058127288
182	0x3dcbd5c4	0.09952882
183	0x3d867c3d	0.06566665
184	0x3dc61428	0.09671813
185	0x3e140c0d	0.14457722
186	0x3c82bc8d	0.015959049
187	0xbc7bd710	-0.015371099
188	0x3e233c99	0.15941085
189	0xbdfa65f1	-0.12226475
190	0xbd974cdd	-0.073877074
191	0xbd820370	-0.06348312
192	0x3c60735e	0.013699381
193	0x3db0eaf9	0.086385675
194	0xbc7b829f	-0.015350967
195	0xbd93a4d7	-0.07209175
196	0x3e0466d3	0.1292985
197	0x3e152026	0.14563045
198	0xbd735332	-0.059405513
199	0xbe216760	-0.1576209
200	0x3d9e5ed5	0.077329315
201	0xbd3b32d6	-0.045702778
202	0x3dc8857d	0.09791086
203	0x3cc8a727	0.024493767
204	0x3da1e876	0.079056665
205	0xbc738f23	-0.014865669
206	0x3bca6200	0.0061762333
207	0x3d706426	0.05868926
208	0x3d0021ee	0.031282358
209	0x3c98e6a0	0.018664658
210	0xbdbd2bfd	-0.09236906
211	0x3da275c9	0.07932622
212	0x3e2a5a82	0.16636088
213	0xbe0dd79d	-0.13851781
214	0xbc4e3739	-0.012586408
215	0xbdad64ee	-0.084665164
216	0x3d330e93	0.04371507
217	0xbd9c2839	-0.07624859
218	0xbe820567	-0.25394747
219	0x3cbab932	0.022793386
220	0x3d15692e	0.03647726
221	0x3d863aa8	0.065541565
222	0x3c8565a6	0.016283821
223	0xbbcf7d21	-0.006332055
224	0xbc711a59	-0.014715754
225	0x3e5c6890	0.21524262
226	0xbae60240	-0.0017548278
227	0xbdc00e99	-0.09377784
228	0x3d93ca62	0.07216336
229	0xbdb75121	-0.08951021
230	0x3daac969	0.08339197
231	0x3df03e1e	0.11730598
232	0xbe067e80	-0.13134193
233	0x3d146339	0.03622744
234	0x3e2b50c7	0.16730033
235	0x3d788fcf	0.06068402
236	0xbdd8c073	-0.10583582
237	0xbba4df1c	-0.0050314795
238	0xbd125074	-0.035721257
239	0xbdf2d8f1	-0.118577845
240	0x3dbf8b0b	0.09352692
241	0x3cdb3947	0.02676071
242	0xbdbef13b	-0.09323355
243	0xbd6b6901	-0.057473186
244	0x3de8a63c	0.11359832
245	0xbe30e08e	-0.17273161
246	0x3cbbeea3	0.02294094
247	0xbd050ee7	-0.032484915
248	0xbde5c6f3	-0.11219587
249	0x3de89c78	0.11357969
250	0x3cec74e2	0.028864328
251	0x3adc931e	0.0016828512
252	0xbe4d8d50	-0.20073438
253	0x3d4d241e	0.050083272
254	0xbd7b8c3d	-0.06141304
255	0xbd084aa8	-0.033274323

FC2.bias f4 [64]
0	0xbd57ad9b	-0.052655797
1	0xbdba4acd	-0.09096298
2	0xbdcf4d0f	-0.1012212
3	0xbdde726f	-0.1086167
4	0xbd83b886	-0.064316794
5	0x3cc3046f	0.023805825
6	0xbc8fcb40	-0.017552972
7	0xbd10dc81	-0.03536654
8	0xbd1ee356	-0.038791023
9	0x3d556186	0.05209496
10	0xbc6daea3	-0.014506969
11	0xbd84f302	-0.064916626
12	0xbd13ac83	-0.036053192
13	0x3d853c01	0.065055855
14	0xbb211e11	-0.0024584571
15	0x3d2853b9	0.04109547
16	0xbda77fdd	-0.08178685
17	0xbc84eaf1	-0.01622531
18	0x3d1bf648	0.03807667
19	0xbbae73e1	-0.0053238724
20	0xbda484c0	-0.080331326
21	0xbd89721d	-0.067112185
22	0xbd9a9068	-0.075470746
23	0x3b07c410	0.0020716228
24	0x3ca01b92	0.019544397
25	0xbc2bc898	-0.010484837
26	0x3c90253c	0.01759588
27	0xbdca690b	-0.098833166
28	0xbcf69ae2	-0.03010315
29	0xbdae4ca8	-0.08510715
30	0xbdc00aa3	-0.09377029
31	0xbd5e0fe5	-0.054214377
32	0x3decb97f	0.11558818
33	0xbd52caef	-0.051463064
34	0xbd293b69	-0.041316424
35	0xbd45e7c8	-0.048316747
36	0xbd30e7a5	-0.043189663
37	0x3cb906e1	0.022586288
38	0x3db4861a	0.0881464
39	0x3ddd5e0b	0.10808953
40	0xbd189bc7	-0.037257936
41	0xbd3e56d1	-0.046469513
42	0xbd56bcdb	-0.0524262
43	0x3ca80ae2	0.020513002
44	0x3ca0d18c	0.01963117
45	0x3d2884c3	0.041142236
46	0x3c943a3f	0.01809418
47	0xbd5a86d7	-0.05335125
48	0xbcb19b32	-0.021680448
49	0xbdad9446	-0.084755465
50	0xbce07cfc	-0.027403347
51	0x3d071612	0.032980032
52	0x3de5d64f	0.11222517
53	0x3d251822	0.040306218
54	0xbbefdc97	-0.0073199975
55	0x3d6be808	0.05759433
56	0xbd2a4c03	-0.041576397
57	0xbbf2ae3a	-0.0074060233
58	0xbcfba6a1	-0.030719103
59	0x3cfa3ca0	0.030546486
60	0xbcb7cb6d	-0.022435868
61	0x3d83c510	0.06434071
62	0xbc7f2c16	-0.015574476
63	0x3d8e656b	0.06952938

FC3.weight f4 [2, 64]
0	0xbe820325	-0.25393024
1	0x3df5f0e1	0.12008835
2	0x3d0a2fc4	0.03373696
3	0x3dad9c17	0.084770374
4	0x3e52f61e	0.20601699
5	0xbe8bbef5	-0.27294126
6	0x3aac90dd	0.0013165731
7	0x3df2f199	0.11862487
8	0x3da54416	0.08069627
9	0xbd6fef17	-0.058577623
10	0x3e54ee65	0.20794065
11	0x3e2f153b	0.17097943
12	0x3de65241	0.112461574
13	0x3cc0e8ca	0.023548502
14	0x3d9b11ad	0.07571731
15	0x3dee89c3	0.1164737
16	0x3ec4da15	0.38447633
17	0xbea02053	-0.3127466
18	0xbe29506e	-0.16534588
19	0xbe2cb545	-0.16866024
20	0x3e424acb	0.18973844
21	0x3e7b1681	0.24520303
22	0x3ebc4022	0.3676768
23	0x3dbe6d50	0.092981935
24	0xbd9483d9	-0.072517104
25	0xbea52fb6	-0.32262963
26	0x3c541606	0.012944704
27	0x3e68537e	0.226881
28	0xbda3cb00	-0.079977036
29	0x3db23838	0.08702129
30	0x3e4d6e38	0.20061576
31	0xbd0e6fab	-0.034774464
32	0xbc875b95	-0.016523162
33	0xbd83514d	-0.06411991
34	0xbe6ad554	-0.2293294
35	0x3db126a3	0.086499475
36	0xbe039684	-0.12850386
37	0x3e219895	0.15780862
38	0xbd9068fa	-0.07051273
39	0xbd39d70b	-0.045371097
40	0x3dec3c2b	0.11534914
41	0x3e1cdfd3	0.15319757
42	0x3e121547	0.14265929
43	0xbe05d913	-0.13071088
44	0xbdd93498	-0.106057346
45	0x3e30a7ea	0.17251554
46	0xbe6a0d6b	-0.22856681
47	0x3d91b931	0.071154006
48	0x3e12a527	0.14320813
49	0xbe002fe4	-0.12518269
50	0xbd67c947	-0.056588437
51	0xbea23967	-0.3168442
52	0xbd476a27	-0.04868522
53	0xbd191868	-0.03737679
54	0xbd1c7987	-0.038201835
55	0xbd58eb00	-0.05295849
56	0x3e0902f9	0.1338004
57	0x3db3f155	0.08786265
58	0x3ea172e6	0.31532973
59	0xbd7a7996	-0.06115111
60	0xbdf1d78a	-0.11808689
61	0xbda67ca4	-0.08129242
62	0xbd80966b	-0.0627869
63	0xbda16879	-0.07881255
64	0xbda0308d	-0.0782176
65	0xbe816d61	-0.25278762
66	0xbe1f6dd6	-0.15569243
67	0x3d96c39e	0.0736153
68	0xbe2a812b	-0.16650836
69	0xbc781f89	-0.015144237
70	0xbe26cd21	-0.16289188
71	0xbce39ac4	-0.027783759
72	0x3d8d5989	0.06901843
73	0xbb3bd336	-0.0028659827
74	0x3df02dab	0.117274605
75	0x3e21a7b0	0.15786624
76	0xbc05ea90	-0.0081736
77	0xbd76a1f3	-0.06021304
78	0xbdf91124	-0.121614724
79	0x3d38baee	0.045100145
80	0x3e7da80d	0.24771138
81	0xbe5a6004	-0.2132569
82	0x3cb4a06c	0.022049151
83	0xbe18e40e	-0.14930746
84	0xbe00a4ad	-0.12562819
85	0x3dc9091d	0.09816191
86	0x3e25c4f6	0.16188416
87	0xbdb25c6a	-0.08709033
88	0xbc284269	-0.01026974
89	0xbd8f7c31	-0.070061095
90	0xbdb617f7	-0.0889129
91	0x3df8ceb4	0.121488005
92	0xbda27dae	-0.07934128
93	0x3ddc0c2e	0.107445106
94	0xbd3616ab	-0.04445521
95	0xbd4ff179	-0.050767396
96	0x3d8929da	0.06697436
97	0xbe284400	-0.1643219
98	0x3b50cad9	0.0031859188
99	0x3d42aded	0.04752915
100	0x3d9ae0ef	0.07562434
101	0xbcecfded	-0.028929675
102	0x3c8dafb1	0.01729569
103	0xbd53c1ef	-0.05169862
104	0xbd9c4842	-0.076309696
105	0xbc84953b	-0.01618444
106	0xbd2f95c8	-0.042867452
107	0xbb0bf022	-0.0021352847
108	0xbdad3d0d	-0.0845891
109	0x3d3ea584	0.046544567
110	0xbdfcfb9b	-0.123526774
111	0x3d7daa68	0.06193009
112	0x3cccbbe5	0.024991939
113	0x3e3f9537	0.18709265
114	0xbd8e0054	-0.06933656
115	0x3c925330	0.017861933
116	0x3d2d503d	0.04231285
117	0xbd7ff7e2	-0.06249226
118	0x3d3eda1c	0.046594724
119	0xbd68da5c	-0.05684887
120	0xbdd144da	-0.102182105
121	0x3d82f60a	0.063945845
122	0xbd9a7296	-0.07541387
123	0x3d002690	0.031286776
124	0x3d319fd3	0.04336531
125	0x3d61e199	0.055146787
126	0xbdba7aac	-0.09105429
127	0xbd3a0cd7	-0.0454224

FC3.bias f4 [2]
0	0x3d8235c2	0.0635791
1	0x3b1ea4aa	0.0024207034

FC1.weight f4 [128, 180]
0	0xbdb76c87	-0.08956247
1	0xbd17dd77	-0.03707644
2	0xbddfdeb7	-0.10931151
3	0x3d678ef7	0.056532826
4	0xbd103edd	-0.0352162
5	0x3d1a16ee	0.037619524
6	0xbcff22fb	-0.03114461
7	0x3e6ee7a5	0.23330553
8	0xbc8c2410	-0.01710704
9	0x3d43ac18	0.047771543
10	0x3cece047	0.028915538
11	0xbd8a54ab	-0.067544304
12	0x3c0b040d	0.0084848525
13	0xbd87e24d	-0.0663496
14	0x3db99a91	0.09062684
15	0x3cfbc1ad	0.030732
16	0xbc3ca77c	-0.011514541
17	0x3ca96afc	0.020680897
18	0xbdb0e41e	-0.0863726
19	0x3d5730f3	0.052536916
20	0xbd091a74	-0.033472493
21	0xbcb41bef	-0.021985976
22	0x3d108094	0.03527887
23	0x3d8d92a3	0.06912734
24	0x3d75eb04	0.06003858
25	0x3916dd08	0.00014387455
26	0x3c8af736	0.016963582
27	0x3d0d8dcc	0.034559056
28	0xbd97d050	-0.07412779
29	0xbcc24eaf	-0.02371916
30	0x3c8f410e	0.017487075
31	0x3dbb2e6a	0.09139712
32	0x3db7b4f4	0.08970061
33	0x3d7aa1e7	0.06118956
34	0x3dfd4e50	0.123684525
35	0xbda5a68e	-0.080884084
36	0x3df00951	0.11720527
37	0x3db236fe	0.08701895
38	0xbe84880a	-0.2588504
39	0x3cbf5ba6	0.023359131
40	0xbe14bdae	-0.14525482
41	0x3d97fdce	0.07421456
42	0xbd97ec67	-0.07418137
43	0xbe89af1d	-0.26891413
44	0xbe4bc83a	-0.19900599
45	0xbcfa2a1f	-0.030537663
46	0x3c9f8640	0.019473195
47	0x3c86902b	0.016426167
48	0x3daf25b4	0.08552113
49	0x3d4ce51c	0.050023183
50	0xbd9b73b3	-0.07590427
51	0x3d2154ba	0.039387442
52	0xbc8f584d	-0.01749816
53	0xbd2cfd18	-0.042233557
54	0x3ce6a0ca	0.028152842
55	0xbdb1454c	-0.086557955
56	0x3e0c96d7	0.13729416
57	0x3dae38a8	0.085069
58	0x3cf9cb2e	0.030492391
59	0xbe24cf48	-0.16094697
60	0xbc222501	-0.009896518
61	0x3d3c1695	0.045919973
62	0xbd9aadb5	-0.07552663
63	0xbc92e5fc	-0.01793193
64	0xbc0d0d6b	-0.008609156
65	0xbe01a290	-0.12659669
66	0xbdf1c1a4	-0.11804512
67	0xbbac1894	-0.0052519534
68	0x3d954c5b	0.07289954
69	0xbb31584e	-0.002706069
70	0x3d2b9176	0.04188677
71	0xbd5855f2	-0.05281634
72	0x3da63b17	0.08116739
73	0xbd25ee30	-0.040510356
74	0xbd481409	-0.048847232
75	0xbc2d7ef4	-0.01058935
76	0xbd19de64	-0.037565604
77	0x3d29bdab	0.041440647
78	0xbd76d3e1	-0.060260657
79	0xbc2d736c	-0.010586601
80	0xbd6a626b	-0.057222765
81	0x3dd30702	0.10304071
82	0x3cf27b5d	0.02959984
83	0x3c4c09a9	0.012453475
84	0xbdf3376f	-0.118758075
85	0xbd26cd7c	-0.04072331
86	0x3e0a599f	0.1351075
87	0x3afb9402	0.001919389
88	0xbce256d4	-0.027629294
89	0xbdceb5c2	-0.10093261
90	0xbdf6415f	-0.12024187
91	0xbe52dd07	-0.20592128
92	0xbd3b1a52	-0.045679398
93	0xbc1eff18	-0.009704374
94	0xbc812ffe	-0.015769955
95	0x3c154e98	0.0091129765
96	0x3d843bb9	0.06456704
97	0x3de7bf2d	0.11315761
98	0xbd6efc3e	-0.058346026
99	0xbd2d6fb8	-0.04234287
100	0xbd4ae73d	-0.049536932
101	0x3c95e44a	0.018297333
102	0x3d822a11	0.0635568
103	0x3e0080c4	0.1254912
104	0xbc1c6d0f	-0.009547486
105	0xbcdba540	-0.026812196
106	0x39d440eb	0.0004048416
107	0x3ce5eca5	0.028066942
108	0x3dc230f4	0.09481993
109	0x3da7fb11	0.08202184
110	0xbd451382	-0.048114307
111	0xbe27c984	-0.16385466
112	0x3cfd7d5d	0.030943567
113	0x3c2806e8	0.010255553
114	0x3c6a5bb9	0.014304095
115	0xbce5061b	-0.027957013
116	0x3d489a41	0.048975233
117	0xbd641a65	-0.055689234
118	0xbe26b755	-0.16280873
119	0xbe65dc38	-0.22447288
120	0xba1eae31	-0.0006053178
121	0x3d96e7ab	0.07368406
122	0xbcdc3476	-0.026880484
123	0xbe0024eb	-0.12514083
124	0xbe1e6b63	-0.15470652
125	0xbe0a4835	-0.13504107
126	0xbdc72bc3	-0.09725144
127	0xbe09097d	-0.13382526
128	0xbe464f21	-0.19366123
129	0xbe0c6754	-0.13711292
130	0xbd839e4f	-0.06426679
131	0x3e452db4	0.19255716
132	0xbda5f9d9	-0.08104295
133	0xbc8e6537	-0.017382247
134	0xbd1719cc	-0.036889836
135	0xbcf2450a	-0.029573936
136	0xbddc65b5	-0.107615866
137	0xbd748f86	-0.059707187
138	0xbd8314c7	-0.06400447
139	0x3d97eac0	0.07417822
140	0xbdd99ada	-0.10625239
141	0xbd925249	-0.07144601
142	0x3cd1cbb3	0.025609827
143	0xbd0068fc	-0.03135012
144	0xbe648845	-0.22317608
145	0xbdaf13aa	-0.085486725
146	0x3d728500	0.05920887
147	0x3d3cde14	0.046110228
148	0x3d29a4aa	0.0414168
149	0x3d2dec63	0.042461764
150	0xbd56406c	-0.05230753
151	0xbcbce83d	-0.023059959
152	0x3d263718	0.040579885
153	0xbc8ca6e8	-0.01716943
154	0x3db33689	0.08750636
155	0xbd810acc	-0.063008875
156	0xbd32e539	-0.043675635
157	0x3cdf0192	0.027222428
158	0xbcc0a1b5	-0.023514608
159	0x3c54123a	0.012943799
160	0x3d1eee8f	0.038801726
161	0xbdb5d9e6	-0.088794515
162	0x3d915c75	0.07097713
163	0xbda49414	-0.08036056
164	0xbda5ac77	-0.08089536
165	0xbdac651f	-0.08417725
166	0xbd22a7ae	-0.039710693
167	0xbd1ba511	-0.037999216
168	0x3b437d4e	0.0029829326
169	0xbba200e7	-0.004943955
170	0xbc6f0ab7	-0.014589957
171	0x3dbe82be	0.09302281
172	0xbd9f986e	-0.077927455
173	0x3cbade1c	0.022810988
174	0xbca56a52	-0.020192299
175	0xbd33ca92	-0.043894358
176	0x3d25055d	0.040288318
177	0x3d0023b7	0.03128406
178	0x3df3ce7c	0.11904618
179	0x3d87a1f3	0.06622686
180	0xbbf9e586	-0.0076262383
181	0xbb345b57	-0.0027520263
182	0x3d3753d2	0.04475767
183	0xbe4da31e	-0.20081756
184	0xbe2472b0	-0.16059375
185	0xbd14d537	-0.03633615
186	0x3d667a1d	0.0562688
187	0xbe7dae84	-0.24773604
188	0x3c609520	0.013707429
189	0xbc814179	-0.01577829
190	0xbcc196da	-0.023631502
191	0xbc3e833d	-0.011627969
192	0x3dbe2ae1	0.09285522
193	0x3d9173fc	0.071022004
194	0xbdc26d89	-0.094935484
195	0xbd6bff07	-0.05761626
196	0x3e12d030	0.1433723
197	0xbe00b459	-0.12568797
198	0x3e11f639	0.14254083
199	0xbb42171b	-0.0029615823
200	0x3e18cc69	0.14921726
201	0xbd361da6	-0.04446187
202	0xbdeacf56	-0.114653274
203	0x3d93788d	0.072007276
204	0x3d772cdb	0.060345512
205	0x3e95e5fc	0.29277027
206	0xbded3ff5	-0.115844645
207	0x3de793e4	0.11307505
208	0x3e3fd226	0.18732509
209	0x3e4760bc	0.19470495
210	0xbe42ecf2	-0.190357
211	0xbb77b022	-0.0037794192
212	0xbd1a6f9e	-0.037704103
213	0xbdc34a19	-0.095356174
214	0x3ce1f998	0.027584836
215	0xbd2e7440	-0.042591333
216	0xbd9aaa69	-0.075520344
217	0xbcce9730	-0.025218576
218	0x3d28721b	0.041124444
219	0x3ddc5594	0.1075851
220	0x3e0446de	0.12917659
221	0xbe2230e7	-0.15838967
222	0x3d8fef71	0.07028092
223	0x3d2883de	0.041141383
224	0x3d42f90c	0.04760079
225	0x3e16a5d9	0.14711703
226	0xbe022ee6	-0.12713203
227	0xbdc5e513	-0.09662833
228	0xbd24c2b1	-0.040224735
229	0xbb275061	-0.0025530087
230	0x3e2d31ba	0.169135
231	0xbd49d976	-0.049279653
232	0x3b199f2d	0.0023440823
233	0xbe106fc3	-0.14105134
234	0xbd50a479	-0.050938103
235	0x3d944b63	0.072409414
236	0x3ddcdfc8	0.107848704
237	0xbdc95f35	-0.098326124
238	0xbcfec3ae	-0.031099167
239	0x3b0e4f57	0.002171477
240	0xbb851b84	-0.004062118
241	0x3cad33b7	0.021142824
242	0xbdcbc802	-0.09950258
243	0xbdcf0a2c	-0.10109362
244	0xbd00c6c1	-0.031439546
245	0x3da47951	0.08030952
246	0xbe495035	-0.19659503
247	0xbdb5338b	-0.08847722
248	0x3e2ceb58	0.16886652
249	0x3d71c33b	0.059024077
250	0xbdbc56d3	-0.09196248
251	0xbdeb6882	-0.11494543
252	0x3dde3326	0.108495995
253	0x3e0a8ae4	0.13529545
254	0x3e2519f6	0.16123185
255	0x3d8392e1	0.06424499

FC1.bias f4 [128]
0	0xbd9507ed	-0.07276902
1	0x3d066ede	0.032820575
2	0xbdb89f94	-0.09014812
3	0x3b4b69d1	0.0031038413
4	0xbc86a27d	-0.016434902
5	0xbcfd6436	-0.030931573
6	0xbd286a5f	-0.04111707
7	0xbcb4122b	-0.02198132
8	0x3cd0d243	0.025490886
9	0xbc6645ae	-0.014054699
10	0xbd2688ef	-0.040657934
11	0xbcf68127	-0.030090882
12	0x3c3e6858	0.011621557
13	0xbd6f084b	-0.05835752
14	0xbcad3db9	-0.021147596
15	0xbcf8e148	-0.03038086
16	0xbd9a103f	-0.0752263
17	0x3a91552e	0.0011088008
18	0xbd0c2fce	-0.034225278
19	0x3d2fcd90	0.04292065
20	0x3c3e73ff	0.011624335
21	0xbc40efea	-0.01177595
22	0x395a8f8f	0.0002084358
23	0x3d5dd3c4	0.054157034
24	0xbd424e75	-0.047438104
25	0xbdb63db5	-0.088984884
26	0xbc9a0403	-0.018800741
27	0x3d67c693	0.05658586
28	0x3c33b1ec	0.010967713
29	0x3d365953	0.04451878
30	0x3d851768	0.06498605
31	0x3d3ce98b	0.04612116
32	0xbcc24759	-0.023715662
33	0xbd60701b	-0.054794412
34	0xbcfe6d36	-0.031057935
35	0x3d53de10	0.051725447
36	0xbd2c219e	-0.042024247
37	0xbd1f90fb	-0.038956624
38	0xbd53e682	-0.0517335
39	0xbce6de0d	-0.028182054
40	0xbd689370	-0.056781232
41	0xbd9a9120	-0.07547212
42	0x3d68e884	0.05686237
43	0x3cc6f60d	0.024287248
44	0xbcaefec5	-0.021361718
45	0xbd1fefce	-0.039047055
46	0x3d286499	0.041111562
47	0x3d7c439c	0.061587915
48	0x3d3df1c1	0.046373133
49	0xba851a87	-0.0010155
50	0x3a86dc41	0.001028903
51	0x3c9a941f	0.018869458
52	0x3d16187d	0.036644448
53	0x3cc8cdc0	0.024512172
54	0xbda021a3	-0.07818916
55	0x3ba3d389	0.004999582
56	0xbd5fccfa	-0.05463884
57	0xbd21a25e	-0.039461486
58	0xbd045ecc	-0.032316968
59	0xbda7e311	-0.08197606
60	0x3d268bc0	0.04066062
61	0x3cfa5c07	0.03056146
62	0x3d1ababf	0.03777575
63	0xbbe1068e	-0.0068672365
64	0x3cdb780e	0.026790645
65	0xbd32f983	-0.043694984
66	0xbd5340d7	-0.051575508
67	0x3d26e59d	0.04074632
68	0xbcc3b520	-0.023890078
69	0x3d1e1389	0.03859285
70	0xbc784c13	-0.015154856
71	0xbcee8dba	-0.029120315
72	0xbc8950a5	-0.016762087
73	0xbbc77c4e	-0.0060878163
74	0x3da2d8a1	0.07951475
75	0xbd55cfe3	-0.05220021
76	0xbd25afbc	-0.040450796
77	0xbda82188	-0.082095206
78	0xbc8b7e6e	-0.01702806
79	0xbd884c05	-0.066551246
80	0x3d10f284	0.03538753
81	0xbc8721ac	-0.016495548
82	0x3d1eb661	0.03874815
83	0xbd4173ad	-0.047229458
84	0xbdcc95da	-0.099895194
85	0x3caec350	0.021333367
86	0xbd4fa890	-0.050697863
87	0xbd774c2d	-0.06037538
88	0x3cf7905d	0.030220205
89	0xbd9a77f3	-0.0754241
90	0xbda89586	-0.08231644
91	0x3d4e95ad	0.05043571
92	0x3cf5e81f	0.03001791
93	0xbd87f71c	-0.06638929
94	0xbd540477	-0.05176207
95	0xbd2a4bdf	-0.041576263
96	0xbb8fe8f7	-0.0043917852
97	0x3d8ad66e	0.067791805
98	0x3c258c2a	0.0101042185
99	0x3d62b1dd	0.055345405
100	0x3bd785e8	0.006577242
101	0x3ab8623a	0.001406736
102	0x3cb796f7	0.022410853
103	0x3d8b06f8	0.067884386
104	0xbd87df83	-0.06634428
105	0xbb11d6de	-0.0022253315
106	0x3c03967a	0.008031482
107	0x3d25c818	0.040474027
108	0x3d704523	0.058659684
109	0xbd6f057a	-0.058354832
110	0xbd521517	-0.051289644
111	0x3d45bd4d	0.048276234
112	0xbcb42fb9	-0.021995412
113	0xbca76a25	-0.020436356
114	0x3d0291fe	0.03187751
115	0xbb1468a7	-0.0022645385
116	0xba1331db	-0.0005615034
117	0x3d578a07	0.052621868
118	0xbd2d7e01	-0.042356495
119	0xbd18c7b8	-0.03729984
120	0x3d82f97f	0.06395244
121	0x3d7c9421	0.061664704
122	0x3d5b1210	0.053484023
123	0x3d3d11ed	0.046159673
124	0x3d00d017	0.03144845
125	0x3b5b9834	0.0033507468
126	0x3d7ef8bc	0.06224893
127	0xbc65b2c1	-0.014019669

FC2.weight f4 [64, 128]
0	0xbd92e8a1	-0.07173277
1	0x3db70cc7	0.08937984
2	0xbcd34c5f	-0.025793253
3	0xbc8589da	-0.016301084
4	0xbc738d4b	-0.01486523
5	0xbcc094fa	-0.023508538
6	0x3c8ec132	0.017426107
7	0xbd288d87	-0.041150596
8	0x3c0939b5	0.008375575
9	0x3dfbdf5c	0.12298462
10	0x3d6814e0	0.056660533
11	0x3dbadd58	0.09124249
12	0xbe4f447a	-0.20240965
13	0x3d247b2f	0.04015654
14	0x3d1864c7	0.037205484
15	0x3d824c69	0.0636223
16	0x3d3da5a1	0.046300534
17	0xbd4f4ed3	-0.050612282
18	0x3d7a48fb	0.061104756
19	0xbd075b63	-0.033046138
20	0x3cc8f856	0.024532478
21	0xbd2ad780	-0.041709423
22	0xbd437503	-0.047719013
23	0x3c93b5f1	0.018031092
24	0x3dc95c3c	0.098320454
25	0x3d12ba6c	0.035822317
26	0xbe04ea01	-0.1297989
27	0xbe7d0c51	-0.2471173
28	0xbb6bcc69	-0.0035979992
29	0x3e27e5f4	0.16396314
30	0xbdda6aaf	-0.106648795
31	0xbc7f99bb	-0.015600617
32	0xbdd16da5	-0.10225991
33	0xbd210326	-0.039309643
34	0xbe2a613f	-0.16638659
35	0xbdf6e2cf	-0.12054979
36	0xbdf31113	-0.11868491
37	0x3c2d6c3b	0.010584886
38	0x3df1da36	0.118091986
39	0x3d3af485	0.04564335
40	0x3d26dfb1	0.040740672
41	0xbdbb066b	-0.091320835
42	0x3cc51357	0.024057074
43	0x3d820a1c	0.063495845
44	0x3cb13b65	0.021634767
45	0xbd9f2bc3	-0.07772019
46	0xbdf05111	-0.11734212
47	0x3da86435	0.08222238
48	0x3d3c8ddb	0.04603372
49	0x3dd103a4	0.102057725
50	0x3d0dd71d	0.034628976
51	0xbd1e1529	-0.0385944
52	0xbea91586	-0.33024234
53	0x3db78261	0.08960415
54	0x3de53507	0.11191755
55	0xbc85d80b	-0.016338369
56	0xbd3c74f9	-0.04600999
57	0x3e0a570f	0.13509773
58	0x3db00b62	0.08595921
59	0xbe0591de	-0.13043925
60	0x3cefeed1	0.029288681
61	0xbcd89351	-0.026437433
62	0xbe4d3ae0	-0.2004199
63	0x3d7c7006	0.06163027
64	0xbd4f0eb7	-0.050551143
65	0xbbb0ad27	-0.005391735
66	0x3d52a343	0.05142523
67	0x3d84146a	0.06449206
68	0x3db4136e	0.087927684
69	0x3b100055	0.0021972854
70	0xbd1138e1	-0.035454635
71	0xbcf85b54	-0.030316986
72	0x3d82a81a	0.06379719
73	0x3d43957c	0.04774998
74	0xbd9eaf38	-0.07748264
75	0xbb3663ce	-0.0027830484
76	0xbcbf4593	-0.023348605
77	0x3d16d5ee	0.036825113
78	0x3e0ce410	0.13758874
79	0xbd99643b	-0.074898206
80	0xbccf3fa1	-0.025298895
81	0xbd8f6df6	-0.07003395
82	0xbdebb272	-0.11508645
83	0xbe78ca89	-0.24296011
84	0xbde47fd6	-0.11157195
85	0x3d8272b3	0.063695334
86	0x3bfd31bb	0.0077268756
87	0x3d142ff1	0.036178533
88	0x3d6bdf52	0.05758602
89	0xbd01dad3	-0.031702828
90	0xbc04a365	-0.008095597
91	0xbca1fe58	-0.0197746
92	0xb9c09b23	-0.0003673668
93	0x3c1a9aa5	0.009436284
94	0xbdbabe90	-0.09118378
95	0x3cfd0fd9	0.030891346
96	0xbd26bbf3	-0.040706586
97	0xbd23f08e	-0.040024333
98	0xbc1e3dbc	-0.009658273
99	0x3bae264b	0.0053146235
100	0xbdce8369	-0.10083658
101	0x3e131661	0.14364006
102	0x3d895672	0.06705941
103	0x3e1e9621	0.15486957
104	0xbd576e0f	-0.052595194
105	0x3dc696cb	0.0969673
106	0x3e09ad14	0.1344493
107	0x3dd33898	0.10313529
108	0xbe49efd7	-0.19720398
109	0x3d67021c	0.056398496
110	0x3c9f5bda	0.019452978
111	0xbdcb77bf	-0.09934949
112	0xbe3e15cc	-0.18563002
113	0x3d9fdbf8	0.078056276
114	0xbd9632f2	-0.07333936
115	0xbd1a4686	-0.037664913
116	0xbc823bfe	-0.015897747
117	0x3d4ae1bf	0.049531695
118	0x3c43598e	0.011923207
119	0xbc5bae36	-0.013408234
120	0xbc348a23	-0.0110192625
121	0x3d348f3e	0.04408192
122	0xbc66eb1b	-0.014094139
123	0x3c300e14	0.010745544
124	0x3d07c36b	0.03314535
125	0x3e3ab27a	0.18232146
126	0xbde6b0ed	-0.11264215
127	0xbc49f713	-0.0123269735
128	0xbe73f59f	-0.23824166
129	0xbd1590a5	-0.036514897
130	0x3d64619a	0.055757143
131	0x3c8f5527	0.017496658
132	0xbdca38a3	-0.09874084
133	0x3d34fee5	0.0441884
134	0x3e00bd93	0.12572317
135	0x3cd2dc89	0.025739925
136	0xbbda222d	-0.006656906
137	0x3c923ebf	0.017852185
138	0x3e070b62	0.13187936
139	0x3de58c77	0.11208432
140	0xbe7f2c67	-0.24919282
141	0xbc423d10	-0.011855379
142	0xbd740736	-0.05957719
143	0xbc4aa69d	-0.012368825
144	0xbe00ab7e	-0.12565419
145	0xbe261d46	-0.16222104
146	0xbe0dd1d7	-0.13849579
147	0x3b102d92	0.0021999818
148	0xbd0bac06	-0.0340996
149	0xbe6d8544	-0.23195368
150	0xbe460503	-0.1933785
151	0x3d7730a8	0.060349137
152	0xbd613a20	-0.054987073
153	0xbd680668	-0.056646734
154	0xbe03e451	-0.12880065
155	0x3dc6c3bb	0.097053014
156	0xbd900423	-0.07032039
157	0xbe8e1f85	-0.27758422
158	0xbd3345c0	-0.04376769
159	0x3d5aa69e	0.053381555
160	0xbce7ee15	-0.028311769
161	0xbd696f6e	-0.056991033
162	0xbd105016	-0.035232626
163	0x3e06ee6b	0.13176887
164	0xbdbe61cf	-0.09295999
165	0x3d0f949d	0.035053838
166	0x3d06b504	0.032887474
167	0xbd04fc8f	-0.03246742
168	0xbc26d6c0	-0.010183036
169	0x3d493c03	0.049129497
170	0xbda24760	-0.0792377
171	0x3cc41d4b	0.02393975
172	0x3d2d9d99	0.042386625
173	0x3cd7f322	0.026361052
174	0xbd76e2c6	-0.06027486
175	0x3cbe1045	0.023201117
176	0x3d9079a7	0.07054453
177	0xbe12cd96	-0.14336237
178	0xba473854	-0.0007599641
179	0xbd4af71f	-0.04955208
180	0xbdb45b69	-0.088064976
181	0xbcda250d	-0.026628995
182	0x3d0b89a3	0.034066807
183	0xbdefff2f	-0.11718594
184	0xbc51cc3c	-0.012805041
185	0xbc61d70a	-0.013784179
186	0xbe3d1149	-0.18463625
187	0x3d4d450c	0.050114676
188	0x3c02075d	0.007936326
189	0x3c4bf88e	0.012449397
190	0xbcef0862	-0.029178802
191	0xbe1d2cec	-0.15349168
192	0xbe0e68ef	-0.13907216
193	0x3d400e88	0.046888858
194	0x3d4f8ee6	0.050673388
195	0xbd975608	-0.07389456
196	0xbe092876	-0.13394341
197	0x3e15da48	0.14634049
198	0xbd9b0785	-0.075697936
199	0xbe79f3ea	-0.24409452
200	0x3ad5d7ab	0.0016314884
201	0xbca54f6e	-0.020179477
202	0xbd9c8c5b	-0.07643958
203	0xbe138076	-0.14404473
204	0xbdc2e36d	-0.09516034
205	0xbdb1aa39	-0.086750455
206	0xbe25b0fe	-0.16180798
207	0xbdf25dc2	-0.11834289
208	0xbcccf2a5	-0.025018046
209	0x3d653e0b	0.055967372
210	0xbdae2a85	-0.08504204
211	0xbd42375a	-0.04741607
212	0xbe7a1c3b	-0.24424832
213	0xbb913fbb	-0.004432646
214	0x3de3d93b	0.11125418
215	0xbd449f30	-0.048003376
216	0xbdc149f7	-0.09437936
217	0xbe053afd	-0.13010783
218	0x3d812835	0.06306497
219	0x3c1fd67e	0.009755729
220	0xbde5e3a1	-0.112250574
221	0xbde504b1	-0.111825354
222	0x3e195b72	0.1497629
223	0x3d83844c	0.06421718
224	0xbe6f8ec7	-0.23394309
225	0xbca927df	-0.020648895
226	0xbc3b0317	-0.011414311
227	0x3c692691	0.014230386
228	0xbb96d3d1	-0.004602887
229	0xbe41cfd6	-0.1892694
230	0x3bafa6a1	0.00536044
231	0xbc84605e	-0.016159233
232	0xbe078a73	-0.13236408
233	0xbbb4ff83	-0.0055236234
234	0xbe1a011e	-0.15039489
235	0xbe47e0ce	-0.1951935
236	0x3de960fe	0.11395453
237	0xbea00b85	-0.3125879
238	0x3cd016a7	0.025401426
239	0x3da316d0	0.079633355
240	0xbc67dde4	-0.014152024
241	0xbe94f906	-0.2909624
242	0xbdb33aa2	-0.08751418
243	0xbd823f64	-0.06359747
244	0xbea69b93	-0.3254057
245	0xbbc3c52d	-0.005974433
246	0xba0a039e	-0.0005264821
247	0x3e2d6cf5	0.16936095
248	0x3ca9e63b	0.020739665
249	0xbe021f50	-0.12707257
250	0x3c1dcbcb	0.009631108
251	0x3dd32466	0.10309677
252	0x3da7d540	0.08194971
253	0xbb8c7dd6	-0.0042874618
254	0xbdf7de1d	-0.121029116
255	0xbe23963b	-0.15975277

FC2.bias f4 [64]
0	0xbcdc7ced	-0.026915038
1	0x3c2867fe	0.0102787
2	0xbd887e26	-0.06664686
3	0xbb34eedb	-0.002760819
4	0x3b93fcdb	0.0045162267
5	0x3be6778f	0.0070332955
6	0x3d7883aa	0.06067244
7	0x3ae5914a	0.0017514613
8	0xbd671910	-0.056420386
9	0xbcd41bcb	-0.025892159
10	0x3d0f61aa	0.03500525
11	0xbde597e1	-0.11210609
12	0x3dd01d97	0.10161894
13	0xbc9811b9	-0.018563138
14	0x3ce2e0f9	0.027695166
15	0xbda423f3	-0.08014669
16	0xbd997764	-0.07493475
17	0xbd9967ec	-0.07490525
18	0xbd6bfd26	-0.057614468
19	0xbd4afce7	-0.049557593
20	0xbb9d763e	-0.0048053553
21	0x3d95be1f	0.07311653
22	0xbca82365	-0.02052469
23	0xbcc03f2f	-0.023467628
24	0xbd765927	-0.060143616
25	0x3c0d79b6	0.008634975
26	0x3d8584b3	0.06519451
27	0xbdcb66fb	-0.09931751
28	0xbd13c49a	-0.036076166
29	0x3c4d6b83	0.01253784
30	0xbd137b36	-0.036006175
31	0xbd50aeac	-0.05094783
32	0xbd4b19e1	-0.049585227
33	0xbcfbada4	-0.030722447
34	0x3c7565d3	0.01497789
35	0x3d892b63	0.066977285
36	0xbce5ac9b	-0.028036406
37	0xbe2b4656	-0.1672605
38	0xbc1907a7	-0.009340203
39	0x3bd0cb9a	0.0063719274
40	0x3d993d97	0.074824505
41	0xbe0e4a50	-0.13895535
42	0x3bc7e144	0.006099852
43	0xbc307691	-0.010770456
44	0x3d851ffa	0.0650024
45	0xbda75430	-0.08170354
46	0x3d3efc8b	0.046627562
47	0xbd57eb65	-0.052714724
48	0xbd95a1e2	-0.07306267
49	0xbda97c64	-0.08275679
50	0xbbe03e08	-0.006843332
51	0xbde63016	-0.112396404
52	0xbd78ef7f	-0.060775276
53	0xbd83d9b1	-0.06438006
54	0xbc418557	-0.011811576
55	0xbd0cc79a	-0.034370042
56	0xbd580998	-0.052743524
57	0xbc9fa7ce	-0.019489195
58	0xbdd731a1	-0.10507513
59	0xbdc99ebf	-0.098447315
60	0xbd42fb6f	-0.047603067
61	0xbd692627	-0.05692115
62	0x3de91371	0.11380661
63	0x3cfeb5a6	0.031092476

FC3.weight f4 [2, 64]
0	0xbc0acddd	-0.008471933
1	0xbe42f072	-0.19037035
2	0xbd6a8e03	-0.05726434
3	0xbdd7520d	-0.10513697
4	0xbe831b55	-0.2560679
5	0xbe165977	-0.14682566
6	0x3dbf77d4	0.09349027
7	0xbd49f53a	-0.049306132
8	0x3e2f4edf	0.1711993
9	0xbe1b485c	-0.15164322
10	0x3dc7bbc7	0.097526126
11	0xbe65e871	-0.2245195
12	0xbdadaaf2	-0.08479871
13	0xbd871316	-0.06595437
14	0xbe05ac7c	-0.13054079
15	0xbe898150	-0.2685647
16	0x3e0144e2	0.12623933
17	0xbdd1e9a0	-0.102496386
18	0xbd460faa	-0.048354782
19	0xbda0c504	-0.07850078
20	0x3dfa759a	0.12229462
21	0xbdd982c5	-0.106206454
22	0xbe5a84b4	-0.21339685
23	0x3cb85212	0.022500072
24	0xbe6ecf16	-0.23321185
25	0xbcd4e6b8	-0.025988922
26	0x3d6266d6	0.055273853
27	0xbe6c252a	-0.23061052
28	0xbe0fc00e	-0.14038107
29	0x3dc0fe0d	0.09423456
30	0x3e4839a4	0.19553238
31	0x3d54d2da	0.051958896
32	0xbe7ff254	-0.24994785
33	0x3e44cf93	0.19219808
34	0xbe187cb7	-0.14891325
35	0xbdecc8f8	-0.11561769
36	0x3decd0db	0.115632735
37	0x3c286a88	0.010279305
38	0x3dc0f096	0.09420888
39	0x3d9b9b9b	0.07598039
40	0x3ceb2629	0.02870472
41	0x3e4d0bc2	0.20024016
42	0xbe0c2466	-0.1368576
43	0xbe4c6ca2	-0.19963315
44	0xbddc6dec	-0.107631534
45	0x3e21aea3	0.15789275
46	0x3e223d6e	0.15843746
47	0x3c99a95e	0.018757518
48	0x3e84068b	0.25786242
49	0x3e16a930	0.14712977
50	0xbde51041	-0.11184741
51	0x3e119548	0.14217103
52	0xbe4c34b7	-0.19941984
53	0xbd6a9a80	-0.05727625
54	0xbbaafd38	-0.0052181743
55	0x3e1b1039	0.15142907
56	0x3c83e821	0.016101899
57	0x3e06e4cc	0.13173217
58	0x3dcd3c64	0.10021284
59	0xbd5eef5b	-0.054427486
60	0x3e315c2e	0.1732032
61	0x3e239966	0.15976486
62	0xbd4b9be4	-0.049709216
63	0xbddf723d	-0.10910461
64	0xbdaad147	-0.08340698
65	0xbdd527ba	-0.10407968
66	0xbe0bf254	-0.1366666
67	0xbd1aa311	-0.03775317
68	0x3b690ab5	0.003555936
69	0x3e53e27f	0.2069187
70	0xbd669dd4	-0.05630286
71	0x3dc612f7	0.09671586
72	0x3d9f10ca	0.07766874
73	0x3d0a9ea5	0.0338427
74	0xbca1cf82	-0.019752268
75	0x3e2b2402	0.16712955
76	0xbd9e059e	-0.07715915
77	0x3db73fb5	0.08947698
78	0xbdfa4e6f	-0.12221991
79	0xbdb24999	-0.08705444
80	0xbdead624	-0.11466625
81	0x3d3b5e11	0.045744006
82	0x3dab1f86	0.08355622
83	0xbdf98d80	-0.12185192
84	0x3d8b8320	0.068121195
85	0x3debb985	0.115099944
86	0xbda487fe	-0.08033751
87	0x3e076092	0.13220432
88	0x3e2db69e	0.16964194
89	0x3e13ee81	0.14446451
90	0x3ded70fd	0.115938164
91	0x3ca61341	0.020272853
92	0x3df6a5ed	0.120433666
93	0xbdee7204	-0.116428405
94	0xbcf0bb81	-0.029386284
95	0xbda2d145	-0.07950071
96	0x3d94d18a	0.07266529
97	0x3d3e7e81	0.046507362
98	0xbd35a05a	-0.044342376
99	0xbcbcca84	-0.023045786
100	0x3e33aa3e	0.17545411
101	0xbe53a4af	-0.2066829
102	0x3dabdf2d	0.08392177
103	0x3e15f0e2	0.14642671
104	0xbdf4fa40	-0.11961794
105	0x3d8eb01d	0.06967185
106	0xbda8abfc	-0.082359284
107	0xbe8c30d8	-0.27381015
108	0x3d87e477	0.06635373
109	0xbb6174f5	-0.0034401987
110	0x3def1f83	0.11675932
111	0xbe084645	-0.13308056
112	0x3dafacc9	0.08577878
113	0xbb1436ae	-0.00226156
114	0xbdc7e2d8	-0.09760064
115	0x3d8416be	0.0644965
116	0x3e3d6966	0.18497238
117	0xbe22548e	-0.15852568
118	0xbdb965c8	-0.09052616
119	0xbd4539af	-0.048150714
120	0xbe982d43	-0.29722032
121	0x3c8ece38	0.017432317
122	0xbd793031	-0.060836975
123	0x3e3f8556	0.18703207
124	0xbdf4052b	-0.11915048
125	0xbd4ecd22	-0.0504886
126	0x3e2d967a	0.16951934
127	0x3a3a1d2e	0.0007099685

FC3.bias f4 [2]
0	0x3c68ca2a	0.014208356
1	0x3cea2675	0.02858279
