HGAT-MADDPG_ver2/data/logs/20240409-21-15-28/model_2854.pt (torch, 369835 bytes, 33 tensors)

encoding_layer.layer.0.weight f4 [64, 180]
-0.08219599 0.020722076 -0.020214153 0.01886739 -0.1797238 -0.10533867 -0.28127018 0.029553546
-0.0037689097 -0.0033245964 0.024674168 -0.10107403 -0.046404306 0.0113351345 0.05252026 0.12882859
0.29431516 0.055258922 0.018414896 0.07690492 0.054267716 -0.2430579 0.1179017 0.040405117
-0.24315313 -0.2601531 -0.049661584 -0.05129967 -0.16577074 0.044979874 0.09876046 -0.007112502
0.015763333 0.016206333 0.025070501 0.14197136 -0.12322551 -0.19141337 0.043038744 -0.064386144
-0.047363285 0.23932561 0.00844859 -0.2476064 -0.1337451 0.10047432 0.2739203 0.057900134
0.28368333 0.26628992 0.03481615 0.1692932 -0.06817621 -0.022788575 -0.011127769 0.21447113
-0.12225538 -0.035777997 0.07978312 0.100718684 -0.13884348 0.18269302 0.05696288 0.07315233
0.12728606 0.023055535 0.031008953 -0.07351742 -0.10022363 -0.11189289 0.21883383 -0.011998496
-0.03689925 0.17834361 0.108465806 -0.1917554 -0.09095752 -0.05026901 0.16085096 0.21641892
0.1740546 -0.27935535 0.0018878769 0.13864146 0.13510393 0.1393055 -0.040807128 -0.05421897
-0.044521265 -0.041278157 0.0037131545 -0.084666766 0.052678853 0.04546004 0.083201654 -0.13857791
-0.24088214 -0.001243987 -0.02147715 -0.13165483 0.06558864 -0.26044825 -0.019659622 -0.0018413119
-0.0335201 -0.008052249 -0.09415292 0.05822829 -0.17183377 -0.1407156 -0.13804658 -0.2448495
-0.012307487 -0.07252599 0.0024968311 0.013742751 -0.042104594 -0.09013658 -0.048250325 0.054193657
-0.002820568 -0.07675444 -0.13794993 0.030103227 -0.09183343 0.14436974 0.10780875 0.04841488
-0.015464466 -0.039665215 -0.029475082 -0.19208722 -0.071851075 -0.083568804 0.057787966 0.106541455
0.03166214 0.057849888 0.073175296 0.00767833 -0.010967407 0.101167314 -0.055778816 -0.11759803
0.010421396 0.08607294 -0.27207196 -0.015586222 0.103402525 0.031962972 0.075341314 -0.028921193
0.092259705 0.013076689 -0.033644438 -0.07355285 0.063503124 -0.04466146 -0.08399052 -0.03852537
-0.17145921 -0.067909114 -0.028336411 -0.002534135 0.0348463 0.06915064 -0.017359093 0.0040541864
-0.03476442 -0.077106446 -0.101153985 -0.058443543 -0.000553001 -0.03721115 -0.052223135 -0.033741634
0.057792746 -0.22165601 -0.29250705 0.008867601 -0.0011640105 0.03666744 0.05387738 0.01721778
0.081336826 -0.15348639 -0.0053673484 -0.14154641 0.021079697 -0.10232184 -0.04451135 -0.049386084
-0.01756255 0.009266227 -0.020741004 -0.039374597 -0.10169951 -0.11115635 0.024459006 -0.15040329
-0.016545119 -0.21854019 0.15677902 0.034096714 0.14526334 -0.4059419 -0.1473903 0.020990597
0.011912857 -0.055080444 0.025066406 -0.005083408 -0.038094215 -0.09961995 -0.06401662 0.005360644
0.2408937 0.15505892 0.1218311 -0.055375874 0.13807008 -0.061452847 -0.039920855 0.2516449
0.13197562 0.15052785 -0.11968884 0.104321025 0.023779903 0.04844234 0.20607056 -0.05121879
-0.058207925 -0.12477251 -0.13147661 -0.13095173 -0.1713828 0.055450447 -0.08941667 -0.2445218
-0.19266151 -0.07249349 0.051122624 -0.048251722 -0.040303513 -0.046253156 -0.057003576 -0.05084293
-0.085773714 0.007032447 0.0412754 -0.07200969 0.0046234657 -0.0021739155 -0.0851976 -0.29941007
00000000: 5f56 a8bd 58c1 a93c 2798 a5bc c98f 9a3c
00000010: 8409 38be cdbb d7bd a502 90be 471a f23c
00000020: d0ff 76bb 79e1 59bb 7b21 ca3c e7ff cebd
00000030: 7112 3ebd 00b7 393c 7c1f 573d a4eb 033e
00000040: 7ab0 963e 2e57 623d d6da 963c 5480 9d3d
00000050: d347 5e3d 2ce4 78be 7276 f13d d67f 253d
00000060: 22fd 78be ca32 85be f269 4bbd 9a1f 52bd
00000070: cebf 29be d13c 383d ed42 ca3d fe0f e9bb
00000080: 1b22 813c 25c3 843c a760 cd3c f160 113e
00000090: a85d fcbd de01 44be 6549 303d e2dc 83bd
000000a0: 0100 42bd c611 753e f46b 0a3c 888c 7dbe
000000b0: 7af4 08be 7bc5 cd3d 483f 8c3e b128 6d3d
000000c0: f13e 913e 2757 883e 619b 0e3d 325b 2d3e
000000d0: f89f 8bbd 1baf babc 3f51 36bc 529e 5b3e
000000e0: 0761 fabd f38b 12bd 5565 a33d 9945 ce3d
000000f0: fc2c 0ebe e113 3b3e e951 693d e4d0 953d
00000100: 4757 023e f6de bc3c 7d06 fe3c 4d90 96bd
00000110: 0c42 cdbd 1928 e5bd fa15 603e 5795 44bc
00000120: ab23 17bd b59f 363e 5223 de3d 875b 44be
00000130: f047 babd e1e6 4dbd 1db6 243e ec9c 5d3e
00000140: 5e3b 323e aa07 8fbe a372 f73a 07f8 0d3e
00000150: af58 0a3e 1aa6 0e3e 6025 27bd b614 5ebd
00000160: ee5b 36bd 4913 29bd 6558 733b c565 adbd
00000170: c8c5 573d 4f34 3a3d a165 aa3d 5ee7 0dbe
00000180: cfa9 76be 470d a3ba d9f0 afbc 86d0 06be
00000190: 5653 863d 7959 85be 370d a1bc 2d58 f1ba
000001a0: 5f4c 09bd 95ed 03bc 3fd3 c0bd ca80 6e3d
000001b0: 31f5 2fbe c017 10be 155c 0dbe d4b9 7abe
000001c0: 58a5 49bc 8288 94bd e0a1 233b 4729 613c
000001d0: de75 2cbd 8799 b8bd 22a2 45bd 2bfa 5d3d
000001e0: 47d9 38bb 6f31 9dbd bf42 0dbe 0b9b f63c
000001f0: 2a13 bcbd a9d5 133e d5ca dc3d ae4e 463d
00000200: ac5e 7dbc fe77 22bd ba75 f1bc 83b2 44be
00000210: a826 93bd 1f26 abbd 13b3 6c3d 6832 da3d
00000220: 29b0 013d 01f4 6c3d eedc 953d 809a fb3b
00000230: a4b0 33bc cf30 cf3d 5478 64bd 3cd7 f0bd
00000240: 81be 2a3c 0247 b03d 044d 8bbe 5a5d 7fbc
00000250: b4c4 d33d 9beb 023d 8c4c 9a3d 23ec ecbc
00000260: a8f2 bc3d 9c3f 563c c0ce 09bd e0a2 96bd
00000270: ed0d 823d efee 36bd 3903 acbd c7cc 1dbd
00000280: 0193 2fbe ef13 8bbd c321 e8bc bb13 26bb
00000290: feba 0e3d da9e 8d3d a834 8ebc fbd8 843b
000002a0: 2365 0ebd fce9 9dbd d229 cfbd 7f62 6fbd
000002b0: 45f7 10ba b86a 18bd ede7 55bd ab34 0abd
000002c0: 16b8 6c3d cbf9 62be 7cc3 95be 6a49 113c
000002d0: b691 98ba 9930 163d 87ae 5c3d 4d0c 8d3c
000002e0: ec93 a63d 892b 1dbe 95e0 afbb 8bf1 10be
000002f0: 54af ac3c 1d8e d1bd 8951 36bd 1049 4abd
00000300: 56df 8fbc 5fd1 173c 0ae9 a9bc 4247 21bd
00000310: d547 d0bd f1a5 e3bd 415e c83c 5203 1abe
00000320: a189 87bc 00c9 5fbe ae8a 203e ffa8 0b3d
00000330: eabf 143e 9ed7 cfbe 7ced 16be 79f4 ab3c
00000340: 252e 433c 089c 61bd 1058 cd3c b892 a6bb
00000350: ae08 1cbd 8b05 ccbd 251b 83bd 57a8 af3b
00000360: d7ac 763e c4c7 1e3e 9582 f93d d0d1 62bd
00000370: 3e62 0d3e fbb5 7bbd 0d84 23bd 9ad7 803e
00000380: 9e24 073e f923 1a3e 6c1f f5bd 43a6 d53d
00000390: 12ce c23c 7a6b 463d 2904 533e cbca 51bd
000003a0: 6f6b 6ebd bb88 ffbd cea1 06be 3618 06be
000003b0: f97e 2fbe 0220 633d 1620 b7bd ec63 7abe
000003c0: 0f49 45be 7877 94bd f565 513d 99a3 45bd
000003d0: 4c15 25bd f373 3dbd 957c 69bd ad40 50bd
000003e0: 21aa afbd 7170 e63b 6510 293d d179 93bd
000003f0: 7180 973b 4078 0ebb 147c aebd 474c 99be

encoding_layer.layer.0.bias f4 [64]
0.08465097 -0.04447101 0.036576316 -0.018872507 -0.06950298 0.021900019 0.037844393 -0.046098236
0.054685578 -0.025901143 -0.088555686 -0.07803834 -0.036527336 -0.0017081158 -0.013640647 -0.068311684
0.002771304 -0.04631536 -0.006582773 0.03963994 -0.01254082 -0.01986424 -0.06384609 -0.051870387
-0.035874605 -0.05939997 0.060709085 -0.048753526 0.024474697 -0.017135367 -0.029046098 -0.06861576
0.018626094 0.041172717 -0.03426387 0.01854479 -0.050741788 -0.114874765 -0.067528784 -0.08618106
0.06099937 0.047176365 0.023526166 0.024382165 -4.989997e-05 -0.0011079762 0.010418517 -0.008749026
-0.073917665 -0.035268065 -0.012135605 0.011798132 0.015961891 -0.0016930327 -0.012304677 0.086922474
0.027307702 -0.027664134 0.0998925 0.05501089 -0.08048379 -0.05189195 -0.044862393 0.03364995
00000000: 7d5d ad3d 3c27 36bd 0cd1 153d 849a 9abc
00000010: 9457 8ebd ab67 b33c b902 1b3d 81d1 3cbd
00000020: fcfd 5f3d a22e d4bc af5c b5bd 91d2 9fbd
00000030: b09d 15bd dbe2 dfba 057d 5fbc ffe6 8bbd
00000040: c49e 353b 2db5 3dbd 4db4 d7bb 7d5d 223d
00000050: 0378 4dbc 55ba a2bc bdc1 82bd 0b76 54bd
00000060: 40f1 12bd 624d 73bd 17aa 783d c7b1 47bd
00000070: 297f c83c 785f 8cbc 15f2 edbc 6b86 8cbd
00000080: c095 983c b9a4 283d 4658 0cbd 3eeb 973c
00000090: 9fd6 4fbd 7643 ebbd 884c 8abd b27f b0bd
000000a0: 7ada 793d 013c 413d f2b9 c03c 1bbd c73c
000000b0: af4b 51b8 8339 91ba 6db2 2a3c 1358 0fbc
000000c0: 2562 97bd 3f75 10bd 6bd4 46bc f44c 413c
000000d0: 83c2 823c c0e8 ddba 8e99 49bc 6904 b23d
000000e0: 67b4 df3c e59f e2bc 7094 cc3d 1953 613d
000000f0: afd4 a4bd a78c 54bd a1c1 37bd 88d4 093d

relational_layer.layers.0.att_src f4 [1, 1, 64]
0.15696657 0.3646488 -0.40438786 0.3452572 -0.48193753 0.058215372 0.090881065 0.40426585
0.36645955 -0.38791394 0.3467485 -0.29798818 0.18195403 0.37067074 0.21570861 -0.07498583
-0.095914066 0.42542982 0.1873791 0.026312929 -0.14929813 -0.30500415 -0.31453022 0.024996502
0.13455507 0.002212955 -0.51720494 0.10013068 -0.042236835 -0.59157974 -0.5798251 0.16222006
0.3948272 -0.14178543 0.19897118 0.026828535 0.09602976 0.080640435 0.21451285 -0.025496718
0.32378495 -0.21200497 -0.02390068 0.43890813 0.7832477 0.0060719037 0.26021853 0.48870012
-0.5251239 -0.09876901 -0.11566737 0.3053734 0.8560551 0.26015973 -0.7271024 0.24554496
-0.16830692 -0.18117113 -0.11705631 -0.231962 -0.0824633 0.27869073 0.83371574 0.29752445
00000000: d8bb 203e 3fb3 ba3e ed0b cfbe 8dc5 b03e
00000010: 84c0 f6be 3e73 6e3d da1f ba3d effb ce3e
00000020: 96a0 bb3e a89c c6be 0589 b13e e891 98be
00000030: 2852 3a3e 8ec8 bd3e b8e2 5c3e 2c92 99bd
00000040: 986e c4bd f0d1 d93e 4fe0 3f3e 368e d73c
00000050: 9ce1 18be 8129 9cbe 1b0a a1be 77c5 cc3c
00000060: cec8 093e 3907 113b 8b67 04bf 5011 cd3d
00000070: 8800 2dbd c571 17bf 6b6f 14bf 041d 263e
00000080: ca26 ca3e 3330 11be 1abf 4b3e 84c7 db3c
00000090: 40ab c43d d026 a53d 42a9 5b3e 7ede d0bc
000000a0: 24c7 a53e d517 59be 5ccb c3bc 91b8 e03e
000000b0: ec82 483f d2f6 c63b 5d3b 853e e736 fa3e
000000c0: 856e 06bf 6847 cabd 04e3 ecbd e759 9c3e
000000d0: 6d26 5b3f a833 853e 6223 3abf 2370 7b3e
000000e0: a658 2cbe ed84 39be 38bb efbd 7287 6dbe
000000f0: 85e2 a8bd 8db0 8e3e 656e 553f 2055 983e

relational_layer.layers.0.att_dst f4 [1, 1, 64]
-0.6033426 -0.46096703 -0.065789185 -0.44073418 -0.28460476 -0.106949374 -0.50513965 -0.35796845
0.19088808 -0.18309808 -0.4511816 0.16056345 0.16061293 -0.042478535 -0.33739647 -0.44555968
-0.6380271 -0.5834108 -0.16313863 -0.038454324 -0.008136586 0.075306796 -0.097389534 -0.32198668
-0.2013773 0.3206234 -0.24540988 0.039185647 -0.48722106 -0.3738196 -0.50135285 -0.34960774
0.077330746 0.08732236 -0.09452221 -0.012488334 -0.13469288 -0.17458491 -0.13173524 0.31617358
-0.21285531 -0.7765239 0.28638965 0.009947704 0.092934825 0.105306886 -0.24176209 -0.22820067
0.14609338 -0.36518824 -0.50425535 -0.10300279 -0.5522679 -0.29626846 -0.11090917 -0.30717552
-0.27136973 -0.50610334 0.12293991 0.2762477 -0.3813711 -0.82399845 -0.51339877 -0.4221502
00000000: a974 1abf df03 ecbe 7bbc 86bd e9a7 e1be
00000010: b7b7 91be 4608 dbbd d550 01bf a447 b7be
00000020: 2a78 433e 107e 3bbe 4601 e7be bf6a 243e
00000030: b777 243e f9fd 2dbd 3bbf acbe 6620 e4be
00000040: be55 23bf 695a 15bf d00d 27be 4882 1dbd
00000050: 514f 05bc 733a 9a3d 2a74 c7bd 70db a4be
00000060: da35 4ebe c028 a43e ba4c 7bbe 2181 203d
00000070: 0a75 f9be 4865 bfbe a958 00bf c9ff b2be
00000080: 955f 9e3d 11d6 b23d dc94 c1bd df9b 4cbc
00000090: eeec 09be 63c6 32be 9ae5 06be 81e1 a13e
000000a0: bef6 59be 45ca 46bf aaa1 923e b2fb 223c
000000b0: 9d54 be3d 23ab d73d 7b90 77be 70ad 69be
000000c0: 8199 153e f4f9 babe e116 01bf 20f3 d2bd
000000d0: 6e61 0dbf 80b0 97be 5924 e3bd 1c46 9dbe
000000e0: f9f0 8abe fd8f 01bf ebc7 fb3d 5770 8d3e
000000f0: 1343 c3be 90f1 52bf 1a6e 03bf 1224 d8be

relational_layer.layers.0.bias f4 [64]
0.05592836 -0.10198961 -0.020456165 -0.1155932 -0.069781706 -0.096556924 -0.083288364 0.007816933
-0.08597296 -0.07321871 -0.022586849 0.028558657 -0.15352218 -0.10874323 -0.072316386 -0.019975005
0.025271468 -0.08343605 -0.0902781 0.0028201295 0.027607618 -0.114205346 -0.09855033 -0.116093196
-0.012166814 -0.05510978 -0.05948588 -0.14581886 -0.042946316 0.02087892 -0.010455639 -0.09932341
-0.20864707 -0.07226906 -0.09613195 0.028315585 -0.008746546 0.022882786 -0.09795563 -0.0121347075
-0.071804054 0.027124068 -0.15749146 -0.14003319 -0.2070394 -0.1072326 -0.08691122 -0.111342736
-0.1018118 -0.055301372 -0.029141659 -0.0038434528 -0.06768505 -0.02849688 -0.08250702 -0.12389812
-0.16379093 -0.11152961 -0.08580955 0.001667678 0.013958347 -0.05640947 -0.07330277 -0.026545813
00000000: 2315 653d eedf d0bd b093 a7bc 21bc ecbd
00000010: b6e9 8ebd a3bf c5bd 1793 aabd 9812 003c
00000020: 9712 b0bd b1f3 95bd 0e08 b9bc d8f3 e93c
00000030: eb34 1dbe c5b4 debd 9d1a 94bd 9fa2 a3bc
00000040: 1c06 cf3c 85e0 aabd b9e3 b8bd ecd1 383b
00000050: 5f29 e23c 7ee4 e9bd c1d4 c9bd 45c2 edbd
00000060: 5157 47bc cbba 61bd 77a7 73bd 8a51 15be
00000070: 7ae8 2fbd 450a ab3c 214e 2bbc 126a cbbd
00000080: 94a7 55be cd01 94bd d4e0 c4bd 16f6 e73c
00000090: ac4d 0fbc ae74 bb3c f69c c8bd a7d0 46bc
000000a0: 010e 93bd 4b33 de3c 7145 21be dc64 0fbe
000000b0: 2302 54be c49c dbbd 82fe b1bd a907 e4bd
000000c0: b482 d0bd b183 62bd 7dba eebc 70e2 7bbb
000000d0: 769e 8abd 4a72 e9bc 71f9 a8bd 4cbe fdbd
000000e0: cfb8 27be a369 e4bd ebbc afbd fd95 da3a
000000f0: 8db1 643c 9e0d 67bd c31f 96bd 9b76 d9bc

relational_layer.layers.0.lin_src.weight f4 [64, 64]
-0.2530024 -0.53404593 0.11341247 -0.6582501 0.0577771 -0.042705875 0.12904927 0.0114592
-0.0007412843 -0.061728884 0.16312358 -0.034976713 -0.215372 0.10913101 -0.38948563 -0.01085425
-0.2024272 -0.05877862 -0.15690506 -0.20331925 -0.18781424 -0.29172686 -0.010018411 0.09834374
0.010041457 -0.25541312 -0.43304777 0.113585725 0.06643439 0.07180356 -0.086244754 0.01219226
0.04262632 -0.22898975 -0.40751892 0.0888523 -0.03185814 0.14615758 -0.035148527 -0.065789804
-0.005879435 -0.23731728 0.085863255 -0.20116833 -0.15716292 -0.6416853 -0.33963862 0.10239646
-0.32474425 -0.118410364 -0.9027314 -0.05180112 0.06262549 -0.65021336 -0.16351454 -0.34511185
0.03357175 0.122465864 -0.1577715 0.08755342 -0.09692759 -0.63300663 0.40199944 -0.078502715
-0.14123754 -0.117871515 -0.15141137 -0.1324527 -0.26878682 0.26124737 0.07505266 0.02511191
0.16729015 -0.4046146 -0.21168585 -0.056241393 -0.035570372 0.22257656 -0.25422293 0.016597407
-0.11686554 -0.0037851436 0.16089581 0.015165598 -0.37255812 -0.1411914 -0.14406277 -0.20298775
0.10872117 0.05656073 0.1831645 0.45707434 -0.22857551 -0.06367541 0.093337595 -0.2826688
-0.06617662 -0.018970367 0.075438365 0.22020863 -0.30729207 -0.21109255 -0.09974068 0.114796825
0.038310707 0.11309376 0.26148483 -0.011434014 -0.06454443 -0.036979474 0.017581234 0.037647903
-0.12802292 0.08769446 -0.1145762 -0.07129542 0.023164911 0.02720394 -0.4460533 -0.1935816
-0.10859449 0.33702415 -0.06585562 0.04363501 0.027097143 -0.24008872 -0.13237411 -0.3950613
0.008598869 0.049383033 -0.38476735 -0.15787417 0.086220585 0.030677807 0.025352199 0.20541555
-0.26154333 -0.14733118 0.1319301 0.101779945 -0.18896613 -0.15068062 0.029692017 0.029986808
-0.088457786 -0.05128628 0.0069974205 0.09007186 0.114064194 0.045107566 0.29520884 0.10246358
-0.27933937 -0.2301782 -0.09175144 0.13673092 -0.19841772 0.03926773 0.18037337 -0.05171069
-0.19092886 0.0430126 0.019168248 -0.014319221 0.009438623 -0.109416924 -0.12108638 -0.41353866
-0.31371924 0.21055232 0.29871535 0.07772154 -0.012501645 -0.08397039 0.14733407 0.08823139
-0.25048953 0.008039956 0.13856429 0.16934344 0.026037797 0.11625124 0.28968385 0.2141652
0.34306243 -0.049945854 -0.029055828 -0.18998037 0.036308616 0.019077398 -0.12688915 -0.13376978
-0.34011438 0.004134841 0.1626917 -0.28999603 -0.17745043 -0.22321573 0.115070045 -0.011752568
-0.17189193 -0.044059455 -0.10739183 0.07215744 -0.018551117 -0.015033654 0.124490224 -0.1371785
-0.16332096 0.08617815 -0.01204937 0.055418935 -0.12200131 -0.058460087 0.08978031 0.22193375
0.16146594 0.1777868 -0.46203908 0.098007984 0.16177592 0.035833765 0.07112882 -0.098238096
-0.36733764 0.32183418 -0.11279746 -0.03829274 -0.04254534 -0.58333725 -0.3308614 0.013648796
-0.081620745 -0.12827447 -0.0061203944 0.0027701226 0.15146394 -0.16434732 -0.011249556 0.10825632
-0.1286279 0.2414909 0.25349143 0.09326826 0.0281872 0.040042978 -0.4329086 -0.14747114
-0.2863871 -0.11747967 0.2463006 -0.038315427 0.18812045 -0.33124754 0.22254628 -0.2877458
00000000: 8889 81be 3cb7 08bf cc44 e83d 1483 28bf
00000010: aea7 6c3d 5bec 2ebd 7e25 043e 5ebf 3b3c
00000020: bf52 42ba 6dd7 7cbd de09 273e be43 0fbd
00000030: 7a8a 5cbe 1480 df3d a96a c7be 06d6 31bc
00000040: 1349 4fbe dac1 70bd b8ab 20be ec32 50be
00000050: 6052 40be 395d 95be 4324 24bc 7168 c93d
00000060: ec84 243c 82c5 82be 70b8 ddbe a29f e83d
00000070: c10e 883d bf0d 933d 17a1 b0bd 0bc2 473c
00000080: f098 2e3d 4a7c 6abe 52a6 d0be 32f8 b53d
00000090: ae7d 02bd 55aa 153e e7f7 0fbd cebc 86bd
000000a0: 47a8 c0bb 4d03 73be 13d9 af3d 12ff 4dbe
000000b0: 51ef 20be 7d45 24bf 1de5 adbe 3cb5 d13d
000000c0: e144 a6be 2281 f2bd 6819 67bf 692d 54bd
000000d0: cb41 803d 6274 26bf 5b70 27be 80b2 b0be
000000e0: 8882 093d 62cf fa3d da8e 21be 354f b33d
000000f0: f981 c6bd b90c 22bf dfd2 cd3e 08c6 a0bd
00000100: 93a0 10be 9f66 f1bd 950b 1bbe aea1 07be
00000110: 6d9e 89be 37c2 853e 36b5 993d 7eb7 cd3c
00000120: 1c4e 2b3e a529 cfbe 2dc4 58be 605d 66bd
00000130: 3db2 11bd 1ceb 633e 8229 82be 49f7 873c
00000140: 3357 efbd 2c10 78bb dfc1 243e 2179 783c
00000150: f0bf bebe 7a94 10be 3185 13be 05dc 4fbe
00000160: 34a9 de3d 39ac 673d 7a8f 3b3e a605 ea3e
00000170: b30f 6abe 4168 82bd c827 bf3d f7b9 90be
00000180: 9c87 87bd be67 9bbc 6e7f 9a3d 5f7e 613e
00000190: 6355 9dbe a528 58be d744 ccbd 991a eb3d
000001a0: b0eb 1c3d b49d e73d 57e1 853e bb55 3bbc
000001b0: df2f 84bd ca77 17bd 8506 903c b034 1a3d
000001c0: 7118 03be 2799 b33d eda6 eabd 5503 92bd
000001d0: 57c4 bd3c ccda de3c 1961 e4be 413a 46be
000001e0: ca66 debd 6e8e ac3e 50df 86bd a0ba 323d
000001f0: d4fa dd3c d1d9 75be 148d 07be 7a45 cabe
00000200: 45e2 0c3c dd45 4a3d 3a00 c5be c4a9 21be
00000210: 6b94 b03d 0650 fb3c 6aaf cf3c 7458 523e
00000220: 02e9 85be fcdd 16be af18 073e 0172 d03d
00000230: 5680 41be 054c 1abe ac3c f33c e5a6 f53c
00000240: 5b29 b5bd 9011 52bd 9e4a e53b 9877 b83d
00000250: 7d9a e93d b6c2 383d 9d25 973e 6dd8 d13d
00000260: 9205 8fbe d6b3 6bbe 2ee8 bbbd 3103 0c3e
00000270: 042e 4bbe 33d7 203d ccb3 383e 97ce 53bd
00000280: db82 43be fb2d 303d bb06 9d3c 2a9b 6abc
00000290: 74a4 1a3c fb15 e0bd 23fc f7bd 57bb d3be
000002a0: cf9f a0be 079b 573e 38f1 983e 792c 9f3d
000002b0: b3d3 4cbc abf8 abbd bede 163e a9b2 b43d
000002c0: 2a40 80be 05ba 033c cce3 0d3e 5e68 2d3e
000002d0: 384d d53c 2115 ee3d 7151 943e 1f4e 5b3e
000002e0: e1a5 af3e 0694 4cbd 7d06 eebc 378a 42be
000002f0: 58b8 143d 3448 9c3c 3bef 01be f2fa 08be
00000300: 7923 aebe 8f7d 873b a798 263e 5c7a 94be
00000310: 91b5 35be aa92 64be d8a9 eb3d d88d 40bc
00000320: 7004 30be b077 34bd 3ff0 dbbd 48c7 933d
00000330: 83f8 97bc b74f 76bc bbf4 fe3d 8578 0cbe
00000340: 9c3d 27be 2b7e b03d b96a 45bc f7fe 623d
00000350: d3db f9bd d873 6fbd bdde b73d 9a42 633e
00000360: 5457 253e be0d 363e 6390 ecbe 69b8 c83d
00000370: 96a8 253e 6dc6 123d fdab 913d 0e31 c9bd
00000380: ae13 bcbe 73c7 a43e 5b02 e7bd d9d8 1cbd
00000390: 0644 2ebd 9755 15bf aa66 a9be 339f 5f3c
000003a0: c728 a7bd 625a 03be 978d c8bb f28a 353b
000003b0: 5d19 1b3e aa4a 28be 0f50 38bc 7db5 dd3d
000003c0: 08b7 03be 6449 773e a1c9 813e 6e03 bf3d
000003d0: d8e8 e63c 1b04 243d 32a6 ddbe ad02 17be
000003e0: 54a1 92be 2e99 f0bd 3936 7c3e a3f0 1cbd
000003f0: a6a2 403e 4799 a9be 2ce3 633e 6b53 93be

relational_layer.layers.0.lin_dst.weight f4 [64, 64]
-0.2530024 -0.53404593 0.11341247 -0.6582501 0.0577771 -0.042705875 0.12904927 0.0114592
-0.0007412843 -0.061728884 0.16312358 -0.034976713 -0.215372 0.10913101 -0.38948563 -0.01085425
-0.2024272 -0.05877862 -0.15690506 -0.20331925 -0.18781424 -0.29172686 -0.010018411 0.09834374
0.010041457 -0.25541312 -0.43304777 0.113585725 0.06643439 0.07180356 -0.086244754 0.01219226
0.04262632 -0.22898975 -0.40751892 0.0888523 -0.03185814 0.14615758 -0.035148527 -0.065789804
-0.005879435 -0.23731728 0.085863255 -0.20116833 -0.15716292 -0.6416853 -0.33963862 0.10239646
-0.32474425 -0.118410364 -0.9027314 -0.05180112 0.06262549 -0.65021336 -0.16351454 -0.34511185
0.03357175 0.122465864 -0.1577715 0.08755342 -0.09692759 -0.63300663 0.40199944 -0.078502715
-0.14123754 -0.117871515 -0.15141137 -0.1324527 -0.26878682 0.26124737 0.07505266 0.02511191
0.16729015 -0.4046146 -0.21168585 -0.056241393 -0.035570372 0.22257656 -0.25422293 0.016597407
-0.11686554 -0.0037851436 0.16089581 0.015165598 -0.37255812 -0.1411914 -0.14406277 -0.20298775
0.10872117 0.05656073 0.1831645 0.45707434 -0.22857551 -0.06367541 0.093337595 -0.2826688
-0.06617662 -0.018970367 0.075438365 0.22020863 -0.30729207 -0.21109255 -0.09974068 0.114796825
0.038310707 0.11309376 0.26148483 -0.011434014 -0.06454443 -0.036979474 0.017581234 0.037647903
-0.12802292 0.08769446 -0.1145762 -0.07129542 0.023164911 0.02720394 -0.4460533 -0.1935816
-0.10859449 0.33702415 -0.06585562 0.04363501 0.027097143 -0.24008872 -0.13237411 -0.3950613
0.008598869 0.049383033 -0.38476735 -0.15787417 0.086220585 0.030677807 0.025352199 0.20541555
-0.26154333 -0.14733118 0.1319301 0.101779945 -0.18896613 -0.15068062 0.029692017 0.029986808
-0.088457786 -0.05128628 0.0069974205 0.09007186 0.114064194 0.045107566 0.29520884 0.10246358
-0.27933937 -0.2301782 -0.09175144 0.13673092 -0.19841772 0.03926773 0.18037337 -0.05171069
-0.19092886 0.0430126 0.019168248 -0.014319221 0.009438623 -0.109416924 -0.12108638 -0.41353866
-0.31371924 0.21055232 0.29871535 0.07772154 -0.012501645 -0.08397039 0.14733407 0.08823139
-0.25048953 0.008039956 0.13856429 0.16934344 0.026037797 0.11625124 0.28968385 0.2141652
0.34306243 -0.049945854 -0.029055828 -0.18998037 0.036308616 0.019077398 -0.12688915 -0.13376978
-0.34011438 0.004134841 0.1626917 -0.28999603 -0.17745043 -0.22321573 0.115070045 -0.011752568
-0.17189193 -0.044059455 -0.10739183 0.07215744 -0.018551117 -0.015033654 0.124490224 -0.1371785
-0.16332096 0.08617815 -0.01204937 0.055418935 -0.12200131 -0.058460087 0.08978031 0.22193375
0.16146594 0.1777868 -0.46203908 0.098007984 0.16177592 0.035833765 0.07112882 -0.098238096
-0.36733764 0.32183418 -0.11279746 -0.03829274 -0.04254534 -0.58333725 -0.3308614 0.013648796
-0.081620745 -0.12827447 -0.0061203944 0.0027701226 0.15146394 -0.16434732 -0.011249556 0.10825632
-0.1286279 0.2414909 0.25349143 0.09326826 0.0281872 0.040042978 -0.4329086 -0.14747114
-0.2863871 -0.11747967 0.2463006 -0.038315427 0.18812045 -0.33124754 0.22254628 -0.2877458
00000000: 8889 81be 3cb7 08bf cc44 e83d 1483 28bf
00000010: aea7 6c3d 5bec 2ebd 7e25 043e 5ebf 3b3c
00000020: bf52 42ba 6dd7 7cbd de09 273e be43 0fbd
00000030: 7a8a 5cbe 1480 df3d a96a c7be 06d6 31bc
00000040: 1349 4fbe dac1 70bd b8ab 20be ec32 50be
00000050: 6052 40be 395d 95be 4324 24bc 7168 c93d
00000060: ec84 243c 82c5 82be 70b8 ddbe a29f e83d
00000070: c10e 883d bf0d 933d 17a1 b0bd 0bc2 473c
00000080: f098 2e3d 4a7c 6abe 52a6 d0be 32f8 b53d
00000090: ae7d 02bd 55aa 153e e7f7 0fbd cebc 86bd
000000a0: 47a8 c0bb 4d03 73be 13d9 af3d 12ff 4dbe
000000b0: 51ef 20be 7d45 24bf 1de5 adbe 3cb5 d13d
000000c0: e144 a6be 2281 f2bd 6819 67bf 692d 54bd
000000d0: cb41 803d 6274 26bf 5b70 27be 80b2 b0be
000000e0: 8882 093d 62cf fa3d da8e 21be 354f b33d
000000f0: f981 c6bd b90c 22bf dfd2 cd3e 08c6 a0bd
00000100: 93a0 10be 9f66 f1bd 950b 1bbe aea1 07be
00000110: 6d9e 89be 37c2 853e 36b5 993d 7eb7 cd3c
00000120: 1c4e 2b3e a529 cfbe 2dc4 58be 605d 66bd
00000130: 3db2 11bd 1ceb 633e 8229 82be 49f7 873c
00000140: 3357 efbd 2c10 78bb dfc1 243e 2179 783c
00000150: f0bf bebe 7a94 10be 3185 13be 05dc 4fbe
00000160: 34a9 de3d 39ac 673d 7a8f 3b3e a605 ea3e
00000170: b30f 6abe 4168 82bd c827 bf3d f7b9 90be
00000180: 9c87 87bd be67 9bbc 6e7f 9a3d 5f7e 613e
00000190: 6355 9dbe a528 58be d744 ccbd 991a eb3d
000001a0: b0eb 1c3d b49d e73d 57e1 853e bb55 3bbc
000001b0: df2f 84bd ca77 17bd 8506 903c b034 1a3d
000001c0: 7118 03be 2799 b33d eda6 eabd 5503 92bd
000001d0: 57c4 bd3c ccda de3c 1961 e4be 413a 46be
000001e0: ca66 debd 6e8e ac3e 50df 86bd a0ba 323d
000001f0: d4fa dd3c d1d9 75be 148d 07be 7a45 cabe
00000200: 45e2 0c3c dd45 4a3d 3a00 c5be c4a9 21be
00000210: 6b94 b03d 0650 fb3c 6aaf cf3c 7458 523e
00000220: 02e9 85be fcdd 16be af18 073e 0172 d03d
00000230: 5680 41be 054c 1abe ac3c f33c e5a6 f53c
00000240: 5b29 b5bd 9011 52bd 9e4a e53b 9877 b83d
00000250: 7d9a e93d b6c2 383d 9d25 973e 6dd8 d13d
00000260: 9205 8fbe d6b3 6bbe 2ee8 bbbd 3103 0c3e
00000270: 042e 4bbe 33d7 203d ccb3 383e 97ce 53bd
00000280: db82 43be fb2d 303d bb06 9d3c 2a9b 6abc
00000290: 74a4 1a3c fb15 e0bd 23fc f7bd 57bb d3be
000002a0: cf9f a0be 079b 573e 38f1 983e 792c 9f3d
000002b0: b3d3 4cbc abf8 abbd bede 163e a9b2 b43d
000002c0: 2a40 80be 05ba 033c cce3 0d3e 5e68 2d3e
000002d0: 384d d53c 2115 ee3d 7151 943e 1f4e 5b3e
000002e0: e1a5 af3e 0694 4cbd 7d06 eebc 378a 42be
000002f0: 58b8 143d 3448 9c3c 3bef 01be f2fa 08be
00000300: 7923 aebe 8f7d 873b a798 263e 5c7a 94be
00000310: 91b5 35be aa92 64be d8a9 eb3d d88d 40bc
00000320: 7004 30be b077 34bd 3ff0 dbbd 48c7 933d
00000330: 83f8 97bc b74f 76bc bbf4 fe3d 8578 0cbe
00000340: 9c3d 27be 2b7e b03d b96a 45bc f7fe 623d
00000350: d3db f9bd d873 6fbd bdde b73d 9a42 633e
00000360: 5457 253e be0d 363e 6390 ecbe 69b8 c83d
00000370: 96a8 253e 6dc6 123d fdab 913d 0e31 c9bd
00000380: ae13 bcbe 73c7 a43e 5b02 e7bd d9d8 1cbd
00000390: 0644 2ebd 9755 15bf aa66 a9be 339f 5f3c
000003a0: c728 a7bd 625a 03be 978d c8bb f28a 353b
000003b0: 5d19 1b3e aa4a 28be 0f50 38bc 7db5 dd3d
000003c0: 08b7 03be 6449 773e a1c9 813e 6e03 bf3d
000003d0: d8e8 e63c 1b04 243d 32a6 ddbe ad02 17be
000003e0: 54a1 92be 2e99 f0bd 3936 7c3e a3f0 1cbd
000003f0: a6a2 403e 4799 a9be 2ce3 633e 6b53 93be

action_layer.layer1.0.weight f4 [128, 128]
-0.030637793 0.030348632 -0.22390881 0.010369604 -0.043215673 -0.10272576 -0.00791259 -0.6319495
0.10852048 0.04961615 -6.6256354e-05 -0.14503641 -0.090912744 0.055638023 0.027393036 0.030807534
-0.06777728 -0.012435742 0.075224385 -0.32923415 -0.03737503 0.017919758 0.014510118 -0.38813183
-0.030977871 0.007314672 0.011014942 -0.20315512 -0.09341675 -0.1087477 0.03935472 0.24933976
-0.07484213 -0.03625056 0.06282696 0.110358976 -0.047637597 0.12223391 0.13395876 -0.13311504
0.0012077874 -0.13866371 -0.14622484 0.115669824 -0.0015400789 -0.0050823437 0.013379774 -0.038383394
0.056043264 0.003097341 -0.04934652 -0.2586548 0.0782674 -0.02625698 0.055231567 0.0012210086
-0.3853171 0.07217665 -0.026096068 -0.059930775 -0.4332569 -0.011608621 -0.15085521 -0.012499271
-0.17636862 0.103255585 -0.17498396 -0.09875732 0.041499432 -0.011377236 0.03877781 0.091415085
-0.16097206 0.18719757 0.11699372 -0.3405553 -0.033515796 -0.056126267 -0.13102938 -0.031832617
0.0038111974 -0.13794833 0.05498433 -0.15540358 0.047508456 -0.20748037 0.04584001 -0.022247104
-0.13582194 0.14349766 0.09575632 -0.029162431 -0.16207711 0.036585383 0.116297506 0.27087912
-0.10493098 -0.14964813 -0.041941624 0.07216059 -0.01039667 -0.08294993 0.095268495 0.12516388
0.19794211 0.008840852 0.014882259 -0.06352467 -0.053660013 0.25997788 -0.2152417 0.07932221
0.15481862 0.10205085 -0.18740702 0.07752026 -0.038331438 -0.26204872 -0.19957653 -0.18166888
-0.04863671 0.15669821 -0.18026899 -0.15166818 0.18804216 0.14630479 -0.13174048 0.01630999
-0.011360077 0.23179585 -0.3418666 -0.004405633 0.17372411 -0.26337907 -0.30789924 0.043593604
-0.21799737 -0.0785982 0.007780068 0.086420245 -0.12453298 0.12016966 -0.0002715909 0.19737591
-0.14969614 -0.039467238 -0.27177587 -0.1531905 -0.20304179 -0.16669011 -0.017586384 -0.12561645
0.17363243 0.07208782 0.010299293 -0.26884398 -0.029028524 0.002079689 0.10451577 0.06993337
0.114563905 -0.004248695 -0.003980916 0.051678147 -0.116101705 -0.06539438 -0.06799845 0.07508701
-0.0044259317 -0.05753321 -0.063516535 -0.030127367 0.00839611 0.078598745 -0.012650717 -0.12074592
0.029213352 -0.088858955 0.014144646 -0.036145106 0.054485485 0.18148457 -0.3112058 -0.09223111
0.09986954 -0.0816392 -0.03652569 -0.04655994 -0.122687824 -0.00034070385 0.1576796 0.103357576
-0.060899552 0.092927925 -0.1617246 -0.17454228 -0.10268833 0.15557854 -0.023575751 -0.10217876
-0.07132654 0.04904717 -0.13665088 -0.019874098 -0.10499564 -0.022248218 0.010708726 -0.04005889
-0.0023636648 0.084906854 0.035495557 0.04413594 -0.05654544 -0.08824565 -0.09876346 0.03529298
-0.016800068 -0.004546074 0.017930415 -0.07325417 0.07400202 0.061624873 -0.057900846 0.038733438
0.040136028 0.1388428 0.070923954 0.03211095 0.15474647 -0.026942518 0.1522706 -0.058835354
-0.033895914 -0.015787998 -0.024516515 0.07602699 -0.09573808 -0.07517889 -0.06254869 0.19773136
-0.12220057 -0.16893135 0.13618942 0.085696645 -0.010628725 -0.0836268 0.049264517 -0.15821005
-0.07572616 -0.03918923 -0.06431042 -0.044423107 -0.08754839 -0.04045713 -0.09491447 0.09760993
00000000: 1cfc fabc b29d f83c 5a48 65be 46e5 293c
00000010: eb02 31bd e261 d2bd cfa3 01bc 71c7 21bf
00000020: fc3f de3d 4e3a 4b3d 1cf3 8ab8 6d84 14be
00000030: 7630 babd b2e4 633d 5c67 e03c 1560 fc3c
00000040: d1ce 8abd 48bf 4bbc 3e0f 9a3d 6191 a8be
00000050: 8f16 19bd 75cc 923c d9bb 6d3c 37b9 c6be
00000060: 4ec5 fdbc ebaf ef3b 0478 343c e507 50be
00000070: 4851 bfbd 1db7 debd 6a32 213d ec52 7f3e
00000080: d546 99bd 787b 14bd 6cab 803d e303 e23d
00000090: a41f 43bd c655 fa3d 7c2c 093e 4f4f 08be
000000a0: 9f4e 9e3a dcfd 0dbe f7bb 15be 4de4 ec3d
000000b0: 79dc c9ba ca89 a6bb d736 5b3c e837 1dbd
000000c0: 9f8d 653d c2fc 4a3b 941f 4abd 676e 84be
000000d0: a94a a03d e118 d7bc 7f3a 623d 400a a03a
000000e0: 4848 c5be 5ad1 933d 6cc7 d5bc f979 75bd
000000f0: d9d3 ddbe 1632 3ebc ca79 1abe bec9 4cbc
00000100: fa99 34be aa77 d33d ff2e 33be 4741 cabd
00000110: 4ffb 293d 9667 3abc 7bd5 1e3d d537 bb3d
00000120: dcd5 24be b8b0 3f3e 679a ef3d 445d aebe
00000130: dc47 09bd a8e4 65bd 912c 06be eb62 02bd
00000140: 48c5 793b 5442 0dbe 4037 613d 1e22 1fbe
00000150: 3a98 423d bc75 54be bcc2 3b3d 8f3f b6bc
00000160: e814 0bbe 0df1 123e e41b c43d 0de6 eebc
00000170: 8bf7 25be 8eda 153d 632d ee3d abb0 8a3e
00000180: 0ee6 d6bd 5c3d 19be fbca 2bbd eec8 933d
00000190: cb56 2abc a7e1 a9bd 211c c33d f62a 003e
000001a0: 56b1 4a3e 39d9 103c b8d4 733c 3919 82bd
000001b0: 9aca 5bbd d21b 853e 5268 5cbe af73 a23d
000001c0: c688 1e3e 0900 d13d a0e7 3fbe f1c2 9e3d
000001d0: 6d01 1dbd 402b 86be ca5d 4cbe 6807 3abe
000001e0: 4937 47bd 7f75 203e 6f98 38be e74e 1bbe
000001f0: 208e 403e ecd0 153e fae6 06be 879c 853c
00000200: 9e1f 3abc e45b 6d3e 2409 afbe 215d 90bb
00000210: bce4 313e 9fd9 86be f8a4 9dbe 358f 323d
00000220: b43a 5fbe 18f8 a0bd f1ef fe3b 19fd b03d
00000230: 260b ffbd 831b f63d 5064 8eb9 e91c 4a3e
00000240: f249 19be 66a8 21bd 3526 8bbe f8dd 1cbe
00000250: 30ea 4fbe d0b0 2abe 5211 90bc 99a1 00be
00000260: b3cc 313e c7a2 933d 5ebe 283c eba5 89be
00000270: 3acd edbc 644b 083b 5d0c d63d 3a39 8f3d
00000280: 7ba0 ea3d a338 8bbb 5872 82bb 77ac 533d
00000290: bbc6 edbd 7ded 85bd c542 8bbd 38c7 993d
000002a0: 6807 91bb f1a7 6bbd f514 82bd abcd f6bc
000002b0: d68f 093c 61f8 a03d f444 4fbc a349 f7bd
000002c0: d750 ef3c affb b5bd f2be 673c e40c 14bd
000002d0: 2c2c 5f3d 17d7 393e 5e56 9fbe aae3 bcbd
000002e0: 6788 cc3d 7432 a7bd f69b 15bd a3b5 3ebd
000002f0: c143 fbbd 7fa0 b2b9 c376 213e 23ad d33d
00000300: cf71 79bd ff50 be3d 229b 25be 36bb 32be
00000310: 424e d2bd fb4f 1f3e ef21 c1bc 1943 d1bd
00000320: a613 92bd afe5 483d 35ee 0bbe 01cf a2bc
00000330: f407 d7bd e541 b6bc a773 2f3c ca14 24bd
00000340: b7e7 1abb a5e3 ad3d ca63 113d e3c7 343d
00000350: 319c 67bd 23ba b4bd 7f44 cabd 5f8f 103d
00000360: 4ca0 89bc 3cf7 94bb cee2 923c 4806 96bd
00000370: 5f8e 973d 5d6a 7c3d 7029 6dbd f4a6 1e3d
00000380: ad65 243d cf2c 0e3e 9440 913d c686 033d
00000390: dc75 1e3e 8eb6 dcbc d3ec 1b3e 57fd 70bd
000003a0: 71d6 0abd d555 81bc dcd6 c8bc 0ab4 9b3d
000003b0: 5412 c4bd 64f7 99bd 8719 80bd 177a 4a3e
000003c0: 4b44 fabd 57fc 2cbe 3d75 0b3e b981 af3d
000003d0: 1b24 2ebc 8744 abbd 97c9 493d d101 22be
000003e0: 5116 9bbd e384 20bd 2eb5 83bd 01f5 35bd
000003f0: 924c b3bd 60b6 25bd 8562 c2bd b7e7 c73d

action_layer.layer1.0.bias f4 [128]
0.05065336 -0.03123064 0.053396225 0.025248356 -0.050510943 -0.14256515 -0.033641297 -0.070849635
-0.050124597 -0.10208979 -0.12809382 -0.08640554 0.032642517 0.005566972 -0.0028804068 0.07201513
-0.11523089 -0.0728079 -0.07994854 -0.062592745 -0.08652481 -0.10911284 0.025360322 0.08534351
-0.017098378 0.06852362 -0.0515377 -0.015490763 -0.008011421 0.012741614 -0.08056167 -0.061689176
-0.06359063 0.035688344 0.006033029 -0.050921503 -0.10711929 0.0022180767 0.036243565 -0.080443665
-0.03238125 0.093308434 -0.03989779 0.027304266 0.09302002 -0.01234163 -0.066041335 -0.044911258
-0.006338604 0.019232558 -0.07245448 -0.12334087 0.036489286 -0.021490946 0.013623917 -0.09371689
0.0116223665 -0.14758582 -0.03440372 -0.11128449 0.055240907 -0.08047086 -0.035958588 -0.052941643
0.062092736 -0.12145459 -0.07662628 -0.05358232 -0.041720986 -0.07734859 0.0076618847 -0.12041198
-0.050323837 -0.036094677 -0.11594023 -0.07179261 0.047393594 -0.024221106 -0.019573003 0.028468158
-0.036698196 0.12388302 -0.018470937 -0.10803595 -0.12229688 0.09771832 -0.096529484 -0.04933658
0.11548179 0.06132 0.11363376 -0.111594826 -0.03293472 0.0065276218 0.0004282299 -0.12838505
-0.04540784 -0.022117907 -0.07051632 -0.044511322 -0.022660483 -0.041350752 -0.08715688 -0.015406279
-0.14034769 0.046483565 -0.026474562 -0.0058682975 -0.12788548 -0.06696024 0.010939122 0.069292404
-0.06369914 -0.03443878 -0.0021710333 -0.07964833 -0.12887904 -0.046478488 -0.039643615 0.029427683
0.013398203 0.03637822 -0.06332902 -0.032612965 0.10397501 0.01839863 -0.1966326 -0.072180115
00000000: e679 4f3d 66d7 ffbc 00b6 5a3d a4d5 ce3c
00000010: 90e4 4ebd 99fc 11be 75cb 09bd 9d19 91bd
00000020: 734f 4dbd 7414 d1bd 072b 03be 63f5 b0bd
00000030: 29b4 053d 256b b63b 35c5 3cbb ab7c 933d
00000040: 2cfe ebbd 4f1c 95bd 0fbc a3bd a030 80bd
00000050: eb33 b1bd 8d76 dfbd 73c0 cf3c 94c8 ae3d
00000060: e611 8cbc 1d56 8c3d 3219 53bd f8cc 7dbc
00000070: 5642 03bc 34c2 503c 84fd a4bd caad 7cbd
00000080: ce3b 82bd f12d 123d b7b0 c53b 1193 50bd
00000090: 5c61 dbbd 275d 113b 2274 143d a6bf a4bd
000000a0: 34a2 04bd 7e18 bf3d dd6b 23bd 32ad df3c
000000b0: 4881 be3d 8c34 4abc ae40 87bd def4 37bd
000000c0: 10b4 cfbb 998d 9d3c 0463 94bd 239a fcbd
000000d0: ca75 153d c80d b0bc d936 5f3c a4ee bfbd
000000e0: bd6b 3e3c bd20 17be eaea 0cbd 1fe9 e3bd
000000f0: 4a44 623d e8cd a4bd 5049 13bd 56d9 58bd
00000100: f454 7e3d 2fbd f8bd 3dee 9cbd 2379 5bbd
00000110: a0e3 2abd f068 9ebd 8c10 fb3b 8e9a f6bd
00000120: 5e20 4ebd 03d8 13bd 1272 edbd 0108 93bd
00000130: c91f 423d 576b c6bc 9057 a0bc 0e36 e93c
00000140: d950 16bd 61b6 fd3d 5d50 97bc f441 ddbd
00000150: c976 fabd 8b20 c83d 40b1 c5bd 2715 4abd
00000160: b781 ec3d ae2a 7b3d d1b8 e83d d48b e4bd
00000170: 8fe6 06bd a9e5 d53b 0b84 e039 5f77 03be
00000180: 92fd 39bd 9d30 b5bc dc6a 90bd 8151 36bd
00000190: 7aa2 b9bc 685f 29bd 4e7f b2bd 9e6a 7cbc
000001a0: 4eb7 0fbe 8d65 3e3d 2ee1 d8bc d94a c0bb
000001b0: 69f4 02be 7322 89bd 013a 333c 2de9 8d3d
000001c0: b274 82bd ae0f 0dbd e547 0ebb aa1e a3bd
000001d0: def8 03be 3a60 3ebd 5861 22bd 5312 f13c
000001e0: 2384 5b3c 5401 153d a5b2 81bd 2c95 05bd
000001f0: daf0 d43d b9b8 963c 0e5a 49be 2bd3 93bd

action_layer.layer1.1.weight f4 [2, 128]
-0.13346848 0.04520705 0.06049409 0.032175943 0.114243746 -0.08830154 -0.061149143 -0.029796975
0.023188397 0.18877637 0.108699635 0.26394463 -0.09974718 0.124994084 -0.1525749 -0.053061284
0.16115357 0.020858627 0.12935275 -0.26300505 0.09771248 -0.13220088 0.03001333 0.06681114
0.090320155 -0.030861445 -0.08035817 0.20757765 0.22585908 -0.070317805 -0.14731954 0.12370694
0.116916224 -0.0039832084 0.29053155 0.1020683 -0.06826016 0.32348242 0.14845964 -0.13525477
-0.05608509 0.18048336 0.1943866 0.073129095 -0.09401607 -0.1361746 0.13083203 0.05629781
-0.05210444 0.06613711 0.26393312 -0.28767484 0.21161453 0.052962568 0.121138416 0.075982064
0.109295525 -0.13944526 0.07898205 0.10162098 -0.054449752 -0.086671606 0.043283917 -0.048292346
-0.025067473 -0.051099762 0.15096183 0.17073539 0.08937346 -0.026792975 -0.02415338 0.23212416
-0.114207074 -0.10486108 -0.12735194 0.04213051 0.120935045 0.0062151966 -0.14899845 -0.038844187
-0.11596105 -0.0632537 -0.12081117 0.4667441 0.24065147 0.16120382 0.015504205 -0.013628362
-0.008349612 -0.17838684 -0.089025766 0.0941011 0.18603432 -0.009775457 -0.13420941 -0.09239561
-0.1855273 -0.070915416 0.25870103 -0.18212336 0.049530473 -0.12824813 -0.16032754 0.22147925
0.08882252 -0.035979383 0.020932902 0.076600716 0.15026951 -0.09170647 -0.09375136 0.04470421
0.19694993 -0.22344126 -0.09390253 0.20205462 0.25425068 0.2299214 -0.30603188 -0.21536762
0.08575992 0.3056523 -0.10321803 0.05125022 -0.07489877 0.23500486 -0.0008074239 -0.088951536
0.094057105 0.11755426 -0.17551365 -0.14554258 -0.06792688 0.24722253 0.03302069 -0.099869885
-0.10225128 -0.17248203 -0.038393576 -0.15073828 0.059548732 -0.07245551 -0.07910651 0.046756033
-0.030946137 0.09613934 0.3556865 -0.18595985 -0.08552659 0.1286184 0.11891031 0.072315566
-0.05225917 0.10503311 0.1199288 0.0052582407 0.04852512 0.119428106 -0.19637929 0.0045587597
-0.21511148 -0.15956932 -0.0032379634 -0.12763926 0.1117386 -0.06501009 -0.08991183 0.26443526
-0.15972996 -0.31109795 -0.1181515 0.044103865 0.031438563 0.10536631 -0.069891416 0.061643362
-0.060428567 0.030056814 -0.0066081644 0.11207474 0.3190974 -0.1086763 0.0769965 0.17202662
0.071468726 -0.1356447 0.13124625 -0.128264 -0.25344354 -0.13748051 -0.1313117 -0.09348108
-0.2074832 0.38221434 -0.018724758 -0.21702424 -0.10754755 0.21353266 -0.060839184 0.008059965
0.075292714 0.066097155 -0.31649956 -0.087965645 0.04277501 -0.16254602 0.0060697678 -0.0728035
-0.11880886 -0.03610636 -0.0668715 -0.115222864 -0.030449064 -0.024304537 -0.19052932 0.08229396
-0.06224609 0.051187385 0.046876054 -0.033383995 -0.1581862 0.07278207 0.0020477467 0.0046146517
-0.018940933 0.14060031 0.15618648 -0.0077174217 0.15072073 -0.035186175 0.06311803 0.114125945
-0.039501596 0.10743707 0.1523408 -0.010304015 0.26163867 0.006343337 0.030310687 -0.16122206
-0.20480433 -0.12496769 0.010151448 -0.11160072 -0.07893377 0.06302501 0.012441917 0.11033215
-0.06378039 0.06577539 -0.014367115 -0.19838074 0.06805824 0.036096904 0.16426705 -0.16197608
00000000: f6ab 08be 072b 393d a7c8 773d ecca 033d
00000010: a0f8 e93d 70d7 b4bd 8677 7abd c918 f4bc
00000020: 98f5 bd3c 984e 413e ea9d de3d c023 873e
00000030: 4048 ccbd e6fc ff3d 983c 1cbe ca56 59bd
00000040: 7105 253e b6df aa3c 0c75 043e 99a8 86be
00000050: 7b1d c83d ab5f 07be 84de f53c 47d4 883d
00000060: c6f9 b83d 24d1 fcbc d392 a4bd 3c8f 543e
00000070: 9a47 673e c802 90bd efda 16be 105a fd3d
00000080: c671 ef3d 9385 82bb 8dc0 943e 2f09 d13d
00000090: fccb 8bbd 7d9f a53e ce05 183e 3a80 0abe
000000a0: 7bb9 65bd a1d0 383e 480d 473e b5c4 953d
000000b0: 7f8b c0bd 5b71 0bbe d5f8 053e 8898 663d
000000c0: 776b 55bd e572 873d 3e22 873e 1e4a 93be
000000d0: 7bb1 583e 47ef 583d 6b17 f83d 7c9c 9b3d
000000e0: 55d6 df3d bdca 0ebe 57c1 a13d a91e d03d
000000f0: b406 5fbd e280 b1bd 7a4a 313d 32ce 45bd
00000100: 4d5a cdbc fc4d 51bd bd95 1a3e 42d5 2e3e
00000110: 6f09 b73d f17c dbbc 4fdd c5bc f5b1 6d3e
00000120: 66e5 e9bd 68c1 d6bd 8c68 02be 0b91 2c3d
00000130: cbac f73d d9a8 cb3b 0d93 18be 151b 1fbd
00000140: fd7c edbd 288b 81bd d96b f7bd 15f9 ee3e
00000150: 576d 763e 9d12 253e 5905 7e3c 7e49 5fbc
00000160: d0cc 08bc 0aab 36be 2453 b6bd 14b8 c03d
00000170: c87f 3e3e 3d29 20bc 316e 09be e939 bdbd
00000180: defa 3dbe 1a3c 91bd 7674 843e 8c7e 3abe
00000190: 77e0 4a3d 7a53 03be e72c 24be 75cb 623e
000001a0: 95e8 b53d 1e5f 13bd 7a7b ab3c d6e0 9c3d
000001b0: 40e0 193e 9ad0 bbbd b700 c0bd c31b 373d
000001c0: 3ead 493e c9cd 64be f84f c0bd 68e7 4e3e
000001d0: 252d 823e 8470 6b3e 36b0 9cbe 5489 5cbe
000001e0: e6a2 af3d 757e 9c3e f963 d3bd c0eb 513d
000001f0: 8764 99bd 1da5 703e 4da9 53ba 392c b6bd
00000200: 03a1 c03d 4ac0 f03d dab9 33be 1d09 15be
00000210: 401d 8bbd e727 7d3e b440 073d 9588 ccbd
00000220: 1e69 d1bd 219f 30be 9542 1dbd 235b 1abe
00000230: 5fe9 733d 8e63 94bd 9802 a2bd 4183 3f3d
00000240: c182 fdbc b4e4 c43d 8a1c b63e 426c 3ebe
00000250: 9128 afbd 8bb4 033e 4087 f33d 2f1a 943d
00000260: b60d 56bd 991b d73d 3b9d f53d 524d ac3b
00000270: 47c2 463d b996 f43d a717 49be a661 953b
00000280: 2f46 5cbe 2466 23be 0334 54bb deb3 02be
00000290: 35d7 e43d 0324 85bd b223 b8bd 0f64 873e
000002a0: 4090 23be 3b48 9fbe 6af9 f1bd 41a6 343d
000002b0: b9c5 003d 4bca d73d 3b23 8fbd c07d 7c3d
000002c0: f283 77bd b539 f63c 4d89 d8bb 7187 e53d
000002d0: bc60 a33e ae91 debd 57b0 9d3d bf27 303e
000002e0: 325e 923d 72e6 0abe 6b65 063e a357 03be
000002f0: 5ac3 81be b1c7 0cbe 9376 06be 0273 bfbd
00000300: 7a76 54be 99b1 c33e aa64 99bc 9a3b 5ebe
00000310: e441 dcbd 4ea8 5a3e 8232 79bd f20d 043c
00000320: 1133 9a3d f25d 873d 3b0c a2be 5527 b4bd
00000330: d934 2f3d 7772 26be e7e4 c63b 001a 95bd
00000340: 0f52 f3bd 43e4 13bd edf3 88bd f7f9 ebbd
00000350: 5170 f9bc 4f1a c7bc 1e1a 43be bc89 a83d
00000360: c2f5 7ebd dda9 513d 1b01 403d a8bd 08bd
00000370: 90fb 21be c40e 953d 7d33 063b 8136 973b
00000380: 042a 9bbc 87f9 0f3e 59ef 1f3e 6de2 fcbb
00000390: 8956 1a3e 611f 10bd 0744 813d ddba e93d
000003a0: 6dcc 21bd f707 dc3d 3aff 1b3e 2cd2 28bc
000003b0: 81f5 853e c4db cf3b 1e4e f83c 6517 25be
000003c0: 3ab8 51be 0fef ffbd 4252 263c eb8e e4bd
000003d0: 07a8 a1bd 4213 813d 2fd9 4b3c d2f5 e13d
000003e0: 4b9f 82bd 3fb5 863d 0c64 6bbc 5224 4bbe
000003f0: 1e62 8b3d 59da 133d 9f35 283e 0fdd 25be

action_layer.layer1.1.bias f4 [2]
0.028406655 -0.023433788
00000000: 13b5 e83c 37f8 bfbc

encoding_layer.layer.0.weight f4 [64, 180]
0.041422416 0.011525292 0.108565286 0.03340513 -0.2604734 -0.14309017 -0.4182939 -0.4776931
-0.22658098 -0.12983894 -0.17649984 -0.016247747 -0.041649885 0.09476416 0.069008365 -0.15667886
-0.02679866 0.03275192 -0.01878851 -0.103035815 0.113076925 0.1442697 0.14158806 0.070913665
0.07957078 0.053267032 -0.00777647 0.10173442 -0.44228268 -0.20202412 -0.1941718 -0.0077857333
0.0647097 -0.21967642 -0.13454847 -0.049726706 -0.01572743 0.25987354 0.026662774 0.011952329
-0.03397034 -0.012123973 0.07133927 0.071666725 0.017071476 0.08079325 -0.03479175 0.1862427
0.0065816795 -0.0789281 -0.056321137 -0.07143282 0.0691025 -0.09002747 -0.016401088 -0.04194487
-0.04681566 0.07197894 -0.10914965 -0.14110966 -0.10110571 -0.100733876 0.050867874 0.0228861
0.023250137 -0.08461063 0.13845222 0.07669453 0.050536282 0.044735964 -0.19350423 -0.12787673
0.03574126 -0.22574233 -0.2928484 -0.17963864 0.21610425 0.08997831 -0.01924127 0.00033908233
-0.070367604 0.09104018 -0.13182457 -0.093910314 -0.16260453 -0.027403848 0.28311634 0.20657918
-0.03660137 0.020038635 0.065412864 0.12247028 0.012754158 0.08782598 -0.001904738 0.05792183
-0.21460606 0.04817813 -0.032374077 -0.048311375 0.16345596 0.10082048 0.09502295 -0.07008611
0.032132205 -0.05457194 0.056171298 0.007344754 -0.0126507 0.028119866 0.072783604 0.0069105094
-0.047519084 -0.10267323 -0.13240993 -0.095409214 0.049122334 -0.094881065 -0.12432191 -0.068911426
0.010964679 0.049204644 0.046068594 0.06600488 0.13036624 -0.022965433 0.20882685 0.03815464
-0.026390646 -0.16907774 0.025343152 -0.01869751 0.041100603 0.08871704 0.09969634 -0.0003599397
-0.032438986 0.046220556 0.068950124 0.023751495 -0.10233133 0.006964328 0.032329574 -0.006769146
-0.056995984 0.093070395 0.09865879 -0.0281471 -0.036206678 0.007264166 -0.07851441 -0.028784126
0.039379627 -0.09611911 -0.12657572 0.060452484 -0.049077183 -0.017634628 -0.08704729 -0.013051182
-0.105129436 -0.08780563 0.00205398 0.019823834 0.06259801 -0.012362493 -0.080200054 0.0105769355
0.045189977 0.056022394 0.027862715 0.0826373 0.05593037 0.014874703 -0.040601216 0.038698297
0.123302445 0.07036771 0.011218262 -0.047987577 -0.12025237 -0.09370516 -0.06352469 0.08349241
0.2203788 0.18014456 0.15667702 0.24583295 0.087135665 0.038057912 0.016213836 0.00495878
-0.00023102562 0.004731303 -0.016750766 -0.08678246 -0.021745918 -0.031488385 -0.033195995 -0.048730858
-0.23822416 -0.009203166 -0.14861993 -0.021232354 0.11055407 0.06974116 -0.09231032 -0.04140549
-0.19522056 -0.114603795 0.018265279 -0.077779435 -0.13473602 0.01949262 0.021410402 -0.010878014
-0.042392284 -0.14182182 0.02795182 0.011572929 0.055613313 -0.10146065 -0.13850921 -0.009902869
-0.020180315 -0.016338285 0.016963284 -0.07454525 -0.037153415 0.059263933 -0.11747056 -0.15731491
-0.102695234 0.077580705 0.067369536 -0.15818366 0.05752019 -0.016813863 -0.11085707 -0.09665726
0.052061398 0.09397184 -0.07799334 -0.19216438 -0.091707565 -0.03880342 -0.10997734 -0.096420705
-0.07841079 0.015488658 -0.13806899 0.021514567 -0.01487233 -0.043632977 -0.09500158 -0.06791058
00000000: 8daa 293d 94d4 3c3c 7a57 de3d d1d3 083d
00000010: c55c 85be 3b86 12be 9e2a d6be 3194 f4be
00000020: d804 68be 80f4 04be 60bc 34be ff19 85bc
00000030: 1299 2abd b613 c23d 4254 8d3d 6c70 20be
00000040: dd88 dbbc e126 063d 5cea 99bc 7104 d3bd
00000050: e094 e73d 70bb 133e 76fc 103e 2f3b 913d
00000060: 01f6 a23d 882e 5a3d c2d1 febb 235a d03d
00000070: e072 e2be 69df 4ebe f9d4 46be 771f ffbb
00000080: 8586 843d dbf2 60be 13c7 09be 3bae 4bbd
00000090: d0d6 80bc 250e 853e e46b da3c b4d3 433c
000000a0: 7c24 0bbd a1a3 46bc 531a 923d 01c6 923d
000000b0: 7bd9 8b3c ee76 a53d cb81 0ebd 68b6 3e3e
000000c0: 21ab d73b 0ea5 a1bd feb0 66bd 5f4b 92bd
000000d0: 9d85 8d3d 5260 b8bd 935b 86bc 62ce 2bbd
000000e0: c7c1 3fbd b269 933d da89 dfbd 0d7f 10be
000000f0: 8310 cfbd 904d cebd d55a 503d a17b bb3c
00000100: 1277 be3c 5748 adbd 6bc6 0d3e 0612 9d3d
00000110: 22ff 4e3d 0f3d 373d f925 46be 1ef2 02be
00000120: 6d65 123d ff28 67be 3af0 95be 31f3 37be
00000130: 6f4a 5d3e 8c46 b83d de9f 9dbc dcc6 b139
00000140: e41c 90bd 4673 ba3d 05fd 06be 0d54 c0bd
00000150: cd81 26be 097e e0bc a0f4 903e 7e89 533e
00000160: 51eb 15bd 1028 a43c 2ef7 853d b3d1 fa3d
00000170: d1f6 503c 1bde b33d 67a8 f9ba 713f 6d3d
00000180: b1c1 5bbe 6e56 453d ae9a 04bd 26e2 45bd
00000190: 0061 273e f87a ce3d 649b c23d 4e89 8fbd
000001a0: 0f9d 033d d486 5fbd e013 663d 43ac f03b
000001b0: e244 4fbc a25b e63c 920f 953d 8e71 e23b
000001c0: 5fa3 42bd 5846 d2bd 7896 07be e865 c3bd
000001d0: 8034 493d 0151 c2bd 7c9c febd 6f21 8dbd
000001e0: 32a5 333c cf8a 493d 6cb2 3c3d 912d 873d
000001f0: ba7e 053e 0122 bcbc b5d6 553e 0a48 1c3d
00000200: 3231 d8bc b722 2dbe 719c cf3c 852b 99bc
00000210: 1b59 283d 48b1 b53d 982d cc3d 4ab6 bcb9
00000220: bede 04bd c451 3d3d b935 8d3d 7f92 c23c
00000230: 1793 d1bd 0435 e43b 046c 043d b6cf ddbb
00000240: 9f74 69bd b19b be3d 9f0d ca3d bf94 e6bc
00000250: 744d 14bd 3e08 ee3b 2acc a0bd b0cc ebbc
00000260: 884c 213d 19da c4bd 119d 01be 069d 773d
00000270: 2805 49bd 7f76 90bc d945 b2bd a0d4 55bc
00000280: 1a4e d7bd 70d3 b3bd 119c 063b 9865 a23c
00000290: 6333 803d 0e8c 4abc ed3f a4bd e24a 2d3c
000002a0: 2019 393d bd77 653d 5940 e43c bf3d a93d
000002b0: 3e17 653d 07b5 733c 764d 26bd 1b82 1e3d
000002c0: fe85 fc3d f21c 903d cdcc 373c 9f8e 44bd
000002d0: e046 f6bd 7ee8 bfbd 3c19 82bd 12fe aa3d
000002e0: fbaa 613e d177 383e f16f 203e a2bb 7b3e
000002f0: 2f74 b23d 9de2 1b3d e1d2 843c 437d a23b
00000300: 783f 72b9 0c09 9b3b e738 89bc 01bb b1bd
00000310: 7f24 b2bc f7f9 00bd 86f8 07bd 029a 47bd
00000320: 09f1 73be e0c8 16bc d32f 18be 79ef adbc
00000330: 2c6a e23d 74d4 8e3d 310d bdbd ce98 29bd
00000340: e6e7 47be 65b5 eabd 11a1 953c d34a 9fbd
00000350: 3df8 09be fdae 9f3c de64 af3c b339 32bc
00000360: 88a3 2dbd bd39 11be 37fb e43c 629c 3d3c
00000370: c9ca 633d 9aca cfbd 5cd5 0dbe a53f 22bc
00000380: 3051 a5bc ded7 85bc 96f6 8a3c 2eab 98bd
00000390: 2e2e 18bd bdbe 723d 6894 f0bd 2917 21be
000003a0: e151 d2bd a2e2 9e3d 0af9 893d e6fa 21be
000003b0: 4a9a 6b3d 3abd 89bc 0809 e3bd 3ef4 c5bd
000003c0: 553e 553d 4f74 c03d f9ba 9fbd bdc6 44be
000003d0: 2dd1 bbbd 56f0 1ebd cd3b e1bd 3878 c5bd
000003e0: d695 a0bd 24c4 7d3c f561 0dbe 513f b03c
000003f0: 13ab 73bc 7eb8 32bd 3090 c2bd b414 8bbd

encoding_layer.layer.0.bias f4 [64]
-0.06680727 0.0098011205 -0.055152353 0.021923387 0.06700468 -0.09554589 0.036772255 -0.0073569347
-0.016900076 0.040939055 -0.036016796 -0.018164588 -0.0067563727 -0.016020976 0.044939812 0.01993047
0.038103644 -0.073631726 0.0028748545 -0.035109915 -0.0253047 -0.051006768 0.02628394 -0.04759736
-0.09087901 -0.006613856 -0.061665274 0.009679766 0.01611512 -0.032355357 0.01171118 -0.027617862
-0.09585033 -0.039229617 0.0036099642 0.007391365 -0.08818145 -0.11294726 0.05130199 -0.03734211
0.040856626 0.03885243 -0.03419297 -0.08619392 0.031682152 -0.049418468 -0.030378107 -0.033849377
0.00956833 -0.011507301 -0.052988004 -0.04069964 0.07103724 0.090665504 -0.0017285125 -0.032999776
0.035455607 0.020875243 0.06231703 -0.006601335 -0.08272923 0.002937051 -0.023524474 0.056365605
00000000: 40d2 88bd e194 203c 6fe7 61bd ad98 b33c
00000010: c039 893d 90ad c3bd 819e 163d 7112 f1bb
00000020: 0772 8abc b6af 273d 5986 13bd e7cd 94bc
00000030: 9064 ddbb 6c3e 83bc cf12 383d 3a45 a33c
00000040: 9112 1c3d 3bcc 96bd 0e68 3c3b 6acf 0fbd
00000050: cd4b cfbc 79ec 50bd 6b51 d73c 73f5 42bd
00000060: c61e babd 0cb9 d8bb ba94 7cbd e297 1e3c
00000070: db03 843c 0d87 04bd 40e0 3f3c db3e e2bc
00000080: 2e4d c4bd 3caf 20bd 2695 6c3b 4333 f23b
00000090: 7a98 b4bd e550 e7bd 0922 523d 0af4 18bd
000000a0: 4759 273d ba23 1f3d ed0d 0cbd 7086 b0bd
000000b0: 25c5 013d 056b 4abd 82db f8bc a5a5 0abd
000000c0: 7cc4 1c3c 1e89 3cbc f309 59bd aab4 26bd
000000d0: f97b 913d d6ae b93d 418f e2ba c62a 07bd
000000e0: e639 113d 8f02 ab3c 2440 7f3d 0350 d8bb
000000f0: f16d a9bd 8a7b 403b 66b6 c0bc 9fdf 663d
