HGAT-MADDPG_ver2/ModelBuffer/model_300.pt (torch, 369803 bytes, 33 tensors)

encoding_layer.layer.0.weight f4 [64, 180]
00000000: 1b3e 13bd 4ed0 f53b b047 0e3d 134f 023d
00000010: 224c 293c 73e3 70bd 5387 b8bd 7003 5c3d
00000020: fea0 a3bd 3c50 b2bd 6d3e 193d bbb3 9ebd
00000030: 05af 223d 9625 93bd d348 f53c 604a aabc
00000040: a0ea 363d 7197 95bc e01b 483d 387b 983d
00000050: b23b 8a3d a6e3 d7bb 0c3e d83d 9ab1 7e3d
00000060: 3970 3d3d cbef 1cbd cecf be3d 7c26 62bd
00000070: c352 41bd 381d 1abd 38fc da3c aa09 a4bc
00000080: 8dcf 313d f504 633c cb23 863d 433e f43c
00000090: de91 3fbd b071 78bd 5dcb 4ebd 6ebf 31bd
000000a0: 36ed 063d a8ca bd3d 6a3b 563d 582b 443c
000000b0: 8ad6 ac3d e9ee b73c b830 66bc 55a6 c7bd
000000c0: 4602 63bd 369d c9bd fe1f b23d 5ef7 1d3d
000000d0: 0cf9 a23c 8594 1c3d 97c3 8f3d 125f 44bd
000000e0: cd76 2cbc 05c5 3bbd 2227 d83c 6350 bd3c
000000f0: 371f dbbd 1b8a d4bc 0be8 3f3d 0c06 d23b
00000100: 4107 3a3d 6673 e93c c45b 21bd e4a2 30bd
00000110: ae72 c1bd 646b d2bd 5582 70bd 0256 50bc
00000120: 2507 41bd 9e43 653c 0fa6 a5bb 8a7c 8e3c
00000130: a944 073e 2d71 1a3c 096b e3bb c2a9 b83d
00000140: 3074 97bd 1310 82bd ea14 4fbc 8d27 54bd
00000150: 238d 41bd 7c05 d13b 7a3e 18bd fb54 a3bc
00000160: d7ee 763c 2161 c23d a7d0 383d 569e 68bd
00000170: c585 8cbd f19f 25bd 48ec 723d 45a3 8a3d
00000180: b203 21bb 1605 cd3c 8b34 8c3b 0d36 14bd
00000190: d8da 85bc 3ce3 853c e2a7 16bd 00b0 6d3d
000001a0: 8b0a 9e3c 35d3 b9bd 332b 79bd 2bf1 e83c
000001b0: 5b6e 083d 9c9b 683b 6875 f3bb fe60 5abd
000001c0: 5faf 82bc 8f35 a0bd cf40 efbc b9ea 6ebd
000001d0: 82e1 853d 0eca 91bd 9d3e 8cbd fe8e 2a3d
000001e0: 184e 85bd 4a9e bbbd affc 79bd 717c 4cbd
000001f0: 9f7f 15be e684 2f3d bcc4 043b 1b70 853d
00000200: b3e1 19bd 11fc 96bd 3b5a 9dbc 6b51 343d
00000210: 8fd4 26bb 63a3 c7bd fd29 0c3d 465c ae3c
00000220: cb03 963d ca07 043d 1d85 063c 92b0 3abd
00000230: 8037 9ebc b2e1 7dbd d7c4 62bd 771f 61bd
00000240: e978 443d b750 f43c 30fd 45bd 6160 b3bc
00000250: 89bc 5d3d d13f f73c a6c0 10bd e559 83bc
00000260: eb15 433d 44d0 b6bd 181d f7bd 0cb9 25bd
00000270: 8af3 f13c d718 e1bc a3b0 b4bc cc5f 723a
00000280: 8313 0fbd 077e 33bc e7b6 143b 637e 473c
00000290: 60cd 7c3d c9bf dc3c d820 4c3d dce4 033d
000002a0: b731 76bc 2597 58bd 10f6 a6bc d144 843d
000002b0: 2e97 6b3c 943c dbbc 65e6 4cbc 95ec 8c3c
000002c0: 2767 b5bc 1b6a 2cbe 59cf 00bd 6a49 113c
000002d0: 4481 293d 8296 823d 6921 4d3c 164d 563b
000002e0: df54 a33d ef4e 41bd 8d32 11be e729 88bd
000002f0: 89c0 263d d4a0 cf3c f5ee a8bd f4a5 f6b9
00000300: 6c07 d9bd e777 efbc 24e4 543d df32 fe3c
00000310: 89cd 013d bbc8 02bd b1cc b23d 9f31 5c3d
00000320: 536e 8bbc 43d3 5d3c 7255 823d 4224 ba3c
00000330: 20e0 293d fd99 c3bd 12d5 71bd 0b76 983c
00000340: 6fb8 b13d 9b11 e8bd 1f8f 143e 6b56 3fbc
00000350: c7d1 cdbd 1315 81bd 9662 f7bc 5561 cd3d
00000360: 456c 243d e634 633d 4ef2 303d ef80 44bd
00000370: e8f6 c53d 0f99 68bc a46f 19bd 0e75 ca3d
00000380: beb3 453c dcb2 a03c 4ba1 623d 4e20 66bc
00000390: f472 de3c bd66 f33b 15c8 443d ff98 513d
000003a0: 6a80 df3a f55c 653c eeca dc3c c5a2 12bd
000003b0: a051 a43d a0c8 f73c 3f82 933d c042 00bd
000003c0: 48c1 22be 83f4 213e 9c2d 80bb e558 913d
000003d0: 4db0 b83d 8731 723d da08 f33b 995f b6bd
000003e0: 9b4f 6bbd 3cb3 74bc f545 b4bd f35c b139
000003f0: 1a51 94bd 8799 83bc f93d 8cbc 420a 98bd
-0.0359479 0.0075016385 0.034736335 0.031813692 0.010333093 -0.058810662 -0.09010186 0.053714216
-0.07989691 -0.0870671 0.03741305 -0.077491246 0.039717693 -0.07184903 0.029941952 -0.020787418
0.04465735 -0.01826069 0.04885471 0.07445377 0.06749667 -0.006588417 0.105587095 0.062181093
0.046249602 -0.038314622 0.09316979 -0.055212483 -0.04719807 -0.03762552 0.026731595 -0.02002414
0.043410826 0.013856162 0.06549796 0.029814845 -0.04676997 -0.060655296 -0.05048691 -0.043395452
0.032941066 0.09267169 0.052302755 0.011973225 0.084393576 0.022452788 -0.014049701 -0.09748522
-0.05542209 -0.09844439 0.08697508 0.038565986 0.019894145 0.038227577 0.07019728 -0.04794223
-0.010526371 -0.04584219 0.026385847 0.02310962 -0.10699313 -0.02594476 0.046852153 0.0064094122
0.045417074 0.02849741 -0.039394155 -0.043124095 -0.094457015 -0.102743894 -0.058718044 -0.012715818
-0.047125954 0.013993172 -0.005055196 0.01739337 0.13209786 0.009426397 -0.00694025 0.09016754
-0.07395208 -0.06350722 -0.012639264 -0.05179553 -0.04725374 0.0063788276 -0.037168957 -0.019937983
0.015071592 0.09491182 0.04512086 -0.056791626 -0.06861452 -0.040435735 0.059307367 0.067694224
-0.0024568853 0.02502684 0.0042787245 -0.03618436 -0.016339704 0.016343705 -0.0367812 0.058029175
0.019292137 -0.09073488 -0.060832214 0.02843531 0.03330837 0.003549314 -0.0074297674 -0.053315155
-0.015952764 -0.078227155 -0.029205708 -0.058329318 0.06537153 -0.07118617 -0.0684788 0.041640274
-0.06509036 -0.091610506 -0.061031993 -0.049923364 -0.14599465 0.04285135 0.0020258864 0.06515523
-0.03756876 -0.073722966 -0.019208064 0.04402296 -0.0025456285 -0.097479604 0.03421973 0.021284234
0.07324942 0.03223399 0.008210448 -0.045578547 -0.019313574 -0.061982818 -0.055363502 -0.054961648
0.04796687 0.029823644 -0.04833716 -0.021896543 0.05413488 0.030181797 -0.035339974 -0.016034076
0.047628324 -0.08926442 -0.12066096 -0.040459678 0.029535074 -0.027477665 -0.022056883 0.0009245842
-0.034930717 -0.01095534 0.0022692026 0.012176129 0.0617193 0.026946919 0.04983601 0.03220068
-0.015026501 -0.052878518 -0.020381004 0.06458438 0.014379306 -0.026762284 -0.012506102 0.017202655
-0.022143913 -0.16837351 -0.031447742 0.008867601 0.041383043 0.06376363 0.012520173 0.0032699755
0.07975172 -0.047194418 -0.1417944 -0.06648617 0.04071096 0.025345244 -0.082487024 -0.0004704442
-0.10597119 -0.029231979 0.051975384 0.031030117 0.031690154 -0.031929713 0.08730448 0.05375826
-0.01702038 0.013539138 0.06363954 0.022722367 0.041473508 -0.09550855 -0.05904109 0.018610975
0.08677756 -0.11331483 0.14507721 -0.0116783185 -0.100497775 -0.06302848 -0.030198377 0.1002833
0.040142316 0.05547037 0.04319983 -0.047974523 0.09666234 -0.014196648 -0.037459984 0.09885608
0.01206678 0.019616537 0.055329602 -0.014045788 0.027154423 0.007428019 0.048042376 0.0511713
0.001705182 0.013999213 0.026952233 -0.03579976 0.08023381 0.030247033 0.07202577 -0.031313658
-0.15894043 0.1581593 -0.003911687 0.070970334 0.09018002 0.059129264 0.0074168267 -0.089049526
-0.057448965 -0.014935311 -0.08802406 0.00033829323 -0.072420314 -0.016064418 -0.017119395 -0.074238315

encoding_layer.layer.0.bias f4 [64]
00000000: 7190 993d bda1 23bd d9ac 033d 0a70 1abc
00000010: c855 23bd 711b 893d f2cb 0b3d bc4b 52bd
00000020: a35f fb3c ee60 d8bc 2f66 a1bd 53c0 a6bd
00000030: 18b0 87bc 3a76 7f3c 69cf dbbb ad63 f6bc
00000040: c5b2 cabc 65f5 afbc 27c5 d03c e565 073d
00000050: 0723 0fbc 6ece d2bb c3c8 5fbd 3a55 bfbc
00000060: 6b7e 2fbd fea5 7bbd 295f 843d 370e f3bc
00000070: e75b 7f3d 9184 f6bb 6dc7 623c 87ae 90bd
00000080: 4aa9 2d3d 9eea 233d b2ce 213b 8ec8 6b3c
00000090: ab0d e5bb 1465 b3bd 640d a6bd 2b77 1ebd
000000a0: c309 4e3d 1d22 973c e4e4 1f3d 749d 903d
000000b0: 3323 7abc 10a3 f53c 7268 a33c d98d 9c3c
000000c0: c0f5 80bd face a73c cda6 043b ac18 5abc
000000d0: 5129 023d 2fa4 e93c 233d 1dba 4fb9 473d
000000e0: c91b b13b 454b 61bd efa1 0d3d dda1 623d
000000f0: 039c 4ebd 050f e2bc 5b8d a0bd 00c6 c93c
0.07498253 -0.039949168 0.032147262 -0.009426126 -0.03987673 0.06694687 0.034130044 -0.051341757
0.030685252 -0.026413407 -0.07880818 -0.08142152 -0.01656346 0.015592152 -0.006708075 -0.030076826
-0.024743447 -0.021479318 0.025484635 0.03305616 -0.0087363785 -0.0064332997 -0.05463482 -0.023356069
-0.04284517 -0.0614376 0.06463463 -0.029669864 0.062343504 -0.0075231274 0.013841492 -0.070645384
0.042397775 0.04001867 0.002468985 0.014391078 -0.0069901547 -0.087595135 -0.08108023 -0.038687866
0.05030228 0.018448884 0.039036646 0.07061282 -0.015267181 0.02998498 0.019947264 0.019110607
-0.06296873 0.020484436 0.0020241023 -0.013311546 0.031777684 0.028520672 -0.0005998185 0.04876071
0.0054049236 -0.055003423 0.03457826 0.055330146 -0.050441753 -0.027595052 -0.078394614 0.024630547

relational_layer.layers.0.att_src f4 [1, 1, 64]
00000000: a2fd 003e 2cc6 3f3e 21a2 a8be c75e 3e3e
00000010: 6b41 58be 3ebe 49be eb68 953e 55d9 663e
00000020: 53ff 0b3e c761 b3be a2f0 313e c1d0 8ebe
00000030: e34d e03d 01b3 643e 0571 a63e 7478 8fbd
00000040: 0524 68be a73c 383e 5a22 ca3e b192 c6be
00000050: 2902 ccb9 2c18 d2bd 09e8 a8bd d824 303e
00000060: 8fd2 f1bd c316 4bbe 212d b0be 84c6 043e
00000070: 5e2f 65bd 8cab 94be b4fb 15be 33cb d43d
00000080: 7172 963e 5b55 843e 81ff 883e c70f c0be
00000090: 79a2 eb3d 2cad 92bd fc2f e9bd c57b a33d
000000a0: cd48 2e3e 3dca 44be 5039 00bc 06e1 5c3e
000000b0: 64d5 f13e 2091 b6bc 8eda fb3d d7a4 b33e
000000c0: 7bb6 9fbe 71c7 0abd f6cf a83d b8b1 a53e
000000d0: b5de 2b3e 8d2e 3c3d 1a64 5cbe a5e4 723e
000000e0: 5cac 9ebd b116 4ebe 445e cebd f967 4a3d
000000f0: ee29 4ebd 91a6 073e e9fa b93e 5615 713e
0.12596753 0.1872794 -0.32936195 0.18590842 -0.21118705 -0.19701478 0.2918161 0.22543843
0.13671617 -0.35035536 0.1737695 -0.27893642 0.10952356 0.2233391 0.32508102 -0.070053965
-0.2266999 0.17991887 0.39479333 -0.38783792 -0.00038911522 -0.10258517 -0.08247382 0.17201555
-0.11807739 -0.19832902 -0.3440943 0.12966353 -0.055953376 -0.2903713 -0.14646798 0.1039032
0.29384187 0.2584637 0.26757434 -0.37512037 0.115055986 -0.07161936 -0.113861054 0.079825915
0.17019959 -0.19217773 -0.007826164 0.21570215 0.47233117 -0.022285998 0.122975454 0.350867
-0.3119391 -0.03388161 0.082427904 0.3236215 0.16784175 0.04594283 -0.2152256 0.23720033
-0.07747719 -0.20125844 -0.100765735 0.049415562 -0.050332956 0.13247134 0.36324242 0.23543295

relational_layer.layers.0.att_dst f4 [1, 1, 64]
00000000: cbbc 8fbe a6ba 7ebe d422 253e 1348 88be
00000010: 1678 68be e9e9 1bbc 8802 54be 9b2b 2dbe
00000020: b5bc 063e eb47 2bbe 223d 5cbe b741 2e3e
00000030: 3943 613e 6e06 24be 209a 52be eb40 96bd
00000040: eee0 23be 8443 ffbd 7128 943d 652f 783d
00000050: c6e9 023e ae1c 37bd 24d5 d1bc f063 a1bd
00000060: ddf7 5dbe 8315 843e d3da a33d f16d 063e
00000070: 70ef fcba e5c5 17be 003b a4be 4f24 29be
00000080: 59aa 9e3e 2717 7b3d 5a91 a6be cb86 043e
00000090: 0bc5 da3d 85ea 663e 856f 19bc 8452 433e
000000a0: 3c35 4fbe c841 29be a008 303e b6ac 703e
000000b0: 8008 303e f1f2 3f3e ac82 90bd e81a 9fbe
000000c0: ff09 a63d 4f01 3cbd 2d9c ecbd 35e8 57be
000000d0: 390b 9fbe 45bb 71be 1846 3cbe a9ef 2abe
000000e0: f20d b4be b36c a4be d333 06bd b547 973e
000000f0: cf43 90be d7bb a4be c90c 99be f793 acbe
-0.28073725 -0.24875888 0.16126567 -0.26617488 -0.22702059 -0.009516218 -0.2070409 -0.16911165
0.13157924 -0.16726653 -0.21507695 0.17017256 0.219983 -0.16018078 -0.20566607 -0.07336601
-0.16003773 -0.124640495 0.07234276 0.060592074 0.1278449 -0.044705085 -0.025614329 -0.0788039
-0.21676584 0.25797662 0.08000722 0.13127877 -0.0019297432 -0.14821585 -0.32076263 -0.16517757
0.3098934 0.061301377 -0.3253277 0.12942044 0.10682114 0.225504 -0.009364967 0.19074446
-0.20235151 -0.16529 0.1719079 0.23503384 0.17190742 0.18745019 -0.07056174 -0.31075215
0.08107375 -0.045899685 -0.11553226 -0.21084674 -0.3106325 -0.23606594 -0.18386114 -0.16692986
-0.3516689 -0.3211418 -0.032764267 0.29546896 -0.28176734 -0.3217456 -0.29892567 -0.33706638

relational_layer.layers.0.bias f4 [64]
00000000: 0041 df3c e364 2a3c bbfc 83bc 58c9 0cbc
00000010: fa6a b3bc 1de6 a9bc 3a8c d4bc 0a0e 96ba
00000020: 2083 56bc 2720 0f3b 6ad2 dabc 1901 053d
00000030: 7d7d 5dbd 0b47 293d 3270 d7bb 1a16 e03b
00000040: eab4 243d 4e0f 5dbc ff35 b53b 1407 ad3b
00000050: b3b9 2fbd 6977 d3bc f532 41bd cea5 0bb9
00000060: 7be6 d3bc 5278 933c f062 c03c 00e5 ebbb
00000070: 14b0 a5bc 96fe e03c 658b bb3b 2866 473c
00000080: f5bc b7bc 205c 50bb f1e2 77bb b2e8 da3b
00000090: 54f8 48bc 425f 15bc be74 08bc b12a 103d
000000a0: f013 07bd e100 04bc eed9 a4bb d900 a03c
000000b0: b69f 873c 1db5 04bd b33d d1bc 336d 42bc
000000c0: 126b febc 734e c93b 67e1 20bb 9cea 963c
000000d0: abc4 88bc 947f 04bd 7d30 70bb daab ecbc
000000e0: 5eb9 4b3d 74fa 19bd 893a 8bbc 2a70 1dbc
000000f0: 62bc 163b 37d1 9cbc e5c9 efbc 7a4c 39bc
0.027252674 0.01040003 -0.016111722 -0.008592926 -0.021901596 -0.02073961 -0.025945771 -0.0011448276
-0.013092786 0.0021839233 -0.026711661 0.03247175 -0.054074753 0.041327517 -0.006574654 0.006838572
0.040211596 -0.013492418 0.0055301185 0.005280385 -0.042901706 -0.025813775 -0.047167737 -0.0001331784
-0.025866738 0.01800171 0.023484677 -0.00719893 -0.020225562 0.027465146 0.005723404 0.012170352
-0.022428969 -0.0031793192 -0.0037824477 0.0066805715 -0.012266237 -0.0091169495 -0.008328615 0.035196964
-0.032978 -0.00805685 -0.005030862 0.019531654 0.016555648 -0.032399286 -0.025542116 -0.011866855
-0.031056914 0.006143385 -0.0024548413 0.018422417 -0.016695341 -0.03234823 -0.0036649995 -0.028890539
0.049737327 -0.037592366 -0.016995685 -0.0096092615 0.0023000468 -0.01914273 -0.029271076 -0.011309737

relational_layer.layers.0.lin_src.weight f4 [64, 64]
00000000: 4f60 13be 47e8 a8bd a47e 1e3e aa16 64be
00000010: f758 893d 6995 5abd 8c6b 56bb 8dd9 20be
00000020: aa2c edbd 72ab 283e 2501 c03c 092d faba
00000030: 0584 84be 7375 86bb ae7e eabd 677d 42bd
00000040: bf0d 403d 8928 8c3d 9ab3 61be f4df 11be
00000050: 47db 13be 2eaa ad3c 412b 66be 3c88 ba3c
00000060: e661 a1bd 4a12 dbbc 707e 8fbd 9cfc 2bbd
00000070: 8125 533e 0b8d 513c adcc b03c 9f94 0bbe
00000080: b87f a23c 0d6f b5bd 9196 303d 0a13 53be
00000090: f0e4 ac3d 07e4 423e 822a 0abe 8766 e83c
000000a0: 36e9 c9bc 5dee 0dbe c3c9 5d3d c1ea 90bd
000000b0: 9374 463e bed8 56be 4241 2cbe 62c7 173e
000000c0: 52f0 68be f180 803c 76a6 5dbe d0fa 5d3e
000000d0: 0802 adbd d96d 05be ed99 363e 9b81 6abe
000000e0: 972b 813d 42d6 283e b166 2abe 44c0 bebd
000000f0: 6814 56bd c07b 92be 66da 383e 8221 18be
00000100: f500 03bc 5098 c6bd 90da 6dbe 9790 33bc
00000110: 9648 94bd 91e7 fd3d a94b 333e 77db e9bd
00000120: 1dfa 293e 190b 0abe f49a e43a 62e7 883d
00000130: e954 4cbe 26f8 4d3e caba 4bbd 5d19 2c3e
00000140: f666 0bbe d0e0 32be 574e 593e 7b67 533c
00000150: 84fd f1bd 3a7f 10be ebbc d3bc ff99 17be
00000160: 0dbd 7e3d 4fba a13d ed5b a73d 7bb7 253e
00000170: 722f 8d3d 719c 803d 80e4 e63d aa9e 68be
00000180: c4b9 eabc f193 fc3d 9026 e03d f25c cb3d
00000190: c522 64ba fec9 45be ac92 99bd 055c 183e
000001a0: 5f54 33bd e1ac a73c ebbb a03d f99a c0bd
000001b0: 9271 e73c ea97 163e bd0a 9eba 6ff2 e5bd
000001c0: 66be 13bd c2c6 fdbb 66bb 6c3d 73c8 543d
000001d0: 754f 11be eb00 86bd 5607 0b3d 0527 dd3d
000001e0: 4c2a 34bd 7114 2d3e 6735 f3bd 6264 903d
000001f0: cf4f e0bd a874 23be 2ab4 09be 03ce 93bc
00000200: f2c4 98bd e535 06be 6dd1 7ebe 66ee 143e
00000210: 7e6f fabd ed2a d7bc 5d5b 70be 154b 573e
00000220: 9103 36be ec1b 56bd 6f35 b53d 3b7e 9f3d
00000230: 626e 133d dae4 d9bc e3b6 063e 621f 313e
00000240: 834e 26be 514b b53d 2c72 0c3e 20bc 0fbd
00000250: 537e 5c3d dedc 01be 3354 253e 9349 6bbd
00000260: 026d ee3b b713 e2bd afda 8fbd cc1d cc3d
00000270: acff 24be 6644 733e 8739 8e3d babc 6ebd
00000280: 458c 15be 6b58 ed3d 1ec2 ffbc 5609 fb3c
00000290: b3d5 fb3d 375f c6bd fa85 633e e786 3fbe
000002a0: d334 2cbe 6c73 353e ba8a 6e3d 900f 003e
000002b0: cd62 9ebd 77d9 0cbc 88b1 b63d cfe4 ddbd
000002c0: f12f 1bbe 70ba ffbd 71f0 3f3c 9c21 5c3d
000002d0: 8445 183e c33c f8bb 9b44 263e 643a 133e
000002e0: a806 213e e516 d53d 2766 5f3b e6c1 05be
000002f0: d7cf 2dbe 0a1d 62bd 5a11 cb3c 7ef6 f7bd
00000300: 5d73 47be 3bf6 b83c a409 103e df14 03be
00000310: 8372 cebd 8c1e 46be 3e1c 403d e6e6 f2bd
00000320: 4fa5 9d3d 90a3 4dbc 26af 2738 228f 223d
00000330: 642a 2a3e 5d9b 77be cd7f 79bd 82ad 86bd
00000340: 1015 69bd 4577 00be 1035 ebbc d1d5 df3d
00000350: 6e39 62bd 605f 1dbe cef1 233e 2314 123e
00000360: 5c10 db3d 31ce 5d3e f2d0 9abd d1f0 0fbe
00000370: 2c27 5f3e c77b 6e3d cb24 52bd 55eb fabd
00000380: a711 39bd 09be c53d faaa e4bd de45 24bc
00000390: ea57 ddbd 7045 3cbe 8eaf 75be d717 3d3d
000003a0: ef01 c2bd 6bcb 0bbe 5827 633c dd54 87bc
000003b0: 25d2 2c3e cc13 70be 5141 25bd 3208 73bd
000003c0: 2ce2 b8bd 44cf 163d 4e77 3a3e c767 463e
000003d0: 77e8 543e e760 443d dfe5 97bd 94e8 42bd
000003e0: bf77 1fbe df57 d1bd ca3b e23d b7f7 5dbd
000003f0: 962e 403d adca 4ebe bd47 123e 8196 3fbe
-0.14392208 -0.082474284 0.15477997 -0.2227427 0.06706422 -0.053365145 -0.0032717912 -0.15707989
-0.115807846 0.16471651 0.023438046 -0.0019086908 -0.25881973 -0.0041033565 -0.114499435 -0.047482874
0.04688811 0.06843669 -0.22041169 -0.14245588 -0.14439116 0.021199312 -0.22477438 0.02277004
-0.07880001 -0.02674212 -0.07006538 -0.041988954 0.20619775 0.012789975 0.021581972 -0.13630913
0.019836292 -0.08859072 0.04311234 -0.20612732 0.08442104 0.19032298 -0.13492778 0.028369201
-0.024647336 -0.1386046 0.054147493 -0.07076026 0.19380407 -0.20981118 -0.16821769 0.14822152
-0.22747925 0.015686484 -0.21645531 0.21677709 -0.08447653 -0.13030185 0.17832156 -0.22901003
0.06307142 0.16487983 -0.16640736 -0.093140155 -0.052265555 -0.2861004 0.18052062 -0.14856532
-0.007995834 -0.0969702 -0.23227906 -0.010959766 -0.07240407 0.123976834 0.17509331 -0.11418813
0.16599317 -0.13480796 0.0017441199 0.06684758 -0.19954266 0.20114192 -0.049738683 0.1680655
-0.13613495 -0.17468572 0.2122129 0.01290309 -0.118159324 -0.14111033 -0.025846919 -0.14804839
0.06219201 0.07896864 0.0817183 0.16183273 0.06893815 0.06279839 0.11274052 -0.22716776
-0.028653033 0.12332905 0.10944855 0.09929837 -0.0008702691 -0.19315335 -0.074986786 0.14878853
-0.043781634 0.020468177 0.078483425 -0.09404559 0.028252397 0.14706388 -0.0012057644 -0.11227881
-0.03607025 -0.007744641 0.057795905 0.051948976 -0.14190467 -0.06543144 0.033942543 0.10798458
-0.04398565 0.16902329 -0.1187542 0.070503965 -0.10952722 -0.1596247 -0.13447633 -0.01804257
-0.07459439 -0.13106497 -0.24884577 0.14544067 -0.12228297 -0.026265586 -0.23472352 0.21024735
-0.17774798 -0.052272722 0.08848082 0.077877484 0.03599394 -0.026598383 0.13155703 0.17297128
-0.16240887 0.08852256 0.13715428 -0.03509152 0.05383141 -0.1268191 0.161454 -0.057443213
0.0072761783 -0.110389166 -0.070241325 0.09966621 -0.16113156 0.2375656 0.06944566 -0.058285452
-0.1460429 0.1158913 -0.031220492 0.0306441 0.12296619 -0.096861295 0.22219077 -0.18703805
-0.16817026 0.17719811 0.05823777 0.12505937 -0.077336885 -0.0085967695 0.0892058 -0.108346574
-0.15155007 -0.12486732 0.011715041 0.05374299 0.14870268 -0.0075756027 0.16237108 0.14377743
0.15725195 0.104047574 0.0034087987 -0.13062248 -0.16973816 -0.055203475 0.024788547 -0.121075615
-0.19477601 0.02257835 0.14066178 -0.1280093 -0.10080435 -0.1934759 0.046901934 -0.11860447
0.07697546 -0.012551203 3.9979022e-05 0.039687283 0.16617733 -0.2418036 -0.060912896 -0.06576063
-0.056904852 -0.12545498 -0.028711826 0.10929454 -0.05523055 -0.15368414 0.1601021 0.14265494
0.1069648 0.21660687 -0.075593844 -0.14056708 0.21792287 0.058223512 -0.05130462 -0.12251917
-0.04518285 0.09655387 -0.11165424 -0.010026423 -0.10807784 -0.18385863 -0.2399275 0.046165314
-0.09473025 -0.13651817 0.013864361 -0.016519958 0.16877039 -0.23445052 -0.040345494 -0.059333988
-0.09027514 0.036818758 0.18209574 0.19375525 0.20791803 0.047943976 -0.07416891 -0.047585085
-0.15573023 -0.10221838 0.1104656 -0.054191317 0.046919428 -0.20194502 0.14285178 -0.18709756

relational_layer.layers.0.lin_dst.weight f4 [64, 64]
00000000: 4f60 13be 47e8 a8bd a47e 1e3e aa16 64be
00000010: f758 893d 6995 5abd 8c6b 56bb 8dd9 20be
00000020: aa2c edbd 72ab 283e 2501 c03c 092d faba
00000030: 0584 84be 7375 86bb ae7e eabd 677d 42bd
00000040: bf0d 403d 8928 8c3d 9ab3 61be f4df 11be
00000050: 47db 13be 2eaa ad3c 412b 66be 3c88 ba3c
00000060: e661 a1bd 4a12 dbbc 707e 8fbd 9cfc 2bbd
00000070: 8125 533e 0b8d 513c adcc b03c 9f94 0bbe
00000080: b87f a23c 0d6f b5bd 9196 303d 0a13 53be
00000090: f0e4 ac3d 07e4 423e 822a 0abe 8766 e83c
000000a0: 36e9 c9bc 5dee 0dbe c3c9 5d3d c1ea 90bd
000000b0: 9374 463e bed8 56be 4241 2cbe 62c7 173e
000000c0: 52f0 68be f180 803c 76a6 5dbe d0fa 5d3e
000000d0: 0802 adbd d96d 05be ed99 363e 9b81 6abe
000000e0: 972b 813d 42d6 283e b166 2abe 44c0 bebd
000000f0: 6814 56bd c07b 92be 66da 383e 8221 18be
00000100: f500 03bc 5098 c6bd 90da 6dbe 9790 33bc
00000110: 9648 94bd 91e7 fd3d a94b 333e 77db e9bd
00000120: 1dfa 293e 190b 0abe f49a e43a 62e7 883d
00000130: e954 4cbe 26f8 4d3e caba 4bbd 5d19 2c3e
00000140: f666 0bbe d0e0 32be 574e 593e 7b67 533c
00000150: 84fd f1bd 3a7f 10be ebbc d3bc ff99 17be
00000160: 0dbd 7e3d 4fba a13d ed5b a73d 7bb7 253e
00000170: 722f 8d3d 719c 803d 80e4 e63d aa9e 68be
00000180: c4b9 eabc f193 fc3d 9026 e03d f25c cb3d
00000190: c522 64ba fec9 45be ac92 99bd 055c 183e
000001a0: 5f54 33bd e1ac a73c ebbb a03d f99a c0bd
000001b0: 9271 e73c ea97 163e bd0a 9eba 6ff2 e5bd
000001c0: 66be 13bd c2c6 fdbb 66bb 6c3d 73c8 543d
000001d0: 754f 11be eb00 86bd 5607 0b3d 0527 dd3d
000001e0: 4c2a 34bd 7114 2d3e 6735 f3bd 6264 903d
000001f0: cf4f e0bd a874 23be 2ab4 09be 03ce 93bc
00000200: f2c4 98bd e535 06be 6dd1 7ebe 66ee 143e
00000210: 7e6f fabd ed2a d7bc 5d5b 70be 154b 573e
00000220: 9103 36be ec1b 56bd 6f35 b53d 3b7e 9f3d
00000230: 626e 133d dae4 d9bc e3b6 063e 621f 313e
00000240: 834e 26be 514b b53d 2c72 0c3e 20bc 0fbd
00000250: 537e 5c3d dedc 01be 3354 253e 9349 6bbd
00000260: 026d ee3b b713 e2bd afda 8fbd cc1d cc3d
00000270: acff 24be 6644 733e 8739 8e3d babc 6ebd
00000280: 458c 15be 6b58 ed3d 1ec2 ffbc 5609 fb3c
00000290: b3d5 fb3d 375f c6bd fa85 633e e786 3fbe
000002a0: d334 2cbe 6c73 353e ba8a 6e3d 900f 003e
000002b0: cd62 9ebd 77d9 0cbc 88b1 b63d cfe4 ddbd
000002c0: f12f 1bbe 70ba ffbd 71f0 3f3c 9c21 5c3d
000002d0: 8445 183e c33c f8bb 9b44 263e 643a 133e
000002e0: a806 213e e516 d53d 2766 5f3b e6c1 05be
000002f0: d7cf 2dbe 0a1d 62bd 5a11 cb3c 7ef6 f7bd
00000300: 5d73 47be 3bf6 b83c a409 103e df14 03be
00000310: 8372 cebd 8c1e 46be 3e1c 403d e6e6 f2bd
00000320: 4fa5 9d3d 90a3 4dbc 26af 2738 228f 223d
00000330: 642a 2a3e 5d9b 77be cd7f 79bd 82ad 86bd
00000340: 1015 69bd 4577 00be 1035 ebbc d1d5 df3d
00000350: 6e39 62bd 605f 1dbe cef1 233e 2314 123e
00000360: 5c10 db3d 31ce 5d3e f2d0 9abd d1f0 0fbe
00000370: 2c27 5f3e c77b 6e3d cb24 52bd 55eb fabd
00000380: a711 39bd 09be c53d faaa e4bd de45 24bc
00000390: ea57 ddbd 7045 3cbe 8eaf 75be d717 3d3d
000003a0: ef01 c2bd 6bcb 0bbe 5827 633c dd54 87bc
000003b0: 25d2 2c3e cc13 70be 5141 25bd 3208 73bd
000003c0: 2ce2 b8bd 44cf 163d 4e77 3a3e c767 463e
000003d0: 77e8 543e e760 443d dfe5 97bd 94e8 42bd
000003e0: bf77 1fbe df57 d1bd ca3b e23d b7f7 5dbd
000003f0: 962e 403d adca 4ebe bd47 123e 8196 3fbe
-0.14392208 -0.082474284 0.15477997 -0.2227427 0.06706422 -0.053365145 -0.0032717912 -0.15707989
-0.115807846 0.16471651 0.023438046 -0.0019086908 -0.25881973 -0.0041033565 -0.114499435 -0.047482874
0.04688811 0.06843669 -0.22041169 -0.14245588 -0.14439116 0.021199312 -0.22477438 0.02277004
-0.07880001 -0.02674212 -0.07006538 -0.041988954 0.20619775 0.012789975 0.021581972 -0.13630913
0.019836292 -0.08859072 0.04311234 -0.20612732 0.08442104 0.19032298 -0.13492778 0.028369201
-0.024647336 -0.1386046 0.054147493 -0.07076026 0.19380407 -0.20981118 -0.16821769 0.14822152
-0.22747925 0.015686484 -0.21645531 0.21677709 -0.08447653 -0.13030185 0.17832156 -0.22901003
0.06307142 0.16487983 -0.16640736 -0.093140155 -0.052265555 -0.2861004 0.18052062 -0.14856532
-0.007995834 -0.0969702 -0.23227906 -0.010959766 -0.07240407 0.123976834 0.17509331 -0.11418813
0.16599317 -0.13480796 0.0017441199 0.06684758 -0.19954266 0.20114192 -0.049738683 0.1680655
-0.13613495 -0.17468572 0.2122129 0.01290309 -0.118159324 -0.14111033 -0.025846919 -0.14804839
0.06219201 0.07896864 0.0817183 0.16183273 0.06893815 0.06279839 0.11274052 -0.22716776
-0.028653033 0.12332905 0.10944855 0.09929837 -0.0008702691 -0.19315335 -0.074986786 0.14878853
-0.043781634 0.020468177 0.078483425 -0.09404559 0.028252397 0.14706388 -0.0012057644 -0.11227881
-0.03607025 -0.007744641 0.057795905 0.051948976 -0.14190467 -0.06543144 0.033942543 0.10798458
-0.04398565 0.16902329 -0.1187542 0.070503965 -0.10952722 -0.1596247 -0.13447633 -0.01804257
-0.07459439 -0.13106497 -0.24884577 0.14544067 -0.12228297 -0.026265586 -0.23472352 0.21024735
-0.17774798 -0.052272722 0.08848082 0.077877484 0.03599394 -0.026598383 0.13155703 0.17297128
-0.16240887 0.08852256 0.13715428 -0.03509152 0.05383141 -0.1268191 0.161454 -0.057443213
0.0072761783 -0.110389166 -0.070241325 0.09966621 -0.16113156 0.2375656 0.06944566 -0.058285452
-0.1460429 0.1158913 -0.031220492 0.0306441 0.12296619 -0.096861295 0.22219077 -0.18703805
-0.16817026 0.17719811 0.05823777 0.12505937 -0.077336885 -0.0085967695 0.0892058 -0.108346574
-0.15155007 -0.12486732 0.011715041 0.05374299 0.14870268 -0.0075756027 0.16237108 0.14377743
0.15725195 0.104047574 0.0034087987 -0.13062248 -0.16973816 -0.055203475 0.024788547 -0.121075615
-0.19477601 0.02257835 0.14066178 -0.1280093 -0.10080435 -0.1934759 0.046901934 -0.11860447
0.07697546 -0.012551203 3.9979022e-05 0.039687283 0.16617733 -0.2418036 -0.060912896 -0.06576063
-0.056904852 -0.12545498 -0.028711826 0.10929454 -0.05523055 -0.15368414 0.1601021 0.14265494
0.1069648 0.21660687 -0.075593844 -0.14056708 0.21792287 0.058223512 -0.05130462 -0.12251917
-0.04518285 0.09655387 -0.11165424 -0.010026423 -0.10807784 -0.18385863 -0.2399275 0.046165314
-0.09473025 -0.13651817 0.013864361 -0.016519958 0.16877039 -0.23445052 -0.040345494 -0.059333988
-0.09027514 0.036818758 0.18209574 0.19375525 0.20791803 0.047943976 -0.07416891 -0.047585085
-0.15573023 -0.10221838 0.1104656 -0.054191317 0.046919428 -0.20194502 0.14285178 -0.18709756

action_layer.layer1.0.weight f4 [128, 128]
00000000: a09c 2d3c d249 f8bb b421 7fbd c2d0 8abd
00000010: d60d 3a3d 5e65 27bd 1cbb 83bd 29c3 cabd
00000020: 1b41 e43a 193a 9e3d 8aca 223d d65c 14bd
00000030: be32 d33c e0ea 603d 61a1 46bb 50b2 cc3b
00000040: f8c1 87bd ea8d 36bc 1764 1eba b7e4 a2bd
00000050: 9615 8f3d c45d 2f3d e970 c5bb 070b 253c
00000060: 95eb 5ebd bcb8 a8bb b12f 993d 6247 6bbc
00000070: d6db 253d 00f7 abbc 0468 1a3d 3540 103d
00000080: 9040 4bbd bcf7 75bd 1d75 453c 4c98 8e3d
00000090: cfec 813c 5389 ab3c 3548 eb3b dae5 5dbd
000000a0: a3d0 67bc ab82 e83c eb92 cbbc 4007 3fbb
000000b0: e13c e53c 9bd8 343d 8e19 1e3d 1f35 ad3d
000000c0: 81b8 86bd fb49 4c3b 158b bdbc f6f4 23bc
000000d0: 87d4 9b3d d39d 773d cd70 4d3d 88c3 073c
000000e0: 3e50 3a3c 6e58 a33d 8c7f e6bc 8718 4d3d
000000f0: 25ca 8fbc 0ae4 7d3c 6c7b 07bd 494e a93d
00000100: f6e8 603d 959b 0fbd 4e2f bbbd 0647 5dbc
00000110: 14ee a2bd c38c 8e3c 0c34 2cbd d063 dd3c
00000120: bc46 573d 0ab9 8f3d d666 52bc 0640 233d
00000130: 92ca 5cbc 7235 8038 fc43 8d3d 0514 8cbd
00000140: 6d24 12bd 9031 82bc 6c4d 0d3d e47b 293d
00000150: 8ff2 28bd 1336 3dbc a9fb 883d 6c9e 7dbc
00000160: bdba 5f3d c654 993c 4a71 4d3d cb08 ad3b
00000170: 31b2 283c 56da 93bd 248e b03d af27 01bc
00000180: 90f3 99bd 4f08 d2bc 9f10 743d 7884 1b3d
00000190: 2f84 3cbd 5f1a 433d cfb0 b8bd 7d1f 143d
000001a0: 9a03 0b3d f0ce b13d 12e6 83bc 0143 923d
000001b0: 33cb 52bc a856 1f3c 10a0 a73c 5438 de3d
000001c0: 00e6 e4bc 3d27 863d 66fc 5aba cb04 4b3d
000001d0: acbb 49bc 5a9e 533d 4b4f 2cbd dcfc 6b3d
000001e0: 0e3c 403c cba8 24bd 1db3 59bd 5bf4 ef3b
000001f0: 6223 963c aca4 c63c f8ff e23b ba26 8fbc
00000200: b0b0 dabb 8e53 4a38 e88e c6bb b457 913d
00000210: 3957 0cbe 2818 9b3d 7208 a03d 90e7 1a3d
00000220: 9bcf a2bc 4057 773d 0ba8 123b a4e3 9cbd
00000230: 919e 8e3c 0cd8 5c3d 11a9 7e3d f55d 97bc
00000240: b58f 5fbd 6946 26bd 9fb1 94bd ca85 dc3c
00000250: 26c9 dcbc 3549 dcbd 50b9 1f3d 3772 48bd
00000260: a382 7c3d 9920 513d 1b09 20bd 4ea3 463d
00000270: 33fe 4e3d d166 10bd 5753 7b3d c021 9ebc
00000280: 48ba 473d 9a75 dcbc 99f8 bc3c bbd6 993d
00000290: 47c2 1dbd 6b94 233d 74dc 86bc 2128 7d3d
000002a0: a0cd 84bc 4729 393d ba06 9c3c 18a2 b1bd
000002b0: 594e 083c f69b 983d ca9c 723c 7fd7 d1bd
000002c0: c282 723c 471a 26bd 095b de3c cc85 4d3d
000002d0: f5f5 b8bc af7e 08bd 934f aabd 8ef6 a93d
000002e0: 4dad 0f3d a24c 0b3d 36c8 f6bc e046 2a3d
000002f0: c3a1 02bd c30f 2f3d 2c4a 5a3c 69ea 4d3d
00000300: f83f ddbb 6da2 c5ba 3bec a8bd e42d 963d
00000310: 0cc8 44bc 7f8b c4bc 0112 2d3d d8f9 6cbd
00000320: e69c 0c3d ce86 cfbb 9892 0c3d 1af6 92bd
00000330: 0f4d 1ebd e519 8b3d 7078 72bc f56a 963d
00000340: cae2 ba3d db24 4d3d 9689 a53d 0e8c ef3b
00000350: 6adf f7bd e5c3 2fbd 06dd 35bc 78e6 163c
00000360: a5b9 afbd 43b6 43bd 543e af3d 7011 6c3d
00000370: cba0 bc3c e217 adbd 9738 92bd 89b0 6bbd
00000380: b4cb 23bd 51fc 983d 4157 2e3d e3bd cf3d
00000390: f0ab 7dbd af32 c73c 3428 1c3c 4687 14bd
000003a0: cdeb e1bc 34ed edbd c327 76bd 1e37 803c
000003b0: 9e9b 7a3b de8b 54bd addf febd c4ea cf3d
000003c0: c417 98bc a591 083d 8d74 b33d 658f 6c3d
000003d0: a8a0 71bd 2d15 24bd 1298 943d 7314 ad3c
000003e0: c944 4d3d cd7f 9f3d 2835 9c3d 8657 723c
000003f0: 4e75 2dbc 4829 3d3d 2f51 8abd 02ad 023e
0.010596424 -0.0075771594 -0.062288 -0.06778099 0.04542335 -0.040868156 -0.06432173 -0.09900505
0.0017414422 0.07725925 0.039743938 -0.036221348 0.025781032 0.054911494 -0.0030308592 0.0062468424
-0.066287935 -0.011142233 -0.0006042136 -0.0795378 0.06986539 0.04281403 -0.006025423 0.01007343
-0.054423887 -0.005148975 0.074797995 -0.014360281 0.040492855 -0.020991802 0.037696853 0.035217483
-0.04962212 -0.06005071 0.012051848 0.06962642 0.01585999 0.020939505 0.0071802386 -0.05417428
-0.014148864 0.02838262 -0.02485033 -0.0029148608 0.02798313 0.044151884 0.03859859 0.08457398
-0.0657816 0.0031172025 -0.023137609 -0.010007134 0.07608896 0.060453247 0.050156403 0.008286364
0.01137167 0.07975851 -0.028136991 0.05007222 -0.017552445 0.015496263 -0.03307669 0.08266885
0.05490967 -0.035060484 -0.09139882 -0.013505703 -0.07955566 0.017401105 -0.042041823 0.027025133
0.052557692 0.07017715 -0.012841901 0.03985598 -0.013476031 6.1134706e-05 0.068977326 -0.06839756
-0.03567927 -0.015892774 0.034497663 0.041377917 -0.041246947 -0.011548537 0.06688625 -0.015479665
0.054621447 0.018717181 0.05015687 0.005280589 0.01029639 -0.07219379 0.08620861 -0.007882996
-0.07517159 -0.025638727 0.059586164 0.03796813 -0.046024498 0.04763257 -0.090180986 0.036162842
0.03393898 0.08682048 -0.016100917 0.07141686 -0.012865829 0.00972525 0.020462066 0.108505875
-0.027941704 0.06550453 -0.00083536503 0.049565118 -0.012312811 0.051664688 -0.042067807 0.057614192
0.011733068 -0.040200036 -0.05314933 0.0073228306 0.018327419 0.024248444 0.0069274865 -0.017474521
-0.006673895 4.823837e-05 -0.006059516 0.07096806 -0.13705148 0.07572967 0.07814111 0.03781849
-0.019874385 0.060385942 0.0022377993 -0.076606065 0.017409595 0.053916976 0.062172953 -0.01847742
-0.05458041 -0.040594492 -0.07260441 0.026919264 -0.026951384 -0.10756151 0.038995087 -0.04893705
0.061648022 0.05105648 -0.039071184 0.048495583 0.050535392 -0.035254303 0.061358776 -0.019303203
0.048761636 -0.026911546 0.02306776 0.0751166 -0.038515355 0.039936464 -0.016462542 0.061805848
-0.01621133 0.04520538 0.019046176 -0.08673495 0.008319461 0.07451622 0.014807889 -0.10246181
0.014801683 -0.040552404 0.027143018 0.050176427 -0.022578219 -0.03332394 -0.08315959 0.0829898
0.035077382 0.03400863 -0.030124765 0.041571498 -0.03189255 0.04273964 0.013323348 0.05027238
-0.0067520104 -0.0015078314 -0.082481824 0.07332972 -0.0120105855 -0.023992298 0.042253498 -0.057855457
0.034329318 -0.0063332086 0.03431949 -0.071758464 -0.038647708 0.06792048 -0.014799222 0.07344619
0.09125288 0.050083976 0.08082883 0.007310397 -0.1210316 -0.04291143 -0.011100059 0.0092102215
-0.08580331 -0.04778124 0.0855681 0.057633817 0.02302589 -0.08451821 -0.071397 -0.057541404
-0.03998919 0.074700005 0.04256368 0.1014364 -0.06193155 0.02431616 0.00953107 -0.03626182
-0.027578259 -0.116175085 -0.060096513 0.015651282 0.0038239728 -0.0518912 -0.124450065 0.101522
-0.01856602 0.033342022 0.08762465 0.05775394 -0.058991104 -0.040059257 0.072555676 0.021127915
0.050114427 0.07788048 0.07627326 0.014791375 -0.01058705 0.046181947 -0.06753766 0.1276131

action_layer.layer1.0.bias f4 [128]
00000000: 8620 e83d b287 1e3c dc28 113d 1d46 e53b
00000010: bcc9 0abd f982 a7bd 7a6e 91bc ba53 463a
00000020: e14e 9ebd 9a32 a6bd b22e 1dbd e017 a5bd
00000030: 82a6 253d 9824 4a3d 90dd 8b3c 670b 613d
00000040: 84d7 6ebd ab15 0cbc 4dd3 823c ecf5 30bc
00000050: 265f 8fbd e218 95bd 7be8 a43d aa6f 9a3d
00000060: 7629 5ebd ad0a 9f3d 532f d4bd b32d ae3c
00000070: 963b d63b 6f61 243d a0f2 d03b 57ac 0b3d
00000080: 7821 6d3c 4356 1d3c b751 de3c 7aff d23c
00000090: 003a c2bc aa75 883b caeb 123d a76a 78bd
000000a0: e198 d23c eb58 c13d 1357 393b a73f 0d3d
000000b0: c3e9 b23d 9c08 06bd 87a1 9dbd f1c9 7c3c
000000c0: 4599 8b3d 0024 67bd fd72 94bc 5bad 89bd
000000d0: 228b 073d f05f 19bc 442f 1abd f189 4fbd
000000e0: cc64 a9bc 51d3 04bd c8f3 99bc ce75 17bd
000000f0: 4c24 473d 2e58 8abd 1601 843b 9e52 a6bd
00000100: fe5e d23c 2616 603c 6034 7bbd 3bce 38bd
00000110: a46d f03c b3c5 52bd 8ec1 693d fa03 2bbd
00000120: 27a1 c6bc 9267 d63c 68a1 3fbc 3cff 0fbd
00000130: db01 5abd 5a01 6c3d 7b71 49bd 8a93 aa3d
00000140: 056d 42bd 2e9b af3d cb19 c3bc bcbf 66bd
00000150: 73a7 66bd 3ea4 353d 5efe 5fbb c055 98bc
00000160: 39c9 883d e41e 533d 7d62 cc3c af47 37bd
00000170: 0153 b4bc dcf0 6abd 91c4 c23d fb21 c5bc
00000180: 9811 4ebd 33f2 443c c23e 56bd cb52 f1bb
00000190: 7fbe cb3b f923 e5ba 3265 77bd 7f05 d13c
000001a0: d020 c4bd 5c92 583d 167c 78bd b47a c1bd
000001b0: 9ecb b6bd 10c0 9abd 676a 1d3d 3947 05bc
000001c0: 95ab b2bc 99fe 063c 8f3e e3bb 66b6 0e3d
000001d0: f867 8bbd bc26 21bd 404c 833d fceb 273d
000001e0: f8bd 773d 9812 863d 586f 88bd 16b4 acbb
000001f0: 33ca 643d 9dd0 d33c caac d5bd 0140 10bd
0.11334328 0.009675907 0.035439357 0.0069968835 -0.033883795 -0.08179278 -0.017752875 0.0007565577
-0.07729889 -0.0811512 -0.03837461 -0.080611944 0.040441997 0.049351305 0.017073423 0.054942515
-0.058311 -0.008550088 0.015969897 -0.01080082 -0.0700057 -0.07280137 0.08052155 0.075408295
-0.05423876 0.07765708 -0.10360589 0.021262025 0.006537865 0.040131982 0.0063765794 0.034099903
0.014473312 0.009603086 0.027138574 0.025756586 -0.023709297 0.0041644173 0.035869397 -0.060648587
0.025707664 0.09440788 0.002828066 0.03448453 0.08735993 -0.032723054 -0.076968245 0.015429006
0.06816343 -0.056430817 -0.018121237 -0.06722518 0.03309167 -0.009361252 -0.037642732 -0.05066866
-0.020677947 -0.03242809 -0.018793002 -0.03697758 0.0486186 -0.067551 0.0040284498 -0.08121227
0.025680061 0.013677156 -0.061329246 -0.04511855 0.029349156 -0.051458072 0.057069354 -0.04175184
-0.024246765 0.026172433 -0.011696197 -0.03515552 -0.053224426 0.057618476 -0.04918049 0.08328922
-0.04746725 0.0857452 -0.02381601 -0.056335196 -0.056312036 0.044346087 -0.0034178714 -0.018595576
0.06679005 0.05154313 0.024949307 -0.044746097 -0.022012236 -0.057358608 0.09510148 -0.024064055
-0.050309747 0.012020635 -0.052305944 -0.007364606 0.0062177773 -0.0017482034 -0.06039924 0.025515316
-0.09576571 0.052873954 -0.060665213 -0.09447232 -0.08925556 -0.07556164 0.03843155 -0.008134657
-0.021810332 0.008239412 -0.006934948 0.034841917 -0.0680694 -0.03934358 0.06411028 0.040996537
0.060483903 0.06546515 -0.06661862 -0.0052704914 0.055856895 0.02585631 -0.104333475 -0.03521729

action_layer.layer1.1.weight f4 [2, 128]
00000000: 6970 39bd 96bf a9ba 7d00 31bd 44cc 48bb
00000010: cb71 863c 6e4c fdbc b36c 01bd 383b 2abe
00000020: bbf6 edbd 069b c03d 3985 63bd 3851 1b3d
00000030: 0188 6abd 9b78 d8bc 31bb a0bc 0867 08bd
00000040: 07b8 ff3d 953c 53bd 7408 ba3d 416a 8fbd
00000050: ffa3 aebc beb9 203d ddf1 8fbd a042 87bc
00000060: 7a32 ba3d 9cce 01bd 8927 923d 2d3a 823c
00000070: 3106 673c ade0 babc 0f38 51be 2b41 6a3d
00000080: 092a b3bd 9a90 2ebe 19fd 7a3d c76f bdbd
00000090: 0161 72bd d36f 013e 2b77 b7bc c267 96bd
000000a0: 83ed 00be 0816 1abe 3a3d ee3c e89b 56bc
000000b0: 509a 6ebd b055 0f3e 3fb8 4b3b f5c7 ea3c
000000c0: 5fb6 f6bd 5c12 613d bb8b 413d daab fdbc
000000d0: fbe4 8b3d 0df3 cabc 1d5e 0d3e bcdb 023d
000000e0: cad9 c33d 289a 123e 7249 6e3d de97 23bc
000000f0: fcd0 de3b 359b d2bd 0925 c93c 42af 8abd
00000100: f94e 2cbc c7be e0bb 425d 51be 34c6 c33d
00000110: 713b 3cbd 867c 02bc 570c 9dbd 5847 fb3d
00000120: 42a6 acbc c073 3dbd cb1c a5bd b53e 373e
00000130: 2dc2 77bb c6bb dbbd 4377 e8bd 434d aabc
00000140: 396d fcbd dbde 84bd 3a5d e7bc 5a1e 313d
00000150: 0c50 67bb 58cd 25bb 697d cf3c fe0b a1bc
00000160: 7d2f 0abc 7d4b c13d 7e43 57bd 4814 4cbc
00000170: fa52 f23d 19d9 0dbd 1a26 6fbd a465 bebc
00000180: 3c6c 7ebd ba46 fdbc b602 fb3c ba66 35bd
00000190: 92f8 803d 7817 12be d6a5 e7bb ca82 5d3c
000001a0: 3f1e 223d 1f47 8b3c ac5b 2bbe a256 043d
000001b0: 5542 903d 6279 723d 1651 4dbc 192e 8abd
000001c0: 0a92 1c3e c99b 2ebd cbed f1bc c502 2abd
000001d0: d678 0d3e 977e 043d f72f 20bd d53a 813b
000001e0: d2cb 5fbc 6bbd e43d f870 263d 71f6 173d
000001f0: ed31 54bd f73b 4d3d a897 913d 00f7 8ebd
00000200: a818 093d a7e8 353d 8ba0 acbd 90d3 eebd
00000210: 7868 07be adeb cf3d 92ea bf3c a32e a63c
00000220: d05c 9dbd 31bb 8dbd 3d0d 1bbe 7bf1 babd
00000230: 810d a13d 5ed2 b4bd c4d5 76bd b99f 683d
00000240: 8ca5 96bc c29b dc3d ff85 c23d 5f1d 533e
00000250: df10 15be e362 74bc debd db3d 38c1 2c3d
00000260: ced0 9dbd 32d1 393d ab8b e43d 9550 80bd
00000270: f4c5 d1bd ad20 e63c 19f6 fcbd c091 393d
00000280: 4f15 f9bd ef87 89bd 1326 42bd 5c60 2abd
00000290: 12c3 803d e854 713c 503c 043e 2d17 5e3d
000002a0: 38d8 d0bd 309d 0fbe ed74 e8bd 7368 703d
000002b0: d9ca ccbc e91d 433e c520 75bd 82d8 d13c
000002c0: 3c51 a7bd e231 4ebd 5047 14be 93e9 bb3d
000002d0: 00a5 043e 3c76 f9bd 6f3e 37bd f7b1 133d
000002e0: c54b 823d b266 c43d 1f68 9fbd fddc 08be
000002f0: 5948 9dbd afee fabd 1736 d7bd 07f3 703d
00000300: 15d3 d4bd 078b 1bbd d6d2 a0bd e5be b6bd
00000310: 619f 8fbd f0f5 9c3d 31b4 6ebc 216d 32bd
00000320: 00af 643d 9cb4 893d a049 08be ec45 71bd
00000330: 3bfb c23d 4c70 f7bd f875 00be dc82 ebbc
00000340: b3eb 0dbe 3ed1 63bd 2c3a 943d 7889 ae3d
00000350: 3bb0 ecbc b0aa 3abd 537f 20be fd7f 053d
00000360: bdf4 b9bd 21ac aa3d ff05 033d 7115 b5bd
00000370: 98a3 d43c e658 543d 9247 223c d169 523d
00000380: 8ffd 263d d9d8 1b3e abbb 133e af31 7abd
00000390: 180d 83bc 491f 5bbd ecb9 de3c 5c78 0b3e
000003a0: c416 93bd b1ac f53d 656f c33d 034f 49bd
000003b0: d6c7 703d fd92 c03d ed2a 863d de88 76bd
000003c0: d3cf 07bd d0a1 003e 79a4 183c f06b a2bd
000003d0: 14a6 663d 0d39 28be 8575 fa3c 80c1 073e
000003e0: d79b 14be c15e fb3d 08d9 903d e2db f2bd
000003f0: 925b c03c f6ca 3fbd 0919 6bbd cb9b 013c
-0.04527322 -0.0012950774 -0.043213356 -0.003063933 0.016411683 -0.030920234 -0.031597804 -0.16624153
-0.11619326 0.094045684 -0.055546973 0.037919253 -0.05725861 -0.026424697 -0.01962051 -0.033301383
0.12486272 -0.051571447 0.090836436 -0.07002688 -0.021318434 0.039239638 -0.07028554 -0.016511261
0.09091659 -0.03169118 0.07136447 0.015896881 0.014100597 -0.022812212 -0.20431541 0.057191055
-0.08748252 -0.17047349 0.06127653 -0.092498355 -0.05917454 0.12640314 -0.02239569 -0.07344009
-0.12590604 -0.15047467 0.02908193 -0.013098694 -0.058252633 0.13997531 0.003108516 0.0286598
-0.12046503 0.05494915 0.047252398 -0.030965734 0.06830784 -0.024774099 0.13805433 0.031947836
0.09563024 0.14316618 0.05817551 -0.009984938 0.006799815 -0.1028351 0.024553793 -0.06771709
-0.010516875 -0.00685868 -0.20445731 0.095592886 -0.045955125 -0.007964259 -0.07668369 0.12269467
-0.021075372 -0.046252966 -0.080621324 0.17895015 -0.0037804947 -0.10729174 -0.11350872 -0.020788794
-0.1232552 -0.06487819 -0.028242696 0.043241836 -0.0035295514 -0.0025299396 0.025328355 -0.019659039
-0.008434174 0.09438226 -0.0525546 -0.012456007 0.11832233 -0.03463087 -0.058385946 -0.023241825
-0.06211494 -0.030917514 0.030640941 -0.04428742 0.06297411 -0.14266765 -0.0070693297 0.013519952
0.039579626 0.017001687 -0.16734189 0.032309182 0.07043902 0.05919779 -0.012531539 -0.06747074
0.15290084 -0.042629037 -0.029532334 -0.041506547 0.13815627 0.032347288 -0.039108243 0.003943781
-0.013659434 0.11168941 0.04063508 0.03710026 -0.051805425 0.050106015 0.07109004 -0.06980705
0.03347078 0.044411328 -0.08429059 -0.11661446 -0.13223445 0.101523735 0.023427282 0.02028591
-0.07683718 -0.069204696 -0.15141769 -0.0912809 0.07863904 -0.08829187 -0.060262457 0.05679295
-0.018389486 0.10771896 0.09498214 0.20616673 -0.14557217 -0.014916155 0.10729574 0.042176455
-0.07705842 0.04536552 0.11159452 -0.0626537 -0.10242835 0.028091753 -0.12351627 0.045305014
-0.121622674 -0.067153804 -0.04739959 -0.0415958 0.06287207 0.014729716 0.12913632 0.05422132
-0.101974905 -0.14024806 -0.11350427 0.05869336 -0.024999069 0.19054379 -0.059845705 0.025615934
-0.08169791 -0.05034054 -0.14480329 0.0917541 0.12953568 -0.121807545 -0.044737276 0.036058392
0.06362108 0.095899 -0.077835314 -0.1336555 -0.07679815 -0.122525565 -0.10508364 0.05882552
-0.10391823 -0.037974384 -0.07852714 -0.08923129 -0.07012821 0.07664096 -0.014569328 -0.043561105
0.055830956 0.06723902 -0.13309336 -0.058904573 0.09520575 -0.12081966 -0.12545002 -0.028748922
-0.13859443 -0.05561947 0.07237658 0.08522314 -0.028892627 -0.045572937 -0.1567357 0.032592762
-0.09079883 0.08333612 0.03198814 -0.0884198 0.025956914 0.051842593 0.009904759 0.051370446
0.040769156 0.1521944 0.14427058 -0.06108254 -0.015997455 -0.053496633 0.027188264 0.13620132
-0.071820766 0.11995829 0.09542731 -0.049147617 0.05878433 0.09403036 0.06551156 -0.06018912
-0.03315718 0.12561727 0.009316557 -0.07930744 0.05631073 -0.16428013 0.030573616 0.13257408
-0.14512573 0.12273932 0.070726454 -0.118583456 0.023481164 -0.046824418 -0.057396922 0.007910679

action_layer.layer1.1.bias f4 [2]
00000000: ac30 433d 45e6 00bd
0.04765384 -0.031469602

encoding_layer.layer.0.weight f4 [64, 180]
00000000: ecf4 293d 970f 26bd 5bc9 473d da4a 923d
00000010: c653 74bd 42bf 83bd 3ef2 3cbd ac85 333c
00000020: 7cf2 3bbd c85b 1b3d f9ed 01be 6d8b d0bc
00000030: 55f8 1dbd 9e9a 7fbd 5e58 083d e2e4 6fbb
00000040: 5ab0 79bd a369 34bd 0e70 1bbc 6572 65bc
00000050: 6645 873d b31d 3dbc d920 803d e1e2 e03d
00000060: 800f 76bd 8084 ae3d 5aeb 893c eddd 5dbd
00000070: 64d5 49bd 3883 4bbb 7f1d 9fbd 9e46 b7bb
00000080: d0ab 44bd c766 82bd 58c3 083d 9bb5 c33b
00000090: b11c f9ba 6ccc 5b3d 8b16 e43b 6703 143d
000000a0: 76a0 d63c 7aa7 90bd fbf9 ba3c cada a83d
000000b0: a97d 303d 5fb5 12bd d041 c33d 288d 3a3d
000000c0: d27b 4e3d c694 26bd e16d 4d3d 0844 c33a
000000d0: 0093 25bd 2f35 873c 8e74 413d 8e00 8a3b
000000e0: 3ca6 9ebd 55fa f6bc 551f 3cbd f36e 64bd
000000f0: 709b 8b3c 2f1f 423d 91fc 733d e855 5cbc
00000100: a081 a5bd 149d ed3c 74d0 c13d 0290 c23c
00000110: ce3a 01bd abf0 2fbd 84e3 1fbd 9f3e 713d
00000120: d08e 023c 75f0 133d a4f5 693c afbb d6bc
00000130: b387 be3c b2ad 64bd dc7c 2ebd f927 e1bc
00000140: f2fa cfbc db85 e4bb ef5c d0bd 922c 0dbd
00000150: 6f2a 11be 24ab afbd 140a 04bb 4c46 883d
00000160: 0415 ca3c af10 4a3d d10f 2ebd b037 833d
00000170: 911b 593d 12f8 4a3d ee59 04bd b363 263d
00000180: 3009 93bc 7a99 4bbc d0d4 5b3b 3eb5 933a
00000190: 2b73 523d 9302 82bd 2e50 4d3d ab51 8fbd
000001a0: d839 0f3d 3b9e 70bc 6038 c63c c50e 723c
000001b0: ae0e a2bc 10ee 0f3d 6e40 ce3c 4ae6 6c3d
000001c0: 457d 66bd 74f4 43bd f650 a6bd 1782 e7bc
000001d0: 44a2 553d a2c2 ccbc 51b6 10bd fdf1 cd3c
000001e0: 4233 363c ac57 26bd 5858 90bc ba75 49bd
000001f0: 93ce 793c b9b6 213d 0d93 943d 7b96 c9bc
00000200: a87d 813d 8182 9ebd 2cd4 40bd 394c 1ebc
00000210: 79af c0bc e09a 5d3d 7c3d 9a3d 9cdb 41bd
00000220: f84f c4bc 5a91 003d 737e 7abc 4c03 66bd
00000230: 7ac0 eb39 86c0 d739 7f73 7a3c 679c 29bd
00000240: f9bd b6bd f132 883d a778 fb3c ea3f b4bc
00000250: 7d4e 21bc 393d 5b3d cff6 adbd 9928 72bd
00000260: 3fa6 b83c 1261 91bd 11bc 9fbd 3878 273d
00000270: 9b73 4ebd 1a5f 9fbd b0a4 7b3c d6ba 213d
00000280: 0d44 1fbd 5772 b6bd 75fe 4dbc 57f2 c43a
00000290: 78c0 113d ef0c 483c 8d8f 90bd 7a67 493b
000002a0: 8127 583d e2c3 703d 8187 b83b e5c5 c2bc
000002b0: 951c 0f3d bc8b 1c3d ab36 d7bc 2c6c 3a3d
000002c0: d500 82bc 81a2 4e3c 289b c93b 9f8e 44bd
000002d0: 3cae 9cbd f70f 273d 2722 b3bc 9546 163d
000002e0: d3db 4f3d e97a 633d d1eb bb3d b2fb ce3d
000002f0: b864 a73d 25a5 633c 96cf 9e3b 13e2 5b3c
00000300: bda3 2d3d 5a0b 91bc aeaf 3abd 75b9 5fbd
00000310: 6f5e 723d b0de 863d d803 0dbd 5a24 15be
00000320: f7b5 9ebc 72a8 973b 8364 b7bd 1905 b6bd
00000330: ff44 bbbd a821 54bd d7a1 a4bd b9a2 91bd
00000340: eda1 2cbb f9ff 4cba 2bbb aabd aef7 afbd
00000350: c148 39bc 1db3 0f3d d31d 1f3d b80d d6bd
00000360: 8a63 aebd 10d7 4abd 2b92 a0bd b9f7 b9bd
00000370: ce28 60bd 9e7f 9f3d 66ab 5dbc 6b16 103d
00000380: a750 f43b aa28 953b 22c8 0bbd 9ae0 253d
00000390: 981d 213c 8c9c ea3c c40f 7b3b 43b3 bf3c
000003a0: 0e6d 463c dd4a de3c f538 5f3b 7d1c ab3c
000003b0: b72b 1cbd 0eb8 bd3c 98b8 833c 924b 5c3b
000003c0: 30cc ed3b b23a cfbc 9758 ffbc 092a b2bd
000003d0: 4368 993c 0abf fcbc dc1e 853c 9818 ccbc
000003e0: eb48 51bd a6df 403d 421c 233c f8f1 153d
000003f0: 6689 d2bc 5f35 103c 0614 5dbd b85d 123d
0.04149334 -0.04054221 0.048776012 0.07143183 -0.059650205 -0.06432964 -0.046129458 0.010957163
-0.045885548 0.037929326 -0.12688436 -0.025457108 -0.038566906 -0.062403314 0.0332874 -0.003660493
-0.060959198 -0.044046056 -0.009487165 -0.014004325 0.066050336 -0.011542725 0.06256265 0.10980774
-0.060073376 0.08521366 0.016835857 -0.054166723 -0.04927577 -0.0031053554 -0.07769298 -0.005593135
-0.048015416 -0.063672595 0.03338942 0.005972577 -0.0019005743 0.05366175 0.006960695 0.036136057
0.02619956 -0.070631936 0.022824278 0.08244856 0.04308859 -0.0358175 0.09534037 0.045544773
0.050411053 -0.040669225 0.050153617 0.0014897594 -0.040423393 0.016504852 0.047230296 0.004211492
-0.077465504 -0.030148664 -0.045928318 -0.055769872 0.017041892 0.04739302 0.059567038 -0.013448216
-0.08081365 0.029005565 0.094635874 0.023750309 -0.03155022 -0.04295413 -0.039035335 0.05889761
0.0079686195 0.03611799 0.014279757 -0.026212541 0.023258066 -0.05582971 -0.042599544 -0.02748488
-0.025388215 -0.0069739646 -0.10173976 -0.034466334 -0.14176343 -0.08577564 -0.0020147609 0.06654033
0.024668224 0.049332317 -0.042495552 0.06407106 0.053004805 0.049552985 -0.032312326 0.040622424
-0.017948717 -0.012426728 0.0033543594 0.0011269224 0.051379364 -0.06348147 0.050125293 -0.06997999
0.034967273 -0.014686163 0.024196804 0.014774029 -0.01978239 0.035139143 0.025177207 0.05783681
-0.05627181 -0.04784055 -0.08120911 -0.028260274 0.0521567 -0.024995152 -0.03533012 0.025139803
0.011120619 -0.040610954 -0.01762025 -0.04918454 0.015247005 0.0394809 0.0725461 -0.024607887
0.06322795 -0.077397354 -0.047077343 -0.009661728 -0.023521172 0.05410278 0.075312585 -0.047328576
-0.023963913 0.031388618 -0.015288937 -0.056155488 0.000449661 0.00041151437 0.0152863255 -0.041408923
-0.08922953 0.06650341 0.03069718 -0.022003133 -0.009845373 0.053525183 -0.08494341 -0.05912075
0.02254021 -0.07098593 -0.07799543 0.040886134 -0.05040322 -0.07781811 0.015359089 0.03948482
-0.038883258 -0.08908527 -0.012572874 0.0015025836 0.035583943 0.012210115 -0.0705863 0.0030731843
0.05277205 0.05878056 0.0056313877 -0.023776004 0.034939367 0.0382192 -0.026271185 0.045513317
-0.015869537 0.012611986 0.0061525293 -0.047987577 -0.0765042 0.04078671 -0.021866871 0.036688406
0.05074675 0.055537138 0.09175838 0.10106601 0.081735075 0.013894354 0.0048465235 0.0134205995
0.04239248 -0.017705608 -0.045577697 -0.054620225 0.05917209 0.06585443 -0.034427494 -0.14564648
-0.019373877 0.0046282345 -0.08954718 -0.08887691 -0.09144019 -0.05178991 -0.08038681 -0.07111115
-0.0026341632 -0.00078201253 -0.08336481 -0.08592163 -0.01130885 0.035082925 0.038846802 -0.104518354
-0.08515079 -0.049521506 -0.07840379 -0.090804525 -0.054726414 0.07788013 -0.013529634 0.03517763
0.0074559036 0.0045519667 -0.03412641 0.0404974 0.009833716 0.0286391 0.0038308958 0.023400908
0.012110962 0.027135307 0.0034061049 0.020887608 -0.038127627 0.023159053 0.016079232 0.003361438
0.007257007 -0.025296543 -0.031170173 -0.08699424 0.018726474 -0.030852813 0.016250066 -0.024914071
-0.05109493 0.047088288 0.009955468 0.036607713 -0.025700282 0.008801787 -0.053974174 0.03573391

encoding_layer.layer.0.bias f4 [64]
00000000: e09c 90bd 29b9 6e3c 1311 7abd 018c 543c
00000010: 3993 8e3d 8e21 8abd 127e cd3b ed33 733d
00000020: ffdd 53bc bf62 633d 5dc1 54bd ed35 01bd
00000030: 21f1 33bc f276 64bd 9208 7c3d 65d9 383d
00000040: c2fd a13c 8ef8 81bd b60a ce3c d61d 5bbd
00000050: b39c 94bc 8c81 23bd 4678 8b3d dc40 f2bc
00000060: 8ffa 2dbd 461c 9e3c 9a6c 9cbd 4f96 0dbc
00000070: 8ad2 023d 5d0a f739 7b1e b83c 05fa 3b3c
00000080: 6199 72bd 68f5 14bd e5b9 1abc ac7b 48bd
00000090: 5d9d 87bd 33c6 a1bd 9840 483d 2523 62bd
000000a0: 88c2 393d a81e e33c 0380 66bd a780 65bd
000000b0: 4023 f63c 67c2 89bd 04b0 3abd dcd0 19bd
000000c0: 2e67 95bb e406 f53b d9bd 84bd c7b6 80bd
000000d0: 5347 903d 0236 8d3d 40a3 643b c27a ef3b
000000e0: eeb5 343d cd70 6d3c 1c60 013d fc54 dfbb
000000f0: bfc0 95bd 7284 fd3b b40c 483c 1969 943c
-0.070611715 0.014570513 -0.06105144 0.012972833 0.06961674 -0.06744681 0.0062711323 0.059375692
-0.012931346 0.055514093 -0.051942218 -0.03154557 -0.010982783 -0.055777498 0.06153161 0.0451292
0.019774321 -0.06346236 0.025151592 -0.05349525 -0.018141126 -0.039918467 0.0681005 -0.029571943
-0.04247528 0.019300591 -0.076379016 -0.008641793 0.031939067 0.00047119232 0.022475472 0.0114731835
-0.059228305 -0.03636685 -0.009443735 -0.048946068 -0.066218115 -0.078991316 0.048889726 -0.055209298
0.045351535 0.027724579 -0.056274425 -0.056030896 0.030046105 -0.067265324 -0.045578018 -0.0375527
-0.004559419 0.007477628 -0.06481523 -0.06284862 0.07044854 0.06895067 0.0034887344 0.007308335
0.044118814 0.014492226 0.031585798 -0.006815551 -0.07312154 0.007736736 0.01221006 0.01811652
