HGAT-MADDPG_ver2/ModelBuffer/model_2500.pt (torch, 369835 bytes, 33 tensors)

encoding_layer.layer.0.weight f4 [64, 180]
-0.033406854 0.035661478 0.03772869 0.00040140355 0.03879633 -0.0018171008 -0.039215058 0.07112409
-0.15666047 -0.12903708 0.066079006 -0.0665991 0.027410699 -0.10167676 -0.014891616 0.07749239
0.06326307 -0.024477484 0.04197178 0.08444867 0.11984537 0.024892414 0.022231247 -0.11157687
0.021645295 0.11596944 0.13161466 -0.12814096 -0.21565749 0.09668626 -0.07805447 -0.028016446
0.023568338 0.06949468 0.115137964 0.27331948 -0.08181275 -0.15138629 -0.09320504 -0.21559332
0.08801071 0.2670343 0.07697896 -0.07099258 -0.025526859 -0.07350239 -0.03239195 -0.28644985
-0.19698083 -0.2537336 0.092147075 0.050755482 -0.0034561004 0.03235357 0.007255475 -0.16236721
-0.071489975 0.062464543 -0.06575962 -0.09656141 -0.307972 -0.016919272 0.110934265 -0.35333565
-0.31192982 0.0019038031 -0.013597772 -0.07306969 -0.14860007 -0.11226902 0.014796151 -0.14295004
0.02566777 0.19291963 0.19661613 -0.16404073 0.23148008 0.02486598 0.019324878 0.124082744
-0.10300158 0.076392785 0.08704104 -0.07636635 -0.038327005 0.01017333 -0.030420378 -0.06141427
0.14615656 0.20123197 0.11161291 -0.13982128 -0.05674236 -0.009079763 0.07575318 0.12426969
-0.04454482 -0.026328493 -0.06868063 -0.11947996 -0.09763246 0.11320163 -0.07458051 -0.055286437
-0.064562485 0.015242631 -0.035857044 0.027715579 0.06353347 0.04750719 0.114684656 -0.07534979
-0.049220815 -0.019227602 -0.00039443097 -0.06394125 0.11229981 -0.084909394 -0.038693283 0.10104383
-0.1717223 -0.026125714 -0.06896181 0.019719277 -0.08732834 0.06869392 0.054818965 0.026293524
-0.15744062 -0.16629486 -0.09428079 -0.05132513 0.07046135 -0.06450138 0.08942972 -0.036012728
0.088027276 0.025088228 0.04218406 -0.01465872 0.100015305 -0.06243124 -0.061181534 -0.032481946
0.06357881 0.0037641819 0.042581007 -0.011841263 0.040150136 0.015318388 -0.03583694 -0.08906955
0.044083368 -0.05309026 -0.0712826 -0.16767956 -0.029912904 -0.03563807 -0.07659821 -0.056337807
-0.03741492 0.075634696 0.021983972 0.032291997 0.07929962 0.0319131 0.09701418 0.06271926
0.04717541 0.010318408 0.00351069 0.1043191 0.033147305 -0.005455487 0.008291619 0.07144492
0.084194936 -0.30089656 0.28839895 0.008867601 0.10288907 0.07007957 -0.040441636 -0.027848784
0.0781797 -0.007840581 -0.20895801 0.010715923 0.028497232 -0.007120922 -0.17052494 0.008573996
-0.13266496 -0.17333464 0.057232343 0.06401132 -0.049405716 0.026189253 -0.0052345037 0.026821913
-0.06825043 0.094466604 0.13741145 0.07025934 0.07709414 0.0087224785 -0.23447539 -0.08902548
0.27391368 0.17262575 -0.026882712 0.010074116 -0.26342863 0.06898317 -0.2045578 0.3863711
0.3100276 0.0645485 0.031200795 -0.030464433 0.0025516793 -0.096203566 -0.0023730448 0.046103094
-0.06520049 0.08128087 0.09089392 0.023184758 0.029519629 -0.029844105 -0.10016129 0.18410072
0.13578765 -0.114906006 -0.067836836 -0.002294998 0.070831805 0.05021639 -0.07899622 -0.16860667
-0.2669164 0.05148982 -0.015777221 -0.120386645 -0.112273864 0.050461207 -0.2524311 -0.08589843
0.024959333 0.045046538 -0.15333217 -0.111925416 -0.062675014 -0.21014337 -0.19504 -0.18345255
00000000: a0d5 08bd c511 123d 6689 1a3d 7973 d239
00000010: e7e8 1e3d c92b eeba f89f 20bd 82a9 913d
00000020: 9a6b 20be 4c22 04be 6e54 873d 1c65 88bd
00000030: 678c e03c e83b d0bd f7fb 73bc 55b4 9e3d
00000040: 1290 813d 0185 c8bc 9aea 2b3d 6df3 ac3d
00000050: 7d71 f53d 2deb cb3c 4e1e b63c 6a82 e4bd
00000060: 7951 b13c 6381 ed3d fec5 063e 6237 03be
00000070: 51d5 5cbe 7203 c63d 06db 9fbd bf82 e5bc
00000080: 6312 c13c 3a53 8e3d 74cd eb3d 88f0 8b3e
00000090: 718d a7bd 0205 1bbe 49e2 bebd 7fc4 5cbe
000000a0: f63e b43d b8b8 883e 25a7 9d3d 8f64 91bd
000000b0: b41d d1bc 6c88 96bd 6cad 04bd 8ea9 92be
000000c0: 58b5 49be 5fe9 81be 9bb7 bc3d fbe4 4f3d
000000d0: be7f 62bb 2d85 043d 56bf ed3b 9743 26be
000000e0: 5669 92bd d2da 7f3d fbac 86bd fdc1 c5bd
000000f0: 82ae 9dbe 499a 8abc 8131 e33d 69e8 b4be
00000100: 44b5 9fbe 0889 f93a 31c9 5ebc 90a5 95bd
00000110: 9e2a 18be 4ded e5bd 8e6b 723c 7f61 12be
00000120: 3745 d23c b98c 453e bd55 493e 4bfa 27be
00000130: 1d09 6d3e bdb3 cb3c 354f 9e3c 181f fe3d
00000140: 7ef2 d2bd d273 9c3d 9342 b23d f665 9cbd
00000150: c7fc 1cbd 0aae 263c 2834 f9bc 888d 7bbd
00000160: 11aa 153e c10f 4e3e 4f95 e43d 4f2d 0fbe
00000170: ad6a 68bd 49c3 14bc 7c24 9b3d 1b81 fe3d
00000180: a174 36bd daae d7bc 6ea8 8cbd e9b1 f4bd
00000190: 87f3 c7bd 42d6 e73d abbd 98bd 0874 62bd
000001a0: 5639 84bd 3abc 793c d6de 12bd c80b e33c
000001b0: d61d 823d e696 423d cadf ea3d fe50 9abd
000001c0: c49b 49bd 3483 9dbc a1cb ceb9 a1f3 82bd
000001d0: 71fd e53d fae4 adbd d97c 1ebd 11f0 ce3d
000001e0: f8d7 2fbe 9805 d6bc d93b 8dbd 528a a13c
000001f0: 33d9 b2bd 66af 8c3d da89 603d 8465 d73c
00000200: 1d38 21be 3349 2abe 4916 c1bd 4d3a 52bd
00000210: 0a4e 903d 4d19 84bd ee26 b73d 1582 13bd
00000220: a547 b43d d485 cd3c 31c9 2c3d 212b 70bc
00000230: d3d4 cc3d e6b7 7fbd 7d99 7abd ca0b 05bd
00000240: 9b35 823d 7eb0 763b 6c69 2e3d db01 42bc
00000250: 7874 243d faf9 7a3c c1c9 12bd 196a b6bd
00000260: c390 343d 2c75 59bd 9dfc 91bd 31b4 2bbe
00000270: e80b f5bc 3af9 11bd 86df 9cbd 79c2 66bd
00000280: 6340 19bd 5de6 9a3d bb17 b43c 9d44 043d
00000290: d767 a23d 50b7 023d 5faf c63d f572 803d
000002a0: 013b 413d 8a0e 293c 9b13 663b 41a5 d53d
000002b0: 78c5 073d f1c3 b2bb 92d9 073c b751 923d
000002c0: 656e ac3d 1d0f 9abe 07a9 933e 6a49 113c
000002d0: 81b7 d23d e185 8f3d 21a6 25bd 2223 e4bc
000002e0: ae1c a03d c875 00bc 17f9 55be d791 2f3c
000002f0: 0773 e93c a056 e9bb 179e 2ebe f279 0c3c
00000300: 53d9 07be a37e 31be 766c 6a3d 5e18 833d
00000310: a65d 4abd d88a d63c 3386 abbb a1b9 db3c
00000320: e2c6 8bbd b577 c13d 96b5 0c3e 21e4 8f3d
00000330: 88e3 9d3d bae8 0e3c 511a 70be fe52 b6bd
00000340: 6a3e 8c3e cec4 303e 2239 dcbc e80d 253c
00000350: 1ee0 86be 0c47 8d3d 9a77 51be 6fd2 c53e
00000360: f0bb 9e3e 0132 843d cf98 ff3c 8c90 f9bc
00000370: 133a 273b 6006 c5bd 1685 1bbb 99d6 3c3d
00000380: d687 85bd 9676 a63d 9726 ba3d f6ed bd3c
00000390: 26d3 f13c a07b f4bc 5d21 cdbd e684 3c3e
000003a0: eb0b 0b3e d753 ebbd 0aee 8abd ad67 16bb
000003b0: 4410 913d b4af 4d3d c5c8 a1bd 3aa7 2cbe
000003c0: 44a9 88be fde6 523d 3b3f 81bc 468d f6bd
000003d0: d7ef e5bd 69b0 4e3d a63e 81be 84eb afbd
000003e0: 8477 cc3c b882 383d 1c03 1dbe 2739 e5bd
000003f0: c25b 80bd d32f 57be 91b8 47be fcda 3bbe

encoding_layer.layer.0.bias f4 [64]
0.06544594 -0.00095964543 0.03095696 -0.035096485 -0.032580685 0.0876191 0.01622556 -0.06710197
0.032068975 -0.041348647 -0.04526824 -0.08919018 -0.026439335 0.07115644 -0.025142517 -0.033239055
-0.027270097 -0.021642221 0.025028048 0.058135644 -0.026824605 -0.01925828 -0.09396165 -0.034513492
-0.045796834 -0.05845799 0.05705814 0.011922211 0.06307499 -0.011961268 -0.009194395 -0.07667153
0.01997902 0.030617876 0.0051624305 0.0024933792 0.008370403 -0.08879969 -0.09244203 -0.05999901
0.041350357 -0.002974235 0.015245843 0.030838383 0.00033659543 0.045521505 0.0018082171 0.0063572815
-0.090032406 -0.03778569 -0.022709886 -0.005282015 -0.0015562102 0.017887432 0.0042648725 0.094883755
-0.030765291 -0.0587164 0.03507141 0.07286769 -0.06419262 -0.02221215 -0.039333686 0.00035494423
00000000: 8508 863d b790 7bba 7399 fd3c 55c1 0fbd
00000010: 5373 05bd a571 b33d 77eb 843c c26c 89bd
00000020: c25a 033d 335d 29bd 316b 39bd 57a9 b6bd
00000030: 4e97 d8bc 78ba 913d aef7 cdbc ad25 08bd
00000040: 8a65 dfbc 074b b1bc 9f07 cd3c a41f 6e3d
00000050: 46bf dbbc 8ac3 9dbc f76e c0bd 055e 0dbd
00000060: 7695 3bbd a571 6fbd ccb5 693d 6155 433c
00000070: 762d 813d 32f9 43bc 16a4 16bc f705 9dbd
00000080: 0bab a33c 57d2 fa3c 9b29 a93b f667 233b
00000090: 0424 093c 9ddc b5bd 3f52 bdbd 86c1 75bd
000000a0: fe5e 293d 62eb 42bb b3c9 793c c7a0 fc3c
000000b0: 1379 b039 c274 3a3d b301 ed3a be50 d03b
000000c0: e962 b8bd 2bc5 1abd 150a babc c114 adbb
000000d0: c0f9 cbba aa88 923c 58c0 8b3b 6a52 c23d
000000e0: 7e07 fcbc 9c80 70bd 0aa7 0f3d a83b 953d
000000f0: 6c77 83bd 41f6 b5bc 5c1c 21bd cf17 ba39

relational_layer.layers.0.att_src f4 [1, 1, 64]
-0.0483412 0.29058984 -0.2342707 0.049513873 -0.18194354 -0.1241937 0.23028666 0.11484649
0.1942335 -0.39926717 0.19140083 -0.3518893 0.2960385 0.083796486 0.49556485 -0.08309247
-0.27166072 0.18091023 0.41672316 -0.2920729 0.050242618 -0.1789756 -0.16958477 0.24408697
-0.11932674 -0.40874317 -0.4434148 0.16480987 0.13060467 -0.3990564 -0.22634672 0.039689396
0.211 -0.0024622781 0.50892925 -0.3506636 0.1396241 -0.11182194 -0.27285102 0.14734933
0.30331528 -0.22612841 -0.15656927 0.0029355793 0.54070926 -0.108890444 0.15859388 0.2783237
-0.22869858 -0.20286885 0.25205767 0.2422069 0.13155405 -0.04669359 -0.375088 0.25544953
-0.28012246 -0.26131028 -0.20168325 -0.14114599 0.120967776 0.20005456 0.1767779 0.1608729
00000000: 6c01 46bd 31c8 943e a9e4 6fbe 0fcf 4a3d
00000010: 684f 3abe 4459 febd 44d0 6b3e a334 eb3d
00000020: 26e5 463e bf6c ccbe 94fe 433e d62a b4be
00000030: 5c92 973e 7e9d ab3d adba fd3e 632c aabd
00000040: 1d17 8bbe 8840 393e bd5c d53e 948a 95be
00000050: 34cb 4d3d 6145 37be a1a7 2dbe eff1 793e
00000060: 9461 f4bd c946 d1be 4407 e3be ebc3 283e
00000070: 3bbd 053e 1f51 ccbe 6fc7 67be 5991 223d
00000080: 6210 583e 2c5e 21bb 3049 023f 2e8a b3be
00000090: 9ff9 0e3e e702 e5bd 21b3 8bbe bee2 163e
000000a0: 244c 9b3e 358e 67be b253 20be d962 403b
000000b0: ec6b 0a3f f401 dfbd 6f66 223e 7280 8e3e
000000c0: f62f 6abe dabc 4fbe b40d 813e 1605 783e
000000d0: 1bb6 063e c741 3fbd 890b c0be 48ca 823e
000000e0: 366c 8fbe 76ca 85be 0e86 4ebe 9388 10be
000000f0: f4bd f73d 1adb 4c3e 4405 353e debb 243e

relational_layer.layers.0.att_dst f4 [1, 1, 64]
-0.4155499 -0.055428173 0.24193609 -0.3526846 -0.3483302 -0.053887352 -0.26993948 -0.4065431
0.29180488 -0.07335979 -0.16554746 -0.117951274 0.48381615 -0.19276007 -0.0274945 0.06587678
-0.28481543 -0.20492814 0.00870497 0.0911582 0.15847898 0.18706217 0.10600687 -0.012000826
-0.16905127 0.14331424 0.17891987 0.10346447 -0.05747173 -0.13367498 -0.5138177 -0.28206787
0.303876 -0.0004228217 -0.23746875 0.05928492 0.116727464 0.41785085 0.08701549 0.1120422
-0.22040509 -0.49106815 0.20482235 0.1566783 0.15470672 0.19440845 -0.055086482 -0.07090792
0.036849692 -0.22653776 -0.08510896 -0.261532 -0.46497905 -0.2765949 -0.09378554 -0.31855658
-0.53541523 -0.38053602 -0.04442474 0.14673127 -0.08950428 -0.3335614 -0.41114563 -0.44211975
00000000: f5c2 d4be a708 63bd 18be 773e 1393 b4be
00000010: 5658 b2be fcb8 5cbd 8235 8abe 6b26 d0be
00000020: 7367 953e a83d 96bd 4685 29be 7090 f1bd
00000030: c0b6 f73e e562 45be 253c e1bc 68ea 863d
00000040: 54d3 91be afd8 51be 4a9f 0e3c 26b1 ba3d
00000050: 5048 223e 3a8d 3f3e 211a d93d 1d9f 44bc
00000060: c71b 2dbe f8c0 123e c536 373e 2ee5 d33d
00000070: 7a67 6bbd 18e2 08be 8f89 03bf 336b 90be
00000080: a395 9b3e 2bae ddb9 022b 73be bfd4 723d
00000090: cf0e ef3d 8cf0 d53e 2d35 b23d 6276 e53d
000000a0: dfb1 61be 496d fbbe f3bc 513e 4770 203e
000000b0: 706b 1e3e 0213 473e 5da2 61bd 2c38 91bd
000000c0: b4ef 163d 84f9 67be 9b4d aebd 86e7 85be
000000d0: bc11 eebe d99d 8dbe a212 c0bd d919 a3be
000000e0: f910 09bf 9ed5 c2be b7f6 35bd b940 163e
000000f0: 054e b7bd 8fc8 aabe ae81 d2be 855d e2be

relational_layer.layers.0.bias f4 [64]
0.05064326 -0.08975612 -0.061867747 -0.03332098 -0.0036500515 0.050190035 -0.10932209 -0.055435266
-0.077588096 -0.0057216347 -0.075006194 -0.0032631727 -0.17698218 -0.06600362 -0.12316104 0.02385567
0.07339091 -0.07796748 0.013910866 0.0719805 -0.14386885 0.09375969 -0.1603369 -0.06899582
0.061492145 0.072127976 -0.069847204 -0.080203734 -0.07493669 0.07318417 -0.03984987 0.080251426
0.007861632 0.03176201 -0.024363287 -0.057419505 0.026206639 -0.086181276 -0.045936503 0.004609916
-0.06739792 -0.062240954 -0.0005408065 -0.046185784 0.001311686 -0.014950259 0.09290739 -0.0012295493
0.07178484 0.037518058 -0.09652009 -0.0027358802 -0.07210489 -0.03665007 0.001754982 -0.1094197
-0.007918139 -0.1086661 -0.015044352 0.05806385 -0.0043771584 -0.057599984 -0.030281592 -0.04600297
00000000: 4f6f 4f3d 0fd2 b7bd 0969 7dbd 947b 08bd
00000010: b435 6fbb 1194 4d3d 43e4 dfbd 1710 63bd
00000020: 82e6 9ebd 8d7c bbbb d99c 99bd f4da 55bb
00000030: d13a 35be e82c 87bd db3b fcbd f76c c33c
00000040: f94d 963d 6aad 9fbd 67ea 633c 836a 933d
00000050: 5b52 13be 1505 c03d 5b2f 24be ae4d 8dbd
00000060: 30df 7b3d d5b7 933d 0d0c 8fbd db41 a4bd
00000070: 6878 99bd 95e1 953d 9e39 23bd dc5a a43d
00000080: 13ce 003c e218 023d 8495 c7bc b730 6bbd
00000090: 4eaf d63c cf7f b0bd ea27 3cbd c70e 973b
000000a0: ec07 8abd 5ff0 7ebd e9c4 0dba 4e2d 3dbd
000000b0: e1ec ab3a eef1 74bc 3b46 be3d d428 a1ba
000000c0: ee03 933d 89ac 193d 53ac c5bd 744c 33bb
000000d0: bbab 93bd 621e 16bd 6d07 e63a 7017 e0bd
000000e0: 15bb 01bc 558c debd 967c 76bc 5cd4 6d3d
000000f0: 446e 8fbb f6ed 6bbd 1a11 f8bc 9c6d 3cbd

relational_layer.layers.0.lin_src.weight f4 [64, 64]
-0.056048986 0.15943538 0.34362435 -0.49673212 0.18423507 -0.10800169 -0.15340574 -0.23587227
0.019075116 0.16512237 -0.04493093 -0.072468095 -0.23114082 0.1381271 -0.31710365 0.067466125
0.024911573 -0.042374905 -0.38173354 -0.4228489 0.05951073 -0.0826621 -0.31509054 -0.042111386
-0.27662838 0.031191343 -0.21650645 -0.50993466 0.08506493 0.07056653 0.1113913 -0.07056196
-0.06336017 -0.20381992 -0.19812286 -0.053621516 -0.08798308 0.10991464 -0.3037944 -0.03501099
0.13393377 -0.06413463 0.14710237 -0.048723664 0.22975755 -0.56422675 -0.18369217 0.16405557
-0.31914508 0.10523262 -0.07183798 0.028622424 0.07925053 -0.21344022 -0.071190685 0.10855787
0.16736265 0.37333193 -0.24829718 -0.13639836 -0.19106148 -0.2723205 0.21861699 -0.1717179
0.09866705 -0.17553136 -0.13252315 -0.015798366 -0.08049911 0.18865508 0.14689046 -0.22333601
0.047730587 -0.077752635 0.017920805 0.2341198 0.2538453 0.38423365 0.020645471 0.20503695
-0.0937547 -0.0995551 0.10015193 0.13949032 -0.1546412 -0.07016287 0.0107974 -0.05998485
0.17741908 -0.111342795 0.1375105 0.32563382 -0.028354002 0.1491327 0.086267 -0.16547605
0.1168048 0.032219797 -0.07808999 0.01935185 -0.21085903 -0.07775132 -0.13863981 0.082095526
-0.031311747 0.10744873 0.009683518 -0.19850112 -0.009677819 0.117302686 -0.33914444 -0.2286284
0.09230719 -0.1573908 0.11331958 -0.13556291 0.040503334 -0.0103065185 0.032476455 0.07980928
-0.08154607 0.40466678 -0.05107319 0.1782917 -0.2049336 -0.047070414 -0.058582645 -0.059037544
-0.20202568 -0.058533344 -0.0026294354 0.10686251 -0.35754946 0.07010412 0.036779497 0.25263402
-0.13267462 0.07714285 0.05195891 0.007034338 0.04063086 0.13260089 0.060890194 0.1650649
-0.09165386 0.042052433 -0.041288532 0.15524252 -0.029371977 -0.14113897 -0.17400531 -0.14816065
-0.26162842 -0.03804649 -0.032751776 0.24249685 -0.19308865 0.35755163 0.0925646 0.004309689
-0.0029022186 0.15523204 0.298198 -0.07650782 0.07950002 -0.25178725 0.06897461 -0.14406861
0.044334214 0.10094287 0.041429568 -0.013531952 -0.085663386 0.10015759 0.058568317 -0.16856883
-0.15785424 -0.124483205 -0.023537485 0.007763561 0.09577407 -0.07708215 0.3439223 0.051745173
0.18002576 0.051986594 0.09168153 -0.20353469 -0.056298863 -0.0038377529 0.21917862 -0.11137808
-0.009761842 0.27601323 0.2423034 -0.11472454 -0.037350994 -0.10537303 -0.5907365 0.008509221
-0.030406322 -0.026786996 -0.0021569843 0.15804178 0.09464442 -0.19971687 -0.047667533 -0.04131247
0.12212975 0.06305813 0.081099026 0.19443382 -0.017442234 -0.15801963 0.005023007 0.12387981
0.3290722 0.37333545 -0.2076859 -0.08073856 0.17343657 0.20306002 -0.006454224 -0.11779881
0.16222247 0.14545806 -0.46178913 -0.048553985 -0.015700787 -0.13888463 -0.25703326 -0.08744106
0.022583999 0.1663313 -0.14336658 -0.03224512 0.082106955 -0.26051497 0.071409576 0.049909677
-0.20454799 0.04248966 0.19841121 0.16147815 0.34138042 0.06355018 -0.23238553 -0.014799565
-0.027239112 -0.16509405 -0.025827551 0.027646085 -0.10186017 -0.14620583 0.25103793 -0.07667891
00000000: 9f93 65bd 0743 233e 88ef af3e ac53 febe
00000010: 1ea8 3c3e fd2f ddbd 6516 1dbe 8088 71be
00000020: 6b43 9c3c d715 293e 7f09 38bd 276a 94bd
00000030: 2eb0 6cbe 3171 0d3e 695b a2be ae2b 8a3d
00000040: 5b13 cc3c 4f91 2dbd 9472 c3be a77f d8be
00000050: 86c1 733d bf4a a9bd 8c53 a1be fd7c 2cbd
00000060: 3ca2 8dbe fd84 ff3c deb3 5dbe 148b 02bf
00000070: 8636 ae3d 2f85 903d 1f21 e43d ca82 90bd
00000080: fac2 81bd 2bb6 50be b8e0 4abe 3ca2 5bbd
00000090: 7930 b4bd ed1a e13d f18a 9bbe af67 0fbd
000000a0: ef25 093e 0459 83bd 01a2 163e 7792 47bd
000000b0: 9045 6b3e 2a71 10bf cd19 3cbe 2ffe 273e
000000c0: fc66 a3be 3384 d73d ca1f 93bd 9379 ea3c
000000d0: 1a4e a23d 1390 5abe 6ccc 91bd 9753 de3d
000000e0: 1d61 2b3e 5d25 bf3e 9e41 7ebe 03ac 0bbe
000000f0: 9fa5 43be 986d 8bbe 22dd 5f3e d1d6 2fbe
00000100: f311 ca3d 7ebe 33be 26b4 07be 936b 81bc
00000110: b8dc a4bd cc2e 413e 746a 163e 32b2 64be
00000120: 2681 433d c63c 9fbd a7ce 923c 1abd 6f3e
00000130: 03f8 813e 46ba c43e b120 a93c 35f5 513e
00000140: 7702 c0bd 8be3 cbbd 741c cd3d 8dd6 0e3e
00000150: 435a 1ebe 8db1 8fbd 94e7 303c adb2 75bd
00000160: 59ad 353e b107 e4bd 8dcf 0c3e 7ab9 a63e
00000170: a746 e8bc 3eb6 183e c1ac b03d 8e72 29be
00000180: 5b37 ef3d e8f8 033d a5ed 9fbd c587 9e3c
00000190: 6eeb 57be 163c 9fbd 98f7 0dbe b321 a83d
000001a0: bf40 00bd 140e dc3d 9ea7 1e3c e143 4bbe
000001b0: b78f 1ebc 643c f03d 57a4 adbe 901d 6abe
000001c0: 8d0b bd3d 0e2b 21be 1914 e83d 01d1 0abe
000001d0: d3e6 253d acdc 28bc 0806 053d 0c73 a33d
000001e0: a001 a7bd 7c30 cf3e 1f32 51bd 1992 363e
000001f0: 1dda 51be e8cc 40bd 5bf4 6fbd 5ad1 71bd
00000200: d2df 4ebe a9c0 6fbd 9b52 2cbb bbda da3d
00000210: b910 b7be c092 8f3d 19a6 163d 3f59 813e
00000220: dbdb 07be 12fd 9d3d ded2 543d 4e80 e63b
00000230: 8b6c 263d 87c8 073e ff67 793d c606 293e
00000240: 05b5 bbbd 2c3f 2c3d 2a1e 29bd e5f7 1e3e
00000250: 809d f0bc bc86 10be 732e 32be 6db7 17be
00000260: 29f4 85be a3d6 1bbd ba26 06bd 1851 783e
00000270: 08b9 45be 0211 b73e 8292 bd3d 4b38 8d3b
00000280: 2633 3ebb 26f5 1e3e 69ad 983e 22b0 9cbd
00000290: e8d0 a23d 42ea 80be 8f42 8d3d b986 13be
000002a0: cb97 353d 23bb ce3d 0db2 293d 1fb5 5dbc
000002b0: 4970 afbd 6c1f cd3d 55e5 6f3d 4f9d 2cbe
000002c0: 8ba4 21be 0df1 febd afd1 c0bc 7865 fe3b
000002d0: 3225 c43d 3fdd 9dbd 9516 b03e bff2 533d
000002e0: ac58 383e e5ef 543d 87c3 bb3d 666b 50be
000002f0: a399 66bd cf82 7bbb 5c70 603e 311a e4bd
00000300: 22f0 1fbc 9b51 8d3e 621e 783e b3f4 eabd
00000310: 5bfd 18bd d1cd d7bd 823a 17bf 426a 0b3c
00000320: ae16 f9bc 6770 dbbc 315c 0dbb b4d5 213e
00000330: efd4 c13d 9482 4cbe 083f 43bd 4437 29bd
00000340: 2a1f fa3d 9f24 813d 3f17 a63d a919 473e
00000350: 04e3 8ebc e6cf 21be 0998 a43b b3b4 fd3d
00000360: 277c a83e d325 bf3e 9dab 54be 425a a5bd
00000370: 5b99 313e f7ee 4f3e f57d d3bb 8140 f1bd
00000380: a61d 263e f5f2 143e a06f ecbe 8be0 46bd
00000390: f09e 80bc c637 0ebe dd99 83be 4c14 b3bd
000003a0: 1402 b93c c152 2a3e b0ce 12be 7513 04bd
000003b0: b127 a83d 3862 85be 2f3f 923d 176e 4c3d
000003c0: 0775 51be a309 2e3d 4f2c 4b3e 875a 253e
000003d0: 6ac9 ae3e 9926 823d 79f6 6dbe e079 72bc
000003e0: 8f24 dfbc 6a0e 29be 4d94 d3bc 0b7a e23c
000003f0: 119c d0bd fbb6 15be 0b88 803e d509 9dbd

relational_layer.layers.0.lin_dst.weight f4 [64, 64]
-0.056048986 0.15943538 0.34362435 -0.49673212 0.18423507 -0.10800169 -0.15340574 -0.23587227
0.019075116 0.16512237 -0.04493093 -0.072468095 -0.23114082 0.1381271 -0.31710365 0.067466125
0.024911573 -0.042374905 -0.38173354 -0.4228489 0.05951073 -0.0826621 -0.31509054 -0.042111386
-0.27662838 0.031191343 -0.21650645 -0.50993466 0.08506493 0.07056653 0.1113913 -0.07056196
-0.06336017 -0.20381992 -0.19812286 -0.053621516 -0.08798308 0.10991464 -0.3037944 -0.03501099
0.13393377 -0.06413463 0.14710237 -0.048723664 0.22975755 -0.56422675 -0.18369217 0.16405557
-0.31914508 0.10523262 -0.07183798 0.028622424 0.07925053 -0.21344022 -0.071190685 0.10855787
0.16736265 0.37333193 -0.24829718 -0.13639836 -0.19106148 -0.2723205 0.21861699 -0.1717179
0.09866705 -0.17553136 -0.13252315 -0.015798366 -0.08049911 0.18865508 0.14689046 -0.22333601
0.047730587 -0.077752635 0.017920805 0.2341198 0.2538453 0.38423365 0.020645471 0.20503695
-0.0937547 -0.0995551 0.10015193 0.13949032 -0.1546412 -0.07016287 0.0107974 -0.05998485
0.17741908 -0.111342795 0.1375105 0.32563382 -0.028354002 0.1491327 0.086267 -0.16547605
0.1168048 0.032219797 -0.07808999 0.01935185 -0.21085903 -0.07775132 -0.13863981 0.082095526
-0.031311747 0.10744873 0.009683518 -0.19850112 -0.009677819 0.117302686 -0.33914444 -0.2286284
0.09230719 -0.1573908 0.11331958 -0.13556291 0.040503334 -0.0103065185 0.032476455 0.07980928
-0.08154607 0.40466678 -0.05107319 0.1782917 -0.2049336 -0.047070414 -0.058582645 -0.059037544
-0.20202568 -0.058533344 -0.0026294354 0.10686251 -0.35754946 0.07010412 0.036779497 0.25263402
-0.13267462 0.07714285 0.05195891 0.007034338 0.04063086 0.13260089 0.060890194 0.1650649
-0.09165386 0.042052433 -0.041288532 0.15524252 -0.029371977 -0.14113897 -0.17400531 -0.14816065
-0.26162842 -0.03804649 -0.032751776 0.24249685 -0.19308865 0.35755163 0.0925646 0.004309689
-0.0029022186 0.15523204 0.298198 -0.07650782 0.07950002 -0.25178725 0.06897461 -0.14406861
0.044334214 0.10094287 0.041429568 -0.013531952 -0.085663386 0.10015759 0.058568317 -0.16856883
-0.15785424 -0.124483205 -0.023537485 0.007763561 0.09577407 -0.07708215 0.3439223 0.051745173
0.18002576 0.051986594 0.09168153 -0.20353469 -0.056298863 -0.0038377529 0.21917862 -0.11137808
-0.009761842 0.27601323 0.2423034 -0.11472454 -0.037350994 -0.10537303 -0.5907365 0.008509221
-0.030406322 -0.026786996 -0.0021569843 0.15804178 0.09464442 -0.19971687 -0.047667533 -0.04131247
0.12212975 0.06305813 0.081099026 0.19443382 -0.017442234 -0.15801963 0.005023007 0.12387981
0.3290722 0.37333545 -0.2076859 -0.08073856 0.17343657 0.20306002 -0.006454224 -0.11779881
0.16222247 0.14545806 -0.46178913 -0.048553985 -0.015700787 -0.13888463 -0.25703326 -0.08744106
0.022583999 0.1663313 -0.14336658 -0.03224512 0.082106955 -0.26051497 0.071409576 0.049909677
-0.20454799 0.04248966 0.19841121 0.16147815 0.34138042 0.06355018 -0.23238553 -0.014799565
-0.027239112 -0.16509405 -0.025827551 0.027646085 -0.10186017 -0.14620583 0.25103793 -0.07667891
00000000: 9f93 65bd 0743 233e 88ef af3e ac53 febe
00000010: 1ea8 3c3e fd2f ddbd 6516 1dbe 8088 71be
00000020: 6b43 9c3c d715 293e 7f09 38bd 276a 94bd
00000030: 2eb0 6cbe 3171 0d3e 695b a2be ae2b 8a3d
00000040: 5b13 cc3c 4f91 2dbd 9472 c3be a77f d8be
00000050: 86c1 733d bf4a a9bd 8c53 a1be fd7c 2cbd
00000060: 3ca2 8dbe fd84 ff3c deb3 5dbe 148b 02bf
00000070: 8636 ae3d 2f85 903d 1f21 e43d ca82 90bd
00000080: fac2 81bd 2bb6 50be b8e0 4abe 3ca2 5bbd
00000090: 7930 b4bd ed1a e13d f18a 9bbe af67 0fbd
000000a0: ef25 093e 0459 83bd 01a2 163e 7792 47bd
000000b0: 9045 6b3e 2a71 10bf cd19 3cbe 2ffe 273e
000000c0: fc66 a3be 3384 d73d ca1f 93bd 9379 ea3c
000000d0: 1a4e a23d 1390 5abe 6ccc 91bd 9753 de3d
000000e0: 1d61 2b3e 5d25 bf3e 9e41 7ebe 03ac 0bbe
000000f0: 9fa5 43be 986d 8bbe 22dd 5f3e d1d6 2fbe
00000100: f311 ca3d 7ebe 33be 26b4 07be 936b 81bc
00000110: b8dc a4bd cc2e 413e 746a 163e 32b2 64be
00000120: 2681 433d c63c 9fbd a7ce 923c 1abd 6f3e
00000130: 03f8 813e 46ba c43e b120 a93c 35f5 513e
00000140: 7702 c0bd 8be3 cbbd 741c cd3d 8dd6 0e3e
00000150: 435a 1ebe 8db1 8fbd 94e7 303c adb2 75bd
00000160: 59ad 353e b107 e4bd 8dcf 0c3e 7ab9 a63e
00000170: a746 e8bc 3eb6 183e c1ac b03d 8e72 29be
00000180: 5b37 ef3d e8f8 033d a5ed 9fbd c587 9e3c
00000190: 6eeb 57be 163c 9fbd 98f7 0dbe b321 a83d
000001a0: bf40 00bd 140e dc3d 9ea7 1e3c e143 4bbe
000001b0: b78f 1ebc 643c f03d 57a4 adbe 901d 6abe
000001c0: 8d0b bd3d 0e2b 21be 1914 e83d 01d1 0abe
000001d0: d3e6 253d acdc 28bc 0806 053d 0c73 a33d
000001e0: a001 a7bd 7c30 cf3e 1f32 51bd 1992 363e
000001f0: 1dda 51be e8cc 40bd 5bf4 6fbd 5ad1 71bd
00000200: d2df 4ebe a9c0 6fbd 9b52 2cbb bbda da3d
00000210: b910 b7be c092 8f3d 19a6 163d 3f59 813e
00000220: dbdb 07be 12fd 9d3d ded2 543d 4e80 e63b
00000230: 8b6c 263d 87c8 073e ff67 793d c606 293e
00000240: 05b5 bbbd 2c3f 2c3d 2a1e 29bd e5f7 1e3e
00000250: 809d f0bc bc86 10be 732e 32be 6db7 17be
00000260: 29f4 85be a3d6 1bbd ba26 06bd 1851 783e
00000270: 08b9 45be 0211 b73e 8292 bd3d 4b38 8d3b
00000280: 2633 3ebb 26f5 1e3e 69ad 983e 22b0 9cbd
00000290: e8d0 a23d 42ea 80be 8f42 8d3d b986 13be
000002a0: cb97 353d 23bb ce3d 0db2 293d 1fb5 5dbc
000002b0: 4970 afbd 6c1f cd3d 55e5 6f3d 4f9d 2cbe
000002c0: 8ba4 21be 0df1 febd afd1 c0bc 7865 fe3b
000002d0: 3225 c43d 3fdd 9dbd 9516 b03e bff2 533d
000002e0: ac58 383e e5ef 543d 87c3 bb3d 666b 50be
000002f0: a399 66bd cf82 7bbb 5c70 603e 311a e4bd
00000300: 22f0 1fbc 9b51 8d3e 621e 783e b3f4 eabd
00000310: 5bfd 18bd d1cd d7bd 823a 17bf 426a 0b3c
00000320: ae16 f9bc 6770 dbbc 315c 0dbb b4d5 213e
00000330: efd4 c13d 9482 4cbe 083f 43bd 4437 29bd
00000340: 2a1f fa3d 9f24 813d 3f17 a63d a919 473e
00000350: 04e3 8ebc e6cf 21be 0998 a43b b3b4 fd3d
00000360: 277c a83e d325 bf3e 9dab 54be 425a a5bd
00000370: 5b99 313e f7ee 4f3e f57d d3bb 8140 f1bd
00000380: a61d 263e f5f2 143e a06f ecbe 8be0 46bd
00000390: f09e 80bc c637 0ebe dd99 83be 4c14 b3bd
000003a0: 1402 b93c c152 2a3e b0ce 12be 7513 04bd
000003b0: b127 a83d 3862 85be 2f3f 923d 176e 4c3d
000003c0: 0775 51be a309 2e3d 4f2c 4b3e 875a 253e
000003d0: 6ac9 ae3e 9926 823d 79f6 6dbe e079 72bc
000003e0: 8f24 dfbc 6a0e 29be 4d94 d3bc 0b7a e23c
000003f0: 119c d0bd fbb6 15be 0b88 803e d509 9dbd

action_layer.layer1.0.weight f4 [128, 128]
-0.21674195 -0.083743565 -0.17531563 0.021905482 0.041494798 0.07707266 -0.01259376 -0.14884019
-0.23260899 0.07381874 0.15811253 -0.020911343 0.15900627 0.06758623 -0.09214605 0.020270659
-0.09668236 0.07094568 -0.060281362 -0.076120056 -0.08532388 0.073386386 -0.05839364 -0.18532118
-0.18398574 0.08362114 0.040927682 -0.13247573 0.08929714 0.058777932 -0.19516589 0.16505696
-0.20812115 -0.17225012 -0.01657223 0.029981008 0.04944807 -0.0184547 0.06945616 0.084760845
-0.1863627 0.09247323 0.05400138 0.028411932 0.03808862 0.11232634 0.011382567 0.058254313
0.018549152 0.04722585 0.07957016 0.022981271 -0.05698612 0.11057508 -0.009147488 -0.10319742
-0.011683012 0.041785527 0.10108334 -0.1327651 -0.0010263395 -0.026057223 -0.06433503 0.08944975
0.06642603 0.06397677 0.024859304 0.013210312 0.13052355 0.020685563 0.03107193 0.108246446
0.040007282 -0.007760221 0.059739057 0.07351827 -0.04453792 0.024135564 0.045550194 -0.05406679
0.04079825 -0.12882398 -0.020609392 0.055071063 0.03098134 -0.0051243524 0.07390547 0.017365763
-0.0065659294 -0.057120085 0.026375897 0.012614259 -0.067125894 -0.10643117 -0.089542754 -0.07108736
-0.12273951 -0.04890089 0.023466801 0.15217906 0.058431983 -0.10542844 0.04674356 0.07655856
0.038538262 -0.08304364 0.012759085 0.2678663 -0.013488994 -0.07053558 -0.1204781 0.012616841
0.09040747 0.052315727 -0.16405612 -0.043582626 0.0651046 0.034035902 -0.00631856 0.07348487
0.037584927 0.066663176 -0.017591273 0.06092534 0.031798214 0.002373446 0.0018092594 0.061926417
0.16832942 -0.009854915 -0.21276462 0.16179363 0.14423096 -0.07636285 -0.057013035 0.09575093
0.081872836 -0.04549586 0.02443645 -0.091879286 0.0040377756 0.18533589 0.05988919 -0.3103146
0.00043145035 -0.050487075 -0.049455903 -0.021764822 0.018289536 -0.09351862 0.0013115554 0.11191478
-0.1283173 -0.06750559 -0.09499031 0.014502413 0.01959857 -0.045297846 0.15159363 -0.19765818
0.06999418 -0.10527453 0.09350897 0.099191345 -0.06670286 0.027435137 -0.113933235 0.05258209
-0.14450483 0.1839358 -0.04689648 -0.06752863 -0.035156567 0.1518498 -0.006844326 -0.07614963
0.073577724 0.029925024 0.073781066 -0.1458556 -0.35443375 0.07732099 0.04088071 0.18240918
-0.055495508 0.05181 -0.008197522 0.055790115 0.10533596 0.032055773 0.20906232 0.02806233
-0.0919776 -0.036062483 -0.13667 -0.030318921 -0.011416554 -0.15173584 -0.047916323 -0.05573578
-0.0910022 0.005295209 0.018260024 -0.10392699 -0.12088917 -0.04881967 -0.022302188 -0.03510742
-0.05185056 -0.074691966 0.068771526 -0.12749435 0.068293035 0.0332917 -0.053356655 0.061310805
-0.00016023769 0.050995808 0.10402841 0.050224546 0.14079672 0.048916634 -0.031096255 -0.035146404
-0.044807255 -0.033637077 0.013954985 -0.053769644 0.036134813 -0.19474386 0.07248563 -0.028529834
0.052787952 -0.11619907 -0.078209996 0.20681268 0.04250711 0.04402984 0.0014957252 -0.12930444
0.04374967 -0.19255713 0.044648983 0.051231794 0.055826757 -0.073272526 0.015384043 -0.09063306
-0.0983737 -0.03564184 0.052197218 0.07804085 0.03113572 -0.03603751 -0.08144945 0.18682525
00000000: 9af1 5dbe bf81 abbd f185 33be 2073 b33c
00000010: 73f6 293d 45d8 9d3d 0f56 4ebc 9069 18be
00000020: 0d31 6ebe 482e 973d 40e8 213e 444e abbc
00000030: 8ad2 223e a66a 8a3d 11b7 bcbd a70e a63c
00000040: 6701 c6bd f84b 913d 97e9 76bd d5e4 9bbd
00000050: 49be aebd 9a4b 963d 2b2e 6fbd d6c4 3dbe
00000060: c266 3cbe 8f41 ab3d c9a3 273d b8a7 07be
00000070: 6be1 b63d 21c1 703d 91d9 47be b104 293e
00000080: b61d 55be 5662 30be 7cc2 87bc bb9a f53c
00000090: 0f8a 4a3d 502e 97bc 083f 8e3d 1897 ad3d
000000a0: ddd5 3ebe 9b62 bd3d 8d30 5d3d 24c0 e83c
000000b0: d002 1c3d 5a0b e63d f27d 3a3c 139c 6e3d
000000c0: 64f4 973c e56f 413d aef5 a23d 3843 bc3c
000000d0: 476a 69bd 3075 e23d 58df 15bc 2b59 d3bd
000000e0: 1b6a 3fbc 4d27 2b3d c804 cf3d 93f3 07be
000000f0: 3d86 86ba f575 d5bc 16c2 83bd 6e31 b73d
00000100: 5f0a 883d 4106 833d bda5 cb3c 1170 583c
00000110: f7a7 053e c574 a93c 8f8a fe3c 50b0 dd3d
00000120: adde 233d 7449 febb f1b0 743d bf90 963d
00000130: 656d 36bd f2b7 c53c d792 3a3d 2375 5dbd
00000140: 111c 273d 6fea 03be 07d5 a8bc 3292 613d
00000150: 94cc fd3c 2fea a7bb c05b 973d a542 8e3c
00000160: 0227 d7bb c0f6 69bd 4412 d83c 09ac 4e3c
00000170: 4d79 89bd 96f8 d9bd 3162 b7bd 4096 91bd
00000180: da5e fbbd 4d4c 48bd 733d c03c d4d4 1b3e
00000190: 6056 6f3d deea d7bd 2d76 3f3d bcca 9c3d
000001a0: 4cda 1d3d c912 aabd 7b0b 513c c625 893e
000001b0: f100 5dbc f574 90bd 39bd f6bd deb6 4e3c
000001c0: 8d27 b93d 0449 563d 54fe 27be b283 32bd
000001d0: 8f55 853d 3b69 0b3d ec0b cfbb 3c7f 963d
000001e0: a7f2 193d b486 883d 931b 90bc d98c 793d
000001f0: d83e 023d d18b 1b3b ac24 ed3a 8ea6 7d3d
00000200: 8c5e 2c3e 8276 21bc f8de 59be 3bad 253e
00000210: 48b1 133e 2064 9cbd 8086 69bd 1019 c43d
00000220: f2ac a73d de59 3abd f32e c83c 352b bcbd
00000230: 514f 843b b1c8 3d3e 5e4e 753d 8ee1 9ebe
00000240: 4934 e239 89cb 4ebd 4692 4abd 244c b2bc
00000250: f0d3 953c b186 bfbd 7fe8 ab3a 9433 e53d
00000260: 9c65 03be 5f40 8abd 488a c2bd 879b 6d3c
00000270: 2e8d a03c 3c8a 39bd 5c3b 1b3e e866 4abe
00000280: 1c59 8f3d 2c9a d7bd a281 bf3d d524 cb3d
00000290: 829b 88bd a7bf e03c d455 e9bd 5160 573d
000002a0: 13f9 13be ab59 3c3e 8616 40bd 734c 8abd
000002b0: 5500 10bd 847e 1b3e 5e46 e0bb 56f4 9bbd
000002c0: ebaf 963d 5325 f53c 871a 973d 2c5b 15be
000002d0: 5778 b5be 785a 9e3d 8872 273d 79c9 3a3e
000002e0: 424f 63bd b936 543d e64e 06bc 2d84 643d
000002f0: 61ba d73d ea4c 033d 6f14 563e f9e2 e53c
00000300: c05e bcbd 41b6 13bd 38f3 0bbe 635f f8bc
00000310: 800c 3bbc a460 1bbe e843 44bd 344b 64bd
00000320: 5d5f babd 6f83 ad3b 0c96 953c acd7 d4bd
00000330: be94 f7bd 22f7 47bd 14b3 b6bc cccc 0fbd
00000340: 4161 54bd 1af8 98bd 16d8 8c3d e18d 02be
00000350: 38dd 8b3d e15c 083d 828c 5abd 0a21 7b3d
00000360: 7a05 28b9 fbe0 503d d90c d53d 41b8 4d3d
00000370: 042d 103e cf5c 483d 93bd febc adf5 0fbd
00000380: d087 37bd 08c7 09bd 73a3 643c 8f3d 5cbd
00000390: 1902 143d ef6a 47be 5973 943d 66b7 e9bc
000003a0: 2e38 583d c7f9 edbd 902c a0bd b4c6 533e
000003b0: ef1b 2e3d a258 343d 360c c43a 6268 04be
000003c0: db32 333d b22d 45be dae1 363d 6ed8 513d
000003d0: 99aa 643d e80f 96bd 5a0d 7c3c d39d b9bd
000003e0: 2778 c9bd 2efd 11bd c0cc 553d e2d3 9f3d
000003f0: 5610 ff3c 119c 13bd f8ce a6bd 1e4f 3f3e

action_layer.layer1.0.bias f4 [128]
0.1058039 -0.045152865 -0.003432624 -0.012808896 -0.037586372 -0.14589153 -0.04120011 -0.0049150307
-0.111611575 -0.07164895 -0.035587486 -0.16063073 0.031626433 0.0074522495 -0.040480446 0.06476675
-0.11314228 -0.0061198683 -0.023187304 -0.032528963 -0.13746831 -0.120916456 0.09382258 0.09481209
-0.110242374 0.101421736 -0.11933973 0.034612052 0.033664655 0.018057179 -0.070830554 0.098295525
0.020658966 -0.041264985 0.061442003 0.0153609775 -0.07135493 -0.0041308985 0.05539042 -0.08976065
-0.010383856 0.05983534 -0.034795575 -0.007151514 0.07975682 -0.03725317 -0.12391117 0.013825389
-0.029423524 -0.112408854 -0.04062568 -0.098836854 0.021686025 -0.031522118 -0.13123477 -0.040794965
-0.026712144 -0.00816949 0.041744146 -0.06692429 0.01705301 -0.13975267 -0.011311549 -0.0838808
-0.043203056 -0.017064977 -0.09094853 -0.096484065 0.00016138013 -0.079950735 0.02252878 -0.046637516
-0.041716624 0.027573783 -0.034597922 -0.036788292 -0.02741504 0.03558139 -0.10509528 0.0003652782
-0.07790575 0.04175381 -0.00036762038 -0.0929171 -0.078796305 0.01705493 -0.01727028 -0.04309431
0.02526694 0.02095712 0.038374133 -0.103793204 -0.044463065 -0.052594308 0.04752492 -0.03611849
-0.097811356 -0.041490808 -0.052269727 -0.046178885 -0.10238293 -0.040996596 -0.059169717 -0.017249228
-0.043558773 -0.042783715 -0.11728941 -0.14111 -0.068136685 -0.08440015 0.07927494 -0.047979806
-0.043883253 -0.028883971 -0.054805376 -0.015011714 -0.09892446 -0.015191737 0.038841553 0.019205837
0.029192131 0.046487488 -0.087792136 0.027164439 0.08624514 -0.020587446 -0.07609291 -0.14511019
00000000: b7af d83d 36f2 38bd e0f5 60bb 67dc 51bc
00000010: 2bf4 19bd 9764 15be 72c1 28bd 440e a1bb
00000020: 9c94 e4bd afbc 92bd 2fc4 11bd 627c 24be
00000030: b88a 013d 0032 f43b d3ce 25bd 6ea4 843d
00000040: 24b7 e7bd 2d89 c8bb 4df3 bdbc 173d 05bd
00000050: 7ec4 0cbe 0ca3 f7bd 0e26 c03d d72c c23d
00000060: c1c6 e1bd 33b6 cf3d 6368 f4bd 5ec5 0d3d
00000070: f3e3 093d a6ec 933c 9c0f 91bd 2a4f c93d
00000080: fe3c a93c 7905 29bd 9caa 7b3d 9cac 7b3c
00000090: 8922 92bd 7d5c 87bb 11e1 623d 6fd4 b7bd
000000a0: 0c21 2abc e715 753d ce85 0ebd 3f57 eabb
000000b0: 8b57 a33d c896 18bd 24c5 fdbd e283 623c
000000c0: 9a09 f1bc 9d36 e6bd 1d67 26bd fa6a cabd
000000d0: e4a6 b13c 561d 01bd 6862 06be 9f18 27bd
000000e0: 6dd3 dabc 53d9 05bc e9fb 2a3d 9a0f 89bd
000000f0: c1b2 8b3c 531b 0fbe 1354 39bc b2c9 abbd
00000100: b0f5 30bd dacb 8bbc 3943 babd 7099 c5bd
00000110: 2638 2939 36bd a3bd 478e b83c fb06 3fbd
00000120: 0ddf 2abd 6ae2 e13c 8db6 0dbd 52af 16bd
00000130: 8295 e0bc cbbd 113d 323c d7bd cf82 bf39
00000140: 0d8d 9fbd 0b06 2b3d 2cbd c0b9 524b bebd
00000150: f55f a1bd c8b6 8b3c 677a 8dbc a983 30bd
00000160: 9dfc ce3c 44ae ab3c 322e 1d3d 8891 d4bd
00000170: e71e 36bd 216d 57bd 7ea9 423d fbf0 13bd
00000180: 5251 c8bd 44f2 29bd c818 56bd 1226 3dbd
00000190: 24ae d1bd 0cec 27bd f25b 72bd 414e 8dbc
000001a0: af6a 32bd fa3d 2fbd 6e35 f0bd 247f 10be
000001b0: 3f8b 8bbd fcd9 acbd e65a a23d 7986 44bd
000001c0: edbe 33bd 149e ecbc 9a7b 60bd b1f3 75bc
000001d0: e898 cabd c3e6 78bc 5218 1f3d 8f55 9d3c
000001e0: 5624 ef3c aa69 3e3d 5dcc b3bd f587 de3c
000001f0: 4ba1 b03d 01a7 a8bc 99d6 9bbd c497 14be

action_layer.layer1.1.weight f4 [2, 128]
-0.082494736 0.029265469 -0.40143976 0.11920235 0.09583745 -0.029785262 -0.09552312 -0.3730894
-0.11921827 0.10214991 0.01609028 0.07887864 -0.24486785 -0.1567378 -0.060674224 0.034034792
0.20244843 -0.08097734 0.18592128 -0.095272936 -0.28954667 0.101312704 0.006187449 -0.08739576
0.10337101 -0.0057705897 0.0225784 0.054754533 0.075676754 -0.08684719 -0.22978087 0.031452704
-0.074547306 -0.2511578 0.06212543 -0.1449027 0.021432294 0.2577318 -0.12571537 -0.042927787
-0.24709019 -0.0056906734 -0.07089657 0.027865622 -0.09581258 0.19061199 -0.064515695 0.17325231
-0.46083462 0.130927 0.14589554 -0.015087057 -0.07327173 -0.16167101 0.14354786 0.14150529
0.19758928 0.112137 0.13616276 -0.04393735 -0.13486685 -0.109702766 0.15423375 -0.16162361
0.17831108 0.027398648 -0.17517862 0.055849046 0.1315823 -0.059177864 -0.06547976 0.12780075
-0.11911023 -0.25377566 -0.06313673 0.3024386 0.087441884 -0.21468468 -0.12792027 0.02091158
-0.18068634 -0.07013874 0.11208789 0.14572203 0.05753455 0.011760914 -0.2014364 -0.08558786
0.013191954 0.016582865 -0.053443592 0.095777854 0.087337114 -0.023716664 -0.06390907 -0.049377527
-0.024030639 -0.06479909 -0.039251458 -0.048448388 0.19424956 -0.25389564 -0.04670527 0.04606326
-0.019374307 0.11935288 -0.3057763 0.11754676 0.13081321 -0.10159753 0.041127972 -0.15497518
0.24682641 0.012477429 -0.08452414 -0.022772694 0.22967948 -0.12651522 -0.05646954 -0.1284404
-0.09548929 -0.01753075 0.098463774 -0.020763244 -0.06648876 0.072294444 0.16784881 -0.119136065
0.017584536 0.07280275 0.1800327 -0.2003571 -0.21829084 0.2869406 0.13299291 -0.094156004
-0.1566885 -0.10955018 -0.22786216 -0.031212542 -0.06835254 -0.07916929 0.034677994 0.07171027
-0.086719744 -0.02978105 0.09580211 0.21515429 -0.13498905 -0.026688328 0.07572536 0.08152941
-0.3379144 0.11879612 0.07456268 -0.08196451 -0.14409645 0.051495098 -0.1574023 0.07264459
-0.2084737 -0.021740073 -0.028895989 0.0979675 0.3145851 0.17282186 0.21540333 0.1652059
-0.0068268906 -0.2332351 -0.26622233 0.18729629 -0.055450045 0.21721593 -0.059287023 0.09109046
-0.034688283 0.0700728 -0.08485198 0.1932714 0.21630469 0.011374858 -0.09669091 0.050768435
-0.019196808 0.17516237 0.033445492 -0.20381185 -0.08286338 -0.053546686 -0.08413526 -0.038893677
-0.07955615 -0.1794706 -0.15378319 -0.15724128 -0.32077494 0.082426146 0.03664841 -0.065850176
0.060346432 -0.03846256 -0.105924696 -0.14191854 0.08362693 -0.18102016 -0.2378125 -0.07293233
0.07361413 -0.18812415 -0.00013759454 0.28249958 -0.03105359 -0.12426667 -0.17825378 -0.012688335
-0.10011534 0.2405908 0.14221516 -0.18265854 0.1486623 0.06160452 -0.072642505 0.021576433
0.1599348 0.44762248 0.21834096 -0.06987852 -0.042571094 -0.048813827 0.09926916 0.33906433
-0.106130786 0.22003447 0.28603584 -0.046207346 0.16944644 0.023144001 0.044199824 0.025537023
-0.12526044 0.06869559 -0.04648445 -0.34891507 0.20866522 -0.114811674 -0.012510486 0.11345736
-0.39836982 0.18516007 0.13048464 -0.14477785 -0.0006847605 0.16267417 0.012085832 0.034587506
00000000: 00f3 a8bd 23be ef3c 8389 cdbe 5d20 f43d
00000010: 6d46 c43d 3900 f4bc a0a1 c3bd 9305 bfbe
00000020: b528 f4bd f933 d13d c3cf 833c 208b a13d
00000030: a3be 7abe e07f 20be 8985 78bd 1168 0b3d
00000040: a44e 4f3e 73d7 a5bd 2662 3e3e 751e c3bd
00000050: 763f 94be 097d cf3d 16c0 ca3b 8cfc b2bd
00000060: 2eb4 d33d 3717 bdbb 56f6 b83c 4a46 603d
00000070: 6afc 9a3d f1dc b1bd ad4b 6bbe 8dd4 003d
00000080: 42ac 98bd c197 80be 3c77 7e3d 6061 14be
00000090: c792 af3c 6cf5 833e 88bb 00be 0cd5 2fbd
000000a0: 3605 7dbe d478 babb 3932 91bd 7246 e43c
000000b0: 6339 c4bd ca2f 433e ce20 84bd 0e69 313e
000000c0: 84f2 ebbe ba11 063e a465 153e b42f 77bc
000000d0: 7d0f 96bd 168d 25be 36fe 123e c3e6 103e
000000e0: d854 4a3e 15a8 e53d 406e 0b3e a7f7 33bd
000000f0: 891a 0abe d8ab e0bd 74ef 1d3e a980 25be
00000100: 2e97 363e 2173 e03c 0662 33be f8c1 643d
00000110: 83bd 063e 7d64 72bd 411a 86bd 33de 023e
00000120: 10f0 f3bd e2ee 81be d44d 81bd 3bd9 9a3e
00000130: bb14 b33d 4dd6 5bbe 88fd 02be c34e ab3c
00000140: d705 39be e6a4 8fbd 568e e53d 2838 153e
00000150: 59a9 6b3d d9b0 403c 5845 4ebe b048 afbd
00000160: 1123 583c cad8 873c abe7 5abd 2e27 c43d
00000170: cddd b23d 7349 c2bc c2e2 82bd 1740 4abd
00000180: e7db c4bc 63b5 84bd 23c6 20bd d171 46bd
00000190: 5be9 463e 9cfe 81be 064e 3fbd d4ac 3c3d
000001a0: deb6 9ebc 486f f43d b68e 9cbe 5bbc f03d
000001b0: e6f3 053e 5e12 d0bd ce75 283d d0b1 1ebe
000001c0: 10c0 7c3e 216e 4c3c fe1a adbd cd8d babc
000001d0: 1931 6b3e 358d 01be 9b4c 67bd e185 03be
000001e0: e48f c3bd a69c 8fbc 60a7 c93d ae17 aabc
000001f0: 422b 88bd 1c0f 943d 8fe0 2b3e 9cfd f3bd
00000200: 720d 903c 9c19 953d 7e5a 383e 692a 4dbe
00000210: a287 5fbe e1e9 923e 4b2f 083e ddd4 c0bd
00000220: f372 20be d85b e0bd b354 69be 72b1 ffbc
00000230: 6bfc 8bbd 8223 a2bd 830a 0e3d d6dc 923d
00000240: 1f9a b1bd 63f7 f3bc e633 c43d 6851 5c3e
00000250: 923a 0abe 7ba1 dabc e615 9b3d e4f8 a63d
00000260: 1e03 adbe 614b f33d 52b4 983d 02dd a7bd
00000270: 058e 13be 86ec 523d 122e 21be b0c6 943d
00000280: 217a 55be 3d18 b2bc 48b7 ecbc 2fa3 c83d
00000290: 4c11 a13e 37f8 303e b192 5c3e bc2b 293e
000002a0: 1cb4 dfbb 2fd5 6ebe 4b4e 88be 99ca 3f3e
000002b0: 961f 63bd da6d 5e3e f3d6 72bd a38d ba3d
000002c0: 4d15 0ebd 5482 8f3d e0c6 adbd f0e8 453e
000002d0: fa7e 5d3e 9d5d 3a3c e205 c6bd 90f2 4f3d
000002e0: a042 9dbc c45d 333e 24fe 083d 0eb4 50be
000002f0: 47b4 a9bd c553 5bbd 1b4f acbd fa4e 1fbd
00000300: 56ee a2bd 24c7 37be 5779 1dbe dc03 21be
00000310: 9d3c a4be 0acf a83d a51c 163d 75dc 86bd
00000320: d22d 773d eb8a 1dbd 0cef d8bd 1853 11be
00000330: 9944 ab3d 595d 39be 1f85 73be 8c5d 95bd
00000340: 01c3 963d 9ea3 40be 4147 10b9 c9a3 903e
00000350: 1964 febc 867f febd 2988 36be bce2 4fbc
00000360: 4509 cdbd 6f5d 763e daa0 113e d70a 3bbe
00000370: ee3a 183e 0555 7c3d 98c5 94bd 0fc1 b03c
00000380: f3c5 233e c62e e53e c694 5f3e 781c 8fbd
00000390: 075f 2ebd 02f1 47bd a14d cb3d d799 ad3e
000003a0: 195b d9bd b750 613e 4a73 923e ea43 3dbd
000003b0: 5e83 2d3e 7d98 bd3c e00a 353d 0533 d13c
000003c0: 4644 00be 46b0 8c3d 7b66 3ebd ffa4 b2be
000003d0: 56ac 553e 6222 ebbd c8f8 4cbc 555c e83d
000003e0: 21f7 cbbe 9a9a 3d3e c49d 053e a540 14be
000003f0: 8081 33ba 0f94 263e a703 463c a1ab 0d3d

action_layer.layer1.1.bias f4 [2]
0.037174135 -0.01707539
00000000: e843 183d b0e1 8bbc

encoding_layer.layer.0.weight f4 [64, 180]
0.022612927 -0.027740926 0.03091623 0.24218993 -0.05725556 -0.03435271 -0.017374203 0.009877578
-0.11006745 -0.047504835 -0.12661868 -0.064761385 0.050668195 -0.08279665 0.054213684 -0.06760789
0.19514722 -0.025079546 0.033476215 -0.07865049 -0.019437497 -0.03881215 0.018863467 0.08832209
-0.12780467 0.20670502 -0.08652639 -0.3655609 -0.13964836 -0.042859077 -0.10860271 -0.05154892
0.07204937 -0.075678304 -0.012210718 -0.018774943 -0.038456593 -0.048726786 -0.0065632174 0.0662644
-0.0757873 -0.32280612 0.07056205 0.16257492 0.13578683 -0.1846264 0.0028086326 0.041242104
0.08194618 -0.027208148 -0.026559118 -0.14213742 -0.061839115 -0.14669612 -0.10508245 0.052628
-0.014842814 -0.14099444 -0.27579013 -0.25721508 0.028183678 -0.010973962 -0.036889855 -0.1335456
-0.22536048 0.16748367 0.32484764 0.005487057 -0.16062927 -0.19471617 0.06182444 0.045804083
0.03784981 0.017682333 -0.021812014 -0.15263456 -0.059200596 -0.08644708 -0.12759832 -0.12136805
-0.04179626 -0.13930412 -0.033535894 -0.023069577 -0.14156039 0.02244614 0.060525067 0.04824271
-0.026967514 -0.020325597 -0.089755185 0.015784688 -0.03710091 0.2107702 0.1154048 0.004631936
-0.029932022 0.043852903 0.14056906 0.1320427 0.13130556 -0.09606406 -0.06348585 0.0656851
0.16012856 0.06206169 0.038877685 0.06535206 0.12697281 0.17292586 -0.040784303 0.12061666
-0.10575208 0.028667465 -0.051093224 -0.04478996 0.09654927 -0.041011598 -0.03728942 -0.0100595765
0.10115288 -0.15539339 0.03363428 -0.058580272 0.0052647465 -0.092452854 0.053152442 -0.011910684
0.13462427 0.00061246176 0.004000852 0.04167742 -0.041718595 -0.032142453 -0.009863831 -0.080630705
-0.127873 0.10091116 -0.06839223 -0.116500795 0.013990086 0.095273465 0.019027272 -0.0262024
-0.053511202 -0.002725945 0.061180446 0.08010013 -0.014876081 0.04971025 0.0060303663 -0.005947631
0.04821032 -0.047283985 -0.06573068 0.0830186 -0.122324966 -0.011114698 0.048167117 0.076675616
-0.011658716 -0.047952134 -0.0050262203 0.01790266 0.05977232 0.01000728 -0.062229007 0.03045138
0.035639804 0.033978775 -0.006714404 -0.04083289 0.04785271 0.046503756 -0.018507617 0.042121384
-0.06540853 0.04417609 0.015495745 -0.047987577 -0.039891444 -0.028824575 -0.07846406 -0.046177275
0.12931772 0.06423454 0.16790405 0.13647798 0.012092665 -0.054704577 -0.011838804 0.05379497
0.24430071 0.059940364 -0.068637684 -0.12137208 0.22224912 -0.0944959 0.16376922 -0.14037597
0.06692199 0.06892288 -0.13718939 -0.20832546 -0.14687124 -0.05552006 -0.08711091 -0.10975769
-0.012831014 -0.006428258 -0.022373993 -0.17481036 -0.09370459 -0.008867878 0.019043379 -0.066442706
-0.2633626 -0.14381412 -0.19176531 -0.33721155 -0.0067042103 0.11472029 0.0021940505 0.1921559
0.1457802 -0.030719955 -0.0632565 0.0954402 0.08225936 0.08763738 -0.15611105 -0.09903218
-0.006924031 0.018783234 0.01873555 0.22234261 -0.109415874 -0.027708704 -0.058564518 -0.035078637
0.21591297 0.040703654 -0.10082497 -0.12220202 0.02206206 0.07510119 -0.05367518 0.026125813
-0.03484272 0.06890051 0.006744898 -0.018743418 -0.083895035 0.021897731 -0.058371592 -0.0934019
00000000: bf3e b93c f040 e3bc 0944 fd3c a300 783e
00000010: ce84 6abd 6db5 0cbd 5854 8ebc 91d5 213c
00000020: 0b6b e1bd 6e94 42bd 54a8 01be 9ea1 84bd
00000030: 7489 4f3d 4a91 a9bd 2b0f 5e3d 0176 8abd
00000040: acd4 473e 9f73 cdbc 5b1e 093d 8213 a1bd
00000050: 633b 9fbc 7df9 1ebd 8f87 9a3c 36e2 b43d
00000060: 3adf 02be 7baa 533e bf34 b1bd cc2a bbbe
00000070: fbff 0ebe 008d 2fbd 196b debd f624 53bd
00000080: 9f8e 933d 3afd 9abd 770f 48bc e9cd 99bc
00000090: a984 1dbd bd95 47bd 4210 d7bb a1b5 873d
000000a0: 5f36 9bbd d846 a5be d682 903d 0a7a 263e
000000b0: b40b 0b3e b40e 3dbe 0911 383b 7bed 283d
000000c0: 66d3 a73d 9fe3 debc 8292 d9bc 798c 11be
000000d0: 034b 7dbd 8237 16be 7835 d7bd 7590 573d
000000e0: 462f 73bc d960 10be 5d34 8dbe b2b1 83be
000000f0: 75e1 e63c 22cc 33bc d119 17bd 2ec0 08be
00000100: e6c4 66be d780 2b3e 6e52 a63e c5cc b33b
00000110: 007c 24be ad63 47be a03b 7d3d 109d 3b3d
00000120: 6708 1b3d 8ada 903c 1caf b2bc 3c4c 1cbe
00000130: 537c 72bd 2b0b b1bd 22a9 02be d08f f8bd
00000140: 8e32 2bbd bda5 0ebe ef5c 09bd 69fc bcbc
00000150: 35f5 10be f8e0 b73c 22e9 773d 269a 453d
00000160: faea dcbc de81 a6bc 91d1 b7bd e44e 813c
00000170: 20f7 17bd 25d4 573e 5a59 ec3d 7fc7 973b
00000180: 0034 f5bc 1a9f 333d 56f1 0f3e 3436 073e
00000190: f774 063e 3cbd c4bd df04 82bd e985 863d
000001a0: bef8 233e 6634 7e3d 353e 1f3d 4dd7 853d
000001b0: 2905 023e 7a13 313e 710d 27bd de05 f73d
000001c0: 8c94 d8bd 08d8 ea3c 2147 51bd ad75 37bd
000001d0: a0bb c53d c7fb 27bd cabc 18bd ecd0 24bc
000001e0: 3e29 cf3d 721f 1fbe 19c4 093d def1 6fbd
000001f0: e583 ac3b ec57 bdbd 60b6 593d 0825 43bc
00000200: f2da 093e 9d8d 203a 9419 833b f1b5 2a3d
00000210: 1ee1 2abd cea7 03bd e89b 21bc b621 a5bd
00000220: 24f1 02be 83aa ce3d 3a11 8cbd f897 eebd
00000230: ac36 653c bc1e c33d 15df 9b3c 6aa6 d6bc
00000240: 902e 5bbd c5a5 32bb 5998 7a3d 890b a43d
00000250: ceba 73bc fa9c 4b3d 619a c53b 58e4 c2bb
00000260: 2f78 453d daac 41bd cf9d 86bd a805 aa3d
00000270: 8385 fabd 6c1a 36bc e24a 453d 1b08 9d3d
00000280: 3304 3fbc 7569 44bd feb2 a4bb 99a8 923c
00000290: d2d3 743d 93f5 233c d8e3 7ebd 2c75 f93c
000002a0: 0bfb 113d 542d 0b3d 8104 dcbb 6340 27bd
000002b0: 3401 443d b97a 3e3d 499d 97bc 7987 2c3d
000002c0: e8f4 85bd fdf1 343d dee1 7d3c 9f8e 44bd
000002d0: 3665 23bd 8421 ecbc c4b1 a0bd 6224 3dbd
000002e0: dd6b 043e 668d 833d 0aef 2b3e e2c0 0b3e
000002f0: 5020 463c e811 60bd 8bf7 41bc 1d58 5c3d
00000300: f729 7a3e 0784 753d ea91 8cbd ed91 f8bd
00000310: 4695 633e 1187 c1bd 1eb3 273e b8be 0fbe
00000320: 650e 893d 7027 8d3d 607b 0cbe 4553 55be
00000330: 6a65 16be 0169 63bd 3467 b2bd a4c8 e0bd
00000340: 2c39 52bc 23a4 d2bb aa49 b7bc 7d01 33be
00000350: 31e8 bfbd 934a 11bc dc00 9c3c 1d13 88bd
00000360: 76d7 86be 0244 13be 205e 44be fea6 acbe
00000370: feae dbbb 79f2 ea3d 0fca 0f3b 84c4 443e
00000380: 6847 153e 6aa8 fbbc a08c 81bd 2776 c33d
00000390: 9877 a83d 3a7b b33d 93db 1fbe 62d1 cabd
000003a0: fbe2 e2bb 4cdf 993c 4c7b 993c c8ad 633e
000003b0: 6e15 e0bd 5dfd e2bc 59e1 6fbd 9eae 0fbd
000003c0: 4a18 5d3e e0b8 263d 527d cebd 0d45 fabd
000003d0: 7ebb b43c a7ce 993d 81da 5bbd cd05 d63c
000003e0: 3db7 0ebd b61b 8d3d 4e04 dd3b cc8b 99bc
000003f0: 29d1 abbd df62 b33c 0d17 6fbd 7f49 bfbd

encoding_layer.layer.0.bias f4 [64]
-0.08938266 -0.010751733 -0.08500514 0.007814954 0.06832416 -0.10352184 -0.0014881722 0.054633953
-0.010375856 0.05258993 -0.10574794 -0.073278874 -0.021784725 -0.045602493 0.09381117 0.0332128
-0.019506043 -0.060847487 0.044118155 -0.06054596 -0.030018918 -0.08466198 0.034761384 -0.045048695
-0.030773928 -0.017223436 -0.096304715 -0.03410509 0.041399952 0.015726425 -0.008060358 -0.029105512
-0.11044476 -0.037582386 -0.036253944 -0.027495233 -0.06450779 -0.09375253 0.019716842 -0.06345814
0.012318272 0.01767715 -0.058697633 -0.068157576 0.032749604 -0.05275874 -0.03484975 -0.037650794
0.01775054 0.0026333753 -0.06630056 -0.069867775 0.084311284 0.06026452 -0.007636916 -0.001603068
0.0013922721 0.05717613 0.045145966 -0.012705487 -0.066625595 -0.012982219 0.020479886 0.017245984
00000000: 420e b7bd 0928 30bc 2d17 aebd 4b0a 003c
00000010: 8aed 8b3d 4203 d4bd c60e c3ba dac7 5f3d
00000020: 7fff 29bc 8a68 573d 6092 d8bd 3c13 96bd
00000030: e175 b2bc aec9 3abd 1220 c03d 250a 083d
00000040: 23cb 9fbc 373b 79bd 3db5 343d 0aff 77bd
00000050: 3cea f5bc 4363 adbd f461 0e3d fb84 38bd
00000060: 9b19 fcbc 2a18 8dbc 683b c5bd c7b1 0bbd
00000070: ff92 293d b4d4 803c 980f 04bc af6e eebc
00000080: dd30 e2bd fdef 19bd 047f 14bd af3d e1bc
00000090: a91c 84bd 5401 c0bd 3785 a13c 57f6 81bd
000000a0: 94d2 493c accf 903c ee6c 70bd 3396 8bbd
000000b0: 7324 063d 8c19 58bd 9dbe 0ebd b837 1abd
000000c0: 9569 913c b594 2c3b 97c8 87bd d616 8fbd
000000d0: 65ab ac3d eed7 763d 183f fabb 091e d2ba
000000e0: e67c b63a 8531 6a3d faea 383d ad2a 50bc
000000f0: 0073 88bd 60b3 54bc 6fc5 a73c 7347 8d3c

relational_layer.layers.0.att_src f4 [1, 1, 64]
-0.5143747 -0.11716074 -0.118074775 -0.13496298 -0.1268982 0.2353998 -0.012759827 -0.19433613
0.23907632 0.02196643 0.34584808 -0.5401229 -0.3688628 -0.37483957 0.11191275 -0.6017919
0.21099965 -0.08703799 0.16405995 0.41813418 0.18263194 -0.57773304 0.5707362 0.28569898
-0.081153624 -0.34945098 0.46840066 -0.0415491 -0.39307198 -0.09441177 -0.17715013 -0.2433647
-0.10099046 -0.057260532 -0.019326828 -0.10696992 0.29290956 -0.16402526 0.33910754 -0.1348922
-0.12280123 -0.3737239 0.29258254 0.4456678 0.174418 0.37074664 -0.18907781 -0.017180335
-0.6427911 -0.23691848 0.4519794 0.19511928 -0.0750621 -0.09914695 0.30495468 -0.45814508
-0.18828169 -0.21538088 0.1473731 0.057939194 0.01778311 0.0409271 -0.23425737 0.23898368
00000000: 0fae 03bf f8f1 efbd 30d1 f1bd bc33 0abe
00000010: 9af1 01be a50c 713e 980e 51bc 0d00 47be
00000020: 6cd0 743e f1f2 b33c 0013 b13e 7f45 0abf
00000030: 96db bcbe f9ea bfbe 8332 e53d 090f 1abf
00000040: 4b10 583e f940 b2bd 55ff 273e af15 d63e
00000050: de03 3b3e 50e6 13bf c51b 123f 2347 923e
00000060: df33 a6bd 3deb b2be 36d2 ef3e 642f 2abd
00000070: bb40 c9be f55a c1bd d866 35be 9934 79be
00000080: 16d4 cebd 058a 6abd 4c53 9ebc 0c13 dbbd
00000090: 3ef8 953e 3df6 27be 819f ad3e 2e21 0abe
000000a0: 367f fbbd bd58 bfbe 61cd 953e 922e e43e
000000b0: a29a 323e 81d2 bd3e 9d9d 41be c6bd 8cbc
000000c0: f58d 24bf c29a 72be d869 e73e 59cd 473e
000000d0: 29ba 99bd 8e0d cbbd 0523 9c3e fe91 eabe
000000e0: eacc 40be ce8c 5cbe f9e8 163e a651 6d3d
000000f0: e2ad 913c 2da3 273d 2ae1 6fbe 23b8 743e
