HGAT-MADDPG_ver2/ModelBuffer/model_3400.pt (torch, 369835 bytes, 33 tensors)

encoding_layer.layer.0.weight f4 [64, 180]
000000 35 71 16 bd 43 59 53 bc d6 0c d2 3b e2 22 bc bc
       -0.036729056 -0.0128997 0.0064102216 -0.022965852
000010 18 d7 19 3d 60 3d c4 bc 70 8d 97 bd f2 3b fc 3d
       0.037558645 -0.023955047 -0.07400024 0.12316121
000020 96 98 2e be 7f da 06 be 1e 31 07 3d cc 32 b5 bd
       -0.17050394 -0.13169287 0.033005826 -0.08847579
000030 de df 00 bc 14 6c 10 bd cf 32 e5 bc e6 02 da 3d
       -0.007865874 -0.03525932 -0.027978329 0.10645084
000040 6c 01 8d 3d cd 3a e0 3d 21 96 b5 3d 41 fb 55 bd
       0.06885037 0.10948715 0.088665254 -0.052241568
000050 0b dc 3a 3e 26 cd 87 3d 44 aa 22 3b bc b4 c5 bd
       0.18248002 0.06630926 0.0024820725 -0.09653613
000060 21 a2 12 3e 12 72 3f 3d 60 a2 9d 3e b3 58 e6 bd
       0.1431966 0.046739645 0.30787945 -0.11247387
000070 22 8c 19 be 9b 95 6f 3e 45 64 1e bd 99 b0 e8 3c
       -0.14994863 0.23396914 -0.038669843 0.02840452
000080 88 62 9e bc 1e b5 11 bd d3 6f 06 3d fb f5 9b 3e
       -0.019334093 -0.035573117 0.032821488 0.30461106
000090 42 96 15 bd 39 bc 21 be cf 88 27 bd 61 17 30 be
       -0.03652025 -0.15794457 -0.040901955 -0.17196418
0000a0 32 23 b6 3d 81 56 db 3e ce ce b4 3d 3a bb 7e be
       0.08893432 0.42839435 0.08828507 -0.24876109
0000b0 01 a1 4d be d6 cd b9 3c 3e bf b1 bd c6 b7 c0 be
       -0.2008095 0.022681158 -0.08679055 -0.37640208
0000c0 02 2e 4d be 70 50 77 be 05 6e 10 3e 7a 59 8a 3d
       -0.20037082 -0.24151778 0.14104469 0.067553475
0000d0 ea 82 cf 3d ad 94 52 3e a3 dd 34 3e e4 0e 1d be
       0.10132392 0.20564528 0.17662673 -0.15337712
0000e0 09 6d 0d be 01 71 ff 3b 8b 50 80 be 1a df 91 be
       -0.13811125 0.0077954535 -0.2506145 -0.28490525
0000f0 9b 81 9c be 85 a5 b2 bd 55 70 03 3e 7a 4e 94 be
       -0.3056763 -0.087229766 0.1283582 -0.28966123
000100 ad 65 81 be 5a 7c ad bd 01 88 3c be 4e 9f 8e bd
       -0.25272885 -0.08470984 -0.18411256 -0.06963979
000110 dc 06 0c be 38 ad d3 bd a4 d8 93 3d 4f 59 6c be
       -0.13674492 -0.10335773 0.07219055 -0.23080944
000120 a9 b1 6f 3d 4d 55 6e 3d 31 34 ad 3d 1d 34 f0 bd
       0.05851904 0.058186818 0.0845722 -0.1172869
000130 87 ca f5 3d 79 4d cd bc 4e cd 33 3e 2a 23 95 3e
       0.1200152 -0.025061356 0.17558786 0.2912839
000140 29 1e 5f be b9 c0 cc 3c 28 c2 02 3e e6 2a e1 bd
       -0.21788849 0.024994241 0.12769377 -0.1099451
000150 96 71 a7 bd 7d f7 09 3e f7 fe a9 3d cc 79 2b be
       -0.08175962 0.13473316 0.08300584 -0.1674568
000160 4b 57 00 3e 8b 59 45 3e ea bf 00 3e 89 4f 58 be
       0.125333 0.19272439 0.1257321 -0.2112409
000170 c9 91 40 bd 9f 75 90 3d 99 34 20 3e 70 ee 00 3e
       -0.04701403 0.070536844 0.15645064 0.12590957
000180 41 5d 83 bd d4 88 85 bd cb 48 ef bd 1a 03 28 be
       -0.06414271 -0.065202385 -0.11683806 -0.16407433
000190 9e 92 61 bb 7b 07 03 3e 5f fc ea bd 5b 37 a6 bd
       -0.0034419666 0.12795822 -0.11473917 -0.08116027
0001a0 88 91 b1 bd 97 f0 ec bc e4 c7 96 bc cb 64 0c 3c
       -0.08670336 -0.028923316 -0.018405862 0.008568953
0001b0 a0 ce 70 3d df 3d 03 3d b2 87 d4 3d ce d9 c7 bc
       0.058790803 0.032041427 0.10377444 -0.02439585
0001c0 c3 2e 2f bd 77 0c 62 bd 77 54 08 bd 60 4e cb bd
       -0.042769205 -0.05518767 -0.033283677 -0.09927058
0001d0 a6 4f 0c 3e a1 65 89 bd 43 7f 71 bd 9a 88 9e 3d
       0.13702258 -0.06708837 -0.058959257 0.077408984
0001e0 52 4d 3e bd 1a 2f ee 3d c3 5f 8f bd b8 74 37 3d
       -0.046460457 0.11630078 -0.07000687 0.044789046
0001f0 cc 93 82 bd 1f d2 19 3e f8 57 35 3d 5e 15 f6 3c
       -0.06375846 0.15021561 0.044273347 0.030039486
000200 6a 75 d9 bd 43 6b e9 bd 05 a2 f0 bc 96 f2 20 bc
       -0.10618098 -0.11397412 -0.029374132 -0.009823462
000210 b3 8d be 3d 6d 45 4f bd 72 cb da 3d 61 b3 c3 bc
       0.09304371 -0.05060332 0.10683335 -0.023889245
000220 90 51 ab 3d 62 48 b1 3c 6b b4 2b 3d fe f7 82 bc
       0.08365166 0.02164096 0.041920107 -0.015987393
000230 51 0c ba 3d 85 2f ad bc 82 70 9f bd a2 99 e1 bc
       0.090843804 -0.021140823 -0.07785131 -0.027539078
000240 6e f5 8c 3d e3 f3 0e bd eb 0e a3 3c e4 b7 ea bc
       0.068827495 -0.034900557 0.019904574 -0.028652139
000250 24 e3 70 3c 11 70 2a bc f9 00 62 bd d7 3d dc bd
       0.014702592 -0.010402695 -0.05517671 -0.107539825
000260 99 dd 16 3d 05 d4 7f bd 96 a2 a4 bd 36 37 39 be
       0.036832426 -0.062458057 -0.08038823 -0.18087468
000270 b3 12 88 bc ce 9d 2f bd 76 66 9d bd e5 87 6c bd
       -0.016610479 -0.042875104 -0.076855585 -0.057746787
000280 0f 6a 7e bd d3 c4 15 3d 05 01 a6 3c 7a 1a 9a 3c
       -0.062112864 0.03656466 0.020264158 0.018811453
000290 5b e3 87 3d 83 92 f8 3c 5b 29 ca 3d ff 25 6f 3d
       0.066351615 0.0303433 0.09871169 0.058385845
0002a0 53 50 3d 3d 90 9e 1b 3c 7e e9 0a bb 9d 7d c7 3d
       0.04621918 0.009498253 -0.00211963 0.09740756
0002b0 77 6a e1 3c e9 4f 3d bc 7e ac 0f 3b 28 9c 87 3d
       0.027516587 -0.011554697 0.0021922882 0.06621581
0002c0 19 76 31 3e c2 6d f4 be e2 6c c8 3e 6a 49 11 3c
       0.17330207 -0.4773999 0.3914557 0.008867601
0002d0 58 cf 12 3d b9 86 0f 3d 02 21 f0 bc 31 a5 34 bc
       0.03584227 0.03504059 -0.029312614 -0.011025713
0002e0 fe 3a 14 3e d3 98 91 3d a7 2a 13 be 34 aa da 3a
       0.14475629 0.07109227 -0.1437174 0.0016682805
0002f0 e0 83 0f 3d 2f 27 8c bb fe fe fe bd eb aa 93 bc
       0.035037875 -0.004277132 -0.1245098 -0.018025836
000300 c2 09 73 be 9d 6c af bd 80 73 19 3d c5 17 40 3e
       -0.23734191 -0.08565638 0.037463665 0.18759067
000310 e5 0c 07 be 5f 74 ac 3d 11 06 a4 bd e5 e4 eb 3c
       -0.13188513 0.084206335 -0.080089696 0.028795669
000320 fe 08 55 bd d6 cb b5 bc 6c 80 41 3d 80 4d 52 bd
       -0.05201053 -0.022191923 0.047241613 -0.05134344
000330 1c 76 35 3d 9d fa 21 3e 2c 9d 85 be 75 d9 0c be
       0.04430209 0.15818258 -0.26096475 -0.13754828
000340 01 83 a5 3e 1d ce b6 3e ba ca 4d 3b 38 db 93 3c
       0.3232651 0.35704127 0.0031401352 0.018048868
000350 bc 80 ab be 02 11 b6 3d 73 47 d1 be 53 7a cb 3e
       -0.33496654 0.08889963 -0.40874824 0.39741763
000360 f5 30 a0 3e f4 56 37 bd 09 75 3e 3d e0 3a c9 bc
       0.3128735 -0.04476066 0.046498332 -0.024564207
000370 d6 92 d8 3d e8 83 aa bd 85 4b ad bb 7b 64 fb bc
       0.10574882 -0.0832594 -0.0052885436 -0.030687561
000380 14 27 1b be 78 86 58 3d 80 5d 8c 3d 76 f7 a1 bd
       -0.15151626 0.052862614 0.06853771 -0.079085276
000390 e8 92 e6 bd 9e 80 31 be 6b b8 4c 3c ab 85 87 3d
       -0.11258489 -0.1733422 0.012495141 0.06617292
0003a0 8d 6d 31 3d ec ef 48 be fd 02 07 be 6f 2a 58 b9
       0.043317366 -0.19622773 -0.13184734 -0.00020615173
0003b0 d8 3d 97 bc 78 02 33 3c e0 cd ff bd 94 9f 50 be
       -0.018462107 0.010925882 -0.124904394 -0.20373374
0003c0 71 8f 4d be 7d 5d 36 3e 7d 05 90 3b 1c 59 8f bd
       -0.2007425 0.178091 0.0043951855 -0.06999418
0003d0 73 7d 08 bd ac ff bd 3d ab 19 4d be d1 4f 1a be
       -0.033322763 0.09277281 -0.20029323 -0.1506951
0003e0 b1 6c 01 bd d7 47 02 bc 24 e1 6d be 0a 71 5f be
       -0.031597797 -0.007951698 -0.23230416 -0.21820465
0003f0 06 34 ba bd 57 c0 ba be 89 b7 b4 be 78 2a 90 be
       -0.09091954 -0.3647487 -0.35296276 -0.281574

encoding_layer.layer.0.bias f4 [64]
000000 fe 1c 9b 3d de e2 d7 3c bd 11 b4 3c 58 db 0a bd
       0.07573889 0.026353296 0.021981115 -0.03390059
000010 bf cc d4 bc 02 7b b6 3d a7 6b 59 3c 33 ec 92 bd
       -0.025976537 0.08910181 0.013270295 -0.07173958
000020 30 5c f2 3c 76 d6 39 bd 85 09 3e bc 6b 8e b5 bd
       0.029584974 -0.04537054 -0.011598949 -0.08865055
000030 49 03 d8 bc 6a 34 93 3d 1f d8 1d bd b8 75 12 bd
       -0.026368754 0.071877316 -0.038536187 -0.035756797
000040 88 5a eb bc 70 2e 9c bc 3b 23 aa 3c 49 92 75 3d
       -0.028729692 -0.019065112 0.020768752 0.05995396
000050 9f de 2a bd 14 3b 06 bd 10 09 c9 bd 6b 63 ef bc
       -0.041716214 -0.032771185 -0.09816182 -0.02922221
000060 b4 b1 38 bd d3 ef 65 bd 73 e5 3c 3d ef f6 91 3c
       -0.045091346 -0.056136917 0.046117257 0.017817942
000070 ad 34 81 3d 60 86 44 bb 4c 90 85 bc ff 1f 8c bd
       0.06308875 -0.002998732 -0.016304158 -0.0684204
000080 36 b7 b6 3c 4b 3a e6 3c 27 0c 15 bd 27 c3 9b 3b
       0.022304159 0.028103968 -0.036388543 0.0047534886
000090 10 9f cd 3a d6 02 e0 bd 09 ee d4 bd 7f 6d 86 bd
       0.0015687663 -0.10938041 -0.10396964 -0.065638535
0000a0 20 6c 3d 3d c6 19 a1 3c 3e 60 b1 3c 5b aa b6 3c
       0.046245694 0.01966561 0.021652337 0.022298029
0000b0 00 bf d3 3a bc 85 00 3d 0d 6c a4 3c c3 0a 99 3c
       0.0016154945 0.03137754 0.020071054 0.01868189
0000c0 c0 63 bd bd fb 49 3c bd 39 4c b5 bc 8a 6c 5e bc
       -0.092475414 -0.04596899 -0.022131072 -0.013575682
0000d0 49 84 cd bc 5a 34 a1 bc 18 4e a2 3b ef 68 d5 3d
       -0.025087493 -0.019678283 0.004953157 0.10420405
0000e0 59 5e d7 bc 60 dc 99 bd 70 ce cb 3c cc 4b 96 3d
       -0.026290106 -0.07512736 0.02487871 0.07338676
0000f0 d5 44 87 bd 96 76 a4 bc c2 c2 cc bb a5 23 09 bc
       -0.066049255 -0.020076077 -0.006248803 -0.008370315

relational_layer.layers.0.att_src f4 [1, 1, 64]
000000 fe 0a 0c bd 7c 26 97 3e 36 b8 92 be a4 22 9d 3d
       -0.03419017 0.2952155 -0.28656167 0.07672623
000010 c9 f9 7f be b0 b3 81 bd b3 a1 c5 3e 82 dc c0 3d
       -0.24997629 -0.06333101 0.3859993 0.094170585
000020 f4 40 8d 3e d9 bb b7 be b8 87 26 3e 65 ed 9b be
       0.27588618 -0.35885504 0.1626271 -0.30454555
000030 44 ec a4 3e 7b 07 c6 3d f2 28 ed 3e be 3b 1b be
       0.32211506 0.096693955 0.463203 -0.15159509
000040 99 48 64 be fa 24 3f 3e 6a 9c c0 3e 17 5c b8 be
       -0.22293319 0.18666449 0.37619334 -0.3600776
000050 51 54 53 3c 98 9c 92 be 75 a7 86 bd ab 6c 60 3e
       0.012898521 -0.28635097 -0.06574909 0.21916454
000060 7c 55 ec bd 25 ce ae be 32 a9 ba be 91 a9 47 3d
       -0.11539742 -0.3414165 -0.3645721 0.048745696
000070 c2 50 8f 3d c3 30 cd be e1 4a 87 be 9a dc 47 3d
       0.06997825 -0.40076265 -0.26424316 0.048794366
000080 77 32 0a 3e 8f da 07 ba ef 9e cd 3e 2c da a1 be
       0.13495813 -0.0005182409 0.4016032 -0.31611764
000090 85 3c 38 3e f2 b5 14 be 18 00 66 be 67 1e 21 3e
       0.17991836 -0.14522532 -0.22460973 0.15734254
0000a0 c4 65 9d 3e 40 1c 84 be 7c 5f 2e be 5c 1c b6 3c
       0.30741704 -0.25802803 -0.17028612 0.02223032
0000b0 e4 5c cc 3e 2c db 3c be 6f 14 54 3e 3b c4 80 3e
       0.3991462 -0.18442982 0.2071092 0.25149712
0000c0 6f 17 88 be 5f b6 66 be 0a 10 86 3e 48 56 e6 3d
       -0.26580378 -0.22530507 0.26184112 0.112469256
0000d0 50 6b ca 3d e5 79 4b bd d5 54 92 be 5d ee 5e 3e
       0.098837495 -0.049676795 -0.28580347 0.21770616
0000e0 e0 44 88 be 02 e8 a7 be ab 30 0d be 7b e0 0c be
       -0.26615047 -0.32794195 -0.13788097 -0.13757508
0000f0 58 ad c9 3d 40 90 60 3e c9 44 44 3e 50 58 86 3e
       0.09847516 0.21930027 0.19166864 0.26239252

relational_layer.layers.0.att_dst f4 [1, 1, 64]
000000 a9 d5 d7 be 3a e9 19 bd e3 e7 db 3e b5 98 86 be
       -0.42155197 -0.037575938 0.42950353 -0.2628838
000010 f4 ac a7 be 3b 0c 0f be 49 61 31 be 62 40 e2 be
       -0.3274914 -0.1396951 -0.17322268 -0.44189745
000020 d4 d5 92 3e f6 49 6c 3d 24 e6 8b be 11 af 38 be
       0.28678763 0.057687722 -0.2732402 -0.18035533
000030 74 e8 fd 3e 5d 8e 57 be 5f 4a 51 be d3 db 1c 3e
       0.4959141 -0.21050401 -0.20438527 0.15318231
000040 3f 4a a2 be 8f 11 c2 be 97 3e 2c 3d a0 f7 bd 3d
       -0.3169727 -0.3790402 0.042051878 0.09275746
000050 88 0b 9b 3e 93 b9 e5 3d 54 b6 96 3e 48 9b 06 bd
       0.30282235 0.11217036 0.2943598 -0.03286293
000060 29 0b 08 be d2 7e 6c 3e 34 bf 91 3e 3b 08 25 3e
       -0.13285507 0.23095253 0.2846619 0.16116421
000070 09 62 72 3d b0 2e 01 be a4 8e f6 be 24 28 52 be
       0.059175525 -0.12615466 -0.481557 -0.20523125
000080 a7 eb a3 3e 2b 56 ea 3d 8f 00 7d be 94 e5 27 3e
       0.32015726 0.114422165 -0.24707244 0.16396171
000090 11 1a b8 3e fc b7 03 3f c5 82 54 3c 2d ee 69 3d
       0.35957387 0.5145261 0.012970631 0.057111908
0000a0 08 9f 00 be 1a d1 cf be 05 e3 86 3e b4 4a df 3d
       -0.12560666 -0.4058922 0.26345077 0.1090292
0000b0 ed c4 68 3e 58 48 6b 3e eb 33 58 bd 84 dd fb bc
       0.22731371 0.22976816 -0.052783888 -0.030745275
0000c0 c0 1f 20 3e ea 3b 07 be 90 d3 9f bd be 83 93 be
       0.15637112 -0.13206449 -0.07804024 -0.2881145
0000d0 c2 5d cf be 60 d3 4b be 3c 12 af bd 6c 48 87 be
       -0.4050122 -0.19904852 -0.085484 -0.2642244
0000e0 d1 a3 14 bf f8 ac cd be 99 a0 de bb 74 e6 0a 3e
       -0.58062464 -0.40171027 -0.006794047 0.13564473
0000f0 bd b0 2a 3d e6 40 ab bd d0 8f 9d be e6 09 13 bf
       0.041672457 -0.08361988 -0.30773783 -0.5743698

relational_layer.layers.0.bias f4 [64]
000000 e9 78 aa 3c a5 cd 14 be 15 f2 2c be ac b8 c1 bd
       0.020809608 -0.14531572 -0.16889222 -0.094590515
000010 d8 88 2e 3d b9 14 eb 3c 7c 96 f9 bd 66 2b e7 bd
       0.042610973 0.028696405 -0.12186906 -0.112875745
000020 3e fb c6 bd b5 f9 09 bc 6d ce ef bd 50 de e0 3c
       -0.097158894 -0.008421351 -0.117092945 0.027449757
000030 c9 97 7b be 29 eb c0 bb c5 ab 4b be c9 a4 ce 3c
       -0.2456962 -0.0058874083 -0.19889744 0.02522506
000040 5b 57 27 3b 09 c5 12 be bf fb 99 bc d3 e8 c8 3b
       0.0025534246 -0.14332975 -0.0187968 0.0061312704
000050 17 1b 4f be 4c 7a 2c bd d4 40 37 be 35 b5 ba bd
       -0.20225178 -0.04210882 -0.17895824 -0.09116594
000060 94 57 35 3d b1 e1 35 3b 0e ab e4 bc ec 43 53 bd
       0.044272974 0.002775293 -0.027913596 -0.051578447
000070 29 47 bc bd 1a 99 34 bd ea 7c 0f be 7e ff 7f 3d
       -0.0919326 -0.04409132 -0.14012495 0.062499516
000080 c6 b3 3e bd bc 18 48 3d 74 23 47 bc d7 a2 71 bd
       -0.046558164 0.048851714 -0.012154449 -0.058993187
000090 f3 e2 4b bd 44 9a 17 be 61 29 99 bd a5 16 0d 3d
       -0.049776983 -0.14804941 -0.074785955 0.034445424
0000a0 da 62 f7 bd da f6 84 bd d8 3c 44 bb d5 c7 a6 bd
       -0.12079401 -0.06492396 -0.0029943492 -0.08143584
0000b0 d4 95 82 bd 24 17 0d 3c ff 5f 81 3d 64 10 8b bd
       -0.06376234 0.008611474 0.06317138 -0.06790236
0000c0 5f 39 de bb 37 f6 a8 3a 10 7c 26 be 40 58 41 bc
       -0.0067817415 0.001289076 -0.16258264 -0.011800826
0000d0 0f 62 a5 bd 78 82 a8 bd b0 69 fa bc 5e 8e 02 be
       -0.08075344 -0.0822801 -0.030567974 -0.12749621
0000e0 97 ca 0b bd 79 12 b2 bd 0a 0c 3f bd c5 de 5e 3d
       -0.03412875 -0.0869493 -0.04664234 0.05441167
0000f0 80 0a 89 3d 15 75 23 bc 57 fa 81 3c a5 b8 45 3d
       0.06691456 -0.009976645 0.015866442 0.048271794

relational_layer.layers.0.lin_src.weight f4 [64, 64]
000000 9e ad 39 be c4 d9 de 3d 03 f8 dc 3e 92 7c de be
       -0.18132636 0.10881379 0.43157968 -0.43454415
000010 3c f1 48 3e 42 52 d9 bd 65 35 34 be 03 81 ae be
       0.19623274 -0.106113926 -0.17598493 -0.34082803
000020 13 59 33 3e 48 bf 93 3c d2 25 ca bd ad 43 58 39
       0.17514448 0.018035546 -0.09870495 0.00020624576
000030 b1 48 83 be 21 8c 82 3d 3b 73 9e be e7 58 3c 3e
       -0.25641397 0.06374384 -0.3094729 0.18393289
000040 ac 17 0c 3c af 15 14 3e 77 e7 0e bf 62 64 0d bf
       0.008550566 0.14461397 -0.5582194 -0.55231297
000050 56 20 71 3d d8 49 14 3e 52 cb b7 be 3a 06 11 3e
       0.05886873 0.14481294 -0.3589731 0.14162531
000060 f6 16 31 be 8e ad 22 3d d4 1e 2d be 88 5b d9 be
       -0.17293915 0.039716296 -0.16906291 -0.42452645
000070 b2 1f 05 bd d4 96 3e bd 74 8d ef 3d 28 f2 11 be
       -0.03250093 -0.04653056 0.11696902 -0.14252532
000080 bd 18 20 be f0 fd 0a be 5d 6d 50 be 29 2e 79 be
       -0.15634437 -0.13573432 -0.20354219 -0.24334015
000090 a6 80 3b bc 4f 2b ed 3c 9e 14 6b be 7f d9 bc bc
       -0.011444246 0.028951315 -0.22957084 -0.023052929
0000a0 9c 1f fe 3d ff 05 99 3d 12 5c 34 3e 68 a2 ed 3a
       0.12408373 0.07471847 0.17613247 0.0018130066
0000b0 d3 e0 c8 3e 2f ac f2 be 72 72 e7 bd 89 63 e4 3d
       0.39234027 -0.4739699 -0.113011256 0.11151797
0000c0 dd a0 a0 be ba 8c ca 3c f6 5b 82 3b cf 84 88 bc
       -0.3137273 0.024725307 0.0039782478 -0.01666489
0000d0 e1 94 12 3d 8b 46 3c be c0 dd 87 be 20 04 3f 3d
       0.035786513 -0.18386285 -0.2653637 0.046634793
0000e0 aa 05 1c 3e 6d 86 e3 3e 6d 8d 4c be 6d ae 88 bd
       0.15236536 0.44438496 -0.19975825 -0.06673894
0000f0 2c e1 4d be 0a cf e6 bd f3 c7 a7 3e a7 df 38 be
       -0.20105428 -0.11269958 0.32769737 -0.18054067
000100 8a 0a ce bd be c3 0d be d2 1e 1b be d7 28 16 3d
       -0.10060604 -0.13844201 -0.15148476 0.03666004
000110 20 13 23 be 24 db b7 3d 79 de 45 3e 1e 52 90 be
       -0.15925264 0.08977345 0.19323148 -0.2818765
000120 a0 40 c5 3d cd 4b 88 3c 09 25 c3 3b 43 54 a1 3e
       0.09631467 0.016637707 0.0059553427 0.315096
000130 35 c3 55 3e 2c d3 d6 3e 47 41 87 3d 89 95 58 3e
       0.20875247 0.41957986 0.066042475 0.21150793
000140 3f 37 8c be d7 56 e3 bd f4 82 52 3e ec 85 7a 3d
       -0.273859 -0.11100548 0.20557767 0.061162874
000150 6b 42 01 bd 45 98 80 3c 36 40 13 3b 1b da 99 3c
       -0.03155748 0.015697608 0.0022468693 0.018780759
000160 50 45 21 3e a0 d8 10 be d1 b7 3a 3e 6a a0 38 3e
       0.15749097 -0.14145136 0.18234183 0.18029943
000170 92 e0 06 3e c8 8c 1b 3d ff d3 6e 3e 08 0e cf bc
       0.13171604 0.037976056 0.23323058 -0.025275245
000180 37 99 e7 3d f3 0f f8 bc 3b 05 ba be ed 05 fa bd
       0.1130852 -0.030281043 -0.36332116 -0.122081615
000190 5e 2d 65 be 2c 26 46 3c a1 4d 14 be 9c e1 00 3e
       -0.22380587 0.012094062 -0.14482738 0.12586063
0001a0 11 73 ca 3d e6 1f a2 3e 2a a0 fe 3a 83 b1 81 be
       0.098852284 0.31664962 0.0019426395 -0.25330743
0001b0 f3 95 2b 3d 61 60 0a 3e 92 34 b9 be 85 c0 cb bd
       0.04189105 0.13513328 -0.3617292 -0.099488296
0001c0 86 d7 14 3e bc 79 b9 bd e8 e9 29 3d cf 3a 97 bd
       0.1453534 -0.09056422 0.041482836 -0.07384264
0001d0 5a 26 ad 3d 15 60 14 be ae e0 24 be 36 af 03 3d
       0.084545806 -0.14489777 -0.16101333 0.032149516
0001e0 c2 6a 4f be a1 64 f2 3d 16 7c 11 be b8 a5 1e 3e
       -0.20255569 0.118356 -0.14207491 0.15492904
0001f0 70 8f 7f be 71 35 a5 3d 90 84 c2 3b 8b 18 3e bd
       -0.24957061 0.08066834 0.005936213 -0.046410125
000200 78 a8 4c be ff 94 b1 3d 50 c1 92 3d 84 7e a4 3d
       -0.1998614 0.08670997 0.07165778 0.080319434
000210 48 09 ef bd 01 e4 e6 3d c6 ab d1 bd 49 2a 3a 3e
       -0.11671692 0.11273957 -0.10237841 0.18180193
000220 35 ad 2d be 36 69 a8 bd fe 2d 33 bd 08 a0 c0 bd
       -0.16960604 -0.082231924 -0.043745033 -0.094055235
000230 8a 61 4c bd 49 45 45 3e e2 f4 8d bc 24 14 3b 3e
       -0.049897708 0.19264711 -0.017328683 0.18269402
000240 1b 48 4e be ce 72 21 3e 33 ec d5 bb 82 c8 82 3e
       -0.20144694 0.15766451 -0.0065284013 0.255436
000250 bd 7a 27 bd d9 cd 15 be 50 06 21 be 17 16 2a 3d
       -0.040888537 -0.14629306 -0.15725064 0.041524973
000260 44 dc 98 be ee 29 df 3d fc 52 0c 3c 3a 21 b5 3e
       -0.2985555 0.10896669 0.008564707 0.35376912
000270 7a 11 9d be 85 7a 7e 3e c0 17 6e 3d 86 6b b9 bd
       -0.30677396 0.24851425 0.05812812 -0.090537116
000280 6a 59 83 bd 74 66 56 3e 44 0c 5b 3e f0 e8 83 bd
       -0.06413539 0.2093752 0.21391398 -0.06440914
000290 77 35 25 3e f8 d0 57 be 9c d3 44 3d 7a c6 34 be
       0.16133676 -0.21075809 0.04805337 -0.17653838
0002a0 49 af 29 3e e6 60 08 3d 48 b9 56 3d 87 94 e7 bd
       0.16570772 0.033295535 0.05242279 -0.11307626
0002b0 fb 58 dc bd d3 d0 03 bd cd 00 1f bc 5c 55 bd bd
       -0.10759159 -0.032181572 -0.009704781 -0.09244797
0002c0 7a 66 d1 bd 67 b3 e3 bd d6 62 c8 bd b2 26 ed 3c
       -0.10224624 -0.11118203 -0.097844765 0.028949115
0002d0 ae 84 80 3d d0 e4 1c bc b3 06 b2 3e 9d f3 4c 3e
       0.06275307 -0.0095760375 0.34770736 0.20014806
0002e0 61 cb 0a 3e 0f 27 cb bd d1 2b f4 3d 84 ce 53 be
       0.13554145 -0.09919559 0.1192242 -0.20684248
0002f0 ea 53 07 be 28 f6 3f 3c cd 69 0e 3e 94 a0 d8 bc
       -0.13215604 0.011716403 0.13907547 -0.026443757
000300 ce 4a c9 bd c9 07 13 3e 3e 87 4d 3e 0e ce ab bd
       -0.09828721 0.14358439 0.20071122 -0.08388911
000310 c5 23 a4 bd 9d 7e df bd c7 1e d7 be f0 95 35 3d
       -0.08014635 -0.109128214 -0.4201567 0.044332445
000320 dd 23 00 3d 4d c5 f7 ba 8b 23 3a 3d 58 4e 99 3e
       0.031284202 -0.0018903405 0.045444053 0.29942584
000330 88 79 ec 3d 92 43 2e be 4e f3 ba bc 79 70 db bc
       0.11546618 -0.17017964 -0.022821095 -0.02678703
000340 99 8c 9d 3d 5b 2d 5b bc 03 75 38 bd 6c e1 00 3e
       0.076928325 -0.013377513 -0.045033466 0.12585992
000350 45 1e c6 bb 22 dc 27 be a1 a5 06 be 65 34 3f 3e
       -0.006046089 -0.16392568 -0.1314912 0.1867233
000360 11 6f c2 3e 7c 43 c0 3e bf c2 88 be e2 85 bd bd
       0.37975362 0.37551486 -0.2671108 -0.09254052
000370 21 75 cc 3d 79 8b 96 3e 1c 3f 6a 3c 2e 57 24 be
       0.09983278 0.29403284 0.014297273 -0.16048881
000380 4b 8d 3d 3e c0 df 6b 3e ae f5 80 be 46 04 18 be
       0.1851093 0.23034573 -0.2518744 -0.1484538
000390 f7 66 70 3d fc 55 4c be f6 3e 6c be a7 9a 60 bd
       0.058691945 -0.19954675 -0.23070893 -0.054834988
0003a0 f2 79 90 3d d6 0c f0 bb 1c 40 20 be ad b3 a9 3d
       0.07054509 -0.007325749 -0.15649456 0.082862236
0003b0 85 bd 9a 3c 79 70 7d be 85 6c 5e 3d 5d 28 6b 3c
       0.018889198 -0.24749936 0.05430271 0.014352885
0003c0 3b 82 87 be 3d 70 13 bd 43 b8 93 3e 59 6d 9a 3d
       -0.26466545 -0.03599571 0.28851518 0.07540388
0003d0 a0 74 8f 3e d2 17 3c 3d a6 5d cc be be 6a 4b 3d
       0.28018665 0.045921154 -0.39915198 0.049662344
0003e0 4b 4b 2e bc 18 3c 00 be d9 31 de bd 94 64 ba 3d
       -0.010638068 -0.12522924 -0.108493514 0.09101215
0003f0 79 0d 55 be e8 b2 47 3d bf 19 b1 3e ed bc 70 bd
       -0.2080592 0.048754603 0.34589955 -0.058773924

relational_layer.layers.0.lin_dst.weight f4 [64, 64]
000000 9e ad 39 be c4 d9 de 3d 03 f8 dc 3e 92 7c de be
       -0.18132636 0.10881379 0.43157968 -0.43454415
000010 3c f1 48 3e 42 52 d9 bd 65 35 34 be 03 81 ae be
       0.19623274 -0.106113926 -0.17598493 -0.34082803
000020 13 59 33 3e 48 bf 93 3c d2 25 ca bd ad 43 58 39
       0.17514448 0.018035546 -0.09870495 0.00020624576
000030 b1 48 83 be 21 8c 82 3d 3b 73 9e be e7 58 3c 3e
       -0.25641397 0.06374384 -0.3094729 0.18393289
000040 ac 17 0c 3c af 15 14 3e 77 e7 0e bf 62 64 0d bf
       0.008550566 0.14461397 -0.5582194 -0.55231297
000050 56 20 71 3d d8 49 14 3e 52 cb b7 be 3a 06 11 3e
       0.05886873 0.14481294 -0.3589731 0.14162531
000060 f6 16 31 be 8e ad 22 3d d4 1e 2d be 88 5b d9 be
       -0.17293915 0.039716296 -0.16906291 -0.42452645
000070 b2 1f 05 bd d4 96 3e bd 74 8d ef 3d 28 f2 11 be
       -0.03250093 -0.04653056 0.11696902 -0.14252532
000080 bd 18 20 be f0 fd 0a be 5d 6d 50 be 29 2e 79 be
       -0.15634437 -0.13573432 -0.20354219 -0.24334015
000090 a6 80 3b bc 4f 2b ed 3c 9e 14 6b be 7f d9 bc bc
       -0.011444246 0.028951315 -0.22957084 -0.023052929
0000a0 9c 1f fe 3d ff 05 99 3d 12 5c 34 3e 68 a2 ed 3a
       0.12408373 0.07471847 0.17613247 0.0018130066
0000b0 d3 e0 c8 3e 2f ac f2 be 72 72 e7 bd 89 63 e4 3d
       0.39234027 -0.4739699 -0.113011256 0.11151797
0000c0 dd a0 a0 be ba 8c ca 3c f6 5b 82 3b cf 84 88 bc
       -0.3137273 0.024725307 0.0039782478 -0.01666489
0000d0 e1 94 12 3d 8b 46 3c be c0 dd 87 be 20 04 3f 3d
       0.035786513 -0.18386285 -0.2653637 0.046634793
0000e0 aa 05 1c 3e 6d 86 e3 3e 6d 8d 4c be 6d ae 88 bd
       0.15236536 0.44438496 -0.19975825 -0.06673894
0000f0 2c e1 4d be 0a cf e6 bd f3 c7 a7 3e a7 df 38 be
       -0.20105428 -0.11269958 0.32769737 -0.18054067
000100 8a 0a ce bd be c3 0d be d2 1e 1b be d7 28 16 3d
       -0.10060604 -0.13844201 -0.15148476 0.03666004
000110 20 13 23 be 24 db b7 3d 79 de 45 3e 1e 52 90 be
       -0.15925264 0.08977345 0.19323148 -0.2818765
000120 a0 40 c5 3d cd 4b 88 3c 09 25 c3 3b 43 54 a1 3e
       0.09631467 0.016637707 0.0059553427 0.315096
000130 35 c3 55 3e 2c d3 d6 3e 47 41 87 3d 89 95 58 3e
       0.20875247 0.41957986 0.066042475 0.21150793
000140 3f 37 8c be d7 56 e3 bd f4 82 52 3e ec 85 7a 3d
       -0.273859 -0.11100548 0.20557767 0.061162874
000150 6b 42 01 bd 45 98 80 3c 36 40 13 3b 1b da 99 3c
       -0.03155748 0.015697608 0.0022468693 0.018780759
000160 50 45 21 3e a0 d8 10 be d1 b7 3a 3e 6a a0 38 3e
       0.15749097 -0.14145136 0.18234183 0.18029943
000170 92 e0 06 3e c8 8c 1b 3d ff d3 6e 3e 08 0e cf bc
       0.13171604 0.037976056 0.23323058 -0.025275245
000180 37 99 e7 3d f3 0f f8 bc 3b 05 ba be ed 05 fa bd
       0.1130852 -0.030281043 -0.36332116 -0.122081615
000190 5e 2d 65 be 2c 26 46 3c a1 4d 14 be 9c e1 00 3e
       -0.22380587 0.012094062 -0.14482738 0.12586063
0001a0 11 73 ca 3d e6 1f a2 3e 2a a0 fe 3a 83 b1 81 be
       0.098852284 0.31664962 0.0019426395 -0.25330743
0001b0 f3 95 2b 3d 61 60 0a 3e 92 34 b9 be 85 c0 cb bd
       0.04189105 0.13513328 -0.3617292 -0.099488296
0001c0 86 d7 14 3e bc 79 b9 bd e8 e9 29 3d cf 3a 97 bd
       0.1453534 -0.09056422 0.041482836 -0.07384264
0001d0 5a 26 ad 3d 15 60 14 be ae e0 24 be 36 af 03 3d
       0.084545806 -0.14489777 -0.16101333 0.032149516
0001e0 c2 6a 4f be a1 64 f2 3d 16 7c 11 be b8 a5 1e 3e
       -0.20255569 0.118356 -0.14207491 0.15492904
0001f0 70 8f 7f be 71 35 a5 3d 90 84 c2 3b 8b 18 3e bd
       -0.24957061 0.08066834 0.005936213 -0.046410125
000200 78 a8 4c be ff 94 b1 3d 50 c1 92 3d 84 7e a4 3d
       -0.1998614 0.08670997 0.07165778 0.080319434
000210 48 09 ef bd 01 e4 e6 3d c6 ab d1 bd 49 2a 3a 3e
       -0.11671692 0.11273957 -0.10237841 0.18180193
000220 35 ad 2d be 36 69 a8 bd fe 2d 33 bd 08 a0 c0 bd
       -0.16960604 -0.082231924 -0.043745033 -0.094055235
000230 8a 61 4c bd 49 45 45 3e e2 f4 8d bc 24 14 3b 3e
       -0.049897708 0.19264711 -0.017328683 0.18269402
000240 1b 48 4e be ce 72 21 3e 33 ec d5 bb 82 c8 82 3e
       -0.20144694 0.15766451 -0.0065284013 0.255436
000250 bd 7a 27 bd d9 cd 15 be 50 06 21 be 17 16 2a 3d
       -0.040888537 -0.14629306 -0.15725064 0.041524973
000260 44 dc 98 be ee 29 df 3d fc 52 0c 3c 3a 21 b5 3e
       -0.2985555 0.10896669 0.008564707 0.35376912
000270 7a 11 9d be 85 7a 7e 3e c0 17 6e 3d 86 6b b9 bd
       -0.30677396 0.24851425 0.05812812 -0.090537116
000280 6a 59 83 bd 74 66 56 3e 44 0c 5b 3e f0 e8 83 bd
       -0.06413539 0.2093752 0.21391398 -0.06440914
000290 77 35 25 3e f8 d0 57 be 9c d3 44 3d 7a c6 34 be
       0.16133676 -0.21075809 0.04805337 -0.17653838
0002a0 49 af 29 3e e6 60 08 3d 48 b9 56 3d 87 94 e7 bd
       0.16570772 0.033295535 0.05242279 -0.11307626
0002b0 fb 58 dc bd d3 d0 03 bd cd 00 1f bc 5c 55 bd bd
       -0.10759159 -0.032181572 -0.009704781 -0.09244797
0002c0 7a 66 d1 bd 67 b3 e3 bd d6 62 c8 bd b2 26 ed 3c
       -0.10224624 -0.11118203 -0.097844765 0.028949115
0002d0 ae 84 80 3d d0 e4 1c bc b3 06 b2 3e 9d f3 4c 3e
       0.06275307 -0.0095760375 0.34770736 0.20014806
0002e0 61 cb 0a 3e 0f 27 cb bd d1 2b f4 3d 84 ce 53 be
       0.13554145 -0.09919559 0.1192242 -0.20684248
0002f0 ea 53 07 be 28 f6 3f 3c cd 69 0e 3e 94 a0 d8 bc
       -0.13215604 0.011716403 0.13907547 -0.026443757
000300 ce 4a c9 bd c9 07 13 3e 3e 87 4d 3e 0e ce ab bd
       -0.09828721 0.14358439 0.20071122 -0.08388911
000310 c5 23 a4 bd 9d 7e df bd c7 1e d7 be f0 95 35 3d
       -0.08014635 -0.109128214 -0.4201567 0.044332445
000320 dd 23 00 3d 4d c5 f7 ba 8b 23 3a 3d 58 4e 99 3e
       0.031284202 -0.0018903405 0.045444053 0.29942584
000330 88 79 ec 3d 92 43 2e be 4e f3 ba bc 79 70 db bc
       0.11546618 -0.17017964 -0.022821095 -0.02678703
000340 99 8c 9d 3d 5b 2d 5b bc 03 75 38 bd 6c e1 00 3e
       0.076928325 -0.013377513 -0.045033466 0.12585992
000350 45 1e c6 bb 22 dc 27 be a1 a5 06 be 65 34 3f 3e
       -0.006046089 -0.16392568 -0.1314912 0.1867233
000360 11 6f c2 3e 7c 43 c0 3e bf c2 88 be e2 85 bd bd
       0.37975362 0.37551486 -0.2671108 -0.09254052
000370 21 75 cc 3d 79 8b 96 3e 1c 3f 6a 3c 2e 57 24 be
       0.09983278 0.29403284 0.014297273 -0.16048881
000380 4b 8d 3d 3e c0 df 6b 3e ae f5 80 be 46 04 18 be
       0.1851093 0.23034573 -0.2518744 -0.1484538
000390 f7 66 70 3d fc 55 4c be f6 3e 6c be a7 9a 60 bd
       0.058691945 -0.19954675 -0.23070893 -0.054834988
0003a0 f2 79 90 3d d6 0c f0 bb 1c 40 20 be ad b3 a9 3d
       0.07054509 -0.007325749 -0.15649456 0.082862236
0003b0 85 bd 9a 3c 79 70 7d be 85 6c 5e 3d 5d 28 6b 3c
       0.018889198 -0.24749936 0.05430271 0.014352885
0003c0 3b 82 87 be 3d 70 13 bd 43 b8 93 3e 59 6d 9a 3d
       -0.26466545 -0.03599571 0.28851518 0.07540388
0003d0 a0 74 8f 3e d2 17 3c 3d a6 5d cc be be 6a 4b 3d
       0.28018665 0.045921154 -0.39915198 0.049662344
0003e0 4b 4b 2e bc 18 3c 00 be d9 31 de bd 94 64 ba 3d
       -0.010638068 -0.12522924 -0.108493514 0.09101215
0003f0 79 0d 55 be e8 b2 47 3d bf 19 b1 3e ed bc 70 bd
       -0.2080592 0.048754603 0.34589955 -0.058773924

action_layer.layer1.0.weight f4 [128, 128]
000000 3d 53 7e bd d7 c4 00 be 53 f0 4b be 80 07 22 bd
       -0.0620911 -0.12575088 -0.19915895 -0.039557934
000010 33 7e e9 3c 10 fb ca 3d 49 ce d7 bc 65 2b e0 bd
       0.02850256 0.099111676 -0.026343482 -0.10945777
000020 40 bc 2e be c8 a5 c8 3d d0 6f 09 3e c3 21 ff bc
       -0.17063999 0.09797245 0.1342156 -0.031144029
000030 dd d7 1d 3e f4 1c e7 3c 31 d0 07 be b5 c2 98 bc
       0.15414377 0.028212048 -0.13263012 -0.018647531
000040 84 11 90 bd f7 90 0b bd ee 0a 21 be c0 10 48 bd
       -0.07034591 -0.034073796 -0.15726826 -0.0488441
000050 92 12 cd bd 9b 0b dc 3d e4 ad 63 bc 33 26 45 be
       -0.10013308 0.10744401 -0.013896439 -0.19252853
000060 9e ed ef bc 9f 5d 1b 3e 0e 1a e1 3d d6 5d dc bd
       -0.02928811 0.15172432 0.10991298 -0.10760085
000070 34 e9 de 3d bf 91 14 3e 2c 98 c7 bd 27 eb a5 3c
       0.10884324 0.14508723 -0.09745821 0.020253731
000080 cc 97 94 be 69 26 1d be 8e 8d c2 3d 2d a1 92 3c
       -0.29022062 -0.15346684 0.09499656 0.01789912
000090 ea c4 3a bc 20 e6 b8 3d dc 89 00 3d 83 ea 97 3c
       -0.011399487 0.09028268 0.031381473 0.018544441
0000a0 aa 3a 13 be ee c4 42 3e e9 50 2b be 76 12 4b 3d
       -0.14377847 0.19020435 -0.16730084 0.049578153
0000b0 68 99 28 3e 46 2f 0d 3d 10 a9 27 bc 7d 54 6b 3d
       0.1646477 0.03446891 -0.010233179 0.05745362
0000c0 0d 92 a2 3d 1a 0d 8e bc 9c b3 0b 3d 6c 3b 1e 3d
       0.07938013 -0.017340232 0.034106836 0.038630888
0000d0 4a dd cc bd 05 ba 9e 3d 14 e0 6e 3d 99 f0 37 be
       -0.10003145 0.07750324 0.058319166 -0.17962874
0000e0 25 52 0e be 3f df d2 3d 5b d2 5e 3e 3e fe 0f be
       -0.13898523 0.10296487 0.21759932 -0.1406183
0000f0 c8 b1 80 3a ad 11 11 3e e9 51 05 be a7 5a e6 3c
       0.0009818608 0.14166899 -0.13019527 0.028119398
000100 59 20 48 3d bc 8c 7a bd bd 68 e5 3b 15 0b 19 3e
       0.048858974 -0.06116937 0.007001011 0.14945634
000110 d3 2b 32 3d fa d2 d4 3c 68 4e d1 38 d5 f3 e2 3d
       0.043498825 0.025979508 9.980501e-05 0.110816635
000120 dd 28 af bd cf d7 b4 bd e6 95 b8 3d 7f a2 50 3e
       -0.08552716 -0.08830225 0.09012966 0.20374487
000130 0d 39 99 bd 4a 43 44 be 99 28 e1 3d c4 23 7f bd
       -0.07481585 -0.19166294 0.109940715 -0.062289968
000140 af a5 db 3d 3a 58 96 bd 90 99 d9 3b 67 0b ac 3d
       0.10724961 -0.07341047 0.0066406205 0.08400612
000150 2c bf 9c bc a7 81 17 3d bf 19 bb 3d e4 ac 38 bd
       -0.019134127 0.03698888 0.0913577 -0.045086756
000160 fd b1 89 bc 9f 85 2b 3d 44 84 9d 3b 79 81 0b bd
       -0.016808504 0.041875478 0.004807027 -0.03405902
000170 c5 97 63 bd 24 c5 9b bc 68 e8 7b be 94 3e 3b be
       -0.05556466 -0.019014902 -0.24600375 -0.1828559
000180 54 bd 38 be 91 fd f9 bc d2 c9 a7 3c f6 d4 b5 3d
       -0.18040973 -0.030516418 0.020481978 0.0887851
000190 e8 e1 22 3e f6 9f 6d bc e0 26 0e b9 b1 13 d9 3c
       0.15906489 -0.01450347 -0.00013556657 0.026498647
0001a0 8d f4 98 bd 2d 4c 23 bd 59 73 96 bc b3 91 64 3e
       -0.07468519 -0.03986757 -0.018365549 0.22321205
0001b0 13 32 90 be a3 b6 c0 3c f7 3f 44 bd cb b1 13 3e
       -0.28163204 0.023524588 -0.047912564 0.14423291
0001c0 06 8d 24 3e ab 64 9c 3d 64 15 85 be f9 21 48 3e
       0.16069421 0.076363884 -0.25992882 0.1954421
0001d0 60 93 cf bd 7d d5 d9 3c 1c 36 16 be 61 eb 37 bd
       -0.101355314 0.026591057 -0.14669079 -0.04490221
0001e0 7f 79 cc 3d 69 ab f2 3d 2c 01 2a bd f4 55 1a 3d
       0.09984111 0.118491 -0.041505024 0.037679628
0001f0 6f 0f a9 bb 4a 8b 45 bc a6 54 31 3e 0a 21 61 bd
       -0.0051593105 -0.012057135 0.17317447 -0.05496315
000200 a2 b7 80 3e 35 76 03 3e c0 4f 87 be 6d 77 4a 3e
       0.251401 0.12838061 -0.26428032 0.1977212
000210 c0 72 94 3d e8 f0 1d 3d a5 2e 0c be c8 0b 39 3e
       0.07248449 0.038559824 -0.13689668 0.180709
000220 9e 25 e4 3d af 9b c0 bd b1 d2 9e 3c c0 e3 8b be
       0.111399874 -0.09404694 0.019387575 -0.27322197
000230 01 4c d5 bd 4d 04 df 3d 96 5f d9 3d 50 1e f6 bd
       -0.10414887 0.10889492 0.10613935 -0.120175004
000240 1f 46 93 3d 5c 5c 99 bd 0a 6a fa bc 1a 5f 27 bd
       0.07191109 -0.07488319 -0.030568141 -0.04086218
000250 3e 65 d3 3b 15 9f 22 be 19 e9 c7 bd b6 52 fb 3c
       0.006451278 -0.15880997 -0.09761257 0.030679088
000260 b3 9e 04 be c5 02 fc bd ca b9 d0 bd 0a 42 ee bb
       -0.12951164 -0.12305216 -0.101916865 -0.007271056
000270 b1 3b 5e 3d 53 64 1d bd 1e 4a 82 3d 07 8f 2f be
       0.054256145 -0.038425755 0.06361793 -0.17144404
000280 2d 31 dc 3d 61 ab 17 be e9 0f 56 3d b4 71 be 3d
       0.10751567 -0.1481147 0.052261267 0.09299031
000290 ac 21 ee 3b e4 4d ec 3d 7c c4 1e bd 0d ce b7 3d
       0.0072671976 0.11538294 -0.0387616 0.08974848
0002a0 a4 8c 2b be da 33 86 3e 73 f6 3a bd 07 09 95 bd
       -0.16752869 0.26211435 -0.04564519 -0.072771125
0002b0 ff a9 44 bd 94 5e ea 3d 68 73 84 bd 10 ba 3c 3d
       -0.048013683 0.114438206 -0.064673245 0.04607588
0002c0 4d 0b 40 bc 9a 46 ab 3d 92 01 5d 3d 15 47 9b bd
       -0.011721444 0.083630756 0.053956576 -0.07581917
0002d0 77 3a cb be 22 76 5f 3d e2 e0 c5 3d 8f e7 19 3e
       -0.39693043 0.05455602 0.096620336 0.15029739
0002e0 2a df d7 bc 44 67 7e bc 3f 07 61 bd 79 dd b3 bd
       -0.02635153 -0.01552755 -0.05493855 -0.08782477
0002f0 9e 35 90 3c a3 2d 2f 3d 9d 9d 2c 3e ac 98 cc 3d
       0.017603692 0.042768132 0.16857 0.09990057
000300 8e df af bd 11 2d c5 bd 6f 34 09 be 26 8e 1a bc
       -0.085875615 -0.09627736 -0.13398908 -0.009433305
000310 db 81 43 bc eb 69 1a be 23 33 b2 3c 85 6c 5a 3d
       -0.011932815 -0.15079467 0.0217529 0.05332615
000320 d6 08 3c be fb b9 32 3d eb 31 e7 3d de 32 6c 3d
       -0.18362746 0.043634396 0.11288818 0.0576657
000330 ea cc 28 be b9 73 a7 bd 9d b9 a9 bb da 53 fa bc
       -0.16484419 -0.08176369 -0.0051795975 -0.030557562
000340 b7 7e 23 bd 64 90 18 be 2f ab 90 bc 54 3b ab bd
       -0.039915767 -0.1489883 -0.017659752 -0.08360925
000350 f2 c3 c6 3d 60 35 c4 bc 29 24 80 bd ba 80 c3 3d
       0.09705342 -0.023951232 -0.06256897 0.09546037
000360 19 ba 7b bc a4 aa 16 bd 9f 87 2a 3d 87 88 51 3d
       -0.015364193 -0.03678383 0.041633245 0.051155593
000370 a0 fb 2d 3e 14 76 f8 3c 32 6e 31 be 2c 49 79 bc
       0.16990519 0.030329742 -0.17327192 -0.015215199
000380 50 65 a5 bd 13 09 14 be e8 3c d6 3d 03 dc 39 3d
       -0.080759645 -0.14456587 0.10460836 0.045375835
000390 7e 70 09 3d d1 d0 2c be 85 ab 6a bc 1e d4 23 3d
       0.033554547 -0.16876532 -0.01432312 0.039997213
0003a0 8c ec 82 bd 6d 4a 54 be 8e c8 88 bc b2 d1 e7 bd
       -0.06392774 -0.20731516 -0.016697194 -0.11319293
0003b0 27 4a b2 38 97 67 b5 3d 6a 95 a5 3d d0 cc bc bd
       8.5015134e-05 0.08857649 0.08085139 -0.092187524
0003c0 82 72 f3 3c bf e6 9a bd a0 49 c4 3c 41 60 cd bc
       0.029717688 -0.075635426 0.023960888 -0.025070312
0003d0 a9 36 05 3d e9 a5 da bd 0a 58 23 3d ca ed 8b 3c
       0.03252283 -0.10676176 0.039878882 0.01708116
0003e0 c7 79 36 be c7 b4 b1 bd e9 5d 37 3e bd 4a 0b be
       -0.17819892 -0.08677059 0.17906918 -0.13602729
0003f0 85 76 17 3e d0 71 31 bd c0 ac b0 bd 8a 75 df 3c
       0.14791305 -0.04332143 -0.086266994 0.027277727

action_layer.layer1.0.bias f4 [128]
000000 86 19 7d 3d 0c 65 34 bd 17 85 14 3b 2e 1e 22 bd
       0.06179192 -0.04404168 0.0022662336 -0.039579563
000010 5e 06 b0 ba 52 3c 2c be e0 b4 8e bd 79 53 27 bd
       -0.0013429632 -0.16819885 -0.06968093 -0.04085109
000020 33 97 8a bd a5 13 f7 bd 35 e2 14 bd 9d 69 19 be
       -0.0676712 -0.12064294 -0.03634854 -0.14981695
000030 1d 17 39 3d 9b 29 ce 3c 78 30 d2 bc 06 58 85 3d
       0.04518806 0.025166323 -0.025657877 0.0651093
000040 fd 41 f8 bd 7d e1 c4 3c 08 5c 8f bc c3 6a 7d bd
       -0.12121961 0.024033302 -0.017499939 -0.061869394
000050 94 72 05 be 75 cd 03 be 15 72 a9 3d 57 65 c7 3d
       -0.1303199 -0.12871344 0.082737125 0.09736126
000060 1b e0 11 be 5e c5 db 3d 97 51 25 be 61 1f 13 3d
       -0.14245646 0.10731004 -0.16144405 0.035918597
000070 bb b0 04 bd dd b2 d7 3c 51 c0 ef bd dc 74 9a 3d
       -0.032395106 0.026330406 -0.11706603 0.075418204
000080 da 4e 1e 3d 0f 73 50 bd 03 37 a8 3d 07 4c 21 bd
       0.038649417 -0.05089098 0.08213618 -0.039379146
000090 5d fb 54 bd 25 84 c2 bc 0b 4f b2 3d fe a6 65 bd
       -0.05199753 -0.023744652 0.087064825 -0.05606746
0000a0 d9 18 15 bd de ef 54 3d 67 47 9c bd 9b cf 56 bd
       -0.03640065 0.051986568 -0.076308064 -0.05244408
0000b0 be 15 df 3d 91 74 2c bd 81 22 dd bd 80 b9 ce bc
       0.10892819 -0.042103354 -0.10797597 -0.025234938
0000c0 d8 8e 05 bd de f4 27 be 1e f1 78 bb 2b a4 f2 bd
       -0.03260693 -0.16402003 -0.0037985514 -0.11847719
0000d0 e6 5d 47 3c a1 a2 7a 3c 11 54 00 be 37 7e 59 bd
       0.012168383 0.015297563 -0.12532069 -0.053098883
0000e0 13 4a 15 bd b7 54 5c bc 0b 98 60 bc e3 bf 56 bd
       -0.036447596 -0.013447932 -0.013708125 -0.05242909
0000f0 fd d9 89 3d 49 70 0c be 63 cf 21 bd ff 4a df bd
       0.06731031 -0.13714708 -0.03950442 -0.10902976
000100 02 5e 66 bc 7a b8 7f bc f7 f8 93 bd 28 c0 f9 bd
       -0.014060499 -0.0156079475 -0.07225221 -0.12194854
000110 4f c1 22 bd 95 e8 56 bd 1e 22 f3 ba b7 ff 97 bd
       -0.039735135 -0.0524679 -0.0018549596 -0.074218206
000120 52 af 1c bd d1 37 c6 3c f4 fe 81 bd 78 2b 20 bd
       -0.038253136 0.024196537 -0.063474566 -0.039103955
000130 6d ab 3b bc 80 d3 cd 3c f7 de 0c be ae 33 03 3d
       -0.011454445 0.025125265 -0.1375693 0.032031707
000140 9a f6 90 bd b8 c5 29 3d 75 b7 1d 3c 0b 99 c7 bd
       -0.070782855 0.041448325 0.009626259 -0.097459875
000150 72 b7 c6 bd 4d 5e f4 3c 37 17 44 3c f5 e5 b4 bc
       -0.09702958 0.029830122 0.0119684255 -0.022082308
000160 53 fc b9 3c fa ae ee 3a 44 7e 02 3d c8 f7 d7 bd
       0.022703325 0.0018210106 0.031858698 -0.105453074
000170 6f ee 32 bd 69 a4 c9 bd 84 31 fe 3c 4f 53 e6 bc
       -0.04368442 -0.09845812 0.03102947 -0.028115897
000180 0b 20 26 bd 54 d5 7f bd 8c c8 45 bd 0b fe 18 3b
       -0.040557902 -0.062459305 -0.04828696 0.002334478
000190 06 fd 16 be ee fd e2 bc c2 10 9c bd d6 49 21 bd
       -0.14744958 -0.027708974 -0.07620384 -0.039377056
0001a0 4c 7e cf bc ec 79 e2 bc ee f2 0e be 57 c8 35 be
       -0.025328778 -0.027646028 -0.13959858 -0.17752205
0001b0 d1 fe 4a bd 10 d6 fe bd c3 4d a3 3d 5d df 36 bd
       -0.049559418 -0.12443173 0.07973816 -0.04464661
0001c0 9f 88 1f bd b4 a7 d4 bd 22 06 b9 bc 65 57 f2 bb
       -0.03894865 -0.10383549 -0.022585932 -0.007395672
0001d0 3c 6b ce bd b9 94 1b bc 0f 1e e7 3c 0d 05 b8 3c
       -0.10079047 -0.009495907 0.028212575 0.022463346
0001e0 8e f1 01 3d c3 68 47 bb 43 ff b9 bd 06 0c bd 3c
       0.031724505 -0.0030427433 -0.090818904 0.023077022
0001f0 9c 87 9f 3d 61 3b 92 bd ca 96 8f bd 7a 88 f1 bd
       0.07789537 -0.07140232 -0.070111826 -0.11793609

action_layer.layer1.1.weight f4 [2, 128]
000000 e6 cc dc bd fc 0a b3 3d c9 b9 c6 be ca 96 4e 3d
       -0.10781269 0.087423295 -0.38813618 0.050436772
000010 15 3e af 3d 8c 6e 83 3d 4b 5b f6 bc 84 06 ac be
       0.08556763 0.064175695 -0.030072829 -0.3359872
000020 18 d7 f8 bd 54 b0 b2 3c 65 56 13 3d 33 c8 e9 3d
       -0.12150401 0.021812595 0.035971064 0.11415138
000030 5b f3 9f be 98 9a 10 be 3c 7c a2 bd bb fa c8 3c
       -0.31240353 -0.14121473 -0.07933852 0.02453362
000040 f3 77 2d 3e bb 54 e4 bd fe 7c 8c 3e a5 07 9f 3d
       0.16940288 -0.111489736 0.2743911 0.0776513
000050 b8 45 8c be cb 08 b2 3d 74 96 91 bb 49 c1 14 be
       -0.2739694 0.086930834 -0.0044429842 -0.14526857
000060 ac 22 e2 3d 55 6e c6 3d e7 87 35 3d a4 8a 51 3d
       0.110417694 0.09689013 0.04431906 0.05115761
000070 ba 55 90 3d dc 99 dc bd 0e 7d 44 be 9f 37 f0 3d
       0.07047601 -0.10771534 -0.1918833 0.11729359
000080 0f 1e 9a 3a 6e bb 91 be 12 81 bd 3d 02 42 c3 bd
       0.0011758226 -0.2846331 0.09253134 -0.09534074
000090 3b bb 91 3c f1 62 91 3e e5 12 01 be 07 1d 83 bc
       0.017789474 0.283958 -0.12604864 -0.016005052
0000a0 5e bd 75 be 2b 2d e8 3c 57 51 40 be 68 ca 0e 3e
       -0.23998019 0.02834185 -0.18781029 0.139444
0000b0 93 97 04 be 7b 8e 92 3e 20 93 f6 bd 41 77 ea 3d
       -0.12948446 0.2862433 -0.120397806 0.11448527
0000c0 7f 94 e7 be ea 76 29 3e 75 25 0b 3e d0 dd 15 be
       -0.4523048 0.16549268 0.13588507 -0.14635396
0000d0 8b 84 dd bd b1 b5 02 be f7 27 19 3d 51 f0 e6 3d
       -0.10816296 -0.12764622 0.03739163 0.112763055
0000e0 99 25 2e 3e 10 e0 62 bc bf ab 71 3e f0 b2 c4 3d
       0.1700653 -0.013847366 0.23600672 0.09604442
0000f0 69 c8 09 be f1 52 5b be 2e 65 17 3e ec 34 60 be
       -0.13455357 -0.21418358 0.1478469 -0.21895188
000100 3b 6e 04 3e 8b b8 77 bd f0 cb 5a be 67 42 aa 3c
       0.12932675 -0.06047873 -0.21366858 0.020783616
000110 9b 77 ce 3d 04 72 bb bd 23 10 9f bd ff 62 ee 3d
       0.10081407 -0.09152606 -0.0776675 0.11639976
000120 e3 f6 e8 bd da 6f 60 be 29 79 82 bd 4c cc a1 3e
       -0.11375215 -0.21917668 -0.06370766 0.3160118
000130 f1 ad f7 3d fb 27 3d be 38 d2 58 bd 3e 5d 2f 3d
       0.120937236 -0.18472283 -0.052934855 0.042813532
000140 bd 99 90 bd 28 d6 fa 3c 37 bb 01 3e 24 54 40 3e
       -0.07060573 0.030619696 0.12669073 0.18782097
000150 bf 84 af 3d 45 e2 6e bd 66 62 dd bd 7a d4 a8 bd
       0.08570241 -0.058321256 -0.10809784 -0.08243652
000160 15 b0 b5 3c 72 df 07 3d e4 29 56 bd 5d 9b 66 3e
       0.022178689 0.03317208 -0.052286044 0.22520204
000170 9d 3f 40 3c 97 ff a0 b9 71 f2 5a bd d3 00 89 bd
       0.011733917 -0.00030708007 -0.053453866 -0.0668961
000180 91 86 e8 3c c7 94 60 bd 7e bc d0 3c 6e 35 40 bd
       0.028384479 -0.054829385 0.025480505 -0.046925955
000190 33 d3 24 3e 88 9f 77 be c3 d7 5d 38 fc a8 84 3d
       0.16096191 -0.2418195 5.289145e-05 0.06477544
0001a0 ff 62 14 bb ea b4 55 3e 2e d3 83 be 54 d4 06 3e
       -0.0022642014 0.20869794 -0.25747055 0.13166934
0001b0 f9 f4 6d 3e 81 dd 1a be cd e0 53 3d 36 a5 68 be
       0.23237981 -0.1512356 0.05172806 -0.22719273
0001c0 9e ad b8 3d 45 85 54 3d 9f 6f af bd e4 0b c9 3c
       0.0901749 0.05188491 -0.08566212 0.024541803
0001d0 01 b3 3a 3e f1 ee 28 be 11 63 ba bd 27 95 b2 bd
       0.18232347 -0.16497399 -0.09100927 -0.08719855
0001e0 d9 9d 55 bd 1a 15 9b 3d dd 31 5d bc 97 c5 09 3e
       -0.05215249 0.07572384 -0.013500658 0.13454281
0001f0 6f d0 95 bd cb 02 83 3d 3c f4 fb 3d 00 c1 d7 bd
       -0.07315146 0.06397017 0.123024434 -0.10534859
000200 83 f8 e2 3c 55 22 31 3d e2 6c 22 3e e7 f8 a5 be
       0.02770639 0.043245632 0.15861848 -0.3241646
000210 ec 82 c7 bd 9a 5e a6 3e 78 c9 53 3e 4b 06 c4 bd
       -0.09741768 0.3249405 0.20682323 -0.09571513
000220 38 bb 3b be 63 63 5c be 2d e2 8d be 64 d3 5f bd
       -0.18333137 -0.21522288 -0.2771162 -0.054644957
000230 73 1e 34 bd 8a dd a0 3d d5 f3 96 bc a8 67 bb 3d
       -0.04397435 0.07854755 -0.018426815 0.0915063
000240 47 a5 1b bd 83 0e 58 bc c2 ab 10 3e ac 40 a9 3e
       -0.037999418 -0.013187054 0.1412802 0.33057153
000250 fb 87 5c be 56 ce 58 bc 1e 92 b2 3d d2 14 85 bd
       -0.21536247 -0.013232788 0.08719276 -0.06498112
000260 46 2a d4 be 29 0e 34 3e 0a 64 c3 3d b4 ed 85 bd
       -0.41438502 0.17583527 0.09540565 -0.06539479
000270 1c 33 9d be fb 8c 11 3d d3 aa 2b be 92 35 8f 3d
       -0.30703056 0.03553484 -0.16764383 0.069926396
000280 c7 f0 cd bd f8 03 ef 3b 3a 60 92 3c 43 56 7a 3e
       -0.1005569 0.0072941743 0.01786815 0.24446969
000290 c3 89 bc 3e e3 84 9d 3d d9 e4 40 3e c5 fb d1 3d
       0.36823854 0.07691362 0.18837298 0.10253099
0002a0 19 0a 00 be 16 89 21 be a8 70 84 be 9f 2e ed 3d
       -0.12503852 -0.1577495 -0.258672 0.11581158
0002b0 6b 89 b7 bb 8e f9 78 3e 46 cf 64 ba 97 72 3a 3e
       -0.0056010983 0.24313948 -0.0008728396 0.18207775
0002c0 58 bd 45 bd f3 76 e7 3d bb 42 f3 bd 24 e3 8f 3e
       -0.048276275 0.11301985 -0.11877962 0.28102982
0002d0 5b 89 9e 3e b6 fb b1 3c 45 94 9a be 6d f6 df 3c
       0.3096417 0.02172647 -0.30191246 0.027339185
0002e0 0b a6 24 bd 87 e3 27 3e 48 75 81 bb 25 dd 10 be
       -0.040197413 0.16395389 -0.0039507486 -0.1414686
0002f0 cd e3 3e bd a3 33 97 3c e9 28 9c bd 97 62 6d bd
       -0.046603967 0.01845724 -0.076249905 -0.05795535
000300 8a ef f8 bc 94 11 57 be 21 99 0a be 78 a6 0b be
       -0.030387659 -0.210028 -0.13534977 -0.13637722
000310 4f cf b8 be b6 9d a0 3d 1c aa 18 3d 9b e7 8b bd
       -0.36095664 0.07842581 0.037271604 -0.068312846
000320 99 c9 06 bc be b4 db bd b5 d3 f5 bd 64 fd 8d bc
       -0.008226776 -0.10727833 -0.120032705 -0.01733274
000330 79 33 fe 3c 67 03 73 bd 8c d8 40 be 03 40 bc bd
       0.031030403 -0.059329417 -0.18832606 -0.09191897
000340 45 20 f4 3c 9c 25 44 be 30 0e 6d bd f4 f0 83 3e
       0.029800544 -0.19154972 -0.05787486 0.2576977
000350 7c d1 9e bb 67 ca 00 be 21 7e 32 be a9 46 88 bd
       -0.00484675 -0.1257721 -0.17430927 -0.06654102
000360 d9 3d 04 be 5c be 5e 3e c3 b3 9a 3e 8f c6 0e be
       -0.12914218 0.21752304 0.30215272 -0.13942932
000370 43 8f 1f 3e fb 88 98 3d 7a e6 e6 bd e3 69 0c 3d
       0.15581994 0.07448002 -0.11274429 0.03428067
000380 09 2e 43 3e db eb cb 3e c8 7d 74 3e ff cd 89 bd
       0.1906053 0.3982838 0.23876107 -0.06728744
000390 bd 78 8e bd d1 11 04 be ad 64 c4 3d e9 56 97 3e
       -0.06956623 -0.12897421 0.09589515 0.29558495
0003a0 cc 23 0b be cd 2a 42 3e 3a 2b 81 3e e8 4b ff bc
       -0.13587874 0.1896164 0.25228292 -0.031164125
0003b0 e1 ce e2 3d 13 e6 dc bd 73 92 a6 3d 95 ed 3c 3b
       0.11074615 -0.10786071 0.08133402 0.0028828133
0003c0 f0 37 6e be 98 83 8b 3d 98 b9 cd bc d7 87 b1 be
       -0.23263526 0.06812209 -0.025112912 -0.3467395
0003d0 d4 7e 58 3e fc 51 c6 bd 04 6b 10 3c 84 94 65 3e
       0.21142131 -0.09683606 0.008814577 0.22419935
0003e0 de 47 b2 be 0a 43 cf 3e 78 15 09 3e 6f 62 82 be
       -0.34820455 0.40480834 0.13387096 -0.25465724
0003f0 00 91 f2 3c 15 dd f9 3d 50 2a a0 bd 01 59 1a 3c
       0.029610157 0.12200371 -0.078205705 0.009420634

action_layer.layer1.1.bias f4 [2]
000000 1e 2e b9 3c 8f 22 ab bc
       0.022604998 -0.020890502
