HGAT-MADDPG_ver2/ModelBuffer/model_1300.pt (torch, 369835 bytes, 33 tensors)

encoding_layer.layer.0.weight f4 [64, 180]
-0.059797596 0.006061812 0.014818051 0.001008422 0.03132955 0.02584979 -0.006712866 0.017347762
-0.12139351 -0.13243861 0.051810514 -0.072590806 0.04087206 -0.022766555 -0.027207276 0.008264545
0.022421947 -0.05122205 -0.044993103 0.048138835 0.09050096 0.025016002 0.09973844 0.0026079214
0.100753784 0.05463311 0.12733583 -0.032946657 -0.12880854 0.080738306 -0.13659528 0.0045026923
0.05191591 0.0030947588 0.097525485 0.17272486 -0.193602 -0.21347593 -0.074425995 -0.16027425
0.009923855 0.2093481 0.06211639 -0.032026038 0.03128766 -0.028710412 0.0894921 -0.19587128
-0.13774261 -0.21337914 0.14808716 -0.07341566 0.039040983 0.06918399 0.049758054 -0.24198438
-0.096400514 0.013236566 -0.1291384 -0.16197515 -0.23835462 -0.01183925 0.011063104 -0.063048184
-0.02337009 0.027642341 -0.08233706 -0.07695237 -0.1752997 -0.13703123 -0.07761104 -0.07354538
-0.04610664 -0.021566905 -0.021112464 -0.024972374 0.14009866 0.028015342 -0.048022766 0.03824361
-0.02739401 0.00840184 0.03224107 -0.0010826759 0.021811415 -0.0108631365 -0.0895617 -0.044795644
0.07851689 0.13441777 0.0756098 -0.08913303 -0.04558698 0.044439092 0.13803159 0.1115713
-0.059156034 0.028993484 0.031305272 -0.033661656 -0.009557578 0.077338554 -0.0393453 0.026388785
0.010429094 -0.07230801 -0.052516118 0.05302132 0.04058569 0.029035633 -0.0008537275 -0.10912152
-0.039738905 0.006197969 0.029439474 -0.079097606 0.09998474 -0.10217265 -0.03419053 0.103886105
-0.11779753 -0.054198287 -0.05082059 0.06013065 -0.049513623 0.05189327 0.04406255 0.010276038
-0.1661233 -0.17310761 -0.09854737 -0.09975619 0.032358915 -0.11109462 0.045742854 0.04081535
0.10938707 -0.0016280146 0.03704053 -0.01972751 0.041162815 -0.10283076 -0.08235126 -0.045584507
0.052058887 0.00726913 -0.042578656 -0.030333199 0.0561234 0.029547313 -0.0301363 -0.032965343
0.021812472 -0.059193667 -0.07774413 -0.10025514 0.042182215 -0.042080697 -0.070097715 -0.050953783
-0.008394783 0.068814315 0.0077797114 0.03571774 0.08489397 -0.0022565161 0.076173775 0.043133173
0.017609803 -0.019297605 -0.01594282 0.084739946 0.013656757 -0.024727942 -0.011020708 0.051815476
0.08511885 -0.03285418 0.22692889 0.008867601 0.064175345 0.082331 -0.071161 -0.07755307
0.07838339 0.004166113 -0.18016815 -0.027566139 -0.053731013 -0.035955716 -0.11943213 -0.035420727
-0.16487344 -0.06857444 0.035527762 0.025065975 -0.022043873 -0.011234305 0.053936686 0.12924173
-0.0174079 0.006859293 0.08075259 0.077722795 -0.026058435 -0.04230396 -0.15013584 0.0027717876
0.23912644 -0.06966791 0.059999105 0.020308012 -0.12802453 -0.099930614 -0.12341864 0.16955738
0.13612552 0.027953938 0.136188 -0.024792008 0.03914303 -0.014351714 -0.04803857 0.17580484
0.071787216 -0.008255251 0.09743286 -0.00674793 0.06025487 0.0025131428 -0.058865372 0.07189094
0.011596705 0.07864601 0.10212381 0.003622416 0.024136208 0.004485324 0.036720436 -0.057073496
-0.19606574 0.13626713 -0.013557961 0.08007546 0.08146907 0.040676523 -0.124837026 -0.068376295
-0.12973312 -0.08704387 -0.11143561 -0.04385289 -0.069656655 -0.08060144 -0.07997303 -0.034482367
00000000: 53ee 74bd 2aa2 c63b 69c7 723c 072d 843a
00000010: 6a53 003d f0c2 d33c 9af7 dbbb e51c 8e3c
00000020: 299d f8bd fd9d 07be 4337 543d 7daa 94bd
00000030: 7669 273d ed80 babc cbe1 debc 0468 073c
00000040: 3bae b73c 36ce 51bd b04a 38bd 3a2d 453d
00000050: 9158 b93d 5cee cc3c ab43 cc3d a9e9 2a3b
00000060: 0058 ce3d f8c6 5f3d 5364 023e 13f3 06bd
00000070: 63e6 03be 205a a53d a2df 0bbe 528b 933b
00000080: c7a5 543d 70d1 4a3b 71bb c73d c9de 303e
00000090: 9a3f 46be 6f99 5abe a86c 98bd ef1e 24be
000000a0: aa97 223c 595f 563e c16d 7e3d bc2d 03bd
000000b0: 7d27 003d 1932 ebbc a247 b73d 7b92 48be
000000c0: 660c 0dbe 1080 5abe 29a4 173e f35a 96bd
000000d0: 70e9 1f3d 56b0 8d3d 1acf 4b3d c1ca 77be
000000e0: a26d c5bd 2fde 583c db3c 04be d0dc 25be
000000f0: 3c13 74be 6af9 41bc 0542 353c 681f 81bd
00000100: a272 bfbc 3172 e23c 55a0 a8bd 3499 9dbd
00000110: c481 33be ea51 0cbe 89f2 9ebd f69e 96bd
00000120: 51da 3cbd 14ad b0bc 0cf4 acbc dd92 ccbc
00000130: 0676 0f3e 6e80 e53c 85b3 44bd 55a5 1c3d
00000140: 6769 e0bc dfa7 093c 360f 043d 93e8 8dba
00000150: daad b23c 4cfb 31bc 206c b7bd a37b 37bd
00000160: 77cd a03d d0a4 093e 50d9 9a3d 618b b6bd
00000170: 6ab9 3abd c405 363d 2758 0d3e 7e7f e43d
00000180: 994d 72bd be83 ed3c f539 003d cee0 09bd
00000190: 6397 1cbc ad63 9e3d 8a28 21bd 4b2d d83c
000001a0: cade 2a3c 3916 94bd 241b 57bd e22c 593d
000001b0: 2e3d 263d 23dc ed3c afcc 5fba 1a7b dfbd
000001c0: 43c5 22bd 5518 cb3b 0d2b f13c edfd a1bd
000001d0: cdc4 cc3d e53f d1bd 5f0b 0cbd 3dc2 d43d
000001e0: d53f f1bd 06ff 5dbd 4029 50bd 8e4b 763d
000001f0: ccce 4abd 0a8e 543d ef7a 343d d45c 283c
00000200: 3a1c 2abe 1f43 31be 34d3 c9bd f94c ccbd
00000210: c88a 043d 9385 e3bd dc5c 3b3d ff2d 273d
00000220: 5406 e03d 1b63 d5ba d0b7 173d 969b a1bc
00000230: 579a 283d ef98 d2bd c7a7 a8bd d2b6 3abd
00000240: b33b 553d e231 ee3b f566 2ebd 547d f8bc
00000250: a6e1 653d 350d f23c 67e0 f6bc ab06 07bd
00000260: 12b0 b23c 0f75 72bd 5038 9fbd 9152 cdbd
00000270: 42c7 2c3d cf5c 2cbd 648f 8fbd eab4 50bd
00000280: 468a 09bc 85ee 8c3d f3ec fe3b c44c 123d
00000290: e4dc ad3d 0fe2 13bb ff00 9c3d 69ac 303d
000002a0: 6f42 903c 0316 9ebc 849a 82bc 238c ad3d
000002b0: 97c0 5f3c 4192 cabc 3390 34bc 773c 543d
000002c0: cb52 ae3d 1b92 06bd 0c60 683e 6a49 113c
000002d0: 5d6e 833d 289d a83d dcbc 91bd 25d4 9ebd
000002e0: 7987 a03d e483 883b 007e 38be 62d2 e1bc
000002f0: 0d15 5cbd 4d46 13bd d598 f4bd 5315 11bd
00000300: 95d4 28be c270 8cbd 8f85 113d 2957 cd3c
00000310: 5a95 b4bc 1710 38bc b7ec 5c3d f257 043e
00000320: 039b 8ebc ecc3 e03b 9d61 a53d 212d 9f3d
00000330: 8078 d5bc eb46 2dbd 36bd 19be e1a6 353b
00000340: 90dd 743e 0dae 8ebd 9fc1 753d fd5c a63c
00000350: dd18 03be 6ca8 ccbd e9c2 fcbd 73a0 2d3e
00000360: 7d64 0b3e a8ff e43c de74 0b3e 9c18 cbbc
00000370: 7154 203d 7423 6bbc 17c4 44bd 2f06 343e
00000380: 2d05 933d 0841 07bc e18a c73d bd1d ddbb
00000390: d0cd 763d 8ab3 243b d11c 71bd 8f3b 933d
000003a0: 1b00 3e3c 2911 a13d 4a26 d13d 0e66 6d3b
000003b0: 4cb9 c53c a0f9 923b 2b68 163d e6c5 69bd
000003c0: 75c5 48be 9c89 0b3e 3622 5ebc 9afe a33d
000003d0: 41d9 a63d 6d9c 263d 8eaa ffbd df08 8cbd
000003e0: c2d8 04be 0e44 b2bd 5a38 e4bd 179f 33bd
000003f0: 26a8 8ebd 5e12 a5bd e6c8 a3bd 623d 0dbd

encoding_layer.layer.0.bias f4 [64]
0.06858421 -0.029130608 0.035495777 -0.03232864 -0.023347232 0.08879968 0.033906087 -0.04587044
0.021300733 -0.036305998 -0.07645655 -0.087588534 -0.0077202553 0.052121602 -0.010603884 -0.024635304
-0.017457677 -0.012987081 0.024550177 0.042126812 -0.035828274 -0.013329332 -0.07092948 -0.020160252
-0.04107456 -0.07507039 0.06321941 -0.020336153 0.05955008 -0.011044534 0.019997979 -0.072464794
0.036168393 0.044349413 -0.00050824665 0.010632832 -0.00029520775 -0.09373553 -0.103839286 -0.05531833
0.057070326 -0.0020506873 0.012181993 0.056952544 -0.007993614 0.029494781 0.01390743 0.009669055
-0.086459905 -0.009082478 -0.009493315 -0.0047335643 0.025020288 0.047970805 -0.0024552797 0.07105808
-0.0006763598 -0.06098769 0.03516137 0.055919442 -0.05164047 -0.027067352 -0.05745495 0.028031567
00000000: e175 8c3d 50a3 eebc 0564 113d 096b 04bd
00000010: b242 bfbc 9bdc b53d 1ce1 0a3d a4e2 3bbd
00000020: e07e ae3c 99b5 14bd 4095 9cbd 9e61 b3bd
00000030: 32fa fcbb 767d 553d eabb 2dbc facf c9bc
00000040: 6703 8fbc c4c7 54bc 741d c93c 2a8d 2c3d
00000050: abc0 12bd 4563 5abc 7a43 91bd 1d27 a5bc
00000060: cc3d 28bd 81be 99bd 2e79 813d 0198 a6bc
00000070: c9ea 733d 22f4 34bc cdd2 a33c 6c68 94bd
00000080: 4f25 143d bba7 353d db3b 05ba 5435 2e3c
00000090: 1dc6 9ab9 6af8 bfbd b1a9 d4bd 7995 62bd
000000a0: 93c2 693d d364 06bb fb96 473c 1247 693d
000000b0: a6f7 02bc 0a9f f13c fddb 633c f56a 1e3c
000000c0: e411 b1bd acce 14bc d989 1bbc 041c 9bbb
000000d0: 59f7 cc3c 097d 443d c2e8 20bb e686 913d
000000e0: bd4d 31ba 3ace 79bd 5e05 103d c90b 653d
000000f0: f584 53bd 5abc ddbc e255 6bbd 75a2 e53c

relational_layer.layers.0.att_src f4 [1, 1, 64]
-0.023546996 0.12730606 -0.32517397 0.07389586 -0.2508296 -0.18247904 0.33886316 0.19815667
0.19778904 -0.52177066 0.17193232 -0.40286386 0.18003242 0.113385916 0.42267796 -0.040497772
-0.25757843 0.22575821 0.38464323 -0.29575518 0.039285623 -0.1306105 -0.13413641 0.2558211
-0.047397017 -0.2817793 -0.45818868 0.21102878 0.09741287 -0.42289552 -0.2611659 -0.097134836
0.17656422 0.055204354 0.5290597 -0.30653423 0.1579928 -0.099256486 -0.31619108 0.10714901
0.2083281 -0.23464175 -0.05701668 0.047610685 0.56168306 -0.18588172 0.12928018 0.4144174
-0.35550424 -0.26944986 0.034282044 0.27748743 0.14151694 -0.045050435 -0.34563863 0.2677728
-0.29903898 -0.28215274 -0.23705636 -0.06526435 -0.025719507 0.18193935 0.21410441 0.27491185
00000000: a1e5 c0bc 855c 023e 347d a6be b656 973d
00000010: bd6c 80be c9db 3abe 797f ad3e 95e9 4a3e
00000020: 3689 4a3e c392 05bf 070f 303e 2c44 cebe
00000030: 6b5a 383e e036 e83d 3f69 d83e fee0 25bd
00000040: 52e1 83be 292d 673e f5ef c43e 396d 97be
00000050: f6e9 203d c2be 05be 0e5b 09be fcfa 823e
00000060: 6023 42bd 6045 90be b597 eabe ee17 583e
00000070: 6680 c73d c385 d8be 89b7 85be a1ee c6bd
00000080: 40cd 343e f61d 623d 7570 073f 0ef2 9cbe
00000090: ddc8 213e fc46 cbbd cce3 a1be f170 db3d
000000a0: f653 553e ed45 70be 528a 69bd 6c03 433d
000000b0: 76ca 0f3f c757 3ebe 0662 043e 842e d43e
000000c0: a704 b6be 55f5 89be 546b 0c3d d512 8e3e
000000d0: d1e9 103e ce86 38bd 8cf7 b0be 8419 893e
000000e0: a31b 99be 5376 90be e7be 72be 51a9 85bd
000000f0: b7b1 d2bc 4f4e 3a3e 303e 5b3e 3fc1 8c3e

relational_layer.layers.0.att_dst f4 [1, 1, 64]
-0.43873155 -0.1599651 0.27604395 -0.21661077 -0.39711207 0.059815317 -0.26672956 -0.40637815
0.32169363 -0.20105168 -0.20667903 0.07614933 0.41575292 -0.16474678 -0.050307136 0.030871963
-0.22579549 -0.111506745 -0.012717032 0.1616861 0.10932019 -0.0009039864 0.002505512 0.024143314
-0.21710286 0.10879498 0.21408404 0.11472138 -0.01430156 -0.22396925 -0.5261658 -0.16974118
0.31081575 -0.032390743 -0.27192196 0.20340416 0.25114128 0.42243412 0.039000444 0.030533396
-0.22054525 -0.49595252 0.24165034 0.21657225 0.19897582 0.23937006 -0.042496577 -0.13662834
-0.0019155528 -0.118755415 -0.15811384 -0.22073077 -0.4751937 -0.3158939 -0.11402895 -0.4046647
-0.44798204 -0.40551174 -0.03983994 0.29339924 -0.25832298 -0.32932 -0.3319304 -0.54529667
00000000: 6ca1 e0be e4cd 23be a255 8d3e 37cf 5dbe
00000010: 4652 cbbe e800 753d c790 88be cc10 d0be
00000020: 07b5 a43e 7ee0 4dbe aba3 53be 2ef4 9b3d
00000030: 91dd d43e 61b3 28be db0e 4ebd 33e7 fc3c
00000040: ef36 67be a65d e4bd 195b 50bc 0a91 253e
00000050: 44e3 df3d 80f9 6cba 8433 243b 33c8 c53c
00000060: 3650 5ebe e7cf de3d d938 5b3e 0bf3 ea3d
00000070: 1751 6abc 3258 65be cdb2 06bf a2d0 2dbe
00000080: 3e23 9f3e 28ac 04bd 5b39 8bbe 2e49 503e
00000090: 9795 803e 4949 d83e eebe 1f3d 2c21 fa3c
000000a0: 9dd6 61be 7ded fdbe 3073 773e 1ec5 5d3e
000000b0: 51c0 4b3e 6d1d 753e e410 2ebd 4de8 0bbe
000000c0: 4913 fbba 0a36 f3bd 98e8 21be 3f07 62be
000000d0: 974c f3be d8bc a1be 0388 e9bd 3630 cfbe
000000e0: e75d e5be 3c9f cfbe 342f 23bd 6d38 963e
000000f0: e942 84be a29c a8be c8f2 a9be 9098 0bbf

relational_layer.layers.0.bias f4 [64]
0.06015783 -0.0026873047 -0.053188108 0.008774475 -0.02950278 0.026542326 -0.05325574 0.00021086154
-0.062228117 -0.024138821 -0.0805156 0.05062181 -0.09006041 0.09215802 -0.061525024 0.05483788
0.12253818 -0.02516958 0.008064761 0.02394611 -0.1015554 0.048737843 -0.10875815 -0.060826913
0.05023199 0.036181096 0.046563808 -0.03883489 0.016515497 0.062273804 -0.01305415 0.09401256
-0.0054381606 -0.0012014164 -0.049332976 0.06766968 -0.014041437 -0.03127994 0.04384924 0.0022544088
-0.031150455 -0.027885303 0.011324512 0.038587004 0.0153015535 -0.0010387917 0.026966555 -0.026962772
0.046049993 -0.01553105 -0.0018923619 0.011203302 -0.057285886 -0.102184765 -0.0020664274 -0.06520202
0.04718096 -0.06452163 0.018237947 0.059558533 0.04063361 -0.022143316 -0.06013176 -0.050447103
00000000: 0f68 763d 7e1d 30bb c6db 59bd d1c2 0f3c
00000010: d0af f1bc 4b6f d93c b122 5abd b71a 5d39
00000020: e9e2 7ebd c7be c5bc 5de5 a4bd d158 4f3d
00000030: 9871 b8bd 58bd bc3d aa01 7cbd af9d 603d
00000040: 4cf5 fa3d 6f30 cebc 0f22 043c a22a c43c
00000050: 47fc cfbd 55a1 473d 98bc debd a425 79bd
00000060: 0fc0 4d3d a132 143d b1b9 3e3d 5511 1fbd
00000070: 824b 873c d112 7f3d 13e1 55bc a889 c03d
00000080: 9932 b2bb d878 9dba 6011 4abd 6796 8a3d
00000090: 0e0e 66bc 651f 00bd 439b 333d b4be 133b
000000a0: 3d2f ffbc b86f e4bc 728a 393c 680d 1e3d
000000b0: 5eb3 7a3c 1128 88ba f7e8 dc3c 08e1 dcbc
000000c0: eb9e 3c3d f275 7ebc 2109 f8ba 0e8e 373c
000000d0: 9ba4 6abd 3f46 d1bd e66c 07bb a388 85bd
000000e0: d340 413d eb23 84bd bf67 953c a6f3 733d
000000f0: 6e6f 263d e665 b5bc b84c 76bd 9fa1 4ebd

relational_layer.layers.0.lin_src.weight f4 [64, 64]
-0.106678784 0.071113706 0.24386758 -0.43437204 0.10010288 0.040710296 -0.09307178 -0.30562147
-0.07100033 0.22905967 0.058110494 -0.050538342 -0.32079047 -0.010511908 -0.3881489 -0.009033197
0.16099559 -0.11589283 -0.27104878 -0.19029619 -0.04746626 -0.101648964 -0.20522091 0.016111838
-0.33394498 0.0075908974 -0.035886027 -0.27167627 0.20785366 0.015202754 0.089650564 -0.13613002
-0.0906822 -0.20770106 -0.19219345 -0.23352133 -0.0052779093 0.118091635 -0.14767255 0.12927605
0.017218102 -0.15820865 0.052748248 -0.08635134 0.23425685 -0.33456868 -0.17749126 -0.006099713
-0.2581727 0.0286738 -0.17017339 0.111015424 0.05016902 -0.23022236 0.0048074992 -0.13644147
0.06973726 0.28718007 -0.2642146 0.016100343 -0.09822953 -0.20751108 0.21374466 -0.21381164
-0.07426705 -0.3860032 -0.20784505 -0.06304058 -0.08286295 0.08959929 0.1378677 -0.2347706
0.18088138 -0.21129236 -0.0041674967 0.12703897 0.18410768 0.30114478 0.016336355 0.089622416
-0.12891093 -0.1391842 0.15646656 0.11103444 -0.0643563 -0.082877986 -0.06867989 -0.08220051
0.09846041 0.02993113 0.022633981 0.28916574 0.013033126 0.12232427 0.08771449 -0.17256983
0.028482016 0.12360576 0.05334392 0.07569318 -0.030951384 -0.117931984 0.044090066 0.15175009
0.020252759 -0.026719509 0.15046419 -0.11924775 -0.0059590475 0.0997771 -0.07244664 -0.16016626
0.08482686 -0.092674814 0.04306106 -0.13951723 -0.023166282 -0.024883343 -0.13207097 0.21823213
-0.088097125 0.32199168 -0.18201864 0.06508863 -0.17836872 -0.12782265 -0.08659608 -0.04215526
-0.07566902 -0.027237376 -0.18608509 0.15111348 -0.2242423 -0.032801885 -0.1354344 0.20293982
-0.23042054 0.13091096 0.09361731 0.12849787 0.065964356 0.04476787 0.08773108 0.19553238
-0.23509559 0.032360382 0.09635317 0.10712071 -0.026665498 -0.28997043 0.05553338 -0.07728556
0.03150874 -0.24994354 -0.022852099 0.16557223 -0.15338935 0.3749459 -0.00024755922 -0.10884939
-0.035869017 0.17132539 0.08695378 0.021633435 0.089764886 -0.14584196 0.17385139 -0.16159803
-0.10407019 0.12746535 0.04801818 0.08740103 -0.09318032 0.018222375 0.072063185 -0.13629428
-0.10667163 -0.14421387 -0.049428176 0.04019394 0.1140765 0.00014887736 0.31661043 -0.013650328
0.12591799 0.06560362 -0.022055967 -0.053921785 -0.08097434 -0.12270902 0.115998805 -0.16697225
-0.20880033 0.0591902 0.14651054 -0.15436067 -0.038680214 -0.099010214 -0.2806635 -0.050809756
-0.11136242 0.017652376 0.08361974 0.101476885 -0.06563661 -0.2376002 -0.12982592 -0.0050899913
0.025587665 -0.015356683 0.026842473 0.05991304 -0.15158512 -0.18635426 0.03778652 0.18427777
0.04128657 0.31931064 -0.23097457 -0.044292998 0.253482 0.14939192 -0.04075195 -0.12379859
0.018113188 0.20032272 -0.32826796 -0.043140456 -0.014862733 -0.16766775 -0.3839049 -0.009603228
-0.016484657 -0.0008884804 -0.12553233 -0.08919733 0.12043524 -0.23270306 -0.018829556 -0.098284625
-0.083076656 0.0910843 0.14329316 0.13975996 0.16544715 0.003899 -0.08351815 -0.12213186
-0.14079504 -0.20433728 -0.018606279 -0.12902859 -0.0024298162 -0.2952878 0.2297519 -0.14150432
00000000: 687a dabd 10a4 913d 6cb8 793e 0366 debe
00000010: bd02 cd3d d7bf 263d 6b9c bebd 6b7a 9cbe
00000020: 9f68 91bd 9e8e 6a3e 4505 6e3d 4b01 4fbd
00000030: a63e a4be 233a 2cbc 74bb c6be f9ff 13bc
00000040: 07dc 243e 3859 edbd e8c6 8abe 01dd 42be
00000050: fb6b 42bd 552d d0bd 6e25 52be f9fc 833c
00000060: d6fa aabe 10bd f83b 3afd 12bd 2719 8bbe
00000070: 97d7 543e f914 793c b79a b73d ab65 0bbe
00000080: 97b7 b9bd 96af 54be 5cce 44be 3720 6fbe
00000090: 50f2 acbb 07da f13d 7937 17be f160 043e
000000a0: fa0c 8d3c 7301 22be 8c0e 583d f9d8 b0bd
000000b0: 07e1 6f3e 964c abbe 45c0 35be 1ae0 c7bb
000000c0: 362f 84be 51e5 ea3c ef41 2ebe 0e5c e33d
000000d0: 087e 4d3d 69bf 6bbe 3a88 9d3b 50b7 0bbe
000000e0: 69d2 8e3d 4409 933e 2347 87be dee4 833c
000000f0: 902c c9bd c97d 54be e1df 5a3e 70f1 5abe
00000100: 5319 98bd 36a2 c5be 55d5 54be 6b1b 81bd
00000110: 0db4 a9bd d57f b73d 312d 0d3e b467 70be
00000120: f838 393e 065d 58be 7f8f 88bb 8116 023e
00000130: b986 3c3e a62f 9a3e d2d3 853c f58b b73d
00000140: 3a01 04be 4e86 0ebe c538 203e 0666 e33d
00000150: 3ccd 83bd efbb a9bd 0ba8 8cbd be58 a8bd
00000160: 9da5 c93d 2132 f53c e66a b93c 880d 943e
00000170: e488 553c 2685 fa3d a8a3 b33d 25b6 30be
00000180: 1e53 e93c 0425 fd3d 277f 5a3d 0705 9b3d
00000190: c28d fdbc 5386 f1bd c997 343d 6064 1b3e
000001a0: 1de9 a53c dfe2 dabc 4913 1a3e 2a38 f4bd
000001b0: 1d44 c3bb f057 cc3d e75e 94bd a002 24be
000001c0: b4b9 ad3d 4bcc bdbd cb60 303d 9bdd 0ebe
000001d0: 37c7 bdbc 27d8 cbbc 9d3d 07be 3e78 5f3e
000001e0: 446c b4bd 18dc a43e 1863 3abe 304d 853d
000001f0: 4aa6 36be f1e3 02be 4959 b1bd feaa 2cbd
00000200: 5cf8 9abd eb20 dfbc 178d 3ebe 7ebd 1a3e
00000210: c69f 65be 455b 06bd 51af 0abe 75cf 4f3e
00000220: 5df3 6bbe 860d 063e 6fba bf3d f294 033e
00000230: 5218 873d 845e 373d 5aac b33d a439 483e
00000240: e6bc 70be 528c 043d d054 c53d 1a62 db3d
00000250: 9a71 dabc 0177 94be f876 633d e447 9ebd
00000260: 4f0f 013d 33f1 7fbe 5334 bbbc c48b 293e
00000270: 1912 1dbe e9f8 bf3e d6ca 81b9 6eec debd
00000280: 64eb 12bd ec6f 2f3e d314 b23d 9a38 b13c
00000290: a7d6 b73d 9857 15be 1906 323e f479 25be
000002a0: c022 d5bd 4786 023e b6ae 443d 50ff b23d
000002b0: 53d5 bebd 1747 953c dd95 933d ba90 0bbe
000002c0: a876 dabd cdac 13be 3375 4abd 67a2 243d
000002d0: f1a0 e93d f61b 1c39 c31a a23e a0a5 5fbc
000002e0: a5f0 003e 315b 863d b7ae b4bc 17dd 5cbd
000002f0: e0d5 a5bd de4e fbbd c890 ed3d c6fa 2abe
00000300: c1cf 55be 6c71 723d dc06 163e b910 1ebe
00000310: 256f 1ebd dec5 cabd 20b3 8fbe e41d 50bd
00000320: fb11 e4bd b79b 903c d440 ab3d 1dd3 cf3d
00000330: 7d6c 86bd 784d 73be 16f1 04be f1c9 a6bb
00000340: 399d d13c 999a 7bbc bfe4 db3c 6067 753d
00000350: 2139 1bbe a7d3 3ebe 0ac6 1a3d 50b3 3c3e
00000360: 1b1c 293d af7c a33e 9984 6cbe 936c 35bd
00000370: 65c8 813e 32fa 183e 84eb 26bd 1d8a fdbd
00000380: 1c62 943c 6621 4d3e bd12 a8be 0cb4 30bd
00000390: d282 73bc 18b1 2bbe 2f8f c4be dc56 1dbc
000003a0: d50a 87bc e9e8 68ba 8c8b 00be 17ad b6bd
000003b0: c0a6 f63d b649 6ebe 7140 9abc 7349 c9bd
000003c0: 1824 aabd 688a ba3d 71bb 123e 3c1d 0f3e
000003d0: fa6a 293e 5d86 7f3b 900b abbd 4520 fabd
000003e0: 932c 10be cb3d 51be 326c 98bc 1220 04be
000003f0: 8d3d 1fbb f62f 97be 1544 6b3e 82e6 10be

relational_layer.layers.0.lin_dst.weight f4 [64, 64]
-0.106678784 0.071113706 0.24386758 -0.43437204 0.10010288 0.040710296 -0.09307178 -0.30562147
-0.07100033 0.22905967 0.058110494 -0.050538342 -0.32079047 -0.010511908 -0.3881489 -0.009033197
0.16099559 -0.11589283 -0.27104878 -0.19029619 -0.04746626 -0.101648964 -0.20522091 0.016111838
-0.33394498 0.0075908974 -0.035886027 -0.27167627 0.20785366 0.015202754 0.089650564 -0.13613002
-0.0906822 -0.20770106 -0.19219345 -0.23352133 -0.0052779093 0.118091635 -0.14767255 0.12927605
0.017218102 -0.15820865 0.052748248 -0.08635134 0.23425685 -0.33456868 -0.17749126 -0.006099713
-0.2581727 0.0286738 -0.17017339 0.111015424 0.05016902 -0.23022236 0.0048074992 -0.13644147
0.06973726 0.28718007 -0.2642146 0.016100343 -0.09822953 -0.20751108 0.21374466 -0.21381164
-0.07426705 -0.3860032 -0.20784505 -0.06304058 -0.08286295 0.08959929 0.1378677 -0.2347706
0.18088138 -0.21129236 -0.0041674967 0.12703897 0.18410768 0.30114478 0.016336355 0.089622416
-0.12891093 -0.1391842 0.15646656 0.11103444 -0.0643563 -0.082877986 -0.06867989 -0.08220051
0.09846041 0.02993113 0.022633981 0.28916574 0.013033126 0.12232427 0.08771449 -0.17256983
0.028482016 0.12360576 0.05334392 0.07569318 -0.030951384 -0.117931984 0.044090066 0.15175009
0.020252759 -0.026719509 0.15046419 -0.11924775 -0.0059590475 0.0997771 -0.07244664 -0.16016626
0.08482686 -0.092674814 0.04306106 -0.13951723 -0.023166282 -0.024883343 -0.13207097 0.21823213
-0.088097125 0.32199168 -0.18201864 0.06508863 -0.17836872 -0.12782265 -0.08659608 -0.04215526
-0.07566902 -0.027237376 -0.18608509 0.15111348 -0.2242423 -0.032801885 -0.1354344 0.20293982
-0.23042054 0.13091096 0.09361731 0.12849787 0.065964356 0.04476787 0.08773108 0.19553238
-0.23509559 0.032360382 0.09635317 0.10712071 -0.026665498 -0.28997043 0.05553338 -0.07728556
0.03150874 -0.24994354 -0.022852099 0.16557223 -0.15338935 0.3749459 -0.00024755922 -0.10884939
-0.035869017 0.17132539 0.08695378 0.021633435 0.089764886 -0.14584196 0.17385139 -0.16159803
-0.10407019 0.12746535 0.04801818 0.08740103 -0.09318032 0.018222375 0.072063185 -0.13629428
-0.10667163 -0.14421387 -0.049428176 0.04019394 0.1140765 0.00014887736 0.31661043 -0.013650328
0.12591799 0.06560362 -0.022055967 -0.053921785 -0.08097434 -0.12270902 0.115998805 -0.16697225
-0.20880033 0.0591902 0.14651054 -0.15436067 -0.038680214 -0.099010214 -0.2806635 -0.050809756
-0.11136242 0.017652376 0.08361974 0.101476885 -0.06563661 -0.2376002 -0.12982592 -0.0050899913
0.025587665 -0.015356683 0.026842473 0.05991304 -0.15158512 -0.18635426 0.03778652 0.18427777
0.04128657 0.31931064 -0.23097457 -0.044292998 0.253482 0.14939192 -0.04075195 -0.12379859
0.018113188 0.20032272 -0.32826796 -0.043140456 -0.014862733 -0.16766775 -0.3839049 -0.009603228
-0.016484657 -0.0008884804 -0.12553233 -0.08919733 0.12043524 -0.23270306 -0.018829556 -0.098284625
-0.083076656 0.0910843 0.14329316 0.13975996 0.16544715 0.003899 -0.08351815 -0.12213186
-0.14079504 -0.20433728 -0.018606279 -0.12902859 -0.0024298162 -0.2952878 0.2297519 -0.14150432
00000000: 687a dabd 10a4 913d 6cb8 793e 0366 debe
00000010: bd02 cd3d d7bf 263d 6b9c bebd 6b7a 9cbe
00000020: 9f68 91bd 9e8e 6a3e 4505 6e3d 4b01 4fbd
00000030: a63e a4be 233a 2cbc 74bb c6be f9ff 13bc
00000040: 07dc 243e 3859 edbd e8c6 8abe 01dd 42be
00000050: fb6b 42bd 552d d0bd 6e25 52be f9fc 833c
00000060: d6fa aabe 10bd f83b 3afd 12bd 2719 8bbe
00000070: 97d7 543e f914 793c b79a b73d ab65 0bbe
00000080: 97b7 b9bd 96af 54be 5cce 44be 3720 6fbe
00000090: 50f2 acbb 07da f13d 7937 17be f160 043e
000000a0: fa0c 8d3c 7301 22be 8c0e 583d f9d8 b0bd
000000b0: 07e1 6f3e 964c abbe 45c0 35be 1ae0 c7bb
000000c0: 362f 84be 51e5 ea3c ef41 2ebe 0e5c e33d
000000d0: 087e 4d3d 69bf 6bbe 3a88 9d3b 50b7 0bbe
000000e0: 69d2 8e3d 4409 933e 2347 87be dee4 833c
000000f0: 902c c9bd c97d 54be e1df 5a3e 70f1 5abe
00000100: 5319 98bd 36a2 c5be 55d5 54be 6b1b 81bd
00000110: 0db4 a9bd d57f b73d 312d 0d3e b467 70be
00000120: f838 393e 065d 58be 7f8f 88bb 8116 023e
00000130: b986 3c3e a62f 9a3e d2d3 853c f58b b73d
00000140: 3a01 04be 4e86 0ebe c538 203e 0666 e33d
00000150: 3ccd 83bd efbb a9bd 0ba8 8cbd be58 a8bd
00000160: 9da5 c93d 2132 f53c e66a b93c 880d 943e
00000170: e488 553c 2685 fa3d a8a3 b33d 25b6 30be
00000180: 1e53 e93c 0425 fd3d 277f 5a3d 0705 9b3d
00000190: c28d fdbc 5386 f1bd c997 343d 6064 1b3e
000001a0: 1de9 a53c dfe2 dabc 4913 1a3e 2a38 f4bd
000001b0: 1d44 c3bb f057 cc3d e75e 94bd a002 24be
000001c0: b4b9 ad3d 4bcc bdbd cb60 303d 9bdd 0ebe
000001d0: 37c7 bdbc 27d8 cbbc 9d3d 07be 3e78 5f3e
000001e0: 446c b4bd 18dc a43e 1863 3abe 304d 853d
000001f0: 4aa6 36be f1e3 02be 4959 b1bd feaa 2cbd
00000200: 5cf8 9abd eb20 dfbc 178d 3ebe 7ebd 1a3e
00000210: c69f 65be 455b 06bd 51af 0abe 75cf 4f3e
00000220: 5df3 6bbe 860d 063e 6fba bf3d f294 033e
00000230: 5218 873d 845e 373d 5aac b33d a439 483e
00000240: e6bc 70be 528c 043d d054 c53d 1a62 db3d
00000250: 9a71 dabc 0177 94be f876 633d e447 9ebd
00000260: 4f0f 013d 33f1 7fbe 5334 bbbc c48b 293e
00000270: 1912 1dbe e9f8 bf3e d6ca 81b9 6eec debd
00000280: 64eb 12bd ec6f 2f3e d314 b23d 9a38 b13c
00000290: a7d6 b73d 9857 15be 1906 323e f479 25be
000002a0: c022 d5bd 4786 023e b6ae 443d 50ff b23d
000002b0: 53d5 bebd 1747 953c dd95 933d ba90 0bbe
000002c0: a876 dabd cdac 13be 3375 4abd 67a2 243d
000002d0: f1a0 e93d f61b 1c39 c31a a23e a0a5 5fbc
000002e0: a5f0 003e 315b 863d b7ae b4bc 17dd 5cbd
000002f0: e0d5 a5bd de4e fbbd c890 ed3d c6fa 2abe
00000300: c1cf 55be 6c71 723d dc06 163e b910 1ebe
00000310: 256f 1ebd dec5 cabd 20b3 8fbe e41d 50bd
00000320: fb11 e4bd b79b 903c d440 ab3d 1dd3 cf3d
00000330: 7d6c 86bd 784d 73be 16f1 04be f1c9 a6bb
00000340: 399d d13c 999a 7bbc bfe4 db3c 6067 753d
00000350: 2139 1bbe a7d3 3ebe 0ac6 1a3d 50b3 3c3e
00000360: 1b1c 293d af7c a33e 9984 6cbe 936c 35bd
00000370: 65c8 813e 32fa 183e 84eb 26bd 1d8a fdbd
00000380: 1c62 943c 6621 4d3e bd12 a8be 0cb4 30bd
00000390: d282 73bc 18b1 2bbe 2f8f c4be dc56 1dbc
000003a0: d50a 87bc e9e8 68ba 8c8b 00be 17ad b6bd
000003b0: c0a6 f63d b649 6ebe 7140 9abc 7349 c9bd
000003c0: 1824 aabd 688a ba3d 71bb 123e 3c1d 0f3e
000003d0: fa6a 293e 5d86 7f3b 900b abbd 4520 fabd
000003e0: 932c 10be cb3d 51be 326c 98bc 1220 04be
000003f0: 8d3d 1fbb f62f 97be 1544 6b3e 82e6 10be

action_layer.layer1.0.weight f4 [128, 128]
-0.0045803944 0.0012920308 -0.09140733 -0.10237386 0.06480845 0.013674896 -0.14141525 -0.05079108
0.005822467 0.059988864 0.059850063 -0.12465155 0.12368588 -0.0020003123 -0.02366159 -0.009428572
-0.02100567 0.047360424 -0.023720577 -0.046276916 -0.13322404 0.11231883 -0.05618211 -0.02592344
-0.05285137 0.03188739 -0.022455558 0.0061555053 0.036552135 -0.0804665 -0.023697749 0.08781193
-0.15475473 -0.11630444 -0.024722135 0.054960396 0.056812305 0.02201807 0.009894269 0.03376988
-0.11083735 -0.026023595 0.0039233086 -0.008654459 0.08307659 0.067051515 0.04051648 0.09041283
-0.041021634 -0.022324638 0.022548862 0.06529389 0.065957926 0.10260268 0.04281308 -0.022259202
0.015350245 0.06935072 0.1108774 -0.017258964 0.0029836954 0.066708244 -0.052653864 0.09434463
0.10394501 -0.17772183 -0.078591116 -0.037810847 -0.031182611 0.04972744 -0.053557698 0.03755016
0.082691684 0.009260887 0.017288787 -0.06455901 0.0029544756 0.023595914 0.11094387 -0.058030773
0.09603914 -0.016965808 0.04086066 0.0909474 -0.14646369 0.030047512 0.057678793 0.0764986
0.036663752 -0.005534145 0.045136094 -0.052984595 0.0056950026 -0.2098773 0.051822435 -0.16008635
-0.02630282 -0.0054340907 0.025943914 0.08657845 -0.16270015 -0.0562855 -0.044807486 0.03955687
0.0034263756 0.02121123 -0.032442883 0.04881231 -0.0537716 -0.018186439 0.09392079 0.07023892
0.011074823 0.02545615 -0.0433831 0.046174135 0.06174035 -0.033619724 -0.059546787 0.058999196
-0.04263341 -0.090450615 -0.0491406 -0.050078463 -0.009724296 -0.011027999 0.11090534 0.0016628127
0.13073552 0.03230107 -0.07350812 0.13635907 -0.08117309 -0.036350142 -0.015695957 0.12027986
0.014783155 -0.13269171 0.00070244155 -0.062247764 -0.046455506 0.12051257 0.091573834 -0.12007393
-0.008264593 0.043967046 -0.07665692 0.13673605 -0.053632353 -0.103297316 -0.061677914 0.038530912
-0.056123763 -0.18181443 -0.0032517265 0.12615947 0.041277166 0.04150864 0.079165965 -0.1692845
0.0815309 -0.05055267 0.0685907 0.09417149 0.0047132447 0.014201509 -0.07186524 0.021873193
-0.13439912 0.07155468 -0.11749494 -0.1581053 0.03246748 0.11664621 0.01293455 -0.0765558
0.055275798 0.017391877 0.033510137 -0.10480176 -0.2434761 0.04741785 0.0014501767 0.04222754
-0.060187053 0.11128644 -0.009249226 0.12717858 0.020331768 0.084506206 -0.09307581 0.056512427
-0.15476616 -0.046775714 -0.07550918 0.058927484 0.05180348 -0.032597814 0.09787931 -0.06230539
0.12322226 -0.031255696 -0.06667954 -0.017887503 -0.10725091 -0.0061094044 0.036117148 0.10373866
-0.011891586 -0.023847777 -0.023040531 -0.0313871 0.00045295837 0.08479739 -0.0651244 0.014622948
-0.022883207 -0.06898139 0.044259492 0.009051948 0.054403283 0.02944424 0.10682772 -0.026486222
-0.019878361 0.02878869 -0.08725304 -0.039268028 -0.11302636 -0.06592452 0.021720568 -0.016427778
-0.016097434 -0.14388308 -0.16603357 -0.050064888 0.022327056 -0.012245704 0.042003177 0.010959054
0.024543682 -0.12369767 0.013296658 0.06449809 -0.046295248 -0.0322155 -0.027001 -0.00547798
-0.013116923 0.09625604 -0.046794895 -0.057793103 0.00029353742 0.04841407 -0.13424073 0.08728894
00000000: 2217 96bb 5c59 a93a c433 bbbd 63a9 d1bd
00000010: 4bba 843d ac0c 603c 29cf 10be 4f0a 50bd
00000020: 65ca be3b e2b6 753d 5725 753d 5049 ffbd
00000030: 064f fd3d ac17 03bb f3d5 c1bc 4c7a 1abc
00000040: 1514 acbc 01fd 413d a851 c2bc dd8c 3dbd
00000050: e26b 08be 6a07 e63d 361f 66bd 655d d4bc
00000060: ae7a 58bd 5a9c 023d b8f4 b7bc 1fb4 c93b
00000070: b1b7 153d 9fcb a4bd c821 c2bc bed6 b33d
00000080: 0678 1ebe 0631 eebd 1386 cabc 271e 613d
00000090: 05b4 683d 3d5f b43c 921b 223c 4952 0a3d
000000a0: b1fe e2bd 6f2f d5bc 198f 803b 6fcb 0dbc
000000b0: 0f24 aa3d 4e52 893d 9cf4 253d 5d2a b93d
000000c0: 4d06 28bd 29e2 b6bc 64b8 b83c ceb8 853d
000000d0: f314 873d 5b21 d23d c55c 2f3d ee58 b6bc
000000e0: 987f 7b3c c007 8e3d b113 e33d ac62 8dbc
000000f0: 1a8a 433b 559e 883d 94ab 57bd c237 c13d
00000100: 1fe1 d43d b6fc 35be 61f4 a0bd 8cdf 1abd
00000110: ad72 ffbc 00af 4b3d 515f 5bbd 32ce 193d
00000120: 425a a93d faba 173c 37a1 8d3c 8437 84bd
00000130: e09f 413b 384c c13c 8a36 e33d adb1 6dbd
00000140: 2bb0 c43d e1fb 8abc 825d 273d a142 ba3d
00000150: 94fa 15be 3326 f63c 9940 6c3d 4cab 9c3d
00000160: bb2c 163d c657 b5bb a0e0 383d 6006 59bd
00000170: 259d ba3b 13ea 56be c343 543d aded 23be
00000180: 0379 d7bc 7510 b2bb 5588 d43c 0b50 b13d
00000190: de9a 26be a08b 66bd 0e88 37bd 6206 223d
000001a0: 0b8d 603b 2cc3 ad3c d4e2 04bd 6bef 473d
000001b0: 9c3f 5cbd bafb 94bc 8b59 c03d 6cd9 8f3d
000001c0: 2d73 353c 6a89 d03c 7ab2 31bd 1721 3d3d
000001d0: 73e3 7c3d d6b4 09bd 55e7 73bd 24a9 713d
000001e0: 5fa0 2ebd 2c3e b9bd a747 49bd 131f 4dbd
000001f0: a752 1fbc c8ae 34bc 5722 e33d bcf2 d93a
00000200: 88df 053e 204e 043d 6d8b 96bd b6a1 0b3e
00000210: 143e a6bd e3e3 14bd cf94 80bc 4a55 f63d
00000220: 0c35 723c 56e0 07be 0e24 383a 83f7 7ebd
00000230: 2148 3ebd 4bcf f63d 108b bb3d 52e9 f5bd
00000240: 3768 07bc ca16 343d 4efe 9cbd 8904 0c3e
00000250: 99ad 5bbd 8b8d d3bd fba1 7cbd 97d2 1d3d
00000260: 08e2 65bd 902d 3abe eb1a 55bb f32f 013e
00000270: 3f12 293d f704 2a3d c421 a23d ea58 2dbe
00000280: acf9 a63d 5110 4fbd 4879 8c3d fbdc c03d
00000290: 9071 9a3b 72ad 683c 152e 93bd 692f b33c
000002a0: ec9f 09be 438b 923d 30a1 f0bd 5be6 21be
000002b0: 9ffc 043d 35e4 ee3d 6feb 533c 4ac9 9cbd
000002c0: e068 623d 6979 8e3c ed41 093d 4ea2 d6bd
000002d0: cc51 79be 3839 423d db13 be3a c9f6 2c3d
000002e0: b386 76bd 25ea e33d 118a 17bc 1a3b 023e
000002f0: cf8e a63c 9711 ad3d 889e bebd 9379 673d
00000300: 057b 1ebe e497 3fbd 8fa4 9abd f25d 713d
00000310: e32f 543d 4985 05bd f374 c83d f033 7fbd
00000320: f45b fc3d f905 00bd 488f 88bd d088 92bc
00000330: 5da6 dbbd 6631 c8bb 93ef 133d ef74 d43d
00000340: edd4 42bc 6a5c c3bc 7fbf bcbc c38f 00bd
00000350: 0b7b ed39 41aa ad3d f15f 85bd 1795 6f3c
00000360: 9075 bbbc 1d46 8dbd 7149 353d 9f4e 143c
00000370: fad5 5e3d 0c35 f13c 7ec8 da3d a2f9 d8bc
00000380: f2d7 a2bc 42d6 eb3c b9b1 b2bd 83d7 20bd
00000390: 5d7a e7bd 6f03 87bd 55ef b13c 8c93 86bc
000003a0: c4de 83bc 1656 13be b404 2abe d710 4dbd
000003b0: 3be7 b63c 35a2 48bc 860b 2c3d 9b8d 333c
000003c0: d50f c93c 3455 fdbd 3ada 593c 9317 843d
000003d0: 16a0 3dbd 66f4 03bd 3331 ddbc a080 b3bb
000003e0: 5de8 56bc e321 c53d 01ac 3fbd 76b8 6cbd
000003f0: ede5 9939 d54d 463d 6776 09be 8bc4 b23d

action_layer.layer1.0.bias f4 [128]
0.09581468 -0.04292004 0.019354943 -0.011311983 -0.061122075 -0.10331434 -0.021665309 -0.011149697
-0.07632603 -0.09351846 -0.032583266 -0.12309773 0.05003015 0.036526646 -0.025956798 0.044568893
-0.10074058 -0.021962343 -0.02135775 -0.052155226 -0.10746063 -0.08112224 0.059087534 0.07229658
-0.07903723 0.08434925 -0.08995622 0.02023099 0.009936083 0.014447219 -0.049567275 0.07798862
0.042037833 0.0152062625 0.06188271 0.049125705 -0.05355656 -0.027565183 0.031641282 -0.07570216
0.017719038 0.0705868 0.0020303156 -0.016025838 0.062953345 -0.07606331 -0.11666023 -0.0043647527
0.027074907 -0.039335813 -0.02869928 -0.08543622 0.024858903 -0.022189926 -0.07614447 -0.04666279
-0.007903517 -0.037576184 0.03478543 -0.03679259 0.004197566 -0.10287289 -0.004032023 -0.076583624
0.019788763 0.0055608046 -0.085733175 -0.08266127 0.029675964 -0.037925307 0.012645272 -0.0675365
-0.02590422 0.03411085 -0.015884468 -0.039709043 -0.05881624 0.050051328 -0.053658154 0.043682933
-0.070191845 0.06246674 -0.05654551 -0.090236574 -0.054639645 0.021151489 -0.025018375 -0.065898955
0.07839457 0.03364951 0.046146452 -0.07876889 -0.0049699442 -0.08913856 0.07782251 -0.03686848
-0.053351562 -0.041938342 -0.09440293 -0.034907527 -0.055816628 -0.037062936 -0.08390771 -0.002193538
-0.10517461 0.019393446 -0.07580809 -0.09838876 -0.07875879 -0.09239105 0.05090762 -0.013894332
-0.053405147 -0.0055104927 -0.039396767 0.01381504 -0.08191879 -0.019933248 0.04879745 0.023180382
0.039164636 0.046069372 -0.103619464 0.001705651 0.07873178 -0.008479202 -0.08515415 -0.082154766
00000000: 7d3a c43d edcc 2fbd 428e 9e3c e555 39bc
00000010: 245b 7abd 7896 d3bd 727b b1bc 38ad 36bc
00000020: d250 9cbd 9b86 bfbd 0876 05bd aa1a fcbd
00000030: 6aec 4c3d f79c 153d 5aa3 d4bc df8d 363d
00000040: 1451 cebd 5fea b3bc 73f6 aebc b8a0 55bd
00000050: 5214 dcbd 6b23 a6bd c505 723d 3b10 943d
00000060: 45de a1bd 4dbf ac3d f73a b8bd 76bb a53c
00000070: f4ca 223c 07b4 6c3c 0e07 4bbd 7fb8 9f3d
00000080: dd2f 2c3d b023 793c b978 7d3d 0938 493d
00000090: 205e 5bbd 61d0 e1bc 4a9a 013d bc09 9bbd
000000a0: 8427 913c d08f 903d 0b0f 053b 9e48 83bc
000000b0: afed 803d 15c7 9bbd 8feb eebd 3306 8fbb
000000c0: 32cc dd3c 971e 21bd c11a ebbc 2ff9 aebd
000000d0: e6a4 cb3c a6c7 b5bc a2f1 9bbd 7b21 3fbd
000000e0: c17d 01bc 7ce9 19bd 2b7b 0e3d d4b3 16bd
000000f0: bc8b 893b 06af d2bd 0f1f 84bb e0d7 9cbd
00000100: 0b1c a23c 6937 b63b e094 afbd 504a a9bd
00000110: 021b f33c 9157 1bbd 1d2e 4f3c 9450 8abd
00000120: 1635 d4bc d2b7 0b3d 2520 82bc f3a5 22bd
00000130: 4ce9 70bd 9f02 4d3d a7c8 5bbd e0ec 323d
00000140: bec0 8fbd 20dd 7f3d 449c 67bd f4cd b8bd
00000150: d2cd 5fbd e345 ad3c 56f3 ccbc 08f6 86bd
00000160: 558d a03d 12d4 093d 1004 3d3d 9551 a1bd
00000170: eada a2bb 478e b6bd 6861 9f3d 6703 17bd
00000180: 2b87 5abd 8ac7 2bbd 5356 c1bd 32fb 0ebd
00000190: fa9f 64bd 4ecf 17bd ced7 abbd 76c1 0fbb
000001a0: c965 d7bd 01df 9e3c 4641 9bbd 0c80 c9bd
000001b0: 4a4c a1bd 8537 bdbd 8284 503d 0da5 63bc
000001c0: 5bbf 5abd 5d91 b4bb 815e 21bd 7a58 623c
000001d0: 0ac5 a7bd 0d4b a3bc d6df 473d c9e4 bd3c
000001e0: 196b 203d 3db3 3c3d 7136 d4bd 2790 df3a
000001f0: 213e a13d 5aec 0abc 4d65 aebd c240 a8bd

action_layer.layer1.1.weight f4 [2, 128]
-0.053075902 0.03482125 -0.36270994 0.066758886 0.18656771 0.050327394 -0.04287463 -0.25757262
-0.13624246 0.09268765 0.046394777 0.075855404 -0.127931 0.0003013996 -0.07769579 -0.013914145
0.20492654 -0.06386021 0.21381636 -0.06685708 -0.17250414 0.1239892 0.041858435 -0.00027213848
0.12298046 -0.0093787825 0.10142389 0.0127287 0.04656599 -0.043181248 -0.23185508 0.028047595
-0.18759254 -0.14005476 0.093422726 -0.14759113 -0.118605636 0.21816364 -0.13663398 -0.048159394
-0.2658933 -0.14725326 0.0044930824 0.033742927 -0.053943954 0.17562118 -0.08702558 0.1656963
-0.36710045 0.06846248 0.1409736 0.04571015 0.05435796 -0.24637765 0.20143466 0.06814635
0.12938216 0.20048912 0.100657135 0.019791327 -0.20897824 -0.083560646 0.14324428 -0.15493292
0.049086403 -0.062351886 -0.2576535 0.1312132 -0.06808187 -0.009409564 -0.04384139 0.20254882
-0.064007856 -0.109032035 -0.15829162 0.24940705 0.06895018 -0.09210383 -0.15564238 0.0013337281
-0.13725337 -0.07102855 0.05984978 0.09078878 -0.0149043435 0.02222527 -0.059040762 -0.05080875
-0.012987437 0.10823274 -0.07259337 -0.003262257 0.1321513 -0.046589356 -0.062240835 -0.054829925
-0.08776837 -0.07997374 -0.034885097 -0.05477496 0.1486151 -0.24065155 0.060225915 -0.080786556
-0.0060495716 0.13441132 -0.21372604 0.07592332 0.13570124 -0.07561741 0.01675798 -0.1550145
0.21404481 0.018360581 -0.071682364 -0.06167458 0.17141673 -0.07759015 -0.046623737 -0.015202733
-0.0660268 0.060868416 0.023226969 -0.06285554 -0.06050479 0.12824556 0.18770891 -0.11893078
0.036612082 0.09910974 0.1499729 -0.09254001 -0.20190865 0.14595465 0.068495125 -0.04753442
-0.18747452 -0.049838208 -0.17294648 -0.13959455 0.03999394 -0.18791488 -0.025352819 0.080081634
0.06478114 0.049379602 0.106006496 0.22917609 -0.1660394 -0.032107715 0.08813025 0.090171725
-0.2259106 0.07594828 0.06467174 -0.057730388 -0.13836166 0.07467412 -0.09013648 0.065788664
-0.13058776 -0.05664279 0.022817431 0.05009199 0.25324136 0.11766968 0.15531226 0.13290557
-0.0021467637 -0.13435063 -0.14921059 0.11908389 -0.01812285 0.21108752 -0.051277693 0.1833614
-0.18472843 -0.028365245 -0.17434289 0.20228924 0.15527853 -0.09324557 -0.08135527 0.060919676
0.00027206048 0.09321013 0.008619239 -0.12631305 -0.07234174 -0.087496646 -0.036761604 0.047851227
-0.12737435 -0.11250265 -0.07919682 -0.13577068 -0.10972632 0.10483578 0.0032514918 -0.039828036
0.014806937 0.069235615 -0.12228439 -0.058981314 0.0949265 -0.07451211 -0.08158377 -0.06450445
-0.13012965 -0.11150853 0.08088825 0.11258731 -0.07841573 -0.13395666 -0.1971367 0.03697657
-0.0775386 0.23634061 0.040044215 -0.13289881 0.06550535 0.051570334 -0.010132938 0.022163598
0.0058395453 0.117673896 0.22129281 -0.069890246 -0.046889998 -0.062574364 0.08903029 0.1958865
-0.117961586 0.23995599 0.13869418 -0.0477342 0.13430454 0.12956773 0.06467231 -0.0017778587
-0.05415021 0.07794163 -0.016809814 -0.17320961 0.046414144 -0.15498383 0.021813335 0.21519257
-0.15264659 0.08182682 0.152754 -0.20446174 0.011694767 0.03046513 -0.017583326 0.021559328
00000000: 1e66 59bd baa0 0e3d 1eb5 b9be e2b8 883d
00000010: 9b0b 3f3e 1924 4e3d 4f9d 2fbd 8fe0 83be
00000020: 2583 0bbe 06d3 bd3d 7308 3e3d 145a 9b3d
00000030: 5800 03be 2b05 9e39 f81e 9fbd 27f8 63bc
00000040: 43d8 513e 24c9 82bd adf2 5a3e 5dec 88bd
00000050: eda4 30be 0dee fd3d c073 2b3d cfad 8eb9
00000060: 2edd fb3d 77a9 19bc 54b7 cf3d 0a8c 503c
00000070: fbbb 3e3d d2de 30bd 6b6b 6dbe 12c4 e53c
00000080: 4218 40be 846a 0fbe 6a54 bf3d 2122 17be
00000090: 83e7 f2bd 4a66 5f3e c7e9 0bbe c942 45bd
000000a0: 2b23 88be 8fc9 16be b53a 933b 0636 0a3d
000000b0: 56f4 5cbd 0ad6 333e 783a b2bd 4aac 293e
000000c0: 97f4 bbbe 0f36 8c3d 625b 103e 913a 3b3d
000000d0: 74a6 5e3d 6c4a 7cbe e344 4e3e 5090 8b3d
000000e0: c27c 043e 054d 4d3e 5425 ce3d 6c21 a23c
000000f0: 64fe 55be d821 abbd a1ae 123e bca6 1ebe
00000100: d30e 493d b164 7fbd 29eb 83be c15c 063e
00000110: 826e 8bbd 922a 1abc 0893 33bd f568 4f3e
00000120: 8d16 83bd 304c dfbd 3317 22be 9064 7f3e
00000130: c135 8d3d efa0 bcbd b760 1fbe 7dd0 ae3a
00000140: 268c 0cbe 6b77 91bd 0b25 753d 78ef b93d
00000150: 5931 74bc c511 b63c bad4 71bd d61c 50bd
00000160: 42c9 54bc 20a9 dd3d d5ab 94bd 97cb 55bb
00000170: ac52 073e 7bd4 3ebd 3ff0 7ebd 5895 60bd
00000180: e7bf b3bd 46c9 a3bd ade3 0ebd b55b 60bd
00000190: 8f2e 183e 5c6d 76be 73af 763d 6c73 a5bd
000001a0: 7c3b c6bb 1fa3 093e 00db 5abe b07d 9b3d
000001b0: 44f5 0a3e 4ddd 9abd 0848 893c 1fbc 1ebe
000001c0: 902e 5b3e ee68 963c 34ce 92bd 7c9e 7cbd
000001d0: de87 2f3e 96e7 9ebd 88f8 3ebd e214 79bc
000001e0: 0f39 87bd 2951 793d 7c46 be3c 68ba 80bd
000001f0: dfd3 77bd ce52 033e c436 403e fb91 f3bd
00000200: 8df6 153d 0cfa ca3d 7f92 193e 9e85 bdbd
00000210: 24c1 4ebe 2375 153e 2c47 8c3d 74b3 42bd
00000220: 52f9 3fbe 2623 4cbd e218 31be e0f1 0ebe
00000230: b0d0 233d c26c 40be b7b0 cfbc d701 a43d
00000240: f9ab 843d 4442 4a3d ef19 d93d 23ad 6a3e
00000250: 3c06 2abe 6183 03bd a27d b43d f4ab b83d
00000260: 1c55 67be c68a 9b3d 9e72 843d b376 6cbd
00000270: aeae 0dbe bfee 983d 7a99 b8bd 35bc 863d
00000280: ccb8 05be 4502 68bd 9feb ba3c 422d 4d3d
00000290: daa8 813e cdfc f03d 2d0a 1f3e 6618 083e
000002a0: b8b0 0cbb 3693 09be a9ca 18be 41e2 f33d
000002b0: 5f76 94bc 5427 583e 8f08 52bd 17c3 3b3e
000002c0: 7329 3dbe 3b5e e8bc f186 32be e924 4f3e
000002d0: 5601 1f3e 89f7 bebd 989d a6bd e986 793d
000002e0: 57a3 8e39 f4e4 be3d b537 0d3c 3558 01be
000002f0: e827 94bd 7131 b3bd 5693 16bd a6ff 433d
00000300: 6c6e 02be ca67 e6bd f131 a2bd 7807 0bbe
00000310: 31b8 e0bd 24b4 d63d fb16 553b b922 23bd
00000320: cc98 723c 67cb 8d3d 3d70 fabd 6496 71bd
00000330: d368 c23d ce99 98bd 6415 a7bd e91a 84bd
00000340: b540 05be 965e e4bd bda8 a53d 2d94 e63d
00000350: 6d98 a0bd ef2b 09be 34de 49be be74 173d
00000360: 8fcc 9ebd 4603 723e 6705 243d a016 08be
00000370: ab27 863d 6a3b 533d 9f04 26bc 6f90 b53c
00000380: a859 bf3b 03ff f03d 959a 623e 9e22 8fbd
00000390: ba0f 40bd fd26 80bd 8355 b63d 7896 483e
000003a0: d895 f1bd 06b7 753e d905 0e3e f084 43bd
000003b0: 2187 093e 67ad 043e eb72 843d 0a07 e9ba
000003c0: 9ccc 5dbd dc9f 9f3d bcb4 89bc dc5d 31be
000003d0: c21c 3e3d 15b4 1ebe e1b1 b23c 715b 5c3e
000003e0: 634f 1cbe d294 a73d 8b6b 1c3e 6b5e 51be
000003f0: 689b 3f3c 0292 f93c e80a 90bc 309d b03c

action_layer.layer1.1.bias f4 [2]
0.03988808 -0.03689644
00000000: af61 233d b920 17bd

encoding_layer.layer.0.weight f4 [64, 180]
0.04812057 -0.05593636 0.020137275 0.11776574 -0.07939866 -0.06921983 -0.064010836 0.008839493
-0.08551795 -0.039435945 -0.10725263 0.00040514066 -0.019686595 -0.076513164 0.07060572 0.044702996
-0.019749977 0.017698094 -0.0072758133 -0.15809657 0.09129324 -0.092793114 0.035820298 0.11034793
-0.09912544 0.17691286 0.006770678 -0.25152814 -0.099201806 -0.08657816 -0.04188371 -0.03852239
0.03713372 -0.04118142 0.052410405 -0.012717117 -0.05489752 0.06395692 0.030574715 0.07665966
0.029508429 -0.27952078 0.009776982 0.21790199 0.18896022 -0.072911024 0.022277998 0.08638711
0.09981355 0.010068793 -0.0086568035 -0.046814743 -0.07299103 -0.050466526 -0.032974593 0.01561682
0.038571667 -0.07251123 -0.10628173 -0.079968795 0.060169313 -0.046885576 0.026459819 -0.1030528
-0.2022316 0.094428964 0.22274332 -0.0054670675 -0.103116326 -0.15628003 0.03569593 0.18372656
0.0061148563 0.02955999 -0.011959816 -0.13905664 -0.04121577 -0.08490549 -0.08957287 -0.07866027
-0.06482162 -0.03957454 -0.05360624 0.038701143 -0.07061674 -0.07481234 0.04422797 0.06885549
-0.030056952 -0.02278332 -0.11326788 0.03276142 0.025008006 0.12305101 0.019864246 0.005173808
-0.028512467 0.058559127 0.13669667 0.12892826 0.10515842 -0.17143326 -0.023079967 0.00439273
0.10187492 0.035612524 0.050475903 0.06504505 0.08079913 0.12800013 -0.032772873 0.12145122
-0.09315538 0.05793493 -0.024491522 -0.033488348 0.060702022 -0.03474679 -0.09641666 -0.04140346
0.020935226 -0.12403349 0.03981739 -0.07349113 -0.0070208535 0.010675055 0.09471046 -0.011724511
0.111573964 -0.025641989 -0.042718343 0.0007539502 -0.04623996 0.015904346 0.031803254 -0.10101689
-0.12141947 0.04504942 -0.08296282 -0.1341683 0.05995905 0.0951878 0.01226398 -0.029757801
-0.0701762 -0.008684759 -0.04023502 0.042522445 0.0054385746 0.07073305 -0.0009838063 -0.034659684
0.013250391 -0.072979026 -0.09605214 0.048769906 -0.0600716 -0.0463823 0.05711051 0.08254989
-0.055681217 -0.074430235 0.004787067 0.0061668935 0.047820188 0.01731225 -0.04367427 0.010288271
0.034969755 0.033064555 0.0053003924 -0.07891026 0.048287455 0.054171525 -0.010874056 -0.0012828026
-0.039964117 0.02847666 -0.05631523 -0.047987577 -0.08414174 -0.049139444 -0.07686266 -0.007598767
0.049383357 0.028367952 0.135885 0.10821536 0.047690675 -0.016540995 0.009890955 0.01085097
0.13951932 -0.03535781 -0.072602764 -0.009311583 0.0014489638 0.011295772 0.25341037 -0.11305812
0.07518403 0.035727654 -0.15068136 -0.19608627 -0.13761555 -0.06260242 -0.16238153 -0.10175943
-0.02229669 -0.023641111 -0.059345428 -0.16903874 -0.03694807 -0.02674627 -0.0037617998 -0.09251668
-0.17492911 -0.09860563 -0.089208975 -0.20548923 0.006124366 0.028092992 0.024026712 0.05815413
0.020225763 0.01859691 0.078021824 0.12665097 -0.017500414 -0.012686522 -0.05211425 0.077514514
0.053762846 0.10982636 0.09806529 0.1557864 -0.12340622 0.00089624664 0.007443116 0.028698375
0.07334172 -0.065476835 -0.01620058 -0.07509645 0.057610232 0.051701885 -0.116710804 -0.0531657
-0.03913389 0.06380329 0.02919317 -0.039820734 0.005382136 0.019288892 -0.03998512 0.018198332
00000000: 131a 453d 861d 65bd edf6 a43c 2a2f f13d
00000010: c49b a2bd 20c3 8dbd 1d18 83bd 85d3 103c
00000020: 0924 afbd 9687 21bd 44a7 dbbd 0f69 d439
00000030: c845 a1bc efb2 9cbd bb99 903d 7d1a 373d
00000040: b4ca a1bc 98fb 903c f269 eebb 11e4 21be
00000050: f3f7 ba3d 510a bebd 4eb8 123d 18fe e13d
00000060: 4702 cbbd a528 353e 90dc dd3b 4cc8 80be
00000070: 512a cbbd e44f b1bd 418e 2bbd a7c9 1dbd
00000080: 8719 183d d9ad 28bd 4bac 563d 745b 50bc
00000090: 39dc 60bd d8fb 823d d377 fa3c bdff 9c3d
000000a0: a9bb f13c 591d 8fbe a22f 203c b321 5f3e
000000b0: ca7e 413e 6052 95bd 5980 b63c baeb b03d
000000c0: 0c6b cc3d 94f7 243c 44d5 0dbc d1c0 3fbd
000000d0: 527c 95bd fdb5 4ebd 5e10 07bd b1dd 7f3c
000000e0: 53fd 1d3d c580 94bd 3caa d9bd aec6 a3bd
000000f0: 1974 763d 170b 40bd 43c2 d83c 590d d3bd
00000100: cd15 4fbe f963 c13d d316 643e 1625 b3bb
00000110: a72e d3bd df07 20be e535 123d d122 3c3e
00000120: 225f c83b cb27 f23c 1bf3 43bc dd64 0ebe
00000130: ded1 28bd eee2 adbd fb71 b7bd a318 a1bd
00000140: 33c1 84bd ea18 22bd 3792 5bbd 1785 1e3d
00000150: 829f 90bd 3637 99bd 6328 353d 1b04 8d3d
00000160: ff39 f6bc 16a4 babc fef8 e7bd d730 063d
00000170: 97dd cc3c 2b02 fc3d 58ba a23c 0c89 a93b
00000180: fa92 e9bc b2db 6f3d 36fa 0b3e c505 043e
00000190: 4c5d d73d 338c 2fbe 3312 bdbc e4f0 8f3b
000001a0: cca3 d03d 70de 113d d2bf 4e3d 5736 853d
000001b0: 047a a53d 7712 033e d93c 06bd 6bbb f83d
000001c0: 3fc8 bebd 2d4d 6d3d 72a2 c8bc 142b 09bd
000001d0: afa2 783d a652 0ebd 1976 c5bd ad96 29bd
000001e0: 5a80 ab3c 4505 febd 8f17 233d 8482 96bd
000001f0: 300f e6bb 6de6 2e3c 8ff7 c13d 2a18 40bc
00000200: e480 e43d 260f d2bc 6ef9 2ebd bea4 453a
00000210: 1d66 3dbd d549 823c 2144 023d f1e1 cebd
00000220: c5aa f8bd be85 383d 69e8 a9bd 6a63 09be
00000230: 9f97 753d d2f1 c23d dcee 483c a2c6 f3bc
00000240: 8ab8 8fbd 854a 0ebc 7acd 24bd 042c 2e3d
00000250: 1236 b23b 7ddc 903d 10f3 80ba 50f7 0dbd
00000260: 2b18 593c 0776 95bd fcb6 c4bd f4c2 473d
00000270: a30d 76bd 5efb 3dbd b6ec 693d eb0f a93d
00000280: fd11 64bd e16e 98bd d4dc 9c3b a713 ca3b
00000290: 1adf 433d 6bd2 8d3c cbe3 32bd 2390 283c
000002a0: 723c 0f3d b36e 073d eaae ad3b b49b a1bd
000002b0: 11c9 453d f6e2 5d3d 1929 32bc b623 a8ba
000002c0: 6ab1 23bd e247 e93c ccaa 66bd 9f8e 44bd
000002d0: 8152 acbd 7146 49bd 2c6a 9dbd 14ff f8bb
000002e0: 3446 4a3d e863 e83c 7025 0b3e 04a0 dd3d
000002f0: 4c57 433d fb80 87bc ac0d 223c 44c8 313c
00000300: 27de 0e3e 5ad3 10bd c2b0 94bd 9c8f 18bc
00000310: 28eb bd3a e711 393c 01bf 813e 048b e7bd
00000320: 16fa 993d 2957 123d 374c 1abe d7ca 48be
00000330: 17eb 0cbe b335 80bd 5847 26be 3f67 d0bd
00000340: 8ca7 b6bc 01ab c1bc 3114 73bd 7e18 2dbe
00000350: dc56 17bd fe1a dbbc 8788 76bb 6379 bdbd
00000360: 9e20 33be c0f1 c9bd 32b3 b6bd c56b 52be
00000370: e8ae c83b 4623 e63c abd3 c43c 0633 6e3d
00000380: 80b0 a53c 8c58 983c e8c9 9f3d cbb0 013e
00000390: 075d 8fbc 21db 4fbc c075 55bd eebf 9e3d
000003a0: 6e36 5c3d a5ec e03d 74d6 c83d 7886 1f3e
000003b0: 66bc fcbd 18f2 6a3a 62e5 f33b db18 eb3c
000003c0: 2f34 963d b818 86bd 14b7 84bc 2bcc 99bd
000003d0: b5f8 6b3d 5bc5 533d 1306 efbd 47c4 59bd
000003e0: dc4a 20bd 4dab 823d 8426 ef3c 111b 23bd
000003f0: a15c b03b bd03 9e3c 70c7 23bd ab14 953c

encoding_layer.layer.0.bias f4 [64]
-0.07147049 -0.0045749606 -0.062692985 0.008827707 0.067253776 -0.08393097 -0.0076248283 0.05396445
-0.014548434 0.055880826 -0.076341055 -0.041203648 -0.0047385823 -0.048021987 0.080889516 0.028528538
-0.00973596 -0.0635099 0.03038719 -0.056020517 -0.038481828 -0.06082403 0.06268737 -0.053824615
-0.04240191 -4.2334363e-05 -0.09593814 -0.01271858 0.039788567 0.008228923 0.018527718 -0.005853421
-0.068981156 -0.054020956 -0.040637083 -0.027176129 -0.06649897 -0.10419094 0.04102749 -0.055806667
0.032069545 0.019215453 -0.06195704 -0.051042266 0.03463211 -0.062026035 -0.03522674 -0.029090613
0.012362758 -0.005800313 -0.061882533 -0.06837341 0.069501 0.056349482 -0.003647951 0.01083926
0.017023528 0.03078779 0.027286317 -0.01967463 -0.069603935 0.0043289047 0.00467501 0.010666475
00000000: 1f5f 92bd 8de9 95bb 2e65 80bd 16a2 103c
00000010: 59bc 893d 00e4 abbd b2d9 f9bb d409 5d3d
00000020: 8e5c 6ebc 4be3 643d b358 9cbd 28c5 28bd
00000030: 1c46 9bbb b4b2 44bd 67a9 a53d aeb4 e93c
00000040: 9383 1fbc 7a11 82bd 8eee f83c c575 65bd
00000050: 1f9f 1dbd 9e22 79bd 3c62 803d 3377 5cbd
00000060: a0ad 2dbd 2d90 31b8 377b c4bd 9761 50bc
00000070: 56f9 223d 9bd2 063c 71c7 973c 0ece bfbb
00000080: fe45 8dbd 1445 5dbd 1273 26bd 79a0 debc
00000090: 9d30 88bd 0f62 d5bd 710c 283d 8895 64bd
000000a0: 5b5b 033d ba69 9d3c aac6 7dbd b211 51bd
000000b0: 66da 0d3d 030f 7ebd ea49 10bd 704f eebc
000000c0: 2a8d 4a3c 8d10 bebb 8a78 7dbd 5c07 8cbd
000000d0: 8a56 8e3d b7ce 663d 7612 6fbb 2797 313c
000000e0: ed74 8b3c ad36 fc3c 8e87 df3c b12c a1bc
000000f0: 828c 8ebd 7cd9 8d3b d430 993b 70c2 2e3c
