HGAT-MADDPG_ver2/ModelBuffer/model_4800.pt (torch, 369835 bytes, 33 tensors)

encoding_layer.layer.0.weight f4 [64, 180]
-0.003734263 0.008370447 -0.047465593 -0.098421834 0.011589265 -0.07489994 -0.059955664 0.064140186
-0.13594833 -0.1371082 0.14371647 -0.0063309227 -0.16044834 -0.11413742 -0.087110944 0.20579948
0.124985926 0.18316445 -0.15519609 0.0035136787 0.22137776 0.16469257 -0.00016820393 -0.17451361
-0.043326322 0.10917792 0.3928213 -0.13516407 -0.16826499 0.12066783 0.07284547 -0.045002136
-0.08263278 0.016456664 -0.032538336 0.3192817 -0.028203413 -0.14250778 -0.03324945 -0.21793239
-0.059800476 0.33525747 0.019777115 -0.25813147 -0.21033165 0.038118657 0.17454134 -0.30033416
-0.23822063 -0.28069603 0.066081345 0.07638505 0.12599571 0.19991127 0.19707453 -0.29462895
-0.13470605 0.055730227 -0.40231726 -0.42919353 -0.42854044 0.012421258 0.03297621 -0.3669813
-0.3251294 0.050955463 -0.30117616 -0.045395195 -0.14122292 -0.07722819 0.18758482 -0.090983056
0.10414987 0.072560124 0.080538645 -0.01660797 0.21193129 -0.044837408 0.18994814 0.3170405
-0.29651037 0.2228053 0.13889553 -0.13276704 -0.076622665 0.045206133 0.06934014 -0.16736008
0.0826333 0.14749204 0.026063737 -0.17656119 -0.004526081 -0.017036647 0.089158714 0.08859322
-0.004555185 -0.077296235 -0.15245318 -0.20823328 0.05327581 0.14201608 -0.07835141 0.024685698
0.011644252 0.01886569 0.0062438576 -0.019008975 0.017217984 -0.019084929 0.07610039 -0.03250003
-0.046153083 -0.09049417 -0.07365692 -0.15050071 0.05755111 -0.092401646 -0.09856424 0.042675573
-0.052357454 0.052735057 -0.06832769 -0.04267788 -0.14880326 0.13721171 0.089016825 0.011966916
-0.12432339 -0.13478781 -0.047932405 -0.021236692 0.13133419 -0.01953508 0.13745052 0.0006163517
0.12820849 0.05066554 0.0787065 0.019115336 0.17545809 0.020797143 -0.058591053 0.029921195
0.12729354 -0.022071114 0.014905341 -0.0119339805 0.05886941 0.03407352 -0.016866375 -0.08315609
0.03664852 -0.048610773 -0.06686651 -0.17732395 -0.04708305 -0.039886434 -0.07056358 -0.05398118
-0.07411971 0.015310393 0.022964062 0.02355125 0.07072959 0.0034903788 0.10348296 0.0628577
0.047343977 0.010987521 0.009780851 0.10724216 0.035786945 0.0020460153 0.016038418 0.07625015
0.15574841 -0.6693823 0.3311601 0.008867601 0.047330003 0.06476301 0.029434439 -0.03004075
0.118721634 0.07260159 -0.039937004 0.019715251 -0.016381662 -0.02765641 -0.033130202 0.050041918
-0.2835528 0.052668445 0.06542744 0.18601263 -0.21004397 0.029554823 0.022826292 0.059278872
-0.12908791 -0.009275604 -0.08716521 -0.054758213 -0.0065134936 0.21173911 -0.3199232 -0.09409274
0.36797246 0.32226363 0.049479414 0.047854953 -0.486307 0.2525645 -0.64580745 0.393017
0.5887071 0.20510289 -0.026937975 -0.0034471983 0.33307454 -0.113972165 -0.07539476 0.058940288
-0.060418632 0.15497005 0.039338496 -0.20279503 -0.036242925 -0.090745494 -0.001624174 0.105841614
0.07668287 -0.17114392 -0.10966388 0.13187973 0.11414626 0.029785728 -0.30023292 -0.3791131
-0.19226228 0.36019284 -0.013014033 -0.16776232 -0.13496237 0.14693333 -0.14518613 -0.18297116
-0.047604036 -0.061490986 -0.4209069 -0.2869887 -0.084806174 -0.2594781 -0.25095013 -0.313384
00000000: 89ba 74bb 3324 093c 486b 42bd 6391 c9bd
00000010: e7e0 3d3c 2465 99bd 1294 75bd ee5b 833d
00000020: 0a36 0bbe 1866 0cbe 692a 133e a173 cfbb
00000030: 924c 24be e1c0 e9bd 3967 b2bd 19bd 523e
00000040: 9ff8 ff3d 768f 3b3e b9eb 1ebe bf45 663b
00000050: dab0 623e 2ba5 283e e65f 30b9 b2b3 32be
00000060: f176 31bd ac98 df3d e01f c93e 7368 0abe
00000070: a84d 2cbe b220 f73d 0130 953d 2954 38bd
00000080: 603b a9bd 20d0 863c eb46 05bd e478 a33e
00000090: d80a e7bc 8fed 11be 9330 08bd ab29 5fbe
000000a0: 58f1 74bd dea6 ab3e 9e03 a23c cf29 84be
000000b0: 2e61 57be 4f22 1c3d f7ba 323e 66c5 99be
000000c0: 1cf0 73be 64b7 8fbe a855 873d c46f 9c3d
000000d0: 0505 013e 8ab5 4c3e e8cd 493e 9bd9 96be
000000e0: 62f0 09be 6145 643d 87fc cdbe 41bf dbbe
000000f0: a769 dbbe 8882 4b3c 1012 073d f9e4 bbbe
00000100: 5c77 a6be adb6 503d c333 9abe 50f0 39bd
00000110: be9c 10be d029 9ebd 3c16 403e 5355 babd
00000120: 874c d53d 679a 943d 72f1 a43d 700d 88bc
00000130: 8404 593e 6ea7 37bd c481 423e 2253 a23e
00000140: 35d0 97be 1327 643e a13a 0e3e 15f4 07be
00000150: 58ec 9cbd 112a 393d 3402 8e3d 7160 2bbe
00000160: a63b a93d 2708 173e 9e83 d53c 75cc 34be
00000170: 854f 94bb 7090 8bbc d898 b63d 5d70 b53d
00000180: a943 95bb 7d4d 9ebd b01c 1cbe 1b3b 55be
00000190: bc37 5a3d aa6c 113e b476 a0bd a939 ca3c
000001a0: 88c7 3e3c 388c 9a3c 4699 cc3b b6b8 9bbc
000001b0: bb0c 8d3c ff57 9cbc 85da 9b3d c01e 05bd
000001c0: 040b 3dbd 0255 b9bd 70d9 96bd dc1c 1abe
000001d0: b6ba 6b3d 133d bdbd 0cdc c9bd 95cc 2e3d
000001e0: c574 56bd b700 583d 63ef 8bbd 00cf 2ebd
000001f0: e25f 18be 3a81 0c3e 744e b63d e210 443c
00000200: 439d febd d105 0abe c554 44bd 92f8 adbc
00000210: 787c 063e 0808 a0bc d4bf 0c3e aa92 213a
00000220: 1649 033e ab86 4f3d e030 a13d c497 9c3c
00000230: 49ab 333e c55e aa3c 2cfd 6fbd 4b1d f53c
00000240: 3d59 023e 7bce b4bc 8835 743c be86 43bc
00000250: 0d21 713d ad90 0b3d 5a2b 8abc bd4d aabd
00000260: c21c 163d 171c 47bd 4ff1 88bd 6994 35be
00000270: 28da 40bd f55f 23bd a383 90bd 5f1b 5dbd
00000280: 13cc 97bd 71d8 7a3c 211f bc3c 8dee c03c
00000290: adda 903d d7be 643b e0ee d33d 8abb 803d
000002a0: c2eb 413d 0105 343c dd3f 203c c7a1 db3d
000002b0: 5595 123d 7116 063b 0063 833c 0a29 9c3d
000002c0: 837c 1f3e a35c 2bbf d18d a93e 6a49 113c
000002d0: 1bdd 413d 78a2 843d 7e20 f13c 0518 f6bc
000002e0: 5424 f33d 24b0 943d fc94 23bd e181 a13c
000002f0: d632 86bc b28f e2bc 89b3 07bd c1f8 4c3d
00000300: d52d 91be deba 573d d2fe 853d 187a 3e3e
00000310: c415 57be f51c f23c 34fe ba3c 67ce 723d
00000320: 9f2f 04be b4f8 17bc ac83 b2bd 264a 60bd
00000330: 256f d5bb 23d2 583e f9cc a3be b2b3 c0bd
00000340: e366 bc3e bdff a43e edaa 4a3d 8e03 443d
00000350: 3bfd f8be 2250 813e a353 25bf 8639 c93e
00000360: 82b5 163f 7e06 523e 07ad dcbc 64ea 61bb
00000370: bf88 aa3e 3d6a e9bd 9168 9abd 5f6b 713d
00000380: 8779 77bd 78b0 1e3e 6721 213d 80a9 4fbe
00000390: 7673 14bd c6d8 b9bd 3ce2 d4ba 7dc3 d83d
000003a0: e90b 9d3d 5a40 2fbe 7597 e0bd 7b0b 073e
000003b0: 84c5 e93d 3301 f43c 21b8 99be 1d1b c2be
000003c0: 67e0 44be 326b b83e d038 55bc e3c9 2bbe
000003d0: 9333 0abe b175 163e acab 14be cb5c 3bbe
000003e0: 73fc 42bd f9dd 7bbd 1c81 d7be 2ff0 92be
000003f0: dcae adbd 50da 84be 897c 80be de73 a0be

encoding_layer.layer.0.bias f4 [64]
0.070223525 0.029734787 0.015979297 -0.017835664 -0.02561758 0.09796281 -0.012889375 -0.0641817
0.017553853 -0.04908929 -0.023420911 -0.09146364 -0.040349327 0.07910916 -0.044007145 -0.034169942
-0.030196128 -0.04560975 0.022473203 0.057761602 -0.017365234 -0.023259118 -0.11371996 -0.024909725
-0.055545475 -0.05207591 0.037598334 0.026457286 0.048188798 -0.008336844 -0.007726563 -0.06565701
0.017438738 0.031843945 -0.05664462 0.00040678092 -0.009318862 -0.11806176 -0.09045222 -0.07766068
0.043337744 0.033521116 0.038591 0.023157928 0.0129693365 0.029912546 -0.0004643808 0.024910625
-0.10073873 -0.062037285 -0.039025452 -0.0280052 -0.04588012 -0.026849246 -0.00041720003 0.103357725
-0.040882535 -0.09574512 0.038822923 0.06998529 -0.06983123 -0.022488704 -0.003754896 -0.006292039
00000000: 5ad1 8f3d 5e96 f33c 04e7 823c 191c 92bc
00000010: f6db d1bc baa0 c83d f52d 53bc b271 83bd
00000020: 19cd 8f3c da11 49bd 36dd bfbc 4a51 bbbd
00000030: 5645 25bd fc03 a23d d640 34bd c8f5 0bbd
00000040: df5d f7bc 4ad1 3abd b919 b83c 6e97 6c3d
00000050: 8941 8ebc e889 bebc 03e6 e8bd 7b0f ccbc
00000060: a783 63bd 8d4d 55bd b600 1a3d f3bc d83c
00000070: 9e61 453d 4297 08bc 1c2f fdbb 2f77 86bd
00000080: afdb 8e3c cc6e 023d 3004 68bd 3645 d539
00000090: 24ae 18bc 5dca f1bd 033f b9bd 900c 9fbd
000000a0: eb82 313d 704d 093d 9911 1e3d b2b5 bd3c
000000b0: 577d 543c 280b f53c 2378 f3b9 5e11 cc3c
000000c0: 1b50 cebd cf1a 7ebd 27d9 1fbd 296b e5bc
000000d0: cbec 3bbd f3f2 dbbc a4bb dab9 37ad d33d
000000e0: 7274 27bd 0416 c4bd c904 1f3d 7354 8f3d
000000f0: ad03 8fbd 3b3a b8bc b414 76bb 732d cebb

relational_layer.layers.0.att_src f4 [1, 1, 64]
-0.0382935 0.30546072 -0.30585423 0.13607046 -0.17762865 -0.10161199 0.41150123 -0.009150125
0.31210873 -0.38025838 0.107791096 -0.33910233 0.22997105 0.16361886 0.577347 -0.17392512
-0.23067072 0.17967062 0.3913669 -0.39517635 0.020410208 -0.38792205 -0.11920372 0.16430742
-0.36442703 -0.36862123 -0.39214635 -0.09653323 0.0206403 -0.4771907 -0.31340605 0.032319497
0.017506842 0.0027446954 0.45536518 -0.35464782 0.11434138 -0.21773466 -0.3453973 0.15809251
0.35417715 -0.24329562 -0.3329643 -0.032425024 0.42942923 -0.15198238 0.2890988 0.22501734
-0.3305812 -0.30599442 0.26161844 0.2024169 0.12557587 -0.18982883 -0.4439231 0.3049446
-0.33075085 -0.3877836 -0.11419081 -0.13011383 0.10581136 0.21181157 0.15369369 0.29580623
00000000: a5d9 1cbd 5965 9c3e ed98 9cbe 0e56 0b3e
00000010: 49e4 35be f219 d0bd 4ab0 d23e 68ea 15bc
00000020: b7cc 9f3e 3ab1 c2be 94c1 dc3d d29e adbe
00000030: 887d 6b3e b48b 273e 03cd 133f 6d19 32be
00000040: f234 6cbe 93fb 373e 3e61 c83e 8e54 cabe
00000050: 4f33 a73c b89d c6be 1421 f4bd 3440 283e
00000060: 2e96 babe ecbb bcbe 68c7 c8be 37b3 c5bd
00000070: d915 a93c 5752 f4be c276 a0be 7361 043d
00000080: 826a 8f3c 59e0 333b a025 e93e 6694 b5be
00000090: d02b ea3d d6f5 5ebe ead7 b0be 01e3 213e
000000a0: b556 b53e 7d22 79be 4c7a aabe 1ad0 04bd
000000b0: 26de db3e 45a1 1bbe c204 943e f26a 663e
000000c0: f041 a9be 4dab 9cbe daf2 853e 6046 4f3e
000000d0: f696 003e 7d62 42be e349 e3be b321 9c3e
000000e0: 2d58 a9be 928b c6be dfdc e9bd 8f3c 05be
000000f0: a0b3 d83d 22e5 583e e161 1d3e ea73 973e

relational_layer.layers.0.att_dst f4 [1, 1, 64]
-0.41933858 -0.038406774 0.32993057 -0.17694229 -0.42021483 -0.08796517 -0.09046443 -0.5482638
0.30655813 0.12133814 -0.31400546 -0.109200574 0.47515 -0.19186585 -0.05676921 0.17142853
-0.19072473 -0.30545318 -0.009305341 0.18886597 0.33860612 0.20469558 0.21481127 -0.07582725
-0.015996452 0.10623614 0.36479965 0.15240255 -0.0041826474 -0.0501452 -0.2837885 -0.08851437
0.30889568 0.16676447 -0.27684638 0.15307318 0.27722216 0.46243238 0.08227379 0.058477998
-0.054547075 -0.44861147 0.13426685 0.089152314 0.12789164 0.1179294 -0.09954502 -0.045941107
0.09268207 -0.16354267 -0.107113756 -0.27984107 -0.4899596 -0.07831141 -0.22347303 -0.18153751
-0.6332634 -0.382484 0.02999848 0.07360702 0.039292466 -0.2334924 -0.39516267 -0.47410658
00000000: 8cb3 d6be 6c50 1dbd a9ec a83e 5c30 35be
00000010: 6626 d7be 1527 b4bd 6a45 b9bd 045b 0cbf
00000020: 30f5 9c3e 2180 f83d 53c5 a0be 8da4 dfbd
00000030: dc46 f33e 7b78 44be d586 68bd f68a 2f3e
00000040: 584d 43be 5c64 9cbe 6e75 18bc 1566 413e
00000050: c85d ad3e b89b 513e 7cf7 5b3e 514b 9bbd
00000060: fe0a 83bc 5592 d93d 05c7 ba3e 6a0f 1c3e
00000070: 970e 89bb 0e65 4dbd ba4c 91be 0647 b5bd
00000080: 9327 9e3e 4ec4 2a3e cfbe 8dbe 37bf 1c3e
00000090: 10f0 8d3e f0c3 ec3e 297f a83d a086 6f3d
000000a0: c16c 5fbd 67b0 e5be 407d 093e 7d95 b63d
000000b0: 07f6 023e f884 f13d 42de cbbd be2c 3cbd
000000c0: 19d0 bd3d bb77 27be 755e dbbd 5447 8fbe
000000d0: fcdb fabe bc61 a0bd 1dd6 64be f8e4 39be
000000e0: 8d1d 22bf f1d4 c3be 5fbf f53c 47bf 963d
000000f0: 23f1 203d a218 6fbe c352 cabe 19be f2be

relational_layer.layers.0.bias f4 [64]
-0.092417255 -0.2602213 -0.18583582 -0.059282016 0.020113891 -0.039461948 -0.17104398 -0.1812178
-0.12715884 -0.11566812 -0.03443051 -0.02217231 -0.24307768 -0.09858294 -0.18365395 0.0205253
-0.016499314 -0.23347767 -0.08900141 0.08205315 -0.1955623 -0.091723494 -0.2582907 -0.10090026
-0.03509909 0.0025439197 -0.10201323 -0.0126011465 -0.114592455 -0.088764995 -0.17223133 0.019088507
-0.07192567 0.017543914 -0.036531046 -0.098640785 -0.13569608 -0.17375694 -0.17477448 -0.02549061
-0.16266333 -0.15394704 -0.042156268 -0.077169314 0.0058311895 -0.040724255 0.060417727 -0.029962176
-0.011877209 0.044851962 -0.25102732 -0.07060654 -0.10016405 -0.0725779 -0.11721946 -0.11045318
-0.07778268 -0.17589103 -0.10470498 0.049676634 -0.020539612 -0.06321215 -0.011939995 0.0001280506
00000000: 4245 bdbd ba3b 85be bf4b 3ebe b3d1 72bd
00000010: e3c5 a43c daa2 21bd 2726 2fbe 2991 39be
00000020: ed35 02be 68e3 ecbd 0207 0dbd b4a2 b5bc
00000030: 5be9 78be dae5 c9bd c80f 3cbe ad24 a83c
00000040: 9229 87bc c514 6fbe 5f46 b6bd 7b0b a83d
00000050: 7c41 48be 87d9 bbbd ae3e 84be cca4 cebd
00000060: 10c4 0fbd e4b7 263b 50ec d0bd 0a75 4ebc
00000070: 73af eabd 6cca b5bd 695d 30be 805f 9c3c
00000080: c44d 93bd 41b8 8f3c 94a1 15bd 2e04 cabd
00000090: eaf3 0abe 57ed 31be 15f8 32be afd1 d0bc
000000a0: 3791 26be 4ba4 1dbe 0dac 2cbd f20a 9ebd
000000b0: 9013 bf3b 7ace 26bd 9478 773d 3d73 f5bc
000000c0: a098 42bc b1b6 373d a786 80be 299a 90bd
000000d0: cf22 cdbd b9a3 94bd c210 f0bd 4735 e2bd
000000e0: 874c 9fbd c71c 34be 916f d6bd ba79 4b3d
000000f0: b042 a8bc 5f75 81bd f89f 43bc 5245 0639

relational_layer.layers.0.lin_src.weight f4 [64, 64]
-0.027082173 0.008466328 0.28693464 -0.35908213 0.15033543 -0.12120394 -0.23319568 -0.3630969
0.1373489 -0.060838804 -0.10431248 -0.20450059 -0.14311995 0.20057535 -0.4353539 0.16616309
0.04463315 -0.024033492 -0.5309177 -0.70981985 -0.05985943 0.05831567 -0.5164195 0.0022763754
-0.24167114 0.08252714 -0.091467015 -0.4188887 -0.11540386 -0.12983592 0.24978688 -0.26336482
-0.25382334 -0.12691581 -0.14136116 -0.18702301 -0.062277365 0.03277894 -0.22634926 0.00628404
0.049906682 -0.08276856 0.22095901 -0.043834332 0.3281145 -0.60595644 -0.090401456 0.030605482
-0.400012 -0.044481557 -0.05492251 0.2594267 0.026180083 -0.22602661 -0.019616323 0.06541939
0.218528 0.44973165 -0.30862004 -0.22860391 -0.0676708 -0.023598844 0.35532725 -0.09447901
-0.033077855 -0.2575692 -0.12655066 -0.09862584 -0.13373496 -0.03871221 0.08972662 -0.35738027
0.04315637 -0.16119777 -0.0780855 0.35613233 0.14379713 0.37185758 -0.05621804 -0.012445895
-0.25102 -0.15163714 -0.063001394 -0.19068342 0.07665792 0.048668403 -0.13593608 -0.22101632
0.075520575 -0.22236463 0.055628695 0.07055358 0.033106897 0.25142363 0.18138541 -0.10033491
-0.018675447 0.12018332 -0.36966652 -0.19158342 -0.14118972 -0.055551592 -0.2167551 0.039629422
0.12141123 0.36510354 -0.04334021 -0.30974534 0.031747043 0.16477726 -0.25028196 -0.061770916
0.14367919 -0.027283665 0.039549656 -0.16170363 0.010935557 -0.2574435 -0.17988646 -0.19502586
-0.10581285 0.21013193 -0.23021808 -0.04529882 -0.21658103 0.018612519 0.06278189 0.037408646
-0.03266322 0.29077432 0.11690126 0.03523091 -0.21918295 0.12688854 0.06651742 0.20294854
-0.14476892 -0.013963646 -0.037818234 -0.1253634 -0.12506244 0.26540688 0.020829218 0.20887363
-0.09782456 0.080313034 -0.095492885 0.23269972 -0.17677842 -0.043768127 -0.047155634 0.063451
0.042311378 0.18993327 -0.0684518 0.31291634 -0.28109413 0.118878834 0.042615883 0.06130905
-0.006878113 0.07209573 0.17516536 -0.15352483 0.061169323 -0.23486878 0.104798995 -0.093523994
0.1502878 0.15869159 -0.030907987 -0.115900114 -0.117892765 0.068481155 -0.118143894 -0.013511112
-0.16630304 -0.2810244 -0.12765114 -0.26154837 -0.059675045 -0.024226274 0.29976705 0.22599511
0.08596257 -0.08544499 0.17275237 -0.08383086 -0.1344464 -0.10949217 0.23576503 -0.026124753
0.02379485 0.1208248 0.3002214 -0.08076434 -0.21446255 -0.04943154 -0.5487004 0.13761114
0.0031067394 -0.095708035 0.14627068 0.33274665 0.1813055 -0.19468607 -0.0976587 -0.21415563
-0.05244512 -0.062016074 0.066221535 -0.07658812 -0.1020983 -0.05446751 -0.15770166 0.032909863
0.25073195 0.50757456 -0.2606115 -0.037126843 -0.043741517 0.24949619 0.1271838 0.0490755
0.05441096 0.17498957 -0.18942936 -0.26936203 0.19298865 -0.15049508 -0.11962866 0.009747333
-0.015960792 -0.038532753 -0.207596 0.1205386 0.020335665 -0.3539651 -0.024283292 0.1637374
-0.19496445 -0.31993964 0.2580319 0.12707037 0.3489051 -0.049262177 -0.45479923 -0.008208314
-0.16876924 -0.057271723 -0.23409449 0.13517357 -0.24575482 0.23844607 0.41521072 -0.03481118
00000000: 6fdb ddbc 5ab6 0a3c 19e9 923e 9dd9 b7be
00000010: 88f1 193e c539 f8bd d9ca 6ebe d6e7 b9be
00000020: 31a5 0c3e 1c32 79bd c8a1 d5bd 9a68 51be
00000030: 098e 12be a063 4d3e b5e6 debe a826 2a3e
00000040: 40d1 363d e3e1 c4bc 39ea 07bf c1b6 35bf
00000050: 292f 75bd 69dc 6e3d 1134 04bf 3e2f 153b
00000060: a478 77be fd03 a93d 0f53 bbbd 9478 d6be
00000070: dc58 ecbd b5f3 04be 22c8 7f3e c1d7 86be
00000080: 22f5 81be 38f6 01be fbc0 10be f682 3fbe
00000090: 8d16 7fbd 3643 063d 1ac8 67be 59ea cd3b
000000a0: f36a 4c3d 9082 a9bd 1443 623e a18b 33bd
000000b0: a0fe a73e f61f 1bbf 6624 b9bd 59b8 fa3c
000000c0: 5fce ccbe 4b32 36bd 6df6 60bd 94d3 843e
000000d0: 9d77 d63c 8573 67be 69b2 a0bc 9afa 853d
000000e0: cec5 5f3e 3a43 e63e 7203 9ebe 2517 6abe
000000f0: fd96 8abd 5d52 c1bc 74ed b53e 367e c1bd
00000100: a57c 07bd 1ce0 83be 7f96 01be 58fc c9bd
00000110: d1f1 08be b290 1ebd 97c2 b73d 8cfa b6be
00000120: bcc4 303d 0711 25be 4aeb 9fbd fa56 b63e
00000130: 8e3f 133e 1e64 be3e e344 66bd dee9 4bbc
00000140: b285 80be c446 1bbe e006 81bd 8442 43be
00000150: d4fe 9c3d 8558 473d d432 0bbe 1a52 62be
00000160: 88aa 9a3d 8eb3 63be eada 633d 657e 903d
00000170: 199b 073d 99ba 803e 19bd 393e 647c cdbd
00000180: 40fd 98bc ac22 f63d ee44 bdbe 722e 44be
00000190: 0a94 10be 118a 63bd 0df5 5dbe 7652 223d
000001a0: 73a6 f83d daee ba3e 8185 31bd f196 9ebe
000001b0: 3009 023d 5fbb 283e f524 80be 8003 7dbd
000001c0: a320 133e fe81 dfbc d2fe 213d a395 25be
000001d0: 0d2b 333c a2cf 83be 2834 38be dcb4 47be
000001e0: 68b4 d8bd d32c 573e 4abe 6bbe 418b 39bd
000001f0: 6bc7 5dbe 4879 983c cb93 803d cf39 193d
00000200: dec9 05bd 5fe0 943e ee69 ef3d 494e 103d
00000210: 7f71 60be 12ef 013e 493a 883d bed1 4f3e
00000220: 4e3e 14be c7c7 64bc 4be7 1abd 435f 00be
00000230: 5e10 00be 69e3 873e 09a2 aa3c f8e2 553e
00000240: 3e58 c8bd 297b a43d c691 c3bd d648 6e3e
00000250: 6705 35be 3546 33bd 4426 41bd 99f2 813d
00000260: b24e 2d3d de7d 423e 7530 8cbd 9236 a03e
00000270: 92eb 8fbe bf76 f33d fe8d 2e3d 331f 7b3d
00000280: cb61 e1bb eda6 933d 8c5e 333e 9d35 1dbe
00000290: af8c 7a3d 7181 70be dba0 d63d 8289 bfbd
000002a0: 0ce5 193e 0c80 223e bf32 fdbc 0a5d edbd
000002b0: c371 f1bd d93f 8c3d 6df5 f1bd b65d 5dbc
000002c0: 584b 2abe 6ee2 8fbe fbb6 02be abe9 85be
000002d0: d26d 74bd 2e76 c6bc 117b 993e 436b 673e
000002e0: 250d b03d c8fd aebd ffe5 303e 84af abbd
000002f0: 51ac 09be 6e3d e0bd 636c 713e 9403 d6bc
00000300: 6bed c23c fe72 f73d 9fb6 993e c667 a5bd
00000310: 129c 5bbe ba78 4abd a177 0cbf efe9 0c3e
00000320: 709a 4b3b 9302 c4bd fbc7 153e c55d aa3e
00000330: 26a8 393e c95b 47be 4901 c8bd 9d4b 5bbe
00000340: b2d0 56bd 9104 7ebd 289f 873d 3bda 9cbd
00000350: ea18 d1bd 5319 5fbd 8b7c 21be 7ecc 063d
00000360: f05f 803e 68f0 013f df6e 85be 5112 18bd
00000370: 4e2a 33bd ee7b 7f3e 783c 023e 6403 493d
00000380: 07de 5e3d 7730 333e c5f9 41be d2e9 89be
00000390: d19e 453e 621b 1abe dfff f4bd 47b3 1f3c
000003a0: 35c0 82bc 85d4 1dbd 0c94 54be f1dc f63d
000003b0: fb96 a63c ea3a b5be c1ed c6bc c7aa 273e
000003c0: c3a4 47be 21cf a3be c21c 843e bc1e 023e
000003d0: b0a3 b23e 23c7 49bd 72db e8be 2a7c 06bc
000003e0: d8d1 2cbe c195 6abd 77b6 6fbe f16a 0a3e
000003f0: 27a7 7bbe 352b 743e 8096 d43e 2b96 0ebd

relational_layer.layers.0.lin_dst.weight f4 [64, 64]
-0.027082173 0.008466328 0.28693464 -0.35908213 0.15033543 -0.12120394 -0.23319568 -0.3630969
0.1373489 -0.060838804 -0.10431248 -0.20450059 -0.14311995 0.20057535 -0.4353539 0.16616309
0.04463315 -0.024033492 -0.5309177 -0.70981985 -0.05985943 0.05831567 -0.5164195 0.0022763754
-0.24167114 0.08252714 -0.091467015 -0.4188887 -0.11540386 -0.12983592 0.24978688 -0.26336482
-0.25382334 -0.12691581 -0.14136116 -0.18702301 -0.062277365 0.03277894 -0.22634926 0.00628404
0.049906682 -0.08276856 0.22095901 -0.043834332 0.3281145 -0.60595644 -0.090401456 0.030605482
-0.400012 -0.044481557 -0.05492251 0.2594267 0.026180083 -0.22602661 -0.019616323 0.06541939
0.218528 0.44973165 -0.30862004 -0.22860391 -0.0676708 -0.023598844 0.35532725 -0.09447901
-0.033077855 -0.2575692 -0.12655066 -0.09862584 -0.13373496 -0.03871221 0.08972662 -0.35738027
0.04315637 -0.16119777 -0.0780855 0.35613233 0.14379713 0.37185758 -0.05621804 -0.012445895
-0.25102 -0.15163714 -0.063001394 -0.19068342 0.07665792 0.048668403 -0.13593608 -0.22101632
0.075520575 -0.22236463 0.055628695 0.07055358 0.033106897 0.25142363 0.18138541 -0.10033491
-0.018675447 0.12018332 -0.36966652 -0.19158342 -0.14118972 -0.055551592 -0.2167551 0.039629422
0.12141123 0.36510354 -0.04334021 -0.30974534 0.031747043 0.16477726 -0.25028196 -0.061770916
0.14367919 -0.027283665 0.039549656 -0.16170363 0.010935557 -0.2574435 -0.17988646 -0.19502586
-0.10581285 0.21013193 -0.23021808 -0.04529882 -0.21658103 0.018612519 0.06278189 0.037408646
-0.03266322 0.29077432 0.11690126 0.03523091 -0.21918295 0.12688854 0.06651742 0.20294854
-0.14476892 -0.013963646 -0.037818234 -0.1253634 -0.12506244 0.26540688 0.020829218 0.20887363
-0.09782456 0.080313034 -0.095492885 0.23269972 -0.17677842 -0.043768127 -0.047155634 0.063451
0.042311378 0.18993327 -0.0684518 0.31291634 -0.28109413 0.118878834 0.042615883 0.06130905
-0.006878113 0.07209573 0.17516536 -0.15352483 0.061169323 -0.23486878 0.104798995 -0.093523994
0.1502878 0.15869159 -0.030907987 -0.115900114 -0.117892765 0.068481155 -0.118143894 -0.013511112
-0.16630304 -0.2810244 -0.12765114 -0.26154837 -0.059675045 -0.024226274 0.29976705 0.22599511
0.08596257 -0.08544499 0.17275237 -0.08383086 -0.1344464 -0.10949217 0.23576503 -0.026124753
0.02379485 0.1208248 0.3002214 -0.08076434 -0.21446255 -0.04943154 -0.5487004 0.13761114
0.0031067394 -0.095708035 0.14627068 0.33274665 0.1813055 -0.19468607 -0.0976587 -0.21415563
-0.05244512 -0.062016074 0.066221535 -0.07658812 -0.1020983 -0.05446751 -0.15770166 0.032909863
0.25073195 0.50757456 -0.2606115 -0.037126843 -0.043741517 0.24949619 0.1271838 0.0490755
0.05441096 0.17498957 -0.18942936 -0.26936203 0.19298865 -0.15049508 -0.11962866 0.009747333
-0.015960792 -0.038532753 -0.207596 0.1205386 0.020335665 -0.3539651 -0.024283292 0.1637374
-0.19496445 -0.31993964 0.2580319 0.12707037 0.3489051 -0.049262177 -0.45479923 -0.008208314
-0.16876924 -0.057271723 -0.23409449 0.13517357 -0.24575482 0.23844607 0.41521072 -0.03481118
00000000: 6fdb ddbc 5ab6 0a3c 19e9 923e 9dd9 b7be
00000010: 88f1 193e c539 f8bd d9ca 6ebe d6e7 b9be
00000020: 31a5 0c3e 1c32 79bd c8a1 d5bd 9a68 51be
00000030: 098e 12be a063 4d3e b5e6 debe a826 2a3e
00000040: 40d1 363d e3e1 c4bc 39ea 07bf c1b6 35bf
00000050: 292f 75bd 69dc 6e3d 1134 04bf 3e2f 153b
00000060: a478 77be fd03 a93d 0f53 bbbd 9478 d6be
00000070: dc58 ecbd b5f3 04be 22c8 7f3e c1d7 86be
00000080: 22f5 81be 38f6 01be fbc0 10be f682 3fbe
00000090: 8d16 7fbd 3643 063d 1ac8 67be 59ea cd3b
000000a0: f36a 4c3d 9082 a9bd 1443 623e a18b 33bd
000000b0: a0fe a73e f61f 1bbf 6624 b9bd 59b8 fa3c
000000c0: 5fce ccbe 4b32 36bd 6df6 60bd 94d3 843e
000000d0: 9d77 d63c 8573 67be 69b2 a0bc 9afa 853d
000000e0: cec5 5f3e 3a43 e63e 7203 9ebe 2517 6abe
000000f0: fd96 8abd 5d52 c1bc 74ed b53e 367e c1bd
00000100: a57c 07bd 1ce0 83be 7f96 01be 58fc c9bd
00000110: d1f1 08be b290 1ebd 97c2 b73d 8cfa b6be
00000120: bcc4 303d 0711 25be 4aeb 9fbd fa56 b63e
00000130: 8e3f 133e 1e64 be3e e344 66bd dee9 4bbc
00000140: b285 80be c446 1bbe e006 81bd 8442 43be
00000150: d4fe 9c3d 8558 473d d432 0bbe 1a52 62be
00000160: 88aa 9a3d 8eb3 63be eada 633d 657e 903d
00000170: 199b 073d 99ba 803e 19bd 393e 647c cdbd
00000180: 40fd 98bc ac22 f63d ee44 bdbe 722e 44be
00000190: 0a94 10be 118a 63bd 0df5 5dbe 7652 223d
000001a0: 73a6 f83d daee ba3e 8185 31bd f196 9ebe
000001b0: 3009 023d 5fbb 283e f524 80be 8003 7dbd
000001c0: a320 133e fe81 dfbc d2fe 213d a395 25be
000001d0: 0d2b 333c a2cf 83be 2834 38be dcb4 47be
000001e0: 68b4 d8bd d32c 573e 4abe 6bbe 418b 39bd
000001f0: 6bc7 5dbe 4879 983c cb93 803d cf39 193d
00000200: dec9 05bd 5fe0 943e ee69 ef3d 494e 103d
00000210: 7f71 60be 12ef 013e 493a 883d bed1 4f3e
00000220: 4e3e 14be c7c7 64bc 4be7 1abd 435f 00be
00000230: 5e10 00be 69e3 873e 09a2 aa3c f8e2 553e
00000240: 3e58 c8bd 297b a43d c691 c3bd d648 6e3e
00000250: 6705 35be 3546 33bd 4426 41bd 99f2 813d
00000260: b24e 2d3d de7d 423e 7530 8cbd 9236 a03e
00000270: 92eb 8fbe bf76 f33d fe8d 2e3d 331f 7b3d
00000280: cb61 e1bb eda6 933d 8c5e 333e 9d35 1dbe
00000290: af8c 7a3d 7181 70be dba0 d63d 8289 bfbd
000002a0: 0ce5 193e 0c80 223e bf32 fdbc 0a5d edbd
000002b0: c371 f1bd d93f 8c3d 6df5 f1bd b65d 5dbc
000002c0: 584b 2abe 6ee2 8fbe fbb6 02be abe9 85be
000002d0: d26d 74bd 2e76 c6bc 117b 993e 436b 673e
000002e0: 250d b03d c8fd aebd ffe5 303e 84af abbd
000002f0: 51ac 09be 6e3d e0bd 636c 713e 9403 d6bc
00000300: 6bed c23c fe72 f73d 9fb6 993e c667 a5bd
00000310: 129c 5bbe ba78 4abd a177 0cbf efe9 0c3e
00000320: 709a 4b3b 9302 c4bd fbc7 153e c55d aa3e
00000330: 26a8 393e c95b 47be 4901 c8bd 9d4b 5bbe
00000340: b2d0 56bd 9104 7ebd 289f 873d 3bda 9cbd
00000350: ea18 d1bd 5319 5fbd 8b7c 21be 7ecc 063d
00000360: f05f 803e 68f0 013f df6e 85be 5112 18bd
00000370: 4e2a 33bd ee7b 7f3e 783c 023e 6403 493d
00000380: 07de 5e3d 7730 333e c5f9 41be d2e9 89be
00000390: d19e 453e 621b 1abe dfff f4bd 47b3 1f3c
000003a0: 35c0 82bc 85d4 1dbd 0c94 54be f1dc f63d
000003b0: fb96 a63c ea3a b5be c1ed c6bc c7aa 273e
000003c0: c3a4 47be 21cf a3be c21c 843e bc1e 023e
000003d0: b0a3 b23e 23c7 49bd 72db e8be 2a7c 06bc
000003e0: d8d1 2cbe c195 6abd 77b6 6fbe f16a 0a3e
000003f0: 27a7 7bbe 352b 743e 8096 d43e 2b96 0ebd

action_layer.layer1.0.weight f4 [128, 128]
-0.30773535 -0.20537572 -0.25365874 -0.11348191 0.03995828 0.14962925 -0.084934734 -0.10135603
-0.17526682 0.11452706 0.1592183 0.06544858 0.10140973 -0.044453967 -0.15606591 -0.0038313759
0.013739695 -0.042533427 -0.36992276 -0.15018839 -0.12338529 -0.003802515 -0.0041363584 -0.08467065
-0.073490776 0.0885336 0.12724338 -0.15015514 0.09211718 0.07866476 -0.08752786 0.3675922
-0.3069178 -0.17868575 0.11389957 0.038695894 -0.018434392 -0.03811759 -0.044669162 0.03898591
-0.07965853 0.23347145 -0.08343972 0.088818386 0.20186068 0.035760522 -0.09142305 0.06120826
0.12675548 0.061903648 -0.021176374 0.056227222 -0.07725969 0.12945928 -0.08793228 -0.13987584
-0.22114486 0.075806856 0.19818798 -0.1377756 0.10419462 0.09248689 -0.01576274 0.021809857
-0.030596457 0.08414154 0.011497997 0.061857715 -0.077239156 -0.035894312 0.08241056 0.12375264
0.04185946 -0.18015443 0.083157696 0.07462999 -0.028121406 0.0036261752 0.018746875 0.108623296
0.072232336 -0.07199261 0.022942118 0.12634511 0.04858748 -0.06490123 0.12425392 -0.033106443
0.1367052 0.052389022 0.0323212 -0.08387389 -0.37969488 -0.019111948 -0.059005022 -0.09160898
0.0032816392 -0.17661972 -0.04381753 0.042018425 0.08329313 0.0020218205 0.041020177 -0.08152914
0.056870442 -0.07725246 0.06831564 0.06256655 -0.34583795 0.035593543 -0.18488927 0.19861856
0.14214854 -0.0014048226 -0.3213177 0.31270954 -0.17093672 -0.042902052 -0.09229773 0.038091637
-0.06799024 -0.16200292 0.023342608 -0.07724214 0.0077197673 -0.061445918 0.12659587 0.10291206
0.21276698 0.18781823 -0.11116982 0.118892975 0.068173945 0.08500752 -0.065618746 0.17040859
0.01686266 -0.030437646 -0.06797411 -0.50517076 0.16928968 -0.016036192 0.12587658 -0.1800928
0.06505495 0.004442047 -0.037670765 -0.1992253 0.0015238932 -0.25056297 -0.06619179 -0.11115362
0.24742319 -0.09235545 -0.076888755 0.017662985 -0.06364601 -0.102261014 -0.009333661 -0.012006506
0.05448044 -0.16727018 0.04495323 0.087511525 -0.11739572 0.15921253 -0.104060136 0.11184097
-0.15637891 0.2527791 -0.23135069 -0.12120324 -0.12455095 -0.043605424 -0.0007126447 0.13184653
0.03150512 0.08176677 0.06645463 -0.18123738 -0.27547085 -0.24850684 0.08514671 0.42421466
-0.029766686 -0.2607301 0.042281024 -0.08171513 0.18316963 0.09756052 -0.13934496 0.12960747
0.053757966 -0.041708592 -0.14979737 0.21439254 -0.016622659 -0.011490043 -0.03252458 -0.03339557
-0.080221266 0.05392705 0.17232203 0.0501215 -0.10070645 -0.26746666 -0.18513028 0.1977604
-0.019405043 -0.029471422 0.07513492 -0.11438797 -0.13528416 0.11628805 -0.05052221 0.085885264
0.18732534 -0.1909758 0.13362908 -0.076148316 0.22783831 0.13916305 -0.17985484 -0.005086727
-0.074335836 -0.33334258 0.29373842 -0.010842761 -0.10233826 0.036191948 -0.00013264758 0.03182739
-0.06510413 0.004253953 -0.029083513 -0.07610454 -0.05366972 -0.15471448 0.10323864 0.051496822
0.038787507 0.068502426 -0.1032884 -0.11433947 0.1767202 -0.120816685 0.12542377 0.13436924
-0.1558582 -0.15689269 -0.13298021 0.030571025 -0.075223126 -0.17362161 0.029202653 0.047583483
00000000: 7d8f 9dbe 034e 52be 8fdf 81be 3469 e8bd
00000010: 4bab 233d 6938 193e 43f2 adbd c093 cfbd
00000020: 2579 33be 2a8d ea3d 1f0a 233e e809 863d
00000030: e8af cf3d 5d15 36bd becf 1fbe d217 7bbb
00000040: 751c 613c 8837 2ebd 8466 bdbe fcca 19be
00000050: 6db1 fcbd 9e33 79bb 4a8a 87bb ce67 adbd
00000060: 5582 96bd 1b51 b53d 174c 023e 45c2 19be
00000070: efa7 bc3d fd1a a13d cf41 b3bd 0b35 bc3e
00000080: 5424 9dbe 66f9 36be 2e44 e93d 967f 1e3d
00000090: b903 97bc 3121 1cbd 03f7 36bd b1af 1f3d
000000a0: 0324 a3bd 2413 6f3e 72e2 aabd 6ae6 b53d
000000b0: 91b4 4e3e a079 123d 023c bbbd 83b5 7a3d
000000c0: 30cc 013e ae8e 7d3d 137a adbc 844e 663d
000000d0: 543a 9ebd f990 043e d715 b4bd 9d3b 0fbe
000000e0: cc73 62be a040 9b3d caf1 4a3e 0c15 0dbe
000000f0: fd63 d53d c469 bd3d dd20 81bc 96aa b23c
00000100: 6ca5 fabc 6652 ac3d 1862 3c3c 845e 7d3d
00000110: 902f 9ebd ea05 13bd dec6 a83d 0672 fd3d
00000120: d374 2b3d 677a 38be 954e aa3d 9cd7 983d
00000130: dd5e e6bc 20a5 6d3b 0c93 993c e475 de3d
00000140: 8cee 933d dd70 93bd 1cf1 bb3c 9d60 013e
00000150: aa03 473d f0ea 84bd d778 fe3d 9f9a 07bd
00000160: 73fc 0b3e df95 563d 3c63 043d 13c6 abbd
00000170: 5e67 c2be a990 9cbc 40af 71bd 7d9d bbbd
00000180: c510 573b cddb 34be 037a 33bd 831b 2c3d
00000190: 9795 aa3d 8580 043b c604 283d c0f8 a6bd
000001a0: fbf0 683d 8a36 9ebd 12e9 8b3d e422 803d
000001b0: ac11 b1be 89ca 113d 9d53 3dbe aa62 4b3e
000001c0: 638f 113e 0622 b8ba c183 a4be 771b a03e
000001d0: 090a 2fbe 10ba 2fbd 9806 bdbd fa05 1c3d
000001e0: 783e 8bbd 18e4 25be ff38 bf3c 2131 9ebd
000001f0: 1af6 fc3b b7ae 7bbd 59a2 013e 8fc3 d23d
00000200: 96df 593e 6c53 403e 01ad e3bd 297e f33d
00000210: c89e 8b3d 6c18 ae3d 1f63 86bd 977f 2e3e
00000220: 9023 8a3c 5f58 f9bc 0336 8bbd df52 01bf
00000230: 465a 2d3e 555e 83bc cae5 003e 3f6a 38be
00000240: 883b 853d 978e 913b a94c 1abd b801 4cbe
00000250: 5fbd c73a ca49 80be 908f 87bd 82a4 e3bd
00000260: 815c 7d3e db24 bdbd da77 9dbd f7b1 903c
00000270: d758 82bd 396e d1bd 36ec 18bc f0b6 44bc
00000280: e226 5f3d e048 2bbe e120 383d 3e39 b33d
00000290: 2b6d f0bd 9c08 233e 7b1d d5bd e10c e53d
000002a0: cb21 20be 436c 813e 32e7 6cbe 6739 f8bd
000002b0: 9214 ffbd 9a9b 32bd c7d0 3aba c702 073e
000002c0: 830b 013d 5675 a73d 5d19 883d 4b96 39be
000002d0: 840a 8dbe 9478 7ebe 6661 ae3d aa32 d93e
000002e0: 44d9 f3bc 6a7e 85be de2e 2d3d 435a a7bd
000002f0: d290 3b3e cfcd c73d 72b0 0ebe d2b7 043e
00000300: 5031 5c3d a1d6 2abd 7b64 19be b889 5b3e
00000310: 3e2c 88bc bc40 3cbc 7e38 05bd cbc9 08bd
00000320: 0c4b a4bd 9ce2 5c3d 3075 303e 344c 4d3d
00000330: 2f3f cebd 64f1 88be cb92 3dbe b481 4a3e
00000340: 53f7 9ebc 0d6e f1bc 56e0 993d 3d44 eabd
00000350: ee87 0abe 6e28 ee3d 60f0 4ebd 9de4 af3d
00000360: 37d2 3f3e 298f 43be 10d6 083e a6f3 9bbd
00000370: 724e 693e c280 0e3e de2b 38be 8fae a6bb
00000380: 633d 98bd e1ab aabe e264 963e d6a5 31bc
00000390: b996 d1bd 023e 143d 5017 0bb9 705d 023d
000003a0: 5055 85bd bf64 8b3b 8c40 eebc b2dc 9bbd
000003b0: c8d4 5bbd 796d 1ebe c86e d33d 55ee 523d
000003c0: a6df 1e3d 004b 8c3d de88 d3bd d02a eabd
000003d0: 24f6 343e bd6e f7bd 176f 003e 1798 093e
000003e0: 4b99 1fbe 7aa8 20be f72b 08be 1670 fa3c
000003f0: 950e 9abd ddc9 31be 673a ef3c e6e6 423d

action_layer.layer1.0.bias f4 [128]
0.04758356 -0.068071574 -0.04218179 -0.0181521 -0.048306964 -0.22505933 -0.10029789 -0.06921885
-0.07251822 -0.11754713 -0.013781493 -0.17780268 0.025875997 0.022254234 0.035365555 0.0708276
-0.15985146 0.04667055 -0.088797644 -0.09023772 -0.1320269 -0.14586867 0.10628668 0.12884761
-0.15485756 0.08619819 -0.21452543 0.011676674 -0.052925535 0.057935767 -0.080648534 0.04832109
0.061324403 -0.06279869 0.087933846 -0.042723056 -0.045136098 -0.010511469 0.06273656 -0.07375032
-0.043422498 0.036781512 -0.12538272 -0.06687397 0.04132687 -0.060339667 -0.12182643 -0.0009646851
-0.10148065 -0.17641822 -0.016744774 -0.14963762 -0.016062165 -0.023265043 -0.096444525 -0.101902775
-0.033608537 -0.053712573 0.018476378 -0.015281305 0.04501 -0.13690494 -0.020018868 -0.124368526
-0.056077577 -0.038709983 -0.11311355 -0.15121812 -0.05584254 -0.078535765 0.05470565 -0.090699755
-0.07608977 0.04043709 -0.04216157 -0.06624318 -0.0051394543 0.07008538 -0.12287569 0.013653563
-0.08444462 0.057290476 0.00014108884 -0.12904857 -0.13215719 0.00464033 0.009261389 0.0071735936
0.045946807 -0.0074928636 0.022874624 -0.11678929 -0.07556194 -0.10697689 0.050063167 -0.035026964
-0.055846825 -0.08332263 -0.07538117 0.0052034226 -0.110030614 -0.046511177 -0.11642317 -0.08560482
-0.07250305 -0.05581881 -0.20902885 -0.109321184 -0.054079503 -0.124195665 0.083754875 -0.075911805
-0.09138789 -0.13948508 0.033512294 -0.03132487 -0.07156467 -0.015741346 0.009653121 0.0052074003
0.019281182 0.01100416 -0.1430484 0.06519812 0.07093541 -0.0896805 -0.10760058 -0.09459086
00000000: fbe6 423d 1c69 8bbd d0c6 2cbd b6b3 94bc
00000010: 86dd 45bd f475 66be fb68 cdbd 9dc2 8dbd
00000020: 6f84 94bd 8dbc f0bd c5cb 61bc e811 36be
00000030: e6f9 d33c 834e b63c 79db 103d 100e 913d
00000040: 1ab0 23be 9e29 3f3d 8adb b5bd 8ece b8bd
00000050: 0f32 07be 995e 15be d5ac d93d a1f0 033e
00000060: fb92 1ebe ad88 b03d 8eac 5bbe 854f 3f3c
00000070: 72c8 58bd 0e4e 6d3d 0f2b a5bd 56ec 453d
00000080: 4c2f 7b3d 999c 80bd a916 b43d 5ffe 2ebd
00000090: a1e0 38bd 4c38 2cbc 077c 803d 680a 97bd
000000a0: cadb 31bd 36a8 163d 5464 00be 38f5 88bd
000000b0: 5d46 293d ba26 77bd 2380 f9bd ece2 7cba
000000c0: 16d5 cfbd faa6 34be 562c 89bc 9b3a 19be
000000d0: cd94 83bc 5596 bebc b584 c5bd 67b2 d0bd
000000e0: 1ba9 09bd b701 5cbd c65b 973c 705e 7abc
000000f0: 685c 383d cf30 0cbe 9cfe a3bc edb4 febd
00000100: 9ab1 65bd 5c8e 1ebd 14a8 e7bd ecd8 1abe
00000110: 26bb 64bd 5cd7 a0bd 0813 603d cbc0 b9bd
00000120: f4d4 9bbd 5da1 253d 9cb1 2cbd 81aa 87bd
00000130: de68 a8bb ec88 8f3d 40a6 fbbd 32b3 5f3c
00000140: 4df1 acbd 6ba9 6a3d 3ff1 1339 4f25 04be
00000150: 3754 07be e90d 983b 15bd 173c 7710 eb3b
00000160: b832 3c3d b286 f5bb 9063 bb3c 392f efbd
00000170: 38c0 9abd b316 dbbd 090f 4d3d 6f78 0fbd
00000180: a4bf 64bd 0ea5 aabd 7161 9abd 7981 aa3b
00000190: bb57 e1bd 8182 3ebd 456f eebd 9451 afbd
000001a0: 7b7c 94bd 44a2 64bd a90b 56be c9e3 dfbd
000001b0: 7882 5dbd 4c5a febd ad87 ab3d a677 9bbd
000001c0: 9329 bbbd 2dd5 0ebe 3044 093d 824e 00bd
000001d0: 7f90 92bd fff3 80bc 2028 1e3c d7a2 aa3b
000001e0: 92f3 9d3c cb4a 343c 487b 12be 9886 853d
000001f0: 9646 913d 69aa b7bd b15d dcbd dab8 c1bd

action_layer.layer1.1.weight f4 [2, 128]
-0.100485265 0.08195804 -0.41971388 -0.148854 0.10075537 0.07271498 0.14792326 -0.33735046
-0.042434033 0.035437007 0.091834396 0.10046059 -0.22404638 -0.070150994 -0.068321526 0.023346536
0.1403413 -0.10373352 0.34535217 0.07986315 -0.2696224 0.10916614 -0.03401992 -0.09788657
0.110294856 0.023289928 0.12458592 0.048789956 0.18230683 -0.07540425 -0.14701405 0.14360921
-0.17978515 -0.18115415 0.111346245 -0.11280807 -0.16162616 0.15094809 -0.13958466 -0.09558303
-0.24330178 0.14116272 -0.15370558 0.23030473 -0.115283735 0.4172277 -0.16783458 0.12274318
-0.46346736 0.04416412 0.14929363 -0.14097452 -0.19075793 -0.17001027 -0.051889535 0.13676663
0.1508558 -0.17942426 0.15891984 0.15454848 -0.14390126 -0.22914363 0.22002748 -0.14894933
0.10728978 -0.098473094 -0.30804417 -0.08498866 0.12054546 -0.13654381 -0.05643145 0.33462515
-0.06571012 -0.19778737 -0.049869616 0.2764889 0.09566598 -0.18805969 0.19489174 0.03820772
-0.31371504 -0.0640743 0.19048277 0.13458762 0.06447242 -0.04459181 0.009583645 -0.070286535
0.018257909 0.03842134 -0.02381696 0.2899787 -0.040084735 -0.014165729 -0.011081598 -0.067114614
0.07242522 -0.16457194 -0.059515666 -0.044741854 0.109507725 -0.23613575 -0.06631373 -0.007350489
0.033406906 0.2086177 -0.26708382 0.091378614 0.13472286 -0.12873432 0.021131102 -0.37584415
0.0049395887 -0.0015111336 -0.08230688 0.014783048 0.03624633 -0.24007967 -0.1368094 -0.041313812
-0.0006596128 0.03278535 0.0802481 0.15985863 -0.099733695 0.08195983 0.083703816 -0.17466417
0.027942717 0.026475642 0.104783766 -0.1283049 -0.0734373 0.26726317 0.12820715 -0.030975968
-0.11552745 -0.13552703 -0.17669113 -0.011099288 0.009517697 0.031354003 -0.02046603 0.11210267
-0.14375028 -0.024160244 0.28864315 0.2825037 -0.26415208 0.0388164 0.10463576 -0.02538522
-0.41124892 0.06889791 0.118391484 -0.062577255 -0.17722848 0.040418994 -0.24226487 0.032518875
-0.11284412 0.11777614 -0.021158272 0.20349196 0.34020954 0.29899922 0.32168216 0.07098456
-0.057024136 -0.08007345 -0.28710812 -0.010236589 -0.0033981535 0.21765727 -0.042460766 0.13141972
-0.009517703 0.117339 0.021202726 0.23043086 0.25455722 0.058841787 -0.32932258 -0.033423387
0.08944489 0.28437814 -0.03978104 -0.10904852 -0.024643026 0.007144902 0.022379072 -0.11221799
-0.13339135 -0.19562489 -0.23635665 -0.094032295 -0.25067896 0.020660594 0.047635976 0.04201774
-0.07061844 -0.2363712 -0.1850656 0.13644043 -0.005804384 -0.02426593 -0.22700197 -0.084312595
0.03912686 -0.1300505 -0.013571849 0.40855658 -0.104552194 -0.08889815 -0.14573511 -0.07694539
-0.13182835 0.21866 0.270148 0.060759645 0.17916928 0.10288636 -0.08153465 0.044171896
0.14874642 0.42447674 0.32756746 -0.06790255 -0.05727006 -0.21430732 0.1007679 0.32370836
-0.11085775 -0.009163142 0.23298874 -0.03897083 0.2837282 -0.29417717 0.05117052 -0.104644544
-0.15852697 0.08359445 -0.021291781 -0.34017056 0.11627132 -0.03542086 0.043492254 0.31778955
-0.3561128 0.35767373 0.13528067 -0.21725766 0.010276785 0.092456006 -0.22056837 -0.0034026373
00000000: 38cb cdbd 9ed9 a73d bde4 d6be 2f6d 18be
00000010: d558 ce3d 97eb 943d 3279 173e 33b9 acbe
00000020: 4fcf 2dbd 6526 113d ac13 bc3d 48be cd3d
00000030: 6a6c 65be 53ab 8fbd 28ec 8bbd 3c41 bf3c
00000040: a1b5 0f3e 3d72 d4bd 00d2 b03e 4b8f a33d
00000050: f20b 8abe 7f92 df3d 7958 0bbd c178 c8bd
00000060: 45e2 e13d 85ca be3c e726 ff3d fad7 473d
00000070: a4ae 3a3e 8b6d 9abd da8a 16be 4b0e 133e
00000080: 9919 38be 7980 39be 8009 e43d eb07 e7bd
00000090: 5481 25be 2392 1a3e 48ef 0ebe 09c1 c3bd
000000a0: 1a24 79be f68c 103e ff64 1dbe 01d5 6b3e
000000b0: e119 ecbd de9e d53e d4dc 2bbe c760 fb3d
000000c0: 984b edbe 70e5 343d 6ee0 183e a05b 10be
000000d0: 0c56 43be 2c17 2ebe 1f8a 54bd 8d0c 0c3e
000000e0: f179 1a3e feba 37be e2bb 223e f541 1e3e
000000f0: da5a 13be a1a4 6abe e24e 613e 2c86 18be
00000100: bfba db3d 43ac c9bd f7b7 9dbe 890e aebd
00000110: 8ae0 f63d 24d2 0bbe aa24 67bd fd53 ab3e
00000120: 0793 86bd c688 4abe 1544 4cbd f48f 8d3e
00000130: 86ec c33d b892 40be b391 473e b37f 1c3d
00000140: 429f a0be 6339 83bd ea0d 433e 56d1 093e
00000150: 1e0a 843d e7a5 36bd b804 1d3c 63f2 8fbd
00000160: 9c91 953c b25f 1d3d c91b c3bc 1778 943e
00000170: e42f 24bd 6017 68bc 978f 35bc 6373 89bd
00000180: ac53 943d 8c85 28be b3c6 73bd 3c43 37bd
00000190: 9645 e03d 92cd 71be 7ecf 87bd 5fdc f0bb
000001a0: aed5 083d e19f 553e 36bf 88be b624 bb3d
000001b0: caf4 093e eed2 03be 221b ad3c a56e c0be
000001c0: 46dc a13b 3b11 c6ba 8290 a8bd 9934 723c
000001d0: 0877 143d 72d7 75be c317 0cbe ac38 29bd
000001e0: dee9 2cba ee49 063d 1e59 a43d fbb1 233e
000001f0: 2e41 ccbd 8eda a73d e86c ab3d 2adb 32be
00000200: 20e8 e43c 72e3 d83c df98 d63d 5c62 03be
00000210: 4c66 96bd b8d6 883e bc48 033e 50c1 fdbc
00000220: a899 ecbd 99c7 0abe 85ee 34be cad9 35bc
00000230: 1df0 1b3c 0e6d 003d 60a8 a7bc 1696 e53d
00000240: 4633 13be b4eb c5bc 09c9 933e 53a4 903e
00000250: f13e 87be f2fd 1e3d 464b d63d aaf4 cfbc
00000260: 388f d2be 591a 8d3d 3c77 f23d 8128 80bd
00000270: 627b 35be 638e 253d 4814 78be 8332 053d
00000280: d11a e7bd 9e34 f13d 1d54 adbc 3260 503e
00000290: f22f ae3e 6d16 993e 86b3 a43e 5a60 913d
000002a0: 2492 69bd 8dfd a3bd d6ff 92be 5eb7 27bc
000002b0: 8eb3 5ebb 8ce1 5e3e 57eb 2dbd e492 063e
000002c0: 24f0 1bbc 6e4f f03d 57b1 ad3c 11f6 6b3e
000002d0: 5355 823e 1604 713d f89c a8be f6e6 08bd
000002e0: e22e b73d 039a 913e 72f1 22bd d554 dfbd
000002f0: 2ce0 c9bc c81f ea3b 5154 b73c 8cd2 e5bd
00000300: be97 08be e451 48be 7a07 72be 0194 c0bd
00000310: fe58 80be 6840 a93c f11d 433d cb1a 2c3d
00000320: 67a0 90bd 4b0b 72be d681 3dbe 0ab7 0b3e
00000330: b432 bebb 58c9 c6bc 3473 68be 15ac acbd
00000340: 7d43 203d f52b 05be 765c 5ebc 542e d13e
00000350: 761f d6bd 3c10 b6bd 963b 15be 8b95 9dbd
00000360: 03fe 06be 68e8 5f3e d750 8a3e 1bdf 783d
00000370: 2778 373e 15b6 d23d a3fb a6bd 97ed 343d
00000380: fb50 183e 0455 d93e ecb6 a73e 7e10 8bbd
00000390: 0394 6abd 6173 5bbe 675f ce3d 1abd a53e
000003a0: 6309 e3bd 0121 16bc 9a94 6e3e e19f 1fbd
000003b0: d344 913e 649e 96be 2e98 513d e14f d6bd
000003c0: e554 22be 9133 ab3d 1a6c aebc d62a aebe
000003d0: a81f ee3d 7715 11bd ef24 323d 50b5 a23e
000003e0: 6b54 b6be 0321 b73e 0487 0a3e cb78 5ebe
000003f0: f65f 283c 9359 bd3d addc 61be c8fe 5ebb

action_layer.layer1.1.bias f4 [2]
0.012498596 -0.0033523904
00000000: e9c6 4c3c c7b3 5bbb

encoding_layer.layer.0.weight f4 [64, 180]
0.004312646 -0.09270028 0.09183297 0.11906981 -0.20113999 -0.11157734 -0.033050768 -0.049293462
-0.071145974 0.022651669 -0.041295927 -0.067580156 0.03305041 -0.17543381 0.072482295 -0.087471634
0.011250126 -0.08901077 -0.062227596 0.06511531 -0.27445343 -0.24735029 0.011325291 -0.07878065
-0.26042458 0.4232654 0.050859313 -0.3799112 -0.05099972 -0.059627816 -0.25995046 0.03792956
0.16632167 0.07824156 0.13338839 0.14043967 -0.040891238 -0.13258153 0.06392198 -0.10628138
-0.028551186 -0.5782153 0.04063801 0.09143587 0.11775225 -0.042247914 -0.1380937 0.11549958
0.08694345 0.0017861867 0.107181765 -0.18844701 -0.031965878 -0.1913123 -0.1915315 -0.068577744
-0.09045057 -0.05650383 -0.3422641 -0.33913574 0.06361487 -0.12164934 -0.04578127 -0.35694447
-0.45048964 0.20030625 0.3219031 -0.016597938 0.03483896 -0.0007387177 0.20771316 0.14825362
0.05455626 0.24195835 0.15867352 -0.2731734 -0.10006714 -0.17973544 -0.072586514 -0.07364345
0.15363309 -0.3043896 -0.0572038 0.13716412 -0.010256016 -0.13980651 0.11146806 0.17765018
0.13217026 0.11548591 -0.24669047 -0.0047307275 -0.08488216 0.08307057 -0.015633129 0.007428716
0.011379337 0.09015146 0.1364912 0.1260655 0.12614083 -0.06614567 -0.09044222 0.077829726
0.18761618 -0.09245495 0.13474564 0.028039204 0.09614661 0.14747076 0.12342873 0.25235796
-0.08751763 0.038445454 -0.057096753 -0.11574209 0.011238789 -0.0017662408 0.12458963 0.17562504
0.12880869 -0.16093192 0.06696793 -0.070360705 -0.011766795 -0.026905375 0.09665229 -0.0637979
0.0886503 -0.062921636 -0.09805482 -0.05880168 -0.07802697 -0.0660209 -0.019719735 -0.13034786
-0.15118168 0.066912584 -0.082324974 -0.14348559 0.07566474 0.037824385 0.009488252 0.007545874
-0.022551741 0.03117606 0.015941132 0.0825827 -0.063488945 0.012410568 -0.024644163 -0.025797967
0.05241753 -0.053650394 -0.07073061 0.101256855 -0.095670134 -0.028399948 0.027027043 0.056762677
0.033748906 -0.027647365 0.0042208703 0.040608782 0.08210613 0.04318875 -0.056396414 0.04811882
0.05013374 0.04778956 0.005824803 -0.002110345 0.050861318 0.046970446 -0.017327435 0.071208246
-0.18839592 0.14150304 0.055675674 -0.047987577 -0.09618353 0.019008007 -0.10236586 -0.008534104
0.13703291 0.0837829 0.16255748 0.1325678 0.018932395 -0.06940969 -0.0039778305 -0.02126274
0.24052712 0.13548394 -0.012001636 -0.12818284 0.1690709 -0.014387045 0.10577102 0.090375565
0.0059648086 -0.01818239 -0.15657258 -0.15787737 -0.077297784 -0.12234575 -0.18207683 -0.19794136
0.10462465 -0.15574378 -0.03203519 -0.13210516 -0.16580515 -0.077282794 0.019856928 -0.10231216
-0.20336862 -0.013039648 -0.08114377 -0.2611989 0.09581596 -0.026733946 0.03560115 0.22188984
0.15751824 0.22794673 -0.096021764 0.14546023 0.14102544 0.13116014 -0.074047536 -0.026828587
-0.11491287 -0.000508136 0.007805756 0.08065492 -0.0128708035 -0.0091242865 -0.009666004 0.03884857
0.11347659 0.095054425 -0.12396459 0.020709716 0.17606945 -0.02814587 -0.13263246 0.17744018
-0.11404161 -0.03391664 -0.2063703 -0.06309558 -0.070982024 0.11154931 0.049090687 -0.07884794
00000000: 1951 8d3b a5d9 bdbd ed12 bc3d dfda f33d
00000010: a4f7 4dbe a982 e4bd 3e60 07bd f1e7 49bd
00000020: fbb4 91bd fe8f b93c eb25 29bd 7767 8abd
00000030: de5f 073d eca4 33be 9971 943d 5424 b3bd
00000040: 7352 383c 474b b6bd 5de2 7ebd 2d5b 853d
00000050: 2985 8cbe 6549 7dbe b78d 393c c057 a1bd
00000060: 5f56 85be 3eb6 d83e db51 503d b983 c2be
00000070: 15e5 50bd 4c3c 74bd 3a18 85be 075c 1b3d
00000080: 3a50 2a3e 1c3d a03d f796 083e 6bcf 0f3e
00000090: 927d 27bd 74c3 07be 87e9 823d 0daa d9bd
000000a0: 2de4 e9bc eb05 14bf 0b74 263d bb42 bb3d
000000b0: 1728 f13d 260c 2dbd 6f68 0dbe 0b8b ec3d
000000c0: 680f b23d 7b1e ea3a 1d82 db3d 41f8 40be
000000d0: a7ee 02bd 5fe7 43be d520 44be 7d72 8cbd
000000e0: 263e b9bd 8f70 67bd 3d3d afbe 33a3 adbe
000000f0: 8348 823d 4a23 f9bd 2485 3bbd 6dc1 b6be
00000100: 94a6 e6be 151d 4d3e 7cd0 a43e 66f8 87bc
00000110: 4cb3 0e3d 81a6 41ba c2b2 543e cccf 173e
00000120: 6376 5f3d eec3 773e 507b 223e 62dd 8bbe
00000130: 00f0 ccbd 910c 38be 3da8 94bd 61d2 96bd
00000140: fe51 1d3e f4d8 9bbe 884e 6abd c074 0c3e
00000150: d908 28bc 7029 0fbe 5e49 e43d eee9 353e
00000160: a457 073e e083 ec3d 6d9c 7cbe 3804 9bbb
00000170: b3d6 adbd e720 aa3d 0c11 80bc 966c f33b
00000180: 6670 3a3c 54a1 b83d 59c4 0b3e 5017 013e
00000190: 102b 013e 6277 87bd c539 b9bd 3165 9f3d
000001a0: 751e 403e 0559 bdbd c3fa 093e 79b2 e53c
000001b0: 84e8 c43d 9302 173e 34c8 fc3d 1035 813e
000001c0: 713c b3bd fb78 1d3d 49de 69bd 300a edbd
000001d0: e622 383c 3581 e7ba d928 ff3d 0dd7 333e
000001e0: 6de6 033e 56cb 24be 7b26 893d 4619 90bd
000001f0: 84c9 40bc a968 dcbc a3f1 c53d 79a8 82bd
00000200: 4a8e b53d 0fdd 80bd f7d0 c8bd 08da 70bd
00000210: 9bcc 9fbd f735 87bd 488b a1bc e979 05be
00000220: 5fcf 1abe 7709 893d ff99 a8bd e3ed 12be
00000230: 1df6 9a3d beed 1a3d 9d74 1b3c 6143 f73b
00000240: 6ebe b8bc f064 ff3c fa96 823c 1e21 a93d
00000250: 7e06 82bd b255 4b3c 8ee2 c9bc 4256 d3bc
00000260: c4b3 563d 84c0 5bbd 36db 90bd c15f cf3d
00000270: b4ee c3bd 02a7 e8bc d167 dd3c fb7f 683d
00000280: 4b3c 0a3d ba7c e2bc 3a4f 8a3b 6555 263d
00000290: 4227 a83d b0e6 303d edff 66bd 3d18 453d
000002a0: 0959 4d3d fcbe 433d fddd be3b b74d 0abb
000002b0: f553 503d 1564 403d 44f2 8dbc a1d5 913d
000002c0: dcea 40be 2ce6 103e 2d0c 643d 9f8e 44bd
000002d0: dffb c4bd aeb6 9b3c 31a5 d1bd a0d2 0bbc
000002e0: 5b52 0c3e 5e96 ab3d 7875 263e dabf 073e
000002f0: 1c18 9b3c ab26 8ebd 7658 82bb 332f aebc
00000300: be4c 763e 4dbc 0a3e 83a2 44bc 5d42 03be
00000310: ec20 2d3e a4b7 6bbc 7a9e d83d d316 b93d
00000320: 7174 c33b 3cf3 94bc 9054 20be 9baa 21be
00000330: 4d4e 9ebd 6990 fabd 5972 3abe 24b1 4abe
00000340: 7345 d63d 4c7b 1fbe 5537 03bd 9346 07be
00000350: d3c8 29be 7146 9ebd ffaa a23c 0a89 d1bd
00000360: dd3f 50be 3fa4 55bc b42e a6bd ddbb 85be
00000370: 283b c43d 2601 dbbc 83d2 113d 1737 633e
00000380: 764c 213e de6a 693e 0fa7 c4bd 87f3 143e
00000390: f968 103e d84e 063e 3ca6 97bd a0c7 dbbc
000003a0: 7057 ebbd 6e34 05ba 6dc7 ff3b 682e a53d
000003b0: 10e0 52bc 087e 15bc 295e 1ebc ae1f 1f3d
000003c0: 6a66 e83d e5ab c23d 26e1 fdbd 6ca7 a93c
000003d0: 8d4b 343e 2b92 e6bc ced0 07be e1b2 353e
000003e0: a68e e9bd 2dec 0abd bc52 53be 4138 81bd
000003f0: 065f 91bd f773 e43d 5113 493d 077b a1bd

encoding_layer.layer.0.bias f4 [64]
-0.13229077 -0.02613935 -0.091085665 0.018483192 0.06740281 -0.10575129 -0.01242862 0.04326493
-0.027266268 0.0575262 -0.12399471 -0.0890039 0.0013440002 -0.06960502 0.10904415 0.043216374
-0.00913554 -0.08311101 0.06150423 -0.064179 -0.010464946 -0.0709338 0.024581246 -0.0485634
-0.019466557 -0.02387298 -0.102208555 -0.070032194 0.033156615 4.0850914e-06 -0.0063436287 -0.019617835
-0.14356598 0.014353737 -0.03471275 0.013459878 -0.06153609 -0.06652353 0.017515963 -0.073833756
-0.014198452 0.014727783 -0.04514005 -0.093720734 0.034500316 -0.0444571 -0.03540487 -0.047920883
0.03638838 -0.00472503 -0.06714582 -0.048767958 0.09838077 0.021100923 -0.03874773 -0.010788528
-0.044956725 0.090725645 0.08048376 -0.0033647981 -0.09312362 -0.02865069 0.021468883 0.03799982
00000000: 3b77 07be 3122 d6bc 1f8b babd 106a 973c
00000010: 7c0a 8a3d 2294 d8bd 69a1 4bbc 9136 313d
00000020: 825d dfbc 98a0 6b3d f0f0 fdbd ad47 b6bd
00000030: 2a29 b03a 148d 8ebd 8a52 df3d a703 313d
00000040: 3bad 15bc 1b36 aabd dceb 7b3d 4870 83bd
00000050: 2a75 2bbc bd45 91bd 9c5e c93c 6aea 46bd
00000060: 5478 9fbc 4591 c3bc b852 d1bd 0a6d 8fbd
00000070: 3bcf 073d ab12 8936 37de cfbb 95b5 a0bc
00000080: f602 13be f02b 6b3c f52e 0ebd d286 5c3c
00000090: 440d 7cbd 7d3d 88bd a37d 8f3c 2736 97bd
000000a0: a0a0 68bc cd4c 713c c6e4 38bd a8f0 bfbd
000000b0: 3450 0d3d a618 36bd b204 11bd b048 44bd
000000c0: fb0b 153d 6dd4 9abb bf83 89bd e9c0 47bd
000000d0: db7b c93d d8db ac3c f1b5 1ebd 5ec2 30bc
000000e0: 8b24 38bd 5ece b93d abd4 a43d f283 5cbb
000000f0: 99b7 bebd dab4 eabc 83df af3c b3a5 1b3d

relational_layer.layers.0.att_src f4 [1, 1, 64]
-0.5885751 -0.12385805 -0.016946876 -0.30570212 -0.21669711 0.16775392 0.13041058 -0.19743282
0.20710358 -0.039975867 0.106804684 -0.7868792 -0.38831684 -0.64324695 -0.23444742 -0.631217
0.20428798 -0.13179202 0.10017763 0.51759404 0.32055753 -0.9107019 0.58246195 0.16728197
-0.37848705 -0.52553874 0.64586425 -0.1145456 -0.4874576 -0.11244517 -0.28205496 -0.22322275
-0.048796017 -0.06151435 -0.07407218 -0.12404289 0.30340788 -0.24251755 0.38225994 -0.18054776
-0.13499089 -0.19437227 0.24298872 0.53261024 0.44592822 0.26159364 -0.19275111 -0.100102246
-0.6309551 -0.20919728 0.5052697 0.24165776 -0.10620342 -0.17921284 0.2092926 -0.8116984
-0.41211215 -0.25251606 0.04524929 -0.022744006 0.048107263 0.045301285 -0.43435055 0.11179246
00000000: dcac 16bf 4aa9 fdbd 2dd4 8abc fd84 9cbe
00000010: d9e5 5dbe afc7 2b3e 5a8a 053e d42b 4abe
00000020: f612 543e bcbd 23bd 6abc da3d ea70 49bf
00000030: 77d1 c6be d5ab 24bf fc12 70be 7097 21bf
00000040: de30 513e 7df4 06be ee29 cd3d 0b81 043f
00000050: 1e20 a43e c223 69bf 3a1c 153f f74b 2b3e
00000060: 0ec9 c1be b589 06bf 5c57 253f e296 eabd
00000070: 0b94 f9be a749 e6bd 8269 90be 8194 64be
00000080: 55de 47bd 79f6 7bbd 28b3 97bd 330a febd
00000090: 4758 9b3e 8556 78be 93b7 c33e 83e1 38be
000000a0: 0d3b 0abe 8609 47be 09d2 783e 2559 083f
000000b0: b450 e43e 9aef 853e 8c60 45be 6802 cdbd
000000c0: 4686 21bf d037 56be 5b59 013f 2275 773e
000000d0: 2e81 d9bd 9283 37be cd50 563e 77cb 4fbf
000000e0: 5d00 d3be c949 81be 5257 393d a351 babc
000000f0: 1f0c 453d d78d 393d 3263 debe 72f3 e43d
