HGAT-MADDPG_ver2/ModelBuffer/model_4700.pt (torch, 369835 bytes, 33 tensors)

encoding_layer.layer.0.weight f4 [64, 180]
-0.0063866745 -0.00036426669 -0.04340807 -0.07773468 0.022729887 -0.075892374 -0.053619232 0.053750295
-0.14037363 -0.12640336 0.13587187 -0.0035430589 -0.09761053 -0.104599185 -0.0723894 0.14979449
0.1192071 0.16801944 -0.13003641 0.017560627 0.23835953 0.17187762 0.008007736 -0.17721449
0.024384262 0.10535115 0.42603502 -0.102826595 -0.18329711 0.117793396 0.038348205 -0.018355912
-0.07731849 -0.011917087 -0.06653781 0.32628608 -0.007045159 -0.1517966 -0.009523651 -0.22914654
-0.02447426 0.3426421 0.053856622 -0.18707426 -0.14291717 0.034026664 0.17505178 -0.31913406
-0.17741959 -0.21471857 0.0439412 0.07999915 0.14101653 0.23311126 0.22446871 -0.29933953
-0.10125157 0.050491218 -0.3801537 -0.4138128 -0.39998865 -0.01086976 0.062242776 -0.37947187
-0.34133032 0.01331173 -0.31943056 -0.05284674 -0.19504267 -0.14505945 0.1739115 -0.10329343
0.09829015 0.07058571 0.08215393 -0.0687818 0.20528671 -0.043917324 0.1744698 0.295364
-0.29880926 0.23178373 0.15214759 -0.13361202 -0.08519149 0.067847125 0.076453105 -0.14901826
0.06578471 0.13482715 0.037585862 -0.18568823 -0.0068491856 -0.022323588 0.074195445 0.053351786
-0.014459889 -0.055225547 -0.13917296 -0.1920701 0.08145253 0.14038531 -0.09291605 0.008898716
0.0009962245 -0.017832717 0.040785838 -0.01724258 0.037132226 0.003759216 0.042261016 -0.05484532
-0.039173752 -0.09082391 -0.07109836 -0.15851308 0.08035703 -0.08817741 -0.10173551 0.032916255
-0.0769316 0.04545902 -0.073380865 -0.046480913 -0.15080187 0.14751098 0.10340454 0.023797838
-0.13303767 -0.14134756 -0.03833044 -0.021845674 0.12665024 -0.028923756 0.12726268 0.0136349
0.10557996 0.056552935 0.07921312 0.018454595 0.18219373 0.0013990903 -0.059914224 0.025554433
0.12258352 -0.03714614 0.011460521 -0.010710354 0.049224257 0.024390256 -0.023536189 -0.095435254
0.036203783 -0.057856802 -0.07589407 -0.1795581 -0.03770252 -0.037422698 -0.073831476 -0.05719536
-0.08341728 0.0062810746 0.02668983 0.019360987 0.06643039 0.0068414505 0.10663036 0.067429155
0.048405655 0.012041898 0.011980328 0.11149543 0.040968075 0.008030567 0.021997562 0.08147391
0.17107382 -0.64081025 0.34157732 0.008867601 0.046907388 0.06522469 0.025021307 -0.032311972
0.119393624 0.06173864 -0.04344022 0.02276056 -0.0072585326 -0.014024581 -0.04184592 0.051412288
-0.26459953 0.038920425 0.05696142 0.2007673 -0.20978846 0.030969243 0.01758789 0.06761228
-0.12902728 -0.0152822975 -0.067261815 -0.05059804 0.0013273262 0.21066876 -0.29597974 -0.09449465
0.36069372 0.31605124 0.066220164 0.05230985 -0.48092788 0.2570735 -0.63462085 0.38271868
0.5634119 0.19446239 -0.010625108 -0.0067071603 0.32053268 -0.0791327 -0.05791965 0.07913195
-0.04148578 0.17330593 -0.012883181 -0.20349033 -0.058891594 -0.10868276 -0.00934767 0.06556856
0.07176643 -0.20549293 -0.14590436 0.099967584 0.16725622 0.03542463 -0.32703838 -0.40820125
-0.18691877 0.3934423 -0.028140921 -0.15566878 -0.12319599 0.10728174 -0.12193165 -0.18349406
-0.04758521 -0.03883608 -0.42486638 -0.28550985 -0.07735335 -0.3457404 -0.32926032 -0.3352212
00000000: 4f47 d1bb 0cfb beb9 a9cc 31bd 5c33 9fbd
00000010: 0734 ba3c 766d 9bbd d79f 5bbd 4529 5c3d
00000020: 1bbe 0fbe e26f 01be ff21 0b3e aa32 68bb
00000030: 08e8 c7bd 1938 d6bd e540 94bd ba63 193e
00000040: da22 f43d 4a0d 2c3e 4428 05be 4edb 8f3c
00000050: 8514 743e b000 303e e132 033c b777 35be
00000060: 81c1 c73c 58c2 d73d 4321 da3e c096 d2bd
00000070: 3db2 3bbe aa3d f13d 0213 1d3d 235f 96bc
00000080: 2859 9ebd e33f 43bc fa44 88bd f80e a73e
00000090: 14db e6bb 9170 1bbe 1609 1cbc 64a5 6abe
000000a0: 3e7e c8bc c96e af3e c398 5c3d 6590 3fbe
000000b0: e158 12be 8b5f 0b3d c640 333e 8a65 a3be
000000c0: 7bad 35be 2fdf 5bbe b0fb 333d 98d6 a33d
000000d0: a366 103e b8b4 6e3e 20db 653e 0843 99be
000000e0: fc5c cfbd e1cf 4e3d 81a3 c2be 45df d3be
000000f0: 50cb ccbe 1417 32bc 48f2 7e3d 234a c2be
00000100: d9c2 aebe 7119 5a3c 678c a3be d375 58bd
00000110: 44b9 47be 778a 14be db15 323e 818b d3bd
00000120: 594c c93d 3e8f 903d 5240 a83d 79dd 8cbd
00000130: ae36 523e a7e2 33bd 36a8 323e f339 973e
00000140: 87fd 98be b758 6d3e 94cc 1b3e 97d1 08be
00000150: e078 aebd 6ff3 8a3d 7293 9c3d 3e98 18be
00000160: 22ba 863d 2110 0a3e a2f3 193d 0e25 3ebe
00000170: 226f e0bb f5df b6bc c8f3 973d 6787 5a3d
00000180: 2ce9 6cbc 2f34 62bd 5b83 0ebe 06ae 44be
00000190: 96d0 a63d 2bc1 0f3e c54a bebd eccb 113c
000001a0: bf93 823a eb15 92bc 0d0f 273d 5040 8dbc
000001b0: f617 183d 2e5d 763b e319 2d3d 7ca5 60bd
000001c0: a874 20bd e301 babd 049c 91bd 4151 22be
000001d0: 3a92 a43d 5c96 b4bd b55a d0bd 32d3 063d
000001e0: 518e 9dbd 3d33 3a3d b548 96bd c562 3ebd
000001f0: ce6b 1abe 1e0d 173e c2c5 d33d aff3 c23c
00000200: 073b 08be 6abd 10be 6100 1dbd b3f5 b2bc
00000210: 9ab0 013e 83f1 ecbc 2651 023e ea64 5f3c
00000220: 4e3a d83d 0da4 673d 7d3a a23d 172e 973c
00000230: fe90 3a3e ae61 b73a 9e68 75bd 8857 d13c
00000240: 120d fb3d 8d26 18bd e9c4 3b3c 7b7a 2fbc
00000250: 609f 493d 13ce c73c f7ce c0bc 8f73 c3bd
00000260: 6b4a 143d 41fb 6cbd 5a6e 9bbd 14de 37be
00000270: f56d 1abd 8b48 19bd f534 97bd af45 6abd
00000280: aed6 aabd 79d1 cd3b a1a4 da3c ef9a 9e3c
00000290: a80c 883d 3f2e e03b 0561 da3d 4c18 8a3d
000002a0: 0245 463d 624b 453c 2349 443c b757 e43d
000002b0: 24ce 273d a492 033c 3b34 b43c cbdb a63d
000002c0: fa2d 2f3e 240c 24bf 39e3 ae3e 6a49 113c
000002d0: f621 403d 8694 853d 7cf9 cc3c 8f59 04bd
000002e0: a584 f43d a8e1 7c3d 5fee 31bd 5b74 ba3c
000002f0: fcd8 edbb 5bc7 65bc a166 2bbd b195 523d
00000300: 9779 87be 066b 1f3d 6150 693d f195 4d3e
00000310: c9d2 56be 36b3 fd3c 7b14 903c 4f78 8a3d
00000320: ba1f 04be 9a62 7abc 90c0 89bd e43f 4fbd
00000330: adf9 ad3a 8db9 573e a88a 97be 6986 c1bd
00000340: d9ac b83e 78d1 a13e 709e 873d da42 563d
00000350: 2e3c f6be 239f 833e 8376 22bf b4f3 c33e
00000360: c33b 103f 2621 473e ef14 2ebc bdc7 dbbb
00000370: dc1c a43e 5310 a2bd 283d 6dbd ef0f a23d
00000380: feec 29bd 1c77 313e fa13 53bc c55f 50be
00000390: 5038 71bd 1195 debd f826 19bc cf48 863d
000003a0: 47fa 923d bd6c 52be f467 15be cebb cc3d
000003b0: 3745 2b3e 6b19 113d 9371 a7be c1ff d0be
000003c0: a267 3fbe 4571 c93e ca87 e6bc a367 1fbe
000003d0: 2e4e fcbd 87b6 db3d 4db7 f9bd dee5 3bbe
000003e0: b6e8 42bd 9512 1fbd 1688 d9be 592e 92be
000003f0: 6f6b 9ebd e304 b1be cf94 a8be 1da2 abbe

encoding_layer.layer.0.bias f4 [64]
0.07220914 0.028360736 0.017353622 -0.017584119 -0.029433535 0.099876285 -0.0048378506 -0.060427718
0.014583353 -0.045253776 -0.020108715 -0.088404596 -0.042906977 0.08112208 -0.044518966 -0.036694676
-0.03167072 -0.044828195 0.022860423 0.060364652 -0.013492882 -0.025765266 -0.11758214 -0.019911911
-0.054695953 -0.05063884 0.038901623 0.020210588 0.047102697 -0.008851843 -0.009366514 -0.062962286
0.020265834 0.029871846 -0.05571055 0.002416938 -0.01330213 -0.11582881 -0.095133506 -0.07048997
0.04742691 0.034129806 0.03985697 0.025193602 0.013477062 0.027812744 0.00019504839 0.022539945
-0.10272871 -0.05735398 -0.038023982 -0.029926749 -0.04300183 -0.022501921 2.6749529e-05 0.0994673
-0.04104144 -0.090933405 0.03874129 0.07035968 -0.07313861 -0.022086767 -0.0074997637 -0.008724505
00000000: 63e2 933d c654 e83c 2f29 8e3c 920c 90bc
00000010: 991e f1bc f08b cc3d d586 9ebb 0e83 77bd
00000020: 04ef 6e3c 065c 39bd 08bb a4bc 780d b5bd
00000030: 3abf 2fbd 5523 a63d 8559 36bd 284d 16bd
00000040: 28b9 01bd c59d 37bd c845 bb3c ed40 773d
00000050: 4011 5dbc ae11 d3bc e8ce f0bd 4e1e a3bc
00000060: dd08 60bd ac6a 4fbd 4f57 1f3d ad90 a53c
00000070: c2ee 403d 5207 11bc 0276 19bc 5ff2 80bd
00000080: 8904 a63c cdb5 f43c bf30 64bd 7e65 1e3b
00000090: 2df1 59bc a837 edbd 5bd5 c2bd 0c5d 90bd
000000a0: b842 423d b2cb 0b3d 1041 233d d062 ce3c
000000b0: e5ce 5c3c 8dd7 e33c e785 4c39 b1a5 b83c
000000c0: 6e63 d2bd 02ec 6abd 09bf 1bbd f128 f5bc
000000d0: b022 30bd f355 b8bc 2d64 e037 83b5 cb3d
000000e0: 121b 28bd 4b3b babd 30af 1e3d bc18 903d
000000f0: b2c9 95bd 4fef b4bc 94c0 f5bb 3af1 0ebc

relational_layer.layers.0.att_src f4 [1, 1, 64]
-0.035618488 0.30939654 -0.30693352 0.12803093 -0.1667148 -0.09935869 0.41782403 -0.011134833
0.3105401 -0.378503 0.11374023 -0.3515337 0.24711409 0.16970342 0.5913912 -0.178286
-0.24285692 0.17125471 0.3951524 -0.39436716 0.022016495 -0.36895397 -0.094503656 0.15299776
-0.36810642 -0.36791632 -0.3550279 -0.053160693 0.02658655 -0.49079144 -0.2791057 0.018488754
0.017825121 0.0084248725 0.4587452 -0.3582326 0.117077045 -0.1988 -0.30488932 0.15635516
0.35527527 -0.26716077 -0.3144376 -0.054125722 0.44890326 -0.15001923 0.2750389 0.22791564
-0.31306055 -0.30372438 0.28624976 0.20140699 0.10221661 -0.17859623 -0.43185818 0.29208732
-0.3191768 -0.37673727 -0.10151261 -0.12267204 0.11980112 0.19833097 0.15405892 0.27980733
00000000: b1e4 11bd 3969 9e3e 6426 9dbe 8a1a 033e
00000010: 49b7 2abe 927c cbbd 08ed d53e e06e 36bc
00000020: 1dff 9e3e 25cb c1be a3f0 e83d 3afc b3be
00000030: 7a0b 7d3e bcc6 2d3e 6a65 173f 9b90 36be
00000040: 7caf 78be 655d 2f3e 6a51 ca3e 7eea c9be
00000050: f05b b43c 89e7 bcbe 228b c1bd 72ab 1c3e
00000060: 7278 bcbe 875f bcbe 38c6 b5be 07bf 59bd
00000070: 09cc d93c 0449 fbbe f1e6 8ebe ba75 973c
00000080: fd05 923c 7a08 0a3c a7e0 ea3e 436a b7be
00000090: 17c6 ef3d 3a92 4bbe 741a 9cbe 911b 203e
000000a0: a4e6 b53e 4cc9 88be f7fd a0be efb2 5dbd
000000b0: a6d6 e53e a49e 19be e6d1 8c3e b862 693e
000000c0: 7949 a0be c381 9bbe 548f 923e a23d 4e3e
000000d0: f156 d13d eee1 36be 841c ddbe 788c 953e
000000e0: 246b a3be b5e3 c0be d8e5 cfbd 7a3b fbbd
000000f0: 4a5a f53d 4617 4b3e 9fc1 1d3e e842 8f3e

relational_layer.layers.0.att_dst f4 [1, 1, 64]
-0.4256871 -0.017141644 0.34136382 -0.17929451 -0.3684243 -0.05788424 -0.09035423 -0.55519897
0.29667085 0.13744837 -0.24595347 -0.12810156 0.45594218 -0.20395412 -0.08164608 0.19992413
-0.21114688 -0.33707765 0.019980734 0.18822807 0.3440294 0.18362 0.20430416 -0.086337954
-0.03682976 0.10757366 0.3668076 0.15483595 0.003932034 -0.058209427 -0.27271903 -0.12137046
0.31748676 0.16048698 -0.2578921 0.16009134 0.30212313 0.45501336 0.084490255 0.074711055
-0.059614122 -0.42738587 0.14897849 0.10151173 0.13592286 0.12640418 -0.08321065 -0.039451282
0.11603662 -0.1818185 -0.09939314 -0.26911893 -0.5010402 -0.104186796 -0.23529549 -0.18577376
-0.6341456 -0.39300776 0.02370347 0.06672963 0.09790385 -0.21899402 -0.39633304 -0.48089966
00000000: a9f3 d9be a26c 8cbc 3dc7 ae3e fb98 37be
00000010: 1ca2 bcbe 0618 6dbd a30b b9bd 8521 0ebf
00000020: 3ee5 973e 44bf 0c3e 3adb 7bbe 0e2d 03be
00000030: 4171 e93e 59d9 50be 0f36 a7bd e9b8 4c3e
00000040: e336 58be 7195 acbe a3ae a33c dcbe 403e
00000050: 9f24 b03e e206 3c3e 1c35 513e f4d1 b0bd
00000060: cdda 16bd 944f dc3d 35ce bb3e 518d 1e3e
00000070: 4bd8 803b 026d 6ebd d4a1 8bbe 1391 f8bd
00000080: a08d a23e b356 243e 6f0a 84be fcee 233e
00000090: e2af 9a3e 83f7 e83e 3a09 ad3d 1c02 993d
000000a0: f02d 74bd 52d2 dabe d18d 183e 62e5 cf3d
000000b0: 5d2f 0b3e 1970 013e 586a aabd ab97 21bd
000000c0: 9ca4 ed3d a12e 3abe a18e cbbd f5c9 89be
000000d0: 2c44 00bf e35f d5bd 4df1 70be 7a3b 3ebe
000000e0: 5e57 22bf 5038 c9be c82d c23c 8ba9 883d
000000f0: d081 c83d f83f 60be 2aec cabe 7b38 f6be

relational_layer.layers.0.bias f4 [64]
-0.07800111 -0.25274333 -0.1817407 -0.07145895 0.02504999 -0.044452302 -0.17023818 -0.18214962
-0.12559798 -0.115196705 -0.05232488 -0.0029035208 -0.24668975 -0.09298367 -0.17719291 0.030442722
-0.032034196 -0.2183215 -0.07742636 0.08900614 -0.17881458 -0.07323551 -0.2556704 -0.10590233
-0.044148833 -0.009667751 -0.11511752 -0.018037086 -0.12557183 -0.095098875 -0.17406037 0.014682555
-0.0611895 0.018497314 -0.043537445 -0.09072574 -0.13644102 -0.1652795 -0.16530852 -0.014175285
-0.15833493 -0.15247658 -0.057019956 -0.082335375 0.009745189 -0.033848085 0.06446377 -0.04102343
-0.019824129 0.047558554 -0.23318064 -0.06522908 -0.09889632 -0.08771461 -0.12311588 -0.1086098
-0.06581985 -0.19121769 -0.10126174 0.059354793 -0.0025102524 -0.057317685 -0.0033261303 0.002880114
00000000: 0cbf 9fbd 9367 81be 3c1a 3abe 1259 92bd
00000010: a335 cd3c 9e13 36bd eb52 2ebe 6e85 3abe
00000020: c29c 00be 40ec ebbd 9d52 56bd ff48 3ebb
00000030: 3d9c 7cbe 396e bebd 0f72 35be 0463 f93c
00000040: 4a36 03bd ac8f 5fbe b691 9ebd da48 b63d
00000050: 2b1b 37be 80fc 95bd 3be7 82be 52e3 d8bd
00000060: 68d5 34bd 7d65 1ebc bcc2 ebbd 83c2 93bc
00000070: e795 00be 33c3 c2bd e23c 32be 198f 703c
00000080: d7a1 7abd ae87 973c 5254 32bd 6bce b9bd
00000090: 32b7 0bbe 073f 29be a346 29be 743f 68bc
000000a0: 8d22 22be d222 1cbe c28d 69bd 739f a8bd
000000b0: 49aa 1f3c 4aa4 0abd 9505 843d 2f08 28bd
000000c0: 3666 a2bc c2cc 423d e8c6 6ebe d396 85bd
000000d0: 278a cabd b8a3 b3bd 2e24 fcbd d16e debd
000000e0: 8fcc 86bd 92ce 43be 5162 cfbd 031e 733d
000000f0: 0c83 24bb f3c5 6abd 35fb 59bb 4bc0 3c3b

relational_layer.layers.0.lin_src.weight f4 [64, 64]
-0.03619057 0.023795782 0.3191221 -0.3407344 0.14349967 -0.094881766 -0.24361189 -0.33432904
0.18177615 -0.029424757 -0.13860635 -0.1691932 -0.1797432 0.18370122 -0.3840711 0.1463807
0.057940837 0.0075516696 -0.53451735 -0.69439596 -0.05854588 0.08648988 -0.49974644 0.077296786
-0.22198056 0.07674787 -0.06535212 -0.43661016 -0.0848626 -0.1333173 0.29360837 -0.28644276
-0.25120938 -0.13423051 -0.12033736 -0.22949998 -0.08917544 0.010764567 -0.18199366 0.021193136
0.05405125 -0.10506274 0.20161086 -0.034703493 0.36329344 -0.6276403 -0.094162874 0.027085863
-0.3921676 -0.019567152 -0.07246647 0.27641922 0.014348161 -0.21578294 -0.033826344 0.10709669
0.18818362 0.48458278 -0.30915713 -0.20380852 -0.10050444 -0.047149707 0.3347395 -0.08947542
-0.044768583 -0.2488267 -0.11000743 -0.0712067 -0.17802261 -0.013241838 0.11283911 -0.36815077
0.035577167 -0.14997976 -0.061538823 0.37662226 0.17075916 0.383756 -0.0402988 0.004944646
-0.21096072 -0.26737934 -0.057970207 -0.19109695 0.07789712 0.036071762 -0.066983484 -0.2634324
0.1608451 -0.22309186 0.08464398 0.07096253 0.046240844 0.24650717 0.18472697 -0.066973925
0.026408259 0.13371584 -0.37747014 -0.17965077 -0.16425961 -0.04618274 -0.15982392 0.07285102
0.117977984 0.35291654 -0.05897474 -0.2759334 0.03430718 0.12685803 -0.23666354 -0.06449919
0.14979608 -0.00013668786 0.012202949 -0.18014252 -0.016349532 -0.22215919 -0.17170094 -0.17475064
-0.11089416 0.15809171 -0.23290898 -0.016426964 -0.21008357 0.00093899673 0.063299485 0.0151408715
-0.057539828 0.2903173 0.09747703 0.0071161976 -0.16407193 0.10987193 0.056923863 0.18050139
-0.12681587 -0.048725598 -0.016073694 -0.14401852 -0.13937768 0.24920492 0.010364474 0.20158884
-0.07382191 0.121469356 -0.09596304 0.24343641 -0.1594658 -0.052503973 -0.079944335 0.08264569
-0.03443839 0.18017866 -0.06203073 0.29843828 -0.2727329 0.15623727 0.06331905 0.033079755
-0.053798903 0.048248824 0.21302168 -0.1750596 0.07516807 -0.21861163 0.056793984 -0.09681252
0.16513647 0.21131271 -0.024724951 -0.08769644 -0.12972724 0.059306752 -0.1202262 -0.01467836
-0.1388155 -0.22903278 -0.14110088 -0.16217652 -0.052408993 0.021516819 0.2994235 0.22817616
0.051661573 -0.043276872 0.14564615 -0.12160952 -0.10557353 -0.09365136 0.2957874 -0.03264017
0.026370045 0.05792673 0.29558608 -0.08281563 -0.2080677 -0.070171416 -0.54485136 0.116001055
-0.00047213532 -0.07628791 0.12589863 0.32296953 0.19007728 -0.22213694 -0.09408237 -0.19721913
-0.06548796 -0.04247431 0.029367268 -0.09263751 -0.07029426 -0.07631159 -0.16837011 0.034364004
0.2530273 0.4768387 -0.26292118 -0.069927655 -0.041760433 0.27475426 0.07929116 -0.0056729484
0.07253672 0.16435587 -0.20692332 -0.24290812 0.22873183 -0.15686528 -0.09795542 0.03167591
-0.016624123 -0.07155973 -0.20026626 0.13044891 -0.0028052442 -0.38121384 -0.03412239 0.15285695
-0.21522984 -0.25207046 0.2836312 0.098181464 0.3560783 -0.04773956 -0.4360005 -0.02686552
-0.11213706 -0.037805155 -0.26204818 0.10000923 -0.26837328 0.22379921 0.422409 -0.027697556
00000000: 903c 14bd 5fef c23c f963 a33e bd74 aebe
00000010: 94f1 123e 5f51 c2bd 6575 79be 2d2d abbe
00000020: 8723 3a3e 300c f1bc d3ee 0dbe fb40 2dbe
00000030: 9a0e 38be 2c1c 3c3e f8a4 c4be d2e4 153e
00000040: 5f53 6d3d ff73 f73b 21d6 08bf efc3 31bf
00000050: cecd 6fbd 9b21 b13d c4de ffbe c74d 9e3d
00000060: df4e 63be fd2d 9d3d 55d7 85bd 5e8b dfbe
00000070: 71cc adbd 5584 08be d653 963e a0a8 92be
00000080: 849e 80be b973 09be 6f73 f6bd 0b02 6bbe
00000090: 9da1 b6bd de5d 303c 8c5c 3abe 3a9d ad3c
000000a0: d864 5d3d 222b d7bd 1473 4e3e 4025 0ebd
000000b0: 9901 ba3e 09ad 20bf 77d8 c0bd 2ce3 dd3c
000000c0: 31ca c8be 4b4b a0bc 4d69 94bd d286 8d3e
000000d0: 8d14 6b3c 34f6 5cbe 7e8d 0abd 8255 db3d
000000e0: 35b3 403e 3c1b f83e d849 9ebe 2eb3 50be
000000f0: 46d5 cdbd 0d20 41bd fa62 ab3e e43e b7bd
00000100: 435f 37bd 6dcc 7ebe 934b e1bd d1d4 91bd
00000110: 8f4b 36be 4bf4 58bc 3118 e73d 427e bcbe
00000120: 5db9 113d 4b94 19be 2210 7cbd a2d4 c03e
00000130: 7ddb 2e3e ab7b c43e 5b10 25bd b206 a23b
00000140: 1606 58be f2e5 88be 2b72 6dbd ebae 43be
00000150: 8688 9f3d fcbf 133d a32e 89bd 9de0 86be
00000160: 94b4 243e 3172 64be d359 ad3d ce54 913d
00000170: 0a67 3d3d 606c 7c3e 1129 3d3e a029 89bd
00000180: 2256 d83c ceec 083e c443 c1be 5ff6 37be
00000190: ac33 28be 1d2a 3dbd e2a8 23be ea32 953d
000001a0: 719e f13d 7ab1 b43e 7f8f 71bd 2547 8dbe
000001b0: b085 0c3d 12e7 013e ed57 72be 2718 84bd
000001c0: 2564 193e de53 0fb9 e1ee 473c 4877 38be
000001d0: 74ef 85bc b37d 63be 5fd2 2fbe d5f1 32be
000001e0: 7a1c e3bd cbe2 213e b17f 6ebe d791 86bc
000001f0: 2620 57be 0127 763a 29a3 813d 6b11 783c
00000200: e2ae 6bbd 78a4 943e 09a2 c73d fe2e e93b
00000210: 7902 28be 8904 e13d ff28 693d 5bd5 383e
00000220: 05dc 01be 7e94 47bd fbac 83bc 9779 13be
00000230: 06b9 0ebe 932f 7f3e c1cf 293c 4e6d 4e3e
00000240: f12f 97bd edc4 f83d 4588 c4bd 6547 793e
00000250: 014b 23be 680e 57bd dbb9 a3bd 2542 a93d
00000260: 450f 0dbd c180 383e ef13 7ebd e7cc 983e
00000270: a6a3 8bbe aafc 1f3e 6bad 813d a37e 073d
00000280: 3d5c 5cbd 8fa0 453d 5b22 5a3e d342 33be
00000290: b8f1 993d badb 5fbe cfa0 683d a445 c6bd
000002a0: 8919 293e 5c62 583e fb8b cabc 319a b3bd
000002b0: 38d7 04be a3eb 723d 2739 f6bd 817d 70bc
000002c0: a725 0ebe 9287 6abe c07c 10be 9a11 26be
000002d0: d0aa 56bd 0a44 b03c 094e 993e 03a7 693e
000002e0: 169b 533d 1743 31bd 4424 153e 690e f9bd
000002f0: ef36 d8bd 49cc bfbd 7271 973e b3b1 05bd
00000300: fe05 d83c 9444 6d3d 0f57 973e 3e9b a9bd
00000310: b30f 55be 08b6 8fbd 617b 0bbf f691 ed3d
00000320: ee88 f7b9 d63c 9cbd 92eb 003e 435c a53e
00000330: 9ea3 423e de77 63be 42ae c0bd d0f3 49be
00000340: 8d1e 86bd 8bf9 2dbd a093 f03c bcb8 bdbd
00000350: 70f6 8fbd 4049 9cbd 3769 2cbe 45c1 0c3d
00000360: cb8c 813e 3424 f43e 9b9d 86be 3b36 8fbd
00000370: fd0c 2bbd 97ac 8c3e 6763 a23d 24e4 b9bb
00000380: 228e 943d e84c 283e b5e3 53be e8bc 78be
00000390: ad38 6a3e 4ba1 20be da9c c8bd 99be 013d
000003a0: 502f 88bc e88d 92bd 9912 4dbe 6694 053e
000003b0: 30d8 37bb 762e c3be ebc3 0bbd 8886 1c3e
000003c0: 3665 5cbe 610f 81be 1c38 913e 5d13 c93d
000003d0: e54f b63e 8f8a 43bd 753b dfbe 1415 dcbc
000003e0: 1da8 e5bd 94d9 1abd 2e2b 86be a4d1 cc3d
000003f0: 3968 89be 9f2b 653e fe45 d83e fce5 e2bc

relational_layer.layers.0.lin_dst.weight f4 [64, 64]
-0.03619057 0.023795782 0.3191221 -0.3407344 0.14349967 -0.094881766 -0.24361189 -0.33432904
0.18177615 -0.029424757 -0.13860635 -0.1691932 -0.1797432 0.18370122 -0.3840711 0.1463807
0.057940837 0.0075516696 -0.53451735 -0.69439596 -0.05854588 0.08648988 -0.49974644 0.077296786
-0.22198056 0.07674787 -0.06535212 -0.43661016 -0.0848626 -0.1333173 0.29360837 -0.28644276
-0.25120938 -0.13423051 -0.12033736 -0.22949998 -0.08917544 0.010764567 -0.18199366 0.021193136
0.05405125 -0.10506274 0.20161086 -0.034703493 0.36329344 -0.6276403 -0.094162874 0.027085863
-0.3921676 -0.019567152 -0.07246647 0.27641922 0.014348161 -0.21578294 -0.033826344 0.10709669
0.18818362 0.48458278 -0.30915713 -0.20380852 -0.10050444 -0.047149707 0.3347395 -0.08947542
-0.044768583 -0.2488267 -0.11000743 -0.0712067 -0.17802261 -0.013241838 0.11283911 -0.36815077
0.035577167 -0.14997976 -0.061538823 0.37662226 0.17075916 0.383756 -0.0402988 0.004944646
-0.21096072 -0.26737934 -0.057970207 -0.19109695 0.07789712 0.036071762 -0.066983484 -0.2634324
0.1608451 -0.22309186 0.08464398 0.07096253 0.046240844 0.24650717 0.18472697 -0.066973925
0.026408259 0.13371584 -0.37747014 -0.17965077 -0.16425961 -0.04618274 -0.15982392 0.07285102
0.117977984 0.35291654 -0.05897474 -0.2759334 0.03430718 0.12685803 -0.23666354 -0.06449919
0.14979608 -0.00013668786 0.012202949 -0.18014252 -0.016349532 -0.22215919 -0.17170094 -0.17475064
-0.11089416 0.15809171 -0.23290898 -0.016426964 -0.21008357 0.00093899673 0.063299485 0.0151408715
-0.057539828 0.2903173 0.09747703 0.0071161976 -0.16407193 0.10987193 0.056923863 0.18050139
-0.12681587 -0.048725598 -0.016073694 -0.14401852 -0.13937768 0.24920492 0.010364474 0.20158884
-0.07382191 0.121469356 -0.09596304 0.24343641 -0.1594658 -0.052503973 -0.079944335 0.08264569
-0.03443839 0.18017866 -0.06203073 0.29843828 -0.2727329 0.15623727 0.06331905 0.033079755
-0.053798903 0.048248824 0.21302168 -0.1750596 0.07516807 -0.21861163 0.056793984 -0.09681252
0.16513647 0.21131271 -0.024724951 -0.08769644 -0.12972724 0.059306752 -0.1202262 -0.01467836
-0.1388155 -0.22903278 -0.14110088 -0.16217652 -0.052408993 0.021516819 0.2994235 0.22817616
0.051661573 -0.043276872 0.14564615 -0.12160952 -0.10557353 -0.09365136 0.2957874 -0.03264017
0.026370045 0.05792673 0.29558608 -0.08281563 -0.2080677 -0.070171416 -0.54485136 0.116001055
-0.00047213532 -0.07628791 0.12589863 0.32296953 0.19007728 -0.22213694 -0.09408237 -0.19721913
-0.06548796 -0.04247431 0.029367268 -0.09263751 -0.07029426 -0.07631159 -0.16837011 0.034364004
0.2530273 0.4768387 -0.26292118 -0.069927655 -0.041760433 0.27475426 0.07929116 -0.0056729484
0.07253672 0.16435587 -0.20692332 -0.24290812 0.22873183 -0.15686528 -0.09795542 0.03167591
-0.016624123 -0.07155973 -0.20026626 0.13044891 -0.0028052442 -0.38121384 -0.03412239 0.15285695
-0.21522984 -0.25207046 0.2836312 0.098181464 0.3560783 -0.04773956 -0.4360005 -0.02686552
-0.11213706 -0.037805155 -0.26204818 0.10000923 -0.26837328 0.22379921 0.422409 -0.027697556
00000000: 903c 14bd 5fef c23c f963 a33e bd74 aebe
00000010: 94f1 123e 5f51 c2bd 6575 79be 2d2d abbe
00000020: 8723 3a3e 300c f1bc d3ee 0dbe fb40 2dbe
00000030: 9a0e 38be 2c1c 3c3e f8a4 c4be d2e4 153e
00000040: 5f53 6d3d ff73 f73b 21d6 08bf efc3 31bf
00000050: cecd 6fbd 9b21 b13d c4de ffbe c74d 9e3d
00000060: df4e 63be fd2d 9d3d 55d7 85bd 5e8b dfbe
00000070: 71cc adbd 5584 08be d653 963e a0a8 92be
00000080: 849e 80be b973 09be 6f73 f6bd 0b02 6bbe
00000090: 9da1 b6bd de5d 303c 8c5c 3abe 3a9d ad3c
000000a0: d864 5d3d 222b d7bd 1473 4e3e 4025 0ebd
000000b0: 9901 ba3e 09ad 20bf 77d8 c0bd 2ce3 dd3c
000000c0: 31ca c8be 4b4b a0bc 4d69 94bd d286 8d3e
000000d0: 8d14 6b3c 34f6 5cbe 7e8d 0abd 8255 db3d
000000e0: 35b3 403e 3c1b f83e d849 9ebe 2eb3 50be
000000f0: 46d5 cdbd 0d20 41bd fa62 ab3e e43e b7bd
00000100: 435f 37bd 6dcc 7ebe 934b e1bd d1d4 91bd
00000110: 8f4b 36be 4bf4 58bc 3118 e73d 427e bcbe
00000120: 5db9 113d 4b94 19be 2210 7cbd a2d4 c03e
00000130: 7ddb 2e3e ab7b c43e 5b10 25bd b206 a23b
00000140: 1606 58be f2e5 88be 2b72 6dbd ebae 43be
00000150: 8688 9f3d fcbf 133d a32e 89bd 9de0 86be
00000160: 94b4 243e 3172 64be d359 ad3d ce54 913d
00000170: 0a67 3d3d 606c 7c3e 1129 3d3e a029 89bd
00000180: 2256 d83c ceec 083e c443 c1be 5ff6 37be
00000190: ac33 28be 1d2a 3dbd e2a8 23be ea32 953d
000001a0: 719e f13d 7ab1 b43e 7f8f 71bd 2547 8dbe
000001b0: b085 0c3d 12e7 013e ed57 72be 2718 84bd
000001c0: 2564 193e de53 0fb9 e1ee 473c 4877 38be
000001d0: 74ef 85bc b37d 63be 5fd2 2fbe d5f1 32be
000001e0: 7a1c e3bd cbe2 213e b17f 6ebe d791 86bc
000001f0: 2620 57be 0127 763a 29a3 813d 6b11 783c
00000200: e2ae 6bbd 78a4 943e 09a2 c73d fe2e e93b
00000210: 7902 28be 8904 e13d ff28 693d 5bd5 383e
00000220: 05dc 01be 7e94 47bd fbac 83bc 9779 13be
00000230: 06b9 0ebe 932f 7f3e c1cf 293c 4e6d 4e3e
00000240: f12f 97bd edc4 f83d 4588 c4bd 6547 793e
00000250: 014b 23be 680e 57bd dbb9 a3bd 2542 a93d
00000260: 450f 0dbd c180 383e ef13 7ebd e7cc 983e
00000270: a6a3 8bbe aafc 1f3e 6bad 813d a37e 073d
00000280: 3d5c 5cbd 8fa0 453d 5b22 5a3e d342 33be
00000290: b8f1 993d badb 5fbe cfa0 683d a445 c6bd
000002a0: 8919 293e 5c62 583e fb8b cabc 319a b3bd
000002b0: 38d7 04be a3eb 723d 2739 f6bd 817d 70bc
000002c0: a725 0ebe 9287 6abe c07c 10be 9a11 26be
000002d0: d0aa 56bd 0a44 b03c 094e 993e 03a7 693e
000002e0: 169b 533d 1743 31bd 4424 153e 690e f9bd
000002f0: ef36 d8bd 49cc bfbd 7271 973e b3b1 05bd
00000300: fe05 d83c 9444 6d3d 0f57 973e 3e9b a9bd
00000310: b30f 55be 08b6 8fbd 617b 0bbf f691 ed3d
00000320: ee88 f7b9 d63c 9cbd 92eb 003e 435c a53e
00000330: 9ea3 423e de77 63be 42ae c0bd d0f3 49be
00000340: 8d1e 86bd 8bf9 2dbd a093 f03c bcb8 bdbd
00000350: 70f6 8fbd 4049 9cbd 3769 2cbe 45c1 0c3d
00000360: cb8c 813e 3424 f43e 9b9d 86be 3b36 8fbd
00000370: fd0c 2bbd 97ac 8c3e 6763 a23d 24e4 b9bb
00000380: 228e 943d e84c 283e b5e3 53be e8bc 78be
00000390: ad38 6a3e 4ba1 20be da9c c8bd 99be 013d
000003a0: 502f 88bc e88d 92bd 9912 4dbe 6694 053e
000003b0: 30d8 37bb 762e c3be ebc3 0bbd 8886 1c3e
000003c0: 3665 5cbe 610f 81be 1c38 913e 5d13 c93d
000003d0: e54f b63e 8f8a 43bd 753b dfbe 1415 dcbc
000003e0: 1da8 e5bd 94d9 1abd 2e2b 86be a4d1 cc3d
000003f0: 3968 89be 9f2b 653e fe45 d83e fce5 e2bc

action_layer.layer1.0.weight f4 [128, 128]
-0.30886355 -0.24087557 -0.2556468 -0.09796079 0.07308538 0.16439496 -0.10289218 -0.10539266
-0.1386189 0.091758415 0.15379561 0.044814873 0.062747985 -0.02743064 -0.14166355 0.005304331
0.006095756 -0.065964006 -0.34009513 -0.15498273 -0.1024137 0.008730325 -0.04077305 -0.08486392
-0.08708853 0.096427724 0.119794175 -0.14849605 0.05590427 0.097323366 -0.08758964 0.36716723
-0.39653417 -0.17340638 0.12093178 0.046387825 -0.038794324 -0.030205827 0.011858783 -0.029225616
-0.09873778 0.24367633 -0.081417054 0.06983511 0.23295075 0.039456517 -0.07522907 0.038591105
0.113109306 0.057699144 0.027202304 0.06707995 -0.04464222 0.14779241 -0.06568669 -0.122337475
-0.21681692 0.093470596 0.19607538 -0.13722108 0.07767274 0.10558041 -0.08209195 0.0016915433
-0.03205318 0.06350506 0.013538527 0.09878831 -0.083398156 -0.053896956 0.16914138 0.16112146
0.004690467 -0.22522213 0.050313205 0.11307915 -0.054604407 0.011099209 0.032407723 0.13341661
0.06047356 -0.0807772 0.01819805 0.10254352 0.051251907 -0.116343506 0.10943264 -0.03078358
0.08914269 0.07514211 0.002747256 -0.084988736 -0.34273925 0.000112045214 -0.0739794 -0.06916273
0.04456173 -0.16662855 -0.033788674 0.056743503 0.13681577 0.018435543 0.041262712 -0.061742228
0.060136106 -0.083245605 0.054188512 0.08669518 -0.35067585 0.046689656 -0.16854 0.15365855
0.115123555 -0.0010965479 -0.31995222 0.2681136 -0.13658962 -0.06399683 -0.07671921 -0.002010692
-0.063930124 -0.15952405 0.08286467 -0.078376375 -0.018975066 -0.050128166 0.11314957 0.13285962
0.23694965 0.20890288 -0.124207936 0.10791763 0.049284387 0.08500101 -0.041240275 0.18966605
0.034394056 -0.023315923 -0.06534197 -0.47702482 0.11303538 0.0130717745 0.11989078 -0.15421768
0.05302337 -0.0032290814 -0.064529434 -0.18772191 0.044381272 -0.25365087 -0.060216803 -0.13008285
0.2619699 -0.10217171 -0.09708566 -0.004761446 -0.0062466166 -0.101657696 -0.039245408 -0.061897967
0.039060064 -0.16928443 0.057257026 0.07368173 -0.15935634 0.15721972 -0.07541244 0.09177304
-0.12265127 0.23298804 -0.2090307 -0.10788327 -0.12936182 -0.019800471 -0.034535833 0.1316885
0.04725566 0.074734606 0.05483335 -0.08997913 -0.27129945 -0.19920093 0.10312872 0.42362702
-0.038618736 -0.2323468 0.031240549 -0.060910653 0.20552324 0.11507706 -0.0894919 0.15320756
0.05280819 -0.08990111 -0.13217817 0.21739358 0.0034842528 0.0146063315 -0.05836893 -0.050347477
-0.064161204 -0.008871644 0.21411243 0.09938431 -0.0023836605 -0.2653256 -0.16187255 0.1206889
-0.0009471003 -0.065027565 0.09524827 -0.112436354 -0.107499264 0.10168721 -0.030759625 0.06943778
0.12248584 -0.11703347 0.124630526 -0.021445567 0.2573044 0.14250012 -0.15919994 -0.013717227
-0.04238407 -0.32649407 0.22163945 -0.012715058 -0.13303854 0.01225642 -0.005232234 0.0078122634
-0.08406849 -0.043190394 -0.036111575 -0.09062 -0.021412775 -0.08478405 0.066354 0.039628383
-0.011024443 0.027725942 -0.12735172 -0.11327999 0.16425273 -0.17488715 0.09951958 0.063710086
-0.13652068 -0.12983619 -0.090245046 -0.013941737 -0.013215066 -0.20619711 -0.0022402797 0.033386394
00000000: 5d23 9ebe 16a8 76be 23e4 82be ab9f c8bd
00000010: caad 953d 2757 283e 23b9 d2bd 1bd8 d7bd
00000020: 1df2 0dbe d6eb bb3d 997c 1d3e cd8f 373d
00000030: 0482 803d 39b6 e0bc 4010 11be f4cf ad3b
00000040: e8be c73b 2318 87bd f320 aebe cbb3 1ebe
00000050: 46be d1bd a309 0f3c a401 27bd 23cd adbd
00000060: 795b b2bd e67b c53d a656 f53d 590f 18be
00000070: e0fb 643d 7951 c73d 3262 b3bd 58fd bb3e
00000080: 8706 cbbe 7191 31be 15ab f73d 2901 3e3d
00000090: cce6 1ebd 3672 f7bc 574b 423c 8f6a efbc
000000a0: 0837 cabd 4a86 793e fcbd a6bd b605 8f3d
000000b0: a48a 6e3e 289d 213d b311 9abd b511 1e3d
000000c0: daa5 e73d f055 6c3d 5ed7 de3c 3661 893d
000000d0: c3da 36bd e556 173e be86 86bd 128c fabd
000000e0: 4105 5ebe 836d bf3d fcc7 483e af83 0cbe
000000f0: e312 9f3d 8b3a d83d d31f a8bd c6b6 dd3a
00000100: 324a 03bd f10e 823d b3d0 5d3c 8751 ca3d
00000110: a7cc aabd 0ec3 5cbd 6633 2d3e 06fd 243e
00000120: 7db2 993b a1a0 66be 3815 4e3d 0b96 e73d
00000130: dfa8 5fbd 75d9 353c f6bd 043d 5d9e 083e
00000140: 20b3 773d 846e a5bd 1414 953c 5602 d23d
00000150: 85ed 513d 8145 eebd 381e e03d d92d fcbc
00000160: 7190 b63d 1be4 993d 4f0b 343b 930e aebd
00000170: 857b afbe d1f9 ea38 8382 97bd 30a5 8dbd
00000180: 5c86 363d ada0 2abe fe65 0abd e06b 683d
00000190: 6f19 0c3e 2306 973c 1703 293d 6be5 7cbd
000001a0: 4751 763d ac7c aabd c6f4 5d3d 3e8d b13d
000001b0: c98b b3be a73d 3f3d c095 2cbe ab58 1d3e
000001c0: e6c5 eb3d 0bba 8fba c7d0 a3be 3046 893e
000001d0: 26de 0bbe c510 83bd f61e 9dbd d0c5 03bb
000001e0: cced 82bd 465a 23be f4b4 a93d cb83 a0bd
000001f0: 9971 9bbc 3153 4dbd f6ba e73d 5a0c 083e
00000200: eea2 723e a3ea 553e bb60 febd eb03 dd3d
00000210: 6dde 493d 0215 ae3d 90eb 28bd d137 423e
00000220: c8e0 0c3d 0901 bfbc 03d2 85bd 993c f4be
00000230: 187f e73d ff2a 563c 4c89 f53d 3deb 1dbe
00000240: 092f 593d ff9e 53bb 0228 84bd 2c3a 40be
00000250: 23c9 353d 87de 81be e5a5 76bd 7034 05be
00000260: eb20 863e 673f d1bd d9d4 c6bd e705 9cbb
00000270: 6bb0 ccbb e931 d0bd cbbf 20bd b988 7dbd
00000280: 72fd 1f3d e658 2dbe 5886 6a3d 72e6 963d
00000290: 4f2e 23be 35fe 203e d671 9abd 81f3 bb3d
000002a0: 9730 fbbd 6b94 6e3e 250c 56be e7f1 dcbd
000002b0: 6d77 04be 9934 a2bc 7275 0dbd 5ad9 063e
000002c0: 278f 413d 750e 993d ef98 603d fa46 b8bd
000002d0: c3e7 8abe 54fb 4bbe 2635 d33d a4e5 d83e
000002e0: ae2e 1ebd 52ec 6dbe 2eec ff3c 737d 79bd
000002f0: af74 523e 86ad eb3d 8747 b7bd 71e2 1c3e
00000300: 674d 583d 131e b8bd b759 07be 6c9c 5e3e
00000310: 1058 643b 654f 6f3c 4214 6fbd 2839 4ebd
00000320: f366 83bd 5f5a 11bc 4a40 5b3e 008a cb3d
00000330: 3037 1cbb c2d8 87be ebc1 25be be2b f73d
00000340: d346 78ba 2c2d 85bd 8611 c33d 0845 e6bd
00000350: 9328 dcbd 6241 d03d 9cfb fbbc 6535 8e3d
00000360: dbd9 fa3d 3eaf efbd 4a3e ff3d 9dae afbc
00000370: 67bd 833e 8deb 113e 4f05 23be 38be 60bc
00000380: eb9a 2dbd 3b2a a7be 74f5 623e d252 50bc
00000390: 413b 08be 27cf 483c 2973 abbb 04fe ff3b
000003a0: 1a2c acbd 69e8 30bd bbe9 13bd fb96 b9bd
000003b0: d869 afbc 43a3 adbd 9be4 873d 5f51 223d
000003c0: de9f 34bc 8421 e33c 7d68 02be 57ff e7bd
000003d0: de31 283e 9e15 33be ecd0 cb3d 6f7a 823d
000003e0: 14cc 0bbe c7f3 04be 65d2 b8bd e26b 64bc
000003f0: 0184 58bc 5625 53be a8d1 12bb 2cc0 083d

action_layer.layer1.0.bias f4 [128]
0.06218874 -0.054738607 -0.04034772 -0.021375483 -0.03454496 -0.21077886 -0.09836716 -0.067023456
-0.08020262 -0.10926784 -0.021037554 -0.16816255 0.04050808 0.016134579 0.03950364 0.07264358
-0.15858735 0.04710646 -0.07970149 -0.07789526 -0.13090737 -0.14966978 0.09380114 0.11637892
-0.15745312 0.09083167 -0.20508794 0.0041203867 -0.06052187 0.05355521 -0.08427729 0.049928676
0.057982884 -0.05571156 0.09416603 -0.04436776 -0.05542847 -0.009215804 0.0615622 -0.07675181
-0.03931734 0.044364184 -0.11618611 -0.069159165 0.051368795 -0.053214975 -0.11753887 0.004389868
-0.08701577 -0.17703088 -0.022312362 -0.1325679 -0.018323077 -0.030416112 -0.09533064 -0.105638824
-0.049669564 -0.047514353 0.013123302 -0.01572121 0.048042 -0.13107716 -0.025362046 -0.10674738
-0.049887195 -0.024910219 -0.10192846 -0.14631437 -0.04713575 -0.08612989 0.053329095 -0.08119567
-0.071265124 0.041044276 -0.045548286 -0.06972036 -0.0067888945 0.06742883 -0.12846315 0.028680535
-0.085586905 0.05350596 0.011235024 -0.12900107 -0.124956295 0.012328803 0.0037442755 0.013854742
0.039063174 -0.0073389024 0.0259216 -0.11800662 -0.067404605 -0.10019298 0.050824597 -0.030020043
-0.06455676 -0.084521875 -0.07910643 0.008545675 -0.12040738 -0.048546292 -0.11269335 -0.07950771
-0.07164328 -0.046804793 -0.20486052 -0.11262977 -0.048800975 -0.119429745 0.07011477 -0.07210397
-0.08748294 -0.148366 0.0341299 -0.040225677 -0.0803904 -0.0051082033 0.021746162 -0.002195548
0.026905406 0.014056523 -0.14808902 0.06483588 0.071493335 -0.08807469 -0.10380367 -0.08643797
00000000: 9fb9 7e3d 9735 60bd a743 25bd a31b afbc
00000010: 047f 0dbd 6ad6 57be b974 c9bd 9843 89bd
00000020: 4541 a4bd d1c7 dfbd f356 acbc ce32 2cbe
00000030: cdeb 253d aa2c 843c 92ce 213d 28c6 943d
00000040: b964 22be b4f2 403d 893a a3bd 8d87 9fbd
00000050: 950c 06be 0943 19be d01a c03d 1258 ee3d
00000060: 643b 21be f405 ba3d 9302 52be 4f04 873b
00000070: c8e5 77bd b55c 5b3d 9299 acbd 0382 4c3d
00000080: 767f 6d3d ce31 64bd 1fda c03d f8ba 35bd
00000090: f708 63bd e2fd 16bc a528 7c3d 0e30 9dbd
000000a0: 380b 21bd 38b7 353d fcf2 edbd 52a3 8dbd
000000b0: 1668 523d f2f7 59bd 38b8 f0bd e2d8 8f3b
000000c0: 5335 b2bd 9547 35be 6ac8 b6bc e1bf 07be
000000d0: 471a 96bc 362b f9bc b63c c3bd 2b59 d8bd
000000e0: 5072 4bbd 699e 42bd 1e03 573c c4c9 80bc
000000f0: b0c7 443d 1739 06be 11c4 cfbc 5f9e dabd
00000100: 8456 4cbd 8410 ccbc debf d0bd 6fd3 15be
00000110: 6b11 41bd de64 b0bd 9c6f 5a3d ea49 a6bd
00000120: 73f3 91bd 0b1e 283d d790 3abd 8cc9 8ebd
00000130: 6075 debb 2018 8a3d d88b 03be 71f3 ea3c
00000140: 3048 afbd 1129 5b3d 1b13 383c db18 04be
00000150: 16e9 ffbd bffe 493c 8562 753b 00ff 623c
00000160: b500 203d 2d7b f0bb 8959 d43c 74ad f1bd
00000170: 6d0b 8abd fa31 cdbd 742d 503d 98ec f5bc
00000180: 5636 84bd ce19 adbd 8d02 a2bd 2903 0c3c
00000190: 2598 f6bd 7ad8 46bd c5cb e6bd f0d4 a2bd
000001a0: b6b9 92bd 62b6 3fbd f5c6 51be 70aa e6bd
000001b0: 88e3 47bd 9597 f4bd 5598 8f3d 3fab 93bd
000001c0: 412a b3bd 42ed 17be cbcb 0b3d aec3 24bd
000001d0: b9a3 a4bd b762 a7bb 0225 b23c 2fe3 0fbb
000001e0: ba68 dc3c 554d 663c a6a4 17be adc8 843d
000001f0: 196b 923d 8160 b4bd 0597 d4bd 6406 b1bd

action_layer.layer1.1.weight f4 [2, 128]
-0.11308022 0.08070811 -0.41813192 -0.122950755 0.08549513 0.09153966 0.20048682 -0.33610085
-0.032850634 0.055891447 0.07634426 0.10150106 -0.2216991 -0.057811774 -0.05915365 0.018118298
0.13296202 -0.11057371 0.34579185 0.09180691 -0.28420702 0.10124811 -0.018433472 -0.13131772
0.10221665 0.024473539 0.1179049 0.048975367 0.13620667 -0.06942882 -0.15828194 0.1308468
-0.14942029 -0.21752511 0.08900269 -0.13506976 -0.15224954 0.2287231 -0.15265246 -0.10412542
-0.25643507 0.111041896 -0.15594225 0.21192624 -0.098005995 0.41865817 -0.186597 0.12535419
-0.45896202 0.06342703 0.15513267 -0.16078466 -0.1312377 -0.18487376 -0.04835351 0.13885492
0.14998285 -0.15067442 0.1822397 0.10866018 -0.1579688 -0.2398282 0.22417298 -0.13854107
0.09679272 -0.09979952 -0.2776495 -0.087503254 0.12083604 -0.146793 -0.050419122 0.3046548
-0.082037635 -0.20024309 -0.08286947 0.27314696 0.08602562 -0.20766088 0.11037416 0.03393486
-0.31170356 -0.05631477 0.19117473 0.13834341 0.07419062 -0.06351321 -0.0004957796 -0.06399588
0.03288099 0.026212689 -0.027749876 0.28295672 -0.031339142 -0.022022286 -0.011981562 -0.060989495
0.04334677 -0.16236511 -0.06485825 -0.041280523 0.13087696 -0.27169552 -0.06793597 0.0004022383
0.022492608 0.22523215 -0.26490164 0.078452215 0.1292996 -0.12506256 0.02663666 -0.33934772
0.016671265 0.022219978 -0.0861799 -0.013032704 0.031523846 -0.24908789 -0.15009248 -0.03502755
-0.023881461 0.049513318 0.068687 0.09950923 -0.105143115 0.06296417 0.10392399 -0.18525001
0.027499326 0.017715452 0.086092874 -0.1744249 -0.059944943 0.2706189 0.09273686 -0.04778789
-0.122487694 -0.14336814 -0.18729125 -0.005233347 0.027746229 0.049681332 -0.022229237 0.10231186
-0.13866538 -0.029744893 0.283185 0.27058455 -0.26223657 0.036321107 0.121242315 0.0028178575
-0.41123816 0.06782936 0.118455626 -0.068193816 -0.19241585 0.022462511 -0.24838252 0.022232382
-0.10608903 0.08375853 -0.0142233595 0.20723961 0.3363753 0.25871626 0.34337533 0.087508515
-0.067708544 -0.10674623 -0.2948714 -0.00039428723 -0.026566857 0.21321702 -0.061425105 0.12677306
-0.027145801 0.105735846 -0.012729246 0.23343512 0.3219853 0.048598856 -0.32955897 -0.04593698
0.062454183 0.2882896 -0.042833373 -0.10590351 -0.024309767 0.016198037 -0.009784767 -0.066988185
-0.1330583 -0.18954305 -0.23532803 -0.0777302 -0.2608739 0.034232825 0.050726794 0.02266763
-0.050468046 -0.25436664 -0.17824972 0.1305474 -0.0036228474 -0.02843887 -0.22679606 -0.08550773
0.03145365 -0.13198875 -0.0073235263 0.40905187 -0.09278926 -0.07697052 -0.09607802 -0.08683247
-0.119491115 0.2323025 0.26108584 0.093932405 0.16940965 0.11353722 -0.07573021 0.054750692
0.18073502 0.4146418 0.3067341 -0.06549177 -0.06355453 -0.17757826 0.0965297 0.3134858
-0.15512669 -0.027895153 0.21521014 -0.04569067 0.2787869 -0.30829456 0.051410217 -0.11974311
-0.15759687 0.07801771 -0.015280463 -0.3496072 0.11510025 0.020735497 0.037262414 0.2854357
-0.36924258 0.3627031 0.13431005 -0.19719085 -0.00026465257 0.09187743 -0.19819966 -0.021847287
00000000: 9a96 e7bd 4b4a a53d 6315 d6be 9bcd fbbd
00000010: 1218 af3d 2579 bb3d 6b4c 4d3e 6915 acbe
00000020: 638e 06bd 6eee 643d 615a 9c3d cadf cf3d
00000030: 1705 63be 0acc 6cbd 194b 72bd d36c 943c
00000040: 3227 083e 7874 e2bd a10b b13e 4305 bc3d
00000050: 9583 91be 2b5b cf3d cb01 97bc 2778 06be
00000060: f756 d13d bb7c c83c 2078 f13d 659a 483d
00000070: c379 0b3e b230 8ebd a914 22be b4fc 053e
00000080: a201 19be e7be 5ebe 0b47 b63d ba4f 0abe
00000090: 4ee7 1bbe 6336 6a3e ed50 1cbe b53f d5bd
000000a0: 754b 83be ef69 e33d 53af 1fbe 3103 593e
000000b0: 5eb7 c8bd 5d5a d63e 4913 3fbe d95c 003e
000000c0: 12fd eabe 08e6 813d 19db 1e3e bca4 24be
000000d0: 2d63 06be 8c4f 3dbe 550e 46bd fc2f 0e3e
000000e0: 1b95 193e 654a 1abe 0b9d 3a3e 3a89 de3d
000000f0: 93c2 21be 8695 75be 9a8d 653e b6dd 0dbe
00000100: 433b c63d b163 ccbd 1328 8ebe e834 b3bd
00000110: e378 f73d e750 16be 4884 4ebd b7fb 9b3e
00000120: 5903 a8bd 860c 4dbe 78b7 a9bd ebd9 8b3e
00000130: 332e b03d 0ea5 54be d90b e23d 48ff 0a3d
00000140: 9c97 9fbe 51aa 66bd 4fc3 433e e5a9 0d3e
00000150: 40f1 973d 3713 82bd 35f7 01ba 4610 83bd
00000160: 38ae 063d febb d63c b553 e3bc b4df 903e
00000170: 795d 00bd 1568 b4bc 504e 44bc 1fd0 79bd
00000180: 628c 313d 0a43 26be 67d4 84bd c415 29bd
00000190: 9c04 063e ad1b 8bbe 0422 8bbd 83e3 d239
000001a0: 6b42 b83c 42a3 663e 30a1 87be 8eab a03d
000001b0: 1d67 043e 6610 00be 2035 da3c fcbe adbe
000001c0: 2d92 883c ac06 b63c 167f b0bd 1f87 55bc
000001d0: 261f 013d e510 7fbe d8b1 19be 0c79 0fbd
000001e0: 0ea3 c3bc 7ace 4a3d c5ab 8c3d 7fcb cb3d
000001f0: 4655 d7bd 5cf3 803d 1ad6 d43d 2eb2 3dbe
00000200: 4446 e13c ff1f 913c 7651 b03d 719c 32be
00000210: d488 75bd 8f8e 8a3e d3ec bd3d 3cbd 43bd
00000220: d4da fabd 19cf 12be 47c9 3fbe 7f7c abbb
00000230: 0f4c e33c a77e 4b3d 171a b6bc e188 d13d
00000240: 4cfe 0dbe 90ab f3bc a0fd 903e 0f8a 8a3e
00000250: df43 86be 71c5 143d e44d f83d ceab 383b
00000260: cf8d d2be 1fea 8a3d dd98 f23d 33a9 8bbd
00000270: a908 45be 4d03 b83c fd57 7ebe af20 b63c
00000280: 3545 d9bd 9889 ab3d 1809 69bc 9f36 543e
00000290: 6239 ac3e 7576 843e e4ce af3e aa37 b33d
000002a0: c7aa 8abd c49d dabd 62f9 96be 56b8 ceb9
000002b0: bda2 d9bc 9055 5a3e e498 7bbd ccd0 013e
000002c0: df60 debc 098c d83d 548e 50bc 9e09 6f3e
000002d0: 42db a43e 980f 473d f4bb a8be 6a28 3cbd
000002e0: f5cf 7f3d b29a 933e 0c72 2fbd f0e3 d8bd
000002f0: 4725 c7bc bfb1 843c 4a50 20bc 1a31 89bd
00000300: 6f40 08be 9317 42be d5f9 70be 0331 9fbd
00000310: 4491 85be b837 0c3d e6c6 4f3d 77b1 b93c
00000320: 95b7 4ebd 583c 82be 1887 36be 38ae 053e
00000330: 4b6d 6dbb a2f8 e8bc 3a3d 68be ad1e afbd
00000340: 8bd5 003d 0f28 07be 31fa efbb 3f6f d13e
00000350: 4c08 bebd b8a2 9dbd 8ec4 c4bd 39d5 b1bd
00000360: c2b7 f4bd b5e0 6d3e 0bad 853e a25f c03d
00000370: b979 2d3e 3486 e83d 7118 9bbd 4342 603d
00000380: 9a12 393e ee4b d43e 410c 9d3e 8d20 86bd
00000390: e128 82bd 13d7 35be 5db1 c53d 3681 a03e
000003a0: 88d9 1ebe 6084 e4bc 0c60 5c3e 2426 3bbd
000003b0: 28bd 8e3e c9d8 9dbe 8593 523d e03b f5bd
000003c0: 1361 21be c0c7 9f3d e85a 7abc b7ff b2be
000003d0: aeb9 eb3d 7ddd a93c 79a0 183d a124 923e
000003e0: 5d0d bdbe 39b4 b93e 9388 093e 66ec 49be
000003f0: 11c1 8ab9 3c2a bc3d daf4 4abe 15f9 b2bc

action_layer.layer1.1.bias f4 [2]
0.008467861 -0.0022342184
00000000: c9bc 0a3c f76b 12bb

encoding_layer.layer.0.weight f4 [64, 180]
-0.012826083 -0.101807006 0.08214364 0.12874454 -0.18785642 -0.106226265 -0.040618576 -0.040056836
-0.076269604 0.028752033 -0.055719294 -0.084442146 0.028797098 -0.17006566 0.07859649 -0.11491352
0.031218948 -0.064274095 -0.025278412 0.06931645 -0.28221956 -0.24471192 0.014628044 -0.08039344
-0.2644257 0.43423718 0.07022588 -0.39988697 -0.06789069 -0.045870695 -0.26982784 0.056419987
0.16224214 0.07659677 0.13175677 0.18368503 -0.045463003 -0.129248 0.05027357 -0.10252805
-0.036289804 -0.58984697 0.04841525 0.076150574 0.106204465 -0.030928371 -0.117595345 0.11143587
0.09750966 0.007795605 0.08913748 -0.1902825 -0.036866695 -0.18866596 -0.18150516 -0.062689185
-0.04528523 -0.060367934 -0.2912629 -0.30362812 0.075704366 -0.11644855 -0.046804532 -0.34152862
-0.44272912 0.20041195 0.3417772 -0.043145787 0.053826228 0.019742379 0.1956131 0.1638001
0.054633673 0.21882336 0.14038591 -0.25186568 -0.09135059 -0.20348203 -0.055835113 -0.056922242
0.12701717 -0.3176893 -0.054451946 0.15157928 0.0045083836 -0.1079634 0.13135582 0.17035821
0.13769802 0.13142894 -0.21690086 0.010907559 -0.10589757 0.11935681 0.02215303 -0.0038057775
0.012758317 0.07729202 0.12780137 0.11431207 0.12651236 -0.051901743 -0.089721374 0.11289138
0.21135059 -0.10111298 0.14887239 0.009321628 0.09634314 0.15055066 0.10570527 0.21741581
-0.082808256 0.03495628 -0.05876031 -0.13337453 0.014690529 -0.009074834 0.11214779 0.15500517
0.09317329 -0.1387705 0.059656598 -0.097143285 -0.034147456 -0.011487063 0.080432616 -0.05822918
0.08937773 -0.065684356 -0.09395211 -0.06532086 -0.08056218 -0.083184905 -0.032484256 -0.1122479
-0.12179421 0.06272446 -0.073299624 -0.13038746 0.03998144 0.02304944 -0.00013771642 -0.0065247384
-0.029509135 0.029483048 0.02012224 0.08475509 -0.0567167 0.020809554 -0.0351226 -0.029452575
0.052279007 -0.051592257 -0.070226006 0.09954821 -0.08893822 -0.031680804 0.029442228 0.05994001
0.050825432 -0.021776762 0.0042602257 0.043768413 0.08534942 0.04096403 -0.05806311 0.04256201
0.047369458 0.044927765 0.008649482 -0.0069998605 0.046134874 0.04336368 -0.020855354 0.058500126
-0.20128638 0.10048719 0.014558836 -0.047987577 -0.09340337 0.013466487 -0.09934142 0.010080565
0.13237928 0.09663913 0.1618175 0.12323355 0.017453982 -0.06720026 -0.001372376 -0.01512918
0.26963106 0.13629621 -0.017238136 -0.13181806 0.14191586 0.00264793 0.066702 0.07640895
0.007885856 0.00029843271 -0.16865796 -0.19007374 -0.07443969 -0.11044744 -0.17575821 -0.19604737
0.062364604 -0.18237673 -0.02570761 -0.14839198 -0.15633859 -0.10072691 -0.0037402168 -0.068573505
-0.22004537 -0.032254294 -0.041980755 -0.2357906 0.086995505 -0.013004479 0.03706092 0.24807659
0.19037706 0.1848765 -0.06355872 0.16836604 0.12068678 0.11440257 -0.072958626 -0.040794156
-0.118414246 0.01661811 0.022321153 0.08586688 -0.02510346 -0.013999217 -0.025869634 0.01337361
0.12037434 0.106896855 -0.113797694 0.039737612 0.19549635 -0.018927226 -0.111615874 0.18123463
-0.13978471 -0.052418523 -0.19747277 -0.062801585 -0.07584466 0.13953014 0.078710765 -0.07104619
00000000: 7e24 52bc 3180 d0bd ed3a a83d 9cd5 033e
00000010: 6f5d 40be 288d d9bd aa5f 26bd a312 24bd
00000020: 3d33 9cbd 6289 eb3c ea39 64bd 01f0 acbd
00000030: e4e7 eb3c b125 2ebe 32f7 a03d c857 ebbd
00000040: e1be ff3c 23a2 83bd ac14 cfbc c8f5 8d3d
00000050: 157f 90be c395 7abe 77aa 6f3c 51a5 a4bd
00000060: ce62 87be 5654 de3e 96d2 8f3d fcbd ccbe
00000070: 460a 8bbd e9e2 3bbd e026 8abe a518 673d
00000080: ce22 263e c4de 9c3d 3feb 063e ee17 3c3e
00000090: 6a37 3abd 9659 04be a9eb 4d3d 3afa d1bd
000000a0: 9ea4 14bd 3600 17bf 124f 463d d5f4 9b3d
000000b0: ba81 d93d 7f5d fdbc d4d5 f0bd 7d38 e43d
000000c0: 25b3 c73d 4672 ff3b b68d b63d 6ad9 42be
000000d0: 8801 17bd a631 41be 7ddc 39be 3063 80bd
000000e0: 017d 39bd 5e44 77bd 6920 95be 2575 9bbe
000000f0: e40a 9b3d 947c eebd 1cb6 3fbd d7dc aebe
00000100: 64ad e2be ca38 4d3e 6cfd ae3e a3b9 30bd
00000110: e478 5c3d c5ba a13c cd4e 483e 37bb 273e
00000120: 8fc7 5f3d 3b13 603e 53c1 0f3e 8af4 80be
00000130: 0516 bbbd 985d 50be 5cb3 64bd 4c27 69bd
00000140: ca10 023e 2ca8 a2be 0109 5fbd 9937 1b3e
00000150: 10bb 933b ea1b ddbd 2482 063e 6272 2e3e
00000160: b600 0d3e 4f95 063e 421b 5ebe 9eb5 323c
00000170: d3e0 d8bd 5871 f43d 457a b53c 5a6a 79bb
00000180: 4308 513c 474b 9e3d 5dde 023e 721c ea3d
00000190: 758c 013e ec96 54bd d7bf b7bd 9933 e73d
000001a0: 4a6c 583e 5214 cfbd 0172 183e beb9 183c
000001b0: 8d4f c53d f429 1a3e 017c d83d 40a2 5e3e
000001c0: 6097 a9bd 512e 0f3d a7ae 70bd 5593 08be
000001d0: 8bb0 703c 9dae 14bc bead e53d adb9 1e3e
000001e0: a3d1 be3d db19 0ebe 7a5a 743d 0ff3 c6bd
000001f0: 34de 0bbd 3c34 3cbc dbb9 a43d b881 6ebd
00000200: ac0b b73d 8585 86bd f769 c0bd f1c6 85bd
00000210: c9fd a4bd d95c aabd 360e 05bd 3ae2 e5bd
00000220: 3e6f f9bd af75 803d 1d1e 96bd 4a84 05be
00000230: 94c3 233d 2ed2 bc3c f867 10b9 79cd d5bb
00000240: 24bd f1bc 6f86 f13c 65d7 a43c 1494 ad3d
00000250: c54f 68bd cc78 aa3c b7dc 0fbd 8746 f1bc
00000260: 8322 563d 6752 53bd a7d2 8fbd efdf cb3d
00000270: 3e25 b6bd bbc3 01bd d430 f13c a883 753d
00000280: 542e 503d 2e65 b2bc 5d99 8b3b 8246 333d
00000290: adcb ae3d e6c9 273d 95d3 6dbd 8155 2e3d
000002a0: 7a06 423d 2d06 383d 8fb6 0d3c 165f e5bb
000002b0: ecf7 3c3d 1d9e 313d d9d8 aabc d49d 6f3d
000002c0: 041e 4ebe 3acc cd3d 2f88 6e3c 9f8e 44bd
000002d0: 444a bfbd 8aa2 5c3c 8473 cbbd f428 253c
000002e0: 6f8e 073e bcea c53d 7db3 253e df61 fc3d
000002f0: a7fb 8e3c 4aa0 89bd 4ce1 b3ba 61e0 77bc
00000300: 150d 8a3e 3c91 0b3e fe36 8dbc 50fb 06be
00000310: 6452 113e e588 2d3b 0f9b 883d 4c7c 9c3d
00000320: ad33 013c f676 9c39 acb4 2cbe b1a2 42be
00000330: d673 98bd 4432 e2bd f6f9 33be a4c0 48be
00000340: 0772 7f3d f7c0 3abe c498 d2bc 11f4 17be
00000350: 3917 20be e949 cebd 6d1e 75bb 4470 8cbd
00000360: 9353 61be 141d 04bd 03f4 2bbd 1773 71be
00000370: b32a b23d bd10 55bc 31cd 173d ca07 7e3e
00000380: 34f2 423e 4450 3d3e 132b 82bd 2668 2c3e
00000390: a12a f73d e54b ea3d 556b 95bd c617 27bd
000003a0: 2b83 f2bd b422 883c dada b63c fada af3d
000003b0: c5a5 cdbc f95c 65bc 8eec d3bc fc1c 5b3c
000003c0: d286 f63d bdec da3d c40e e9bd e8c3 223d
000003d0: 3230 483e 450d 9bbc dd96 e4bd 9295 393e
000003e0: b923 0fbe ceb4 56bd 4d36 4abe 1e9e 80bd
000003f0: 7254 9bbd fde0 0e3e 1c33 a13d aa80 91bd

encoding_layer.layer.0.bias f4 [64]
-0.12920605 -0.025102377 -0.09243295 0.01756602 0.069037944 -0.10380419 -0.013745121 0.046318926
-0.026712282 0.058374796 -0.11768099 -0.08989671 -0.0017758696 -0.07328209 0.1091068 0.04441811
-0.006189858 -0.08136623 0.057180937 -0.0646897 -0.015853742 -0.06353832 0.0248098 -0.045702156
-0.022861443 -0.023912026 -0.1017857 -0.07291368 0.029479805 0.0059988163 -0.005454495 -0.01996929
-0.13704212 0.008541474 -0.03939629 0.009470421 -0.05818782 -0.07357834 0.02013354 -0.06936707
-0.00880979 0.011136128 -0.04394068 -0.09303633 0.03277049 -0.043796435 -0.02941468 -0.045008913
0.034298774 -0.0011602234 -0.065465435 -0.04830805 0.093402825 0.019155873 -0.037712928 -0.010215107
-0.045614157 0.08437419 0.08423298 -0.000652334 -0.09425218 -0.024317525 0.024528865 0.033099614
00000000: 974e 04be 80a3 cdbc 7d4d bdbd 9de6 8f3c
00000010: c463 8d3d 4b97 d4bd 3733 61bc eab8 3d3d
00000020: b7d3 dabc 691a 6f3d bb02 f1bd c41b b8bd
00000030: 4cc4 e8ba ec14 96bd 6373 df3d c4ef 353d
00000040: 4bd4 cabb 57a3 a6bd 8f36 6a3d 097c 84bd
00000050: b5df 81bc 6120 82bd ec3d cb3c 2f32 3bbd
00000060: ec47 bbbc 27e3 c3bc 0575 d0bd c453 95bd
00000070: a27f f13c b891 c43b 9fbb b2bb a396 a3bc
00000080: c554 0cbe 8af1 0b3c 015e 21bd d329 1b3c
00000090: 5a56 6ebd 3eb0 96bd 18ef a43c 5310 8ebd
000000a0: f056 10bc 4e74 363c 24fb 33bd d589 bebd
000000b0: 593a 063d e463 33bd 0ef7 f0bc 445b 38bd
000000c0: df7c 0c3d a312 98ba be12 86bd a9de 45bd
000000d0: fb49 bf3d c7ec 9c3c df78 1abd 445d 27bc
000000e0: e9d5 3abd 60cc ac3d 5782 ac3d 6501 2bba
000000f0: 4907 c1bd 8c35 c7bc c2f0 c83c 7693 073d

relational_layer.layers.0.att_src f4 [1, 1, 64]
-0.52928144 -0.14595889 -0.009358434 -0.2751129 -0.20867719 0.16171832 0.12292788 -0.17171407
0.20636928 -0.021589272 0.12522571 -0.73944813 -0.40706423 -0.5995517 -0.21521915 -0.62130594
0.20067589 -0.104793414 0.121890634 0.51172954 0.34213275 -0.8946945 0.5874407 0.14718366
-0.4050013 -0.516222 0.616642 -0.10899857 -0.4654366 -0.109044015 -0.27509373 -0.22831576
-0.032123838 -0.016128577 -0.08626399 -0.1393192 0.31159142 -0.2222171 0.38829792 -0.20214999
-0.096923046 -0.2034585 0.20569767 0.5095942 0.41034457 0.2986802 -0.18907268 -0.085434936
-0.59257495 -0.1892859 0.5094139 0.23899466 -0.06795643 -0.16900744 0.18892758 -0.7892903
-0.40319893 -0.28096768 0.05654305 0.0061748233 0.0124709485 0.07421003 -0.396623 0.09481495
00000000: fd7e 07bf 3f76 15be 1e54 19bc 99db 8cbe
00000010: 79af 55be 7d99 253e 9dc1 fb3d d0d5 2fbe
00000020: 7852 533e fcdb b0bc 2b3b 003e 794c 3dbf
00000030: b96a d0be 387c 19bf 6962 5cbe e80d 1fbf
00000040: fb7d 4d3e ee9d d6bd cca1 f93d b500 033f
00000050: 062c af3e b30a 65bf 8462 163f 50b7 163e
00000060: 555c cfbe 2027 04bf 40dc 1d3f a43a dfbd
00000070: b54d eebe 7852 dfbd 16d9 8cbe 9bcb 69be
00000080: 4994 03bd 1420 84bc 2dab b0bd b1a9 0ebe
00000090: e988 9f3e e18c 63be fcce c63e 6800 4fbe
000000a0: 977f c6bd 6d57 50be 69a2 523e c474 023f
000000b0: af18 d23e 9cec 983e 459c 41be 83f8 aebd
000000c0: feb2 17bf 2ad4 41be f368 023f 04bb 743e
000000d0: be2c 8bbd 4910 2dbe 3b76 413e ee0e 4abf
000000e0: 1770 cebe ffda 8fbe af99 673d 2c56 ca3b
000000f0: f352 4c3c 6efb 973d 2b12 cbbe 572e c23d
