HGAT-MADDPG_ver2/ModelBuffer/model_2000.pt (torch, 369835 bytes, 33 tensors)

encoding_layer.layer.0.weight f4 [64, 180]
-0.06594962 0.018102355 0.031290982 -0.008303504 0.02701725 -0.0066268384 -0.04464601 0.0059422236
-0.1397887 -0.124901004 0.036962852 -0.08997272 0.054815214 -0.0018018929 -0.0195051 0.028725026
0.109452024 -0.042453047 -0.047454447 0.11606156 0.054830417 0.016255798 0.062079355 -0.042464625
0.07547045 0.13128813 0.09593087 -0.1287552 -0.1664926 0.107452415 -0.1048399 -0.11873643
0.014668598 0.05999538 0.12362173 0.24220027 -0.16857155 -0.118321344 -0.16577238 -0.22322442
0.046418738 0.30815166 0.06718781 0.02567459 0.07966589 -0.080857374 0.08768131 -0.22787626
-0.14793186 -0.21745394 0.07883991 -0.02059507 0.027963482 0.08644696 0.05594882 -0.16566493
-0.09478127 0.06691091 -0.062724374 -0.09206182 -0.2473942 -0.045146406 0.04871673 -0.19178972
-0.14829028 -0.017705563 -0.14540948 -0.072430305 -0.14921913 -0.11228357 -0.07259347 -0.11947595
-0.051726248 0.16163757 0.17050397 -0.078041635 0.17302306 0.0009893432 -0.017472746 0.06403122
-0.0058916584 0.09236999 0.10479924 0.0048054685 0.035578392 0.0053848927 -0.059298966 -0.02596545
0.11287904 0.16295986 0.119630724 -0.12525614 -0.032386612 0.0020863896 0.09006916 0.10542711
-0.023113191 -0.017560458 0.014740695 -0.035141807 -0.06262553 0.12356708 -0.035386667 -0.0255337
-0.033148687 -0.017163385 -0.06254433 0.047811765 0.021470077 0.0054554897 0.07945772 -0.08059644
-0.029931905 -0.009569662 0.012855908 -0.12522674 0.085239306 -0.073730975 -0.021223616 0.12023873
-0.1452113 -0.06113404 -0.053366702 0.0054864804 -0.102825575 -0.0022808122 0.090355545 -0.011423656
-0.18070966 -0.18791492 -0.06317518 -0.10415776 0.06844065 -0.06542669 0.09046002 -0.0043980908
0.09420029 0.011341013 0.04788745 -0.00813663 0.055969354 -0.09580687 -0.06898623 -0.02317951
0.072368406 -0.018646695 -0.047425855 -0.031670813 0.046091523 0.02038816 -0.054794427 -0.0724575
0.027298061 -0.061954867 -0.08193197 -0.11775021 0.02179984 -0.040385555 -0.07394664 -0.052776877
-0.012799761 0.08182265 0.016767293 0.036395606 0.08468437 0.01745927 0.08719214 0.053088438
0.034240864 -0.0026472677 -0.0061075734 0.09466198 0.023448607 -0.014878252 -0.0011820033 0.061760623
0.03638381 -0.2594339 0.17451449 0.008867601 0.08879811 0.09212327 -0.012823012 -0.01752201
0.08077893 0.0095962025 -0.21849829 -0.016602293 -0.010902087 0.0068257954 -0.09377591 0.0077101495
-0.14065641 -0.050578896 0.08753565 0.057066515 -0.034172263 0.0022526572 0.037030857 0.07448443
-0.028115515 -0.027426207 0.08174875 0.051735014 0.012117348 -0.012710143 -0.18016885 0.058379408
0.3065129 0.14707978 -0.004089017 0.040291063 -0.24132049 0.0071801236 -0.11210806 0.28599954
0.19531763 -0.040198993 0.07935546 -0.041087683 0.11408481 -0.09991732 -0.015750082 0.1356348
0.03250458 -0.04640697 0.075713 -0.00753271 -0.038423277 -0.102085106 -0.09203708 0.077737145
0.049690135 0.027090212 0.07459845 -0.10175117 0.07814844 -0.009955211 0.040552225 -0.051433556
-0.24342571 0.06802981 -0.014864789 0.054633968 0.053980656 0.05442095 -0.15742506 -0.058582254
0.12278848 0.14885995 -0.15130556 -0.063228525 -0.10889154 -0.19258608 -0.19329034 -0.09660165
00000000: 9810 87bd 644b 943c f92a 003d 6c0b 08bc
00000010: 4853 dd3c f325 d9bb bcde 36bd fcb6 c23b
00000020: c524 0fbe 19cc ffbd 5c66 173d 9e43 b8bd
00000030: eb85 603d 7e2d ecba 29c9 9fbc bf50 eb3c
00000040: 6228 e03d 3fe3 2dbd 985f 42bd afb1 ed3d
00000050: dc95 603d e12a 853c ec46 7e3d 63ef 2dbd
00000060: 4090 9a3d 6570 063e 6777 c43d 67d8 03be
00000070: 097d 2abe 0310 dc3d 4db6 d6bd 162c f3bd
00000080: 8f54 703c b7bd 753d 642d fd3d 5903 783e
00000090: 059e 2cbe 7652 f2bd 3cc0 29be f194 64be
000000a0: 9321 3e3d 0ec6 9d3e c399 893d 8553 d23c
000000b0: df27 a33d 8d98 a5bd 4292 b33d 6558 69be
000000c0: 737b 17be 3fac 5ebe d276 a13d feb6 a8bc
000000d0: ac13 e53c 1b0b b13d 972a 653d 11a4 29be
000000e0: af1c c2bd 9608 893d a375 80bd e88a bcbd
000000f0: e854 7dbe 70eb 38bd 328b 473d 8664 44be
00000100: 68d9 17be 420b 91bc 39e6 14be 5756 94bd
00000110: e6cc 18be eef4 e5bd e3ab 94bd cfaf f4bd
00000120: e7de 53bd 5284 253e 9898 2e3e 4bd4 9fbd
00000130: f52c 313e d9ac 813a 0123 8fbc cd22 833d
00000140: d00e c1bb 7a2c bd3d fca0 d63d 3177 9d3b
00000150: a6ba 113d c173 b03b 79e3 72bd 7fb5 d4bc
00000160: 202d e73d f3de 263e f400 f53d 2543 00be
00000170: d3a7 04bd cfbb 083b 2e76 b83d 2bea d73d
00000180: e057 bdbc f3da 8fbc f582 713c dbf0 0fbd
00000190: d041 80bd bd10 fd3d 9cf1 10bd 0d2c d1bc
000001a0: ebc6 07bd 3a9a 8cbc 3e17 80bd 45d6 433d
000001b0: 04e2 af3c f7c3 b23b bbba a23d bf0f a5bd
000001c0: c133 f5bc 12ca 1cbc 96a1 523c 703b 00be
000001d0: f291 ae3d 4400 97bd 26dd adbc b93f f63d
000001e0: 45b2 14be b067 7abd 0b97 5abd efc7 b33b
000001f0: 3796 d2bd ae79 15bb 540c b93d 492a 3bbc
00000200: f40b 39be c56c 40be fd61 81bd aa50 d5bd
00000210: 9d2a 8c3d 6efe 85bd 1a43 b93d dc1d 90bb
00000220: 15ec c03d a8cf 393c a125 443d 804f 05bc
00000230: 1f40 653d 6436 c4bd a748 8dbd f5e2 bdbc
00000240: e335 943d f4c0 98bc 9d41 42bd 41b9 01bd
00000250: 77ca 3c3d 1205 a73c 1f70 60bd 9964 94bd
00000260: 2fa0 df3c 63c4 7dbd f3cb a7bd 0627 f1bd
00000270: 9495 b23c 536b 25bd 5671 97bd 912c 58bd
00000280: 17b6 51bc a292 a73d 905b 893c 8f13 153d
00000290: 006f ad3d be06 8f3c cb91 b23d 4373 593d
000002a0: 2640 0c3d c87d 2dbb 0a22 c8bb 24de c13d
000002b0: 4b17 c03c e9c3 73bc 73ed 9aba b5f8 7c3d
000002c0: 3107 153d 85d4 84be edb3 323e 6a49 113c
000002d0: c9db b53d 20ab bc3d 9c17 52bc 518a 8fbc
000002e0: 6c6f a53d 6439 1d3c 04be 5fbe 8801 88bc
000002f0: ab9e 32bc ecaa df3b 960d c0bd 6ca5 fc3b
00000300: 3c08 10be d12b 4fbd e445 b33d 94be 693d
00000310: 37f8 0bbd 51a1 133b abad 173d 4b8b 983d
00000320: 8252 e6bc edac e0bc e36b a73d 18e8 533d
00000330: d787 463c 343e 50bc 2f7e 38be 3f1f 6f3d
00000340: 42ef 9c3e 159c 163e 29fd 85bb 3e08 253d
00000350: b81c 77be 3e47 eb3b e998 e5bd 886e 923e
00000360: 5801 483e b3a7 24bd 1e85 a23d 8f4b 28bd
00000370: 4ca5 e93d 74a1 ccbd 5106 81bc d9e3 0a3e
00000380: 8623 053d 3c15 3ebd 6b0f 9b3d f4d4 f6bb
00000390: ba61 1dbd ff11 d1bd f07d bcbd a734 9f3d
000003a0: e287 4b3d 4bec dd3c 12c7 983d eb62 d0bd
000003b0: 4a0c a03d 2e1b 23bc 171a 263d feab 52bd
000003c0: 9744 79be 3753 8b3d 728b 73bc dec7 5f3d
000003d0: d21a 5d3d 81e8 5e3d 0934 21be f2f3 6fbd
000003e0: 8778 fb3d be6e 183e d8ef 1abe f57d 81bd
000003f0: 8702 dfbd 4935 45be e7ed 45be 16d7 c5bd

encoding_layer.layer.0.bias f4 [64]
0.06688276 -0.023290204 0.035463274 -0.0243599 -0.022501836 0.08934322 0.027094742 -0.060670704
0.033600245 -0.04315036 -0.06753687 -0.087289244 -0.017472286 0.065110534 -0.01636044 -0.029048875
-0.02099805 -0.013295109 0.022552935 0.040209834 -0.03105896 -0.017597059 -0.07696055 -0.027267879
-0.061929423 -0.07047837 0.07052322 -0.007971685 0.05741341 -0.013646369 0.015506648 -0.07614325
0.032331306 0.044966746 0.015492402 0.0024302334 0.010925563 -0.0870418 -0.08524042 -0.05354693
0.040974632 -0.008781447 0.0051965755 0.03366366 -0.008923967 0.04072466 0.0013918338 0.009767344
-0.0911604 -0.020925067 -0.010399069 -0.008617781 -0.0030538256 0.036239788 0.000765967 0.0842283
-0.008483674 -0.052175175 0.03042484 0.07382689 -0.059103515 -0.01968445 -0.037436925 0.014978465
00000000: d4f9 883d 19cb bebc f041 113d 6a8e c7bc
00000010: c555 b8bc 94f9 b63d cbf5 dd3c d881 78bd
00000020: 69a0 093d 6fbe 30bd c550 8abd b4c4 b2bd
00000030: 0a22 8fbc ac58 853d 5406 86bc e8f7 edbc
00000040: 1a04 acbc bbd3 59bc efc0 b83c 11b3 243d
00000050: 5c6f febc b527 90bc 7e9d 9dbd e360 dfbc
00000060: b5a9 7dbd f756 90bd 7a6e 903d ac9b 02bc
00000070: 532a 6b3d 0595 5fbc 990f 7e3c fef0 9bbd
00000080: d56d 043d 0d2f 383d d8d3 7d3c 8d44 1f3b
00000090: 2201 333c f942 b2bd 8892 aebd 0754 5bbd
000000a0: 04d5 273d 0fe0 0fbc 0948 aa3b e8e2 093d
000000b0: d535 12bc e7ce 263d 316e b63a 3607 203c
000000c0: 4eb2 babd 0c6b abbc db60 2abc 9831 0dbc
000000d0: b122 48bb 2c70 143d 2dcb 483a e37f ac3d
000000e0: 1cff 0abc a3b5 55bd 843d f93c 8d32 973d
000000f0: 8716 72bd 4941 a1bc 7657 19bd 3c68 753c

relational_layer.layers.0.att_src f4 [1, 1, 64]
-0.056899104 0.17612296 -0.31471777 0.054197967 -0.2072877 -0.14478959 0.25773647 0.15217867
0.22814277 -0.44164646 0.1820773 -0.36606383 0.21333432 0.0707591 0.45761624 -0.10119579
-0.2635795 0.18111259 0.38448238 -0.2659757 0.0018124928 -0.19852516 -0.13257776 0.26884153
-0.12752894 -0.3495128 -0.44940147 0.21308543 0.09702435 -0.4088544 -0.18772739 0.022404548
0.1896502 0.012426215 0.4970389 -0.35025892 0.067548156 -0.10145566 -0.25476235 0.14990303
0.24474637 -0.26562944 -0.121652104 0.016579412 0.5155999 -0.14714397 0.14048447 0.31346515
-0.27685168 -0.23918492 0.17248495 0.3063639 0.11396797 -0.08187138 -0.39814016 0.2565887
-0.25110197 -0.34004015 -0.24831691 -0.08859681 0.029731726 0.10310271 0.14509946 0.22595449
00000000: 090f 69bd 9459 343e b022 a1be b0fe 5d3d
00000010: 3a43 54be b943 14be 09f6 833e bad4 1b3e
00000020: 429e 693e 7c1f e2be 7972 3a3e b86c bbbe
00000030: 5074 5a3e 26ea 903d ad4c ea3e bd3f cfbd
00000040: e4f3 86be 9475 393e e0da c43e f82d 88be
00000050: 2b91 ed3a 2e4a 4bbe 77c2 07be 99a5 893e
00000060: f296 02be 57f3 b2be f317 e6be 1133 5a3e
00000070: b4b4 c63d 5d55 d1be 9c3b 40be be89 b73c
00000080: a933 423e 5397 4b3c e27b fe3e 2355 b3be
00000090: b056 8a3d fcc7 cfbd 3670 82be 2e80 193e
000000a0: cb9e 7a3e 9500 88be bd24 f9bd 8cd1 873c
000000b0: 5bfe 033f e9ac 16be 29db 0f3e 817e a03e
000000c0: 81bf 8dbe e4ec 74be e59f 303e bbdb 9c3e
000000d0: 0a68 e93d 2fac a7bd 07d9 cbbe 985f 833e
000000e0: 7090 80be be19 aebe ca46 7ebe 3f72 b5bd
000000f0: f38f f33c 8327 d33d f494 143e 9d60 673e

relational_layer.layers.0.att_dst f4 [1, 1, 64]
-0.4340715 -0.06736018 0.26069885 -0.26953378 -0.29900518 -0.06520209 -0.34221256 -0.47729722
0.283 -0.14070953 -0.1399738 -0.003180557 0.40659094 -0.20984256 -0.12982287 0.008117678
-0.24344866 -0.22977307 -0.08777117 0.10310744 0.17561507 0.011707342 0.044510737 -0.034481484
-0.2548139 0.09603532 0.20119007 0.09724133 -0.0673039 -0.17121218 -0.5482564 -0.20085324
0.31500086 -0.025028318 -0.3672151 0.13216199 0.17545779 0.45508873 0.084252626 0.115150236
-0.2880443 -0.5188485 0.18239152 0.26314223 0.13379072 0.24673228 -0.0718887 -0.11545798
0.101262294 -0.20393339 -0.11694713 -0.27300125 -0.4902673 -0.32674468 -0.098232165 -0.34431118
-0.4846024 -0.32827032 -0.003236945 0.29091796 -0.20350035 -0.41006067 -0.3722461 -0.5095143
00000000: 9f3e debe 22f4 89bd 527a 853e 5500 8abe
00000010: 3517 99be ac88 85bd 7c36 afbe 4d60 f4be
00000020: 60e5 903e 2916 10be 4b55 0fbe e470 50bb
00000030: b02c d03e f8e0 56be 49f0 04be 0200 053c
00000040: 9b4a 79be a249 6bbe 5fc1 b3bd fe29 d33d
00000050: 70d4 333e 27d0 3f3c e450 363d 753c 0dbd
00000060: f876 82be 2aae c43d c504 4e3e 7626 c73d
00000070: a1d6 89bd 3f52 2fbe 885a 0cbf 79ac 4dbe
00000080: cb47 a13e 3008 cdbc 9e03 bcbe 7955 073e
00000090: 35ab 333e 6401 e93e a48c ac3d e3d3 eb3d
000000a0: 8b7a 93be 41d3 04bf d8c4 3a3e 94ba 863e
000000b0: 6f00 093e 63a7 7c3e 623a 93bd 3c75 ecbd
000000c0: 9b62 cf3d ead3 50be fa81 efbd d2c6 8bbe
000000d0: 5104 fbbe 144b a7be f22d c9bd 8e49 b0be
000000e0: ce1d f8be 0c13 a8be ed22 54bb 33f3 943e
000000f0: 6562 50be 79f3 d1be 0a97 bebe 876f 02bf

relational_layer.layers.0.bias f4 [64]
0.024668531 -0.06505639 -0.01360298 -0.015821895 -0.061640505 0.012375939 -0.082023054 -0.022073392
-0.068675585 0.009548491 -0.093728736 0.037737444 -0.12981768 -0.0034581984 -0.11975935 0.03929267
0.08135183 -0.021172324 0.020946128 0.043760337 -0.07850185 0.10818397 -0.14647913 -0.054064173
0.04248792 0.059462816 -0.018149607 -0.034712408 -0.025788091 0.046362713 -0.046689678 0.12150513
0.0059009595 0.048812024 -0.043959636 -0.0013494666 0.002881213 -0.046633016 0.0016696961 -0.0098866
-0.038987715 -0.05773947 0.07129988 0.008891298 0.010687677 0.03239084 0.036179557 -0.026344676
0.113267094 0.005541034 -0.06038732 -0.004825122 -0.07812404 -0.018512735 0.0017443354 -0.11149226
0.010581423 -0.09179047 0.028047081 0.044413902 -0.0024393874 -0.049715277 -0.063258044 -0.04096619
00000000: a915 ca3c 493c 85bd 09df 5ebc eb9c 81bc
00000010: c17a 7cbd 73c4 4a3c b4fb a7bd 42d3 b4bc
00000020: c9a5 8cbd 4671 1c3c daf4 bfbd 9492 1a3d
00000030: edee 04be f1a2 62bb 6444 f5bd 5af1 203d
00000040: ca9b a63d 9571 adbc 3797 ab3c 0a3e 333d
00000050: 94c5 a0bd 8f8f dd3d a0fe 15be 6572 5dbd
00000060: d007 2e3d 488f 733d 7cae 94bc 992e 0ebd
00000070: 8c41 d3bc d4e6 3d3d ad3d 3fbd aed7 f83d
00000080: d65c c13b 1eef 473d 050f 34bd 96e0 b0ba
00000090: bcd2 3c3b 4302 3fbd b4d9 da3a 68fb 21bc
000000a0: 95b1 1fbd 3980 6cbd ac05 923d cfac 113c
000000b0: 5e1b 2f3c 42ac 043d 0431 143d cad0 d7bc
000000c0: 94f8 e73d 9091 b53b b258 77bd 0f1c 9ebb
000000d0: 7fff 9fbd 05a8 97bc 2fa2 e43a 0e56 e4bd
000000e0: b45d 2d3c a4fc bbbd fec2 e53c 5aeb 353d
000000f0: 21de 1fbb 3fa2 4bbd 6f8d 81bd 2acc 27bd

relational_layer.layers.0.lin_src.weight f4 [64, 64]
-0.05384142 0.1764857 0.33516318 -0.48093677 0.16149545 0.0162587 -0.1413686 -0.25907418
0.07024323 0.14139417 -0.05154713 -0.1829909 -0.36604628 0.123606026 -0.35428435 -0.03678193
0.0095618395 -0.12455774 -0.34416375 -0.36668986 0.09149207 -0.07004129 -0.31201747 -0.04156427
-0.43656528 0.0135238655 -0.19754991 -0.45717755 0.15677743 -0.095453344 0.10254638 -0.077342145
-0.04336884 -0.29179454 -0.2163097 -0.15785618 -0.10436066 0.11293761 -0.21366484 0.07532783
0.12728636 -0.12786916 0.12785105 -0.06570044 0.218973 -0.4916944 -0.12333109 0.09055626
-0.33118153 0.09096114 -0.13204278 0.05636888 0.07285679 -0.22165069 -0.02261635 0.0051433216
0.058134515 0.28827867 -0.22463968 -0.09132101 -0.15317833 -0.24214114 0.18420483 -0.18177809
0.047211055 -0.17093004 -0.18164586 0.0009873365 -0.07712737 0.16052683 0.15803958 -0.24815008
0.07044124 -0.101652324 0.015394536 0.20801628 0.35413557 0.33009562 0.0050812257 0.24820249
-0.15195191 -0.085461915 0.0013259364 -0.02574887 -0.047199503 -0.14443251 -0.025173223 -0.02141062
0.09892252 -0.026001329 0.040677685 0.29176477 -0.017783904 0.14984974 -0.007602834 -0.19366153
0.17880003 0.056740608 -0.06609486 0.028026924 -0.11497166 -0.09948631 0.021455972 0.06430253
0.00040653985 0.1359605 -0.008031961 -0.1714251 -0.05865808 0.020165667 -0.13166614 -0.27104697
0.11425329 -0.14648716 0.11134094 -0.12803778 0.005324228 -0.041251794 -0.061566863 0.12174101
-0.016637402 0.38171667 -0.0099832555 0.16456021 -0.30270314 0.087704785 -0.14503676 -0.11111062
-0.084593855 -0.036681432 -0.15670629 0.13452733 -0.31183997 0.06002017 -0.09742332 0.17129675
-0.19598356 0.08227973 0.09790365 0.11703884 0.07342093 0.0734289 0.12087386 0.16868098
-0.13430278 0.0226879 0.078299396 0.14587358 -0.027732065 -0.20157562 -0.03224459 -0.030993802
-0.18312469 -0.1400645 0.026196288 0.17995931 -0.1400504 0.36548516 0.0472171 -0.0769838
-0.01113448 0.0927938 0.3376268 -0.06705603 0.12809582 -0.24871886 0.15026675 -0.14138038
-0.009485668 0.12265537 0.052920315 0.073928304 -0.06593801 0.059186578 0.1055574 -0.13431399
-0.16808388 -0.15302333 -0.05555179 0.065224275 0.2026601 -0.048744798 0.3988088 0.082244
0.17545219 0.05908038 0.106876515 -0.092905834 -0.0583789 -0.11662477 0.21232314 -0.09934154
-0.091089055 0.15733021 0.25250164 -0.14618681 -0.05392498 -0.11691926 -0.43566775 -0.01169504
0.002579744 0.029765423 -0.033157505 0.20078254 0.13494082 -0.18864049 -0.042127784 -0.03022525
0.16850634 0.118325025 0.089425795 0.12942451 -0.060404427 -0.1718357 0.092447534 0.062851034
0.1725416 0.35910034 -0.24515937 0.09551979 0.25066653 0.17765684 0.0046075406 -0.07275074
0.15056522 0.18778296 -0.45394284 -0.03695429 0.13336957 -0.12916464 -0.28546762 -0.045235056
0.015655037 0.11107354 -0.112991326 -0.019944798 0.12105333 -0.25995383 0.057242144 0.046147887
-0.19399646 0.12637246 0.22619875 0.025469298 0.21008395 0.06440609 -0.19713151 -0.062132847
0.0040817605 -0.20090607 -0.087742604 0.061062004 -0.09401207 -0.10734585 0.2648793 -0.05188259
00000000: d288 5cbd abb8 343e 829a ab3e 583d f6be
00000010: 105f 253e f730 853c eec2 10be 5fa5 84be
00000020: afdb 8f3d a2c9 103e 1523 53bd f761 3bbe
00000030: 6b6a bbbe 2825 fd3d c264 b5be a6a8 16bd
00000040: 43a9 1c3c 2118 ffbd 3b36 b0be c6be bbbe
00000050: 3260 bb3d cf71 8fbd c1c0 9fbe 4c3f 2abd
00000060: 7c85 dfbe 3493 5d3c 864a 4abe 2d13 eabe
00000070: 438a 203e 0b7d c3bd d603 d23d 8f65 9ebd
00000080: 86a3 31bd 1866 95be 4a80 5dbe 0da5 21be
00000090: 0bbb d5bd d54b e73d f5ca 5abe 7a45 9a3d
000000a0: 5b57 023e 22f0 02be 63eb 023e f48d 86bd
000000b0: 753a 603e 5ebf fbbe 0395 fcbd 8f75 b93d
000000c0: a090 a9be d649 ba3d 3936 07be 0ee3 663d
000000d0: f135 953d 66f8 62be ec45 b9bc 4f89 a83b
000000e0: 751e 6e3d 4399 933e f207 66be 8206 bbbd
000000f0: c8da 1cbe d9f3 77be 31a0 3c3e 0924 3abe
00000100: 6160 413d 4908 2fbe 5f01 3abe 8469 813a
00000110: f4f4 9dbd 2561 243e 21d5 213e 0e1b 7ebe
00000120: 7f43 903d 182f d0bd 5d39 7c3c 3802 553e
00000130: 4251 b53e 4b02 a93e 6980 a63b cb28 7e3e
00000140: 4899 1bbe a806 afbd 0bcb ad3a 4bef d2bc
00000150: 4454 41bd 1ee6 13be 1338 cebc 5365 afbc
00000160: e497 ca3d bd00 d5bc a59d 263d 3162 953e
00000170: 8daf 91bc 3672 193e 3221 f9bb 354f 46be
00000180: 5b17 373e d768 683d be5c 87bd b898 e53c
00000190: 4376 ebbd 7abf cbbd 6fc4 af3c 0bb1 833d
000001a0: db24 d539 3b39 0b3e 7c98 03bc 108a 2fbe
000001b0: 7443 70bd 7832 a53c 7dd3 06be abc6 8abe
000001c0: a1fd e93d bb00 16be b806 e43d 561c 03be
000001d0: dd76 ae3b a4f7 28bd 892d 7cbd 5a53 f93d
000001e0: 294b 88bc 5e70 c33e cf90 23bc 7982 283e
000001f0: e8fb 9abe 919e b33d 8484 14be f78d e3bd
00000200: 8b3f adbd 453f 16bd 9d77 20be 88c1 093e
00000210: 7da9 9fbe b6d7 753d e185 c7bd 6a68 2f3e
00000220: eaaf 48be 4682 a83d b581 c83d 0fb2 ef3d
00000230: b65d 963d e461 963d b78c f73d b5ba 2c3e
00000240: ab86 09be fadb b93c 6f5b a03d e25f 153e
00000250: 5b2e e3bc d769 4ebe e712 04bd b7e6 fdbc
00000260: 0a85 3bbe 116d 0fbe 9999 d63c 4147 383e
00000270: 5f69 0fbe df20 bb3e b866 413d afa9 9dbd
00000280: 656d 36bc ad0a be3d 6cdd ac3e ac54 89bd
00000290: 8d2b 033e 28b0 7ebe 87df 193e 05c6 10be
000002a0: c669 1bbc bd32 fb3d f9c2 583d b967 973d
000002b0: 820a 87bd a06d 723d 7a2e d83d 9b89 09be
000002c0: 2e1e 2cbe 26b2 1cbe 468a 63bd 4e94 853d
000002d0: 2186 4f3e a0a8 47bd ab30 cc3e 8b6f a83d
000002e0: bda9 333e 45fe 713d 13e2 da3d 6a45 bebd
000002f0: b71e 6fbd f8d8 eebd 3d6b 593e 9473 cbbd
00000300: e68c babd 2c1b 213e e547 813e ffb1 15be
00000310: 71e0 5cbd 5d73 efbd d80f dfbe 8e9c 3fbc
00000320: ec10 293b 9ed6 f33c 2ad0 07bd f099 4d3e
00000330: ed2d 0a3e f92a 41be 2f8e 2cbd f29a f7bc
00000340: ed8c 2c3e 6454 f23d df24 b73d dc87 043e
00000350: a26a 77bd b3f5 2fbe 2255 bd3d 0bb8 803d
00000360: bfae 303e 00dc b73e 0f0b 7bbe e19f c33d
00000370: 5d57 803e adeb 353e dafa 963b 57fe 94bd
00000380: c52d 1a3e 2d4a 403e 326b e8be 625d 17bd
00000390: 0892 083e bc43 04be d028 92be 6548 39bd
000003a0: fe3e 803c 867a e33d ff67 e7bd 4663 a3bc
000003b0: cfea f73d ab18 85be bd76 6a3d 9105 3d3d
000003c0: 02a7 46be c867 013e a5a0 673e fda4 d03c
000003d0: 3f20 573e 57e7 833d d8dc 49be 037f 7ebd
000003e0: 4ac0 853b 52ba 4dbe 65b2 b3bd 271c 7a3d
000003f0: 6689 c0bd 24d8 dbbd 429e 873e d782 54bd

relational_layer.layers.0.lin_dst.weight f4 [64, 64]
-0.05384142 0.1764857 0.33516318 -0.48093677 0.16149545 0.0162587 -0.1413686 -0.25907418
0.07024323 0.14139417 -0.05154713 -0.1829909 -0.36604628 0.123606026 -0.35428435 -0.03678193
0.0095618395 -0.12455774 -0.34416375 -0.36668986 0.09149207 -0.07004129 -0.31201747 -0.04156427
-0.43656528 0.0135238655 -0.19754991 -0.45717755 0.15677743 -0.095453344 0.10254638 -0.077342145
-0.04336884 -0.29179454 -0.2163097 -0.15785618 -0.10436066 0.11293761 -0.21366484 0.07532783
0.12728636 -0.12786916 0.12785105 -0.06570044 0.218973 -0.4916944 -0.12333109 0.09055626
-0.33118153 0.09096114 -0.13204278 0.05636888 0.07285679 -0.22165069 -0.02261635 0.0051433216
0.058134515 0.28827867 -0.22463968 -0.09132101 -0.15317833 -0.24214114 0.18420483 -0.18177809
0.047211055 -0.17093004 -0.18164586 0.0009873365 -0.07712737 0.16052683 0.15803958 -0.24815008
0.07044124 -0.101652324 0.015394536 0.20801628 0.35413557 0.33009562 0.0050812257 0.24820249
-0.15195191 -0.085461915 0.0013259364 -0.02574887 -0.047199503 -0.14443251 -0.025173223 -0.02141062
0.09892252 -0.026001329 0.040677685 0.29176477 -0.017783904 0.14984974 -0.007602834 -0.19366153
0.17880003 0.056740608 -0.06609486 0.028026924 -0.11497166 -0.09948631 0.021455972 0.06430253
0.00040653985 0.1359605 -0.008031961 -0.1714251 -0.05865808 0.020165667 -0.13166614 -0.27104697
0.11425329 -0.14648716 0.11134094 -0.12803778 0.005324228 -0.041251794 -0.061566863 0.12174101
-0.016637402 0.38171667 -0.0099832555 0.16456021 -0.30270314 0.087704785 -0.14503676 -0.11111062
-0.084593855 -0.036681432 -0.15670629 0.13452733 -0.31183997 0.06002017 -0.09742332 0.17129675
-0.19598356 0.08227973 0.09790365 0.11703884 0.07342093 0.0734289 0.12087386 0.16868098
-0.13430278 0.0226879 0.078299396 0.14587358 -0.027732065 -0.20157562 -0.03224459 -0.030993802
-0.18312469 -0.1400645 0.026196288 0.17995931 -0.1400504 0.36548516 0.0472171 -0.0769838
-0.01113448 0.0927938 0.3376268 -0.06705603 0.12809582 -0.24871886 0.15026675 -0.14138038
-0.009485668 0.12265537 0.052920315 0.073928304 -0.06593801 0.059186578 0.1055574 -0.13431399
-0.16808388 -0.15302333 -0.05555179 0.065224275 0.2026601 -0.048744798 0.3988088 0.082244
0.17545219 0.05908038 0.106876515 -0.092905834 -0.0583789 -0.11662477 0.21232314 -0.09934154
-0.091089055 0.15733021 0.25250164 -0.14618681 -0.05392498 -0.11691926 -0.43566775 -0.01169504
0.002579744 0.029765423 -0.033157505 0.20078254 0.13494082 -0.18864049 -0.042127784 -0.03022525
0.16850634 0.118325025 0.089425795 0.12942451 -0.060404427 -0.1718357 0.092447534 0.062851034
0.1725416 0.35910034 -0.24515937 0.09551979 0.25066653 0.17765684 0.0046075406 -0.07275074
0.15056522 0.18778296 -0.45394284 -0.03695429 0.13336957 -0.12916464 -0.28546762 -0.045235056
0.015655037 0.11107354 -0.112991326 -0.019944798 0.12105333 -0.25995383 0.057242144 0.046147887
-0.19399646 0.12637246 0.22619875 0.025469298 0.21008395 0.06440609 -0.19713151 -0.062132847
0.0040817605 -0.20090607 -0.087742604 0.061062004 -0.09401207 -0.10734585 0.2648793 -0.05188259
00000000: d288 5cbd abb8 343e 829a ab3e 583d f6be
00000010: 105f 253e f730 853c eec2 10be 5fa5 84be
00000020: afdb 8f3d a2c9 103e 1523 53bd f761 3bbe
00000030: 6b6a bbbe 2825 fd3d c264 b5be a6a8 16bd
00000040: 43a9 1c3c 2118 ffbd 3b36 b0be c6be bbbe
00000050: 3260 bb3d cf71 8fbd c1c0 9fbe 4c3f 2abd
00000060: 7c85 dfbe 3493 5d3c 864a 4abe 2d13 eabe
00000070: 438a 203e 0b7d c3bd d603 d23d 8f65 9ebd
00000080: 86a3 31bd 1866 95be 4a80 5dbe 0da5 21be
00000090: 0bbb d5bd d54b e73d f5ca 5abe 7a45 9a3d
000000a0: 5b57 023e 22f0 02be 63eb 023e f48d 86bd
000000b0: 753a 603e 5ebf fbbe 0395 fcbd 8f75 b93d
000000c0: a090 a9be d649 ba3d 3936 07be 0ee3 663d
000000d0: f135 953d 66f8 62be ec45 b9bc 4f89 a83b
000000e0: 751e 6e3d 4399 933e f207 66be 8206 bbbd
000000f0: c8da 1cbe d9f3 77be 31a0 3c3e 0924 3abe
00000100: 6160 413d 4908 2fbe 5f01 3abe 8469 813a
00000110: f4f4 9dbd 2561 243e 21d5 213e 0e1b 7ebe
00000120: 7f43 903d 182f d0bd 5d39 7c3c 3802 553e
00000130: 4251 b53e 4b02 a93e 6980 a63b cb28 7e3e
00000140: 4899 1bbe a806 afbd 0bcb ad3a 4bef d2bc
00000150: 4454 41bd 1ee6 13be 1338 cebc 5365 afbc
00000160: e497 ca3d bd00 d5bc a59d 263d 3162 953e
00000170: 8daf 91bc 3672 193e 3221 f9bb 354f 46be
00000180: 5b17 373e d768 683d be5c 87bd b898 e53c
00000190: 4376 ebbd 7abf cbbd 6fc4 af3c 0bb1 833d
000001a0: db24 d539 3b39 0b3e 7c98 03bc 108a 2fbe
000001b0: 7443 70bd 7832 a53c 7dd3 06be abc6 8abe
000001c0: a1fd e93d bb00 16be b806 e43d 561c 03be
000001d0: dd76 ae3b a4f7 28bd 892d 7cbd 5a53 f93d
000001e0: 294b 88bc 5e70 c33e cf90 23bc 7982 283e
000001f0: e8fb 9abe 919e b33d 8484 14be f78d e3bd
00000200: 8b3f adbd 453f 16bd 9d77 20be 88c1 093e
00000210: 7da9 9fbe b6d7 753d e185 c7bd 6a68 2f3e
00000220: eaaf 48be 4682 a83d b581 c83d 0fb2 ef3d
00000230: b65d 963d e461 963d b78c f73d b5ba 2c3e
00000240: ab86 09be fadb b93c 6f5b a03d e25f 153e
00000250: 5b2e e3bc d769 4ebe e712 04bd b7e6 fdbc
00000260: 0a85 3bbe 116d 0fbe 9999 d63c 4147 383e
00000270: 5f69 0fbe df20 bb3e b866 413d afa9 9dbd
00000280: 656d 36bc ad0a be3d 6cdd ac3e ac54 89bd
00000290: 8d2b 033e 28b0 7ebe 87df 193e 05c6 10be
000002a0: c669 1bbc bd32 fb3d f9c2 583d b967 973d
000002b0: 820a 87bd a06d 723d 7a2e d83d 9b89 09be
000002c0: 2e1e 2cbe 26b2 1cbe 468a 63bd 4e94 853d
000002d0: 2186 4f3e a0a8 47bd ab30 cc3e 8b6f a83d
000002e0: bda9 333e 45fe 713d 13e2 da3d 6a45 bebd
000002f0: b71e 6fbd f8d8 eebd 3d6b 593e 9473 cbbd
00000300: e68c babd 2c1b 213e e547 813e ffb1 15be
00000310: 71e0 5cbd 5d73 efbd d80f dfbe 8e9c 3fbc
00000320: ec10 293b 9ed6 f33c 2ad0 07bd f099 4d3e
00000330: ed2d 0a3e f92a 41be 2f8e 2cbd f29a f7bc
00000340: ed8c 2c3e 6454 f23d df24 b73d dc87 043e
00000350: a26a 77bd b3f5 2fbe 2255 bd3d 0bb8 803d
00000360: bfae 303e 00dc b73e 0f0b 7bbe e19f c33d
00000370: 5d57 803e adeb 353e dafa 963b 57fe 94bd
00000380: c52d 1a3e 2d4a 403e 326b e8be 625d 17bd
00000390: 0892 083e bc43 04be d028 92be 6548 39bd
000003a0: fe3e 803c 867a e33d ff67 e7bd 4663 a3bc
000003b0: cfea f73d ab18 85be bd76 6a3d 9105 3d3d
000003c0: 02a7 46be c867 013e a5a0 673e fda4 d03c
000003d0: 3f20 573e 57e7 833d d8dc 49be 037f 7ebd
000003e0: 4ac0 853b 52ba 4dbe 65b2 b3bd 271c 7a3d
000003f0: 6689 c0bd 24d8 dbbd 429e 873e d782 54bd

action_layer.layer1.0.weight f4 [128, 128]
-0.26136738 -0.0062664943 -0.17442404 -0.019670296 0.10831147 0.03143377 -0.080079265 -0.094823666
-0.1622989 0.12772675 0.09737681 -0.11878164 0.17851856 -0.030492853 -0.041624572 0.029405955
-0.06269323 0.04205752 -0.06538268 -0.11784223 -0.11692115 0.07482684 -0.059010357 -0.1730589
-0.10442246 0.03717113 0.029965982 -0.08279072 0.021277098 0.0097276755 -0.118431725 0.087771356
-0.22228199 -0.16693683 -0.024309892 0.10712535 0.04529985 0.02635559 0.04224188 0.06292582
-0.21306589 -0.014805973 0.007583865 0.024183597 0.02581545 0.11218959 0.036393546 0.09443834
-0.050513647 0.048861254 0.053416997 0.055791453 -0.011201776 0.09824388 -0.026643617 -0.12021332
-0.0061252364 0.043393996 0.13695529 -0.09996005 -0.018293947 0.052049715 -0.12549025 0.11059056
0.14768001 -0.08879766 -0.03854157 0.030753152 0.06328062 0.017623369 -0.01873298 0.09486144
0.08217042 -0.032862306 0.06978152 -0.01649073 -0.055455003 0.117643744 0.0049125925 -0.058385216
-0.020567764 -0.0025596982 0.09035201 0.029004557 -0.048551925 -0.03133741 0.13481121 0.06102351
-0.025519263 0.016510397 0.033624228 -0.023676923 -0.10230307 -0.07599707 -0.054499943 -0.11202051
-0.15487427 -0.024071923 0.04768581 -0.013939051 0.031586893 -0.07403341 0.042459253 0.12665616
0.15450455 -0.055251837 0.01681966 0.14270195 0.03904358 0.0008290233 0.009919622 0.01523662
0.021218896 0.07988352 -0.10440969 -0.08811775 0.018268669 -0.16612068 -0.026890477 0.11769262
0.02809186 -0.051978696 -0.02843143 -0.038722076 0.012559276 0.053799465 0.09836486 0.11332949
0.09892134 -0.053380366 -0.15775175 0.11338461 -0.04803573 -0.12750223 0.021819167 0.09401034
0.06925375 -0.025247674 -0.0049490524 -0.04189861 -0.026686054 0.18749043 0.089225225 -0.119435325
-0.023069661 -0.03691647 0.0027399817 -0.021346714 -0.04066815 -0.10216246 -0.029660204 0.14627688
-0.024939861 -0.12802705 -0.047134575 0.0437 0.04689662 0.0010041031 0.1658238 -0.25228855
0.12633888 -0.034029398 0.13238612 0.114124514 -0.13633285 0.07055582 -0.063899435 0.111447155
-0.11248783 0.1422948 -0.12682794 -0.11179809 -0.0041733324 0.13135383 -0.0038591544 -0.055525396
0.061755054 -0.017251778 -0.006348944 -0.09893242 -0.33810967 -0.065456904 0.032416146 0.13517794
-0.021413244 0.059294183 -0.022499671 0.14431976 0.13012859 0.012173736 -0.007841869 0.100166835
-0.12265262 -0.17909981 -0.059770025 -0.077858515 -0.024374643 -0.09649471 -0.091786906 -0.0041408762
0.0068227816 0.048832558 -0.06752331 -0.11788566 -0.08875485 -0.030483594 -0.002077331 0.13360667
-0.056057192 -0.027024822 0.069337405 -0.028081413 0.07383865 0.053983025 0.00916546 0.07355626
-0.041931987 -0.035530828 -0.030572247 0.121652424 0.05653467 0.018273707 0.11392365 -0.08608914
0.08827935 -0.01456707 0.024535097 -0.029341867 0.00961471 -0.16906044 -0.002971217 0.030630447
-0.023194995 -0.09421549 -0.15644683 0.09002881 0.08508389 0.09391818 -0.05229456 -0.07617257
0.012333511 -0.18081176 0.016589101 0.007668563 -0.050532486 -0.1225752 -0.044341493 -0.061034705
-0.091684885 0.058236565 0.0002479148 -0.0021150177 0.008421132 -0.040160686 -0.1321082 0.15981051
00000000: f2d1 85be 2a57 cdbb 379c 32be 9a23 a1bc
00000010: 67d2 dd3d b2c0 003d 9900 a4bd e932 c2bd
00000020: af31 26be cdca 023e 7e6d c73d ca43 f3bd
00000030: 92cd 363e 26cc f9bc 877e 2abd c2e4 f03c
00000040: 4f65 80bd 8244 2c3d 5be7 85bd 4457 f1bd
00000050: 5b74 efbd d03e 993d d8b4 71bd 5a36 31be
00000060: 71db d5bd c140 183d 387b f53c 2e8e a9bd
00000070: 4f4d ae3c d460 1f3c 558c f2bd 78c1 b33d
00000080: e49d 63be 7df1 2abe 8a25 c7bc 8964 db3d
00000090: 568c 393d aee7 d73c d205 2d3d 41df 803d
000000a0: f22d 5abe c094 72bc 1282 f83b ae1c c63c
000000b0: ec7a d33c a8c3 e53d 6611 153d e368 c13d
000000c0: 66e7 4ebd bd22 483d c8cb 5a3d 9485 643d
000000d0: a787 37bc 1634 c93d b743 dabc 6732 f6bd
000000e0: 35b6 c8bb e7bd 313d 023e 0c3e dbb7 ccbd
000000f0: 30dd 95bc 1532 553d 8480 00be 4e7d e23d
00000100: 6e39 173e 8cdb b5bd c4dd 1dbd 09ee fb3c
00000110: 4599 813d e25e 903c e875 99bc b746 c23d
00000120: f748 a83d a09a 06bd 9de9 8e3d 9117 87bc
00000130: c924 63bd 34ef f03d d0f9 a03b 5625 6fbd
00000140: ba7d a8bc 9cc0 27bb 7a0a b93d f79a ed3c
00000150: 62de 46bd a85b 00bd f30b 0a3e caf3 793d
00000160: c60d d1bc d040 873c 8fb9 093d 1bf6 c1bc
00000170: 4684 d1bd 5aa4 9bbd 553b 5fbd 026b e5bd
00000180: 5c97 1ebe 7b32 c5bc 3252 433d 9e60 64bc
00000190: 4261 013d d49e 97bd c1e9 2d3d 27b2 013e
000001a0: 7136 1e3e c04f 62bd 62c9 893c 7620 123e
000001b0: 29ec 1f3d d052 593a e985 223c 04a3 793c
000001c0: 40d3 ad3c f999 a33d bfd4 d5bd 1477 b4bd
000001d0: 2da8 953c 8a1b 2abe 6b49 dcbc d408 f13d
000001e0: e620 e63c 9de7 54bd 08e9 e8bc 0a9b 1ebd
000001f0: 6cc5 4d3c d45c 5c3d 8473 c93d 4b19 e83d
00000200: 4697 ca3d 5fa5 5abd ad89 21be 3136 e83d
00000210: 1dc1 44bd f28f 02be 1cbe b23c 7e88 c03d
00000220: e9d4 8d3d 36d4 cebc a92b a2bb e09d 2bbd
00000230: b69c dabc 7efd 3f3e b7bb b63d 829a f4bd
00000240: 96fc bcbc b935 17bd 4491 333b 4edf aebc
00000250: a593 26bd 8d3a d1bd f5f9 f2bc 9bc9 153e
00000260: ae4e ccbc 8619 03be 2f10 41bd c5fe 323d
00000270: ac16 403d 1c9c 833a b7cd 293e f72b 81be
00000280: fb5e 013e 6962 0bbd 3a90 073e 1dba e93d
00000290: d79a 0bbe 927f 903d b5dd 82bd 683e e43d
000002a0: 0560 e6bd bab5 113e 2fdf 01be 66f6 e4bd
000002b0: 73c0 88bb 9e81 063e dee9 7cbb 996e 63bd
000002c0: def2 7c3d 9a53 8dbc cd0a d0bb 159d cabd
000002d0: b61c adbe 450e 86bd cbc6 043d 166c 0a3e
000002e0: d46a afbc 75de 723d 3b51 b8bc 8fc8 133e
000002f0: 6e40 053e 5974 473c 2f7b 00bc 4524 cd3d
00000300: 4c31 fbbd f165 37be 6ad1 74bd 4974 9fbd
00000310: 55ad c7bc 059f c5bd c6fa bbbd 30b0 87bb
00000320: a491 df3b a604 483d a949 8abd 096e f1bd
00000330: 1ac5 b5bd bbb8 f9bc d523 08bb 30d0 083e
00000340: 3a9c 65bd 2963 ddbc c500 8e3d fe0a e6bc
00000350: b838 973d 4e1d 5d3d ba2a 163c aaa4 963d
00000360: e0c0 2bbd c688 11bd a672 fabc e824 f93d
00000370: e690 673d beb2 953c cd50 e93d 814f b0bd
00000380: cecb b43d b8aa 6ebc d4fd c83c 5b5e f0bc
00000390: 0487 1d3c 2e1e 2dbe c0b8 42bb b4ec fa3c
000003a0: 6e03 bebc 0df4 c0bd 9933 20be 0661 b83d
000003b0: 7640 ae3d 2d58 c03d d232 56bd 5d00 9cbd
000003c0: 7f12 4a3c b826 39be dee5 873c 9248 fb3b
000003d0: 27fb 4ebd b508 fbbd 6d9f 35bd 87ff 79bd
000003e0: 49c5 bbbd 7789 6e3d 90fa 8139 1c9c 0abb
000003f0: caf8 093c 887f 24bd 5f47 07be 5ea5 233e

action_layer.layer1.0.bias f4 [128]
0.103452824 -0.05344136 -0.00647321 -0.01752673 -0.027752873 -0.10965787 -0.046165127 -0.024014704
-0.11071787 -0.071489446 -0.019339606 -0.12915903 0.027805649 0.017064875 -0.020363623 0.059507903
-0.11482379 -0.013517245 -0.0067692185 -0.033664405 -0.11927221 -0.09111589 0.07712101 0.06201787
-0.086327754 0.089810945 -0.09851895 0.011897663 0.025396839 0.0233002 -0.093399696 0.10198543
0.026066575 -0.009917535 0.09051535 0.03225 -0.064691074 -0.016727833 0.037340466 -0.09566479
0.022150615 0.060718324 -0.007464594 -0.017987266 0.08618228 -0.056844335 -0.11605789 0.0055801286
-0.012350315 -0.078724995 -0.029903563 -0.086774066 0.026809344 -0.02767271 -0.103577495 -0.043493524
-0.02785084 -0.048090238 0.046992425 -0.04735606 0.018457603 -0.10388579 -0.019339181 -0.0853157
-0.0292861 -0.014545104 -0.08362187 -0.09371984 0.0066616787 -0.053535208 -0.00038549464 -0.044767097
-0.027365575 0.014419219 -0.036580946 -0.050214518 -0.042058013 0.032850396 -0.062403943 0.0024110381
-0.07592251 0.052924532 -0.008639047 -0.08486114 -0.05817254 0.025093634 -0.016181314 -0.05395158
0.048827793 0.03944473 0.029757503 -0.105700314 -0.0091441255 -0.050483905 0.06640938 -0.037596796
-0.07809497 -0.046286676 -0.08214933 -0.017153112 -0.094847225 -0.052955605 -0.066107415 -0.016017862
-0.06547165 -0.025027001 -0.091140024 -0.12470835 -0.09287772 -0.08334316 0.06356336 -0.05305211
-0.06974255 -0.040171567 -0.031090412 0.004156966 -0.09174604 -0.034848504 0.061622404 0.011202704
0.05213146 0.04170259 -0.12465427 0.028183896 0.102936156 -0.011546258 -0.07748376 -0.09743763
00000000: 13df d33d 54e5 5abd 391d d4bb 3894 8fbc
00000010: fe59 e3bc 4e94 e0bd a517 3dbd 7cba c4bc
00000020: 0dc0 e2bd 0f69 92bd 186e 9ebc 4442 04be
00000030: acc8 e33c a3cb 8b3c 9dd1 a6bc 8fbe 733d
00000040: bc28 ebbd 6f77 5dbc 52d0 ddbb b0e3 09bd
00000050: fd44 f4bd f89a babd 9ff1 9d3d 7306 7e3d
00000060: 9bcc b0bd cdee b73d 4ec4 c9bd 6aee 423c
00000070: 080d d03c 10e0 be3c 5748 bfbd bddd d03d
00000080: 9289 d53c 287d 22bc 1d60 b93d 9318 043d
00000090: c17c 84bd cf08 89bc 51f2 183d e7eb c3bd
000000a0: 3575 b53c c7b3 783d 8e99 f4bb 085a 93bc
000000b0: 5680 b03d 9bd5 68bd c2af edbd 83d9 b63b
000000c0: fa58 4abc 923a a1bd 51f8 f4bc 9ab6 b1bd
000000d0: 459f db3c e1b1 e2bc 7020 d4bd 4426 32bd
000000e0: 7227 e4bc 45fa 44bd 217b 403d 6ef8 41bd
000000f0: 6634 973c 13c2 d4bd 346d 9ebc ffb9 aebd
00000100: 67e9 efbc 964e 6ebc f141 abbd 30f0 bfbd
00000110: 364a da3b bc47 5bbd 371c cab9 b45d 37bd
00000120: c52d e0bc 973e 6c3c e7d5 15bd bdad 4dbd
00000130: 0645 2cbd 238e 063d 479b 7fbd 8202 1e3b
00000140: 437d 9bbd 65c7 583d ca8a 0dbc adcb adbd
00000150: 5446 6ebd 2a91 cd3c ad8e 84bc 55fc 5cbd
00000160: a7ff 473d cc90 213d 02c6 f33c 6879 d8bd
00000170: 3ed1 15bc 36c8 4ebd a401 883d 19ff 19bd
00000180: 41f0 9fbd 1997 3dbd e83d a8bd af84 8cbc
00000190: 433f c2bd fae7 58bd 5363 87bd e437 83bc
000001a0: 0016 86bd 6d05 cdbc 9fa7 babd 1767 ffbd
000001b0: ad36 bebd d2af aabd 822d 823d 2b4d 59bd
000001c0: 2fd5 8ebd f18a 24bd 52b1 febc 2937 883b
000001d0: 59e5 bbbd 4ebd 0ebd c667 7c3d 8c8b 373c
000001e0: cc87 553d 56d0 2a3d bd4a ffbd eae1 e63c
000001f0: 31d0 d23d 842c 3dbc ceaf 9ebd 618d c7bd

action_layer.layer1.1.weight f4 [2, 128]
-0.100673 0.0444461 -0.40631986 0.122913755 0.12135083 0.07250227 -0.040577836 -0.3582456
-0.15481965 0.08795029 -0.014737944 0.08255744 -0.26960385 -0.040669482 -0.07166857 0.016201653
0.108654015 -0.06637111 0.17085257 -0.08280151 -0.32076976 0.11760497 0.0061248075 -0.0726195
0.14246543 -0.04841452 0.07968621 0.030648144 0.032311272 -0.094577216 -0.23647402 0.045596298
-0.07559137 -0.27300623 0.077636614 -0.14965168 0.023401035 0.219023 -0.14976361 -0.012985822
-0.21808133 -0.05532065 -0.008070588 0.06574891 -0.08865789 0.19488811 -0.07417944 0.1599824
-0.5015586 0.11214964 0.10055462 -0.020726522 -0.014782225 -0.124373406 0.17810887 0.104550004
0.16701819 0.208784 0.15674663 -0.08895519 -0.11902294 -0.063546896 0.18075778 -0.15441284
0.16109535 -0.022144673 -0.29189408 0.0859986 -0.0060072355 -0.08255234 -0.056609187 0.13042064
-0.07893068 -0.22011696 -0.059705086 0.28205967 0.114972584 -0.21313858 -0.12505142 0.017380795
-0.12621047 -0.07703127 0.11567841 0.17492409 0.058113545 0.01193471 -0.12616396 -0.071736924
0.008684809 0.20360702 -0.08696052 -0.0035333505 0.12550938 -0.043923147 -0.06943624 -0.07891581
-0.06836735 -0.07747194 -0.049880177 -0.03452693 0.16012107 -0.21667597 0.034766495 -0.04247363
0.0050933794 0.1990808 -0.37189493 0.07497767 0.12624058 -0.101352975 0.028063115 -0.12528099
0.23687224 0.016581172 -0.058170877 -0.12375514 0.24994919 -0.06653416 -0.08840145 -0.09158491
-0.062056962 0.038661405 0.093665466 -0.08667282 -0.07017118 0.15216218 0.19268912 -0.121831074
0.037700035 0.071754836 0.17357236 -0.07798166 -0.13504477 0.19801939 0.10599729 -0.059925627
-0.17720622 -0.06946461 -0.18587461 -0.049157087 -0.08441441 -0.17813647 -0.003945901 0.0847558
-0.023378888 0.0005331718 0.041586563 0.20736569 -0.14987949 -0.0015226429 0.06816537 0.08070202
-0.2636894 0.13366613 0.061882097 -0.089217514 -0.16314392 0.04501911 -0.10638916 0.053914983
-0.110856056 -0.07289493 -0.0061058905 0.05986388 0.33886677 0.12144163 0.16969228 0.15784954
0.0644357 -0.143757 -0.21528155 0.121927634 -0.06797745 0.21682027 -0.0540118 0.1176011
-0.04674876 0.03756099 -0.061320793 0.24954113 0.24214195 -0.07469755 -0.1002133 0.060204174
0.038305324 0.14347592 0.009202802 -0.14844158 -0.063732296 -0.053565823 -0.05468267 0.04461057
-0.074693784 -0.19473109 -0.08199305 -0.08527607 -0.26763964 0.05697527 0.033435415 -0.051850483
0.006688523 0.024586178 -0.11742386 -0.09791175 0.07524943 -0.07044962 -0.109751195 -0.08361007
-0.09561945 -0.17014332 0.018022077 0.16009805 -0.055431157 -0.0969613 -0.18221347 -0.0034031419
-0.10974315 0.19234037 0.124855526 -0.1569456 0.09654356 0.062675096 -0.039082494 0.010862928
0.08390809 0.36882928 0.24918197 -0.073254526 -0.084560774 -0.10896898 0.0733521 0.2616499
-0.109643176 0.14931987 0.29047906 -0.04872589 0.08163101 0.08888459 0.05842109 -0.019147152
-0.09069887 0.08748297 -0.0062471996 -0.2276621 0.15780124 -0.17224494 0.0011756591 0.16674761
-0.254049 0.19073042 0.17848557 -0.1406197 0.020392055 0.1333683 -0.025843363 0.030509004
00000000: a52d cebd 1d0d 363d 2809 d0be 35ba fb3d
00000010: c986 f83d 127c 943d f234 26bd f86b b7be
00000020: 0b89 1ebe 481f b43d 6b77 71bc e013 a93d
00000030: 8409 8abe 0b95 26bd f9c6 92bd 54b9 843c
00000040: ff85 de3d 94ed 87bd faf3 2e3e d793 a9bd
00000050: ef3b a4be e0da f03d 9cb2 c83b 88b9 94bd
00000060: 75e2 113e 4e4e 46bd 8632 a33d d111 fb3c
00000070: d358 043d b3b1 c1bd 3f26 72be 2fc3 3a3d
00000080: a6cf 9abd 79c7 8bbe f2ff 9e3d 4a3e 19be
00000090: 87b3 bf3c 9147 603e a25b 19be 7cc2 54bc
000000a0: b650 5fbe e897 62bd 803a 04bc 5da7 863d
000000b0: 4592 b5bd c090 473e 64eb 97bd 6dd2 233e
000000c0: 2566 00bf b6ae e53d 95ef cd3d abca a9bc
000000d0: 2531 72bc 7cb7 febd 2c62 363e 501e d63d
000000e0: d106 2b3e 79cb 553e 3082 203e 232e b6bd
000000f0: 4dc2 f3bd e024 82bd 9118 393e 661e 1ebe
00000100: 2ef6 243e bf68 b5bc 2473 95be 0920 b03d
00000110: 58d8 c4bb 3411 a9bd 09df 67bd fd8c 053e
00000120: 69a6 a1bd 5766 61be 528d 74bd 206a 903e
00000130: bf76 eb3d 0041 5abe 7b0d 00be 2b62 8e3c
00000140: 513d 01be 92c2 9dbd cde8 ec3d 4d1f 333e
00000150: 7808 6e3d cd89 433c 2031 01be cfea 92bd
00000160: bb4a 0e3c 5c7e 503e 5b18 b2bd c98f 67bb
00000170: 8885 003e c2e8 33bd 9634 8ebd 9d9e a1bd
00000180: 2e04 8cbd 9ca9 9ebd 284f 4cbd 1c6c 0dbd
00000190: c7f6 233e 4ee0 5dbe 5067 0e3d d4f8 2dbd
000001a0: 5de6 a63b d6db 4b3e 0369 bebe e58d 993d
000001b0: 3645 013e 2692 cfbd 9ee4 e53c a949 00be
000001c0: a38e 723e 3dd5 873c 9644 6ebd 5673 fdbd
000001d0: aef2 7f3e 1043 88bd d20b b5bd df90 bbbd
000001e0: 712f 7ebd 6c5b 1e3d aed3 bf3d 8581 b1bd
000001f0: e8b5 8fbd 67d0 1b3e 4c50 453e 9282 f9bd
00000200: 5a6b 1a3d 33f4 923d f4bc 313e d9b4 9fbd
00000210: 2d49 0abe 98c5 4a3e 1b15 d93d 9374 75bd
00000220: 8c75 35be 7643 8ebd ea55 3ebe f158 49bd
00000230: 76e1 acbd 6869 36be 9e4c 81bb 7394 ad3d
00000240: 1585 bfbc 8ec4 0b3a ac56 2a3d ac57 543e
00000250: 027a 19be 6b93 c7ba 499a 8b3d 1a47 a53d
00000260: 4c02 87be c6df 083e 1578 7d3d acb7 b6bd
00000270: 330f 27be f565 383d 8fe2 d9bd f5d5 5c3d
00000280: 8008 e3bd f049 95bd ec13 c8bb d433 753d
00000290: f27f ad3e 64b6 f83d d0c3 2d3e 4fa3 213e
000002a0: ddf6 833d 0935 13be c472 5cbe 32b5 f93d
000002b0: c337 8bbd 2206 5e3e 7a3b 5dbd d8d8 f03d
000002c0: a17b 3fbd 8dd9 193d 832b 7bbd b687 7f3e
000002d0: 0ff4 773e 07fb 98bd a13c cdbd a798 763d
000002e0: 0be6 1c3d 5aeb 123e 59c7 163c 1201 18be
000002f0: 1486 82bd d667 5bbd effa 5fbd 93b9 363d
00000300: 0ef9 98bd 9667 47be f9eb a7bd 38a5 aebd
00000310: 1008 89be e75e 693d 93f3 083d 2c61 54bd
00000320: 662b db3b f468 c93c ec7b f0bd f585 c8bd
00000330: 601c 9a3d e447 90bd 3cc5 e0bd c23b abbd
00000340: 21d4 c3bd 0d3a 2ebe 09a3 933c bef0 233e
00000350: c80b 63bd a593 c6bd 2b96 3abe 3f07 5fbb
00000360: 04c1 e0bd e0f4 443e 41b4 ff3d 59b6 20be
00000370: a1b8 c53d cd5b 803d f714 20bd 6cfa 313c
00000380: 01d8 ab3d 31d7 bc3e 8f29 7f3e 7806 96bd
00000390: 332e adbd 212b dfbd a039 963d faf6 853e
000003a0: 9a8c e0bd 4fe7 183e acb9 943e cd94 47bd
000003b0: 292e a73d 2009 b63d f44a 6f3d 7dda 9cbc
000003c0: 54c0 b9bd 452a b33d 4fb5 ccbb 4120 69be
000003d0: a696 213e fa60 30be 9318 9a3a e3bf 2a3e
000003e0: b612 82be d64e 433e ecc4 363e 9cfe 0fbe
000003f0: 3d0d a73c b391 083e 76b5 d3bc 05ee f93c

action_layer.layer1.1.bias f4 [2]
0.038009714 -0.01972649
00000000: 13b0 1b3d 7399 a1bc

encoding_layer.layer.0.weight f4 [64, 180]
0.049208116 -0.02347201 0.016832003 0.13816835 -0.088003814 -0.033966843 -0.03506492 0.015928654
-0.11166568 -0.058941323 -0.11444219 -0.02007772 -0.035230007 -0.09946975 0.048959948 -0.014755674
0.09455358 -0.01867618 0.024760352 -0.12809369 0.05997815 -0.022299943 0.050396904 0.078099184
-0.19950682 0.19063862 -0.07412069 -0.2725736 -0.059045866 -0.15799966 -0.10031465 -0.034949888
0.0559185 -0.043601733 0.037100937 -0.011805644 -0.07333756 0.025770115 0.05028506 0.09686715
-0.019375544 -0.3304058 0.059615742 0.21357396 0.19157055 -0.12590845 -0.011298416 0.10335196
0.10796787 0.015973637 -0.020762222 -0.100450434 -0.06429081 -0.108300395 -0.08053833 0.03438268
0.0723176 -0.117137305 -0.21728046 -0.19272357 0.05709719 -0.13790779 0.0009488044 -0.06836557
-0.16802385 0.15889253 0.30399272 0.0069984654 -0.04370381 -0.09089309 0.092735514 0.13603868
0.026676575 -0.023779381 -0.06505511 -0.13717374 -0.06410608 -0.07220862 -0.1275994 -0.116585776
-0.11111554 -0.07677641 -0.045935914 0.014931445 -0.09599859 0.016054923 0.05088408 0.05762728
0.013615371 0.020985786 -0.1347245 0.01466858 -0.002111206 0.16423823 0.061456434 0.0053011775
-0.00907552 0.09067326 0.12169837 0.11180411 0.12512891 -0.17317198 -0.06837069 0.02053258
0.11736726 0.031181209 0.012354079 0.076198675 0.08187411 0.12748025 -0.0053994628 0.07055677
-0.10239996 0.016853048 -0.06569217 -0.07440953 0.093433306 -0.039668787 -0.016772764 0.024936805
0.05339861 -0.19379762 0.04513043 -0.08430502 -0.019341975 0.0043636495 0.06501634 -0.0068077603
0.11672945 -0.017964814 -0.03466466 0.0197347 -0.045448788 -0.0017989903 0.016186947 -0.11002229
-0.13399516 0.06695455 -0.07448674 -0.121118665 0.029529354 0.13462491 0.026705287 -0.022876862
-0.05159022 0.0124394335 0.01299595 0.06961 0.003289521 0.05888983 -0.014372693 -0.004275142
0.024916444 -0.06756943 -0.09180664 0.069098145 -0.115021765 -0.026923738 0.035857875 0.063815534
-0.05702454 -0.07255494 -0.004326336 0.012758753 0.05439871 -0.0033845094 -0.052567195 0.028273907
0.033677794 0.031323206 -0.0025917673 -0.046461765 0.050312955 0.04953939 -0.015725926 0.034853704
-0.055627167 0.06886907 -0.051109012 -0.047987577 -0.06875415 -0.032294337 -0.08611363 0.010880486
0.10511602 0.029147621 0.14265884 0.13297288 0.033335954 -0.049893707 -0.004692134 0.02377657
0.16854602 -0.007526847 -0.068902634 -0.09589882 0.19053483 -0.120738916 0.19236542 -0.048740666
0.028332438 0.08278662 -0.1366218 -0.14328597 -0.105934516 -0.102074325 -0.103103444 -0.09707593
-0.040980738 -0.018516973 -0.04006703 -0.18108633 -0.09810139 0.03563113 0.05359332 -0.06569006
-0.15880686 -0.14633095 -0.10195849 -0.21063969 -0.033170395 0.055003963 0.029604606 0.1736786
0.12627085 0.009583071 0.06669898 0.10517548 0.041938283 0.04859861 -0.10531301 -0.030328324
-0.002565724 0.06021149 0.052489962 0.160123 -0.17445156 -0.028536754 -0.009562428 0.015768083
0.13435191 -0.005675612 -0.080867834 -0.09963543 0.041132614 0.02472974 -0.1959231 -0.041966803
-0.045674127 0.059769828 -0.04562305 -0.07025635 -0.07001445 0.043919943 -0.03266863 -0.04641434
00000000: 738e 493d 5f48 c0bc 45e3 893c 017c 0d3e
00000010: 583b b4bd d120 0bbd 3ca0 0fbd cf7c 823c
00000020: fab0 e4bd 756c 71bd ab60 eabd 087a a4bc
00000030: 574d 10bd ccb6 cbbd 3a8a 483d c8c1 71bc
00000040: 4fa5 c13d cafe 98bc 39d6 ca3c fe2a 03be
00000050: a6ab 753d 5fae b6bc fc6c 4e3d 77f2 9f3d
00000060: 844b 4cbe c536 433e 97cc 97bd c48e 8bbe
00000070: 14da 71bd aaca 21be c471 cdbd 9d27 0fbd
00000080: cc0a 653d bb97 32bd 27f7 173d 766c 41bc
00000090: 0132 96bd d91b d33c b5f7 4d3d 4962 c63d
000000a0: 76b9 9ebc f32a a9be a32f 743d 22b3 5a3e
000000b0: 122b 443e 25ee 00be fe1c 39bc 31aa d33d
000000c0: 421e dd3d 25db 823c 8915 aabc f5b8 cdbd
000000d0: e6aa 83bd 99cc ddbd 48f1 a4bd dad4 0c3d
000000e0: 401b 943d afe5 efbd c57e 5ebe 5459 45be
000000f0: bede 693d b337 0dbe 2fb9 783a 3f03 8cbd
00000100: 720e 2cbe b9b4 223e efa4 9b3e 6253 e53b
00000110: c402 33bd 2826 babd 1eec bd3d b94d 0b3e
00000120: d588 da3c facc c2bc 9d3b 85bd 4677 0cbe
00000130: 0c4a 83bd 1de2 93bd 6ba9 02be 86c4 eebd
00000140: 8b90 e3bd f33c 9dbd 4c27 3cbd 05a3 743c
00000150: e99a c4bd 9d85 833c d36b 503d 950a 6c3d
00000160: 0113 5f3c 62ea ab3c 38f5 09be 7c54 703c
00000170: 295c 0abb 112e 283e beb9 7b3d 80b5 ad3b
00000180: 7db1 14bc e7b2 b93d ff3c f93d 8ef9 e43d
00000190: cb21 003e ff53 31be ef05 8cbd f133 a83c
000001a0: 3f5e f03d bc6f ff3c c368 4a3c 0d0e 9c3d
000001b0: 9dad a73d 2f8a 023e faed b0bb 1180 903d
000001c0: 12b7 d1bd 670f 8a3c 9e89 86bd 0664 98bd
000001d0: f659 bf3d bd7b 22bd 0967 89bc 4548 cc3c
000001e0: 80b8 5a3d e272 46be b0da 383d 1ca8 acbd
000001f0: 1073 9ebc f2fc 8e3b 4927 853d a213 dfbb
00000200: da0f ef3d f22a 93bc 88fc 0dbd aaaa a13c
00000210: 8228 3abd 19cc ebba 7d9a 843c 5e53 e1bd
00000220: 0736 09be 781f 893d 818c 98bd 100d f8bd
00000230: 8be7 f13c 1ddb 093e 0cc5 da3c 4268 bbbc
00000240: 4450 53bd c4ce 4b3c f7ec 543c b08f 8e3d
00000250: 0195 573b 7636 713d 727b 6bbc 7e16 8cbb
00000260: 921d cc3c d761 8abd 1f05 bcbd 5483 8d3d
00000270: 8890 ebbd 2c8f dcbc b5df 123d b8b1 823d
00000280: 9092 69bd af97 94bd f0c3 8dbb 170a 513c
00000290: 2fd1 5e3d a5ce 5dbb b350 57bd ae9e e73c
000002a0: baf1 093d c34c 003d a4da 29bb b14e 3ebd
000002b0: f514 4e3d d1e9 4a3d a8d3 80bc c2c2 0e3d
000002c0: 50d9 63bd 3a0b 8d3d af57 51bd 9f8e 44bd
000002d0: face 8cbd 1147 04bd 585c b0bd 1144 323c
000002e0: 1147 d73d fec6 ee3c 2915 123e 0b2a 083e
000002f0: 488b 083d 585d 4cbd 79c0 99bb 15c7 c23c
00000300: 5497 2c3e c5a3 f6bb d31c 8dbd 9a66 c4bd
00000310: 901b 433e f745 f7bd 71fb 443e 4ba4 47bd
00000320: 6e19 e83c 088c a93d 96e6 0bbe 8fb9 12be
00000330: 32f4 d8bd 580c d1bd e627 d3bd bfcf c6bd
00000340: 6bdb 27bd e8b0 97bc 531d 24bd b26e 39be
00000350: 62e9 c8bd f3f1 113d ab84 5b3d 8388 86bd
00000360: 449e 22be c8d7 15be 9dcf d0bd eeb1 57be
00000370: aedd 07bd d64b 613d 5c85 f23c ced8 313e
00000380: 254d 013e 5002 1d3c 7a99 883d 3e66 d73d
00000390: 7ac7 2b3d 560f 473d 59ae d7bd 1b73 f8bc
000003a0: b525 28bb 53a0 763d b7ff 563d 49f7 233e
000003b0: 6ea3 32be e9c5 e9bc bbab 1cbc 112c 813c
000003c0: 8c93 093e 7cfa b9bb 099e a5bd a90d ccbd
000003d0: ac7a 283d 0696 ca3c 11a0 48be 62e5 2bbd
000003e0: cb14 3bbd 35d1 743d 3cdf 3abd 90e2 8fbd
000003f0: bc63 8fbd 66e5 333d 8bcf 05bd f71c 3ebd

encoding_layer.layer.0.bias f4 [64]
-0.07623577 -0.0067202556 -0.07431147 0.012870835 0.06372219 -0.08675379 0.00063308247 0.0546166
-0.018287025 0.04635357 -0.09670698 -0.054894894 -0.009165257 -0.039483096 0.06567734 0.02847486
-0.015885822 -0.06283062 0.036005367 -0.061407886 -0.03531849 -0.06929195 0.050082956 -0.052246973
-0.0337976 -0.0044717155 -0.10015145 -0.02398056 0.0511812 0.0028766529 0.0113338865 -0.010626113
-0.090583146 -0.05825512 -0.039770305 -0.033314113 -0.067089096 -0.10074453 0.037084684 -0.052663047
0.015095985 0.015630808 -0.071721226 -0.05725112 0.036374267 -0.057968203 -0.034590766 -0.031593215
0.01722922 -0.007934368 -0.062439732 -0.06691195 0.07469805 0.062208418 -0.013847075 0.0038246152
0.005526223 0.026760854 0.030643612 -0.020509077 -0.06434212 -0.009992775 0.0024822366 -0.00048709425
00000000: 8021 9cbd 9735 dcbb 9d30 98bd 32e0 523c
00000010: c880 823d f9ab b1bd 72f5 253a a8b5 5f3d
00000020: acce 95bc 3edd 3d3d 4f0e c6bd 78d9 60bd
00000030: e029 16bc 07b9 21bd d781 863d 1c44 e93c
00000040: fc22 82bc 57ad 80bd 5d7a 133d d686 7bbd
00000050: 1faa 10bd f0e8 8dbd c923 4d3d ec00 56bd
00000060: 5a6f 0abd 7887 92bb 341c cdbd e172 c4bc
00000070: 61a3 513d 3a86 3c3b c4b1 393c 2619 2ebc
00000080: a883 b9bd ec9c 6ebd 30e6 22bd 6174 08bd
00000090: 0266 89bd 2653 cebd 1ce6 173d 35b5 57bd
000000a0: 2655 773c 2e0c 803c 94e2 92bd 2780 6abd
000000b0: 2ffd 143d 1170 6dbd 0caf 0dbd e367 01bd
000000c0: 4b24 8d3c 27ff 01bc cec0 7fbd 2209 89bd
000000d0: 4bfb 983d 41ce 7e3d d8de 62bc 65a6 7a3b
000000e0: 5215 b53b 9439 db3c 5008 fb3c a702 a8bc
000000f0: cdc5 83bd bcb8 23bc 05ad 223b af60 ffb9
