HGAT-MADDPG_ver2/ModelBuffer/model_1100.pt (torch, 369835 bytes, 33 tensors)

encoding_layer.layer.0.weight f4 [64, 180]
0	0xbd45b004	-0.048263565
1	0x3bc0ba6e	0.005881599
2	0x3c7944b1	0.015214131
3	0x3b6e7acd	0.0036389113
4	0x3c72820d	0.014801514
5	0x3ada5532	0.001665747
6	0xbccc0dfd	-0.024909014
7	0x3cd52ab8	0.026021346
8	0xbdff83ca	-0.12476309
9	0xbdf1ad90	-0.118006825
10	0x3d9178b0	0.071030974
11	0xbd65cf98	-0.05610618
12	0x3d3687fd	0.044563282
13	0xbccf5505	-0.025309095
14	0xbab3f03e	-0.0013728214
15	0xbd39c8f9	-0.045357678
16	0x3c43d970	0.011953697
17	0xbd4c32c1	-0.04985309
18	0x3c8bb2db	0.017053058
19	0x3d58f338	0.052966326
20	0x3db5fabe	0.08885716
21	0x3cbc5a81	0.022992374
22	0x3dad4301	0.084600456
23	0x3ccdcd3c	0.025122277
24	0x3ddd91a1	0.10818792
25	0x3c54091d	0.012941626
26	0x3dcd54a2	0.10025908
27	0x3af3f88e	0.0018613504
28	0xbd6e5faf	-0.05819672
29	0x3d8e561d	0.069500186
30	0xbdc03bfd	-0.09386442
31	0x3cb85fe6	0.022506665
32	0x3d5235a4	0.051320687
33	0x3c959c11	0.018262895
34	0x3dc24325	0.09485463
35	0x3e1dd876	0.15414605
36	0xbe0463c1	-0.12928678
37	0xbe5b31c9	-0.2140571
38	0xbdfba1fc	-0.122867554
39	0xbe05bcb6	-0.13060269
40	0x3c9b0bc8	0.018926516
41	0x3e445806	0.19174203
42	0x3d337585	0.043813247
43	0xbd3dacb5	-0.046307284
44	0x3c872a33	0.016499614
45	0x3cf34559	0.029696153
46	0x3da9f39a	0.082984164
47	0xbe58c87f	-0.21170233
48	0xbe352880	-0.17691231
49	0xbe82e391	-0.25564244
50	0x3dedaf52	0.11605705
51	0xbd85d68a	-0.06535061
52	0x3cc6ff5d	0.024291689
53	0x3d75c10d	0.05999856
54	0x3d084010	0.03326422
55	0xbe634194	-0.22192985
56	0xbdd2a6bc	-0.10285708
57	0xbb7fd54f	-0.0039037054
58	0xbdb7542c	-0.089516014
59	0xbded89bd	-0.11598537
60	0xbe62f441	-0.22163488
61	0xbcd51a98	-0.026013657
62	0x3c33b9c8	0.010969587
63	0xbded6773	-0.11591997
64	0xbd931a45	-0.07182745
65	0x3d0982a2	0.033571847
66	0xbd83b5e3	-0.064311765
67	0xbd73a19e	-0.059480302
68	0xbe3f116a	-0.18658987
69	0xbe0ec35f	-0.13941716
70	0xbd9b1116	-0.07571618
71	0xbd301a20	-0.042993665
72	0xbd02d1a4	-0.03193821
73	0xbcd8d55e	-0.026468929
74	0xbcca40d2	-0.024689112
75	0xbcfebd58	-0.031096146
76	0x3e26f1ee	0.16303226
77	0x3d0bdeea	0.034148134
78	0xbd0aac35	-0.033855636
79	0x3d56a326	0.052401684
80	0xbd2a17a3	-0.041526448
81	0x3c387e96	0.011260649
82	0x3c986cdd	0.018606598
83	0x3b8887b7	0.004166569
84	0x3cdd859d	0.02704125
85	0xbc8c6629	-0.017138558
86	0xbdb4153d	-0.087931134
87	0xbd185c33	-0.037197303
88	0x3da71065	0.08157424
89	0x3e0c941a	0.13728371
90	0x3d9bbc44	0.07604268
91	0xbdb3743c	-0.08762404
92	0xbd2ee462	-0.04269827
93	0x3d2fd126	0.04292407
94	0x3e0bd13f	0.1365404
95	0x3ddb9791	0.107222684
96	0xbcf085f6	-0.029360753
97	0x3d16d049	0.03681973
98	0x3d55dfa7	0.052215245
99	0xbc506832	-0.012720155
100	0xbc1ff7a8	-0.009763636
101	0x3da82c04	0.0821152
102	0xbd0b3937	-0.03399011
103	0x3d14bbb5	0.036311824
104	0x3ca4cf5b	0.020118406
105	0xbd8075e6	-0.06272487
106	0xbcfeae28	-0.031088904
107	0x3d3dc279	0.04632804
108	0x3d35a81a	0.044349767
109	0x3d080753	0.03321011
110	0xbad578d8	-0.0016286625
111	0xbded8e8b	-0.115994535
112	0xbd34b785	-0.04412033
113	0x3c1fa7a2	0.009744557
114	0x3d06dca7	0.032925274
115	0xbd98c1a7	-0.07458811
116	0x3dc61747	0.096724086
117	0xbdc7b051	-0.097504266
118	0xbcd42544	-0.025896676
119	0x3de59582	0.11210157
120	0xbdffad2b	-0.12484201
121	0xbd4abd54	-0.049496964
122	0xbd54a1b5	-0.05191203
123	0x3d83ed3d	0.06441734
124	0xbd3940ea	-0.045227922
125	0x3d8d68c6	0.069047496
126	0x3d714b2f	0.05890959
127	0x3bf39b2c	0.0074342694
128	0xbe21281e	-0.1573796
129	0xbe28496d	-0.1643426
130	0xbd9c6e84	-0.07638267
131	0xbd9e3024	-0.07724026
132	0x3d102b1e	0.03519737
133	0xbdcaad22	-0.09896304
134	0x3d6d12e8	0.05787936
135	0x3d245963	0.04012431
136	0x3dcafad7	0.09911125
137	0xbbbc2bd4	-0.0057425294
138	0x3d00bb8e	0.031428866
139	0xbccf944a	-0.025339264
140	0x3d12b722	0.03581918
141	0xbdcb3a81	-0.09923268
142	0xbdb181b1	-0.08667315
143	0xbd4c7401	-0.049915317
144	0x3d4379b1	0.047723476
145	0x3bc9be3a	0.00615671
146	0xbd4a5392	-0.049396105
147	0xbd052beb	-0.032512587
148	0x3d5aba05	0.05340006
149	0x3cdb1998	0.026745602
150	0xbce134ff	-0.02749109
151	0xbd1b4369	-0.037906084
152	0x3ca4d835	0.020122627
153	0xbd7c4a21	-0.061594132
154	0xbda40661	-0.08009029
155	0xbde0ec5f	-0.10982584
156	0x3d1ade52	0.037809677
157	0xbd4341a0	-0.047670007
158	0xbd9c6215	-0.07635895
159	0xbd6963c1	-0.0569799
160	0xbc7ca8c2	-0.015421094
161	0x3d854534	0.0650734
162	0x3b5e3d03	0.0033910878
163	0x3d006689	0.031347785
164	0x3da5114b	0.08059939
165	0xbbd4ce05	-0.006494286
166	0x3d9388d4	0.07203832
167	0x3d216ae4	0.03940858
168	0x3c5ee787	0.013605005
169	0xbcbf1fec	-0.023330651
170	0xbc9fda25	-0.0195132
171	0x3da5621a	0.08075352
172	0x3c243696	0.01002278
173	0xbce97d18	-0.028502032
174	0xbc72ce19	-0.014819645
175	0x3d459a2b	0.04824273
176	0x3d2b51b1	0.041825954
177	0xbbae8de9	-0.0053269756
178	0x3e87e205	0.26539627
179	0x3c11496a	0.008867601
180	0x3d881da9	0.06646282
181	0x3d8c7549	0.06858308
182	0xbdb64ac0	-0.08900976
183	0xbdd25fb8	-0.10272163
184	0x3d7946c1	0.06085849
185	0xbc9ef865	-0.019405553
186	0xbe515fd1	-0.20446707
187	0xbcdfe9cc	-0.027333163
188	0xbd16f115	-0.036851007
189	0xbca5933e	-0.020211812
190	0xbdd9cb04	-0.10634425
191	0xbd068d6b	-0.03284971
192	0xbe2d7b66	-0.16941604
193	0xbd9add5b	-0.075617515
194	0x3d08dfe3	0.03341664
195	0x3ce7e2dc	0.028306417
196	0xbc2d87ec	-0.010591488
197	0xbc525ce5	-0.012839531
198	0x3d6e385f	0.05815923
199	0x3e06e54c	0.13173407
200	0xbbe2ba22	-0.0069191614
201	0x3c4eaf7f	0.012615084
202	0x3da939d1	0.08262981
203	0x3d9d9428	0.07694274
204	0xbb752e41	-0.0037411603
205	0xbcbf90a9	-0.023384409
206	0xbdc611cc	-0.09671363
207	0x3d182476	0.037144147
208	0x3e6bcbf1	0.23027016
209	0xbd272267	-0.040804293
210	0x3d43200c	0.047637984
211	0xbc584fce	-0.013202621
212	0xbe1ab1a3	-0.15106826
213	0xbdcf526f	-0.10123145
214	0xbdfcd0e1	-0.12344528
215	0x3e20c991	0.15701891
216	0x3dfa1a98	0.122121036
217	0xbc2554e7	-0.010091043
218	0x3df9e354	0.122015625
219	0xbcb5f523	-0.022211617
220	0x3d69cb4c	0.057078645
221	0xbd4db032	-0.05021686
222	0xbd95a9d3	-0.07307782
223	0x3e4f5fdb	0.2025141
224	0x3dd02831	0.10163916
225	0x3d2b83fc	0.041873917
226	0x3d95081f	0.072769396
227	0xbcc8d431	-0.024515243
228	0x3d2de2d6	0.042452656
229	0xbc6ef09d	-0.014583734
230	0xbc0dd33c	-0.008656319
231	0x3d89735b	0.067114554
232	0x3c335cf4	0.010947455
233	0x3cfb7383	0.030694729
234	0x3d68019b	0.056642156
235	0x3cc11038	0.023567304
236	0x3d516681	0.051123146
237	0x3c73240f	0.01484014
238	0x3d8dabe2	0.0691755
239	0xbccb5e30	-0.024825186
240	0xbe536a67	-0.20646058
241	0x3e267557	0.16255699
242	0xbc729817	-0.014806769
243	0x3dd51c9f	0.1040585
244	0x3dedd194	0.116122395
245	0x3d7e170d	0.0620337
246	0xbd6d0fb9	-0.057876322
247	0xbd92d06f	-0.07168662
248	0xbda365ba	-0.07978387
249	0xbd145df2	-0.036222406
250	0xbddc2c50	-0.107506394
251	0xbd10197c	-0.035180554
252	0xbd8d2dd4	-0.06893507
253	0xbda571a7	-0.08078318
254	0xbda6bc0e	-0.08141337
255	0xbd2aeda7	-0.04173055

encoding_layer.layer.0.bias f4 [64]
0	0x3d90a55b	0.07062789
1	0xbccc5a02	-0.024945263
2	0x3d12c265	0.03582992
3	0xbcf0f44a	-0.029413361
4	0xbcc74fe9	-0.024330096
5	0x3db52698	0.08845252
6	0x3cfd6887	0.030933632
7	0xbd3a5464	-0.045490637
8	0x3cd6e45a	0.026231933
9	0xbd216de8	-0.039411455
10	0xbd9d6ef4	-0.07687178
11	0xbdaff783	-0.08592131
12	0xbbb86a84	-0.005627932
13	0x3d2e4d5b	0.04255424
14	0xbc8822bb	-0.016618123
15	0xbcd0f33b	-0.025506606
16	0xbc962938	-0.018330202
17	0xbc8726fa	-0.016498078
18	0x3cd76b2a	0.026296217
19	0x3d2a8d42	0.04163862
20	0xbd064c8f	-0.032787856
21	0xbc4a62d8	-0.012352668
22	0xbd8ae2d7	-0.067815475
23	0xbc918f91	-0.017768653
24	0xbd37a0ba	-0.044831015
25	0xbd93656e	-0.071970806
26	0x3d7c346a	0.061573423
27	0xbcb61e44	-0.022231229
28	0x3d59f11b	0.05320845
29	0xbc3cdafc	-0.011526819
30	0x3ca559d0	0.020184427
31	0xbd8e857a	-0.069590524
32	0x3d207ebf	0.039183374
33	0x3d35f816	0.044426046
34	0x3aef8328	0.001827334
35	0x3c372c06	0.01117993
36	0x3ad2f51a	0.0016094774
37	0xbdc79dc2	-0.09746887
38	0xbdc36e46	-0.09542517
39	0xbd490aba	-0.049082495
40	0x3d83ad74	0.06429568
41	0x36dd579d	6.596513e-06
42	0x3c8113e3	0.015756553
43	0x3d70cf6d	0.058791567
44	0xbc53b682	-0.012921931
45	0x3cdab85f	0.026699243
46	0x3c23ef08	0.01000572
47	0x3c44fb14	0.012022752
48	0xbdb4c23f	-0.08826112
49	0xbc3efd02	-0.011657001
50	0xbbd9f943	-0.0066520288
51	0xbbc89eec	-0.0061224606
52	0x3ce5aeb4	0.028037407
53	0x3d41254b	0.047154706
54	0x398e67ac	0.00027161592
55	0x3d8389b4	0.06422749
56	0x3a9039d1	0.0011003559
57	0xbd7df035	-0.061996657
58	0x3d0aaf0c	0.033858344
59	0x3d54926b	0.051897448
60	0xbd608486	-0.054813884
61	0xbcc2e79d	-0.023792082
62	0xbd80b32b	-0.062841736
63	0x3cfa5d41	0.030562045

relational_layer.layers.0.att_src f4 [1, 1, 64]
0	0x3ced7835	0.028987983
1	0x3dd29703	0.102827094
2	0xbea54652	-0.32280213
3	0x3d9d2611	0.07673276
4	0xbe909a2c	-0.28242624
5	0xbe59448c	-0.21217555
6	0x3eb91c4b	0.36154398
7	0x3e527517	0.20552479
8	0x3e24d519	0.16096915
9	0xbf0f4ac9	-0.5597349
10	0x3e47274c	0.19448584
11	0xbec86849	-0.39142063
12	0x3e27def0	0.16393638
13	0x3e0c56b7	0.13704954
14	0x3ed26dc1	0.4109936
15	0xbc8abdb7	-0.016936166
16	0xbe8743dc	-0.2641896
17	0x3e852766	0.2600662
18	0x3edb1624	0.4279033
19	0xbeb55935	-0.35419622
20	0x3d4b1644	0.04958178
21	0xbe10baab	-0.14133708
22	0xbdcda498	-0.100411594
23	0x3e8a2dda	0.26988107
24	0xbd77d2b7	-0.060503688
25	0xbe8a268f	-0.26982543
26	0xbed6132e	-0.41811508
27	0x3e5c9c98	0.21544111
28	0x3df9c9b2	0.121966735
29	0xbed1ab25	-0.40950885
30	0xbe84da7b	-0.25947937
31	0xbda79f25	-0.08184651
32	0x3e388034	0.18017656
33	0x3de11320	0.10989976
34	0x3efe38dc	0.49652755
35	0xbe9a9da3	-0.30198392
36	0x3e2d943e	0.16951081
37	0xbd8471d7	-0.06467026
38	0xbe99ea79	-0.300617
39	0x3dd73350	0.10507834
40	0x3e74b700	0.23897934
41	0xbe536cfa	-0.2064704
42	0xbd8fd7b5	-0.07023565
43	0x3d858bad	0.06520782
44	0x3f111f40	0.5668831
45	0xbe2c7256	-0.1684049
46	0x3e1c9f03	0.15295033
47	0x3ee42da5	0.44566074
48	0xbec4a82b	-0.38409552
49	0xbe8559db	-0.26045117
50	0x3cf4427f	0.029816864
51	0x3e89a95e	0.2688703
52	0x3e2f193e	0.17099473
53	0xbcc88e69	-0.024481969
54	0xbea1a87f	-0.31573865
55	0x3e779397	0.24177395
56	0xbe779c61	-0.24180748
57	0xbe8a10ce	-0.26965946
58	0xbe70eb0f	-0.23527168
59	0xbd646392	-0.05575902
60	0xbd0bcaf6	-0.034129106
61	0x3e481855	0.19540532
62	0x3e92a6c9	0.28642872
63	0x3ea33e93	0.31883678

relational_layer.layers.0.att_dst f4 [1, 1, 64]
0	0xbee7ddae	-0.45286316
1	0xbdbe101f	-0.092804186
2	0x3ea2b6b2	0.3178001
3	0xbe6e5d50	-0.23277783
4	0xbec53420	-0.3851633
5	0x3d1ca7a2	0.038245805
6	0xbe7a4dad	-0.24443693
7	0xbec488e5	-0.38385692
8	0x3e92415e	0.28565496
9	0xbe792a95	-0.2433265
10	0xbe2c2ca1	-0.168139
11	0x3dcb9d5c	0.09942123
12	0x3ec0f5bd	0.37687483
13	0xbe2dd481	-0.16975595
14	0xbda08b6c	-0.078390926
15	0x3d0866e3	0.033301245
16	0xbe646fd3	-0.22308283
17	0xbe059546	-0.13045225
18	0xbb83f358	-0.0040268116
19	0x3dbde4c3	0.092721485
20	0x3e1166e9	0.14199413
21	0xbd240639	-0.040044997
22	0xbd18f7ec	-0.03734581
23	0xbcae2ee9	-0.021262603
24	0xbe86eb55	-0.2635142
25	0x3dfc49d6	0.123187706
26	0x3e2efc41	0.17088415
27	0x3d882484	0.0664759
28	0xbb319f5e	-0.0027103047
29	0xbe446d12	-0.19182232
30	0xbf181271	-0.5940314
31	0xbe601dc2	-0.21886352
32	0x3ea9ad46	0.3314001
33	0xbd5413ce	-0.0517767
34	0xbea14a40	-0.3150196
35	0x3e5489f1	0.20755745
36	0x3e84e210	0.25953722
37	0x3ec34549	0.38138798
38	0x3cfa950d	0.030588651
39	0x3d7446b5	0.059637744
40	0xbe6637f9	-0.2248229
41	0xbecd5f2a	-0.40111667
42	0x3e53695d	0.20645662
43	0x3e770281	0.24122049
44	0x3e57c5b4	0.21071512
45	0x3e86ea28	0.26350522
46	0xbd470382	-0.04858733
47	0xbe1b6cbc	-0.15178198
48	0x37fb9e44	2.999523e-05
49	0xbe07eab4	-0.13273126
50	0xbe1be07d	-0.15222354
51	0xbe5ad97b	-0.21372025
52	0xbee511f2	-0.44740254
53	0xbeb17c69	-0.3466523
54	0xbe29de32	-0.16588667
55	0xbebd6bcb	-0.36996302
56	0xbeed386e	-0.46332115
57	0xbec65f26	-0.38744467
58	0xbd14f968	-0.036370665
59	0x3e9a5c5d	0.30148593
60	0xbe5d85e4	-0.21633106
61	0xbeae5422	-0.34048563
62	0xbea379de	-0.31928915
63	0xbf0b1c60	-0.5434017

relational_layer.layers.0.bias f4 [64]
0	0x3d4e4110	0.050355017
1	0xbb11b645	-0.0022233885
2	0xbd6e138e	-0.058124118
3	0x3ca4da0b	0.020123502
4	0xbcff43ae	-0.031160202
5	0x3c40135b	0.011723365
6	0xbd056a78	-0.03257224
7	0x3b3adeb8	0.0028514098
8	0xbd8948b8	-0.06703323
9	0xbd368b67	-0.04456654
10	0xbd8d5ce3	-0.06902482
11	0x3d7315e8	0.059347063
12	0xbda36544	-0.07978299
13	0x3d77445a	0.06036792
14	0xbd074ce8	-0.033032328
15	0x3cc00a31	0.02344236
16	0x3dd415f8	0.10355753
17	0xbc8be4f0	-0.01707694
18	0x3c42e80a	0.011896143
19	0x3c97b573	0.018519139
20	0xbddf9955	-0.10917918
21	0x3d088c45	0.033336896
22	0xbdda3df1	-0.10656346
23	0xbd7ac951	-0.061227147
24	0x3d53cbdf	0.0517081
25	0x3cc1dc37	0.023664577
26	0x3d174ab9	0.036936495
27	0xbc7e84cd	-0.015534592
28	0x3bd6d93f	0.0065566595
29	0x3d5f4eb8	0.05451843
30	0xbb2ab2f0	-0.0026046596
31	0x3db47e44	0.08813146
32	0x3be2e4ae	0.0069242334
33	0xbb3b2318	-0.0028554853
34	0xbd564d4f	-0.05231982
35	0x3d24bdb4	0.040219977
36	0xbc961d43	-0.0183245
37	0xbd6e3a51	-0.058161084
38	0x3cb638f2	0.02224395
39	0xbbf5d88e	-0.007502622
40	0xbd0e6072	-0.034759946
41	0xbd280a4d	-0.04102545
42	0x3c662778	0.014047496
43	0x3d16396d	0.03667586
44	0x3cd72775	0.026263932
45	0x3b6e9342	0.003640369
46	0x3cf974ee	0.030451264
47	0xbcffa3eb	-0.031206092
48	0x3c9e01d7	0.019287987
49	0xbb8f5981	-0.0043746834
50	0x3c2f7365	0.010708665
51	0x3c25c290	0.010117188
52	0xbd1f8020	-0.03894055
53	0xbd769bdf	-0.060207244
54	0x3b72e69c	0.0037063723
55	0xbd8e6948	-0.069536746
56	0x3d65b75d	0.056083072
57	0xbd83d8d0	-0.06437838
58	0xbabb2b6e	-0.0014279911
59	0x3d1949ed	0.037424017
60	0x3cf91100	0.030403614
61	0xbcd042dd	-0.025422508
62	0xbd2e94d7	-0.042622413
63	0xbcb4342c	-0.021997534

relational_layer.layers.0.lin_src.weight f4 [64, 64]
0	0xbd830c99	-0.06398887
1	0xbd21d179	-0.03950641
2	0x3e7b1d31	0.24522854
3	0xbec03f6a	-0.3754838
4	0x3e00526d	0.12531443
5	0x3c66befc	0.01408362
6	0xbdd9ac70	-0.10628593
7	0xbe824600	-0.2544403
8	0xbbd0c95b	-0.0063716597
9	0x3e4e5a24	0.20151573
10	0x3da29e22	0.07940318
11	0x3c95dfd1	0.0182952
12	0xbe91cec5	-0.28478065
13	0x3c8cc280	0.017182589
14	0xbe847435	-0.2586991
15	0xbc1333e3	-0.008984539
16	0x3e335b52	0.17515305
17	0xbda02b92	-0.078208104
18	0xbe8cbab0	-0.2748618
19	0xbdff6ede	-0.12472318
20	0xbde580fc	-0.112062424
21	0xbd6e6fff	-0.058212277
22	0xbe2da475	-0.16957267
23	0x3d2a2bde	0.04154574
24	0xbe6e80e9	-0.23291363
25	0xbc731f66	-0.014839029
26	0xbc9b3807	-0.018947614
27	0xbe2cbb62	-0.16868356
28	0x3e4c2974	0.19937688
29	0x3d0d94d0	0.034565747
30	0x3dc15b20	0.09441209
31	0xbe2a6300	-0.16639328
32	0xb9c6f735	-0.00037949687
33	0xbe66d653	-0.22542696
34	0xbd524125	-0.051331658
35	0xbe567be0	-0.20945692
36	0x3cdd810e	0.027039077
37	0x3de29523	0.11063602
38	0xbd582430	-0.052768886
39	0x3e1d1e51	0.15343596
40	0xbbb12de4	-0.005407082
41	0xbe64d7f2	-0.22348002
42	0x3d9e1dfc	0.07720563
43	0xbd71b01b	-0.059005838
44	0x3e68e2c7	0.22742759
45	0xbe5d7c94	-0.21629554
46	0xbe36ff13	-0.1787074
47	0x3c694696	0.01423802
48	0xbe51c3b7	-0.20484816
49	0x3b600fb3	0.0034189045
50	0xbe2741d1	-0.163337
51	0x3e0bf621	0.1366811
52	0x3daaa83a	0.08332868
53	0xbe388529	-0.18019547
54	0x3d872b5f	0.06600069
55	0xbdf5550f	-0.11979114
56	0x3dd4957b	0.10380074
57	0x3e9eec7b	0.31039795
58	0xbe8d5e35	-0.27610937
59	0x3c7f87eb	0.01559637
60	0xbdfa686e	-0.1222695
61	0xbe20187b	-0.15634339
62	0x3e796357	0.24354301
63	0xbe5b0afc	-0.21390909
64	0xbc6eaa14	-0.014566917
65	0xbe79f2c3	-0.24409012
66	0xbe510717	-0.20412861
67	0xbd29f6ba	-0.041495062
68	0xbe0300a3	-0.12793212
69	0x3d829d24	0.063776284
70	0x3dcea80c	0.10090646
71	0xbe2c470c	-0.16823977
72	0x3e299000	0.16558838
73	0xbe36afaf	-0.17840455
74	0xbbf76e68	-0.0075510032
75	0x3da0db90	0.07854378
76	0x3dd53b30	0.1041168
77	0x3eaedd1f	0.34153077
78	0x3c418ec0	0.011813819
79	0x3dc9bd5e	0.09850572
80	0xbe16d2d9	-0.1472887
81	0xbe57ffbb	-0.21093647
82	0x3e314550	0.17311597
83	0x3da4b2cc	0.08041915
84	0xbd776597	-0.060399618
85	0xbdaf33c9	-0.08554799
86	0xbddaf11d	-0.1069052
87	0xbe052a50	-0.13004422
88	0x3d9ae334	0.07562867
89	0x3d4c7bd8	0.049922794
90	0x3c8457bd	0.016155118
91	0x3e68e879	0.22744931
92	0x3d66cf3e	0.056349985
93	0x3db55543	0.08854153
94	0x3ddc6a53	0.10762467
95	0xbe416bc7	-0.1888877
96	0xbcf1e228	-0.029526785
97	0x3e108a24	0.14115196
98	0x3cfe579a	0.031047631
99	0x3d8d8b26	0.06911306
100	0xbd600512	-0.054692335
101	0xbd9b1706	-0.07572751
102	0x3d16f3d8	0.03685364
103	0x3e188ed3	0.14898233
104	0x3d0e2600	0.03470421
105	0xbcda02ab	-0.0266126
106	0x3db3534d	0.08756123
107	0xbde516d4	-0.11185995
108	0x3bfe7742	0.0077656815
109	0x3dca83aa	0.09888394
110	0xbd2df6de	-0.04247176
111	0xbe06cf19	-0.13164939
112	0x3dd1aa86	0.10237603
113	0xbd524c27	-0.051342156
114	0xbbdae799	-0.0066804406
115	0xbde4a72f	-0.111647
116	0xbd0b184a	-0.03395871
117	0x3c0eb442	0.008709969
118	0xbdd208e5	-0.10255603
119	0x3e82ccc2	0.25546843
120	0xbdc6d20c	-0.09708032
121	0x3ea30485	0.31839386
122	0xbe0cc41e	-0.13746688
123	0xbbc425c3	-0.005985947
124	0xbe042abd	-0.12906928
125	0xbe2643a3	-0.16236739
126	0xbd303d63	-0.043027293
127	0xbdb5dcd9	-0.08880014
128	0xbd94ac97	-0.072594814
129	0x3d1c911e	0.038224332
130	0xbe4e2062	-0.2012954
131	0x3e3e8ac2	0.1860762
132	0xbe6e3ef7	-0.23266207
133	0xbd495669	-0.049154673
134	0xbe0b7f55	-0.13622792
135	0x3e593bf2	0.21214274
136	0xbe465d44	-0.19371516
137	0x3dfa82e4	0.12231997
138	0x3d916ef6	0.07101242
139	0x3e0370f4	0.12836057
140	0x3da6485c	0.0811927
141	0x3d6fd62f	0.05855387
142	0x3e02678d	0.12734814
143	0x3e436873	0.19082813
144	0xbe905799	-0.28191832
145	0x3cd5fb0c	0.026120685
146	0x3dc383b7	0.09546607
147	0x3d9b81aa	0.07593091
148	0x3c3e6b3a	0.0116222445
149	0xbe8f12cf	-0.27944037
150	0x3da6f974	0.08153048
151	0xbdbf2c79	-0.09334654
152	0x3d817072	0.06320275
153	0xbe8df55b	-0.27726254
154	0x3bcac595	0.0061881044
155	0x3dcd32d1	0.10019458
156	0xbe01b844	-0.12667948
157	0x3ebd3bcf	0.36959693
158	0xbc98cdce	-0.018652823
159	0xbdc1c118	-0.09460658
160	0xbd67f470	-0.0566296
161	0x3e35c10c	0.17749423
162	0x3d3c7a4c	0.04601507
163	0x3cdcc9d5	0.02695171
164	0x3d140507	0.036137607
165	0xbdd12a58	-0.102131546
166	0x3e358359	0.17725886
167	0xbe5b86ec	-0.21438187
168	0xbdf06463	-0.11737897
169	0x3e3a2eae	0.1818187
170	0x3d6c89bb	0.057748538
171	0x3dcc8d2a	0.099878624
172	0xbdca6a4d	-0.098835565
173	0x3cc2ec2c	0.023794256
174	0x3d10b5ee	0.03532975
175	0xbdebb902	-0.11509897
176	0xbd80eac0	-0.06294775
177	0xbe006bc3	-0.12541108
178	0xbd7ddee0	-0.06198013
179	0x3d95cc6b	0.0731438
180	0x3df5ad10	0.119959
181	0x3d887648	0.06663185
182	0x3e9446f0	0.2896037
183	0xbcb6f4b0	-0.022333473
184	0x3dc61204	0.09671405
185	0x3d511b53	0.05105145
186	0xbcbab124	-0.022789545
187	0xbd8da088	-0.069153845
188	0xbdc2c957	-0.09511059
189	0xbe17e709	-0.14834227
190	0x3db04e6f	0.0860871
191	0xbe2c61a2	-0.16834119
192	0xbe52780e	-0.2055361
193	0xbbfdfb21	-0.007750884
194	0x3e0717ea	0.13192716
195	0xbe10c35e	-0.14137027
196	0xbde5ea2e	-0.11226307
197	0xbde04254	-0.10950151
198	0xbe0b2df9	-0.13591756
199	0xbd604eb3	-0.054762553
200	0xbdb76dfc	-0.08956525
201	0xbce78b11	-0.028264554
202	0x3dc7f0c0	0.09762716
203	0x3ddfefe7	0.109344296
204	0xbdc316a1	-0.095258005
205	0xbe8948ad	-0.2681326
206	0xbde7ac75	-0.113121904
207	0xbc34e5b3	-0.011041093
208	0xbcb88df5	-0.022528628
209	0xbdc582a2	-0.09644057
210	0x3ca14434	0.019685842
211	0x3dc4a208	0.096012175
212	0xbe4b95eb	-0.19881408
213	0xbe46b22f	-0.19403909
214	0x3d288f4c	0.041152284
215	0x3e1f074e	0.1553013
216	0xbcb62747	-0.022235526
217	0x3e9f2ab1	0.31087258
218	0xbe5bbfbc	-0.2145986
219	0xbe0ece1e	-0.13945815
220	0x3e8dc38b	0.2768825
221	0x3e082c94	0.13298255
222	0xbca21810	-0.019786865
223	0xbdfa7a5f	-0.12230372
224	0x3cb9b677	0.022670014
225	0x3e3775f0	0.17916083
226	0xbea13c53	-0.31491336
227	0x3c196100	0.0093615055
228	0xbd6c75c1	-0.057729486
229	0xbe38d598	-0.1805023
230	0xbea6adde	-0.32554525
231	0x3c2b96c0	0.010472953
232	0xbd1d3742	-0.038382776
233	0xbcaf40b7	-0.021393163
234	0xbdc576ee	-0.09641825
235	0xbd5a7406	-0.053333305
236	0x3e039614	0.12850219
237	0xbe66cb5b	-0.22538511
238	0xb9951f63	-0.0002844288
239	0xbdcaf078	-0.09909147
240	0xbe09bb04	-0.13450247
241	0x3d84718c	0.0646697
242	0x3de41c34	0.11138192
243	0x3e4c9150	0.19977307
244	0x3dfa9215	0.12234894
245	0x3d0c9ee9	0.034331236
246	0xbd10ba66	-0.035334013
247	0xbe2bd297	-0.16779552
248	0xbe14fdf2	-0.14549997
249	0xbe2b9214	-0.16754943
250	0x3d76bff0	0.06024164
251	0xbe0a8695	-0.13527901
252	0x3bab121b	0.005220664
253	0xbe8cde9e	-0.27513593
254	0x3e63e9e9	0.22257198
255	0xbe316a00	-0.17325592

relational_layer.layers.0.lin_dst.weight f4 [64, 64]
0	0xbd830c99	-0.06398887
1	0xbd21d179	-0.03950641
2	0x3e7b1d31	0.24522854
3	0xbec03f6a	-0.3754838
4	0x3e00526d	0.12531443
5	0x3c66befc	0.01408362
6	0xbdd9ac70	-0.10628593
7	0xbe824600	-0.2544403
8	0xbbd0c95b	-0.0063716597
9	0x3e4e5a24	0.20151573
10	0x3da29e22	0.07940318
11	0x3c95dfd1	0.0182952
12	0xbe91cec5	-0.28478065
13	0x3c8cc280	0.017182589
14	0xbe847435	-0.2586991
15	0xbc1333e3	-0.008984539
16	0x3e335b52	0.17515305
17	0xbda02b92	-0.078208104
18	0xbe8cbab0	-0.2748618
19	0xbdff6ede	-0.12472318
20	0xbde580fc	-0.112062424
21	0xbd6e6fff	-0.058212277
22	0xbe2da475	-0.16957267
23	0x3d2a2bde	0.04154574
24	0xbe6e80e9	-0.23291363
25	0xbc731f66	-0.014839029
26	0xbc9b3807	-0.018947614
27	0xbe2cbb62	-0.16868356
28	0x3e4c2974	0.19937688
29	0x3d0d94d0	0.034565747
30	0x3dc15b20	0.09441209
31	0xbe2a6300	-0.16639328
32	0xb9c6f735	-0.00037949687
33	0xbe66d653	-0.22542696
34	0xbd524125	-0.051331658
35	0xbe567be0	-0.20945692
36	0x3cdd810e	0.027039077
37	0x3de29523	0.11063602
38	0xbd582430	-0.052768886
39	0x3e1d1e51	0.15343596
40	0xbbb12de4	-0.005407082
41	0xbe64d7f2	-0.22348002
42	0x3d9e1dfc	0.07720563
43	0xbd71b01b	-0.059005838
44	0x3e68e2c7	0.22742759
45	0xbe5d7c94	-0.21629554
46	0xbe36ff13	-0.1787074
47	0x3c694696	0.01423802
48	0xbe51c3b7	-0.20484816
49	0x3b600fb3	0.0034189045
50	0xbe2741d1	-0.163337
51	0x3e0bf621	0.1366811
52	0x3daaa83a	0.08332868
53	0xbe388529	-0.18019547
54	0x3d872b5f	0.06600069
55	0xbdf5550f	-0.11979114
56	0x3dd4957b	0.10380074
57	0x3e9eec7b	0.31039795
58	0xbe8d5e35	-0.27610937
59	0x3c7f87eb	0.01559637
60	0xbdfa686e	-0.1222695
61	0xbe20187b	-0.15634339
62	0x3e796357	0.24354301
63	0xbe5b0afc	-0.21390909
64	0xbc6eaa14	-0.014566917
65	0xbe79f2c3	-0.24409012
66	0xbe510717	-0.20412861
67	0xbd29f6ba	-0.041495062
68	0xbe0300a3	-0.12793212
69	0x3d829d24	0.063776284
70	0x3dcea80c	0.10090646
71	0xbe2c470c	-0.16823977
72	0x3e299000	0.16558838
73	0xbe36afaf	-0.17840455
74	0xbbf76e68	-0.0075510032
75	0x3da0db90	0.07854378
76	0x3dd53b30	0.1041168
77	0x3eaedd1f	0.34153077
78	0x3c418ec0	0.011813819
79	0x3dc9bd5e	0.09850572
80	0xbe16d2d9	-0.1472887
81	0xbe57ffbb	-0.21093647
82	0x3e314550	0.17311597
83	0x3da4b2cc	0.08041915
84	0xbd776597	-0.060399618
85	0xbdaf33c9	-0.08554799
86	0xbddaf11d	-0.1069052
87	0xbe052a50	-0.13004422
88	0x3d9ae334	0.07562867
89	0x3d4c7bd8	0.049922794
90	0x3c8457bd	0.016155118
91	0x3e68e879	0.22744931
92	0x3d66cf3e	0.056349985
93	0x3db55543	0.08854153
94	0x3ddc6a53	0.10762467
95	0xbe416bc7	-0.1888877
96	0xbcf1e228	-0.029526785
97	0x3e108a24	0.14115196
98	0x3cfe579a	0.031047631
99	0x3d8d8b26	0.06911306
100	0xbd600512	-0.054692335
101	0xbd9b1706	-0.07572751
102	0x3d16f3d8	0.03685364
103	0x3e188ed3	0.14898233
104	0x3d0e2600	0.03470421
105	0xbcda02ab	-0.0266126
106	0x3db3534d	0.08756123
107	0xbde516d4	-0.11185995
108	0x3bfe7742	0.0077656815
109	0x3dca83aa	0.09888394
110	0xbd2df6de	-0.04247176
111	0xbe06cf19	-0.13164939
112	0x3dd1aa86	0.10237603
113	0xbd524c27	-0.051342156
114	0xbbdae799	-0.0066804406
115	0xbde4a72f	-0.111647
116	0xbd0b184a	-0.03395871
117	0x3c0eb442	0.008709969
118	0xbdd208e5	-0.10255603
119	0x3e82ccc2	0.25546843
120	0xbdc6d20c	-0.09708032
121	0x3ea30485	0.31839386
122	0xbe0cc41e	-0.13746688
123	0xbbc425c3	-0.005985947
124	0xbe042abd	-0.12906928
125	0xbe2643a3	-0.16236739
126	0xbd303d63	-0.043027293
127	0xbdb5dcd9	-0.08880014
128	0xbd94ac97	-0.072594814
129	0x3d1c911e	0.038224332
130	0xbe4e2062	-0.2012954
131	0x3e3e8ac2	0.1860762
132	0xbe6e3ef7	-0.23266207
133	0xbd495669	-0.049154673
134	0xbe0b7f55	-0.13622792
135	0x3e593bf2	0.21214274
136	0xbe465d44	-0.19371516
137	0x3dfa82e4	0.12231997
138	0x3d916ef6	0.07101242
139	0x3e0370f4	0.12836057
140	0x3da6485c	0.0811927
141	0x3d6fd62f	0.05855387
142	0x3e02678d	0.12734814
143	0x3e436873	0.19082813
144	0xbe905799	-0.28191832
145	0x3cd5fb0c	0.026120685
146	0x3dc383b7	0.09546607
147	0x3d9b81aa	0.07593091
148	0x3c3e6b3a	0.0116222445
149	0xbe8f12cf	-0.27944037
150	0x3da6f974	0.08153048
151	0xbdbf2c79	-0.09334654
152	0x3d817072	0.06320275
153	0xbe8df55b	-0.27726254
154	0x3bcac595	0.0061881044
155	0x3dcd32d1	0.10019458
156	0xbe01b844	-0.12667948
157	0x3ebd3bcf	0.36959693
158	0xbc98cdce	-0.018652823
159	0xbdc1c118	-0.09460658
160	0xbd67f470	-0.0566296
161	0x3e35c10c	0.17749423
162	0x3d3c7a4c	0.04601507
163	0x3cdcc9d5	0.02695171
164	0x3d140507	0.036137607
165	0xbdd12a58	-0.102131546
166	0x3e358359	0.17725886
167	0xbe5b86ec	-0.21438187
168	0xbdf06463	-0.11737897
169	0x3e3a2eae	0.1818187
170	0x3d6c89bb	0.057748538
171	0x3dcc8d2a	0.099878624
172	0xbdca6a4d	-0.098835565
173	0x3cc2ec2c	0.023794256
174	0x3d10b5ee	0.03532975
175	0xbdebb902	-0.11509897
176	0xbd80eac0	-0.06294775
177	0xbe006bc3	-0.12541108
178	0xbd7ddee0	-0.06198013
179	0x3d95cc6b	0.0731438
180	0x3df5ad10	0.119959
181	0x3d887648	0.06663185
182	0x3e9446f0	0.2896037
183	0xbcb6f4b0	-0.022333473
184	0x3dc61204	0.09671405
185	0x3d511b53	0.05105145
186	0xbcbab124	-0.022789545
187	0xbd8da088	-0.069153845
188	0xbdc2c957	-0.09511059
189	0xbe17e709	-0.14834227
190	0x3db04e6f	0.0860871
191	0xbe2c61a2	-0.16834119
192	0xbe52780e	-0.2055361
193	0xbbfdfb21	-0.007750884
194	0x3e0717ea	0.13192716
195	0xbe10c35e	-0.14137027
196	0xbde5ea2e	-0.11226307
197	0xbde04254	-0.10950151
198	0xbe0b2df9	-0.13591756
199	0xbd604eb3	-0.054762553
200	0xbdb76dfc	-0.08956525
201	0xbce78b11	-0.028264554
202	0x3dc7f0c0	0.09762716
203	0x3ddfefe7	0.109344296
204	0xbdc316a1	-0.095258005
205	0xbe8948ad	-0.2681326
206	0xbde7ac75	-0.113121904
207	0xbc34e5b3	-0.011041093
208	0xbcb88df5	-0.022528628
209	0xbdc582a2	-0.09644057
210	0x3ca14434	0.019685842
211	0x3dc4a208	0.096012175
212	0xbe4b95eb	-0.19881408
213	0xbe46b22f	-0.19403909
214	0x3d288f4c	0.041152284
215	0x3e1f074e	0.1553013
216	0xbcb62747	-0.022235526
217	0x3e9f2ab1	0.31087258
218	0xbe5bbfbc	-0.2145986
219	0xbe0ece1e	-0.13945815
220	0x3e8dc38b	0.2768825
221	0x3e082c94	0.13298255
222	0xbca21810	-0.019786865
223	0xbdfa7a5f	-0.12230372
224	0x3cb9b677	0.022670014
225	0x3e3775f0	0.17916083
226	0xbea13c53	-0.31491336
227	0x3c196100	0.0093615055
228	0xbd6c75c1	-0.057729486
229	0xbe38d598	-0.1805023
230	0xbea6adde	-0.32554525
231	0x3c2b96c0	0.010472953
232	0xbd1d3742	-0.038382776
233	0xbcaf40b7	-0.021393163
234	0xbdc576ee	-0.09641825
235	0xbd5a7406	-0.053333305
236	0x3e039614	0.12850219
237	0xbe66cb5b	-0.22538511
238	0xb9951f63	-0.0002844288
239	0xbdcaf078	-0.09909147
240	0xbe09bb04	-0.13450247
241	0x3d84718c	0.0646697
242	0x3de41c34	0.11138192
243	0x3e4c9150	0.19977307
244	0x3dfa9215	0.12234894
245	0x3d0c9ee9	0.034331236
246	0xbd10ba66	-0.035334013
247	0xbe2bd297	-0.16779552
248	0xbe14fdf2	-0.14549997
249	0xbe2b9214	-0.16754943
250	0x3d76bff0	0.06024164
251	0xbe0a8695	-0.13527901
252	0x3bab121b	0.005220664
253	0xbe8cde9e	-0.27513593
254	0x3e63e9e9	0.22257198
255	0xbe316a00	-0.17325592

action_layer.layer1.0.weight f4 [128, 128]
0	0xbb7f9ca4	-0.0039003277
1	0xbc1c34c4	-0.009534065
2	0xbda7088f	-0.08155929
3	0xbdd54a1f	-0.10414528
4	0x3d5c267c	0.05374764
5	0xbcc20f5f	-0.02368897
6	0xbe0e9318	-0.139233
7	0xbd79b245	-0.060961027
8	0x3d4c62e4	0.049898997
9	0x3d8df6cf	0.06931841
10	0x3d299dd8	0.041410297
11	0xbdc857d9	-0.097823806
12	0x3e096c72	0.13420275
13	0x3d21db96	0.039516054
14	0xbb4d45a9	-0.0031322038
15	0x3c47d47b	0.012196655
16	0xbc5d502f	-0.013507887
17	0x3d08b9bd	0.03338026
18	0xbcde7b42	-0.027158383
19	0xbd8eafe1	-0.0696714
20	0xbdc0e3da	-0.09418459
21	0x3ddffe15	0.10937134
22	0x3cbab4e5	0.022791335
23	0xbce19431	-0.027536483
24	0xbb4d7ea8	-0.003135601
25	0x3d104c18	0.03522882
26	0xbb1b3a84	-0.0023686
27	0xbc8f420e	-0.017487552
28	0x3d2bed89	0.041974578
29	0xbdc535a0	-0.09629369
30	0x39da29a6	0.0004161123
31	0x3d016156	0.031586967
32	0xbdc68036	-0.09692423
33	0xbdeb76b3	-0.114972495
34	0xbcc08684	-0.023501642
35	0x3d63bdf5	0.05560108
36	0x3dc7141d	0.09720633
37	0xbc4ee822	-0.012628587
38	0xbb6ed4e9	-0.0036442822
39	0x3d011f5b	0.031524044
40	0xbd8b45cc	-0.06800422
41	0xbd3cc392	-0.046084948
42	0xbc820563	-0.01587171
43	0xbc8548e3	-0.016270107
44	0x3d974b4e	0.0738741
45	0x3d8ed230	0.06973684
46	0x3cde47e5	0.027133891
47	0x3dc0d9a4	0.09416512
48	0xbd22d554	-0.039754227
49	0xbcefa2c7	-0.029252423
50	0x3b4469c5	0.002997027
51	0x3d8b8266	0.06811981
52	0x3c7887c3	0.015169087
53	0x3dd99cbc	0.10625598
54	0x3d9be764	0.07612494
55	0xbcf3a589	-0.02974202
56	0xba88583b	-0.0010402271
57	0x3db2d08e	0.08731185
58	0x3dbd214a	0.09234865
59	0xbd57646f	-0.052586015
60	0xbbf7f641	-0.0075671976
61	0x3de67859	0.11253423
62	0xbd5ad610	-0.053426802
63	0x3db244ad	0.08704505
64	0x3d9f5c88	0.07781321
65	0xbe2947b1	-0.16531254
66	0xbd804681	-0.062634476
67	0xbcdfbd8d	-0.027312065
68	0xbd1029a2	-0.035195954
69	0x3d9c5a6e	0.076344356
70	0xbd2db355	-0.042407352
71	0x3d4793fc	0.048725113
72	0x3dbc9c9d	0.09209559
73	0x3ce8736b	0.028375348
74	0x3cb98879	0.022648083
75	0xbd541940	-0.051781893
76	0x3c95edd8	0.01830189
77	0xbcbff88a	-0.023433942
78	0x3d62e5ad	0.055394817
79	0xbd2a23ba	-0.041537978
80	0x3d4ef79a	0.0505291
81	0xbcab082c	-0.02087792
82	0x3d191feb	0.037383955
83	0x3dcc7097	0.09982412
84	0xbdac1cf0	-0.08403957
85	0x3cc32729	0.023822384
86	0x3d56c913	0.052437853
87	0x3db1a73d	0.08674476
88	0x3d7e422e	0.062074833
89	0x3d0416b9	0.032248233
90	0x3d92b6f0	0.07163799
91	0x3a3fcae3	0.0007316304
92	0x3c10a25c	0.008827772
93	0xbe13e547	-0.14442931
94	0x3d45c53f	0.04828381
95	0xbe16d615	-0.14730103
96	0xbd2c60cb	-0.042084496
97	0xbd003d8f	-0.031308707
98	0x3c579ab4	0.013159443
99	0x3ddee0f2	0.10882749
100	0xbe00a627	-0.12563382
101	0xbd79cfc1	-0.060989145
102	0xbbbb735e	-0.00572054
103	0x3c8a4b37	0.016881568
104	0x3d022227	0.03177085
105	0x3d285d7b	0.041104775
106	0x3d172bb1	0.0369069
107	0x3d38d03e	0.04512047
108	0xbd93391f	-0.07188629
109	0xbca36461	-0.019945325
110	0x3dd1b05d	0.10238717
111	0x3db35c88	0.08757883
112	0x3d0865b4	0.033300117
113	0x3d56f286	0.052477382
114	0xbd15a116	-0.036530577
115	0x3d4f432d	0.050601173
116	0x3d354cdd	0.044262756
117	0xbb83beca	-0.0040205466
118	0xbd210c3f	-0.03931832
119	0x3d3db846	0.046318315
120	0xbd56a2ec	-0.05240147
121	0xbd2c7338	-0.04210207
122	0xbd3a6c45	-0.04551341
123	0xbd5d8739	-0.054084036
124	0xbd14b747	-0.0363076
125	0xbc476374	-0.012169708
126	0x3db0ee10	0.08639157
127	0xba9c53be	-0.0011926813
128	0x3d8f0811	0.069839604
129	0x3cc2a1f4	0.023758866
130	0xbd9b0e54	-0.07571092
131	0x3e06942a	0.13142458
132	0xbda1c72a	-0.07899316
133	0xbd395b93	-0.045253348
134	0x3ac199eb	0.0014770603
135	0x3e0910b8	0.13385284
136	0xbd02abe9	-0.031902228
137	0xbe25efa4	-0.16204697
138	0x3c91cbe5	0.01779742
139	0xbd5baaca	-0.053629674
140	0xbd7900af	-0.060791668
141	0x3d34fe87	0.04418805
142	0x3da485a4	0.080333024
143	0xbda8f192	-0.08249201
144	0x3a5676ce	0.00081811554
145	0x3d182c69	0.037151728
146	0xbce82303	-0.028337007
147	0x3dd35de4	0.103206426
148	0xbda5361e	-0.08066963
149	0xbd9a5b5b	-0.07536956
150	0xbc022209	-0.007942685
151	0xbc4bef1c	-0.012447145
152	0xbc0c9fe8	-0.0085830465
153	0xbe55de0c	-0.20885485
154	0xbcb403ea	-0.021974523
155	0x3e039e58	0.12853372
156	0x3d04bb14	0.032404974
157	0xbc0afb6b	-0.008482794
158	0x3debc61e	0.11512397
159	0xbdc5fdba	-0.09667535
160	0x3d893911	0.06700338
161	0xbd2a4f2a	-0.041579403
162	0x3d7b903d	0.061416853
163	0x3df53b97	0.119742565
164	0xbc0b1057	-0.008487782
165	0x3ca2c053	0.019867098
166	0xbdb500c3	-0.08838036
167	0xb9a13695	-0.0003074898
168	0xbcdeb6cb	-0.027186772
169	0x3e09fd8c	0.13475627
170	0xbd575911	-0.052575175
171	0xbe18a64d	-0.14907189
172	0xbc31d17e	-0.0108531695
173	0x3d928249	0.07153756
174	0xba36b6b2	-0.0006969973
175	0xbcea279c	-0.02858334
176	0x3d6ddc07	0.058071163
177	0x3c464119	0.012100481
178	0x3d559781	0.05214644
179	0xbdba3def	-0.09093844
180	0xbe5ab9a5	-0.2135988
181	0x3d97128a	0.07376583
182	0xbc5706ac	-0.013124149
183	0x3d964045	0.07336477
184	0xbd9d1813	-0.076706074
185	0x3d90570d	0.070478536
186	0x3b72812f	0.003700327
187	0x3d6a13d9	0.057147834
188	0xbd1e05af	-0.03857964
189	0x3da81705	0.082075156
190	0xbdcda81e	-0.100418314
191	0x3d1083bc	0.03528188
192	0xbe1625de	-0.14662883
193	0xbcb714ac	-0.022348724
194	0xbdc1c71f	-0.094618075
195	0x3de4fef7	0.11181443
196	0x3bcadf9d	0.0061912076
197	0xbcfa2ca1	-0.030538859
198	0x3d4ef180	0.05052328
199	0xbd2bf5e4	-0.041982546
200	0x3dd609d0	0.1045109
201	0xbc17ccc8	-0.009265132
202	0xbd170fb1	-0.0368802
203	0x3ca4b3a5	0.020105192
204	0xbe21b8ae	-0.15793106
205	0x3d5b5eb3	0.05355711
206	0x3ccf9d23	0.025343483
207	0x3dba7883	0.09105017
208	0xbcb741ec	-0.022370301
209	0xbb95f516	-0.0045763357
210	0x3c144973	0.009050715
211	0xbc8e7b9b	-0.017392924
212	0xbd0f4366	-0.034976386
213	0x3cfc8475	0.03082488
214	0xbd956c7d	-0.07296083
215	0x3d2ec39e	0.042667024
216	0x3b8b296b	0.0042468808
217	0xbdb23eb4	-0.08703366
218	0x3d325e7a	0.04354713
219	0x3d5d2ead	0.05399959
220	0x3d8d19b4	0.06889668
221	0x3df19fd3	0.11798062
222	0x3dad3df0	0.08459079
223	0xbd11ec24	-0.035625592
224	0xbc97ef88	-0.018546835
225	0x3d876689	0.06611354
226	0xbc86c0e4	-0.0164494
227	0xbb14e503	-0.002271951
228	0xbd96296d	-0.0733212
229	0x3c809732	0.015697096
230	0x3cc64542	0.024202947
231	0x3c4493fd	0.011998174
232	0xbda39cda	-0.079889014
233	0xbe417050	-0.188905
234	0xbdb26013	-0.08709731
235	0xbd9fa176	-0.07794468
236	0x3d87c65b	0.0662963
237	0x3c067d48	0.00820858
238	0xbd00a06f	-0.031403
239	0x3dba87c6	0.09107928
240	0xbbdd83fa	-0.0067601176
241	0xbcb544e1	-0.02212757
242	0xbc327f57	-0.010894618
243	0x3d81b562	0.06333424
244	0xbd389d88	-0.04507211
245	0x3d4fc3c9	0.050723825
246	0xbd2a9856	-0.041649185
247	0x3c82253d	0.015886897
248	0xbc4035ea	-0.011731604
249	0x3d851ef0	0.065000415
250	0xbd3d028b	-0.046145003
251	0xbd9c7ef1	-0.076414
252	0xbd17aa3d	-0.037027586
253	0x3d34b7bf	0.044120546
254	0xbdb582b0	-0.08862817
255	0x3d92de01	0.0717125

action_layer.layer1.0.bias f4 [128]
0	0x3dbd33e8	0.09238416
1	0xbd48027b	-0.04883049
2	0x3cd1ef1b	0.02562671
3	0xbc71da57	-0.014761529
4	0xbd74b7bc	-0.059745535
5	0xbdd2da22	-0.10295512
6	0xbcc3bfb1	-0.023895117
7	0x3973a05d	0.00023234026
8	0xbd9a6c66	-0.075402066
9	0xbdb32dfc	-0.08749005
10	0xbd2f3912	-0.042779036
11	0xbde8dc31	-0.11370123
12	0x3d5064a2	0.05087722
13	0x3d23bad9	0.039973114
14	0xbc89fedd	-0.016845161
15	0x3d0f0a03	0.034921657
16	0xbdc96217	-0.09833162
17	0xbc633f72	-0.013870107
18	0xbca283d5	-0.019838253
19	0xbd72bb68	-0.059260756
20	0xbdd29ab0	-0.102834105
21	0xbdac43c3	-0.08411362
22	0x3d97d1eb	0.074130856
23	0x3d98837b	0.07446953
24	0xbd964779	-0.07337851
25	0x3dc0993f	0.094042294
26	0xbdc9bbe6	-0.09850292
27	0x3c988b32	0.018621061
28	0xbb2cc636	-0.002636326
29	0x3c836941	0.0160414
30	0xbd2bd236	-0.04194852
31	0x3d810652	0.06300034
32	0x3d0c6011	0.034271304
33	0x3cae8bb4	0.02130685
34	0x3d64b1ad	0.055833507
35	0x3d4965a5	0.0491692
36	0xbd39e4b2	-0.045384116
37	0xbc336be1	-0.010951013
38	0x3d16ece2	0.036847003
39	0xbd941a1f	-0.07231545
40	0x3d010d48	0.031506807
41	0x3d7de46b	0.061985414
42	0x3c40635a	0.011742437
43	0xbb78d13f	-0.0037966517
44	0x3d884cd9	0.066552825
45	0xbd98da17	-0.07463472
46	0xbdd5a218	-0.104313076
47	0xbb884eb8	-0.0041597746
48	0x3d32b6d5	0.043631393
49	0xbd2ce81f	-0.042213555
50	0xbd08b410	-0.033374846
51	0xbdb73ceb	-0.08947166
52	0x3c8f7cd9	0.017515587
53	0xbc780355	-0.015137513
54	0xbd98420c	-0.074344724
55	0xbd3d83f9	-0.046268437
56	0xbc162631	-0.009164379
57	0xbd323ecc	-0.04351692
58	0x3cbd37f6	0.023097973
59	0xbd504c7d	-0.050854195
60	0x3c84f1d4	0.016228594
61	0xbdd9d5d4	-0.106364876
62	0xbc202a60	-0.009775728
63	0xbda19025	-0.078888215
64	0x3ccafb2a	0.024777967
65	0x3c8848a3	0.016636198
66	0xbdb72a18	-0.089435756
67	0xbd9fb4af	-0.077981345
68	0x3d159ba6	0.03652539
69	0xbd40dea2	-0.04708732
70	0x3cbe583d	0.023235435
71	0xbda3bfbc	-0.07995555
72	0xbca6b829	-0.020351486
73	0x3d1d3347	0.03837898
74	0xbcb1b8e5	-0.02169461
75	0xbd39497e	-0.045236103
76	0xbd7b2be8	-0.06132117
77	0x3d4b05e8	0.04956618
78	0xbd4869d9	-0.04892907
79	0x3d63dd53	0.055630993
80	0xbd7a0c9c	-0.06104718
81	0x3d93f19a	0.07223816
82	0xbd8068e8	-0.06270009
83	0xbdc76208	-0.09735495
84	0xbd23fb07	-0.04003432
85	0x3cc0c99c	0.023533635
86	0xbcd2e3d7	-0.025743408
87	0xbd6f311f	-0.058396455
88	0x3daa972d	0.08329616
89	0x3d18dc6b	0.037319582
90	0x3d367d97	0.044553366
91	0xbd9e6c35	-0.077354826
92	0xbc5f89f0	-0.013643727
93	0xbdbdbb7f	-0.09264278
94	0x3d9ea5a1	0.07746435
95	0xbcf29d58	-0.029616043
96	0xbd2f82dc	-0.042849407
97	0xbcf6980b	-0.030101797
98	0xbdc2000f	-0.094726674
99	0xbd0b2176	-0.033967458
100	0xbd5c2395	-0.05374487
101	0xbc9bd855	-0.019024054
102	0xbdb5063f	-0.08839082
103	0x3c490a01	0.0122704515
104	0xbdd5b07b	-0.104340516
105	0x3c9c5405	0.019083032
106	0xbda949cd	-0.082660295
107	0xbdaeb630	-0.08530843
108	0xbdaec6f9	-0.08534045
109	0xbdb9d5fe	-0.09074019
110	0x3d1a6731	0.037696067
111	0xbc4cbdf9	-0.012496465
112	0xbd5b05b3	-0.053472232
113	0xbc19db28	-0.00939063
114	0xbcf469f6	-0.029835682
115	0x3ca5993d	0.020214671
116	0xbd8d8ea8	-0.06911975
117	0xbc9be696	-0.01903085
118	0x3d49ab0f	0.0492354
119	0x3cc504a5	0.024050066
120	0x3d2e89a1	0.042611722
121	0x3d33b577	0.04387423
122	0xbdd9d2a2	-0.10635878
123	0xbbdefdd0	-0.006805159
124	0x3d9bc315	0.07605568
125	0xbb72f1ba	-0.003707035
126	0xbdc0a5f6	-0.094066545
127	0xbdb4a2e3	-0.08820131

action_layer.layer1.1.weight f4 [2, 128]
0	0xbd4e3af0	-0.050349176
1	0x3d3c75c5	0.04601075
2	0xbe8c28ae	-0.27374786
3	0x3d8766ed	0.066114284
4	0x3e296f65	0.165464
5	0x3c8f283a	0.017475236
6	0xbd4af321	-0.049548272
7	0xbe749966	-0.23886642
8	0xbe0dde03	-0.13854222
9	0x3dee690a	0.11641128
10	0x3d717000	0.058944702
11	0x3d7a8cdf	0.0611695
12	0xbe0f1017	-0.13970982
13	0x3c93e638	0.018054113
14	0xbd84642d	-0.064644195
15	0xbb41bb16	-0.0029560975
16	0x3e553b99	0.20823516
17	0xbd6a8b3a	-0.057261683
18	0x3e5727d0	0.21011281
19	0xbd8a5c9f	-0.06755947
20	0xbe1f9c6e	-0.15587017
21	0x3de29317	0.110632114
22	0x3ce0ab9e	0.027425583
23	0x3cb425ca	0.021990675
24	0x3de5a4df	0.11213087
25	0xbb418c1f	-0.0029532982
26	0x3df24205	0.118289985
27	0x3c5036e1	0.012708397
28	0x3d7a2ba3	0.06107677
29	0xbd7777a7	-0.060416844
30	0xbe7ab6a1	-0.2448373
31	0x3d0a0ab4	0.033701614
32	0xbe3b0852	-0.18264893
33	0xbe3fd4e8	-0.18733561
34	0x3dc9e3d0	0.09857905
35	0xbdf1edec	-0.11812958
36	0xbd1a3e35	-0.03765698
37	0x3e5a8ae2	0.21342042
38	0xbde731bd	-0.11288784
39	0xbd86576e	-0.06559645
40	0xbe7e8b20	-0.2485776
41	0xbe2c1cd1	-0.16807868
42	0x3d0c9f17	0.034331407
43	0x3d2f8923	0.042855393
44	0xbd3eaf10	-0.04655367
45	0x3e2cfdb6	0.16893658
46	0xbdcdb1f3	-0.10043707
47	0x3e292c34	0.16520768
48	0xbe90c6e2	-0.28276736
49	0x3d9543d0	0.07288325
50	0x3e25e999	0.16202392
51	0x3ce6acfa	0.028158654
52	0x3db17f63	0.08666875
53	0xbe59004d	-0.21191521
54	0x3e42cc00	0.19023132
55	0x3d8d6940	0.069048405
56	0x3e04bff0	0.12963843
57	0x3e544ca0	0.20732355
58	0x3dd685a1	0.104747064
59	0xbd0f2f30	-0.03495711
60	0xbe529a02	-0.20566562
61	0xbd5eb149	-0.05436829
62	0x3cf5ba85	0.029996166
63	0xbe0bfd87	-0.13670932
64	0x3d7a906d	0.06117289
65	0xbda63156	-0.08114879
66	0xbe7b0b72	-0.24516085
67	0x3e027ab1	0.12742116
68	0xbdb404d1	-0.08789981
69	0x3ce79513	0.028269326
70	0xbd203e02	-0.039121635
71	0x3e0eaf0b	0.13933961
72	0xbd7ce731	-0.06174392
73	0xbdee9619	-0.116497226
74	0xbe1c7268	-0.15278018
75	0x3e7593f7	0.23982225
76	0x3c9c2479	0.01906036
77	0xbe029205	-0.12751015
78	0xbe184c6e	-0.14872906
79	0x3b6867e4	0.0035462314
80	0xbe221654	-0.1582883
81	0xbd95adc6	-0.07308535
82	0x3d633c02	0.05547715
83	0x3d8cdcbe	0.06878041
84	0xbcae3ac2	-0.021268252
85	0xbc0741e3	-0.008255455
86	0xbd96dad9	-0.07365961
87	0xbd2baea5	-0.0419146
88	0xbd3cad69	-0.046063814
89	0x3dad9471	0.084755786
90	0xbd7de6a5	-0.061987538
91	0xbd18e9f7	-0.0373325
92	0x3e03a0bf	0.12854289
93	0xbd16f3b9	-0.036853526
94	0xbd8578c7	-0.06517177
95	0xbd588cab	-0.052868526
96	0xbdbef08c	-0.093232244
97	0xbdc56b18	-0.09639567
98	0xbd3e599b	-0.046472173
99	0xbd2e42fa	-0.042544343
100	0x3e408eca	0.1880447
101	0xbe83d342	-0.25747114
102	0x3d384e49	0.044996534
103	0xbdae3848	-0.085068285
104	0xbb2e0a34	-0.0026556375
105	0x3df78b06	0.120870635
106	0xbe780446	-0.2422038
107	0x3d920a0d	0.07130823
108	0x3e1c1a2a	0.15244356
109	0xbd2f6778	-0.042823285
110	0x3ca17000	0.019706726
111	0xbe0cc374	-0.13746434
112	0x3e58d392	0.21174458
113	0xbc96ee36	-0.018424135
114	0xbd7162b7	-0.058932032
115	0xbdd4dcdd	-0.10393689
116	0x3e29716a	0.1654717
117	0xbda32fb9	-0.07968087
118	0xbd6ef59a	-0.058339693
119	0x3ad60703	0.0016328994
120	0xbd8b7ca1	-0.068108805
121	0x3dac82e1	0.08423401
122	0x3d7b3173	0.061326455
123	0xbcb2555a	-0.021769214
124	0xbd8449a6	-0.0645936
125	0x3e0a815c	0.13525909
126	0x3e1db7d4	0.15402156
127	0xbdf87382	-0.12131406
128	0x3cef524b	0.029214045
129	0x3d99c70d	0.07508669
130	0x3dc79dcc	0.09746894
131	0xbdc9b2cc	-0.09848556
132	0xbe2fb036	-0.17157063
133	0x3e10c33a	0.14136973
134	0x3d70cb49	0.058787618
135	0xbd42540d	-0.04744344
136	0xbe308a72	-0.17240313
137	0xbd951711	-0.0727979
138	0xbe1d7a1f	-0.15378617
139	0xbe124909	-0.14285673
140	0x3d5360b0	0.05160588
141	0xbe113f9f	-0.14184426
142	0xbd71f998	-0.05907592
143	0x3d79066c	0.06079714
144	0x3d48282b	0.048866432
145	0x3d66ba74	0.05633016
146	0x3dc0aa0b	0.09407433
147	0x3e733319	0.23749961
148	0xbe31b9ed	-0.17356081
149	0xbc98ffc5	-0.018676648
150	0x3df24ead	0.118314125
151	0x3d938f31	0.07205046
152	0xbe5c6898	-0.21524274
153	0x3d5705a1	0.052495603
154	0x3d9049ff	0.07045364
155	0xbd6daa7d	-0.05802392
156	0xbe14912a	-0.145085
157	0x3d90cd25	0.07070378
158	0xbddb0bf4	-0.10695639
159	0x3d525bb2	0.05135698
160	0xbdbb81a2	-0.09155585
161	0xbd330320	-0.043704152
162	0x3c9d53a3	0.01920492
163	0x3c4dfa2f	0.012571855
164	0x3e778afa	0.24174109
165	0x3df4ca2a	0.11952622
166	0x3e1372ac	0.14399213
167	0x3dd78155	0.10522715
168	0xbda324e2	-0.07966019
169	0xbe02a2a6	-0.12757358
170	0xbe16bc99	-0.14720382
171	0x3dfb4e41	0.12270785
172	0xbd0a6770	-0.033790052
173	0x3e5a4c0e	0.21318075
174	0xbd5910cf	-0.052994546
175	0x3e2bc3a8	0.16773856
176	0xbd9adc18	-0.07561511
177	0xbc8bf214	-0.017083205
178	0xbe5690c6	-0.20953664
179	0x3e2932f3	0.16523342
180	0x3e1a3f26	0.15063152
181	0xbdeb23b9	-0.11481423
182	0xbcaa9819	-0.020824479
183	0x3da1abaf	0.07894074
184	0x3c7e8f99	0.015537166
185	0x3df296bb	0.11845156
186	0xbbdeedbc	-0.0068032425
187	0xbdf4adeb	-0.11947235
188	0xbd7086a5	-0.058722157
189	0xbd97d0b4	-0.07412854
190	0xbdda0e8e	-0.10647307
191	0x3da246ca	0.07923658
192	0xbdfa357a	-0.12217231
193	0xbdc5f95e	-0.09666704
194	0xbdaca8b2	-0.084306136
195	0xbe1268b8	-0.1429776
196	0xbdfc0b68	-0.12306863
197	0x3dd28441	0.10279132
198	0x3ba33574	0.0049807373
199	0xbd88e8fa	-0.06685062
200	0x3c997076	0.018730383
201	0x3d096dc5	0.03355195
202	0xbe035efe	-0.12829205
203	0x3b3becc9	0.002867507
204	0x3e1783d6	0.14796385
205	0xbda81dd8	-0.08208817
206	0xbda5c299	-0.08093757
207	0xbd817923	-0.06321933
208	0xbe2e1c9a	-0.17003098
209	0xbd9a330f	-0.0752927
210	0x3da92e1d	0.082607485
211	0x3dd41857	0.10356205
212	0xbd87fa7b	-0.06639572
213	0xbdf1a6d5	-0.11799399
214	0xbe53cdf4	-0.20684034
215	0x3d1392b0	0.036028564
216	0xbd8c93d8	-0.068641365
217	0x3e6d8751	0.2319615
218	0x3c4015e4	0.011723969
219	0xbe09ad60	-0.13445044
220	0x3da27026	0.07931547
221	0x3d712a26	0.058878087
222	0xbab596e8	-0.0013854178
223	0x3d0ce5aa	0.034398712
224	0x3c8b8aa7	0.017033888
225	0x3dde19e3	0.10844781
226	0x3e54f5cc	0.20796889
227	0xbd12f667	-0.03587952
228	0xbc61ad27	-0.013774193
229	0xbd472270	-0.048616827
230	0x3d964df5	0.07339088
231	0x3e2602dd	0.1621203
232	0xbdd86e76	-0.10567944
233	0x3e8f99cc	0.28047025
234	0x3e0c7f3e	0.13720414
235	0xbd38aa36	-0.0450842
236	0x3de54e1d	0.111965396
237	0x3e03f5d2	0.12886742
238	0x3d60225c	0.054720268
239	0xbd0623e3	-0.032749068
240	0xbd9501f6	-0.07275765
241	0x3d83a986	0.064288184
242	0xbb768b98	-0.0037619825
243	0xbe2ffebe	-0.1718702
244	0x3c672466	0.014107799
245	0xbdca3fdc	-0.098754615
246	0x3d30e6c6	0.043188833
247	0x3e233bcc	0.1594078
248	0xbe1a88a4	-0.15091187
249	0x3df6ece2	0.120569006
250	0x3deb90bb	0.115022145
251	0xbe290b78	-0.16508281
252	0xbb9b2a81	-0.0047352915
253	0x3c9b2237	0.018937213
254	0xbd0ddf7b	-0.034636956
255	0xbc03079e	-0.007997422

action_layer.layer1.1.bias f4 [2]
0	0x3d29bac6	0.041437887
1	0xbd1915d5	-0.037374336
