HGAT-MADDPG_ver2/ModelBuffer/model_5148.pt (torch, 369835 bytes, 33 tensors)

encoding_layer.layer.0.weight f4 [64, 180]
0	0x3be15914	0.006877074
1	0x3bc7be44	0.0060956795
2	0xbd493be0	-0.049129367
3	0xbe03f184	-0.128851
4	0x3c2fe087	0.010734684
5	0xbd862164	-0.065493375
6	0xbd8f2110	-0.06988728
7	0x3db4b01f	0.08822655
8	0xbdea2583	-0.11432936
9	0xbdf7fce0	-0.12108779
10	0x3e360ee9	0.17779125
11	0x3c997161	0.018730821
12	0xbe58cd6e	-0.21172115
13	0xbddea48f	-0.10871231
14	0xbd99d0b1	-0.07510508
15	0x3e52c8c7	0.20584403
16	0x3dd7501e	0.10513328
17	0x3e4d32c2	0.20038894
18	0xbe0d4e0d	-0.13799305
19	0x3d84fa7f	0.06493091
20	0x3d902e37	0.07040065
21	0x3e0f1e51	0.13976409
22	0x3b106aab	0.0022036235
23	0xbe568b9e	-0.20951697
24	0xbda99b52	-0.08281578
25	0x3d07492f	0.033028778
26	0x3ec7fcc8	0.39060044
27	0xbdce60d0	-0.10077059
28	0xbe0bbf1c	-0.13647121
29	0x3e1482b7	0.14502989
30	0x3de905f6	0.1137809
31	0xbd0d1d94	-0.034452036
32	0xbe090903	-0.13382344
33	0x3db5c76b	0.088759266
34	0x3db0842f	0.08618962
35	0x3eb3d00b	0.35119662
36	0xbbafd449	-0.0053658825
37	0xbdbad289	-0.09122188
38	0xbd8a470c	-0.06751832
39	0xbe486e91	-0.19573428
40	0xbd89d7c9	-0.06730611
41	0x3ec36fce	0.38171238
42	0xbd074ff5	-0.033035237
43	0xbe83e023	-0.2575694
44	0xbe5ab0f4	-0.21356565
45	0x3e187753	0.14889269
46	0x3df517f5	0.1196746
47	0xbe8c95ea	-0.27458125
48	0xbe099f08	-0.13439572
49	0xbe39b4b3	-0.18135338
50	0x3de5f587	0.11228471
51	0x3c4c9dce	0.012488795
52	0x3d964f0f	0.07339298
53	0x3e4b96f3	0.19881801
54	0x3e4c5830	0.19955516
55	0xbe8ea197	-0.27857658
56	0xbe87f148	-0.2655127
57	0x3d9f547d	0.07779787
58	0xbf0d1f0d	-0.55125505
59	0xbf14df82	-0.58153546
60	0xbefb8eb9	-0.49132326
61	0x3b8bdb95	0.0042681196
62	0x3d1e6318	0.038668722
63	0xbea3fa4c	-0.320269
64	0xbe8d2e2a	-0.27574283
65	0x3d8f44ff	0.06995582
66	0xbe6416bd	-0.22274299
67	0xbca15c2e	-0.019697275
68	0xbe4c7f91	-0.19970538
69	0xbdea8e17	-0.11452883
70	0x3e1e955f	0.15486668
71	0xbd837039	-0.06417889
72	0x3ded6786	0.11592011
73	0x3cc647ed	0.024204219
74	0x3b51adaf	0.0031994393
75	0x3b801d86	0.0039097695
76	0x3e36dbbf	0.17857264
77	0xbcefe582	-0.029284243
78	0x3e3cd70e	0.18441412
79	0x3ea27056	0.3172633
80	0xbeb838db	-0.35980877
81	0x3e543181	0.20722009
82	0x3e29ef4e	0.16595194
83	0xbd5ecd64	-0.054395095
84	0x3cbc2e95	0.02297143
85	0xbcebf4a1	-0.028803172
86	0x3d3aee59	0.045637462
87	0xbe30aaa8	-0.172526
88	0x3de960b2	0.11395396
89	0x3e32b9a4	0.17453629
90	0x3c4260f9	0.01186394
91	0xbdc4a4a3	-0.096017145
92	0x3d3a8f15	0.04554661
93	0x3d1bdd01	0.038052563
94	0x3e1a1c40	0.15049839
95	0x3d9fbd72	0.07799806
96	0x3d099b30	0.033595264
97	0xbdb43ce6	-0.08800678
98	0xbe0a378f	-0.13497756
99	0xbe4a8d6d	-0.19780512
100	0x3e02f942	0.12790397
101	0x3e2add82	0.16686061
102	0xbd81a0f6	-0.06329529
103	0x3c7fc09a	0.015609885
104	0x3c38a1ae	0.011269016
105	0x3b3aec69	0.002852226
106	0x3bc8abf7	0.0061240154
107	0xbd68200e	-0.056671195
108	0xbda4f84c	-0.08055171
109	0xbde968f6	-0.11396973
110	0x3e16a6ce	0.14712068
111	0xbda2f157	-0.07956188
112	0xbdaca0c6	-0.084291026
113	0xbda9ea0f	-0.08296596
114	0xbd90b8d5	-0.07066504
115	0xbe0a5d74	-0.13512212
116	0x3ce41e1f	0.027846394
117	0xbe0241f9	-0.12720479
118	0xbde9729e	-0.113988146
119	0x3d04635b	0.032321315
120	0xbdbfd381	-0.09366513
121	0x3da2d8f2	0.07951535
122	0xbd4afe87	-0.049559142
123	0xbd850655	-0.06495348
124	0xbe2aef4d	-0.16692849
125	0x3df19878	0.11796659
126	0x3dcbe731	0.09956206
127	0x3bac8817	0.0052652466
128	0xbe02eaf5	-0.12784941
129	0xbe0d2554	-0.13783771
130	0xbd5de6bb	-0.05417512
131	0xbc6e9e93	-0.014564174
132	0x3e070d2a	0.13188615
133	0xbb56898d	-0.0032735795
134	0x3e19e4f2	0.15028742
135	0x3cec0e62	0.028815452
136	0x3e1db682	0.15401652
137	0x3d8b3d17	0.06798761
138	0x3dc2ff64	0.09521368
139	0x3d061683	0.032736313
140	0x3e17a00b	0.14807145
141	0xbc1acc38	-0.009448104
142	0xbd51b86e	-0.051201276
143	0x3cc74953	0.024326956
144	0x3dfe499c	0.124163836
145	0x3ba9842c	0.005173227
146	0x3cb6f594	0.022333898
147	0xbce20fa8	-0.027595356
148	0x3c1b32b6	0.00947254
149	0xbbd7dc90	-0.0065875724
150	0xbc9b06d3	-0.018924152
151	0xbe01a502	-0.12660602
152	0x3d108052	0.035278626
153	0xbd6be653	-0.0575927
154	0xbd9a63bd	-0.07538555
155	0xbe2ff8a3	-0.17184691
156	0xbd83f8dc	-0.064439505
157	0xbcbf5cf4	-0.023359753
158	0xbd895216	-0.0670511
159	0xbd4d36b2	-0.05010099
160	0xbd7b563b	-0.061361533
161	0x3d3a7b2f	0.045527633
162	0x3c3bbfb6	0.011459282
163	0xbcb099c1	-0.02155769
164	0x3ccf63e0	0.025316179
165	0xbd156c14	-0.036480024
166	0x3d205d42	0.039151438
167	0x3d7ddccf	0.061978158
168	0x3d0a4c6b	0.033764284
169	0xbb46eb35	-0.0030352597
170	0x3ccaa43e	0.02473652
171	0x3e0bef2b	0.13665454
172	0x3d392e13	0.045209955
173	0x3b999bfe	0.004687785
174	0x3c98c925	0.0186506
175	0x3d961502	0.07328226
176	0x3e0fbf04	0.1403771
177	0xbf1d2ced	-0.61396676
178	0x3e3885d7	0.18019806
179	0x3c11496a	0.008867601
180	0x3d73d709	0.059531245
181	0x3d8ccd4b	0.06875094
182	0x3d1a213d	0.037629355
183	0x3bbc4f1e	0.005746736
184	0x3e078213	0.13233213
185	0x3db0a90a	0.08625992
186	0xbd14735e	-0.036242835
187	0xbd327a41	-0.04357362
188	0xbca246ac	-0.01980909
189	0xbd35142e	-0.044208698
190	0xbd4b5c1b	-0.049648385
191	0x3d6947f5	0.05695339
192	0xbe92850a	-0.28617126
193	0x3d939896	0.07206838
194	0x3d916f6d	0.07101331
195	0x3e3d811c	0.18506283
196	0xbe3e2437	-0.18568502
197	0x3c6e309a	0.014537955
198	0xbd093fed	-0.03350823
199	0x3c88751a	0.0166574
200	0xbe34f579	-0.17671765
201	0x3dba6906	0.09102063
202	0xbda96974	-0.08272067
203	0xbd123ea9	-0.03570429
204	0xbd026859	-0.031837795
205	0x3e340cc8	0.17583
206	0xbea355a2	-0.3190127
207	0xbe009a6b	-0.12558906
208	0x3ea7ae1c	0.32750022
209	0x3ea2ecb0	0.31821203
210	0x3db35ae3	0.0875757
211	0x3d304f2b	0.04304425
212	0xbee2f70b	-0.44329104
213	0x3e82eb9e	0.25570387
214	0xbf2449b6	-0.64174974
215	0x3edb20b3	0.42798385
216	0x3f250175	0.6445535
217	0x3e287e06	0.16454324
218	0xbc4c164f	-0.012456491
219	0xbc37ba5a	-0.011213863
220	0x3eb82d1b	0.35971913
221	0xbda267bf	-0.07929944
222	0xbd76af4c	-0.06022577
223	0x3d060a14	0.032724455
224	0xbdc9564e	-0.098309144
225	0x3def5c47	0.116875224
226	0x3da0af37	0.078459196
227	0xbe6b3853	-0.22970705
228	0xbd6538b5	-0.055962283
229	0xbdd8852a	-0.10572274
230	0xbb8721ae	-0.004123888
231	0x3daf9fb4	0.08575383
232	0x3dc8ff29	0.09814293
233	0xbe36c0b2	-0.17846945
234	0xbdbdfb92	-0.09276499
235	0x3e70662e	0.23476478
236	0x3dc4b2aa	0.0960439
237	0x3d33ef14	0.043929175
238	0xbe82e2ac	-0.25563562
239	0xbea316eb	-0.31853423
240	0xbe33d67c	-0.17562288
241	0x3eb06312	0.34450585
242	0xba6a59c2	-0.00089397666
243	0xbe31f9fa	-0.17380515
244	0xbe1dec50	-0.15422177
245	0x3e170c49	0.1475078
246	0xbd2d6673	-0.04233403
247	0xbe5ccd42	-0.21562675
248	0xbd84283b	-0.06452986
249	0xbdcc363b	-0.09971281
250	0xbed0b85b	-0.40765652
251	0xbea24eea	-0.31700832
252	0xbdb4e407	-0.08832555
253	0xbe6c2eae	-0.23064682
254	0xbe5a8f0e	-0.21343634
255	0xbe894f50	-0.26818323

encoding_layer.layer.0.bias f4 [64]
0	0x3db08696	0.0861942
1	0x3d1f0983	0.03882743
2	0x3ce08f09	0.027411954
3	0xbc4fb850	-0.012678221
4	0xbc57f4f6	-0.013180962
5	0x3db73935	0.08946458
6	0xbce04a5c	-0.027379207
7	0xbd8807e9	-0.06642134
8	0x3c37cac9	0.011217781
9	0xbd3fffbe	-0.046874754
10	0xbcafdb5e	-0.021466907
11	0xbdc0a352	-0.09406151
12	0xbd312a6a	-0.04325334
13	0x3db01893	0.08598437
14	0xbd112912	-0.03543956
15	0xbd309fef	-0.043121275
16	0xbcda41c5	-0.02664269
17	0xbd458ccb	-0.048229974
18	0x3cfa1dcf	0.030531792
19	0x3d61e591	0.055150572
20	0xba0733a7	-0.0005157538
21	0xbcd1e26c	-0.025620662
22	0xbdf58ee9	-0.119901486
23	0xbc2ce3cc	-0.010552358
24	0xbd8bf349	-0.06833512
25	0xbd2d4e4d	-0.042311
26	0x3d098a6f	0.033579286
27	0x3cde6b0d	0.027150655
28	0x3d26d95e	0.04073464
29	0xbc4113b4	-0.011784483
30	0x3bdd911a	0.006761682
31	0xbd99c6a9	-0.075085945
32	0x3c588755	0.013215859
33	0x3ccc62d4	0.024949469
34	0xbd855212	-0.06509794
35	0x3c31c561	0.010850281
36	0xbc17edf3	-0.00927304
37	0xbdfa5bfe	-0.12224577
38	0xbdb4b960	-0.0882442
39	0xbda115a1	-0.078654535
40	0x3d243ee1	0.04009903
41	0x3d04f355	0.032458622
42	0x3d2d15da	0.042257167
43	0x3beeb065	0.0072842115
44	0x3c31ebae	0.010859413
45	0x3d0221a6	0.03177037
46	0x3ab84a02	0.0014060142
47	0x3c09b365	0.008404587
48	0xbdc8befb	-0.09802052
49	0xbd901f23	-0.07037189
50	0xbd337d8d	-0.043820906
51	0xbc9daf23	-0.01924855
52	0xbd13147c	-0.035908207
53	0xbd0015b6	-0.031270705
54	0xbc1c29ee	-0.009531481
55	0x3dee4a64	0.11635283
56	0xbd17503e	-0.03694176
57	0xbda43c48	-0.0801931
58	0x3d14d88c	0.036339328
59	0x3d8f68e6	0.0700243
60	0xbd7dd4d6	-0.061970554
61	0xbcec2d4a	-0.02883019
62	0xbb2899e0	-0.0025726482
63	0xbb5e39c2	-0.0033908938

relational_layer.layers.0.att_src f4 [1, 1, 64]
0	0xbd120b25	-0.03565516
1	0x3ea1a53f	0.31571385
2	0xbea53434	-0.3226639
3	0x3d912ae4	0.07088259
4	0xbe368f30	-0.17828059
5	0xbdeeb710	-0.1165601
6	0x3ec40b9d	0.3829011
7	0xbce43c22	-0.027860705
8	0x3e8fa374	0.28054392
9	0xbef9ee57	-0.4881465
10	0x3d459c39	0.04824469
11	0xbea02fef	-0.3128657
12	0x3e63c3e5	0.22242697
13	0x3e3d16bd	0.18465705
14	0x3f10a485	0.56501037
15	0xbe3633cd	-0.17793198
16	0xbe7d908b	-0.2476217
17	0x3e3f868b	0.18703668
18	0x3ede85ee	0.43461555
19	0xbeda78aa	-0.42670184
20	0x3d40986d	0.047020365
21	0xbebcd96e	-0.36884636
22	0xbe1f24b0	-0.15541339
23	0x3e059842	0.13046363
24	0xbecc3109	-0.3988116
25	0xbecfe38e	-0.40603298
26	0xbeccb9c5	-0.3998548
27	0xbe36a1d2	-0.17835167
28	0x3cca1e5a	0.024672676
29	0xbf01386a	-0.50476706
30	0xbeb5d44d	-0.35513535
31	0xbb9703a3	-0.004608588
32	0xbc460972	-0.012087213
33	0x399a4efd	0.0002943202
34	0x3ed1da9a	0.40987092
35	0xbec130f8	-0.37732673
36	0x3de9f918	0.11424464
37	0xbe6ffc6e	-0.23436138
38	0xbeaa7a4c	-0.3329643
39	0x3e2ad431	0.16682507
40	0x3ead7913	0.33881435
41	0xbe8539be	-0.26020616
42	0xbeb0dd5b	-0.3454388
43	0xbce9c697	-0.028537078
44	0x3ee8b145	0.45447746
45	0xbe0647d9	-0.13113345
46	0x3e88c856	0.26715344
47	0x3e6b5da4	0.2298494
48	0xbead03d7	-0.33791992
49	0xbeb5365c	-0.35393035
50	0x3e824688	0.25444436
51	0x3e80e848	0.25177217
52	0x3ddd2ece	0.10799943
53	0xbe4a7cb0	-0.19774127
54	0xbef0508b	-0.4693645
55	0x3e844272	0.25831944
56	0xbea765f4	-0.32694972
57	0xbec5cb1b	-0.3863152
58	0xbe1a8392	-0.15089253
59	0xbdfec228	-0.12439376
60	0x3da6bb65	0.081412114
61	0x3e56c163	0.20972209
62	0x3e1f1404	0.15534979
63	0x3e840d8d	0.25791588

relational_layer.layers.0.att_dst f4 [1, 1, 64]
0	0xbef9305b	-0.48669705
1	0xbc4dc6ab	-0.012559573
2	0x3eadffd3	0.3398424
3	0xbe08dbdf	-0.13365124
4	0xbf0a196b	-0.53945035
5	0xbd88d459	-0.06681127
6	0xbdbfeb07	-0.09371
7	0xbf257849	-0.64636666
8	0x3ec99c6f	0.39377162
9	0x3e24f277	0.16108118
10	0xbebd8449	-0.37014988
11	0xbe1fa9f3	-0.15592174
12	0x3ef5e8da	0.48029214
13	0xbe58f53d	-0.21187301
14	0xbddcbabc	-0.10777804
15	0x3e31f125	0.17377146
16	0xbe13bcc5	-0.14427479
17	0xbe91f882	-0.2850991
18	0x3d2084cc	0.039189145
19	0x3e322463	0.17396693
20	0x3edb22d3	0.42800006
21	0x3e8b6c47	0.27231047
22	0x3e8f0b1a	0.27938157
23	0xbe0009d3	-0.12503748
24	0xbc0877fe	-0.00832939
25	0x3e34f00b	0.17669694
26	0x3ee321d1	0.44361737
27	0x3dffc202	0.12488176
28	0xbd6b7a3a	-0.05748961
29	0xbced2b8f	-0.028951434
30	0xbe66e4f9	-0.22548284
31	0xbc31c355	-0.010849793
32	0x3e734dbc	0.23760122
33	0x3e61f08d	0.22064419
34	0xbe87df99	-0.2653778
35	0x3d9d37d6	0.076766655
36	0x3e59b188	0.21259129
37	0x3efc8639	0.49321154
38	0x3de7fe5d	0.11327813
39	0x3d47f226	0.048814915
40	0xbd731296	-0.059343897
41	0xbec52231	-0.38502648
42	0x3e47f78d	0.19528027
43	0x3c433844	0.01191527
44	0x3e06f8b8	0.13180816
45	0x3e15c6bd	0.14626594
46	0xbdb1bc89	-0.08678538
47	0xbb1ecef0	-0.002423223
48	0x3e14ab2d	0.14518423
49	0xbd3a5759	-0.045493457
50	0xbe13a23e	-0.14417359
51	0xbe91b725	-0.2846004
52	0xbeea9058	-0.4581325
53	0xbdb1e921	-0.08687044
54	0xbe5bc692	-0.21462467
55	0xbe309ffa	-0.17248526
56	0xbf28169b	-0.65659493
57	0xbed7fa39	-0.42183092
58	0x3c2a2dd4	0.010386903
59	0xbc78f7c5	-0.015195792
60	0xbd1d8289	-0.038454566
61	0xbe88c176	-0.267101
62	0xbec77b27	-0.38961145
63	0xbef78dd0	-0.48350382

relational_layer.layers.0.bias f4 [64]
0	0xbc82631e	-0.015916403
1	0xbe901278	-0.2813909
2	0xbe3a52ca	-0.18195644
3	0xbd9e6b09	-0.07735259
4	0x3ce72f18	0.028220698
5	0xbd2aa275	-0.041658837
6	0xbe519cc1	-0.20469953
7	0xbe1bd06c	-0.15216225
8	0xbe050220	-0.12989092
9	0xbdc88ae0	-0.09792113
10	0xbd5feeaf	-0.054670986
11	0xbc1eba62	-0.009687992
12	0xbe48056e	-0.19533321
13	0xbdd13f05	-0.10217098
14	0xbe3b8f81	-0.18316461
15	0x3b2b62f3	0.0026151508
16	0x3bac110f	0.005251057
17	0xbe7c26ab	-0.24624126
18	0xbdb45d39	-0.08806843
19	0x3d2ffc77	0.04296538
20	0xbe38846d	-0.18019266
21	0xbd92cdd6	-0.07168166
22	0xbe795e0e	-0.24352285
23	0xbddfd0e6	-0.10928516
24	0xbd2a3b7e	-0.041560642
25	0x3c02fe15	0.007995148
26	0xbdc669f9	-0.096881814
27	0xbd3e23af	-0.04642075
28	0xbe04a6dc	-0.12954277
29	0xbdb434ad	-0.087991096
30	0xbe47bda6	-0.19505939
31	0x3d0a16d7	0.033713188
32	0xbdd6dc9f	-0.10491299
33	0x3a9e03d8	0.0012055589
34	0xbd5a7f5e	-0.053344123
35	0xbde3646d	-0.11103139
36	0xbe16d2a3	-0.14728789
37	0xbe25dc30	-0.16197276
38	0xbe164926	-0.14676341
39	0xbc3951e8	-0.011311032
40	0xbe250cb2	-0.16118124
41	0xbe26cee2	-0.16289857
42	0xbdc2f02a	-0.09518464
43	0xbd089d6c	-0.033353254
44	0x3bcceb03	0.0062536015
45	0xbd9396cb	-0.07206496
46	0x3d5894e1	0.052876357
47	0xbc98313b	-0.018578162
48	0xbb8e12a9	-0.0043357206
49	0x3d7025ca	0.05862979
50	0xbe72f0b0	-0.23724627
51	0xbdbe664b	-0.092968546
52	0xbd92db80	-0.071707726
53	0xbd7e213b	-0.06204341
54	0xbdf385c7	-0.118907504
55	0xbe074537	-0.13209997
56	0xbe20d710	-0.1570704
57	0xbe4d9897	-0.2007774
58	0xbdfcafec	-0.12338242
59	0x3cf7db84	0.03025604
60	0xbd347fec	-0.04406731
61	0xbd90df35	-0.07073823
62	0xbc3584d0	-0.011079028
63	0x3a68b12e	0.00088764995

relational_layer.layers.0.lin_src.weight f4 [64, 64]
0	0x3d9be2f1	0.07611645
1	0x3d2d4698	0.04230365
2	0x3e7c6a30	0.24649882
3	0xbebf7aaa	-0.37398273
4	0x3e2e489a	0.17019883
5	0xbe082594	-0.13295585
6	0xbe1eae04	-0.15496069
7	0xbe96a740	-0.29424477
8	0x3e6efff9	0.23339833
9	0xbdf8667a	-0.12128921
10	0xbd7c7440	-0.061634302
11	0xbe29f74e	-0.16598246
12	0xbe81b00a	-0.2532962
13	0x3e7f776c	0.249479
14	0xbedc9e7f	-0.43089673
15	0x3e2600ce	0.16211244
16	0x3db956b4	0.090497404
17	0x3d397a93	0.04528291
18	0xbef0f05c	-0.4705838
19	0xbf319979	-0.69374806
20	0xbdcecd82	-0.10097791
21	0x3db97827	0.0905612
22	0xbf086a4a	-0.53287184
23	0xbd85691e	-0.0651419
24	0xbec0bc7c	-0.37643802
25	0x3e0e05a6	0.13869342
26	0xbcb65c07	-0.022260679
27	0xbecea6da	-0.40361673
28	0xbe0969dd	-0.1341929
29	0xbdff7521	-0.124735124
30	0x3e8bd592	0.2731138
31	0xbe3fb3b4	-0.18720895
32	0xbe8f11e3	-0.27943334
33	0xbe3fea70	-0.18741775
34	0xbe1ccb45	-0.15311916
35	0xbe59d58f	-0.21272872
36	0xbdf27611	-0.11838926
37	0x3d4504b4	0.04810019
38	0xbdf973b5	-0.121802725
39	0x3c4dd1f0	0.01256226
40	0x3d89f07a	0.067353204
41	0xbdea4933	-0.11439743
42	0x3e8efc35	0.27926794
43	0x3bcce8be	0.006253331
44	0x3ebb4ea6	0.36583441
45	0xbf260373	-0.64849013
46	0xbd9b3b76	-0.07579701
47	0x3d0b477b	0.034003716
48	0xbecac32c	-0.3960203
49	0xbd2c1ce8	-0.042019755
50	0xbe6ae54d	-0.22939034
51	0x3ea8ad09	0.32944515
52	0x3dd36750	0.1032244
53	0xbe482472	-0.19545153
54	0x3cdea86a	0.027179915
55	0xbc8808d1	-0.016605766
56	0x3e4bef99	0.19915618
57	0x3f05313e	0.5202826
58	0xbe975b09	-0.29561642
59	0xbe8691be	-0.26283067
60	0xbbef368d	-0.007300204
61	0xbd015a07	-0.031579997
62	0x3ed88dec	0.42295778
63	0xbe53d3db	-0.20686285
64	0x3d2f1329	0.042742882
65	0xbe80df18	-0.25170207
66	0xbe042dc0	-0.12908077
67	0xbe0aeeb8	-0.13567626
68	0xbe35692c	-0.17715901
69	0xbd14dc8c	-0.036343142
70	0x3db22fbc	0.08700511
71	0xbeac68ac	-0.33673608
72	0xba99e643	-0.0011741597
73	0xbe64c966	-0.22342452
74	0xbdc11272	-0.09427346
75	0x3e66468e	0.22487852
76	0x3e59d0ea	0.212711
77	0x3ebb7052	0.3660913
78	0xbdd7d7cc	-0.10539207
79	0xbd8aa1e0	-0.067691565
80	0xbe95f03d	-0.2928485
81	0xbd5b10c9	-0.053482804
82	0xbe818b0d	-0.253014
83	0xbe8891f4	-0.26673853
84	0x3daf66e0	0.08564544
85	0x3cbf9668	0.023387149
86	0xbe43b880	-0.1911335
87	0xbe52c587	-0.20583163
88	0x3d18335e	0.037158363
89	0xbe93517a	-0.287731
90	0xbd39739a	-0.045276262
91	0x3de39a07	0.11113363
92	0xbd631097	-0.055435743
93	0x3e95fc24	0.2929393
94	0x3dda8f12	0.1067182
95	0xbe53d772	-0.20687655
96	0x3d5bcb49	0.053660665
97	0x3e370ba5	0.17875536
98	0xbee44314	-0.44582427
99	0xbe0f29e4	-0.13980824
100	0xbde22a8e	-0.11043273
101	0x3b059d55	0.0020387967
102	0xbe929921	-0.28632453
103	0xbdb202da	-0.0869195
104	0x3e17b1cc	0.14813918
105	0x3eb98525	0.36234394
106	0xbdbb767e	-0.0915346
107	0xbe97fb4a	-0.29683906
108	0x3d43af38	0.047774523
109	0x3e08dd39	0.1336564
110	0xbe8e6078	-0.27807975
111	0xbd962c9b	-0.073327266
112	0x3ddd079a	0.107924655
113	0xbcacfbff	-0.021116255
114	0x3cdcbd39	0.026945697
115	0xbe4b83a3	-0.19874434
116	0xbd65818d	-0.056031752
117	0xbe65d4c9	-0.22444452
118	0xbe360e4d	-0.17778893
119	0xbe866489	-0.26248577
120	0xbd811e76	-0.06304638
121	0x3e16a80a	0.1471254
122	0xbe699007	-0.22808848
123	0xbd54e549	-0.051976476
124	0xbe69db8b	-0.22837655
125	0xbd5067e0	-0.050880313
126	0x3d9f841c	0.0778887
127	0x3dad4040	0.0845952
128	0xbd061d70	-0.032742918
129	0x3ec2b39f	0.38027665
130	0x3d6d81fb	0.057985287
131	0x3cbb2e25	0.022849152
132	0xbe36ec39	-0.1786355
133	0x3d5e48c2	0.054268606
134	0x3e11b0e6	0.14227638
135	0x3e0a06ff	0.13479231
136	0xbe3328bc	-0.17496008
137	0x3d29e6cf	0.04147988
138	0x3b31ab61	0.0027110206
139	0xbe04843e	-0.12941071
140	0xbe3fbd8c	-0.1872465
141	0x3e7f9891	0.24960543
142	0x3c9b0295	0.01892213
143	0x3e8f3b5c	0.27974975
144	0xbded003b	-0.115723096
145	0x3d5b6275	0.053560693
146	0xbe3c36d3	-0.18380289
147	0x3e099966	0.13437423
148	0xbe633d83	-0.22191434
149	0xbc3bbf90	-0.011459246
150	0xbd0ccd5d	-0.034375537
151	0x3d4a5c25	0.049404282
152	0x3e0c1560	0.13680029
153	0x3e3b9423	0.18318228
154	0xbd334502	-0.043766983
155	0x3eb00a50	0.34382868
156	0xbe90ece9	-0.28305748
157	0x3db5a444	0.08869222
158	0x3dc6768f	0.09690582
159	0x3e498360	0.19679022
160	0xbddf09a2	-0.10890509
161	0x3d93bb81	0.07213498
162	0x3e7020f5	0.23450072
163	0xbdf71e3d	-0.12066314
164	0x3d78f275	0.0607781
165	0xbe88a620	-0.26689243
166	0x3d27819a	0.040895082
167	0x3c6eb661	0.01456985
168	0x3d85cefe	0.06533621
169	0x3e166bf5	0.1468962
170	0x3c9696ba	0.018382419
171	0xbd09db86	-0.03365662
172	0xbe09eb92	-0.13468769
173	0x3e47062d	0.1943595
174	0xbd956a2c	-0.07295641
175	0xbd55415a	-0.052064277
176	0xbe1b906f	-0.15191816
177	0xbe9ae8c5	-0.30255714
178	0xbd79bf84	-0.06097366
179	0xbea29d0d	-0.31760445
180	0xbe5f1b33	-0.2178772
181	0xbc039f9f	-0.008033662
182	0x3ee0d272	0.43910557
183	0x3e043faf	0.12914918
184	0x3db16632	0.0866207
185	0xbc232460	-0.009957403
186	0x3e085548	0.13313782
187	0xbe455b72	-0.19273165
188	0xbe2b9709	-0.16756834
189	0xbd2c7e99	-0.04211292
190	0x3e7f41df	0.24927472
191	0xbd94848b	-0.07251843
192	0xbaa1e4b0	-0.0012351479
193	0x3dd5eb8f	0.1044532
194	0x3e6ae8b8	0.22940338
195	0xbda388d8	-0.07985085
196	0xbe3b26c8	-0.18276513
197	0xbd25900d	-0.04042058
198	0xbf12a8f3	-0.57289046
199	0x3e1c149e	0.1524224
200	0xbd0b7e77	-0.034056153
201	0xbe2fdf1a	-0.1717495
202	0x3e1b7a89	0.15183462
203	0x3eb49eb2	0.35277325
204	0x3e09c6c0	0.13454723
205	0xbe6c80a9	-0.23095955
206	0xbdd64ab7	-0.104634695
207	0xbe9e8a10	-0.30964708
208	0xbd9e7648	-0.07737404
209	0x3d2336d3	0.039847206
210	0xb8122247	-3.4841036e-05
211	0xbcaf2d81	-0.021384003
212	0xbddb1d2d	-0.10698924
213	0xbd724483	-0.05914737
214	0xbe63c68e	-0.22243711
215	0x3e0cf181	0.13764001
216	0x3eb0aff1	0.34509233
217	0x3f032b40	0.5123787
218	0xbe743baa	-0.23850885
219	0x3d7542f1	0.059878293
220	0xbd5a93ea	-0.053363718
221	0x3e156af8	0.14591587
222	0x3e2c1944	0.16806513
223	0x3def3209	0.11679465
224	0xbd9a25ff	-0.075267784
225	0x3e06ad86	0.13152131
226	0xbe51c601	-0.20485689
227	0xbe95df2c	-0.2927183
228	0x3e510940	0.20413685
229	0xbe1eaa0b	-0.15494554
230	0xbe2c8794	-0.16848594
231	0xbc830e6f	-0.015998093
232	0xbda2ccfc	-0.07949254
233	0xbd63f01c	-0.055648908
234	0xbe2b6093	-0.16736059
235	0x3da94b7a	0.08266349
236	0x3d10f736	0.03539201
237	0xbeea0ab4	-0.4571129
238	0x3d38b8c0	0.045098066
239	0x3e19db9c	0.1502518
240	0xbe3de754	-0.18545276
241	0xbebfa7c7	-0.3743269
242	0x3e28c08d	0.16479702
243	0x3b0a0b3e	0.002106383
244	0x3eb98900	0.36237335
245	0xbe09479d	-0.13406225
246	0xbedaaa4a	-0.42708045
247	0xbd86c301	-0.06580163
248	0xbc1283a9	-0.008942523
249	0xbd749c98	-0.059719652
250	0xbe8b4afd	-0.2720565
251	0x3e0105ba	0.12599841
252	0xbeaa57e2	-0.33270174
253	0x3df63bd2	0.120231286
254	0x3ec098ad	0.37616482
255	0xbdc2ff42	-0.09521343

relational_layer.layers.0.lin_dst.weight f4 [64, 64]
0	0x3d9be2f1	0.07611645
1	0x3d2d4698	0.04230365
2	0x3e7c6a30	0.24649882
3	0xbebf7aaa	-0.37398273
4	0x3e2e489a	0.17019883
5	0xbe082594	-0.13295585
6	0xbe1eae04	-0.15496069
7	0xbe96a740	-0.29424477
8	0x3e6efff9	0.23339833
9	0xbdf8667a	-0.12128921
10	0xbd7c7440	-0.061634302
11	0xbe29f74e	-0.16598246
12	0xbe81b00a	-0.2532962
13	0x3e7f776c	0.249479
14	0xbedc9e7f	-0.43089673
15	0x3e2600ce	0.16211244
16	0x3db956b4	0.090497404
17	0x3d397a93	0.04528291
18	0xbef0f05c	-0.4705838
19	0xbf319979	-0.69374806
20	0xbdcecd82	-0.10097791
21	0x3db97827	0.0905612
22	0xbf086a4a	-0.53287184
23	0xbd85691e	-0.0651419
24	0xbec0bc7c	-0.37643802
25	0x3e0e05a6	0.13869342
26	0xbcb65c07	-0.022260679
27	0xbecea6da	-0.40361673
28	0xbe0969dd	-0.1341929
29	0xbdff7521	-0.124735124
30	0x3e8bd592	0.2731138
31	0xbe3fb3b4	-0.18720895
32	0xbe8f11e3	-0.27943334
33	0xbe3fea70	-0.18741775
34	0xbe1ccb45	-0.15311916
35	0xbe59d58f	-0.21272872
36	0xbdf27611	-0.11838926
37	0x3d4504b4	0.04810019
38	0xbdf973b5	-0.121802725
39	0x3c4dd1f0	0.01256226
40	0x3d89f07a	0.067353204
41	0xbdea4933	-0.11439743
42	0x3e8efc35	0.27926794
43	0x3bcce8be	0.006253331
44	0x3ebb4ea6	0.36583441
45	0xbf260373	-0.64849013
46	0xbd9b3b76	-0.07579701
47	0x3d0b477b	0.034003716
48	0xbecac32c	-0.3960203
49	0xbd2c1ce8	-0.042019755
50	0xbe6ae54d	-0.22939034
51	0x3ea8ad09	0.32944515
52	0x3dd36750	0.1032244
53	0xbe482472	-0.19545153
54	0x3cdea86a	0.027179915
55	0xbc8808d1	-0.016605766
56	0x3e4bef99	0.19915618
57	0x3f05313e	0.5202826
58	0xbe975b09	-0.29561642
59	0xbe8691be	-0.26283067
60	0xbbef368d	-0.007300204
61	0xbd015a07	-0.031579997
62	0x3ed88dec	0.42295778
63	0xbe53d3db	-0.20686285
64	0x3d2f1329	0.042742882
65	0xbe80df18	-0.25170207
66	0xbe042dc0	-0.12908077
67	0xbe0aeeb8	-0.13567626
68	0xbe35692c	-0.17715901
69	0xbd14dc8c	-0.036343142
70	0x3db22fbc	0.08700511
71	0xbeac68ac	-0.33673608
72	0xba99e643	-0.0011741597
73	0xbe64c966	-0.22342452
74	0xbdc11272	-0.09427346
75	0x3e66468e	0.22487852
76	0x3e59d0ea	0.212711
77	0x3ebb7052	0.3660913
78	0xbdd7d7cc	-0.10539207
79	0xbd8aa1e0	-0.067691565
80	0xbe95f03d	-0.2928485
81	0xbd5b10c9	-0.053482804
82	0xbe818b0d	-0.253014
83	0xbe8891f4	-0.26673853
84	0x3daf66e0	0.08564544
85	0x3cbf9668	0.023387149
86	0xbe43b880	-0.1911335
87	0xbe52c587	-0.20583163
88	0x3d18335e	0.037158363
89	0xbe93517a	-0.287731
90	0xbd39739a	-0.045276262
91	0x3de39a07	0.11113363
92	0xbd631097	-0.055435743
93	0x3e95fc24	0.2929393
94	0x3dda8f12	0.1067182
95	0xbe53d772	-0.20687655
96	0x3d5bcb49	0.053660665
97	0x3e370ba5	0.17875536
98	0xbee44314	-0.44582427
99	0xbe0f29e4	-0.13980824
100	0xbde22a8e	-0.11043273
101	0x3b059d55	0.0020387967
102	0xbe929921	-0.28632453
103	0xbdb202da	-0.0869195
104	0x3e17b1cc	0.14813918
105	0x3eb98525	0.36234394
106	0xbdbb767e	-0.0915346
107	0xbe97fb4a	-0.29683906
108	0x3d43af38	0.047774523
109	0x3e08dd39	0.1336564
110	0xbe8e6078	-0.27807975
111	0xbd962c9b	-0.073327266
112	0x3ddd079a	0.107924655
113	0xbcacfbff	-0.021116255
114	0x3cdcbd39	0.026945697
115	0xbe4b83a3	-0.19874434
116	0xbd65818d	-0.056031752
117	0xbe65d4c9	-0.22444452
118	0xbe360e4d	-0.17778893
119	0xbe866489	-0.26248577
120	0xbd811e76	-0.06304638
121	0x3e16a80a	0.1471254
122	0xbe699007	-0.22808848
123	0xbd54e549	-0.051976476
124	0xbe69db8b	-0.22837655
125	0xbd5067e0	-0.050880313
126	0x3d9f841c	0.0778887
127	0x3dad4040	0.0845952
128	0xbd061d70	-0.032742918
129	0x3ec2b39f	0.38027665
130	0x3d6d81fb	0.057985287
131	0x3cbb2e25	0.022849152
132	0xbe36ec39	-0.1786355
133	0x3d5e48c2	0.054268606
134	0x3e11b0e6	0.14227638
135	0x3e0a06ff	0.13479231
136	0xbe3328bc	-0.17496008
137	0x3d29e6cf	0.04147988
138	0x3b31ab61	0.0027110206
139	0xbe04843e	-0.12941071
140	0xbe3fbd8c	-0.1872465
141	0x3e7f9891	0.24960543
142	0x3c9b0295	0.01892213
143	0x3e8f3b5c	0.27974975
144	0xbded003b	-0.115723096
145	0x3d5b6275	0.053560693
146	0xbe3c36d3	-0.18380289
147	0x3e099966	0.13437423
148	0xbe633d83	-0.22191434
149	0xbc3bbf90	-0.011459246
150	0xbd0ccd5d	-0.034375537
151	0x3d4a5c25	0.049404282
152	0x3e0c1560	0.13680029
153	0x3e3b9423	0.18318228
154	0xbd334502	-0.043766983
155	0x3eb00a50	0.34382868
156	0xbe90ece9	-0.28305748
157	0x3db5a444	0.08869222
158	0x3dc6768f	0.09690582
159	0x3e498360	0.19679022
160	0xbddf09a2	-0.10890509
161	0x3d93bb81	0.07213498
162	0x3e7020f5	0.23450072
163	0xbdf71e3d	-0.12066314
164	0x3d78f275	0.0607781
165	0xbe88a620	-0.26689243
166	0x3d27819a	0.040895082
167	0x3c6eb661	0.01456985
168	0x3d85cefe	0.06533621
169	0x3e166bf5	0.1468962
170	0x3c9696ba	0.018382419
171	0xbd09db86	-0.03365662
172	0xbe09eb92	-0.13468769
173	0x3e47062d	0.1943595
174	0xbd956a2c	-0.07295641
175	0xbd55415a	-0.052064277
176	0xbe1b906f	-0.15191816
177	0xbe9ae8c5	-0.30255714
178	0xbd79bf84	-0.06097366
179	0xbea29d0d	-0.31760445
180	0xbe5f1b33	-0.2178772
181	0xbc039f9f	-0.008033662
182	0x3ee0d272	0.43910557
183	0x3e043faf	0.12914918
184	0x3db16632	0.0866207
185	0xbc232460	-0.009957403
186	0x3e085548	0.13313782
187	0xbe455b72	-0.19273165
188	0xbe2b9709	-0.16756834
189	0xbd2c7e99	-0.04211292
190	0x3e7f41df	0.24927472
191	0xbd94848b	-0.07251843
192	0xbaa1e4b0	-0.0012351479
193	0x3dd5eb8f	0.1044532
194	0x3e6ae8b8	0.22940338
195	0xbda388d8	-0.07985085
196	0xbe3b26c8	-0.18276513
197	0xbd25900d	-0.04042058
198	0xbf12a8f3	-0.57289046
199	0x3e1c149e	0.1524224
200	0xbd0b7e77	-0.034056153
201	0xbe2fdf1a	-0.1717495
202	0x3e1b7a89	0.15183462
203	0x3eb49eb2	0.35277325
204	0x3e09c6c0	0.13454723
205	0xbe6c80a9	-0.23095955
206	0xbdd64ab7	-0.104634695
207	0xbe9e8a10	-0.30964708
208	0xbd9e7648	-0.07737404
209	0x3d2336d3	0.039847206
210	0xb8122247	-3.4841036e-05
211	0xbcaf2d81	-0.021384003
212	0xbddb1d2d	-0.10698924
213	0xbd724483	-0.05914737
214	0xbe63c68e	-0.22243711
215	0x3e0cf181	0.13764001
216	0x3eb0aff1	0.34509233
217	0x3f032b40	0.5123787
218	0xbe743baa	-0.23850885
219	0x3d7542f1	0.059878293
220	0xbd5a93ea	-0.053363718
221	0x3e156af8	0.14591587
222	0x3e2c1944	0.16806513
223	0x3def3209	0.11679465
224	0xbd9a25ff	-0.075267784
225	0x3e06ad86	0.13152131
226	0xbe51c601	-0.20485689
227	0xbe95df2c	-0.2927183
228	0x3e510940	0.20413685
229	0xbe1eaa0b	-0.15494554
230	0xbe2c8794	-0.16848594
231	0xbc830e6f	-0.015998093
232	0xbda2ccfc	-0.07949254
233	0xbd63f01c	-0.055648908
234	0xbe2b6093	-0.16736059
235	0x3da94b7a	0.08266349
236	0x3d10f736	0.03539201
237	0xbeea0ab4	-0.4571129
238	0x3d38b8c0	0.045098066
239	0x3e19db9c	0.1502518
240	0xbe3de754	-0.18545276
241	0xbebfa7c7	-0.3743269
242	0x3e28c08d	0.16479702
243	0x3b0a0b3e	0.002106383
244	0x3eb98900	0.36237335
245	0xbe09479d	-0.13406225
246	0xbedaaa4a	-0.42708045
247	0xbd86c301	-0.06580163
248	0xbc1283a9	-0.008942523
249	0xbd749c98	-0.059719652
250	0xbe8b4afd	-0.2720565
251	0x3e0105ba	0.12599841
252	0xbeaa57e2	-0.33270174
253	0x3df63bd2	0.120231286
254	0x3ec098ad	0.37616482
255	0xbdc2ff42	-0.09521343

action_layer.layer1.0.weight f4 [128, 128]
0	0xbea13e42	-0.3149281
1	0xbe13071a	-0.14358178
2	0xbe2a7148	-0.16644776
3	0xbde66d3b	-0.11251303
4	0x3df85434	0.121254355
5	0x3d9e22d3	0.07721486
6	0xbd9eec06	-0.07759862
7	0xbdf6bbb4	-0.1204752
8	0xbe6f4115	-0.2336467
9	0x3ddab467	0.1067894
10	0x3e7095cb	0.23494641
11	0xbcb58105	-0.022156248
12	0x3e079105	0.13238914
13	0xbd8e954e	-0.06962071
14	0xbe0234ea	-0.12715498
15	0xbafffa83	-0.0019529614
16	0x3d04c168	0.03241101
17	0x3d407bf4	0.04699321
18	0xbe99c9a8	-0.30036664
19	0xbe7bbe2e	-0.24584267
20	0xbe353f8c	-0.17700022
21	0xba6ca45b	-0.00090271764
22	0xbb8fa6d9	-0.0043839035
23	0xbd8f63e4	-0.070014745
24	0xbd61d956	-0.05513891
25	0x3db355c3	0.08756592
26	0x3db05a47	0.08610969
27	0xbdd11360	-0.102087736
28	0x3d2ece84	0.042677417
29	0x3d93bcbb	0.07213732
30	0xbd4056f5	-0.04695793
31	0x3eab3ca3	0.334447
32	0xbe621fc8	-0.22082436
33	0xbe564e70	-0.20928359
34	0x3dd011f9	0.10159678
35	0x3d7d7f6e	0.061889105
36	0xbd622e55	-0.055219967
37	0xbc9a23b5	-0.018815855
38	0xbdbea90e	-0.093095884
39	0x3dc68337	0.09692996
40	0xbe035a88	-0.12827504
41	0x3e585e49	0.21129717
42	0xbcda104c	-0.0266191
43	0x3ddc660e	0.10761653
44	0x3e7f4c61	0.2493148
45	0x3d9c7518	0.07639521
46	0xbde071c4	-0.10959199
47	0x3d742764	0.05960788
48	0x3db66dcc	0.08907661
49	0x3d490864	0.049080268
50	0xbca69810	-0.02033618
51	0x3d01b51c	0.03166686
52	0xbd68dd22	-0.056851514
53	0x3e35b3b1	0.17744328
54	0xbd8607ab	-0.06544431
55	0xbe3280af	-0.17431901
56	0xbe42bd22	-0.19017461
57	0x3dae4b50	0.085104585
58	0x3e3d73e2	0.18501237
59	0xbe49d3c7	-0.19709693
60	0x3d3b0f8a	0.045669116
61	0x3d41f20c	0.047349975
62	0x3d1f2e8d	0.038862754
63	0xbd20103e	-0.03907799
64	0xbd0a5bf6	-0.033779107
65	0x3df80a3c	0.12111327
66	0x3d33dd67	0.043912318
67	0x3d15afcc	0.036544606
68	0xbdfeaac2	-0.12434913
69	0x3d2e0dde	0.042493694
70	0x3d651ba7	0.055934574
71	0x3e34591d	0.17612119
72	0x3dcb492e	0.09926067
73	0xbddbc3ac	-0.10730681
74	0xbd52c05b	-0.051452976
75	0xbbf5b8de	-0.0074988445
76	0x3d4163f4	0.047214463
77	0x3cb21bfa	0.021741856
78	0xbe04b073	-0.12957935
79	0x3d96f8a1	0.07371641
80	0x3df7bf3d	0.12097023
81	0xbddbad10	-0.107263684
82	0xbd250cbe	-0.040295355
83	0x3dad7e9e	0.08471416
84	0x3dcc9361	0.09989048
85	0xbdb5c3d4	-0.08875242
86	0x3dcc1ce0	0.09966445
87	0xbcc2cb95	-0.023778716
88	0x3e2e45da	0.17018834
89	0xbd1d0e74	-0.03834386
90	0x3ccc10d4	0.024910368
91	0xbd5400db	-0.05175863
92	0xbe95f560	-0.2928877
93	0xbe2d1218	-0.16901433
94	0xbd516a8a	-0.051126994
95	0xbde18075	-0.11010829
96	0xba128c7c	-0.0005590392
97	0xbd66e65a	-0.056372024
98	0xbd89c1fc	-0.06726453
99	0x3c05b02d	0.008159679
100	0x399a7320	0.00029458944
101	0xbcd389bb	-0.025822511
102	0x3b21a5a5	0.0024665382
103	0x3c5853b1	0.013203547
104	0x3cea9fa4	0.028640576
105	0x3d12d66d	0.035849024
106	0x3d51fc4f	0.05126601
107	0xbc07e483	-0.0082942275
108	0xbe9066f5	-0.2820355
109	0x3da79f40	0.081846714
110	0xbe5b6b52	-0.21427658
111	0x3e8acecd	0.271109
112	0x3e59e7bf	0.2127981
113	0x3d2457a5	0.040122647
114	0xbf01b345	-0.5066417
115	0x3eb6edfb	0.3572844
116	0xbe6e7ff6	-0.23291
117	0xbd15b42f	-0.03654879
118	0x3c9035ee	0.01760384
119	0x3c98ae3d	0.01863777
120	0xbdec3a17	-0.11534517
121	0xbe049119	-0.12945975
122	0x3cae2752	0.021258984
123	0x3be560e5	0.007000076
124	0xbd5719da	-0.05251489
125	0xbc764c9d	-0.0150329145
126	0x3e83d910	0.25751543
127	0x3d264e88	0.040602237
128	0x3e9bfb2b	0.30465063
129	0x3e0d16ec	0.13778275
130	0xbe3553d9	-0.17707767
131	0x3d9242be	0.07141636
132	0x3e1b45a7	0.15163289
133	0x3e4ac0d1	0.19800116
134	0xbe25e46c	-0.16200417
135	0x3e2f9567	0.17146836
136	0x3ba1febd	0.0049436972
137	0xbda25ebf	-0.07928228
138	0xbdd39bd4	-0.10332456
139	0xbed8e312	-0.4236074
140	0x3e043448	0.12910569
141	0xbd88dd81	-0.066828735
142	0x3e372230	0.17884135
143	0xbeadeaa0	-0.33968067
144	0x3dea0d5b	0.114283286
145	0x3e0d3529	0.1378981
146	0xbe3e07b5	-0.18557627
147	0xbe92fdf8	-0.28709388
148	0x3dec7309	0.11545379
149	0xbe82ea6d	-0.25569478
150	0xbd313fc5	-0.043273706
151	0xbdbb2935	-0.09138719
152	0x3e64752b	0.22310321
153	0x3d733479	0.059376214
154	0xbd115eb1	-0.035490695
155	0x3baae024	0.005214708
156	0xbdba4061	-0.090943106
157	0xbdca578c	-0.098799795
158	0x3d0f4ccf	0.03498536
159	0x3deabe23	0.11462047
160	0x3d01ac7d	0.03165864
161	0xbd87fa0a	-0.06639488
162	0x3d921d8a	0.071345404
163	0x3d88621d	0.066593386
164	0xbd2f76c5	-0.042837877
165	0x3e63088a	0.22171226
166	0xbe0d3ec9	-0.13793482
167	0x3e075852	0.13217285
168	0xbe306891	-0.17227389
169	0x3e44ec09	0.19230665
170	0xbe79f6c2	-0.24410537
171	0xbdb9f7c6	-0.09080462
172	0xbda067f4	-0.078323275
173	0xbdc0a26d	-0.0940598
174	0xbc73a73e	-0.014871417
175	0x3da2af5b	0.07943603
176	0xbc03e22c	-0.008049529
177	0x3d3590a7	0.044327404
178	0x3e0e6dd5	0.13909085
179	0xbc8078e2	-0.015682641
180	0xbe4e1aca	-0.20127407
181	0xbdd3575c	-0.10319397
182	0xbccd98c5	-0.02509726
183	0x3ed25443	0.41079912
184	0xbd4d87a3	-0.05017818
185	0xbe5149f6	-0.2043837
186	0xbc902af7	-0.017598612
187	0xbd9c6f45	-0.076384105
188	0x3e404aaf	0.1877849
189	0x3d5bedc2	0.05369354
190	0xbd17622f	-0.03695887
191	0x3dbe8560	0.09302783
192	0xbcc2088c	-0.023685716
193	0xbdecb63b	-0.11558195
194	0xbc73fa54	-0.014891226
195	0x3e446996	0.19180903
196	0xbc6b9697	-0.014379165
197	0xbc067195	-0.008205791
198	0xbd056486	-0.03256657
199	0xbe0b6ccf	-0.13615726
200	0xbe66d97b	-0.225439
201	0x3d2b3a59	0.04180369
202	0x3bd86ced	0.006604782
203	0x3da1983d	0.07890365
204	0xbdeb4e4a	-0.11489542
205	0xbe952f3d	-0.29137602
206	0xbe43a4f9	-0.19105901
207	0x3e1245bf	0.14284419
208	0xbce1f238	-0.02758132
209	0xbd33f10e	-0.04393106
210	0x3c872d7c	0.01650118
211	0xbd2b040e	-0.041751914
212	0xbe1292cb	-0.1431381
213	0x3be75198	0.0070592873
214	0xbdc5c1eb	-0.096561275
215	0x3dc4b281	0.096043594
216	0x3e424660	0.18972158
217	0xbda90ae8	-0.08254033
218	0x3e4e535c	0.20148987
219	0xbe2f1931	-0.17099454
220	0x3e0f5b1c	0.13999599
221	0x3e01a6c3	0.12661271
222	0xbe88ec5e	-0.26742834
223	0x3d556499	0.05209789
224	0xbde8280e	-0.11335765
225	0xbeb11cbc	-0.34592235
226	0x3ea66216	0.3249671
227	0xbe46cefc	-0.19414896
228	0xbd75e0f0	-0.06002897
229	0x3b8b7c9f	0.0042567994
230	0x3d2bd9d3	0.04195578
231	0xbb5bb772	-0.003352609
232	0xbd21fc77	-0.03954741
233	0x3d69baf4	0.057063058
234	0xbdab4b87	-0.08364015
235	0xbdba9cb6	-0.091119215
236	0xbd516768	-0.051124007
237	0xbe87c9f9	-0.2652128
238	0x3e4e98c8	0.20175469
239	0x3e092b9a	0.13395539
240	0xbde5397c	-0.11192605
241	0x3c758668	0.014985658
242	0x3daab92e	0.083361015
243	0xbe27d9e1	-0.16391708
244	0x3e0e5a8c	0.13901728
245	0xbcdf190d	-0.027233625
246	0x3dd07a72	0.101796046
247	0x3e25da3b	0.1619653
248	0xbe494ec5	-0.19658954
249	0xbe42f544	-0.19038874
250	0xbe4c6320	-0.19959688
251	0x3d9b5af4	0.07585707
252	0xbd5b439d	-0.053531278
253	0xbde77ed2	-0.11303486
254	0xb984110d	-0.00025189706
255	0xbd987174	-0.074435145

action_layer.layer1.0.bias f4 [128]
0	0x3d035e52	0.032072373
1	0xbd698673	-0.057012986
2	0xbd425372	-0.04744286
3	0xbcf1e405	-0.029527673
4	0xbd818364	-0.06323889
5	0xbe5516e3	-0.20809512
6	0xbdd64200	-0.10461807
7	0xbdae261e	-0.08503364
8	0xbd8c0cfb	-0.06838413
9	0xbdfb54ea	-0.122720554
10	0xbcda5b79	-0.026654946
11	0xbe3c80e6	-0.18408546
12	0x3d0ddcb7	0.03463432
13	0x3d5e5af7	0.05428597
14	0x3d9e10c3	0.07718041
15	0x3d95302a	0.07284577
16	0xbe2dfdfb	-0.16991417
17	0x3d249413	0.040180277
18	0xbdcb3d9a	-0.09923859
19	0xbdbf3e8f	-0.09338104
20	0xbdea596f	-0.11442839
21	0xbe0015b3	-0.12508278
22	0x3df00eb3	0.11721554
23	0x3deb2e77	0.11483472
24	0xbe3c8a18	-0.18412054
25	0x3db67e1a	0.08910771
26	0xbe657b92	-0.2241042
27	0xbc15a389	-0.009133228
28	0xbcff2d00	-0.031149387
29	0x3d9187bb	0.07105967
30	0xbdb30eb7	-0.08743041
31	0x3d5c9bbd	0.05385946
32	0x3d209001	0.039199833
33	0xbd8517f1	-0.06498707
34	0x3d27839e	0.040897004
35	0xbd101499	-0.035175893
36	0xbcf5daef	-0.030011622
37	0xbc0f90c4	-0.008762542
38	0x3d66a764	0.05631198
39	0xbd97a9b3	-0.074054144
40	0xbd42d441	-0.047565702
41	0x3d71e645	0.059057493
42	0xbe3661ba	-0.17810717
43	0xbd9b82b3	-0.07593288
44	0x3cfb7086	0.030693304
45	0xbd7116c6	-0.05885961
46	0xbdfb1a43	-0.122608684
47	0xbd08e162	-0.033418067
48	0xbdf301f7	-0.11865609
49	0xbe3acc8a	-0.18242088
50	0xbc2e10a3	-0.010624084
51	0xbe1186cd	-0.14211579
52	0xbc2c91f2	-0.010532843
53	0xbcb2cad2	-0.021825228
54	0xbdb82498	-0.08991355
55	0xbd8e91d6	-0.0696141
56	0xbc7da3a2	-0.015480908
57	0xbd5b3145	-0.053513784
58	0x3d2425f5	0.04007526
59	0xbccab5cb	-0.024744889
60	0x3d2c64c2	0.042088278
61	0xbe10bc9d	-0.1413445
62	0xbd6d969b	-0.058004957
63	0xbe15f68f	-0.14644836
64	0xbda3e5fb	-0.0800285
65	0xbd18d875	-0.037315805
66	0xbe1f7b57	-0.15574394
67	0xbe2baf28	-0.16766036
68	0xbd15cb36	-0.03657075
69	0xbd9a1213	-0.07522979
70	0x3d3341f5	0.043764073
71	0xbdc1611b	-0.094423495
72	0xbdb33af7	-0.08751481
73	0x3d400dce	0.046888165
74	0xbd1e6202	-0.038667686
75	0xbd9f8fe0	-0.07791114
76	0xbbdcc436	-0.0067372574
77	0x3d862c2f	0.06551396
78	0xbdfd6ae0	-0.123739004
79	0x3c8acbf1	0.01694295
80	0xbd545b33	-0.051844787
81	0x3d60f92d	0.054925133
82	0x3a687ac2	0.000886839
83	0xbe0809b7	-0.13284956
84	0xbe0190a7	-0.12652837
85	0xbc8c2c36	-0.017110925
86	0xbcf1866a	-0.029483039
87	0x3c91c90c	0.017796062
88	0x3d432933	0.047646713
89	0xbc32b3f3	-0.010907161
90	0x3d0055ea	0.031331934
91	0xbe0159a0	-0.12631845
92	0xbd62fbe8	-0.055416018
93	0xbdfe6643	-0.124218486
94	0x3d27b589	0.04094461
95	0xbd11cb6c	-0.03559439
96	0xbd3120ad	-0.043244053
97	0xbdc2091f	-0.09474396
98	0xbd95f132	-0.07321395
99	0x3c4ca105	0.012489562
100	0xbe032520	-0.12807131
101	0xbd2142bb	-0.03937028
102	0xbdd2de9a	-0.10296364
103	0xbda5081f	-0.080581896
104	0xbd2f294a	-0.042763986
105	0xbd84dca0	-0.064873934
106	0xbe635ba8	-0.22202933
107	0xbdbc7eef	-0.09203898
108	0xbda17b04	-0.078847915
109	0xbe07e517	-0.13270985
110	0x3dd0db9c	0.10198137
111	0xbd9d90d9	-0.07693643
112	0xbd8ab4f6	-0.06772797
113	0xbe02018c	-0.12695903
114	0x3bf4c154	0.0074693356
115	0xbd7599c1	-0.059961084
116	0xbdbed610	-0.09318173
117	0xb7b16cf4	-2.115078e-05
118	0x3c79d05a	0.015247429
119	0x3cb5ea14	0.022206344
120	0xbc1f2e65	-0.009715651
121	0x3b1109da	0.0022131116
122	0xbe0ab7db	-0.13546698
123	0x3d88d4d2	0.06681217
124	0x3db67865	0.08909682
125	0xbdb5bbdd	-0.08873723
126	0xbe006a7f	-0.12540625
127	0xbe0160b0	-0.1263454

action_layer.layer1.1.weight f4 [2, 128]
0	0xbdb9b9c3	-0.09068634
1	0x3db8db94	0.09026256
2	0xbec87984	-0.3915521
3	0xbdaf30dd	-0.08554242
4	0x3e0be8ee	0.13663074
5	0x3d963738	0.07334751
6	0x3e040f35	0.12896426
7	0xbead65ae	-0.33866638
8	0xbce2e4a3	-0.027696913
9	0x3d29b211	0.041429583
10	0x3d5487a8	0.051887184
11	0x3dec0403	0.11524203
12	0xbe5a79d7	-0.2133554
13	0xbd9aa185	-0.07550339
14	0xbd593508	-0.05302909
15	0x3d035ec7	0.03207281
16	0x3e178906	0.14798364
17	0xbdf9f62c	-0.12205157
18	0x3eb821f8	0.35963416
19	0x3dbb28e1	0.091386564
20	0xbe923826	-0.28558463
21	0x3e0f469f	0.13991784
22	0xbd0d89bb	-0.034555178
23	0xbe103987	-0.14084445
24	0x3df55081	0.119782455
25	0xbc5d5644	-0.013509337
26	0x3deea22d	0.11652026
27	0x3d9d9ae5	0.076955594
28	0x3e15f1ea	0.14643064
29	0xbd8113fd	-0.063026406
30	0xbe2e3970	-0.17014098
31	0x3dfaa12c	0.12237772
32	0xbe27a820	-0.16372728
33	0xbe573852	-0.21017578
34	0x3dd6ed84	0.10494521
35	0xbd1f3024	-0.03886427
36	0xbe23765d	-0.15963121
37	0x3dc6c4e0	0.0970552
38	0xbdd44d83	-0.10366347
39	0xbe101335	-0.14069827
40	0xbe67105c	-0.22564834
41	0x3e0f176a	0.13973776
42	0xbe121d43	-0.14268975
43	0x3e911bd2	0.28341538
44	0xbdf5469b	-0.119763575
45	0x3eefd6e6	0.46843642
46	0xbe097db3	-0.13426857
47	0x3d7ed7f6	0.062217675
48	0xbeeb4195	-0.45948473
49	0x3cd6079b	0.026126673
50	0x3e147431	0.14497449
51	0xbe17a7b2	-0.14810064
52	0xbddf5cb1	-0.10906351
53	0xbe29793a	-0.1655015
54	0x3d522d07	0.051312473
55	0x3e4a236b	0.19740073
56	0x3de811c8	0.113315165
57	0xbe220654	-0.15822726
58	0x3dfb2593	0.12263026
59	0x3dd7febe	0.10546635
60	0xbe59d0d1	-0.21271063
61	0xbe4157e8	-0.1888119
62	0x3e5c86e3	0.2153583
63	0xbdaa65c4	-0.083201915
64	0x3e053283	0.1300755
65	0x3ced5c9e	0.028974827
66	0xbe893035	-0.26794592
67	0xbd6176eb	-0.05504505
68	0x3e4f4961	0.20242836
69	0xbe3c7b3d	-0.18406387
70	0xbda3c1ba	-0.07995935
71	0x3ea2e22c	0.3181318
72	0xbd863ac4	-0.065541774
73	0xbe5b11c2	-0.21393493
74	0xbdd458ce	-0.10368501
75	0x3e8062f1	0.25075486
76	0x3da38723	0.0798476
77	0xbe5d0cd7	-0.2158693
78	0x3e666cca	0.22502437
79	0x3d98c845	0.074600734
80	0xbe7d809d	-0.24756093
81	0xbd89d5ee	-0.06730257
82	0x3e2173d3	0.1576684
83	0x3e14484a	0.14480701
84	0x3da332a3	0.079686426
85	0xbc3ecbdc	-0.011645284
86	0x3c44ef6b	0.012019972
87	0xbd88bf22	-0.06677081
88	0x3d04217d	0.0322585
89	0x3d89f3ff	0.06735992
90	0xbc48c06b	-0.012252907
91	0x3e99b451	0.30020383
92	0xbd17035a	-0.03686843
93	0xbc7ae464	-0.015313242
94	0x3b5161ed	0.0031949237
95	0xbd905b96	-0.07048719
96	0x3d604f1d	0.05476295
97	0xbe2040a2	-0.15649655
98	0xbde33a87	-0.110951476
99	0xbd2a7dbf	-0.041623827
100	0x3daeace4	0.0852907
101	0xbe73cac8	-0.23807824
102	0xbd718f36	-0.058974467
103	0xbbcc3c06	-0.0062327413
104	0x3d8aeb7c	0.06783196
105	0x3ea029c4	0.31281865
106	0xbe8a8be1	-0.27059844
107	0x3db5bf2a	0.08874352
108	0xbcc4f3d9	-0.024042057
109	0xbe5bae16	-0.21453127
110	0x3ca8f48b	0.02062442
111	0xbea9c673	-0.33159217
112	0xbce89457	-0.028391046
113	0x3cadd369	0.021218972
114	0xbe056f55	-0.13030751
115	0x3ce271db	0.027642181
116	0x3d08400a	0.033264197
117	0xbe83f584	-0.2577325
118	0xbd9f47bb	-0.077773534
119	0xbe09796d	-0.13425227
120	0x3d1d1412	0.03834922
121	0x3d149f8e	0.036284976
122	0x3ca718ea	0.020397622
123	0x3df09ebf	0.117490284
124	0xbdaf84aa	-0.085702255
125	0x3daffc90	0.08593094
126	0x3d90bf1e	0.07067703
127	0xbe63045c	-0.22169632
128	0x3b93605c	0.004497571
129	0x3af2efd9	0.0018534615
130	0x3e337845	0.17526348
131	0xbdf7ffd5	-0.12109343
132	0xbcfba9ae	-0.030720558
133	0x3e964c24	0.29354966
134	0x3daf453a	0.08558126
135	0xbceca985	-0.028889427
136	0xbe1122a9	-0.14173378
137	0xbe2e55b2	-0.17024878
138	0xbe1fdf55	-0.15612538
139	0x3ca23488	0.01980044
140	0xb9716e54	-0.00023024651
141	0x3d35432b	0.04425351
142	0xbcba7694	-0.02276162
143	0x3dcf5ae5	0.10124759
144	0xbe16eed8	-0.14739549
145	0xbc48172f	-0.012212559
146	0x3e92a0ff	0.28638455
147	0x3e998e22	0.2999125
148	0xbeb4f64d	-0.35344163
149	0xbc2b86c8	-0.010469146
150	0x3db529cb	0.08845862
151	0xbd55cfd5	-0.052200157
152	0xbed35b9b	-0.41280827
153	0x3df2086c	0.118180126
154	0x3e11a377	0.14222513
155	0xbd901de4	-0.07036951
156	0xbddb88a2	-0.1071942
157	0x3d5e8e22	0.054334767
158	0xbe7db45d	-0.24775834
159	0x3d38623b	0.045015555
160	0xbda67533	-0.08127823
161	0x3e0c0c81	0.13676645
162	0x3bc2d04c	0.005945241
163	0x3e81f631	0.25383142
164	0x3ea8c2c7	0.32961103
165	0x3e8c3cb3	0.2739006
166	0x3e9410b7	0.28919002
167	0x3d86b5a1	0.06577612
168	0xbcf9c240	-0.030488133
169	0xbe266677	-0.16250025
170	0xbe8fe0ff	-0.28101346
171	0xbd720f86	-0.059096836
172	0x3d4e0393	0.050296377
173	0x3e1db1b4	0.1539982
174	0xbd30aa05	-0.043130893
175	0x3df85011	0.121246465
176	0xbadf8af9	-0.0017054967
177	0x3df74f99	0.12075729
178	0x3cd50177	0.026001675
179	0x3e46a0a7	0.19397222
180	0x3e8eedac	0.27915704
181	0x3dd66d9a	0.104701236
182	0xbea69342	-0.32534224
183	0xbcfc0821	-0.030765595
184	0x3dc895f8	0.09794229
185	0x3eb9fc18	0.36325145
186	0xbd1a22c4	-0.03763081
187	0xbe41b58d	-0.18916912
188	0x3bdaee13	0.0066812127
189	0x3d89abfd	0.06722257
190	0xbd5679fd	-0.05236243
191	0xbdfbe6c6	-0.12299876
192	0xbe03af9d	-0.1285996
193	0xbe7ba6b0	-0.24575305
194	0xbe4f85fb	-0.20265953
195	0xbe272917	-0.16324268
196	0xbe61dfbc	-0.22058004
197	0x3d002e74	0.0312943
198	0x3d0bdc99	0.034145925
199	0xbc086292	-0.008324282
200	0xbdc05761	-0.09391666
201	0xbe47414f	-0.19458507
202	0xbe406f98	-0.1879257
203	0x3e4f51df	0.20246075
204	0xbc429560	-0.011876434
205	0xbba13fb6	-0.004920925
206	0xbe2a11e9	-0.16608395
207	0xbdd503cd	-0.104011156
208	0x3d57c5ba	0.0526788
209	0xbe041c5c	-0.12901443
210	0xbd6c7b3c	-0.057734713
211	0x3ecbc9ff	0.39802548
212	0xbe17c6d6	-0.14821944
213	0xbdcd20d8	-0.1001603
214	0xbe39bc43	-0.18138222
215	0xbd6a9199	-0.05726776
216	0xbdf5bcf9	-0.11998934
217	0x3e51ce1b	0.20488779
218	0x3e8d14df	0.27554986
219	0x3d64236d	0.055697847
220	0x3e0f132b	0.13972156
221	0x3dad9d29	0.084772415
222	0xbdba8342	-0.09107067
223	0x3cfe6585	0.031054268
224	0x3e3476b3	0.17623405
225	0x3ee0a274	0.43873942
226	0x3ea5c60e	0.32377666
227	0xbd6bc5e7	-0.05756178
228	0xbd1b88ac	-0.037972137
229	0xbe64f60f	-0.22359489
230	0x3da1ec48	0.07906395
231	0x3ea6540a	0.32485992
232	0xbdadbfea	-0.0848387
233	0x3d1b4d03	0.03791524
234	0x3e7d8318	0.2475704
235	0xbd205b76	-0.039149724
236	0x3ea0e172	0.31422
237	0xbe6ee9e7	-0.23331414
238	0x3d84819c	0.064700335
239	0xbdf064a7	-0.11737948
240	0xbe6422a8	-0.22278845
241	0x3dc33776	0.09532063
242	0x3b099436	0.0020992882
243	0xbea4c29e	-0.3217973
244	0x3e08f366	0.13374099
245	0xbd78cc7d	-0.06074189
246	0x3d94b0c4	0.07260278
247	0x3e98b6ec	0.29827058
248	0xbec6f22e	-0.38856643
249	0x3eaf5fa6	0.3425266
250	0x3e470748	0.19436371
251	0xbe98abb7	-0.29818508
252	0xbc64d0f8	-0.013965838
253	0x3d7b34d9	0.061329696
254	0xbe3c06fb	-0.18362038
255	0xbd4fa1a5	-0.050691266

action_layer.layer1.1.bias f4 [2]
0	0x3c302dbd	0.010753092
1	0x3bc4fc1a	0.006011498
