HGAT-MADDPG_ver2/ModelBuffer/model_2900.pt (torch, 369835 bytes, 33 tensors)

encoding_layer.layer.0.weight f4 [64, 180]
00000000: d535 e3bc 0013 ea3b 4716 f037 2339 dcbb
00000010: c028 183d 9f94 983c a0a6 6bbd 6aa5 cd3d
00000020: 36f3 01be 9edc f0bd 911c a93d f9bf 7cbd
00000030: fbe4 233c 0314 f1bd 7214 c0bc 3094 cf3d
00000040: 9507 f53c 9643 683d 642e a0bd 183f d9bc
00000050: fb60 253e c9e3 813d 2f78 113d b516 f7bd
00000060: 1f39 093e acc1 143d 0007 413e 4b17 c7bd
00000070: 5624 d9bd bcf9 4a3e b133 cdbd 554d 97bc
00000080: 15d7 db3c 8db6 8ebb e209 b23d eb4e 953e
00000090: 567d febd a769 1dbe de94 0dbe 4c4c 3dbe
000000a0: ee24 3f3d f3de a93e 9b28 573d de77 16be
000000b0: f026 cbbd 0fd9 aebd 291d 9ebd 93d2 a3be
000000c0: 275b 77be c61e 8fbe f789 143e 4387 1d3d
000000d0: 0882 943d 9975 453e c2ab 223e d8cc 0cbe
000000e0: fb58 07be ca27 993d ff06 60be 4f58 81be
000000f0: cdb7 91be 3b80 1dbe d9ee 113e bfc2 c6be
00000100: 5e69 b3be b394 22bd 4c6a 98bd f420 a6bd
00000110: 126b 62be 2b67 3ebe ed2a b83d 54c5 c7bd
00000120: d0e4 453d 41e3 803d cb0c 953d 9a84 0cbe
00000130: 6ed1 0a3e bf20 cd3c 881d e03d 29b9 673e
00000140: 9453 51be c34d eb3c e139 953d 299c 37be
00000150: 8f8a 15be d78a ba3d dc7c 03bb 0634 dcbd
00000160: 6ed3 0b3e d627 4f3e e79b 6f3d b258 7fbe
00000170: 41ec 51bd 9aa3 ca3c f625 e33d c6e6 493e
00000180: 4760 1fbd a2d0 9bbc f484 dfbd 09d6 20be
00000190: acb7 d4bd 6eed ca3d c5ec c6bd 5c3a babd
000001a0: 6642 c7bd bd21 a73b 5f46 cdbd d026 1f3c
000001b0: 350e 863c b62b 07bc ca12 133d 06f1 87bd
000001c0: f0ff 4abd f482 80bd 3928 2bbd a61b b7bd
000001d0: 70e3 a73d c86f 96bd 8df6 69bd f860 a33d
000001e0: a41f aabd 935e 8d3d d533 93bd 8676 553d
000001f0: 86b0 66bd 2ad0 143e a9b8 083d 9abe 233d
00000200: d133 ebbd b25e f8bd 90ab 94bd 170b 40bc
00000210: 0975 bc3d 5759 78bd 1c79 c53d e88e f9bc
00000220: 22ef 9e3d d568 dd3c 04be 4e3d 848c 01bc
00000230: 00cb c03d 343c f8bc 2d26 74bd ee3e c9bc
00000240: 0dfe 923d 9774 94bc c5ef 4b3c aa26 b1bc
00000250: ca46 d23c 8e92 5f3a 2558 2ebd 35f3 c7bd
00000260: 0ea3 183d 7139 7cbd f0cd a2bd 70da 37be
00000270: e66d fcbc db3a 11bd c783 9cbd ac4e 69bd
00000280: 45d6 2dbd 9657 a03d 8cfa b83c 6e8c f73c
00000290: 3af7 9d3d 87ac f63c 681e bc3d 1dbc 7a3d
000002a0: 1977 373d 16a8 013c 7b4e 353b f67f d03d
000002b0: 4c1f 043d b5b0 e6bb 9cfd db3b 605d 913d
000002c0: 6d24 1e3e 6e98 e1be 7863 aa3e 6a49 113c
000002d0: ba99 b83d faf4 6a3d e8a4 51bd 95e2 09bd
000002e0: 9d48 c23d 313c cc3c 48db 2cbe 131a c23c
000002f0: b2b7 443d da17 bdbc 94e0 23be 392f 893c
00000300: 4fa3 70be 154a 10be 812f 3a3d 450c a23d
00000310: cfd0 f53a 63c8 3a3d 3d3a 90bd 8e80 f83c
00000320: 35b9 62bd d84e 823d c211 db3d e34a 573c
00000330: 9ae5 df3d 77cf 953d 66cd 5abe aa73 1fbe
00000340: 267a 9d3e ca4b 833e 9964 a8bc a397 b83c
00000350: 911c 85be 925b a73d f2d8 99be cf1d d43e
00000360: f77f a03e 7eda 623d e4d2 043d 960c 4c3a
00000370: 986f 883d bd48 f4bd 7b96 92bc 331c 113d
00000380: f67a a8bd 5fe0 bf3d 4e2f 853d 409e 3cbd
00000390: 0442 9abd 7235 08be f22b a5bc 3ff3 063e
000003a0: ca43 bf3d 6f71 24be e02b dabd 7149 903c
000003b0: a0eb 323d 229b aa3c 19d8 b63c 847f 81bd
000003c0: 5141 67be b142 193e ea12 d6bc 2e37 c6bd
000003d0: 38ee 92bd 3bb7 7f3d 3b17 27be 7c78 02be
000003e0: 9756 94bc 5643 99bb d94a 3bbe 8eb5 4dbe
000003f0: b0a0 c2bd 5219 c2be 8ffc bbbe 63fe 7bbe
-0.02773563 0.0071433783 2.8620603e-05 -0.0067206784 0.037148237 0.018625556 -0.057531953 0.10041316
-0.12690434 -0.117608294 0.08257402 -0.061706517 0.010003324 -0.11771395 -0.02344725 0.101356864
0.029910842 0.05670508 -0.07821348 -0.026519343 0.16150276 0.06342275 0.035515007 -0.12064878
0.13400696 0.036317512 0.18850327 -0.0972124 -0.10602634 0.19821829 -0.10019625 -0.018469492
0.026835958 -0.004355258 0.08693291 0.29161772 -0.1242625 -0.15372334 -0.1382632 -0.18486136
0.04666608 0.3317791 0.05252896 -0.14694163 -0.09919536 -0.085374944 -0.077204056 -0.31996593
-0.24155866 -0.27953166 0.14505754 0.038459074 0.07251364 0.19283141 0.15885833 -0.13750017
-0.13217537 0.07478292 -0.21877669 -0.25262687 -0.2846054 -0.15380947 0.1425127 -0.38820454
-0.35041326 -0.039692592 -0.074421495 -0.08111754 -0.22111157 -0.18594043 0.089925624 -0.09754434
0.048313916 0.06293345 0.07277831 -0.13722458 0.13556454 0.025040029 0.10943133 0.22629227
-0.20442039 0.028723603 0.0728643 -0.17930664 -0.14603637 0.09108513 -0.0020063436 -0.1075211
0.13654873 0.2023004 0.05849829 -0.24936178 -0.0512507 0.024736214 0.11091225 0.1971694
-0.038910177 -0.019020382 -0.10914031 -0.15706648 -0.10386595 0.09908567 -0.09713129 -0.090931624
-0.09729461 0.0051004575 -0.10023188 0.009713843 0.016364196 -0.008250168 0.03590659 -0.066377684
-0.049560487 -0.06274977 -0.041786406 -0.089408204 0.08197677 -0.07345539 -0.057119895 0.0797748
-0.08306816 0.06902804 -0.071876206 0.052114986 -0.05632069 0.14532533 0.03337923 0.039976694
-0.114844926 -0.12127437 -0.072592854 -0.011721394 0.0920201 -0.060632076 0.096422404 -0.03046365
0.07760455 0.027027527 0.05047418 -0.007907037 0.09413719 -0.030302145 -0.05960672 -0.02456614
0.071773626 -0.018122 0.012447302 -0.021624882 0.02566852 0.0008528613 -0.04256453 -0.09763185
0.037264876 -0.061578218 -0.07949436 -0.17954421 -0.030814122 -0.03545652 -0.07642322 -0.056959793
-0.04244067 0.07829206 0.022580408 0.03021833 0.0771317 0.030111564 0.09185487 0.061214555
0.044791315 0.00791361 0.0027665186 0.101806566 0.03225641 -0.007040108 0.006713582 0.07097888
0.15443583 -0.44061607 0.33279014 0.008867601 0.09013696 0.057362534 -0.051182657 -0.03366335
0.09486506 0.024931045 -0.16880524 0.023694074 0.048026748 -0.023082662 -0.16003639 0.01674615
-0.23499797 -0.1409076 0.04545546 0.079124965 0.0018754246 0.04560126 -0.07042358 0.030334737
-0.05535241 0.063626945 0.106967464 0.013140413 0.10932465 0.073149614 -0.21367416 -0.15571466
0.30757254 0.2564376 -0.020555781 0.022533244 -0.25998357 0.081717625 -0.3004833 0.41428992
0.3134763 0.05538415 0.032427683 0.0007783858 0.0666191 -0.11927936 -0.01789402 0.035427283
-0.08226578 0.09368967 0.06503163 -0.046049356 -0.07532123 -0.13301638 -0.020162556 0.13178729
0.093391016 -0.16058896 -0.106529 0.017613145 0.04368174 0.020825926 0.02231984 -0.0632315
-0.2258351 0.14966847 -0.026132066 -0.096784934 -0.07174343 0.0624306 -0.16317455 -0.12741274
-0.018107696 -0.0046772165 -0.18290271 -0.20088789 -0.09503305 -0.37909943 -0.36716124 -0.2460876

encoding_layer.layer.0.bias f4 [64]
00000000: d115 a23d 6f0d 633c 3e31 e63c 9af3 febc
00000010: e537 05bd 7757 b53d fc4b 913c ade6 8cbd
00000020: 1939 133d 1a52 32bd dfc3 dfbc 891a b6bd
00000030: e72a f5bc 4639 943d 309f ebbc b2f1 2fbd
00000040: 063b d8bc 04e9 72bc 124e 943c d97a 673d
00000050: 139d ddbc cf8a e1bc e445 c8bd f42b 0dbd
00000060: 05d3 33bd 13e6 64bd 6e26 4e3d 0a3a 043d
00000070: c107 663d 25ae acbc 1897 62bc 6eb8 99bd
00000080: 8e1b c43c d984 ca3c b198 89bc c63e 803a
00000090: 139b 7dbb 0a52 b7bd 18fa ccbd 93d1 77bd
000000a0: 7af3 013d 92ac c63b c963 843c 323f 0c3d
000000b0: e246 5c3b 4373 153d d597 073c c0cc 8e3c
000000c0: 9e5c bfbd a7b0 3ebd 70f4 afbc 2ea0 11bc
000000d0: eb61 98bc 354d 45bb bc40 ec3b 446a e53d
000000e0: 138e 1fbd 7f6d 8dbd c35e 063d 92be 933d
000000f0: 8c46 82bd 7648 8cbc 720b 30bd e698 c8bb
0.079143174 0.013858183 0.028099652 -0.031122018 -0.03252401 0.08854573 0.017736427 -0.068799354
0.035943124 -0.04353533 -0.027315078 -0.0889178 -0.029927684 0.072374865 -0.02876243 -0.042955108
-0.026395332 -0.014826063 0.018103633 0.05651364 -0.027052438 -0.02753201 -0.097789556 -0.034465745
-0.043902416 -0.05588348 0.05032962 0.032281913 0.05615974 -0.021079132 -0.013829969 -0.0750588
0.02393892 0.02472155 -0.016796442 0.0009784333 -0.0038697168 -0.089511946 -0.10008639 -0.0605026
0.031726338 0.0060630525 0.016160863 0.034239955 0.0033611585 0.036486875 0.008275946 0.017431617
-0.09343837 -0.046555188 -0.021478862 -0.0088882875 -0.018601378 -0.0030105833 0.0072098654 0.11201909
-0.038953852 -0.0690565 0.032805216 0.07214083 -0.06361112 -0.017124396 -0.042979665 -0.0061217425

relational_layer.layers.0.att_src f4 [1, 1, 64]
00000000: 59f0 b3bc 1a58 8a3e 9cf3 87be 6fc8 f13c
00000010: 5e09 3bbe dca2 f8bd 0bb2 923e f3b8 a53d
00000020: 9d0e 6f3e bde4 c4be c9a2 3d3e c3d1 9bbe
00000030: 5213 9d3e e014 7e3d c192 e53e c403 1ebe
00000040: 7aca 91be 37ed c43d 06cd ce3e 2183 a3be
00000050: 8cf5 623d ca30 75be a2d8 d6bd 757e 873e
00000060: e9ef c5bd 07ad 92be 03f8 eabe ec37 cb3d
00000070: 1057 d73d 0a74 c2be a0b6 8cbe 3e57 b63c
00000080: 1033 413e 535a 07bd 16c6 e63e 5401 aebe
00000090: 36d3 373e d355 06be 7b8a 7cbe 2634 2f3e
000000a0: 2e1a ab3e d3cd 77be fbaa ecbd 8f71 3b3c
000000b0: b525 e23e c7f4 18be c02d 553e 982f a13e
000000c0: 3568 8ebe ff12 53be 6ff9 863e 799c 393e
000000d0: ee78 203e ada1 1bbd 5d2b a2be 3c5d 3f3e
000000e0: 87ca 81be 7e39 92be a701 39be ba07 31be
000000f0: 81a9 0c3e 0f7d 573e 87b4 773e 7f88 4b3e
-0.021965193 0.2702034 -0.26553047 0.02951452 -0.18265292 -0.12140438 0.2865146 0.08091917
0.23345418 -0.38455763 0.18519129 -0.30433473 0.30678803 0.062031627 0.44838527 -0.15431124
-0.2847479 0.09615558 0.40390795 -0.3193598 0.055409953 -0.23944393 -0.10490538 0.26463667
-0.096649 -0.28647634 -0.45892343 0.099227756 0.10514653 -0.37979156 -0.27483082 0.022258397
0.18867135 -0.033045124 0.45073003 -0.33985388 0.17951664 -0.13118677 -0.24662201 0.17109737
0.3341841 -0.2419961 -0.115560494 0.011440649 0.44169393 -0.14937125 0.20818233 0.31481624
-0.2781388 -0.20612715 0.26362178 0.18126096 0.15671131 -0.037995983 -0.3167371 0.1868791
-0.2534983 -0.28559488 -0.18067037 -0.17288104 0.13736536 0.210438 0.2418996 0.19876288

relational_layer.layers.0.att_dst f4 [1, 1, 64]
00000000: 2648 e0be d9e4 c2bc 7918 a73e 1f30 b9be
00000010: 2aa4 d4be bbe8 80bd 8d75 59be c229 e8be
00000020: c8e6 b53e 7a2d c23c 9e08 69be e51f 12be
00000030: e45a 013f 1c92 4cbe 2f76 d7bc 1c9e 973d
00000040: 730c 99be ef0e 86be d800 193d 1b67 9e3d
00000050: 4840 783e 75ea 483e 0d35 353e 2654 4e3d
00000060: 933d d2bd 073c 3b3e 853c 893e b231 a93d
00000070: 70fa 1a3c a00e 68be 56ab f5be 78f3 8fbe
00000080: 4912 953e bb93 583d 256c 73be 4522 b83d
00000090: 8bb3 293e 7f0b cc3e 33b1 863d 9984 a23d
000000a0: 174a 0dbe 1bcc c8be 6cdf 623e 3b18 dc3d
000000b0: 5817 5b3e dddc 623e 9774 93bd 56b8 76bc
000000c0: 82c3 2c3e 23a3 36be 130d a9bd c7ca 96be
000000d0: d6fa d7be 57c3 51be a961 6bbd a639 adbe
000000e0: 05d2 0ebf 4bf0 eebe 4ead a8bd 8059 a83d
000000f0: f0c2 afbc 6b49 33be 2d07 b8be eb27 03bf
-0.43805045 -0.023790764 0.3263586 -0.36169526 -0.41531497 -0.0629439 -0.21236248 -0.4534436
0.35527635 0.023703326 -0.22757193 -0.1426998 0.50529313 -0.19977611 -0.026301472 0.07403204
-0.2989231 -0.26183268 0.03735432 0.077345096 0.24243271 0.19620688 0.17696019 0.05037322
-0.102656506 0.18284617 0.26803985 0.08261432 0.009459123 -0.22661829 -0.4798228 -0.2811544
0.29115513 0.05287526 -0.23771723 0.089909114 0.16572396 0.3985252 0.06576767 0.07935447
-0.13797794 -0.3921822 0.22155541 0.10746809 0.21395624 0.22154565 -0.07199972 -0.015058598
0.16871455 -0.17835669 -0.08254447 -0.29451582 -0.4218356 -0.20484672 -0.057466183 -0.33833045
-0.55789214 -0.46667704 -0.0823618 0.08220196 -0.021455258 -0.17508475 -0.35942975 -0.51232785

relational_layer.layers.0.bias f4 [64]
00000000: f4b4 173d 26dd edbd 43b2 01be f4ae 72bd
00000010: 5146 283d 811d a93d 51ee e5bd 4f8a bdbd
00000020: 0c74 c6bd 99a6 b43b a0b4 bdbd 7ecd 2c3d
00000030: fbb4 69be 6a41 3fbd 5ed6 1cbe b188 8c3d
00000040: b1d3 7b3d 71b5 ecbd c633 e33a 5626 463d
00000050: 7c5d 1fbe 0df6 923d baef 37be 0643 c1bd
00000060: 7e33 9b3d 501d d63d 9564 2abb 3f9c 04bd
00000070: 4091 c9bd 4fd1 7d3d 904f 87bd bc63 713d
00000080: 874f 22bd 5ae5 603d 7e85 d5bc 602b 5dbd
00000090: 0e88 c8bb 3514 dfbd 6231 61bd cb6e 39bc
000000a0: 8b47 d4bd f594 78bd b649 4b3b 94f5 a1bd
000000b0: 4c94 1bbd fc61 d8bc a4ce 133e df83 45bd
000000c0: c673 d13d 3a63 90bc 81b3 08be a953 883d
000000d0: 824d 9abd 79d8 61bd 6d43 5fbb 72d1 f5bd
000000e0: 52a7 84bc 8bb2 09be e71b b8bc 3bb6 443d
000000f0: d4d5 e23d 35ce 86bd 4647 86bc 9aff 573d
0.037037805 -0.11614446 -0.12665658 -0.05924888 0.041082684 0.082575805 -0.11227096 -0.09254896
-0.09690103 0.005513024 -0.09262967 0.04218816 -0.22822945 -0.046693243 -0.1531615 0.06862009
0.06148118 -0.11558045 0.0017334155 0.048376404 -0.15563005 0.07175837 -0.17962542 -0.09436612
0.07578181 0.1045481 -0.0025999893 -0.03237557 -0.09842157 0.06196719 -0.06606972 0.058933005
-0.039626624 0.054906227 -0.02606463 -0.053996444 -0.0061197346 -0.10892526 -0.054978736 -0.011317919
-0.10365208 -0.06068893 0.0031019277 -0.079081684 -0.037983224 -0.02641391 0.14434296 -0.048221465
0.1022716 -0.01762544 -0.13349725 0.06656582 -0.07534315 -0.055138085 -0.0034067289 -0.12002839
-0.016193066 -0.13447015 -0.022474242 0.04802535 0.11075941 -0.065822996 -0.016391408 0.052733995

relational_layer.layers.0.lin_src.weight f4 [64, 64]
00000000: 5816 d2bd a6de a33d 156d c73e 4364 e2be
00000010: 0aa0 413e b92c f9bd cafd 12be 51ba 87be
00000020: 2be7 253d 482a 6f3d fd9e b5bd 9e01 04bc
00000030: ae38 7cbe 90c2 f33d d95f b7be 5a60 2e3e
00000040: 03cd 053d bbe9 383d 77aa f7be f235 e1be
00000050: c874 993d 8298 f6bc 45c3 a8be 1f31 c83b
00000060: 1caa 70be a868 9c3d 7b7e 1bbe 9c0f 0abf
00000070: 4610 0f3d 8bfd f73d 2132 fe3d 0bdd c4bd
00000080: b05b e8bd 3a0a 27be e95c 33be 91c3 cabd
00000090: b523 a73b 42f7 9b3d a425 83be 7bf1 7dbd
000000a0: eeba 183e 79cf d8bd c4ff 023e 7d47 90bd
000000b0: 2ab0 833e cf5c 0bbf 2504 2cbe fc06 d83d
000000c0: 7274 b7be 95e8 a93d 2688 0fba 2106 4c3c
000000d0: cab7 503d 5c53 97be a249 50be c5e3 973d
000000e0: 172c 473e 91e6 cc3e c20e 59be 127b dcbd
000000f0: 16f6 62be f8cf 83be 5bbe ae3e 5b02 5abe
00000100: f17a c33c 0208 54be 91c1 eebd d649 a33c
00000110: 5ac9 03be 1ffd 383e 8c9f 453e f8fc 88be
00000120: c515 763d de43 b13c cf38 413d 8f72 493e
00000130: d15e 873e a788 d23e 4c94 7a3d e80e 443e
00000140: 375c 17be 899a afbd 195c 1a3e 89f8 233e
00000150: 301d cdbd 1e25 5dbd 32ff 82bc a02d bcbc
00000160: cc9b 1a3e 15c8 24be 2fa6 d73d 38ed 733e
00000170: 8e4a 343d 2675 b73d 789f d93d 393d 1bbd
00000180: 97c7 f43d 1a55 2b3c dd19 a1be b134 03be
00000190: 78ee 4fbe d13d b3bd 63fe 39be a9cc 2a3e
000001a0: 9b55 8f3d 4d4f a73e 4452 c9bd 3029 5fbe
000001b0: 58d6 42bd 44b3 1e3e 6763 cdbe 4ad2 f1bd
000001c0: c3bd d93d 3b9b cdbd 3b1a 243e b4db 02be
000001d0: 9dc0 b73d f5a9 bcbd 7b83 c4bd 0608 063a
000001e0: 6341 5ebe 88a5 783e f368 27be d18f 4b3e
000001f0: 4312 81be e1cb 623c 4cd3 39bd 9bf5 51bd
00000200: e151 88be f881 483d ee80 533d 298c 9d3d
00000210: dc6f 85be a3f3 b43d a023 c3bc c4c1 653e
00000220: a485 3ebe 8b71 903b fa25 d4bc 74ad 9a3d
00000230: f203 81bc 2c1f 383e ecfe 703d 8cfb 193e
00000240: 0190 c6bd 4061 6e3d 50f7 91bd 274e 003e
00000250: ef15 6cbd dd61 f4bd 36e2 c3bd bc09 88bd
00000260: a468 9abe ef79 573d bb45 1fbc 8585 313e
00000270: b137 57be 66ef 933e 5d90 ea3d e732 14be
00000280: f01a 383b bb5e fe3d 8ced a63e 2347 59bd
00000290: bad1 d73d d18e 7bbe c90e 0c3e 8012 81be
000002a0: d9c8 883c e247 bc3c 9df7 1f3d 304f 23bd
000002b0: 53c3 2abd 7aaf 5d3c 2004 bb3a 3721 15be
000002c0: 56fb cbbd fc66 b7bd 84f0 a7bd 8746 7f3d
000002d0: 5927 f43d dea6 e13c 02ff b83e 56fc 553e
000002e0: 85af 3a3e 2692 d2bc fdb9 883d ed2f 47be
000002f0: fd6c 11be 37bf 2a3d 8fa8 973c 32a2 70bd
00000300: 2a40 4dbd 285e 603e f91f 6b3e 84d1 edbd
00000310: b2fd 02be d13b 0fbe cd55 01bf 3127 9f3c
00000320: ef1a 87bc 4011 80bb 5ae4 9b3c d82c 713e
00000330: 5663 cb3d a6bb 8fbe 39f5 aebd b97b 5a3d
00000340: fc52 503d c882 09bd 2218 9fbc fd68 1e3e
00000350: 51a0 b73c 6c9b 3fbe 9d58 92bd 8fc3 583e
00000360: eb69 d73e a980 dc3e 54a2 a2be 16d0 a1bd
00000370: 8678 003e c71a 503e 1dcc b9bb 8c0f 23be
00000380: 9065 033e 22ef 323e 7c18 cabe c61b 26be
00000390: ef94 4e3c 61c9 18be 7a9d 8dbe f1ef b4bd
000003a0: 5c94 093d d6bf 8d3e e2f7 dfbd 6860 a7bc
000003b0: c3e6 b63d e2a5 87be a138 263d 3dcd 253d
000003c0: c9ff 58be f67b 303d ef1f 803e d1cb 083e
000003d0: e5e1 943e 55ed 4c3d d87d c2be 88e7 7b3d
000003e0: a905 313c 4e9e 07be 29f6 71bd 4e73 8b3d
000003f0: 086f babd c178 81bd b26e 823e a358 dcbd
-0.10258168 0.08001451 0.3895041 -0.4421712 0.18908706 -0.12166733 -0.14354625 -0.26509336
0.040503662 0.058389932 -0.08868215 -0.008057026 -0.24630997 0.11902344 -0.35815313 0.17028943
0.032666218 0.045144778 -0.48372242 -0.4398647 0.074929774 -0.030102018 -0.3296148 0.0061093713
-0.23502392 0.07637149 -0.15184967 -0.5393007 0.03492763 0.12108906 0.12411905 -0.09612473
-0.11345613 -0.16312495 -0.17515911 -0.099005826 0.005100692 0.0761552 -0.25614655 -0.06199787
0.14915058 -0.10586447 0.1279288 -0.07044885 0.2572034 -0.5443849 -0.16798456 0.10548207
-0.35831028 0.082963146 -0.0005475305 0.012452633 0.050956525 -0.29555786 -0.20340589 0.074164905
0.19450413 0.40019658 -0.21197036 -0.10765661 -0.22164187 -0.25744605 0.34129605 -0.21289961
0.023862334 -0.2070618 -0.116580136 0.019932669 -0.12869778 0.18065308 0.19299144 -0.267555
0.060079355 0.021638807 0.047173318 0.19672607 0.26439527 0.41119882 0.061176583 0.19146311
-0.14781271 -0.08574397 0.15074195 0.16012777 -0.10015333 -0.053990476 -0.015990827 -0.022970974
0.15098494 -0.1609195 0.10529744 0.2382096 0.044016413 0.08957891 0.106261194 -0.037900183
0.11952131 0.0104573015 -0.31465045 -0.12813069 -0.20305812 -0.08752025 -0.18163447 0.16679634
0.0699875 0.3267769 -0.09830144 -0.21793056 -0.047567695 0.15498072 -0.401149 -0.118076876
0.10631897 -0.100393735 0.16025631 -0.12779123 0.08972285 -0.09212104 -0.095953904 0.000511289
-0.2170463 0.24281895 -0.16348629 0.1987908 -0.25209245 0.013842554 -0.045367524 -0.05125962
-0.2662497 0.048952073 0.05163663 0.07692749 -0.26061904 0.088355325 -0.023820698 0.22437197
-0.18605667 0.0044080666 -0.025897015 0.07552615 -0.015748952 0.17980641 0.058836862 0.15037364
-0.09695435 0.058198214 -0.07127249 0.12529813 -0.057638105 -0.119327284 -0.09564631 -0.06642482
-0.3015796 0.05260652 -0.009721215 0.1733609 -0.21017338 0.28893584 0.11453316 -0.14472543
0.0028092228 0.12420412 0.3260311 -0.053046357 0.10538049 -0.24566199 0.13677515 -0.25209427
0.016697334 0.022983495 0.0390545 -0.03987044 -0.041690182 0.013530606 0.0014268197 -0.14563452
-0.09960048 -0.089551896 -0.082001716 0.06232312 0.119215675 0.027545389 0.36132056 0.2089704
0.18231018 -0.025704455 0.066760994 -0.19451876 -0.14201732 0.041686263 0.018512992 -0.05874843
-0.05011002 0.21910918 0.22961415 -0.116122276 -0.1279209 -0.13987662 -0.50521547 0.019427868
-0.016492335 -0.0039083064 0.019029785 0.23552263 0.09931056 -0.28072852 -0.08542866 0.053340647
0.05086039 -0.03357199 -0.019420687 0.15469737 0.022415312 -0.18711632 -0.07145808 0.2116835
0.42072996 0.4306691 -0.31764472 -0.07901017 0.12545976 0.20322715 -0.005670084 -0.159239
0.12831712 0.17474034 -0.39471805 -0.16221532 0.012608751 -0.1492057 -0.27659208 -0.08834828
0.033588752 0.27685422 -0.10935952 -0.020431712 0.08930733 -0.26493746 0.04058135 0.040478934
-0.21191324 0.04308697 0.25024363 0.13359 0.29078594 0.050031025 -0.37986636 0.061500102
0.010804572 -0.13243982 -0.059072647 0.06809102 -0.09103209 -0.0632186 0.2547508 -0.107590936

relational_layer.layers.0.lin_dst.weight f4 [64, 64]
00000000: 5816 d2bd a6de a33d 156d c73e 4364 e2be
00000010: 0aa0 413e b92c f9bd cafd 12be 51ba 87be
00000020: 2be7 253d 482a 6f3d fd9e b5bd 9e01 04bc
00000030: ae38 7cbe 90c2 f33d d95f b7be 5a60 2e3e
00000040: 03cd 053d bbe9 383d 77aa f7be f235 e1be
00000050: c874 993d 8298 f6bc 45c3 a8be 1f31 c83b
00000060: 1caa 70be a868 9c3d 7b7e 1bbe 9c0f 0abf
00000070: 4610 0f3d 8bfd f73d 2132 fe3d 0bdd c4bd
00000080: b05b e8bd 3a0a 27be e95c 33be 91c3 cabd
00000090: b523 a73b 42f7 9b3d a425 83be 7bf1 7dbd
000000a0: eeba 183e 79cf d8bd c4ff 023e 7d47 90bd
000000b0: 2ab0 833e cf5c 0bbf 2504 2cbe fc06 d83d
000000c0: 7274 b7be 95e8 a93d 2688 0fba 2106 4c3c
000000d0: cab7 503d 5c53 97be a249 50be c5e3 973d
000000e0: 172c 473e 91e6 cc3e c20e 59be 127b dcbd
000000f0: 16f6 62be f8cf 83be 5bbe ae3e 5b02 5abe
00000100: f17a c33c 0208 54be 91c1 eebd d649 a33c
00000110: 5ac9 03be 1ffd 383e 8c9f 453e f8fc 88be
00000120: c515 763d de43 b13c cf38 413d 8f72 493e
00000130: d15e 873e a788 d23e 4c94 7a3d e80e 443e
00000140: 375c 17be 899a afbd 195c 1a3e 89f8 233e
00000150: 301d cdbd 1e25 5dbd 32ff 82bc a02d bcbc
00000160: cc9b 1a3e 15c8 24be 2fa6 d73d 38ed 733e
00000170: 8e4a 343d 2675 b73d 789f d93d 393d 1bbd
00000180: 97c7 f43d 1a55 2b3c dd19 a1be b134 03be
00000190: 78ee 4fbe d13d b3bd 63fe 39be a9cc 2a3e
000001a0: 9b55 8f3d 4d4f a73e 4452 c9bd 3029 5fbe
000001b0: 58d6 42bd 44b3 1e3e 6763 cdbe 4ad2 f1bd
000001c0: c3bd d93d 3b9b cdbd 3b1a 243e b4db 02be
000001d0: 9dc0 b73d f5a9 bcbd 7b83 c4bd 0608 063a
000001e0: 6341 5ebe 88a5 783e f368 27be d18f 4b3e
000001f0: 4312 81be e1cb 623c 4cd3 39bd 9bf5 51bd
00000200: e151 88be f881 483d ee80 533d 298c 9d3d
00000210: dc6f 85be a3f3 b43d a023 c3bc c4c1 653e
00000220: a485 3ebe 8b71 903b fa25 d4bc 74ad 9a3d
00000230: f203 81bc 2c1f 383e ecfe 703d 8cfb 193e
00000240: 0190 c6bd 4061 6e3d 50f7 91bd 274e 003e
00000250: ef15 6cbd dd61 f4bd 36e2 c3bd bc09 88bd
00000260: a468 9abe ef79 573d bb45 1fbc 8585 313e
00000270: b137 57be 66ef 933e 5d90 ea3d e732 14be
00000280: f01a 383b bb5e fe3d 8ced a63e 2347 59bd
00000290: bad1 d73d d18e 7bbe c90e 0c3e 8012 81be
000002a0: d9c8 883c e247 bc3c 9df7 1f3d 304f 23bd
000002b0: 53c3 2abd 7aaf 5d3c 2004 bb3a 3721 15be
000002c0: 56fb cbbd fc66 b7bd 84f0 a7bd 8746 7f3d
000002d0: 5927 f43d dea6 e13c 02ff b83e 56fc 553e
000002e0: 85af 3a3e 2692 d2bc fdb9 883d ed2f 47be
000002f0: fd6c 11be 37bf 2a3d 8fa8 973c 32a2 70bd
00000300: 2a40 4dbd 285e 603e f91f 6b3e 84d1 edbd
00000310: b2fd 02be d13b 0fbe cd55 01bf 3127 9f3c
00000320: ef1a 87bc 4011 80bb 5ae4 9b3c d82c 713e
00000330: 5663 cb3d a6bb 8fbe 39f5 aebd b97b 5a3d
00000340: fc52 503d c882 09bd 2218 9fbc fd68 1e3e
00000350: 51a0 b73c 6c9b 3fbe 9d58 92bd 8fc3 583e
00000360: eb69 d73e a980 dc3e 54a2 a2be 16d0 a1bd
00000370: 8678 003e c71a 503e 1dcc b9bb 8c0f 23be
00000380: 9065 033e 22ef 323e 7c18 cabe c61b 26be
00000390: ef94 4e3c 61c9 18be 7a9d 8dbe f1ef b4bd
000003a0: 5c94 093d d6bf 8d3e e2f7 dfbd 6860 a7bc
000003b0: c3e6 b63d e2a5 87be a138 263d 3dcd 253d
000003c0: c9ff 58be f67b 303d ef1f 803e d1cb 083e
000003d0: e5e1 943e 55ed 4c3d d87d c2be 88e7 7b3d
000003e0: a905 313c 4e9e 07be 29f6 71bd 4e73 8b3d
000003f0: 086f babd c178 81bd b26e 823e a358 dcbd
-0.10258168 0.08001451 0.3895041 -0.4421712 0.18908706 -0.12166733 -0.14354625 -0.26509336
0.040503662 0.058389932 -0.08868215 -0.008057026 -0.24630997 0.11902344 -0.35815313 0.17028943
0.032666218 0.045144778 -0.48372242 -0.4398647 0.074929774 -0.030102018 -0.3296148 0.0061093713
-0.23502392 0.07637149 -0.15184967 -0.5393007 0.03492763 0.12108906 0.12411905 -0.09612473
-0.11345613 -0.16312495 -0.17515911 -0.099005826 0.005100692 0.0761552 -0.25614655 -0.06199787
0.14915058 -0.10586447 0.1279288 -0.07044885 0.2572034 -0.5443849 -0.16798456 0.10548207
-0.35831028 0.082963146 -0.0005475305 0.012452633 0.050956525 -0.29555786 -0.20340589 0.074164905
0.19450413 0.40019658 -0.21197036 -0.10765661 -0.22164187 -0.25744605 0.34129605 -0.21289961
0.023862334 -0.2070618 -0.116580136 0.019932669 -0.12869778 0.18065308 0.19299144 -0.267555
0.060079355 0.021638807 0.047173318 0.19672607 0.26439527 0.41119882 0.061176583 0.19146311
-0.14781271 -0.08574397 0.15074195 0.16012777 -0.10015333 -0.053990476 -0.015990827 -0.022970974
0.15098494 -0.1609195 0.10529744 0.2382096 0.044016413 0.08957891 0.106261194 -0.037900183
0.11952131 0.0104573015 -0.31465045 -0.12813069 -0.20305812 -0.08752025 -0.18163447 0.16679634
0.0699875 0.3267769 -0.09830144 -0.21793056 -0.047567695 0.15498072 -0.401149 -0.118076876
0.10631897 -0.100393735 0.16025631 -0.12779123 0.08972285 -0.09212104 -0.095953904 0.000511289
-0.2170463 0.24281895 -0.16348629 0.1987908 -0.25209245 0.013842554 -0.045367524 -0.05125962
-0.2662497 0.048952073 0.05163663 0.07692749 -0.26061904 0.088355325 -0.023820698 0.22437197
-0.18605667 0.0044080666 -0.025897015 0.07552615 -0.015748952 0.17980641 0.058836862 0.15037364
-0.09695435 0.058198214 -0.07127249 0.12529813 -0.057638105 -0.119327284 -0.09564631 -0.06642482
-0.3015796 0.05260652 -0.009721215 0.1733609 -0.21017338 0.28893584 0.11453316 -0.14472543
0.0028092228 0.12420412 0.3260311 -0.053046357 0.10538049 -0.24566199 0.13677515 -0.25209427
0.016697334 0.022983495 0.0390545 -0.03987044 -0.041690182 0.013530606 0.0014268197 -0.14563452
-0.09960048 -0.089551896 -0.082001716 0.06232312 0.119215675 0.027545389 0.36132056 0.2089704
0.18231018 -0.025704455 0.066760994 -0.19451876 -0.14201732 0.041686263 0.018512992 -0.05874843
-0.05011002 0.21910918 0.22961415 -0.116122276 -0.1279209 -0.13987662 -0.50521547 0.019427868
-0.016492335 -0.0039083064 0.019029785 0.23552263 0.09931056 -0.28072852 -0.08542866 0.053340647
0.05086039 -0.03357199 -0.019420687 0.15469737 0.022415312 -0.18711632 -0.07145808 0.2116835
0.42072996 0.4306691 -0.31764472 -0.07901017 0.12545976 0.20322715 -0.005670084 -0.159239
0.12831712 0.17474034 -0.39471805 -0.16221532 0.012608751 -0.1492057 -0.27659208 -0.08834828
0.033588752 0.27685422 -0.10935952 -0.020431712 0.08930733 -0.26493746 0.04058135 0.040478934
-0.21191324 0.04308697 0.25024363 0.13359 0.29078594 0.050031025 -0.37986636 0.061500102
0.010804572 -0.13243982 -0.059072647 0.06809102 -0.09103209 -0.0632186 0.2547508 -0.107590936

action_layer.layer1.0.weight f4 [128, 128]
00000000: d706 28be 8b20 62bd b5c4 35be 2992 6cbd
00000010: 63f6 bb3d 6f90 8e3d e92d 59bc 863a 20be
00000020: 1669 52be 8d51 943d 7933 063e 96ae d7bd
00000030: ffec e23d 0366 8c3d 3570 b6bd 5115 ef3c
00000040: 6f67 f6bd 0c6b 7e3d 4764 06be f400 ea3a
00000050: f9db a8bd 3c2b 023e 5615 9dbc 2601 17be
00000060: af4d 9fbd b1aa 173e 5d90 f73d 05e1 1ebe
00000070: 3b59 873d e3ba c93d 8d88 2cbe 4c62 f43c
00000080: 12ca 80be c143 d5bd 1bd9 233d 3d9d c03c
00000090: 28c5 a33d 43ef c03c fac0 923d 88de 363d
000000a0: a287 06be 63e4 113e af21 12be 3676 413c
000000b0: 4e6b f23d a4b7 973d 543d 22bd eda0 4e3d
000000c0: 8807 0e3e a891 213b d0bf a33d daa4 dfbd
000000d0: 4864 eabd d4e5 653d a23f 233d 956f 12be
000000e0: 85b9 abbd 2b7a c73d 79bc 113e c2d0 c2bd
000000f0: 83aa 7c3d 334c c33c f492 99be a10c 3c3d
00000100: eefa 3ebb ad20 8c3d 2e80 73bc 2a9c d63d
00000110: 9b09 c93d 757d 92bc d7cc 7d3c 7fcc bd3d
00000120: cbb9 2abd ddef 09bd 70df 35bb e52d 823d
00000130: 7962 90bc c145 e8bd 6e75 663d 75a1 d33c
00000140: 8905 813d a3da 14be 1c73 a7bc 2015 003e
00000150: 0fd8 0dbd a362 68bc a9a5 073d 6951 9bbb
00000160: d2a4 63bd 4700 263d 4fb0 e43c ece3 efbc
00000170: e30a 89bd 4bea a1bd ef44 e6bd f475 21be
00000180: ff96 f0bd d2f5 333b 859d 203c 690d 0a3c
00000190: b78d 183e 128f 39bd 6bd2 923d 090f 96bd
000001a0: ce7c bf3b f411 c1bd c402 a63d 775d 2f3e
000001b0: be4f 0dbe ec48 333c 5d57 4dbd 8fce 9a3d
000001c0: f73e e63d a3b9 233d 874f 56be 3210 8b3d
000001d0: af0b 383d 9b8a 0f3d 2105 cfbd 8553 afbc
000001e0: 999b ae3c 895d 0c3e 863c 293d 13f7 b4bd
000001f0: 4e6e 69ba c03b 80bd fccb 263e f7b9 3dbd
00000200: 217e 983e eceb 893b ba26 7ebe d468 063e
00000210: c8a4 193e 7b16 80bd 8a24 f9bd 082f 153e
00000220: d713 0a3e a5e7 99bd ac28 083b 2168 9abe
00000230: c7af 34be 2426 063e d24b 9d3c 4251 9bbe
00000240: 275e c4bc 3920 c63b d14d 3c3d 97bc bebc
00000250: 08b5 273c 01b4 f3bd 19b6 2cbd 8928 bc3d
00000260: 73d3 97bd 855e 91bd 3432 4dbd 604d 28bd
00000270: f5c1 103d da8f ccbd a19a 393e 6920 82bd
00000280: 3852 243d deb3 00be 1580 fd3c 770d a33d
00000290: d4fb 89bd 77c1 c63d 0eb3 c7bd ad3e 673d
000002a0: 5a6d 57be 8358 013e 0198 543c 9a7b 02bd
000002b0: fce9 00bd 7636 fe3d c1a9 203d 9259 b2bd
000002c0: 985a 113d 6284 033e 22dd 433d 7403 b3bd
000002d0: 9403 b1be 1af5 aa3d 18a2 5e3d 26bc ff3d
000002e0: cc94 c6bc cf53 7abd ecaa ecbd 9c50 d9bb
000002f0: e94a 3d3d 2433 b0bc 5b95 5c3e 072a a33d
00000300: 0ff1 c6bd eff5 cbbc a3d2 e3bd 937d 1cbe
00000310: cd5b 96bc c4ad f93b cc10 71bd c709 423d
00000320: ebb0 34bd b161 28bc 39f0 cc3d fe33 a0bd
00000330: 3e16 88bc a6b3 db3c 93a0 b3bd 02ec 38bd
00000340: 8c06 f8bc 6bd0 dcbd c490 0f3e d662 b73c
00000350: bd06 493d 2907 043d c28f 44bc 8fc6 a83c
00000360: 8589 443d b8a9 2fbd bf12 1b3d 0fdc db3c
00000370: 658c 2e3e 7850 993d 9501 28bd 8994 d7bc
00000380: 34b7 dfbd 238a b7bd 48da 283d f6b5 edbc
00000390: 6274 653d 00fe 18be e8a5 4f3d 166e 153d
000003a0: 0cc7 b63c 213b 08be 7242 4ebd e98d 233e
000003b0: 1ce0 e2bb d3f7 113e b201 e23d 7c75 1dbe
000003c0: 8575 21bd c739 cfbc c7a6 d93d 78c3 1fbd
000003d0: b030 b13d 12bd b3bd b5cd a83d 0eed c0bc
000003e0: 2f13 2abe 935c 8cbd 93bd bf3d fcc9 253d
000003f0: c383 733d 14de ebbd c19e 38bd ebc2 063e
-0.16408859 -0.055206817 -0.17750819 -0.057756577 0.09177854 0.06961142 -0.013255575 -0.15647325
-0.205479 0.07242117 0.13105573 -0.105313465 0.1108036 0.06855395 -0.089081205 0.02918497
-0.12031447 0.062113807 -0.1312419 0.0017853067 -0.082450815 0.12711805 -0.019175213 -0.14746532
-0.07778489 0.14811207 0.12088082 -0.15515526 0.06608816 0.09850099 -0.16848965 0.029832028
-0.25154167 -0.10413314 0.04000197 0.023512477 0.07996589 0.023551589 0.071657136 0.044645816
-0.13137677 0.14247279 -0.14270662 0.011807969 0.11836873 0.074080735 -0.03960927 0.05044644
0.1387006 0.0024653468 0.0799557 -0.10920115 -0.114449084 0.056127384 0.039855607 -0.14300378
-0.083849944 0.097400986 0.14232053 -0.09512474 0.06168605 0.023840046 -0.2999493 0.04591048
-0.0029141265 0.0684217 -0.014862103 0.10479005 0.09816285 -0.017882088 0.015490732 0.0926752
-0.041681092 -0.033676017 -0.0027751587 0.0635641 -0.01762508 -0.113414295 0.056264333 0.025833825
0.06299884 -0.14536528 -0.02044063 0.12508059 -0.034629878 -0.014183673 0.03311697 -0.0047399295
-0.055577107 0.04052761 0.027916102 -0.029283486 -0.066915296 -0.07906016 -0.11243617 -0.15767652
-0.1174755 0.0027459753 0.009803181 0.008426049 0.1489781 -0.045302458 0.0716904 -0.073270865
0.0058437353 -0.094272524 0.08105996 0.17125498 -0.1379995 0.010942679 -0.050132144 0.07558929
0.11242478 0.03997196 -0.20928775 0.067901984 0.044933017 0.035044294 -0.101084 -0.02140213
0.02131443 0.13707556 0.041317485 -0.08836188 -0.00089046813 -0.062613964 0.16288751 -0.046319928
0.2978373 0.0042090323 -0.2481946 0.13125926 0.15004265 -0.06254288 -0.121651724 0.14568722
0.13484131 -0.07514886 0.0020776195 -0.3015757 -0.17645179 0.13100487 0.019201193 -0.30335432
-0.023970677 0.0060463217 0.04597265 -0.023283286 0.010236032 -0.118995674 -0.04216585 0.09187419
-0.074133776 -0.07098106 -0.050096706 -0.041089416 0.03534122 -0.09988375 0.18125392 -0.06353838
0.040117472 -0.12568614 0.030944863 0.079615526 -0.067374855 0.09704869 -0.09750949 0.056456257
-0.21037808 0.12631421 0.012975694 -0.031856157 -0.031473145 0.12412731 0.03922439 -0.087084904
0.035486788 0.12843469 0.04781831 -0.08740893 -0.34573042 0.08347531 0.054353803 0.12487058
-0.024240874 -0.061115082 -0.11556038 -0.006631924 0.046214018 -0.02150876 0.2154135 0.079670005
-0.09713947 -0.024897544 -0.1112416 -0.15282278 -0.01835432 0.0076195914 -0.05885391 0.047372606
-0.044114035 -0.010277198 0.10006756 -0.07822417 -0.016612168 0.026819061 -0.087708615 -0.04514695
-0.03027656 -0.1078194 0.14020067 0.022385996 0.04907869 0.03223339 -0.011997165 0.020602493
0.04798271 -0.042886466 0.037859675 0.02683833 0.17045744 0.07486051 -0.041017134 -0.026315944
-0.10923615 -0.08961894 0.041223794 -0.02901743 0.056019194 -0.14940643 0.05069533 0.03648194
0.02231171 -0.13303806 -0.050356336 0.15972103 -0.0069236886 0.14254694 0.110354796 -0.15376848
-0.039418716 -0.025296105 0.106275134 -0.039004773 0.086518645 -0.08776297 0.082423605 -0.023550536
-0.1660888 -0.06853595 0.0936233 0.04047583 0.05945183 -0.115169674 -0.045073275 0.13160293

action_layer.layer1.0.bias f4 [128]
00000000: 66bc ae3d 211f 67bd 8162 74bb ec79 debb
00000010: b32c cebc f777 1dbe a885 b1bd ad0f a4bc
00000020: d71e bbbd bce8 b4bd cee1 06bd 3123 30be
00000030: 6c3b 573d aa8b a83c 1a6d febc dbc1 983d
00000040: fd2a febd 4e32 acbb d576 e5bc 6677 51bd
00000050: 3981 0bbe 38f6 ddbd f3a0 dc3d e6cd f43d
00000060: 1ce1 0fbe 2794 de3d 11d6 04be 57dd 453d
00000070: 3467 883c a444 313c 9b57 f5bd 3524 b03d
00000080: 2cef 273d 4839 3abd 6428 753d 846a 5abc
00000090: cdd4 4ebd 6169 60bc 25bb 9e3d e972 8dbd
000000a0: 11c4 22bd f7a1 6d3d 4420 50bd 618e 94bc
000000b0: 173c d13d 29be 2fbd 65a0 c6bd 6a83 08bc
000000c0: 6bb1 33bd 037b ffbd 3d52 45bc 84cd dabd
000000d0: e617 6d3c 2c5f 2fbc e89e ffbd d967 82bd
000000e0: 0bdf 5fbc a6e1 8cbc 7b7c 953c 0c16 67bd
000000f0: 2ee3 363d d9ef 08be 99aa ffbc abb7 d3bd
00000100: 36f2 14bd fdc7 62bc 7bda 9bbd 0003 d6bd
00000110: 16d8 9cbc 4942 75bd 0769 9c3b c993 80bd
00000120: 6a69 5abd 3976 1e3b 348d 0cbd 41e7 34bd
00000130: dd84 7bbc a955 cd3c 7a70 09be f0aa deb8
00000140: 2af4 b1bd 61ed 273d d001 823a 7956 febd
00000150: 2fb8 d8bd efc0 b33c 8bc3 bfbc d2ba b6bc
00000160: ec3f c03c 61c2 a33c 74cd 253d 8758 b1bd
00000170: 570a c6bc 6bab 8abd fe0b 523d dda1 11bd
00000180: 5fc0 abbd f48e 85bd a57c 27bd ff9c 85bc
00000190: 08a8 efbd 7cb5 05bd 0a6d 93bd 8c1f 26bd
000001a0: 8282 1bbd 6a5f 0fbd 466d 1ebe ebf7 0dbe
000001b0: a4f5 36bd cff1 c4bd 72b2 993d 7837 ffbc
000001c0: 0008 1ebd 8ee7 4abd 4be0 f5bc 3af7 51bc
000001d0: ffc2 dcbd 570d eabb c208 1f3d 5ad1 e63c
000001e0: ceb0 2d3d a99c b63c 3081 bcbd cec2 b23c
000001f0: dda6 a43d c71a 2abd 2564 3bbd cf3f 11be
0.08532028 -0.05642617 -0.0037290158 -0.0067894366 -0.025167799 -0.15377794 -0.08668071 -0.020027006
-0.091367416 -0.08833453 -0.032930188 -0.17200924 0.052546903 0.02057441 -0.031057883 0.0745885
-0.12410543 -0.00525502 -0.028010765 -0.051139258 -0.13623513 -0.10837978 0.10772886 0.119533345
-0.14050716 0.108681016 -0.12972285 0.04830679 0.016650774 0.010819588 -0.119796 0.08600656
0.040999576 -0.045464784 0.059852973 -0.013331059 -0.05049591 -0.013696999 0.07750539 -0.06906683
-0.039737765 0.05801579 -0.05081202 -0.018134298 0.10216539 -0.04290596 -0.096985616 -0.008332113
-0.04387037 -0.124746345 -0.012043533 -0.1068373 0.01447103 -0.010703843 -0.12481481 -0.063674636
-0.013664017 -0.017197441 0.018247833 -0.05641751 0.04465025 -0.13372745 -0.031209277 -0.10337766
-0.036363803 -0.013841626 -0.07610031 -0.10449791 -0.019146007 -0.059877668 0.0047732624 -0.06278188
-0.053323187 0.0024179353 -0.03431435 -0.044165853 -0.015351501 0.02506526 -0.13421813 -0.000106176245
-0.08689149 0.040997867 0.0009918753 -0.12418837 -0.10582005 0.021942584 -0.023408672 -0.02230588
0.02346798 0.019990148 0.04047914 -0.086594634 -0.024174852 -0.06770977 0.051280968 -0.035554755
-0.08386301 -0.06521407 -0.040890355 -0.016310213 -0.11701971 -0.03264378 -0.07198532 -0.04055743
-0.03796626 -0.035003103 -0.15471372 -0.13864104 -0.044667855 -0.09616434 0.07504739 -0.03115438
-0.03858185 -0.049537234 -0.030014178 -0.012815291 -0.1077938 -0.0071427035 0.03882671 0.028175998
0.042404942 0.022291498 -0.09204328 0.021821406 0.08039639 -0.041529443 -0.045749802 -0.14184497

action_layer.layer1.1.weight f4 [2, 128]
00000000: 6b89 babd d040 283d fae2 d3be c621 063e
00000010: 7ac5 863d d4d6 ad3d c2e3 b7bd 0d53 b7be
00000020: 4d94 94bd dee7 4c3d 4656 ec3d 4e36 973d
00000030: 8bbb 98be da27 42be e458 bebd 8b85 0f3d
00000040: c668 633e b665 b1bd a3a0 603e d2c6 b63c
00000050: baab 90be 89bb b63d 2253 343c 9048 07be
00000060: cae2 cf3d 37e3 d7bc 7755 173d 07e6 bb3d
00000070: a693 8e3d 3c22 d6bd c109 60be 1010 263d
00000080: 5080 a9bd 6e7c 82be 7001 043e 1d97 e3bd
00000090: 0b47 3cbd 25f2 5c3e d953 4bbe 2750 bbbc
000000a0: 480f 71be 8d17 2cbd 4451 c4bd 8008 af3d
000000b0: 6ed6 d9bd 280e 713e cc62 93bd 4223 df3d
000000c0: 1761 eabe 228d e33d 893b 623d a6f6 b2bd
000000d0: 0800 debd 4e29 1abe ebda af3c 1ba9 1b3e
000000e0: 88bd cb3d 6370 3e3d 6d36 393e bf27 693d
000000f0: e6c1 06be ebdb 3abe adf6 133e 68db 45be
00000100: 5a1b 413e 1b0d 843d 1a6b 22be 06a8 8b3d
00000110: 46ee 4f3e 6feb f8bd 9053 83bd 80bd bb3d
00000120: bc1c dfbd 602a 76be 3411 30bd b433 a23e
00000130: 21a2 9b3d 6d7f 89be d7fe 82bd cf84 573d
00000140: e2b6 2fbe 477c 453d 93f9 de3d 7240 4c3e
00000150: 8e87 be3d 7c70 06bd bd6c 31be a85f 9dbd
00000160: 8f48 a43c 5b6e feba 6eb1 d43b 2dc9 403e
00000170: 8fa7 5b3c f13a 44bb 093b f3bc 90a8 a6bd
00000180: b5b0 30bc 6576 9fbd 5ef5 b83c 5e36 64bd
00000190: 4d67 523e efe3 76be 509d df38 07d1 bf3d
000001a0: bb06 363c 7b45 0b3e c5d5 88be 3d8c c33d
000001b0: cfd4 893e ee73 dcbd 90af 143d 6024 3abe
000001c0: 1227 2d3e 5eac d73c 3699 aabd 927e e6bc
000001d0: a461 5b3e a3ae f1bd 84a0 adbd 37e6 ecbd
000001e0: e353 acbd d92b 12bd edef 733c 1d63 1bbb
000001f0: d66a b7bd 86a8 8a3d 187a e63d 085a dfbd
00000200: 285c ad3c 08cc 9c3d fa07 323e 55f6 8bbe
00000210: 59ee 57be c0a0 813e e8da 0f3e b98b b0bd
00000220: 04ef 3cbe 3d43 1bbe fd21 74be 2fda 46bd
00000230: 6f29 59bd cc01 433d 913f e83c 2c50 cf3d
00000240: 3057 e7bd 06c8 9139 6f16 fc3d 74fe 873e
00000250: ada6 54be 778d 76bc c073 883d 8b39 213d
00000260: 248b b5be b7fb 1c3e 9b5b a73d b763 7cbd
00000270: 302a 97be e10f 8a3c 99e1 04be f0e7 9e3d
00000280: 9865 08be bad6 c63c 470c bf3a c5f8 463e
00000290: 29c5 bf3e c41f 203e 2a73 423e b7a4 013e
000002a0: d51f 38bc d8fb 2cbe e7c8 a6be 59ad 033e
000002b0: f91b 90bd 9b10 853e e82f b3bc 98ff 573e
000002c0: 8742 31bd 9d22 0e3e eb21 07be da56 5a3e
000002d0: 48f8 8d3e 0492 b3bb f4c3 5bbe 20a9 023d
000002e0: dc3e 82bd b199 6a3e 30db 10bc dca9 50be
000002f0: dfc0 aabd 6c06 3f3c 4696 a4bd 101e 01bd
00000300: b81d adbd 1fe4 4bbe d369 acbd 0c0e 21be
00000310: 2626 88be 3aed 373d 72dd 1f3d 4402 a4bd
00000320: 5ea9 423b 9571 6fbd a841 bdbd b2b1 bdbd
00000330: e362 723d d690 04be ac02 8fbe f846 b4bd
00000340: fc5f 113d 22b8 2abe 1280 debc a49f 903e
00000350: bd53 1fbd c749 d3bd 40de 53be 347d 19bd
00000360: e057 d3bd 3ace 743e 7637 983e e76f 3abe
00000370: de6e 253e d0d1 913d 1234 c0bd c5f6 f13c
00000380: 5d61 253e 7919 dc3e 7b9d 363e 7aab 8cbd
00000390: ac5c a4bd fe81 8bbd 1f65 da3d 2986 a03e
000003a0: 359a ccbd 258c 4d3e 981a a13e 51c1 cdbc
000003b0: cc61 9f3d 958d 2abd e51a 8d3d 89c7 cdbc
000003c0: c715 33be a493 7a3d 5075 a1bc 4d0e b3be
000003d0: 550f 573e f590 1fbe 3712 5fbb 4603 373e
000003e0: f0f9 c9be 855a 893e 9de9 123e 1c97 83be
000003f0: 1cd0 ed3c eb02 a83d 4dc6 40bd 3dc4 313d
-0.09108242 0.041077435 -0.41384107 0.13098821 0.065806344 0.08488241 -0.08978988 -0.3580555
-0.07254849 0.050025813 0.11539893 0.07383405 -0.29830584 -0.18960515 -0.09294298 0.035039466
0.22207937 -0.08661978 0.21936278 0.022311602 -0.28256017 0.08922488 0.0110061485 -0.13211274
0.101506785 -0.026353462 0.03694674 0.091747336 0.069617555 -0.104557484 -0.21878721 0.040542662
-0.08276427 -0.25485557 0.12891173 -0.11112807 -0.04596619 0.21576746 -0.19856204 -0.022865368
-0.23540986 -0.042014647 -0.09585813 0.08546543 -0.10636602 0.23540556 -0.071965784 0.10895397
-0.457772 0.11110903 0.05523256 -0.08738451 -0.1083985 -0.15054819 0.021466693 0.15201227
0.099482596 0.0464939 0.18087168 0.05692267 -0.13159904 -0.18247955 0.14449568 -0.19321978
0.1885809 0.06447812 -0.15861169 0.06819157 0.20305738 -0.121542804 -0.06412423 0.09167004
-0.108941525 -0.24039602 -0.042985156 0.3168007 0.07599283 -0.2685503 -0.06396263 0.05261689
-0.17159608 0.048214223 0.10887446 0.19946459 0.09303199 -0.032822117 -0.17326637 -0.076842606
0.02005413 -0.0019411551 0.006490878 0.18826742 0.013406648 -0.0029942358 -0.029691236 -0.081376195
-0.010784318 -0.07786254 0.022577938 -0.05571591 0.20547219 -0.24110387 0.000106627704 0.09366041
0.011110003 0.13600723 -0.26725593 0.09548233 0.26920173 -0.10764299 0.036300242 -0.18177938
0.16909435 0.026327308 -0.08330004 -0.028136525 0.21423966 -0.118008874 -0.084778816 -0.115673475
-0.084144376 -0.035686348 0.014888746 -0.00237102 -0.08955924 0.067704245 0.11253756 -0.10905844
0.021162108 0.076561034 0.17385855 -0.27336374 -0.21087016 0.25317955 0.1404835 -0.086204
-0.18450552 -0.15162368 -0.2384109 -0.04854792 -0.05301803 0.047609136 0.028350623 0.101227134
-0.112959266 0.00027805584 0.12308966 0.2656132 -0.20766707 -0.015048376 0.066627026 0.039361518
-0.35457718 0.15330397 0.08171769 -0.061618533 -0.29524374 0.016853275 -0.12976684 0.07759082
-0.13320005 0.024272311 0.0014575802 0.19430836 0.3745511 0.15637118 0.18989244 0.1266049
-0.011238058 -0.16892946 -0.3257515 0.12859096 -0.07036585 0.2598923 -0.02187343 0.21093595
-0.043276336 0.13880391 -0.13196532 0.21322194 0.27728486 -0.005480053 -0.21461469 0.03189957
-0.06359646 0.22910191 -0.008841321 -0.20377296 -0.083375685 0.011659246 -0.08036475 -0.03152281
-0.08452934 -0.1991124 -0.08418622 -0.15728015 -0.26591605 0.04490397 0.039029546 -0.08008245
0.0029703001 -0.05845793 -0.092410386 -0.09262408 0.059176337 -0.12945876 -0.27931726 -0.08802599
0.03549193 -0.16671804 -0.027160678 0.28246796 -0.03889822 -0.10316806 -0.2069025 -0.03747292
-0.10319495 0.23906794 0.29729813 -0.1820675 0.16155574 0.07120097 -0.093849316 0.029536614
0.16150422 0.42988184 0.17833512 -0.06868644 -0.08025488 -0.068119034 0.106638186 0.31352356
-0.0999035 0.20072992 0.31465602 -0.025116595 0.07782325 -0.04163893 0.06889895 -0.02511956
-0.17488776 0.061175957 -0.01970926 -0.34971848 0.21001942 -0.1558264 -0.0034037957 0.17872342
-0.394485 0.26826873 0.14346929 -0.25701225 0.029029898 0.082036816 -0.047064114 0.043400038

action_layer.layer1.1.bias f4 [2]
00000000: 8379 da3c 1d1d eabc
0.02666927 -0.028578335

encoding_layer.layer.0.weight f4 [64, 180]
00000000: 1e70 b63b e05d 60bd 5190 d63c a0e1 7a3e
00000010: f494 b9bd 333a 9ebd 542b 05bd c73f 323b
00000020: 1a76 7cbd 7ae1 6dbd 8146 bcbd 04dd 8abd
00000030: 1213 463c 307a d6bd 8511 9d3d 3f68 10bd
00000040: 37e8 0d3e 8707 29bd 6957 bf3d d029 dcbd
00000050: 0ea2 bdbd 185b bbbd 9ae8 25bb 1c8d 9a3d
00000060: 403b 29be fc95 913e 050f a5ba 5d0c babe
00000070: 3195 25be 8b41 f9bc 2650 02be 9ac3 bdbd
00000080: 5d55 9f3d 75eb 23be 0924 d7bd 5c54 053d
00000090: 2101 95bd 6caa 85bd 6e29 bbbd ab8f d8bd
000000a0: 5ceb dabd b109 b0be 9ef6 943d 4e22 503e
000000b0: 9750 663e 3589 e4bd 73f4 82bd a215 9c3d
000000c0: c400 1a3e 591e f93c 9650 163c 5423 4fbe
000000d0: 6932 5bbd b0f4 57be 3b49 1fbe 596a 223d
000000e0: a47d d3bd 6ea7 b4bd acfa adbe 7c41 a4be
000000f0: f68d 8b3d 1bf2 9f3d 089b b1bd 16ef 3dbe
00000100: 1ce3 8abe 4525 883e 75c1 a73e ef22 fbbc
00000110: 1c58 1abe 6d76 38be 8716 913d 23d2 a33d
00000120: 065f 173d 6f48 e53d afa7 9f3d e4cf 45be
00000130: d90d 7abd 6049 c6bd 4973 f6bd 1e2e ebbd
00000140: 066f 59bd a700 69be 7093 69bd 8056 a8bc
00000150: d9ae 20be a677 f43c 83a8 5f3d 32f5 ce3d
00000160: 6e07 013d 538a 153d e840 b1bd 36ac 9d3c
00000170: 9ee1 51bd 59c5 413e c66c b93d d220 0cbd
00000180: e4b9 17bb 6612 223d 917b cb3d 8da4 b63d
00000190: 1dcf 0e3e e2ba 61bd 72d2 adbd f4b3 a13d
000001a0: e8cb 323e 7e5a 2e3d cb4d 8c3c 8212 903d
000001b0: 153c 003e f943 303e 83b7 a7bc 572a 363e
000001c0: f141 debd b1a7 60ba 3db0 9cbd 3ccc d03c
000001d0: 0e71 ea3d 308c ddbc 2baf 14bd c88e 58ba
000001e0: db0e ce3d 66bb 28be 3460 253d e5dd 37bd
000001f0: 59c3 ce3c 7b94 cfbd 708b a93d 171e a4bc
00000200: f9c2 203e b92b a43c b92c 053d 3a40 053d
00000210: 8022 35bd 9533 e4bc d29b b4bb 07d4 a0bd
00000220: 9f2a 2dbe a9ac c93d a627 9ebd 3772 e9bd
00000230: fa60 a23b 00c9 af3d f1e0 393c 7e27 0cbd
00000240: 9e47 6ebd 6def 4ebc 5c72 923d a4d4 a53d
00000250: 03c3 bdbc 0d63 193d 6160 b33c 3cb2 a5bc
00000260: 3d35 443d 65ca 4abd 9756 87bd 76fa 273d
00000270: 4e8c 1bbe e2a7 abbc 2cec 1e3d 4a9b 8a3d
00000280: 595d a3bc ec46 68bd e879 13bc 3968 953c
00000290: 6431 763d 55fe 423b 2f02 88bd 93d7 fc3c
000002a0: d1a0 183d 5651 113d 423c 82bc 7643 1fbd
000002b0: da78 3f3d 02da 3b3d 882d 9dbc 0522 523d
000002c0: fabc 93bd 81db cbbc d4e4 783d 9f8e 44bd
000002d0: a881 11bc 5780 2cbc 969a cabd 7a88 54bd
000002e0: f386 f23d 5752 a03d 806e 133e 4ecc 1c3e
000002f0: b56a 753b be99 c9bd b163 4bbd 0a0e a43d
00000300: 4fbd 893e 8348 c73d e5ce 63bd 1fcb f4bd
00000310: acc0 d43d 232e 63bd d635 153e 8657 98bd
00000320: 6b08 9f3d 3686 be3d bbb1 f3bd 9906 4cbe
00000330: 1dff 26be 7048 a3bd dcde 1fbe 94c4 7cbd
00000340: 7b4a e23d 2c5f 003d f769 c5bd 1dc3 34be
00000350: d787 efbd dbc3 61bd 8d46 6ebc 8434 37bd
00000360: bcf2 a1be ac08 38be 1c74 53be 0722 b8be
00000370: 471f 53bd 82cd e73d a0a6 b23c 78c0 583e
00000380: 41d9 2c3e 400c 29bd b64f cebd 4bbf d13d
00000390: 215e d83d 984f d73d 7329 19be ea23 c4bd
000003a0: 9b6b 13bd 16e4 a13d 747b a53d 0040 223e
000003b0: a610 9ebd 1597 83bc 5494 0dbd 0364 5abc
000003c0: 8beb 7d3e a33d b13c ea92 acbd f54b 7ebd
000003d0: dbae a43d 9f2e 1b3b daad 17bc 882a c83d
000003e0: f276 a63c 4a45 ef3d 7e53 a7bc 6df8 a1bd
000003f0: 694a 2bbd 0f26 b03c 545a 86bd d7fb 96bd
0.0055675646 -0.054777026 0.026191862 0.24500132 -0.09061614 -0.07725944 -0.032512024 0.0027198659
-0.061636068 -0.05807636 -0.09193135 -0.06780437 0.012089508 -0.10472524 0.07669357 -0.035255667
0.13858114 -0.041266944 0.09342844 -0.107501626 -0.09259425 -0.09148234 -0.0025315643 0.07546446
-0.16526508 0.28434741 -0.0012592977 -0.36337557 -0.16170193 -0.030426761 -0.12725887 -0.09265824
0.07779954 -0.16007788 -0.1050492 0.032551154 -0.07275606 -0.06526646 -0.091387615 -0.105742775
-0.106894225 -0.34382394 0.07273601 0.20325586 0.2249168 -0.11158983 -0.06394281 0.07621314
0.15039355 0.030409979 0.009174487 -0.2022832 -0.05351487 -0.21089435 -0.15555279 0.039652202
-0.103266984 -0.08820997 -0.3398031 -0.3208121 0.06814186 0.0780985 -0.08672148 -0.18548235
-0.27126396 0.26590934 0.32764784 -0.030656306 -0.15072674 -0.18013926 0.07084375 0.07999065
0.036955856 0.11195456 0.07795655 -0.19317585 -0.061048362 -0.09681964 -0.12033708 -0.114834055
-0.053084396 -0.22754155 -0.057025373 -0.020549059 -0.15691699 0.02984221 0.054604065 0.10105361
0.031501226 0.03650887 -0.08654958 0.019247156 -0.051240556 0.18922938 0.0905395 -0.034210987
-0.002315157 0.039568327 0.09935678 0.08918104 0.13946195 -0.055109866 -0.08487405 0.078956515
0.17460597 0.04256677 0.017126938 0.0703478 0.1252292 0.1721343 -0.020473247 0.17789589
-0.10852421 -0.000856991 -0.07650802 0.025488012 0.11447345 -0.027044386 -0.036299866 -0.0008261022
0.10061427 -0.16477737 0.04037495 -0.04488935 0.025239633 -0.10135742 0.08278549 -0.02003388
0.15699376 0.02004038 0.032513354 0.032531954 -0.044222355 -0.027856627 -0.0055117393 -0.07852941
-0.1691079 0.098473854 -0.07722406 -0.11398738 0.004955408 0.085832596 0.011345134 -0.03421735
-0.05817377 -0.012630326 0.071507186 0.080971986 -0.023164278 0.037447978 0.021896543 -0.02022659
0.047902334 -0.049509425 -0.066083126 0.041010343 -0.1519024 -0.020954076 0.03879945 0.067679
-0.019941973 -0.05670826 -0.009001233 0.018238174 0.060105696 0.0029753644 -0.066410415 0.030864513
0.03726274 0.03547796 -0.015897874 -0.038882695 0.046746112 0.045862205 -0.01918675 0.051301975
-0.07213779 -0.024884941 0.060765103 -0.047987577 -0.00888101 -0.0105286455 -0.09892766 -0.051887967
0.11842146 0.07828205 0.14397621 0.15312311 0.0037447636 -0.09843777 -0.04965562 0.0801049
0.26902243 0.097306274 -0.055617232 -0.11952805 0.10388312 -0.05546392 0.14571318 -0.07438569
0.077652775 0.093029425 -0.11899134 -0.19924392 -0.16308255 -0.07972801 -0.15612358 -0.06171091
0.11049362 0.031340763 -0.09639352 -0.17652555 -0.11695831 -0.055118423 -0.014543188 -0.044727817
-0.31630504 -0.17972058 -0.20649761 -0.3596346 -0.0515435 0.113184944 0.021807969 0.21167171
0.16879751 -0.041271448 -0.100737974 0.10241564 0.10564829 0.10513228 -0.14957218 -0.095771626
-0.035991292 0.07904832 0.080801874 0.15844727 -0.07718019 -0.016063252 -0.034565285 -0.013329509
0.24796884 0.021635836 -0.08426459 -0.062084157 0.080411635 0.0023678911 -0.009257758 0.09773737
0.02032039 0.11683138 -0.020425554 -0.079087116 -0.04181901 0.021502523 -0.065601975 -0.073722534

encoding_layer.layer.0.bias f4 [64]
00000000: 8ab6 c9bd 11c6 9dbc dd2c b4bd 53da 04ba
00000010: 39a8 893d 788e e0bd 42eb 4ebb 436f 243d
00000020: 5279 e0bb dc7d 5c3d 6dc4 eabd f13c 96bd
00000030: 6c2c 85bc d3e2 75bd b6a4 bd3d 8f75 143d
00000040: 0a71 a6bc 8130 6bbd 2f97 4a3d 14c0 55bd
00000050: b195 a4bc 9380 cebd 1125 163d 61ef 20bd
00000060: 6bb3 0fbd cf7c 44bc 7218 a1bd 430f 04bd
00000070: f4de 213d 03df 7c3b d569 68bb 9584 02bd
00000080: 155a eebd 5b0a 83bc 476d 11bd 42f2 d1bc
00000090: c0ea 76bd 36a1 c3bd 26ff 9c3c 7325 85bd
000000a0: 85e1 733c 2bab 3b3c dac8 54bd d73b 8dbd
000000b0: b88b 053d e081 42bd 90ca 00bd 158a 18bd
000000c0: 8a4b 9f3c 7522 973b a177 7dbd 9341 83bd
000000d0: eac4 b93d 7039 463d cb58 1dbc ac44 173b
000000e0: b2e8 91bc cf77 833d da55 3d3d dfb8 a5bc
000000f0: ef9c 9cbd d478 bfbc 7be5 db3c 416f f83b
-0.0984927 -0.019259484 -0.087976195 -0.0005067933 0.06721539 -0.10964674 -0.003157333 0.04014517
-0.0068504 0.053830966 -0.114632465 -0.073358424 -0.016256534 -0.06003077 0.09259932 0.036244925
-0.020317573 -0.057419304 0.049460586 -0.052185133 -0.02009091 -0.10083117 0.036656443 -0.03929079
-0.035083216 -0.011992647 -0.07865991 -0.032241117 0.039519265 0.0038585074 -0.0035463471 -0.03186472
-0.116382755 -0.015996149 -0.035504606 -0.025628213 -0.06028247 -0.09552233 0.019164633 -0.065012835
0.014885311 0.011454384 -0.05194936 -0.06896179 0.03260395 -0.04748714 -0.03144318 -0.03724106
0.0194452 0.004612262 -0.061881665 -0.06408992 0.090707615 0.04839462 -0.009603689 0.0023081703
-0.017811153 0.06419336 0.046224453 -0.020229755 -0.0764712 -0.023373045 0.026842823 0.007581622

relational_layer.layers.0.att_src f4 [1, 1, 64]
00000000: 6fde 02bf 5c20 00be 8990 21be f6a4 11be
00000010: 084b 2cbe 47eb 683e 7c20 843d c5e8 54be
00000020: 2eb0 5a3e 43e1 073d 8ff4 b63e 2a13 10bf
00000030: e9ed bdbe 49f4 cebe a549 9e3d 855e 0dbf
00000040: 6639 4c3e b0ed aabd 0bc3 083e 6802 c43e
00000050: 01d4 5a3e e5cb 18bf 3c24 0f3f 7464 813e
00000060: bc41 dabd 6f87 cebe 1836 023f c7d3 2fbd
00000070: dd8c d6be 5035 95bd 511c 1cbe a633 64be
00000080: 345e 82bd 2386 05bd b770 c4bd fc2f c2bd
00000090: b5a4 853e e60a 5ebe 84b6 aa3e bf69 05be
000000a0: 443c 0cbe 6371 bbbe dac9 933e f74d da3e
000000b0: ca3a 623e 2d80 b63e c49b 2abe d1ce fb3b
000000c0: 8f6c 15bf b9b9 81be b673 e23e b6f9 063e
000000d0: 740f acbd dd6e bebd 2f5e 873e 3896 cebe
000000e0: d2ae 47be 9667 33be ff7a 1b3e 283b 993c
000000f0: a99e 51bb a02f ce3c fddc 5bbe 8de0 823e
-0.51120657 -0.12512344 -0.15777792 -0.14223084 -0.16825497 0.22746001 0.064515084 -0.2079192
0.2135627 0.03317381 0.35733458 -0.5627924 -0.37095574 -0.4042075 0.0772889 -0.5522235
0.19943771 -0.083461165 0.13355653 0.38283086 0.21369936 -0.5968612 0.55914664 0.25271952
-0.10657069 -0.40337703 0.5086379 -0.042926576 -0.41904345 -0.07285559 -0.15245177 -0.22285327
-0.06365624 -0.032598626 -0.09591811 -0.094818085 0.26102224 -0.21683845 0.33342373 -0.1302862
-0.13694865 -0.36609945 0.28864938 0.42637607 0.22092739 0.35644665 -0.16660982 0.0076845665
-0.5836877 -0.25337008 0.44228905 0.13181195 -0.08401385 -0.09298489 0.26439044 -0.40348983
-0.19500282 -0.17519984 0.15183638 0.018704966 -0.0031985438 0.025169194 -0.21471019 0.25561944
