HGAT-MADDPG_ver2/ModelBuffer/model_5100.pt (torch, 369835 bytes, 33 tensors)

encoding_layer.layer.0.weight f4 [64, 180]
0.0026315518 0.004741607 -0.048144806 -0.1321352 0.004840305 -0.07028247 -0.06807665 0.08763699
-0.1167397 -0.123423815 0.17114763 0.011288977 -0.2010101 -0.11102915 -0.08023067 0.19268417
0.10212762 0.20002984 -0.14183351 0.05412046 0.08977586 0.14196378 -0.00064799853 -0.20646949
-0.084084176 0.026753956 0.39021322 -0.10956738 -0.1365096 0.14136761 0.11966633 -0.041767847
-0.12813148 0.07765227 0.06365778 0.34222382 -0.011416354 -0.08983752 -0.057949714 -0.19421674
-0.08039089 0.36421844 -0.026108526 -0.24236108 -0.19811991 0.14629766 0.12022451 -0.28272945
-0.14719722 -0.19354592 0.10321821 0.0023648832 0.08182773 0.20612492 0.20348823 -0.27724436
-0.26188183 0.08355548 -0.5343072 -0.56445116 -0.49414998 0.0073380503 0.031242833 -0.33540154
-0.2884876 0.070691034 -0.23099022 -0.022118207 -0.18343255 -0.10264932 0.16909091 -0.07176897
0.10982823 0.034065086 0.01369183 0.00088492397 0.17225923 -0.029210342 0.18109347 0.31543368
-0.36649662 0.20839725 0.16307956 -0.06672945 0.008463369 -0.033278078 0.039247468 -0.1747057
0.09459377 0.15097222 0.021064686 -0.10416022 0.039850652 0.039718572 0.14955951 0.07725867
0.022384979 -0.08527815 -0.12960565 -0.1940869 0.1232549 0.173135 -0.066808216 0.0154602565
0.009253151 0.008298328 0.0046838615 -0.061595015 -0.07553158 -0.11052221 0.13773264 -0.08360717
-0.0861223 -0.083889365 -0.07178549 -0.12848444 0.028234204 -0.12987143 -0.1135382 0.03213453
-0.09587018 0.07254296 -0.054858793 -0.069360174 -0.1716357 0.1260509 0.10010158 0.006516468
-0.1257657 -0.13584295 -0.051101115 -0.014133032 0.12786563 -0.00050847296 0.15282243 0.037641957
0.15990876 0.06568232 0.10242134 0.039749593 0.15584855 -0.006145087 -0.05396979 0.029433385
0.12939392 -0.0005194578 0.023081465 -0.023743855 0.018852895 0.0016600083 -0.018836688 -0.10789877
0.036486037 -0.05020526 -0.06756244 -0.16357736 -0.0539459 -0.024821732 -0.064378455 -0.04743348
-0.058913294 0.041034307 0.011536517 -0.01359931 0.03333641 -0.032292206 0.046217058 0.06258166
0.03691967 0.00025664124 0.019634778 0.13340785 0.04257918 0.0011751725 0.015127996 0.07121528
0.14430141 -0.6268589 0.19354 0.008867601 0.06058668 0.06488025 0.03452122 0.0038945756
0.13038382 0.0864996 -0.040435277 -0.043343596 -0.02392077 -0.04607667 -0.052849174 0.05868063
-0.28303966 0.06900875 0.065748364 0.17922692 -0.18455233 0.010344126 -0.026306737 0.020382056
-0.1640319 0.07604856 -0.085014924 -0.040221628 -0.017558284 0.18631393 -0.32165593 -0.123498924
0.33572963 0.31305063 0.095957905 0.04472978 -0.4463126 0.2522581 -0.6433489 0.42913315
0.6440264 0.17064504 -0.007857405 -0.009829931 0.3597824 -0.09066521 -0.06082426 0.013727185
-0.11454632 0.13164799 0.073697984 -0.2246401 -0.062125113 -0.11506063 -0.012416866 0.09073427
0.09435797 -0.1797652 -0.094714895 0.23889765 0.08599182 0.047657017 -0.25081077 -0.31371874
-0.16100882 0.3561995 -0.000644065 -0.17707907 -0.15952009 0.14586706 -0.044526424 -0.21112978
-0.04918947 -0.08652888 -0.4050211 -0.31441197 -0.08893526 -0.23996124 -0.2220957 -0.28252643
00000000: 1d76 2c3b 7b5f 9b3b 7d33 45bd 734e 07be
00000010: 6c9b 9e3b 41f0 8fbd c56b 8bbd 067b b33d
00000020: 3915 efbd a0c5 fcbd 5341 2f3e 67f5 383c
00000030: 97d5 4dbe 4063 e3bd fa4f a4bd 004f 453e
00000040: 4928 d13d 9fd4 4c3e ce3c 11be 6aad 5d3d
00000050: 68dc b73d f45e 113e 72de 29ba bd6c 53be
00000060: 5334 acbd 1d2b db3c 07ca c73e dd64 e0bd
00000070: 2cc9 0bbe acc2 103e 9f13 f53d c314 2bbd
00000080: e634 03be 2708 9f3d 035f 823d f637 af3e
00000090: a90b 3bbc bcfc b7bd ae5c 6dbd c1e0 46be
000000a0: fba3 a4bd d77a ba3e 8ce1 d5bc 812d 78be
000000b0: f2df 4abe 0ecf 153e 4538 f63d eac1 90be
000000c0: deba 16be e730 46be 1264 d33d 28fc 1a3b
000000d0: 4c95 a73d 6912 533e 385f 503e f9f2 8dbe
000000e0: 6015 86be 231f ab3d 5bc8 08bf df7f 10bf
000000f0: 3a01 fdbe 0774 f03b f8f0 ff3c c0b9 abbe
00000100: a6b4 93be 76c6 903d b388 6cbe 3e31 b5bc
00000110: bed5 3bbe cf39 d2bd 2b26 2d3e 9cfb 92bd
00000120: a0ed e03d d587 0b3d b353 603c 3efa 673a
00000130: b964 303e 874a efbc 9170 393e 8680 a13e
00000140: 72a5 bbbe 1766 553e 54fe 263e 73a9 88bd
00000150: f1a9 0a3c 984e 08bd f4c1 203d 0de6 32be
00000160: 61ba c13d 7698 1a3e d98f ac3c f451 d5bd
00000170: 703a 233d f1af 223d 2126 193e cb39 9e3d
00000180: b460 b73c 50a6 aebd 58b7 04be b7be 46be
00000190: 116d fc3d 4d4a 313e bfd2 88bd 044d 7d3c
000001a0: 879a 173c b6f5 073c 147b 993b 0e4b 7cbd
000001b0: 4db0 9abd 7859 e2bd c909 0d3e 3c3a abbd
000001c0: e360 b0bd 30ce abbd 4504 93bd 6d91 03be
000001d0: 6b4b e73c 04fd 04be b786 e8bd 7f9f 033d
000001e0: 9657 c4bd 6791 943d 9db3 60bd b50c 8ebd
000001f0: 45c1 2fbe 7d13 013e 0f02 cd3d 1888 d53b
00000200: b9c8 00be 6a1a 0bbe 674f 51bd 3c8e 67bc
00000210: 35ef 023e 0b4b 05ba 7c7d 1c3e 742e 1a3d
00000220: 1fbf 233e 7484 863d 48c2 d13d 78d0 223d
00000230: c396 1f3e ba5c c9bb 6d0f 5dbd 481e f13c
00000240: d77f 043e 392c 08ba 5715 bd3c 7982 c2bc
00000250: 6371 9a3c a394 d93a 664f 9abc 08fa dcbd
00000260: 6272 153d 08a4 4dbd 2d5e 8abd d380 27be
00000270: 60f6 5cbd f256 cbbc dad8 83bd 9c49 42bd
00000280: 114f 71bd 9713 283d a903 3d3c a4cf 5ebc
00000290: c28b 083d d544 04bd 194e 3d3d d02a 803d
000002a0: 1439 173d ce8d 8639 1dd9 a03c 119c 083e
000002b0: 8267 2e3d 3f08 9a3a 6adb 773c 51d9 913d
000002c0: c0c3 133e d379 20bf 5a2f 463e 6a49 113c
000002d0: bd29 783d f0df 843d 1f66 0d3d 233c 7f3b
000002e0: 5683 053e b426 b13d 769f 25bd 0e89 31bd
000002f0: 7ef5 c3bc e4ba 3cbd 6078 58bd 1a5b 703d
00000300: 93ea 90be 7654 8d3d 14a7 863d 4387 373e
00000310: 49fb 3cbe 697a 293c 3a81 d7bc 45f8 a63c
00000320: faf7 27be 59bf 9b3d 4e1c aebd 6fbf 24bd
00000330: 64d6 8fbc 14c9 3e3e 16b0 a4be 01ed fcbd
00000340: c1e4 ab3e 2c48 a03e 9485 c43d 9336 373d
00000350: 1683 e4be f927 813e 83b2 24bf 57b7 db3e
00000360: eade 243f 93bd 2e3e 58bc 00bc b80d 21bc
00000370: 6635 b83e aeae b9bd dc22 79bd fde7 603c
00000380: 4397 eabd bbce 063e f8ee 963d 0e08 66be
00000390: e776 7ebd e8a4 ebbd 1c70 4bbc e4d2 b93d
000003a0: c03e c13d 5e14 38be e2f9 c1bd 96a1 743e
000003b0: 7b1c b03d 0134 433d 456a 80be be9f a0be
000003c0: 7fdf 24be c85f b63e 78d6 28ba 3754 35be
000003d0: 3c59 23be 2d5e 153e 5761 36bd 6832 58be
000003e0: e67a 49bd 0e36 b1bd ed5e cfbe 9bfa a0be
000003f0: b123 b6bd 66b8 75be 0e6d 63be 4ea7 90be

encoding_layer.layer.0.bias f4 [64]
0.08237086 0.038165975 0.028135618 -0.015923321 -0.015210547 0.08969067 -0.027192337 -0.0664849
0.011451308 -0.045779005 -0.02478905 -0.09141617 -0.040024307 0.08612782 -0.038951546 -0.041713316
-0.025956957 -0.048446454 0.029484438 0.0552911 -0.0057402444 -0.027654227 -0.11955569 -0.012945079
-0.06796379 -0.0431584 0.032646775 0.027400894 0.042229783 -0.010284061 0.006443915 -0.07604461
0.009744538 0.025960201 -0.06531094 0.011733895 -0.009338721 -0.12193956 -0.0895331 -0.07825196
0.041783605 0.031223085 0.042172693 0.010656905 0.011502541 0.030208508 0.0014536304 0.010362231
-0.10133452 -0.07075366 -0.045002952 -0.01773978 -0.038555697 -0.027426068 -0.012306244 0.11206388
-0.039635964 -0.080259494 0.03596208 0.070344135 -0.06183831 -0.027648149 -0.003380171 -0.004446109
00000000: 0eb2 a83d ed53 1c3d ab7c e63c a071 82bc
00000010: a835 79bc beaf b73d 77c2 debc 3c29 88bd
00000020: 449e 3b3c c482 3bbd 6812 cbbc 6738 bbbd
00000030: 87f0 23bd c863 b03d a88b 1fbd 95db 2abd
00000040: afa3 d4bc ca6f 46bd 5989 f13c ec78 623d
00000050: a918 bcbb 1e8b e2bc 9dd9 f4bd 9917 54bc
00000060: 9930 8bbd ddc6 30bd a0b8 053d d777 e03c
00000070: 23f9 2c3d 7a7e 28bc 7a27 d33b 47bd 9bbd
00000080: 8ea7 1f3c 7daa d43c bec1 85bd 863f 403c
00000090: 6f01 19bc 73bb f9bd 215d b7bd 9042 a0bd
000000a0: 4925 2b3d 8ec7 ff3c 46bd 2c3d 4d9a 2e3c
000000b0: 2775 3c3c d577 f73c be87 be3a 59c6 293c
000000c0: 7988 cfbd 4be7 90bd 0455 38bd 0453 91bc
000000d0: 94ec 1dbd a2ac e0bc 21a0 49bc bf81 e53d
000000e0: 5259 22bd 175f a4bd f94c 133d 9610 903d
000000f0: 2b4a 7dbd 5f7e e2bc dc85 5dbb aab0 91bb

relational_layer.layers.0.att_src f4 [1, 1, 64]
-0.035573702 0.32685283 -0.31862563 0.06956778 -0.17881687 -0.10628127 0.38532665 -0.02726883
0.28163794 -0.4908033 0.06321044 -0.308061 0.21323994 0.18200415 0.56438947 -0.17001048
-0.2403415 0.18632425 0.43954372 -0.4197847 0.046782397 -0.3595852 -0.15047278 0.13316765
-0.38977602 -0.3935935 -0.39781183 -0.17343569 0.031767845 -0.49009037 -0.35012406 -0.0021165716
-0.008654172 0.0030659984 0.4107158 -0.37762234 0.112937 -0.2327985 -0.3398096 0.17269148
0.34154752 -0.25955665 -0.34167 -0.023803953 0.45275313 -0.13028447 0.27655572 0.22864603
-0.3342331 -0.3528395 0.2560103 0.2521371 0.111466505 -0.19041042 -0.47475782 0.26495916
-0.32631138 -0.38574415 -0.15022264 -0.12087074 0.08650119 0.21917349 0.15230434 0.2686433
00000000: bbb5 11bd 4159 a73e e622 a3be 8d79 8e3d
00000010: c51b 37be ffa9 d9bd 8949 c53e e262 dfbc
00000020: d932 903e 924a fbbe 7a74 813d 2cba 9dbe
00000030: 925b 5a3e 4c5f 3a3e d47b 103f 3a17 2ebe
00000040: 151c 76be c9cb 3e3e e00b e13e 05ee d6be
00000050: e69e 3f3d 8d1b b8be 8915 1abe 1a5d 083e
00000060: b990 c7be 1685 c9be fead cbbe 2099 31be
00000070: 001f 023d 20ed fabe 7643 b3be 2eb6 0abb
00000080: 3aca 0dbc ebee 483b 5749 d23e b757 c1be
00000090: 844b e73d bb62 6ebe 86fb adbe 09d6 303e
000000a0: 51df ae3e 9ce4 84be 5fef aebe 8200 c3bc
000000b0: 42cf e73e 4b69 05be b698 8d3e 2f22 6a3e
000000c0: 9a20 abbe 61a7 b4be c813 833e 1d18 813e
000000d0: 8d48 e43d f3fa 42be 7513 f3be baa8 873e
000000e0: 4912 a7be 4280 c5be f7d3 19be 148b f7bd
000000f0: 8927 b13d 046f 603e abf5 1b3e 9d8b 893e

relational_layer.layers.0.att_dst f4 [1, 1, 64]
-0.47325245 -0.011653514 0.33538967 -0.1373938 -0.52830166 -0.07567481 -0.10012001 -0.67054117
0.3890333 0.16988494 -0.35607648 -0.14553437 0.48761764 -0.20659159 -0.1192868 0.1761897
-0.13929325 -0.29446054 0.032967474 0.17349066 0.43820015 0.27447265 0.28385162 -0.1158541
-0.0058743213 0.17495848 0.44474602 0.13299759 -0.056676608 -0.028076962 -0.21856025 -0.014922642
0.23992419 0.2181831 -0.2614402 0.08710322 0.20809446 0.49905267 0.12040383 0.05742306
-0.063016236 -0.3852049 0.20093428 0.019202868 0.1426266 0.14416581 -0.08035615 -0.002030542
0.14282283 -0.055638593 -0.13826543 -0.286384 -0.4524056 -0.08864266 -0.20784122 -0.17485563
-0.64641845 -0.40828124 0.0025359874 -0.011660172 -0.039035924 -0.27142382 -0.38505444 -0.47694287
00000000: 254e f2be 61ee 3ebc 32b8 ab3e f6b0 0cbe
00000010: c73e 07bf 65fb 9abd b80b cdbd 96a8 2bbf
00000020: 5f2f c73e 51f6 2d3e a84f b6be f606 15be
00000030: 05a9 f93e bf8c 53be a34c f4bd 136b 343e
00000040: e4a2 0ebe 88c3 96be e708 073d 89a7 313e
00000050: c55b e03e ae87 8c3e 0055 913e ea44 edbd
00000060: 617d c0bb 5128 333e c0b5 e33e 8530 083e
00000070: bb25 68bd a801 e6bc 42ce 5fbe 197e 74bc
00000080: b0ae 753e 646b 5f3e 7ddb 85be 2c63 b23d
00000090: b716 553e d583 ff3e 4996 f63d 7134 6b3d
000000a0: a80e 81bd 9439 c5be b7c1 4d3e 554f 9d3c
000000b0: b50c 123e 34a0 133e c491 a4bd d712 05bb
000000c0: 2640 123e 4be5 63bd 7495 0dbe eca0 92be
000000d0: b5a1 e7be 488a b5bd 54d4 54be 5b0d 33be
000000e0: ae7b 25bf 3d0a d1be cf32 263b 4e0a 3fbc
000000f0: 22e4 1fbd 10f8 8abe db25 c5be db31 f4be

relational_layer.layers.0.bias f4 [64]
-0.018541766 -0.28371483 -0.18292217 -0.07629521 0.015043737 -0.03657487 -0.20989546 -0.15243123
-0.12165763 -0.10296852 -0.042059757 -0.01879022 -0.19013181 -0.10567413 -0.18941909 -0.0028637596
0.009486358 -0.24542604 -0.09134888 0.04533424 -0.18088324 -0.07731615 -0.25024018 -0.10513901
-0.042917218 0.011077453 -0.09034222 -0.036664404 -0.1234001 -0.082993254 -0.19335315 0.029742511
-0.107294686 -0.0014245114 -0.05610452 -0.10360395 -0.14613327 -0.1673384 -0.17169908 -0.012312817
-0.16416931 -0.16816968 -0.08997317 -0.037220594 0.008693044 -0.07271035 0.04443341 -0.022145303
-0.007838655 0.062609 -0.23885846 -0.08758788 -0.06888472 -0.06285933 -0.12535433 -0.13305102
-0.1747194 -0.20386103 -0.12517624 0.033619292 -0.039360307 -0.07340321 -0.010882967 -0.0042099175
00000000: e7e4 97bc 1243 91be f34f 3bbe aa40 9cbd
00000010: 027a 763c 88cf 15bd d6ee 56be ef16 1cbe
00000020: a327 f9bd 29e1 d2bd da46 2cbd f3ed 99bc
00000030: eab1 42be ae6b d8bd 14f7 41be eaad 3bbb
00000040: ab6c 1b3c f750 7bbe 1f15 bbbd 65b0 393d
00000050: 7539 39be ee57 9ebd 7b1f 80be 1f53 d7bd
00000060: f7c9 2fbd 357e 353c 5805 b9bd 6a2d 16bd
00000070: 31b9 fcbd 5ef8 a9bd 5efe 45be 91a6 f33c
00000080: 51bd dbbd acb6 baba dacd 65bd 4f2e d4bd
00000090: f6a3 15be c25a 2bbe e2d1 2fbe b3bb 49bc
000000a0: 001c 28be ac34 2cbe da43 b8bd 9f74 18bd
000000b0: 456d 0e3c 2ae9 94bd cfff 353d 116a b5bc
000000c0: b46d 00bc 2639 803d 5097 74be 4661 b3bd
000000d0: 6f13 8dbd 64bc 80bd e35c 00be 873e 08be
000000e0: a4e9 32be f2c0 50be 332e 00be 62b4 093d
000000f0: 4638 21bd 6c54 96bd 794e 32bc 59f3 89bb

relational_layer.layers.0.lin_src.weight f4 [64, 64]
0.06052771 0.039062064 0.25432596 -0.3707988 0.16964218 -0.115013815 -0.15699741 -0.28444266
0.22127536 -0.11393508 -0.072896406 -0.1456168 -0.22804183 0.25842553 -0.41891816 0.17051494
0.08902702 0.05723502 -0.46626452 -0.69055396 -0.07116602 0.096141316 -0.5363915 -0.07425241
-0.36527288 0.14104715 -0.021881491 -0.40268266 -0.12043979 -0.11996848 0.2803899 -0.1890846
-0.26847237 -0.18308926 -0.16476485 -0.22222778 -0.09716913 0.044366337 -0.12693906 -0.0012468636
0.07390858 -0.12070021 0.2885715 0.0077097868 0.3620663 -0.6434478 -0.07888806 0.039990477
-0.38725188 -0.05302276 -0.223387 0.34394124 0.11084766 -0.20475979 0.027918637 0.011852232
0.21910323 0.52869916 -0.29033864 -0.24432436 -0.0101138465 -0.040054895 0.41392425 -0.19673502
0.037186038 -0.26226193 -0.119496204 -0.13856398 -0.17287967 -0.051360473 0.08346502 -0.33337334
-0.003470642 -0.22271517 -0.10297215 0.23443763 0.20312372 0.37468845 -0.1007175 -0.069247216
-0.29631147 -0.048800938 -0.26246685 -0.27281675 0.08027919 0.018898865 -0.1994319 -0.20925947
0.019757431 -0.2891102 -0.047409024 0.11110053 -0.04931827 0.29433095 0.10294922 -0.21164568
0.06692616 0.17360634 -0.447445 -0.14534429 -0.12656547 0.0029173635 -0.2922034 -0.09354449
0.14309135 0.36036676 -0.09820262 -0.29273182 0.050592937 0.13993019 -0.27498108 -0.059165254
0.108262755 -0.018055854 0.024255797 -0.20050156 -0.05227788 -0.23441479 -0.17742658 -0.25866255
-0.07905676 0.14981338 -0.22621068 -0.059572868 -0.22819668 -0.053178646 0.07370779 0.08535146
-0.034480702 0.37097737 0.074158765 0.013868373 -0.18239398 0.05840926 0.12213184 0.15338382
-0.17767456 0.038712937 0.0053098947 -0.14155944 -0.16824786 0.24627663 0.0043338416 0.26673043
-0.1301041 0.06110308 -0.18876721 0.16006549 -0.21249504 -0.012077353 -0.034080777 0.054989077
0.14288181 0.1926431 -0.06685197 0.327019 -0.29956675 0.07684226 0.08959589 0.19432533
-0.09223263 0.07249857 0.24087538 -0.12500688 0.050714638 -0.26592112 0.067165025 0.0056698555
0.08022403 0.14782402 0.0035555784 -0.036903396 -0.14260541 0.17737639 -0.08110833 -0.03787075
-0.15215845 -0.3148587 -0.08266985 -0.30449912 -0.1911234 -0.016370561 0.4168625 0.1342186
0.089849405 -0.027828043 0.136898 -0.18553373 -0.1745936 -0.052001096 0.25119093 -0.05312058
-0.0126944 0.09951645 0.21753997 -0.09826035 -0.19682145 -0.070606366 -0.5743581 0.13145086
-0.031682424 -0.15497485 0.13576737 0.36199224 0.10597596 -0.23000562 -0.11753216 -0.31413367
-0.08382605 0.028874163 -0.020404266 -0.052181393 -0.091580674 -0.05894944 -0.23732676 0.1225642
0.3479073 0.5230317 -0.23003145 0.04351711 -0.041306227 0.15657921 0.16175254 0.103767216
-0.0809724 0.13438047 -0.19097869 -0.28999227 0.18842898 -0.16591904 -0.17719965 -0.0038777315
-0.07113891 -0.048540723 -0.18084748 0.08505024 0.026553115 -0.43072706 0.04029101 0.14057548
-0.18332838 -0.37064952 0.18289632 0.013560774 0.35086063 -0.13032393 -0.4311499 -0.06714405
-0.03599422 -0.08442282 -0.2852551 0.14706919 -0.31367865 0.13695629 0.38896665 -0.08281443
00000000: e7eb 773d 8bff 1f3d 0337 823e 57d9 bdbe
00000010: aeb6 2d3e 5d8c ebbd eec3 20be 78a2 91be
00000020: 0296 623e cc56 e9bd b64a 95bd 921c 15be
00000030: cc83 69be 5a50 843e 717c d6be 789b 2e3e
00000040: cc53 b63d 456f 6a3d 39ba eebe 25c8 30bf
00000050: 7ebf 91bd bde5 c43d f450 09bf a611 98bd
00000060: 0c05 bbbe aa6e 103e d040 b3bc 6c2c cebe
00000070: 23a9 f6bd 09b2 f5bd 448f 8f3e 659f 41be
00000080: 3675 89be c07b 3bbe 1eb8 28be ae8f 63be
00000090: 9c00 c7bd 7ab9 353d 50fc 01be cd6d a3ba
000000a0: 625d 973d ac31 f7bd a5bf 933e 61a2 fc3b
000000b0: c160 b93e ffb8 24bf 1090 a1bd 0ecd 233d
000000c0: e145 c6be 652e 59bd 90bf 64be 1119 b03e
000000d0: 1904 e33d 8dac 51be a0b5 e43c dd2f 423c
000000e0: 995c 603e d458 073f 44a7 94be 2a30 7abe
000000f0: 8cb4 25bc 9a10 24bd e1ed d33e e874 49be
00000100: 6350 183d 3247 86be 6dba f4bd b7e3 0dbe
00000110: 5e07 31be 5c5f 52bd b5ef aa3d e9af aabe
00000120: b673 63bb 720f 64be 10e3 d2bd 6b10 703e
00000130: aaff 4f3e 2ad7 bf3e fa44 cebd 7cd1 8dbd
00000140: 23b6 97be 7ee3 47bd 0e62 86be a3ae 8bbe
00000150: 6a69 a43d cbd1 9a3c e037 4cbe 1d48 56be
00000160: 56da a13c 4106 94be f72f 42bd ad88 e33d
00000170: f401 4abd 8cb2 963e 0ad7 d23d a5b9 58be
00000180: 9510 893d dcc5 313e 8317 e5be 22d5 14be
00000190: 619a 01be 3d31 3f3b af9b 95be 4194 bfbd
000001a0: 8a86 123e fe81 b83e 751e c9bd f2e0 95be
000001b0: 8a3a 4f3d dc49 0f3e 52ca 8cbe 4457 72bd
000001c0: ddb8 dd3d dfe9 93bc 18b4 c63c 4850 4dbe
000001d0: 5521 56bd 6e0a 70be 50af 35be 6b6f 84be
000001e0: 83e8 a1bd ae68 193e c6a3 67be ae02 74bd
000001f0: 64ac 69be dad1 59bd 1cf4 963d bfcc ae3d
00000200: a33b 0dbd bff0 bd3e 8de0 973d 2c38 633c
00000210: 7dc5 3abe 8c3e 6f3d 4220 fa3d a610 1d3e
00000220: 52f0 35be 7591 1e3d a0fe ad3b f5f4 10be
00000230: 2b49 2cbe f12f 7c3e e602 8e3b e490 883e
00000240: 023a 05be 3947 7a3d 314c 41be 35e8 233e
00000250: 4d98 59be 17e0 45bc 4998 0bbd 3a3c 613d
00000260: 9c4f 123e 3c44 453e b0e9 88bd 096f a73e
00000270: d060 99be 7a5f 9d3d 0d7e b73d 38fd 463e
00000280: 76e4 bcbd 217a 943d 09a8 763e ce01 00be
00000290: 27ba 4f3d d026 88be d18d 893d 32ca b93b
000002a0: 7f4c a43d 2e5f 173e b504 693b 0428 17bd
000002b0: 2707 12be 28a2 353e 201c a6bd 5c1e 1bbd
000002c0: 6dcf 1bbe 2935 a1be cf4e a9bd 4fe7 9bbe
000002d0: dab5 43be 8e1b 86bc 006f d53e 9a70 093e
000002e0: f702 b83d a3f7 e3bc fd2e 0c3e 8efc 3dbe
000002f0: aac8 32be 1aff 54bd 199c 803e f794 59bd
00000300: 2cfc 4fbc 48cf cb3d ccc2 5e3e b93c c9bd
00000310: 908b 49be 129a 90bd 2209 13bf 0e9b 063e
00000320: 6ec5 01bd bab1 1ebe 9a06 0b3e 0c57 b93e
00000330: ed09 d93d 9886 6bbe b3b4 f0bd 21d6 a0be
00000340: feac abbd 8289 ec3c d926 a7bc 28bc 55bd
00000350: a68e bbbd f874 71bd c905 73be f002 fb3d
00000360: e820 b23e 68e5 053f 5d8d 6bbe ff3e 323d
00000370: b830 29bd 4d56 203e 75a2 253e e883 d43d
00000380: dcd4 a5bd 099b 093e eb8f 43be de79 94be
00000390: 87f3 403e aee6 29be d373 35be 8a21 7ebb
000003a0: 47b1 91bd a3d2 46bd 1530 39be d22e ae3d
000003b0: eb85 d93c 4288 dcbe 3008 253d 05f3 0f3e
000003c0: 6fba 3bbe c6c5 bdbe 2c49 3b3e 022e 5e3c
000003d0: 01a4 b33e a373 05be aebf dcbe d282 89bd
000003e0: ad6e 13bd dfe5 acbd f50c 92be 4e99 163e
000003f0: 7d9a a0be 453e 0c3e a326 c73e 9d9a a9bd

relational_layer.layers.0.lin_dst.weight f4 [64, 64]
0.06052771 0.039062064 0.25432596 -0.3707988 0.16964218 -0.115013815 -0.15699741 -0.28444266
0.22127536 -0.11393508 -0.072896406 -0.1456168 -0.22804183 0.25842553 -0.41891816 0.17051494
0.08902702 0.05723502 -0.46626452 -0.69055396 -0.07116602 0.096141316 -0.5363915 -0.07425241
-0.36527288 0.14104715 -0.021881491 -0.40268266 -0.12043979 -0.11996848 0.2803899 -0.1890846
-0.26847237 -0.18308926 -0.16476485 -0.22222778 -0.09716913 0.044366337 -0.12693906 -0.0012468636
0.07390858 -0.12070021 0.2885715 0.0077097868 0.3620663 -0.6434478 -0.07888806 0.039990477
-0.38725188 -0.05302276 -0.223387 0.34394124 0.11084766 -0.20475979 0.027918637 0.011852232
0.21910323 0.52869916 -0.29033864 -0.24432436 -0.0101138465 -0.040054895 0.41392425 -0.19673502
0.037186038 -0.26226193 -0.119496204 -0.13856398 -0.17287967 -0.051360473 0.08346502 -0.33337334
-0.003470642 -0.22271517 -0.10297215 0.23443763 0.20312372 0.37468845 -0.1007175 -0.069247216
-0.29631147 -0.048800938 -0.26246685 -0.27281675 0.08027919 0.018898865 -0.1994319 -0.20925947
0.019757431 -0.2891102 -0.047409024 0.11110053 -0.04931827 0.29433095 0.10294922 -0.21164568
0.06692616 0.17360634 -0.447445 -0.14534429 -0.12656547 0.0029173635 -0.2922034 -0.09354449
0.14309135 0.36036676 -0.09820262 -0.29273182 0.050592937 0.13993019 -0.27498108 -0.059165254
0.108262755 -0.018055854 0.024255797 -0.20050156 -0.05227788 -0.23441479 -0.17742658 -0.25866255
-0.07905676 0.14981338 -0.22621068 -0.059572868 -0.22819668 -0.053178646 0.07370779 0.08535146
-0.034480702 0.37097737 0.074158765 0.013868373 -0.18239398 0.05840926 0.12213184 0.15338382
-0.17767456 0.038712937 0.0053098947 -0.14155944 -0.16824786 0.24627663 0.0043338416 0.26673043
-0.1301041 0.06110308 -0.18876721 0.16006549 -0.21249504 -0.012077353 -0.034080777 0.054989077
0.14288181 0.1926431 -0.06685197 0.327019 -0.29956675 0.07684226 0.08959589 0.19432533
-0.09223263 0.07249857 0.24087538 -0.12500688 0.050714638 -0.26592112 0.067165025 0.0056698555
0.08022403 0.14782402 0.0035555784 -0.036903396 -0.14260541 0.17737639 -0.08110833 -0.03787075
-0.15215845 -0.3148587 -0.08266985 -0.30449912 -0.1911234 -0.016370561 0.4168625 0.1342186
0.089849405 -0.027828043 0.136898 -0.18553373 -0.1745936 -0.052001096 0.25119093 -0.05312058
-0.0126944 0.09951645 0.21753997 -0.09826035 -0.19682145 -0.070606366 -0.5743581 0.13145086
-0.031682424 -0.15497485 0.13576737 0.36199224 0.10597596 -0.23000562 -0.11753216 -0.31413367
-0.08382605 0.028874163 -0.020404266 -0.052181393 -0.091580674 -0.05894944 -0.23732676 0.1225642
0.3479073 0.5230317 -0.23003145 0.04351711 -0.041306227 0.15657921 0.16175254 0.103767216
-0.0809724 0.13438047 -0.19097869 -0.28999227 0.18842898 -0.16591904 -0.17719965 -0.0038777315
-0.07113891 -0.048540723 -0.18084748 0.08505024 0.026553115 -0.43072706 0.04029101 0.14057548
-0.18332838 -0.37064952 0.18289632 0.013560774 0.35086063 -0.13032393 -0.4311499 -0.06714405
-0.03599422 -0.08442282 -0.2852551 0.14706919 -0.31367865 0.13695629 0.38896665 -0.08281443
00000000: e7eb 773d 8bff 1f3d 0337 823e 57d9 bdbe
00000010: aeb6 2d3e 5d8c ebbd eec3 20be 78a2 91be
00000020: 0296 623e cc56 e9bd b64a 95bd 921c 15be
00000030: cc83 69be 5a50 843e 717c d6be 789b 2e3e
00000040: cc53 b63d 456f 6a3d 39ba eebe 25c8 30bf
00000050: 7ebf 91bd bde5 c43d f450 09bf a611 98bd
00000060: 0c05 bbbe aa6e 103e d040 b3bc 6c2c cebe
00000070: 23a9 f6bd 09b2 f5bd 448f 8f3e 659f 41be
00000080: 3675 89be c07b 3bbe 1eb8 28be ae8f 63be
00000090: 9c00 c7bd 7ab9 353d 50fc 01be cd6d a3ba
000000a0: 625d 973d ac31 f7bd a5bf 933e 61a2 fc3b
000000b0: c160 b93e ffb8 24bf 1090 a1bd 0ecd 233d
000000c0: e145 c6be 652e 59bd 90bf 64be 1119 b03e
000000d0: 1904 e33d 8dac 51be a0b5 e43c dd2f 423c
000000e0: 995c 603e d458 073f 44a7 94be 2a30 7abe
000000f0: 8cb4 25bc 9a10 24bd e1ed d33e e874 49be
00000100: 6350 183d 3247 86be 6dba f4bd b7e3 0dbe
00000110: 5e07 31be 5c5f 52bd b5ef aa3d e9af aabe
00000120: b673 63bb 720f 64be 10e3 d2bd 6b10 703e
00000130: aaff 4f3e 2ad7 bf3e fa44 cebd 7cd1 8dbd
00000140: 23b6 97be 7ee3 47bd 0e62 86be a3ae 8bbe
00000150: 6a69 a43d cbd1 9a3c e037 4cbe 1d48 56be
00000160: 56da a13c 4106 94be f72f 42bd ad88 e33d
00000170: f401 4abd 8cb2 963e 0ad7 d23d a5b9 58be
00000180: 9510 893d dcc5 313e 8317 e5be 22d5 14be
00000190: 619a 01be 3d31 3f3b af9b 95be 4194 bfbd
000001a0: 8a86 123e fe81 b83e 751e c9bd f2e0 95be
000001b0: 8a3a 4f3d dc49 0f3e 52ca 8cbe 4457 72bd
000001c0: ddb8 dd3d dfe9 93bc 18b4 c63c 4850 4dbe
000001d0: 5521 56bd 6e0a 70be 50af 35be 6b6f 84be
000001e0: 83e8 a1bd ae68 193e c6a3 67be ae02 74bd
000001f0: 64ac 69be dad1 59bd 1cf4 963d bfcc ae3d
00000200: a33b 0dbd bff0 bd3e 8de0 973d 2c38 633c
00000210: 7dc5 3abe 8c3e 6f3d 4220 fa3d a610 1d3e
00000220: 52f0 35be 7591 1e3d a0fe ad3b f5f4 10be
00000230: 2b49 2cbe f12f 7c3e e602 8e3b e490 883e
00000240: 023a 05be 3947 7a3d 314c 41be 35e8 233e
00000250: 4d98 59be 17e0 45bc 4998 0bbd 3a3c 613d
00000260: 9c4f 123e 3c44 453e b0e9 88bd 096f a73e
00000270: d060 99be 7a5f 9d3d 0d7e b73d 38fd 463e
00000280: 76e4 bcbd 217a 943d 09a8 763e ce01 00be
00000290: 27ba 4f3d d026 88be d18d 893d 32ca b93b
000002a0: 7f4c a43d 2e5f 173e b504 693b 0428 17bd
000002b0: 2707 12be 28a2 353e 201c a6bd 5c1e 1bbd
000002c0: 6dcf 1bbe 2935 a1be cf4e a9bd 4fe7 9bbe
000002d0: dab5 43be 8e1b 86bc 006f d53e 9a70 093e
000002e0: f702 b83d a3f7 e3bc fd2e 0c3e 8efc 3dbe
000002f0: aac8 32be 1aff 54bd 199c 803e f794 59bd
00000300: 2cfc 4fbc 48cf cb3d ccc2 5e3e b93c c9bd
00000310: 908b 49be 129a 90bd 2209 13bf 0e9b 063e
00000320: 6ec5 01bd bab1 1ebe 9a06 0b3e 0c57 b93e
00000330: ed09 d93d 9886 6bbe b3b4 f0bd 21d6 a0be
00000340: feac abbd 8289 ec3c d926 a7bc 28bc 55bd
00000350: a68e bbbd f874 71bd c905 73be f002 fb3d
00000360: e820 b23e 68e5 053f 5d8d 6bbe ff3e 323d
00000370: b830 29bd 4d56 203e 75a2 253e e883 d43d
00000380: dcd4 a5bd 099b 093e eb8f 43be de79 94be
00000390: 87f3 403e aee6 29be d373 35be 8a21 7ebb
000003a0: 47b1 91bd a3d2 46bd 1530 39be d22e ae3d
000003b0: eb85 d93c 4288 dcbe 3008 253d 05f3 0f3e
000003c0: 6fba 3bbe c6c5 bdbe 2c49 3b3e 022e 5e3c
000003d0: 01a4 b33e a373 05be aebf dcbe d282 89bd
000003e0: ad6e 13bd dfe5 acbd f50c 92be 4e99 163e
000003f0: 7d9a a0be 453e 0c3e a326 c73e 9d9a a9bd

action_layer.layer1.0.weight f4 [128, 128]
-0.31853136 -0.13992365 -0.17522737 -0.09852192 0.12031712 0.090635136 -0.08034544 -0.11861674
-0.22002278 0.09592088 0.22728749 -0.036105853 0.14258684 -0.06657409 -0.14520578 0.007273293
0.02229451 0.033293378 -0.30869818 -0.22792754 -0.18407138 0.004129968 0.002804734 -0.05664649
-0.05301626 0.08930618 0.07904442 -0.09963444 0.032915372 0.06070033 -0.049040202 0.3374157
-0.24385186 -0.1995235 0.09871347 0.058438532 -0.046283305 -0.01502851 -0.0913069 0.080293626
-0.12832043 0.20976883 -0.039136846 0.100237526 0.24542795 0.07544215 -0.10424922 0.071206525
0.09872714 0.060469627 -0.012666919 0.05897701 -0.06412312 0.17288801 -0.07172031 -0.17676102
-0.18493262 0.104058035 0.195974 -0.15637271 0.04930184 0.06589948 0.01656946 -0.04862688
-0.053403426 0.119625635 0.04191683 0.065364935 -0.13885725 0.046553735 0.032092907 0.17926061
0.10965646 -0.11854659 -0.03835612 -0.015566401 0.026773235 0.016632518 -0.11214645 0.049058948
0.12633748 -0.1149233 -0.015773015 0.09273891 0.10864518 -0.07920629 0.0932123 -0.03884621
0.1864905 -0.034613535 0.043051973 -0.058642194 -0.3115939 -0.15015274 -0.059510298 -0.100371525
0.00224412 -0.08262764 -0.06711453 0.0083550885 -4.338877e-06 -0.048382357 -0.0006079974 -0.0076755844
0.034472927 0.035821293 0.04158474 -0.02048354 -0.28891718 0.075016595 -0.20919234 0.254948
0.21261209 0.033019993 -0.48749253 0.33565408 -0.19494069 -0.045458857 0.021528034 0.066200554
-0.11708867 -0.14605196 0.006519522 -0.012102821 -0.048210587 -0.019706909 0.2570126 0.052137557
0.30015117 0.14460205 -0.16270864 0.07970918 0.15396434 0.19145459 -0.15436593 0.17097878
0.014225859 -0.08369351 -0.11900051 -0.46829167 0.14100768 -0.06221948 0.17373326 -0.30528525
0.12145675 0.14248377 -0.16983624 -0.2663412 0.10479956 -0.25025868 -0.054994557 -0.116364986
0.23469561 0.058761705 -0.037054867 0.008583462 -0.09497796 -0.08814693 0.042879283 0.10654699
0.025523208 -0.079163395 0.050152414 0.07144417 -0.026906969 0.21055394 -0.13442315 0.14690566
-0.17705716 0.19588807 -0.24001808 -0.08929198 -0.084920086 -0.0881355 -0.015880702 0.072448455
-0.010945829 0.051345386 0.13641468 -0.022625862 -0.21527825 -0.11275453 -0.01661874 0.4064637
-0.00032388914 -0.21711373 -0.019073253 -0.08504918 0.17202121 0.04892818 -0.057809856 0.100291915
-0.0012585772 -0.10994569 -0.038231455 0.1833693 -0.04563687 -0.017003866 -0.044489007 -0.13808356
-0.2430636 0.039936636 0.023832088 0.064005494 -0.16016859 -0.2744423 -0.19073686 0.13592716
0.014404561 -0.052887987 0.041283783 -0.04715504 -0.14056237 0.025307346 -0.098669425 0.11427598
0.19510086 -0.100659505 0.206644 -0.14603458 0.1739636 0.13972728 -0.25943685 0.041763745
-0.09835016 -0.35092986 0.32406798 -0.17345507 -0.065944724 0.021113958 0.03320358 0.014936349
-0.037217133 0.062300686 -0.07060777 -0.11386408 -0.053741578 -0.25644255 0.19655807 0.1280794
-0.09815607 0.023509717 0.07152007 -0.15127523 0.14443117 -0.028158626 0.1161526 0.17778699
-0.18466362 -0.17744079 -0.16395256 0.079562016 -0.086058415 -0.11091945 -0.011375396 -0.038001064
00000000: 8b16 a3be 2548 0fbe ce6e 33be dcc5 c9bd
00000010: d268 f63d ea9e b93d 268c a4bd 55ed f2bd
00000020: a74d 61be 2b72 c43d 0dbe 683e bbe3 13bd
00000030: 4902 123e ff57 88bd d3b0 14be ce54 ee3b
00000040: faa2 b63c a35e 083d b00d 9ebe d665 69be
00000050: 357d 3cbe af54 873b a1cf 373b 2606 68bd
00000060: 9427 59bd 29e6 b63d 0ae2 a13d 240d ccbd
00000070: 45d2 063d e9a0 783d 61de 48bd c0c1 ac3e
00000080: 4db4 79be e34f 4cbe 4a2a ca3d 3e5d 6f3d
00000090: 9093 3dbd 243a 76bc 1dff babd fc70 a43d
000000a0: 6e66 03be a4cd 563e f54d 20bd 5549 cd3d
000000b0: 7751 7b3e 6a81 9a3d 9d80 d5bd bad4 913d
000000c0: 7431 ca3d 00af 773d e988 4fbc e191 713d
000000d0: fb52 83bd 8e09 313e 19e2 92bd d700 35be
000000e0: fa5e 3dbe 611c d53d 69ad 483e 2b20 20be
000000f0: baf0 493d 4ef6 863d adbc 873c fb2c 47bd
00000100: 8dbd 5abd 49fe f43d fbb0 2b3d 0dde 853d
00000110: 9830 0ebe 21af 3e3d da73 033d 1890 373e
00000120: 9193 e03d 8ec8 f2bd 4f1b 1dbd 380a 7fbc
00000130: 8b53 db3c eb40 883c 0aad e5bd 09f2 483d
00000140: 9d5e 013e e85c ebbd 6936 81bc e6ed bd3d
00000150: 5d81 de3d e836 a2bd 17e6 be3d 341d 1fbd
00000160: 5ef7 3e3e ecc6 0dbd 4457 303d cc32 70bd
00000170: 3c89 9fbe a4c1 19be 12c1 73bd 968f cdbd
00000180: 1612 133b ae38 a9bd 5873 89bd c8e3 083c
00000190: ab96 91b6 942c 46bd 0462 1fba 7883 fbbb
000001a0: 7c33 0d3d 59b9 123d c354 2a3d 19cd a7bc
000001b0: f4ec 93be 4da2 993d 8436 56be 8b88 823e
000001c0: fcb6 593e f93f 073d 9f98 f9be dada ab3e
000001d0: 889e 47be 1133 3abd 8f5b b03c 2894 873d
000001e0: 2fcc efbd a58e 15be b7a1 d53b e94a 46bc
000001f0: 7778 45bd 6270 a1bc 2897 833e 318e 553d
00000200: 6aad 993e 8f12 143e 189d 26be 913e a33d
00000210: d4a8 1d3e ac0c 443e 1a12 1ebe 1015 2f3e
00000220: 9413 693c 8167 abbd 8ab6 f3bd edc3 efbe
00000230: 5164 103e dad9 7ebd 22e7 313e 594e 9cbe
00000240: 51be f83d 44e7 113e 8de9 2dbe e05d 88be
00000250: 27a1 d63d e821 80be f941 61bd c450 eebd
00000260: 0c54 703e 1db0 703d d8c6 17bd a6a1 0c3c
00000270: ce83 c2bd 6186 b4bd 30a2 2f3d 4f35 da3d
00000280: 0c16 d13c 6b20 a2bd 9e6c 4d3d 5251 923d
00000290: 016c dcbc 749b 573e 39a6 09be 706e 163e
000002a0: 794e 35be e296 483e 4dc7 75be b7de b6bd
000002b0: 95ea adbd 6380 b4bd 3f18 82bc db5f 943d
000002c0: 2256 33bc 8a4f 523d 4ab0 0b3e df59 b9bc
000002d0: e771 5cbe d9eb e6bd 0624 88bc 031c d03e
000002e0: aacf a9b9 1053 5ebe 833f 9cbc 442e aebd
000002f0: 5426 303e ea68 483d 07ca 6cbd d965 cd3d
00000300: d8f6 a4ba 352b e1bd 9698 1cbd 29c5 3b3e
00000310: baed 3abd b14b 8bbc 1b3a 36bd c765 0dbe
00000320: aae5 78be 9994 233d 833b c33c 5015 833d
00000330: 3c03 24be b383 8cbe 8650 43be 7d30 0b3e
00000340: 1c01 6c3c 13a1 58bd 2f19 293d a525 41bd
00000350: 95ef 0fbe 5a51 cf3c 3213 cabd 8609 ea3d
00000360: 85c8 473e 9226 cebd 7c9a 533e 178a 15be
00000370: 8423 323e ab14 0f3e e8d4 84be 7610 2b3d
00000380: cf6b c9bd 14ad b3be 3dec a53e 359e 31be
00000390: 070e 87bd 2ef7 ac3c 7a00 083d 97b7 743c
000003a0: fe70 18bd 012f 7f3d ce9a 90bd 9231 e9bd
000003b0: 2120 5cbd 704c 83be 8546 493e 3f27 033e
000003c0: 0d06 c9bd 7397 c03c 1d79 923d e5e7 1abe
000003d0: c4e5 133e ebac e6bc 6ae1 ed3d cb0d 363e
000003e0: 7618 3dbe 0ab3 35be 2ee3 27be 69f1 a23d
000003f0: 653f b0bd bd29 e3bd de5f 3abc 01a7 1bbd

action_layer.layer1.0.bias f4 [128]
0.03181699 -0.055368528 -0.04474101 -0.028957382 -0.06672658 -0.2058071 -0.10752761 -0.08130415
-0.07354515 -0.1276249 -0.028324684 -0.17802003 0.034184445 0.048361447 0.07550406 0.074333034
-0.16537282 0.04418654 -0.100904584 -0.09984189 -0.11377291 -0.12927687 0.11271337 0.12100252
-0.17509252 0.091369025 -0.22281377 -0.004107866 -0.033281375 0.07004678 -0.08674217 0.056351215
0.047542036 -0.058626983 0.051125135 -0.03360756 -0.029896721 -0.0073340614 0.058707226 -0.0723402
-0.05196176 0.060177628 -0.17611024 -0.073942795 0.034926772 -0.056473963 -0.12695417 -0.026891116
-0.11891175 -0.18174568 -0.011279303 -0.1554224 -0.0027783667 -0.019547734 -0.0916648 -0.068374455
-0.017163843 -0.05713246 0.038168922 -0.02620992 0.040424027 -0.13513155 -0.049968872 -0.14316723
-0.08033408 -0.039186947 -0.14946926 -0.16457576 -0.035756033 -0.074849464 0.051836178 -0.093830995
-0.084469266 0.044724762 -0.03733705 -0.08239759 -0.007980809 0.062808394 -0.120210566 0.019933984
-0.055420414 0.055855744 0.00068095163 -0.13731486 -0.12567842 -0.01928532 -0.023055105 0.017687628
0.04794716 -0.007412263 0.023030631 -0.12654804 -0.06024893 -0.12555933 0.042097967 -0.03110553
-0.04436589 -0.09574084 -0.07417541 0.017900994 -0.12970218 -0.044800304 -0.10935532 -0.08210231
-0.04308271 -0.0641084 -0.21502857 -0.09132246 -0.07553906 -0.1357813 0.097598605 -0.07554334
-0.07396446 -0.12744667 0.004824391 -0.059090182 -0.08513143 -0.004668926 0.016299661 0.018298779
-0.009313097 0.0017851735 -0.13724299 0.06580681 0.08745218 -0.089628786 -0.11795023 -0.12351715
00000000: 8852 023d 1cca 62bd 5942 37bd 0838 edbc
00000010: f2a7 88bd 19bf 52be 7037 dcbd ca82 a6bd
00000020: d79e 96bd 1ab0 02be 2b09 e8bc e24a 36be
00000030: fd04 0c3d a716 463d dfa1 9a3d eb3b 983d
00000040: 7e57 29be f2fc 343d 10a7 cebd e879 ccbd
00000050: c501 e9bd 2861 04be 44d6 e63d 2bd0 f73d
00000060: 744b 33be af1f bb3d 4b29 64be 479b 86bb
00000070: 0d52 08bd b074 8f3d e1a5 b1bd 88d0 663d
00000080: 70bb 423d d922 70bd 9768 513d 15a8 09bd
00000090: f8e9 f4bc 9152 f0bb fd76 703d 1927 94bd
000000a0: dbd5 54bd d17c 763d 3e56 34be 526f 97bd
000000b0: 600f 0f3d 3e51 67bd 4600 02be c24a dcbc
000000c0: 0188 f3bd 8a1b 3abe d3cc 38bc 0d27 1fbe
000000d0: 4215 36bb 9222 a0bc c1ba bbbd e807 8cbd
000000e0: 309b 8cbc ba03 6abd 0457 1c3d 30b6 d6bc
000000f0: aa93 253d ed5f 0abe 29ac 4cbd 6e9a 12be
00000100: 3286 a4bd 7e82 20bd 780e 19be 8c86 28be
00000110: eb74 12bd ad4a 99bd 2c52 543d 772a c0bd
00000120: 39fe acbd 5031 373d bcee 18bd 11c0 a8bd
00000130: f0c1 02bc b0a1 803d f530 f6bd 984c a33c
00000140: 8400 63bd fec8 643d e481 323a 449c 0cbe
00000150: d8b1 00be 3ffc 9dbc 0fde bcbc a5e5 903c
00000160: 3e64 443d 92e2 f2bb bcaa bc3c cf95 01be
00000170: 95c7 76bd a092 00be eb6e 2c3d 06d1 febc
00000180: 02b9 35bd c613 c4bd 47e9 97bd 1ba5 923c
00000190: a6d0 04be 8680 37bd aff5 dfbd 4225 a8bd
000001a0: 7f77 30bd 444b 83bd 7330 5cbe 4507 bbbd
000001b0: 39b4 9abd 410a 0bbe c7e1 c73d 77b6 9abd
000001c0: ae7a 97bd 6181 02be ed15 9e3b 8c08 72bd
000001d0: 6359 aebd cafd 98bb de86 853c 52e7 953c
000001e0: f695 18bc 7cfc e93a 6d89 0cbe b9c5 863d
000001f0: 211a b33d 4c8f b7bd e48f f1bd 8ff6 fcbd

action_layer.layer1.1.weight f4 [2, 128]
-0.08474834 0.09013462 -0.39946494 -0.09057347 0.12921277 0.06603303 0.122472785 -0.34120342
-0.030762278 0.062401343 0.054956295 0.121456794 -0.21843094 -0.07624121 -0.05276664 0.033469565
0.15012427 -0.120670825 0.3578667 0.09015453 -0.26820797 0.13984104 -0.037793305 -0.14083624
0.112504534 -0.0031621184 0.10827395 0.06528573 0.15765561 -0.0610215 -0.16002278 0.1218094
-0.15939282 -0.21001379 0.10364198 -0.0422238 -0.15240909 0.11584654 -0.09922544 -0.14981887
-0.22499445 0.14462711 -0.14943835 0.2944059 -0.1257224 0.4628821 -0.13371612 0.07884629
-0.46246293 0.039902512 0.1419502 -0.13793753 -0.12607962 -0.16752788 0.03110512 0.19382714
0.110584565 -0.17439476 0.13403934 0.09299893 -0.1932724 -0.17893673 0.22622147 -0.07949228
0.13096517 0.038534477 -0.27042195 -0.06574081 0.202432 -0.17740768 -0.08069212 0.32390112
-0.06586234 -0.2122765 -0.111521006 0.2500026 0.0847422 -0.21084517 0.22568206 0.074539885
-0.26030773 -0.06511211 0.15827702 0.14101784 0.0624969 -0.020645404 0.03738414 -0.06793077
0.027343117 0.05441905 -0.012671515 0.30243945 -0.032933623 -0.020575767 0.004569234 -0.07358617
0.061228488 -0.16166052 -0.111277 -0.04146393 0.09070756 -0.2332809 -0.06025357 -0.010236078
0.05297367 0.29248863 -0.26922613 0.08394575 -0.0018343495 -0.21310715 0.016531628 -0.3303479
-0.022649093 0.017470047 -0.12084202 0.019677544 0.032862976 -0.25625163 -0.07873468 -0.13344586
0.03830999 0.0354445 0.024568334 0.12172865 -0.09383004 0.08609137 0.06586968 -0.2217788
0.00042706894 0.0021211691 0.16857114 -0.11992279 -0.02549117 0.29040775 0.09087708 -0.027866902
-0.13963601 -0.16766496 -0.13883193 0.012395262 -0.00094884186 0.036664236 -0.020859238 0.110327855
-0.14815836 -0.018313332 0.2859037 0.29766482 -0.3447619 -0.017816776 0.09189107 -0.04732211
-0.41097283 0.11877516 0.121012665 -0.06574252 -0.102651626 0.055132546 -0.24258544 0.038679864
-0.092839144 0.13862963 0.008610939 0.24692997 0.3174464 0.26775268 0.28946984 0.0722763
-0.04454623 -0.15246293 -0.27897868 -0.05175216 0.046232007 0.15818717 -0.04193709 0.123745404
0.0001545734 0.11179714 0.0055951644 0.20380418 0.2769402 0.10852251 -0.32890514 -0.044881813
0.101704516 0.35418412 -0.035490923 -0.18194094 0.001484561 0.07942783 -0.03834147 -0.1240217
-0.13946049 -0.24501747 -0.20177808 -0.15321866 -0.20894437 0.02205471 0.042573366 -0.0066454015
-0.09199757 -0.20639208 -0.19299553 0.2011445 -0.007259604 0.006614878 -0.17578381 -0.10647976
0.04720412 -0.12662338 -0.04846145 0.39682516 -0.16597423 -0.10022394 -0.18049955 -0.048919816
-0.12414953 0.2104964 0.27847105 0.05305276 0.14360212 0.0866369 -0.09301816 0.033452597
0.17858714 0.4373913 0.3255105 -0.054915346 -0.04610196 -0.23029311 0.08612141 0.32568744
-0.0808191 0.033011302 0.24907443 -0.03341288 0.3168344 -0.23955251 0.06318426 -0.12644199
-0.2219235 0.08825998 -0.0027041284 -0.32051757 0.12998411 -0.044287976 0.06938671 0.3051033
-0.37771323 0.3442034 0.1980202 -0.28269592 -0.014095303 0.06671687 -0.19232987 -0.037654206
00000000: 8a90 adbd 8098 b83d ab86 ccbe 957e b9bd
00000010: 5a50 043e 533c 873d 03d3 fa3d 37b2 aebe
00000020: 2c01 fcbc 8d98 7f3d da19 613d 57be f83d
00000030: 5cac 5fbe 5a24 9cbd d521 58bd 6217 093d
00000040: 2dba 193e 4422 f7bd 4e3a b73e f0a2 b83d
00000050: 8e52 89be 7d32 0f3e 27cd 1abd 6037 10be
00000060: c768 e63d 8b3b 4fbb bcbe dd3d 86b4 853d
00000070: 7970 213e aef1 79bd 03dd 23be 3577 f93d
00000080: df37 23be db0d 57be 3f42 d43d ddf2 2cbd
00000090: 2111 1cbe f340 ed3d b536 cbbd 1e6a 19be
000000a0: f264 66be 2119 143e 5e06 19be 5fbc 963e
000000b0: 5fbd 00be e2fe ec3e e1ec 08be 2a7a a13d
000000c0: f1c7 ecbe d170 233d 655b 113e 7f3f 0dbe
000000d0: 041b 01be 6e8c 2bbe 2ad0 fe3c 9f7a 463e
000000e0: 297a e23d 8a94 32be 9c41 093e 3976 be3d
000000f0: 33e9 45be 313b 37be 9aa6 673e d9cc a2bd
00000100: bc1b 063e 54d6 1d3d bf74 8abe 1ea3 86bd
00000110: 564a 4f3e 5caa 35be e941 a5bd 5ed6 a53e
00000120: d6e2 86bd 035f 59be 2065 e4bd 5700 803e
00000130: 528d ad3d cce7 57be 3319 673e 5ea8 983d
00000140: 0e47 85be 7f59 85bd 5f13 223e fb66 103e
00000150: c0fc 7f3d 8d20 a9bc 1d20 193d 4a1f 8bbd
00000160: acfe df3c 83e6 5e3d 309c 4fbc 58d9 9a3e
00000170: 68e5 06bd 838e a8bc 83b9 953b 59b4 96bd
00000180: b9ca 7a3d 568a 25be 32e5 e3bd 15d6 29bd
00000190: e3c4 b93d 30e1 6ebe 73cc 76bd 39b5 27bc
000001a0: ebfa 583d 12c1 953e 02d8 89be c0eb ab3d
000001b0: 8e6e f0ba c338 5abe 566d 873c 5c23 a9be
000001c0: 978a b9bc 581d 8f3c 057c f7bd cd32 a13c
000001d0: 549b 063d 6a33 83be a63f a1bd 08a6 08be
000001e0: f0ea 1c3d 412e 113d 8843 c93c df4c f93d
000001f0: f729 c0bd ac50 b03d afe6 863d fb19 63be
00000200: 39e8 df39 5003 0b3b ea9d 2c3e 149a f5bd
00000210: dcd2 d0bc 53b0 943e c31d ba3d 2149 e4bc
00000220: befc 0ebe 5db0 2bbe f529 0ebe 7f15 4b3c
00000230: b3bb 78ba 3d2d 163d fee0 aabc 92f3 e13d
00000240: d3b6 17be d705 96bc f861 923e 8667 983e
00000250: a284 b0be 7df4 91bc 6331 bc3d d4d4 41bd
00000260: 086b d2be 6440 f33d 7dd5 f73d 04a4 86bd
00000270: 043b d2bd aad2 613d 5168 78be c76e 1e3d
00000280: 7322 bebd edf4 0d3e e514 0d3c 36db 7c3e
00000290: 5688 a23e e116 893e 6435 943e 9905 943d
000002a0: 1c76 36bd 3e1f 1cbe 4bd6 8ebe 13fa 53bd
000002b0: c65d 3d3d d1fb 213e 3ac6 2bbd 3b6e fd3d
000002c0: fb14 2239 e6f5 e43d a457 b73b 0bb2 503e
000002d0: 1bcb 8d3e 0d41 de3d 4166 a8be fed5 37bd
000002e0: 754a d03d 9f57 b53e ee5e 11bd ba4e 3abe
000002f0: 9a95 c23a 0fab a23d f20b 1dbd 17ff fdbd
00000300: bbce 0ebe dce5 7abe ea9e 4ebe 5ae5 1cbe
00000310: 83f5 55be 14ac b43c 6961 2e3d abc1 d9bb
00000320: 3969 bcbd 7258 53be 9fa0 45be d3f8 4d3e
00000330: f9e1 edbb 9ec1 d83b ac00 34be 0f12 dabd
00000340: 1b59 413d 8fa9 01be 837f 46bd ab2c cb3e
00000350: 26f5 29be 3642 cdbd e0d4 38be 2560 48bd
00000360: 1c42 febd 5e8c 573e c293 8e3e da4d 593d
00000370: 6f0c 133e b06e b13d 4e80 bebd 9705 093d
00000380: 8cdf 363e c1f1 df3e 50a9 a63e eaee 60bd
00000390: 69d5 3cbd f5d1 6bbe 6c60 b03d 81c0 a63e
000003a0: 7c84 a5bd dc36 073d 5e0d 7f3e f2db 08bd
000003b0: 1e38 a23e 414d 75be c066 813d 027a 01be
000003c0: ea3f 63be a6c1 b43d bf37 31bb e11a a4be
000003d0: 8e1a 053e 4f67 35bd 9f1a 8e3d 8036 9c3e
000003e0: a163 c1be 6e3b b03e cfc5 4a3e 85bd 90be
000003f0: fcef 66bc dba2 883d 1ff2 44be 4c3b 1abd

action_layer.layer1.1.bias f4 [2]
0.009983636 0.0047606104
00000000: 6892 233c e5fe 9b3b

encoding_layer.layer.0.weight f4 [64, 180]
-0.0069353017 -0.087073244 0.091572404 0.118870035 -0.2049233 -0.1360579 -0.04369237 -0.0066939285
-0.04684148 0.026936032 -0.085595414 -0.07941102 0.08055024 -0.12708728 0.06808287 -0.030734528
-0.036575623 -0.17448258 -0.057974212 0.10832371 -0.3198184 -0.26649642 0.027752493 -0.10064236
-0.26937547 0.40843898 0.030023929 -0.34907007 -0.05843867 -0.069030836 -0.23133191 0.053864725
0.15163814 0.079510905 0.12509976 0.13352303 -0.0071647945 -0.12936355 -0.0028215086 -0.18154627
-0.029596824 -0.56568855 0.07133254 0.16902846 0.19567011 -0.02463924 -0.12854391 0.116060816
0.062349908 -0.02302343 0.024845859 -0.26357025 -0.029113242 -0.22524165 -0.22792794 -0.111583225
-0.060873546 -0.06729964 -0.4416072 -0.45156842 0.077804714 -0.10623919 -0.032653213 -0.29245913
-0.40475455 0.19531053 0.33046895 -0.009673479 -0.02078623 -0.044562988 0.1421532 0.11755848
0.053986505 0.3201676 0.21617197 -0.24195872 -0.10690956 -0.16865121 -0.18527272 -0.19110914
0.16416886 -0.32069072 -0.07703551 0.2005017 0.05047944 -0.12702502 0.10098189 0.1648692
0.06848845 0.02801263 -0.25102186 0.009373596 -0.13007922 0.10515301 -0.004008121 0.022662327
0.025687214 0.10981158 0.11171897 0.0897583 0.14469229 -0.0382242 -0.09461583 0.024963465
0.12356352 -0.11932267 0.18289915 0.04500242 0.120592676 0.18617985 0.10741152 0.2838966
-0.10744035 0.001814844 -0.108117856 -0.059335187 0.046969574 -0.026428767 0.17111151 0.22261119
0.116621196 -0.17755376 0.099888854 -0.099799015 -0.03854781 -0.051267438 0.09504732 -0.048593827
0.07147005 -0.06947927 -0.04223172 -0.098227374 -0.08271365 -0.048078954 -0.004401243 -0.14680201
-0.15358222 0.088508844 -0.091191724 -0.15141506 0.10094023 0.033505853 0.03185176 0.009590429
-0.02703799 0.045578975 0.011354712 0.067630194 -0.04404215 0.031899836 -0.032707877 -0.00016397166
0.06288168 -0.053252634 -0.06991354 0.08275892 -0.092448406 -0.016423592 0.025165759 0.053788066
0.062856406 -0.041690253 0.012152278 0.02790281 0.06926779 0.02381061 -0.059132565 0.04423617
0.051827878 0.047969583 0.009898543 -0.009144617 0.060327183 0.05455388 -0.009471359 0.05994516
-0.13348404 0.19668032 0.07601692 -0.047987577 -0.08021213 0.022091025 -0.07449741 -0.0076100174
0.13407534 0.09648487 0.15319487 0.11982665 0.011536994 -0.0684477 0.009963326 -0.005463436
0.22046447 0.110313624 -0.03999294 -0.17740016 0.24606806 -0.04454671 0.13217084 0.06801039
-0.034774147 -0.062304053 -0.16634278 -0.1742251 -0.12873223 -0.067281045 -0.14804891 -0.18286565
0.11433715 -0.18273838 -0.013743504 -0.17775467 -0.21420199 -0.06815428 0.017356507 -0.09569932
-0.18696964 -0.025464458 -0.039534256 -0.24753094 0.11357829 -0.0065810587 0.014762764 0.25536516
0.18147701 0.29737937 -0.101833805 0.15880382 0.19778961 0.17881611 -0.017200094 0.021484435
-0.12778407 0.020085616 0.026355179 0.07433574 -0.010663472 -0.0042486335 0.0067014787 0.060066298
0.09880721 0.093108356 -0.12121659 0.050893426 0.19638088 0.025885018 -0.14991488 0.18032704
-0.10678787 -0.041789204 -0.1331513 -0.036474124 -0.050745476 0.06546192 -0.0022697884 -0.07068375
00000000: 8741 e3bb 7553 b2bd 508a bb3d 2272 f33d
00000010: 6ad7 51be c352 0bbe c5f6 32bd be58 dbbb
00000020: dadc 3fbd f4a8 dc3c a64c afbd 3fa2 a2bd
00000030: 86f7 a43d 2b23 02be 086f 8b3d fac6 fbbc
00000040: 52d0 15bd 90ab 32be 5e76 6dbd d2d8 dd3d
00000050: 3dbf a3be 3872 88be 3259 e33c 951d cebd
00000060: 95eb 89be ea1e d13e bef4 f53c 50b9 b2be
00000070: 635d 6fbd 0a60 8dbd 46e2 6cbe 42a1 5c3d
00000080: 0747 1b3e 9dd6 a23d 271a 003e 43ba 083e
00000090: a7c6 eabb e177 04be 0fe9 38bb 44e7 39be
000000a0: 0a75 f2bc f7d0 10bf cb16 923d cc15 2d3e
000000b0: bf5d 483e 3bd8 c9bc 04a1 03be 4bb1 ed3d
000000c0: 9e62 7f3d a29b bcbc 8b89 cb3c aef2 86be
000000d0: e57e eebc bfa5 66be f165 69be bf85 e4bd
000000e0: 8a56 79bd 65d4 89bd 571a e2be fa33 e7be
000000f0: 1458 9f3d ef93 d9bd 60bf 05bd 34bd 95be
00000100: fd3b cfbe 7cff 473e 3a33 a93e 837d 1ebc
00000110: e247 aabc ae87 36bd 9c90 113e 80c2 f03d
00000120: f420 5d3d 02ed a33e 2f5c 5d3e 07c4 77be
00000130: 66f3 dabd e7b2 2cbe 22b8 3dbe 1db2 43be
00000140: e21b 283e 9331 a4be cbc4 9dbd 5150 4d3e
00000150: 87c3 4e3d d912 02be 98cf ce3d 79d3 283e
00000160: ac43 8c3d be7a e53c f085 80be b693 193c
00000170: 7d33 05be 765a d73d 8e56 83bb 58a6 b93c
00000180: fe6d d23c e5e4 e03d eacc e43d 33d3 b73d
00000190: 372a 143e fb90 1cbd f2c5 c1bd 2e80 cc3c
000001a0: df0e fd3d 725f f4bd ea49 3b3e 7554 383d
000001b0: 4bf9 f63d eea5 3e3e 92fa db3d e55a 913e
000001c0: b009 dcbd 0fe0 ed3a e56c ddbd 7409 73bd
000001d0: 2b63 403d 2481 d8bc db37 2f3e 30f4 633e
000001e0: 18d7 ee3d a7d0 35be 8792 cc3d 6d63 ccbd
000001f0: 4fe4 1dbd cefd 51bd 2ba8 c23d 520a 47bd
00000200: e45e 923d 264b 8ebd 2bfb 2cbd 6f2b c9bd
00000210: c665 a9bd 70ee 44bd 4d38 90bb 4453 16be
00000220: a844 1dbe 2044 b53d bac2 babd 8d0c 1bbe
00000230: c0b9 ce3d 6f3d 093d fe76 023d 2d21 1d3c
00000240: c67e ddbc 05b1 3a3d 1d09 3a3c b381 8a3d
00000250: 8b65 34bd 67a9 023d b2f8 05bd cfef 2bb9
00000260: 1cc8 803d 6f1f 5abd d42e 8fbd 827d a93d
00000270: 9755 bdbd c58a 86bc 6c28 ce3c e050 5c3d
00000280: dcba 803d 66c3 2abd 591a 473c 6f94 e43c
00000290: 45dc 8d3d 780e c33c fd34 72bd fc30 353d
000002a0: 7849 543d c17b 443d 802d 223c 4ed3 15bc
000002b0: a319 773d e473 5f3d c22d 1bbc 0e89 753d
000002c0: 0ab0 08be 9166 493e c2ae 9b3d 9f8e 44bd
000002d0: 4246 a4bd 3df8 b43c 1992 98bd 745d f9bb
000002e0: 0c4b 093e dc99 c53d 1edf 1c3e ad67 f53d
000002f0: a905 3d3c 4f2e 8cbd 383d 233c 9f06 b3bb
00000300: 70c1 613e 1cec e13d a3cf 23bd 63a8 35be
00000310: 44f9 7b3e 9c76 36bd cb57 073e 0849 8b3d
00000320: 566f 0ebd 8932 7fbd c355 2abe 1168 32be
00000330: 62d2 03be a5ca 89bd 229a 17be 2241 3bbe
00000340: 9829 ea3d c51f 3bbe 6f2c 61bc 5205 36be
00000350: c457 5bbe 7994 8bbd 3c2f 8e3c 01fe c3bd
00000360: f874 3fbe d79a d0bc acee 21bd c078 7dbe
00000370: bc9b e83d eca5 d7bb 85df 713c 39bf 823e
00000380: 1cd5 393e 1c42 983e 3e8e d0bd 789d 223e
00000390: 5c89 4a3e 921b 373e 36e7 8cbc 2000 b03c
000003a0: d4d9 02be 978a a43c d1e6 d73c 563d 983d
000003b0: d8b5 2ebc 1f38 8bbb 1498 db3b 1408 763d
000003c0: 6f5b ca3d 98af be3d 6740 f8bd a075 503d
000003d0: 1218 493e d10c d43c 4983 19be a7a7 383e
000003e0: 99b3 dabd 282b 2bbd d058 08be e465 15bd
000003f0: 7dda 4fbd e610 863d bbc0 14bb a4c2 90bd

encoding_layer.layer.0.bias f4 [64]
-0.12915361 -0.031615913 -0.093422614 0.016425319 0.06871732 -0.11119734 -0.0069262143 0.035555188
-0.0300185 0.056555044 -0.13558307 -0.08837416 -0.0043190536 -0.07539416 0.11401738 0.049579978
-0.022698047 -0.079608895 0.061101332 -0.0655487 -0.006814724 -0.06446589 0.026056558 -0.05132158
-0.02382002 -0.018548902 -0.10153853 -0.07047739 0.034010857 -0.0052985093 -0.011196007 -0.022923838
-0.14279363 0.010673912 -0.039812654 0.015678907 -0.06619414 -0.064946994 0.016941762 -0.07457719
-0.008336536 0.020182358 -0.04656705 -0.10045531 0.030427573 -0.04224891 -0.045240797 -0.052934106
0.043821745 -0.0003801483 -0.07222539 -0.051250473 0.09828145 0.011889029 -0.043437883 -0.01736512
-0.05123876 0.08846144 0.076159224 -0.01348764 -0.08010608 -0.022098823 0.026663596 0.034112934
00000000: d840 04be b07f 01bd 5b54 bfbd 648e 863c
00000010: abbb 8c3d 6ebb e3bd 4cf5 e2bb 51a2 113d
00000020: 5be9 f5bc 43a6 673d 4ad6 0abe 83fd b4bd
00000030: d986 8dbb 4168 9abd f281 e93d 6014 4b3d
00000040: 41f1 b9bc fd09 a3bd 6445 7a3d 663e 86bd
00000050: 0c4e dfbb b106 84bd 9074 d53c 9436 52bd
00000060: 3422 c3bc def3 97bc 6ff3 cfbd 7356 90bd
00000070: f84e 0b3d 1e9f adbb 756f 37bc c6ca bbbc
00000080: 7e38 12be a2e1 2e3c 9812 23bd 0d71 803c
00000090: cb90 87bd ee02 85bd 73c9 8a3c edbb 98bd
000000a0: f795 08bc 7955 a53c 17bd 3ebd 83bb cdbd
000000b0: 3f43 f93c 310d 2dbd 6a4e 39bd 6fd1 58bd
000000c0: 6e7e 333d a44e c7b9 e8ea 93bd 04ec 51bd
000000d0: c947 c93d 34ca 423c eceb 31bd 4c41 8ebc
000000e0: bcdf 51bd 452b b53d 5ef9 9b3d 43fb 5cbc
000000f0: a80e a4bd 9708 b5bc 9d6d da3c 01ba 0b3d

relational_layer.layers.0.att_src f4 [1, 1, 64]
-0.61170906 -0.10520383 0.004496594 -0.3034238 -0.19542168 0.19185159 0.17853826 -0.28482878
0.28639126 -0.07567081 0.10549781 -0.76871645 -0.41256696 -0.6582542 -0.2705012 -0.6530362
0.21751429 -0.111552574 0.10083374 0.514715 0.28315952 -0.92690307 0.56831765 0.22422934
-0.3613526 -0.5256942 0.63823533 -0.13861746 -0.55330575 -0.09983324 -0.24807963 -0.22895934
-0.08594586 -0.080559395 -0.028643157 -0.14699292 0.31998065 -0.26548284 0.42875114 -0.19109493
-0.15162168 -0.22820707 0.23768273 0.50619155 0.44782966 0.24699758 -0.18452789 -0.12902454
-0.6033086 -0.19337972 0.4730375 0.2186481 -0.13416776 -0.16178116 0.2281418 -0.8417734
-0.39648166 -0.16907062 0.045709956 0.010058383 0.08718711 0.06480798 -0.502678 0.14084946
00000000: f798 1cbf 1b75 d7bd 2a58 933b 5d5a 9bbe
00000010: 9f1c 48be be74 443e bcd2 363e 14d5 91be
00000020: e0a1 923e 4cf9 9abd 3c0f d83d 9aca 44bf
00000030: fa3b d3be 5983 28bf 227f 8abe 612d 27bf
00000040: 11bc 5e3e ad75 e4bd eb81 ce3d 5dc4 033f
00000050: 49fa 903e 8549 6dbf 447d 113f 609c 653e
00000060: 3503 b9be e593 06bf 6463 233f bcf1 0dbe
00000070: 72a5 0dbf 5f75 ccbd 9608 7ebe 5174 6abe
00000080: 6204 b0bd 53fc a4bd 0ea5 eabc 5085 16be
00000090: 81d4 a33e 5eed 87be 4585 db3e 64ae 43be
000000a0: b742 1bbe 1daf 69be 1a63 733e c595 013f
000000b0: ee49 e53e efec 7c3e e1f4 3cbe 021f 04be
000000c0: 6f72 1abf 5505 46be f931 f23e 4ae5 5f3e
000000d0: 4663 09be f6a9 25be 019e 693e 767e 57bf
000000e0: a5ff cabe d920 2dbe 5d3a 3b3d ebcb 243c
000000f0: 288f b23d 0cba 843d 81af 00bf d73a 103e
