HGAT-MADDPG_ver2/ModelBuffer/model_4500.pt (torch, 369835 bytes, 33 tensors)

encoding_layer.layer.0.weight f4 [64, 180]
000000 77 ee b7 bc bc 9b 2a bd 89 e4 48 bd 6e 38 72 bd
       -0.022452576 -0.041652426 -0.049046073 -0.059135847
000010 a3 47 f2 3c d7 1b 8e bd 4b 08 28 bd 67 cf 7e 3d
       0.029575175 -0.06938904 -0.041023534 0.062209513
000020 5b ff 0e be de 6a 09 be 21 68 be 3d 1a 73 8d bc
       -0.13964598 -0.13419673 0.09297205 -0.017266799
000030 eb 57 96 bd 7a d9 a0 bd 6a bf 73 bd 4f 2a 6d 3d
       -0.07340988 -0.0785398 -0.05950872 0.057901677
000040 31 33 a5 3d 66 0d ff 3d 79 41 1d be 3b 25 31 3c
       0.080664046 0.124537274 -0.15357007 0.010812099
000050 cb 6d 81 3e 5e b3 1f 3e d0 de 58 3c fb 18 09 be
       0.25279078 0.15595767 0.013236716 -0.13388436
000060 2f dd 14 3e 93 ac ce 3d 35 b2 cc 3e c2 ba 64 bd
       0.145375 0.1009151 0.3997971 -0.05584217
000070 bd d8 38 be 35 93 2b 3e f7 26 26 bd 40 5e 14 bd
       -0.18051429 0.16755374 -0.040564504 -0.036222696
000080 c1 ac a8 bd 3e be d6 3b 2c e5 79 bd 1d 24 aa 3e
       -0.08236075 0.0065534404 -0.06100957 0.33230677
000090 60 60 01 3c 15 11 1f be 82 79 a1 3c 15 11 69 be
       0.007896513 -0.1553386 0.01971126 -0.22760423
0000a0 65 41 91 bd 44 47 b4 3e ca 52 83 3d 35 53 32 be
       -0.07092551 0.3521062 0.06412275 -0.17414553
0000b0 7a eb 00 be cc 86 8b 3c 4c b7 3b 3e 8d e0 a6 be
       -0.12589827 0.01703205 0.18331641 -0.32593194
0000c0 41 29 4b be 50 66 71 be cf 95 84 3d 6b 28 eb 3d
       -0.19839956 -0.23574185 0.06473886 0.114823185
0000d0 29 76 23 3e 9c 71 88 3e 2f cd 80 3e c9 17 96 be
       0.15963043 0.26649177 0.25156543 -0.29315022
0000e0 17 65 8d 3b 76 18 8c 3c 09 0d bb be 3b 07 ce be
       0.0043150294 0.017101508 -0.36533383 -0.4023989
0000f0 c6 b3 ca be cd 95 55 bd 39 00 d1 3d 79 46 93 be
       -0.3959028 -0.052144814 0.102051206 -0.28764704
000100 b7 8d 79 be 4c 99 cd 3b 19 92 a8 be c5 4a 90 bd
       -0.24370466 0.006274378 -0.32923964 -0.07045511
000110 6c f5 04 be da db bb bd e5 ea 19 3e 05 43 06 be
       -0.12984246 -0.09172793 0.15031011 -0.13111503
000120 86 0d cb 3d 11 53 b2 3d c7 71 d8 3d dc ef a0 bd
       0.09914689 0.0870725 0.10568576 -0.078582495
000130 d8 b1 5c 3e f5 fd 8d bd d4 a2 38 3e 24 75 96 3e
       0.21552217 -0.06933204 0.18030864 0.29386246
000140 59 10 97 be 90 0d 40 3e 12 3d 20 3e a8 ab cc bd
       -0.2950466 0.18755174 0.15648296 -0.09993678
000150 72 95 5e bd 39 04 c3 3c d2 0c 81 3d 0c b3 19 be
       -0.05434174 0.023805724 0.063012734 -0.15009707
000160 87 1b 42 3d d0 9d ef 3d 00 2e 6d 3d 41 e8 2a be
       0.047389533 0.11700022 0.057905197 -0.1669016
000170 e8 75 ce bb a8 9e f8 3a 43 dd bd 3d c0 9e f6 3d
       -0.0063006766 0.0018968182 0.09270718 0.12041998
000180 7e d9 86 bd ed de 74 bd ab 04 f4 bd c4 4d 29 be
       -0.06584452 -0.05978291 -0.11914953 -0.16533571
000190 69 40 c1 3d 83 8d 32 3e 1e 40 84 bd d2 fa 00 3d
       0.094361134 0.17436795 -0.06457542 0.0314892
0001a0 00 92 c6 3c 38 4d 33 bd 22 11 d5 3c 51 06 06 bd
       0.02423954 -0.043774813 0.026009146 -0.032720868
0001b0 ff 93 09 3d 7e e7 10 3c 2f 4f 5c 3d 7a cd 17 bd
       0.033588406 0.008844255 0.053786453 -0.037061192
0001c0 17 0b 0d bd c4 e7 99 bd a4 48 54 bd a6 ac 27 be
       -0.034434404 -0.07514909 -0.051827088 -0.16374454
0001d0 35 39 c7 3d ed 5a ae bd 6b 48 dd bd e0 8f ea 3c
       0.09727708 -0.085134365 -0.10804828 0.028633058
0001e0 d2 fe ae bd c3 89 88 3d 0d eb 88 bd 34 87 22 bc
       -0.08544697 0.06666901 -0.066854574 -0.00991993
0001f0 b6 a6 ed bd 1e 24 3c 3e 54 43 b0 3d 8e 96 14 3d
       -0.11604063 0.18373153 0.08606592 0.036276393
000200 df fd e6 bd 8c 25 f6 bd 36 96 56 3b 62 37 20 bd
       -0.11278891 -0.1201888 0.0032743341 -0.039115317
000210 f2 ff f4 3d b8 6a 1f bd cf e2 f0 3d bf e6 cf bb
       0.1196288 -0.038920134 0.1176201 -0.0063446457
000220 ac 67 96 3d 0c 7a 24 3d 45 8d 83 3d e7 55 88 3b
       0.073439926 0.040155455 0.064234294 0.004160631
000230 ac b2 31 3e f6 6d c4 bc 29 06 80 bd ae 06 6c 3c
       0.17353314 -0.023978215 -0.06251175 0.014405889
000240 79 47 e3 3d 21 55 87 bd 38 27 b6 3b 98 cb e0 bc
       0.11097617 -0.06608034 0.0055588745 -0.027440831
000250 71 c3 0e 3d dd d1 20 3c 95 53 be bc 13 3a d6 bd
       0.034854356 0.00981566 -0.023233214 -0.104602955
000260 c5 9f 09 3d c6 a6 5d bd 7b 7f 93 bd c4 c1 37 be
       0.033599634 -0.054114126 -0.07202049 -0.1794501
000270 83 63 4b bd 0a aa 3a bd b0 90 a7 bd c5 52 85 bd
       -0.04965545 -0.045572318 -0.08181894 -0.06509928
000280 c8 46 c1 bd 8e 28 6d 38 56 2d a2 3c de f9 29 3c
       -0.094373286 5.6542973e-05 0.019797008 0.010374514
000290 0a b2 6b 3d e5 43 89 ba d2 45 c9 3d 10 97 77 3d
       0.05754284 -0.0010472505 0.0982777 0.0604468
0002a0 72 14 27 3d b5 88 90 3b a1 c2 af 3b a2 ef d5 3d
       0.040790983 0.004410828 0.0053637777 0.10446097
0002b0 f1 71 0c 3d 9d f7 67 3a 68 5a 73 3c e3 f6 97 3d
       0.03428835 0.0008848848 0.0148530975 0.07420137
0002c0 d5 c3 27 3e bd 6f 18 bf f3 f6 c8 3e 6a 49 11 3c
       0.16383298 -0.595455 0.39250907 0.008867601
0002d0 c9 cd 57 3d c2 27 84 3d 99 cf 11 3d a8 85 4b bc
       0.052686486 0.06452896 0.03559837 -0.012422003
0002e0 87 3b fb 3d 41 10 7e 3d 54 42 32 bd ef 17 79 3c
       0.12267213 0.06202722 -0.043520287 0.01520346
0002f0 76 60 da 3c 4f a7 9d 3b da 01 48 bd a2 ee 2b 3d
       0.026657324 0.0048112045 -0.04882989 0.041975625
000300 c2 97 6e be 90 ee 84 bb 9a 68 82 3c c0 08 4c 3e
       -0.23300079 -0.004056759 0.015919019 0.19925213
000310 73 8a 47 be e0 8a 54 3d ba 84 8d bd ac a6 55 3d
       -0.19486408 0.051890254 -0.06910081 0.052160904
000320 8e 8b e2 bd 88 66 04 bc 28 cd 32 bd 72 14 48 bd
       -0.11061774 -0.008081086 -0.043652683 -0.048847623
000330 5c 02 ef 3c 20 b1 64 3e 01 9c 9a be b9 79 cd bd
       0.02917593 0.22333193 -0.30197147 -0.100329824
000340 cc 66 ac 3e 30 72 ac 3e 66 ae 88 3d a1 09 55 3d
       0.33672178 0.33680868 0.06673889 0.052011136
000350 73 8d eb be 0a 08 82 3e 4b c6 1e bf f1 7c d3 3e
       -0.46006355 0.25396758 -0.6202132 0.4130626
000360 2b ed f8 3e d6 71 40 3e c2 ce b8 3c 3c f8 48 bb
       0.48618445 0.18793425 0.022559527 -0.0030665537
000370 7b 76 85 3e 6a 2e 43 bc 1b bf 93 bc fc e6 52 3d
       0.26066956 -0.011912921 -0.018035462 0.051489815
000380 25 93 87 bd 46 9f 2b 3e 4c 6e 11 3d 2d 60 24 be
       -0.066198625 0.16759977 0.035505578 -0.16052313
000390 39 76 3a bb 73 97 70 bd 17 47 27 bd a9 44 a3 3d
       -0.0028451814 -0.058738183 -0.04083928 0.0797208
0003a0 f0 99 c1 3d 48 e4 3d be e6 23 04 be ae 58 08 3c
       0.094531894 -0.18544114 -0.12904319 0.008321924
0003b0 86 5d 40 3e 10 3e 19 3d c6 18 88 be 99 61 b3 be
       0.18785676 0.037412703 -0.265814 -0.350354
0003c0 de 04 e5 bd b1 46 cb 3e 38 91 16 bd 06 06 c5 bc
       -0.11182569 0.3970237 -0.036759585 -0.024050724
0003d0 07 ba 8f 3c 1e 16 a3 3d 28 0d 34 be 7f a6 13 be
       0.01754476 0.07963203 -0.17583144 -0.14418982
0003e0 3b 6f c9 3c df ec 4f 3d f0 7e c4 be 6c b9 81 be
       0.024589172 0.050763007 -0.38378096 -0.25336778
0003f0 58 79 ae bd 56 e8 a6 be f9 f8 9c be e9 52 ac be
       -0.08519238 -0.32599133 -0.306587 -0.33657005

encoding_layer.layer.0.bias f4 [64]
000000 f6 1d 8c 3d 6b 00 14 3d 06 e0 8d 3c c8 73 5d bc
       0.06841652 0.03613321 0.017318737 -0.013516374
000010 c6 a9 f5 bc 96 04 c5 3d ed 79 17 bc 8e d9 6e bd
       -0.02998818 0.09620015 -0.009245378 -0.058312945
000020 27 36 95 3c cc 69 3f bd 4d 34 3a bc 1e da c1 bd
       0.018214298 -0.046731755 -0.011365009 -0.09465431
000030 d4 5e 4a bd 2b 8f a7 3d 9f ac 12 bd 1e bf 11 bd
       -0.04940684 0.08181604 -0.035809156 -0.035582654
000040 53 65 d9 bc d0 fb 16 bd d6 db b0 3c 2e 97 7c 3d
       -0.026537573 -0.03686124 0.021589201 0.061667614
000050 d9 30 b7 bc 0d 1a db bc a8 85 e5 bd b4 06 a7 bc
       -0.02236216 -0.02674582 -0.112071335 -0.020388938
000060 3b 95 50 bd a8 12 58 bd d6 6c 34 3d d8 33 7e 3c
       -0.050923567 -0.052752167 0.044049107 0.01551529
000070 0f e5 65 3d 2a 8f 20 bc 0b 09 25 bc a3 24 76 bd
       0.05612665 -0.009799758 -0.010072957 -0.060093533
000080 ab 2c 8d 3c 51 fc de 3c df 4e 5c bd 4d d6 2b 3c
       0.017233213 0.027219923 -0.053786155 0.010488105
000090 b0 cf 5a bc 94 c5 f7 bd f0 87 c9 bd 73 74 96 bd
       -0.013355181 -0.12098232 -0.09840381 -0.0734643
0000a0 eb 20 44 3d 99 d5 fa 3c 41 85 15 3d b2 bb a5 3c
       0.047882956 0.03061943 0.036504034 0.020231102
0000b0 15 8e 25 3c 91 e8 da 3c dc 88 4a 3b d7 96 ca 3c
       0.010104676 0.026722224 0.0030904328 0.02473013
0000c0 09 12 c1 bd 69 e5 5e bd 3e 92 0b bd e0 b7 08 bd
       -0.09427268 -0.054418 -0.034075014 -0.033378482
0000d0 ad 51 1f bd cd 1f 94 bc 53 3e 52 3b 4b 61 c5 3d
       -0.03889625 -0.01808157 0.0032080605 0.09637698
0000e0 3d 1c 05 bd eb 73 af bd fd dd 10 3d d7 ee 88 3d
       -0.032497633 -0.085670315 0.035367955 0.0668618
0000f0 73 77 95 bd 74 e3 a6 bc 56 1b ff ba 9d 2a b6 bb
       -0.07298174 -0.02037213 -0.0019463103 -0.005559279

relational_layer.layers.0.att_src f4 [1, 1, 64]
000000 af 44 19 bd 52 2f a3 3e 9a fd 9f be 86 3c 08 3e
       -0.037419017 0.3187204 -0.3124817 0.13304338
000010 8e 52 33 be 66 43 05 be 34 44 df 3e 6f 6f 31 3c
       -0.17511961 -0.13013992 0.43606722 0.0108297905
000020 97 ad a0 3e dd 9c bf be 9a 7e 0d 3e 0f be b3 be
       0.3138244 -0.37424365 0.13817826 -0.3510594
000030 53 0b 59 3e b6 96 36 3e 82 2f 19 3f 52 75 3c be
       0.21195726 0.17830929 0.59838116 -0.18404129
000040 34 2e 73 be de e2 38 3e f5 88 c1 3e 2a 97 c5 be
       -0.23748094 0.18055293 0.37799802 -0.38591892
000050 fa b4 b6 3a 30 7b b4 be 76 09 82 bd f4 a8 1a 3e
       0.0013939433 -0.35250235 -0.06349461 0.15103513
000060 da 2d b1 be ef 47 cd be b1 5c bd be 1e a6 95 3c
       -0.34605294 -0.40093943 -0.3698478 0.018267687
000070 fd 72 64 3d ab ec e5 be 3d a5 8c be 65 0d df 3c
       0.055773724 -0.44907126 -0.27469817 0.027228067
000080 35 8d 8a 3d 6a 8b aa 3c 4a d0 f3 3e 7f fe b8 be
       0.06765214 0.02081843 0.4761985 -0.36131665
000090 65 e4 0b 3e 2a 49 43 be a3 fe 8f be 54 85 27 3e
       0.13661344 -0.19070879 -0.2812396 0.16359454
0000a0 57 15 be 3e bb ac 8e be 99 b1 9a be c3 c9 0c bd
       0.37125656 -0.27866158 -0.3021362 -0.034372102
0000b0 1c b8 e5 3e de 48 0c be 2c ea 8c 3e 50 d7 7e 3e
       0.44867027 -0.13699672 0.2752241 0.24886823
0000c0 eb 14 9c be 30 8a 87 be 9b cb a6 3e 8c b2 30 3e
       -0.3048471 -0.26472616 0.32577214 0.1725561
0000d0 ba 3b b3 3d bb 83 0a be 77 53 cc be 62 35 89 3e
       0.08751626 -0.13526814 -0.3990743 0.2679854
0000e0 34 b2 97 be 14 06 be be 7e d7 b9 bd 80 4c f0 bd
       -0.29628146 -0.37114012 -0.09074305 -0.11733341
0000f0 03 83 e7 3d e3 f2 38 3e 06 c5 30 3e f0 95 a2 3e
       0.113042854 0.18061404 0.17262658 0.31755018

relational_layer.layers.0.att_dst f4 [1, 1, 64]
000000 69 81 ed be bc 75 b4 bc a9 ec ab 3e a0 8e 88 be
       -0.46387795 -0.022028796 0.33578995 -0.26671314
000010 3e a0 ab be 69 33 f7 bc e1 59 df bd 60 d6 06 bf
       -0.33520693 -0.030175881 -0.10905815 -0.5267086
000020 d4 f7 95 3e 93 81 fe 3d 3b 26 86 be f0 c5 25 be
       0.2929064 0.12427058 -0.26201043 -0.16188788
000030 29 24 d0 3e 82 f0 6b be e8 08 dd bd 85 69 5c 3e
       0.40652588 -0.23040965 -0.10792714 0.21524628
000040 b8 97 79 be 7f ea b0 be 1e e3 d8 3c 6a ba 1b 3e
       -0.24374282 -0.34553906 0.026475485 0.1520783
000050 27 03 a8 3e 34 9a 26 3e 81 96 5e 3e 2c 31 d3 bd
       0.32814905 0.16269761 0.217371 -0.10312113
000060 8d db ce bd e5 a7 17 3e 8d 3d ba 3e a5 5a 28 3e
       -0.1010047 0.1481014 0.36375085 0.16440828
000070 33 73 88 bc 6f c2 a4 bd 47 7d ab be 43 5e 15 be
       -0.016656494 -0.08044898 -0.33494017 -0.14586739
000080 fb a5 91 3e e4 7a 26 3e f6 e3 7f be 69 95 31 3e
       0.28446946 0.16257817 -0.24989304 0.17342152
000090 75 a3 9c 3e bf 8d f1 3e 9c 5f e1 3d 26 3c 26 3d
       0.30593458 0.47178456 0.11004564 0.040584706
0000a0 83 5a b6 bd de 84 d3 be a0 db 17 3e f1 d0 06 3d
       -0.089039825 -0.41312307 0.14829874 0.032914106
0000b0 4d 96 2f 3e b1 4c 03 3e 7e 9a d4 bd 92 4b 2f bc
       0.17147179 0.12822224 -0.103810295 -0.01069917
0000c0 d7 55 fa 3d 1d f7 44 be 9f 00 0a be ff 56 89 be
       0.12223404 -0.19234891 -0.134768 -0.26824185
0000d0 b8 8f fb be 74 78 16 be 83 b7 8c be c3 b7 34 be
       -0.49133086 -0.14694387 -0.27483758 -0.17648225
0000e0 85 11 25 bf 59 37 bf be ba 3e 69 bb 4c db 9c 3d
       -0.6447986 -0.37346914 -0.0035590366 0.07659015
0000f0 1a bc bc 3d 09 24 59 be e3 41 c9 be 7d 2f 06 bf
       0.09215565 -0.21205153 -0.3930808 -0.5241621

relational_layer.layers.0.bias f4 [64]
000000 b4 25 76 bd ec 90 84 be e3 78 35 be 1e 3d cc bd
       -0.06009455 -0.25891817 -0.17721896 -0.09972595
000010 37 57 17 3d 7c c0 13 bd 1a c2 20 be d7 51 22 be
       0.03694841 -0.03607224 -0.15699044 -0.15851532
000020 92 5e df bd da 8f d6 bd 74 c6 a1 bd 0f f3 d7 3c
       -0.1090671 -0.10476656 -0.0789918 0.026361017
000030 0e 75 70 be f6 6b a5 bd 29 77 43 be 17 71 d2 3c
       -0.23482153 -0.080772325 -0.19088425 0.025688691
000040 14 10 1b bd 0e ca 41 be ac 88 76 bd e0 40 a1 3d
       -0.03785713 -0.18924734 -0.060188934 0.07873702
000050 ea dd 4a be 55 d3 64 bd 5e 39 6e be 43 31 00 be
       -0.19811216 -0.055865604 -0.23264071 -0.12518792
000060 c5 7a d6 bc b4 38 48 3c 14 6d db bd 49 09 a6 bc
       -0.026181588 0.01222055 -0.107141644 -0.0202681
000070 32 fd 03 be af a3 da bd c3 20 43 be 06 68 52 3c
       -0.12889555 -0.106757514 -0.19055466 0.012842184
000080 54 88 80 bd e3 6f d2 bb 4b 55 5e bd 14 53 b8 bd
       -0.062760025 -0.0064220293 -0.05428056 -0.09000221
000090 6a ee b5 bd ed 66 36 be 78 e7 f8 bd bb 74 14 3d
       -0.088833645 -0.178127 -0.12153524 0.036244135
0000a0 2d 97 19 be d6 ca 21 be 8c 47 71 bd c5 12 8f bd
       -0.14999075 -0.15800032 -0.058906123 -0.06986002
0000b0 c4 91 18 3d e6 82 09 bd 45 2e b0 3d 16 ac 7e bd
       0.037248388 -0.0335721 0.08602575 -0.062175833
0000c0 90 4e f7 bc 85 78 87 3d 1d 43 73 be 16 c0 65 bd
       -0.030188829 0.06614784 -0.2375607 -0.05609139
0000d0 03 e1 d6 bd 96 62 bd bd 5c ce fd bd 4b 1f d5 bd
       -0.10492136 -0.092473194 -0.123928756 -0.10406359
0000e0 a5 13 ad bd 80 a1 48 be 5a 98 c7 bd 53 64 64 3d
       -0.084510125 -0.19592857 -0.09745856 0.05575974
0000f0 e9 41 6e 3d d0 36 96 bc 9b ae ea 3c e0 81 30 3d
       0.058168326 -0.018336684 0.028647712 0.04309261

relational_layer.layers.0.lin_src.weight f4 [64, 64]
000000 cf fa f4 bd e7 95 26 3d 84 c3 c2 3e 23 95 bc be
       -0.119619004 0.0406703 0.38039792 -0.36832532
000010 8d 68 0f 3e c0 2d dc bd 61 43 ab be a9 11 aa be
       0.14004727 -0.107509136 -0.33449844 -0.332166
000020 10 d9 0f 3e 53 d3 15 bd e8 65 4f be 59 1f 74 bd
       0.14047647 -0.036578488 -0.20253718 -0.059600208
000030 3e a3 4e be 94 49 42 3e 49 dc c3 be 29 12 04 3e
       -0.2017946 0.1897338 -0.38254002 0.12897553
000040 f5 4d 48 3d 07 cc 0c 3d 35 f2 0d bf f4 4b 1b bf
       0.04890247 0.034374263 -0.55447704 -0.6066277
000050 ef fc 81 3c 67 01 e2 3d 79 04 02 bf 35 35 c3 3d
       0.015867678 0.11035424 -0.50788075 0.09531633
000060 17 50 6b be 7e ab 91 3d d5 b6 23 bd 1b 8e e4 be
       -0.2297977 0.07112788 -0.039969284 -0.44639668
000070 5e bc ae bd 82 4b 11 be 70 7a 99 3e 97 94 1e be
       -0.08532022 -0.1418896 0.29976225 -0.1548637
000080 44 1e 94 be ce 02 0e be 04 de f6 bd 50 c7 86 be
       -0.2892934 -0.13868257 -0.12054065 -0.26323938
000090 0e 96 52 bd aa 4a 3b bc 5a 65 5f be 54 a3 c8 3c
       -0.051412635 -0.0114313755 -0.21816006 0.024491943
0000a0 53 be 88 3d d9 2a fc bc 53 30 3b 3e 00 60 a5 bc
       0.066769265 -0.03078215 0.18280153 -0.020187378
0000b0 f8 79 b7 3e d8 08 20 bf dc 48 b4 bd d1 a7 13 3d
       0.35835242 -0.62513494 -0.08802959 0.036048714
0000c0 02 29 c8 be e9 10 2e bd 30 4e 81 bd e9 1e 92 3e
       -0.39093786 -0.042496596 -0.06313741 0.28539208
0000d0 03 e7 65 3d c4 9d 4a be 67 38 f4 bd bb 50 ea 3d
       0.056128513 -0.19786745 -0.119248204 0.11441179
0000e0 c5 87 96 3d 2b cc f4 3e dd c1 a7 be cb 1b 92 bd
       0.07350115 0.47812018 -0.32765093 -0.07134207
0000f0 17 ca ba bd 68 a2 07 bd d8 c3 cb 3e f9 c0 01 be
       -0.09120577 -0.033113867 0.39797854 -0.1267127
000100 25 a6 47 bc d5 eb 6f be b7 37 cb bd ef d1 19 bd
       -0.012185608 -0.23429807 -0.09922736 -0.037553724
000110 74 09 8a be 59 dc 9b bb c4 71 b6 3d 50 23 c4 be
       -0.26960337 -0.004756492 0.08908418 -0.3830819
000120 3e ce 29 bc 51 5f f4 bd 07 27 c5 bd 58 5d d1 3e
       -0.010364113 -0.11932243 -0.096265845 0.40891528
000130 73 87 11 3e ab 77 d4 3e 46 3b 89 bd be 12 63 3d
       0.14211826 0.4149755 -0.06700759 0.055437796
000140 04 6b 51 be 19 86 b3 be 7d ac 8a bd 18 6c 40 be
       -0.2045098 -0.35063246 -0.06771181 -0.18791234
000150 1c 3e f4 3c f1 69 02 3d 5c 1e b1 bc ab e0 85 be
       0.029814772 0.031839315 -0.021620922 -0.2614797
000160 72 74 92 3e c0 06 4d be 8e 21 86 3d d4 6e 44 3c
       0.28604466 -0.20022106 0.06549369 0.011989314
000170 98 7e 83 3d b7 f1 54 3e 13 da 41 3e ac 1d 97 bd
       0.0642063 0.20795332 0.18930845 -0.07378706
000180 45 69 38 3d 38 bd 05 3e e9 50 cb be 1e 96 09 be
       0.045022268 0.13060462 -0.39710167 -0.13436171
000190 47 6a b1 bd d8 43 62 bd 18 f8 f3 bd f4 22 0a 3d
       -0.08662849 -0.055240482 -0.119125545 0.03372474
0001a0 e6 4e 9e 3d 57 60 a4 3e 00 2d 00 bd f4 47 ab be
       0.077298924 0.3210475 -0.031292915 -0.33453333
0001b0 90 41 a5 3c 8a 9e c7 3d cb 2b 8e be 98 ae 8d bd
       0.020172864 0.09747036 -0.27767786 -0.06918067
0001c0 71 01 0b 3e d3 d6 48 bd 16 ff 1c 3c 58 5a 2f be
       0.13574769 -0.049032997 0.009582302 -0.17124307
0001d0 0c 94 07 3d c2 d9 3c be 80 84 16 be 0c 67 2d be
       0.033100173 -0.18442443 -0.14698982 -0.1693384
0001e0 55 72 46 bd e6 ec e8 3d 95 6a 77 be 29 6f b9 3c
       -0.04844888 0.1137331 -0.24161752 0.022636013
0001f0 38 03 50 be e6 92 95 3c 48 30 98 3d f1 d2 7f bd
       -0.20313728 0.018258523 0.07431084 -0.06245703
000200 85 64 0e be 60 6c 91 3e 68 dd 0e 3d 24 25 85 bc
       -0.13905533 0.28402996 0.03487912 -0.016253062
000210 3c 35 af bd fe 3f b2 3d f1 96 e8 3c f0 e5 28 3e
       -0.085550755 0.08703612 0.028392287 0.16493964
000220 48 7b 26 be cb a2 cd bd 8a 29 e9 bc c5 6d 4e be
       -0.16257966 -0.10040816 -0.02846219 -0.20159061
000230 24 d0 ad bd 33 3f 6e 3e 30 04 d0 3b 1d 98 48 3e
       -0.08486965 0.23266296 0.0063481554 0.19589277
000240 ee b6 b7 bd 18 c4 6e 3e b9 4b cc bd df f2 96 3e
       -0.08970438 0.23316991 -0.099753805 0.2948217
000250 d6 e5 04 be ac a1 9e bd 74 a3 1f be 73 3c cd 3c
       -0.129783 -0.0774568 -0.15589696 0.025053238
000260 be bb 1e be db 9c 18 3e ad e9 9e bd b8 60 a0 3e
       -0.15501305 0.14903586 -0.07759414 0.3132379
000270 e2 ca 90 be 07 ea 59 3e 86 29 5e 3c 46 3a c2 bc
       -0.28279787 0.2128068 0.013559705 -0.023709428
000280 c4 6d 14 be bc 8f 15 3d e0 b9 2d 3e af 79 17 be
       -0.14494997 0.03651403 0.16965437 -0.14792512
000290 1b 1d dd 3d 00 5e 6e be 42 97 cb bc 59 a0 fd bd
       0.10796567 -0.23278046 -0.024852399 -0.123840995
0002a0 4a 0d 62 3e 02 46 6e 3e 25 11 1f 3d 4b 04 21 bd
       0.22075382 0.23268893 0.03883471 -0.039310735
0002b0 d0 51 07 be 95 14 3f 3d 42 59 49 bd 59 bd ff 3a
       -0.13214803 0.046650488 -0.04915739 0.0019511386
0002c0 07 f4 8f bd e1 4a 86 bd 36 20 0a be 6b c1 cc bd
       -0.070289664 -0.06557251 -0.1348885 -0.09997829
0002d0 9c 58 a1 bd 87 36 c7 bb 9e 4a a1 3e da da 8c 3e
       -0.07878229 -0.006079498 0.3150224 0.2751072
0002e0 6f ee c0 3c 6d 97 3b bd b6 ac 16 3e c7 10 3a be
       0.023551194 -0.045798708 0.14714321 -0.18170463
0002f0 58 50 ff bd 54 4d 70 bd 43 4f 8f 3e 72 fb 69 bc
       -0.12466496 -0.058667496 0.2799016 -0.014281141
000300 9b 7f 31 3d bd 41 8f 3d 6a ec 91 3e 63 03 90 bd
       0.043334585 0.069949605 0.28500682 -0.07031896
000310 25 4c 9e be f6 95 ad bc a5 cc 02 bf 81 5b 89 3d
       -0.3091747 -0.021189671 -0.5109351 0.06706906
000320 26 74 94 3d 9a 44 17 be 60 e0 fb 3d b2 23 a9 3e
       0.07248716 -0.14772263 0.122986555 0.33035046
000330 82 20 31 3e d3 a5 5c be 6b 07 e3 bd c1 52 23 be
       0.17297557 -0.21547632 -0.11085399 -0.15949537
000340 46 a1 95 bd f1 3f db bd a2 a7 10 3d 1c a4 fa bc
       -0.07306151 -0.10705555 0.035316117 -0.030595832
000350 e1 22 0b bd d8 16 14 be 8d e2 34 be eb e8 15 bc
       -0.03396881 -0.14461839 -0.17664547 -0.00914977
000360 78 61 a3 3e 51 e1 d7 3e b2 ae 7f be 3f f3 a1 bd
       0.319103 0.4216409 -0.24968985 -0.07907724
000370 5f 4b 11 bd 08 c6 a5 3e 14 b0 4d 3d fa c6 3b bd
       -0.03547227 0.32377648 0.05021675 -0.045844056
000380 d0 6c ff 3d 6b 35 4b 3e a7 3e 43 be fb 55 21 be
       0.12471926 0.19844596 -0.19066869 -0.15755455
000390 d9 0c 26 3e 44 ea 1c be 6e fb cc bd c0 b2 da 3b
       0.16215838 -0.1532374 -0.10008894 0.0066741407
0003a0 98 a7 56 3c 7f 57 c6 bd 55 a8 4f be f5 da 11 3e
       0.013101481 -0.09684657 -0.20279057 0.14243682
0003b0 21 87 4c bb 8b 18 b9 be b4 c6 62 bd 7c 45 15 3e
       -0.0031208473 -0.36151537 -0.05536528 0.14577287
0003c0 2c 3a 58 be 3f a3 61 be de 5a 9e 3e 86 b9 d6 3d
       -0.21115941 -0.2203493 0.309287 0.104846045
0003d0 b0 7e ad 3e 03 49 17 bd e5 2a ea be 01 37 25 bd
       0.33885717 -0.036934864 -0.4573585 -0.04033566
0003e0 04 1b f9 bd 79 55 1d bd 58 99 76 be 3b f6 f6 3d
       -0.12163356 -0.03841159 -0.24081933 0.120586835
0003f0 bf f3 39 be 98 5b 84 3e 4d b1 d8 3e 24 c7 4c bd
       -0.18159388 0.2585113 0.4232277 -0.049994603

relational_layer.layers.0.lin_dst.weight f4 [64, 64]
000000 cf fa f4 bd e7 95 26 3d 84 c3 c2 3e 23 95 bc be
       -0.119619004 0.0406703 0.38039792 -0.36832532
000010 8d 68 0f 3e c0 2d dc bd 61 43 ab be a9 11 aa be
       0.14004727 -0.107509136 -0.33449844 -0.332166
000020 10 d9 0f 3e 53 d3 15 bd e8 65 4f be 59 1f 74 bd
       0.14047647 -0.036578488 -0.20253718 -0.059600208
000030 3e a3 4e be 94 49 42 3e 49 dc c3 be 29 12 04 3e
       -0.2017946 0.1897338 -0.38254002 0.12897553
000040 f5 4d 48 3d 07 cc 0c 3d 35 f2 0d bf f4 4b 1b bf
       0.04890247 0.034374263 -0.55447704 -0.6066277
000050 ef fc 81 3c 67 01 e2 3d 79 04 02 bf 35 35 c3 3d
       0.015867678 0.11035424 -0.50788075 0.09531633
000060 17 50 6b be 7e ab 91 3d d5 b6 23 bd 1b 8e e4 be
       -0.2297977 0.07112788 -0.039969284 -0.44639668
000070 5e bc ae bd 82 4b 11 be 70 7a 99 3e 97 94 1e be
       -0.08532022 -0.1418896 0.29976225 -0.1548637
000080 44 1e 94 be ce 02 0e be 04 de f6 bd 50 c7 86 be
       -0.2892934 -0.13868257 -0.12054065 -0.26323938
000090 0e 96 52 bd aa 4a 3b bc 5a 65 5f be 54 a3 c8 3c
       -0.051412635 -0.0114313755 -0.21816006 0.024491943
0000a0 53 be 88 3d d9 2a fc bc 53 30 3b 3e 00 60 a5 bc
       0.066769265 -0.03078215 0.18280153 -0.020187378
0000b0 f8 79 b7 3e d8 08 20 bf dc 48 b4 bd d1 a7 13 3d
       0.35835242 -0.62513494 -0.08802959 0.036048714
0000c0 02 29 c8 be e9 10 2e bd 30 4e 81 bd e9 1e 92 3e
       -0.39093786 -0.042496596 -0.06313741 0.28539208
0000d0 03 e7 65 3d c4 9d 4a be 67 38 f4 bd bb 50 ea 3d
       0.056128513 -0.19786745 -0.119248204 0.11441179
0000e0 c5 87 96 3d 2b cc f4 3e dd c1 a7 be cb 1b 92 bd
       0.07350115 0.47812018 -0.32765093 -0.07134207
0000f0 17 ca ba bd 68 a2 07 bd d8 c3 cb 3e f9 c0 01 be
       -0.09120577 -0.033113867 0.39797854 -0.1267127
000100 25 a6 47 bc d5 eb 6f be b7 37 cb bd ef d1 19 bd
       -0.012185608 -0.23429807 -0.09922736 -0.037553724
000110 74 09 8a be 59 dc 9b bb c4 71 b6 3d 50 23 c4 be
       -0.26960337 -0.004756492 0.08908418 -0.3830819
000120 3e ce 29 bc 51 5f f4 bd 07 27 c5 bd 58 5d d1 3e
       -0.010364113 -0.11932243 -0.096265845 0.40891528
000130 73 87 11 3e ab 77 d4 3e 46 3b 89 bd be 12 63 3d
       0.14211826 0.4149755 -0.06700759 0.055437796
000140 04 6b 51 be 19 86 b3 be 7d ac 8a bd 18 6c 40 be
       -0.2045098 -0.35063246 -0.06771181 -0.18791234
000150 1c 3e f4 3c f1 69 02 3d 5c 1e b1 bc ab e0 85 be
       0.029814772 0.031839315 -0.021620922 -0.2614797
000160 72 74 92 3e c0 06 4d be 8e 21 86 3d d4 6e 44 3c
       0.28604466 -0.20022106 0.06549369 0.011989314
000170 98 7e 83 3d b7 f1 54 3e 13 da 41 3e ac 1d 97 bd
       0.0642063 0.20795332 0.18930845 -0.07378706
000180 45 69 38 3d 38 bd 05 3e e9 50 cb be 1e 96 09 be
       0.045022268 0.13060462 -0.39710167 -0.13436171
000190 47 6a b1 bd d8 43 62 bd 18 f8 f3 bd f4 22 0a 3d
       -0.08662849 -0.055240482 -0.119125545 0.03372474
0001a0 e6 4e 9e 3d 57 60 a4 3e 00 2d 00 bd f4 47 ab be
       0.077298924 0.3210475 -0.031292915 -0.33453333
0001b0 90 41 a5 3c 8a 9e c7 3d cb 2b 8e be 98 ae 8d bd
       0.020172864 0.09747036 -0.27767786 -0.06918067
0001c0 71 01 0b 3e d3 d6 48 bd 16 ff 1c 3c 58 5a 2f be
       0.13574769 -0.049032997 0.009582302 -0.17124307
0001d0 0c 94 07 3d c2 d9 3c be 80 84 16 be 0c 67 2d be
       0.033100173 -0.18442443 -0.14698982 -0.1693384
0001e0 55 72 46 bd e6 ec e8 3d 95 6a 77 be 29 6f b9 3c
       -0.04844888 0.1137331 -0.24161752 0.022636013
0001f0 38 03 50 be e6 92 95 3c 48 30 98 3d f1 d2 7f bd
       -0.20313728 0.018258523 0.07431084 -0.06245703
000200 85 64 0e be 60 6c 91 3e 68 dd 0e 3d 24 25 85 bc
       -0.13905533 0.28402996 0.03487912 -0.016253062
000210 3c 35 af bd fe 3f b2 3d f1 96 e8 3c f0 e5 28 3e
       -0.085550755 0.08703612 0.028392287 0.16493964
000220 48 7b 26 be cb a2 cd bd 8a 29 e9 bc c5 6d 4e be
       -0.16257966 -0.10040816 -0.02846219 -0.20159061
000230 24 d0 ad bd 33 3f 6e 3e 30 04 d0 3b 1d 98 48 3e
       -0.08486965 0.23266296 0.0063481554 0.19589277
000240 ee b6 b7 bd 18 c4 6e 3e b9 4b cc bd df f2 96 3e
       -0.08970438 0.23316991 -0.099753805 0.2948217
000250 d6 e5 04 be ac a1 9e bd 74 a3 1f be 73 3c cd 3c
       -0.129783 -0.0774568 -0.15589696 0.025053238
000260 be bb 1e be db 9c 18 3e ad e9 9e bd b8 60 a0 3e
       -0.15501305 0.14903586 -0.07759414 0.3132379
000270 e2 ca 90 be 07 ea 59 3e 86 29 5e 3c 46 3a c2 bc
       -0.28279787 0.2128068 0.013559705 -0.023709428
000280 c4 6d 14 be bc 8f 15 3d e0 b9 2d 3e af 79 17 be
       -0.14494997 0.03651403 0.16965437 -0.14792512
000290 1b 1d dd 3d 00 5e 6e be 42 97 cb bc 59 a0 fd bd
       0.10796567 -0.23278046 -0.024852399 -0.123840995
0002a0 4a 0d 62 3e 02 46 6e 3e 25 11 1f 3d 4b 04 21 bd
       0.22075382 0.23268893 0.03883471 -0.039310735
0002b0 d0 51 07 be 95 14 3f 3d 42 59 49 bd 59 bd ff 3a
       -0.13214803 0.046650488 -0.04915739 0.0019511386
0002c0 07 f4 8f bd e1 4a 86 bd 36 20 0a be 6b c1 cc bd
       -0.070289664 -0.06557251 -0.1348885 -0.09997829
0002d0 9c 58 a1 bd 87 36 c7 bb 9e 4a a1 3e da da 8c 3e
       -0.07878229 -0.006079498 0.3150224 0.2751072
0002e0 6f ee c0 3c 6d 97 3b bd b6 ac 16 3e c7 10 3a be
       0.023551194 -0.045798708 0.14714321 -0.18170463
0002f0 58 50 ff bd 54 4d 70 bd 43 4f 8f 3e 72 fb 69 bc
       -0.12466496 -0.058667496 0.2799016 -0.014281141
000300 9b 7f 31 3d bd 41 8f 3d 6a ec 91 3e 63 03 90 bd
       0.043334585 0.069949605 0.28500682 -0.07031896
000310 25 4c 9e be f6 95 ad bc a5 cc 02 bf 81 5b 89 3d
       -0.3091747 -0.021189671 -0.5109351 0.06706906
000320 26 74 94 3d 9a 44 17 be 60 e0 fb 3d b2 23 a9 3e
       0.07248716 -0.14772263 0.122986555 0.33035046
000330 82 20 31 3e d3 a5 5c be 6b 07 e3 bd c1 52 23 be
       0.17297557 -0.21547632 -0.11085399 -0.15949537
000340 46 a1 95 bd f1 3f db bd a2 a7 10 3d 1c a4 fa bc
       -0.07306151 -0.10705555 0.035316117 -0.030595832
000350 e1 22 0b bd d8 16 14 be 8d e2 34 be eb e8 15 bc
       -0.03396881 -0.14461839 -0.17664547 -0.00914977
000360 78 61 a3 3e 51 e1 d7 3e b2 ae 7f be 3f f3 a1 bd
       0.319103 0.4216409 -0.24968985 -0.07907724
000370 5f 4b 11 bd 08 c6 a5 3e 14 b0 4d 3d fa c6 3b bd
       -0.03547227 0.32377648 0.05021675 -0.045844056
000380 d0 6c ff 3d 6b 35 4b 3e a7 3e 43 be fb 55 21 be
       0.12471926 0.19844596 -0.19066869 -0.15755455
000390 d9 0c 26 3e 44 ea 1c be 6e fb cc bd c0 b2 da 3b
       0.16215838 -0.1532374 -0.10008894 0.0066741407
0003a0 98 a7 56 3c 7f 57 c6 bd 55 a8 4f be f5 da 11 3e
       0.013101481 -0.09684657 -0.20279057 0.14243682
0003b0 21 87 4c bb 8b 18 b9 be b4 c6 62 bd 7c 45 15 3e
       -0.0031208473 -0.36151537 -0.05536528 0.14577287
0003c0 2c 3a 58 be 3f a3 61 be de 5a 9e 3e 86 b9 d6 3d
       -0.21115941 -0.2203493 0.309287 0.104846045
0003d0 b0 7e ad 3e 03 49 17 bd e5 2a ea be 01 37 25 bd
       0.33885717 -0.036934864 -0.4573585 -0.04033566
0003e0 04 1b f9 bd 79 55 1d bd 58 99 76 be 3b f6 f6 3d
       -0.12163356 -0.03841159 -0.24081933 0.120586835
0003f0 bf f3 39 be 98 5b 84 3e 4d b1 d8 3e 24 c7 4c bd
       -0.18159388 0.2585113 0.4232277 -0.049994603

action_layer.layer1.0.weight f4 [128, 128]
000000 5c 78 b2 be 22 ee 50 be e8 13 a8 be 83 12 77 bd
       -0.34857452 -0.2040334 -0.32827687 -0.06032039
000010 fc 0e 6d 3d d5 4a f5 3d 4f 05 e9 bd 22 e5 cf bd
       0.05787562 0.11977164 -0.11377966 -0.101511255
000020 6b 0f 17 be e5 97 24 3d 0b 36 2a 3e 96 f8 ec bc
       -0.14751975 0.04018392 0.16622178 -0.028927129
000030 48 84 a3 3d 7e 02 20 bd 8f 94 04 be 77 03 b3 3c
       0.07984215 -0.039064877 -0.12947296 0.021852238
000040 9e 38 a3 3c f5 52 44 bd 8d 9e a2 be 62 38 bf bd
       0.019924458 -0.047930676 -0.3176159 -0.09336926
000050 ea ef ea bd 2f 93 2d 3d 89 05 99 bd 27 08 87 bd
       -0.11471541 0.042376693 -0.07471759 -0.06593352
000060 53 65 bf bd 2b 64 f0 3d 61 be 1d 3e 8c 4c 18 be
       -0.09345498 0.117378555 0.15404655 -0.1487295
000070 d2 d6 4c 3d bb 33 c6 3d 24 6e 4d bd 39 86 b2 3e
       0.050009556 0.096778356 -0.050153866 0.3486803
000080 08 5b 74 be 2b bc 14 be e0 0e d3 3d 8e c6 1e 3d
       -0.2386285 -0.14524905 0.103055716 0.038763575
000090 09 2f 13 bd b8 bf 03 bc 54 3e 22 3b 1a de 7c bc
       -0.035933528 -0.008041315 0.0024756389 -0.0154338125
0000a0 4e 99 b9 bd 32 ea 87 3e c1 18 0a be 34 b5 ae 3c
       -0.09062444 0.26545864 -0.13486005 0.021326639
0000b0 4a ae 6f 3e 56 69 c4 3b fe 05 6e bd fa f9 67 bd
       0.2340633 0.0059940023 -0.058111183 -0.05663488
0000c0 57 87 cc 3d 08 69 aa 3d 93 14 7a 3d d7 ba b1 3d
       0.099867515 0.08320814 0.061054777 0.08678215
0000d0 cb 01 5c bd 79 d4 2d 3e c2 c6 fb bc 58 35 08 be
       -0.053712647 0.16975583 -0.030734424 -0.13301599
0000e0 8c 05 3f be 54 82 e2 3d 51 1f 20 3e 56 ab 3a be
       -0.1865446 0.11060014 0.15636946 -0.18229422
0000f0 42 ae df 3d 1e 69 d3 3d 11 a6 15 be e0 1c 16 3c
       0.10921909 0.10322784 -0.1461413 0.009162158
000100 7a 44 19 bd 7c 13 a0 3d 0e 63 21 3d 76 e2 d6 3d
       -0.03741882 0.07816216 0.039401107 0.10492413
000110 f4 ea ea bc de db de bc c7 d6 5f 3e ba f7 f8 3d
       -0.028676488 -0.02720445 0.21859275 0.12156625
000120 41 25 cf bc 59 ff 57 be 54 dc 95 3d f9 45 22 3e
       -0.025286319 -0.21093501 0.07317415 0.15847005
000130 0f 44 5e 3c 9a 40 6b bd f6 79 86 3d 97 a5 0c 3e
       0.013566031 -0.057434656 0.06566231 0.13735043
000140 4e 87 1c 3e f7 88 b5 bd 7a 98 c3 3a a6 45 d8 3d
       0.1528599 -0.088640146 0.0014922761 0.105601594
000150 a9 b5 da 3c f9 c5 f6 bd b1 7b ed 3d 38 04 e8 bc
       0.02669795 -0.12049479 0.11595858 -0.028322324
000160 c0 7a ae bd e0 c7 1f 3e 5c ce ce 3c 8e 02 c0 bd
       -0.085195065 0.1560359 0.025244884 -0.09375487
000170 79 fe 7f be b2 45 d6 bd 75 4d 18 be a0 dc a9 bd
       -0.24999417 -0.10462512 -0.14873298 -0.08294034
000180 44 42 88 3d 8d c5 0c be ee ef 80 3d 31 3a bc 3d
       0.06653264 -0.13747235 0.06295763 0.09190787
000190 7d a0 fa 3d f1 f6 19 bd 26 78 17 3d 62 d3 af bd
       0.12237642 -0.037589017 0.036979817 -0.0858524
0001a0 6e d5 1f 3d af 44 57 bc f7 85 56 3d 8c 8f bf 3d
       0.0390219 -0.013138934 0.052373853 0.09353551
0001b0 94 99 89 be 00 f5 fe 3c 18 75 c5 bd 89 17 0a 3e
       -0.26874983 0.031122684 -0.096414745 0.1348554
0001c0 89 48 05 3e 2a 05 ad bb ab 4e 9a be b0 fe 90 3e
       0.13015951 -0.0052801566 -0.30138144 0.2831931
0001d0 3c 39 1b be 22 c8 50 bd af 5b 1c bd 37 fc dc ba
       -0.15158552 -0.05097211 -0.038173374 -0.0016859834
0001e0 53 e9 7b bd 15 d7 05 be 5e 40 6f 3d 4a 5b fa bd
       -0.061501812 -0.13070329 0.058410995 -0.12224443
0001f0 5e a5 71 3d 85 01 ba bd d2 bb 32 3e 68 b8 db 3d
       0.058995597 -0.09082321 0.1745446 0.10728532
000200 78 96 3d 3e fd 61 5e 3e ee ce 21 be 4d 92 c6 3d
       0.1851443 0.21717067 -0.15801594 0.096958734
000210 04 62 9a 3b 52 6a c8 3d 40 1c 67 bd 46 0d 52 3e
       0.0047113914 0.09785904 -0.056423426 0.20512876
000220 e3 2b 7b 3d 03 a8 8f bd 16 8c e2 bc 76 17 a4 be
       0.06132115 -0.070144676 -0.027654689 -0.3204915
000230 ef 02 14 3e 8b c5 3b 3d be ae 02 3e c2 5f 8d bd
       0.14454244 0.04584269 0.12761971 -0.0690303
000240 07 4c 38 3d c5 ed 90 3c c1 e9 f3 bd 98 28 41 bd
       0.04499438 0.017691502 -0.119098194 -0.047157854
000250 bb 39 50 3d 3c 02 65 be fa 4a 7b bd ca 43 87 bd
       0.050836306 -0.22364134 -0.0613508 -0.066047266
000260 7e 51 83 3e f3 d2 d1 bd e3 bb f7 bd ae b0 20 3c
       0.2564811 -0.102453135 -0.120963834 0.009807749
000270 b7 1d 8b bb d3 4b d0 bd 23 e2 7e bd 15 0f 96 bd
       -0.0042454856 -0.10170712 -0.06222738 -0.073270954
000280 43 b4 f0 3c aa 13 37 be 5a 6f a3 3d f3 21 a1 3d
       0.02938283 -0.17878595 0.07980223 0.078678034
000290 61 8e 18 be 60 f0 42 3e 6b eb 77 bd 56 54 4e 3d
       -0.14898063 0.19037008 -0.060527246 0.050373398
0002a0 85 e0 35 be 6b 7b 73 3e 24 cf d9 bd e3 3a 08 be
       -0.17761429 0.23777549 -0.10635212 -0.13303714
0002b0 0d b7 1c be eb 3c 25 3c 3d 03 36 bc c3 06 02 3e
       -0.15304203 0.010085325 -0.0111091705 0.12697892
0002c0 89 4a 70 3d 24 5b 70 3d c7 8e 4b 3d 82 d6 f3 bb
       0.058664832 0.05868067 0.04969671 -0.007441343
0002d0 13 72 97 be 10 d6 1d be 4f bf 9c 3d bc 91 d7 3e
       -0.2957922 -0.1541369 0.07653677 0.42103374
0002e0 63 46 13 bd 45 7c 29 be 0f 7e a8 3c 50 f0 a1 bd
       -0.035955798 -0.16551311 0.020567922 -0.07907164
0002f0 a0 f2 20 3e 28 cc 92 3d 53 7d 52 bd c6 2c 25 3e
       0.15717554 0.07167846 -0.05138905 0.16130361
000300 37 c5 99 3d 3d ae 56 be 2d 73 d5 bd 14 e3 82 3e
       0.07508319 -0.20964904 -0.10422359 0.25563872
000310 25 29 2d 3b 8d 46 08 bb c8 3e a5 bc df f5 9c ba
       0.002642223 -0.0020794005 -0.020171538 -0.0011975131
000320 ca c9 e6 bd 39 01 dd bb 2e dc 18 3e 65 22 dc 3d
       -0.11268957 -0.0067445305 0.14927742 0.10748748
000330 f2 32 1e bd 8e 3d 79 be b0 bb 35 be 41 74 af 3d
       -0.038622804 -0.24339887 -0.17747378 0.085670955
000340 51 da 36 3d 5f de 89 bd c1 da f0 3d 24 6b e0 bd
       0.044641796 -0.06731867 0.11760474 -0.109579355
000350 83 c8 eb bd 7c d2 1f 3e de f2 1d bd e2 ea 41 3d
       -0.11512854 0.15607637 -0.038561694 0.047343142
000360 44 2f 28 3d 3f 0e cd bd ab 69 84 3d dd df 33 bd
       0.0410607 -0.10012483 0.06465467 -0.043914665
000370 46 8e 9a 3e cd f5 9c 3d 21 db 3c be 95 e3 dd bc
       0.3018667 0.0766407 -0.18442966 -0.027086059
000380 56 93 c2 bd e2 57 81 be a4 7b 3e 3e ba a4 13 3c
       -0.09500758 -0.25262362 0.18601853 0.009011442
000390 a2 41 b7 bd 14 6d 66 bc e5 67 28 bd 9a 54 9e bc
       -0.08948065 -0.014064092 -0.041114707 -0.01932745
0003a0 74 b6 93 bd 8a 9d 11 bc a8 65 18 bd 25 e3 e8 bd
       -0.072125345 -0.008887658 -0.037206322 -0.113714494
0003b0 26 2d 3d 3b 3a 94 26 bc e1 a6 53 3d b2 2a 32 3d
       0.0028866022 -0.010167176 0.05167282 0.04349775
0003c0 ce eb 0e 3c 7a 38 ba 3c da 98 c6 bd 26 aa 0c be
       0.008723212 0.022732008 -0.09697123 -0.13736781
0003d0 76 e6 2a 3e 6b db 64 be 5e 28 06 3e a5 7e c4 3d
       0.16689476 -0.22349326 0.13101336 0.09594468
0003e0 6c 13 e1 bd 5c 02 05 be 75 32 68 bd b9 e3 00 be
       -0.109900326 -0.12989181 -0.056688745 -0.1258687
0003f0 3d dd 4d 3c f0 b6 07 be fe 93 36 bd 53 53 6a bc
       0.012564954 -0.13253379 -0.04457473 -0.014302093

action_layer.layer1.0.bias f4 [128]
000000 e8 7d a3 3d 30 95 85 bd f2 7c 39 bd e6 73 82 bc
       0.07982999 -0.06522596 -0.045285173 -0.015924405
000010 36 14 e7 bc 2f e1 3c be a3 bc af bd 27 81 6f bd
       -0.02820788 -0.18445276 -0.085809015 -0.05847278
000020 64 0d 85 bd c6 1b 00 be 0d 42 f4 bc 42 2c 1b be
       -0.06496695 -0.12510595 -0.029816652 -0.15153602
000030 f8 0f 78 3d 49 5b af 3c e7 42 ca 3c 4f 5d 7e 3d
       0.060562104 0.021405833 0.024690105 0.062100705
000040 aa 0d 13 be 47 e0 80 3d ff 43 89 bd 8f 8a 90 bd
       -0.14360681 0.062927775 -0.06702422 -0.07057678
000050 ec 4e 08 be 9e 71 1d be 42 cb 9a 3d 66 ac c6 3d
       -0.13311356 -0.15375373 0.075582996 0.09700851
000060 86 4f 23 be 94 de df 3d cb 4c 56 be 1f 56 34 bb
       -0.15948305 0.10931125 -0.20927732 -0.0027517152
000070 de 76 68 bd d7 6f 41 3d a8 14 b3 bd b1 20 47 3d
       -0.056753986 0.0472258 -0.08744174 0.04861516
000080 43 44 43 3d 0e ec 3b bd c3 8a cb 3d ee 73 a5 bc
       0.04767252 -0.045879416 0.09938576 -0.020196881
000090 09 b1 24 bd 42 36 0c bd 4d 06 7e 3d 77 b1 91 bd
       -0.040207896 -0.03423143 0.062017728 -0.07113927
0000a0 77 5a 32 bd 46 b9 64 3d 75 47 f3 bd 38 ee 87 bd
       -0.043543305 0.055840753 -0.11878864 -0.066372335
0000b0 5b c3 4c 3d bd 63 4e bd cb c6 ea bd 66 37 40 3c
       0.049990993 -0.050388087 -0.11463698 0.011731958
0000c0 a0 7b 9e bd 77 1f 38 be 40 76 cc bc 12 94 00 be
       -0.07738423 -0.17980753 -0.02495873 -0.12556484
0000d0 2b 56 c8 bc 73 f6 44 bc ec 29 f0 bd f0 b2 de bd
       -0.02445515 -0.012021649 -0.11726746 -0.10873973
0000e0 3b a3 4e bd a5 2f 1f bd d8 8d 95 3c ed a1 00 bd
       -0.050448637 -0.038863797 0.018256113 -0.031404424
0000f0 50 f3 3c 3d 29 8a ef bd ff de b5 bc 98 71 c3 bd
       0.04613048 -0.11696274 -0.02220106 -0.09543151
000100 87 0a 40 bd 84 e0 c7 bc f9 0a b5 bd 6f c4 12 be
       -0.04688504 -0.02439905 -0.088399835 -0.14332746
000110 2f 17 42 bd 78 a5 c0 bd fb d2 3b 3d 07 96 a5 bd
       -0.04738539 -0.09406561 0.045855504 -0.08085256
000120 7b df 6c bd 44 bc 3a 3d 92 67 86 bd f9 7c 83 bd
       -0.057830315 0.0455897 -0.06562723 -0.06420321
000130 c3 26 80 bc ce 4f 7c 3d 58 9f 1b be cd 69 11 3d
       -0.015643483 0.061599545 -0.15197504 0.03550129
000140 0b 2c 95 bd 73 f1 07 3d c4 7b 83 3c ca 2b fe bd
       -0.07283791 0.03318925 0.016050227 -0.12410696
000150 ac fc f4 bd 3a 54 5c 3b 61 83 92 3c 10 e0 57 3c
       -0.11962256 0.003361954 0.017884912 0.013175979
000160 86 a2 40 3c 6d 0f 60 bb 3d b5 23 3d 10 05 05 be
       0.011757499 -0.0034188882 0.039967764 -0.12990212
000170 4f 70 03 bd 78 7f bb bd 14 86 87 3d 91 80 e8 bc
       -0.032089528 -0.09155172 0.0661737 -0.028381618
000180 26 99 96 bd 57 bc 96 bd 27 b2 80 bd 2a 85 f3 3c
       -0.073534295 -0.07360142 -0.0628398 0.029726584
000190 c2 ab 06 be 27 b9 59 bd 2f 8c d4 bd de 7c 83 bd
       -0.13151458 -0.05315509 -0.103783004 -0.06420301
0001a0 33 0f ba bd b6 13 ee bc 68 75 49 be 16 59 0d be
       -0.0908493 -0.029062133 -0.19673693 -0.13803515
0001b0 f5 1e 4f bd 0a 89 dc bd 15 d9 a7 3d ac 5f 86 bd
       -0.050566632 -0.107683256 0.08195702 -0.06561217
0001c0 8b 37 b2 bd 96 91 19 be d8 ec 0a 3d fb d0 21 bd
       -0.08702 -0.14996943 0.033917278 -0.03950594
0001d0 a0 44 c4 bd 2a 7c c9 3a c7 c3 a8 3c 0e fe f5 3b
       -0.09583402 0.0015372087 0.020601166 0.0075070923
0001e0 25 cf 1a 3c 27 50 44 3c ac c0 18 be 61 69 35 3d
       0.009448801 0.011982 -0.14917248 0.04428995
0001f0 3f fb ae 3d 96 43 9c bd ce 67 e2 bd e1 43 a2 bd
       0.08544015 -0.076300785 -0.110549554 -0.07923103

action_layer.layer1.1.weight f4 [2, 128]
000000 63 e8 fb bd 79 96 cc 3d ca c9 ce be 7b b8 11 be
       -0.123001836 0.09989638 -0.40388328 -0.1423053
000010 68 17 b9 3d c2 cc bf 3d c3 49 66 3e 61 8b a8 be
       0.090376675 0.09365226 0.22489075 -0.32918838
000020 df 53 37 bd 6c e7 18 3d 1b 93 76 3d 89 2e e6 3d
       -0.04475772 0.037330076 0.060198884 0.112393446
000030 f3 b7 a5 be 7d 69 88 bd aa 5b 7e bd e6 66 fe 3c
       -0.32366905 -0.06660745 -0.062099136 0.031054925
000040 cf 51 36 3e e6 98 05 be 0e ec b1 3e f5 f6 94 3d
       0.17804645 -0.13046607 0.34750408 0.07273666
000050 46 64 a1 be 3a df b6 3d 2c 79 df bc 72 a5 f6 bd
       -0.31521815 0.08929296 -0.027279459 -0.12043275
000060 14 a7 cc 3d 99 e5 82 3d 57 5f af 3d c7 76 25 3d
       0.09992805 0.063914485 0.085631065 0.040396478
000070 61 f4 4f 3d 57 23 97 bd 8e 0b 22 be 38 a0 09 3e
       0.050770167 -0.073797874 -0.1582472 0.13440025
000080 48 61 bd bd c7 61 58 be 3f e7 e0 3d f6 64 9e bd
       -0.092470706 -0.21131049 0.10981607 -0.077341005
000090 79 f3 03 be e5 2a 8e 3e 51 f0 0d be fd 8e 84 bd
       -0.12885846 0.277671 -0.13861205 -0.06472585
0000a0 68 92 83 be 2b 94 e6 3d 07 5b 2b be 07 8c 63 3e
       -0.25697637 0.112587295 -0.16733943 0.22221385
0000b0 50 96 c4 bd a8 02 cc 3e c1 9e 4d be d9 78 f3 3d
       -0.09598982 0.39845777 -0.20080091 0.11888284
0000c0 75 60 ec be 2a 20 b9 3d e8 73 f7 3d 19 9f fb bd
       -0.4616734 0.09039338 0.12082654 -0.12286205
0000d0 19 9e 8a bd b4 b1 40 be cc 2a 39 3c 6a e3 16 3e
       -0.06768436 -0.18817788 0.0113017075 0.14735189
0000e0 9e c3 2e 3e 6a f2 95 bd 29 8b 39 3e 23 73 a4 3d
       0.1706681 -0.073216274 0.18119492 0.08029773
0000f0 c7 4d 09 be 8e d3 65 be ed 93 38 3e 89 2f f5 bd
       -0.13408576 -0.22443983 0.18025179 -0.11971957
000100 00 01 fb 3d b6 35 f8 bd f1 7b 73 be c7 3f bd bd
       0.1225605 -0.121196195 -0.23777749 -0.0924068
000110 f8 e7 fb 3d e8 78 f1 bd 80 19 4c bd 41 c2 41 3e
       0.12300104 -0.11790639 -0.049829006 0.18921758
000120 bd 4a 8d bd a1 46 26 be 3b 4e 54 bd f2 0f 8f 3e
       -0.06899021 -0.1623788 -0.05183242 0.27941853
000130 19 04 a0 3d a8 d4 5f be 72 40 5c bb 3d 92 be 3c
       0.078132816 -0.21858466 -0.0033607748 0.023263091
000140 7d 33 a4 be 45 f2 48 bd 42 dc 36 3e 31 14 25 3e
       -0.32070532 -0.04905917 0.17857459 0.16120984
000150 92 42 7f 3d b7 88 ad bd eb 39 0f bd fb 71 41 bd
       0.062319346 -0.08473342 -0.034967344 -0.04722784
000160 cf 59 a8 3c 54 e1 b7 bc ad ff 01 bd 3b 0b a3 3e
       0.020550637 -0.022446312 -0.031737972 0.31844506
000170 83 50 a0 bc 52 2e 50 bd b2 4f 1a bd b3 38 8a bd
       -0.019569641 -0.050825424 -0.03767366 -0.06749096
000180 6e 64 4c 3d 97 55 16 be 13 4f ae bd ab f2 2d bd
       0.049900465 -0.14681087 -0.08511176 -0.042467754
000190 db 1e a2 3d 69 1a 96 be c0 03 43 bd f8 f1 2e 3c
       0.079160415 -0.29317024 -0.047611 0.010677807
0001a0 a0 98 48 bc 82 42 6e 3e 93 7d 83 be a1 cb ab 3d
       -0.01224342 0.23267558 -0.25681743 0.083884485
0001b0 9d fe d0 3d a2 49 04 be b7 65 07 3d 5b 5c 1a be
       0.10204814 -0.12918714 0.033055987 -0.15074293
0001c0 3d 84 9d 3b 74 5c 11 3d 49 40 bc bd 2b e1 88 bc
       0.004807024 0.03548856 -0.09191949 -0.016708931
0001d0 29 66 bc 3c 52 e9 8f be c6 24 0e be dd 43 aa bd
       0.022997933 -0.28107697 -0.13881215 -0.08313725
0001e0 0a af 42 bd cc 84 9d 3d cc 6d e2 3d ac 0c 9d b9
       -0.04753021 0.076913446 0.11056098 -0.00029954815
0001f0 0a df c0 bd 21 75 84 3d c1 ec 11 3e 43 ac 58 be
       -0.09417541 0.06467653 0.1425047 -0.21159463
000200 b7 36 87 3c 75 46 29 3c 10 6e b9 3d 1b c1 59 be
       0.016505582 0.01033174 0.09054196 -0.2126507
000210 13 81 2f bd 66 9b 91 3e 61 3d 7e 3d b2 71 30 bd
       -0.042847704 0.28438872 0.062070254 -0.04307718
000220 3f 2b d9 bd a8 94 b4 bd 22 9f 38 be 41 af 30 3b
       -0.10603952 -0.088174164 -0.18029454 0.0026959928
000230 4d 96 6c 3d cf 20 27 3d 7c 5f a9 bc a9 18 d8 3d
       0.057760525 0.040802773 -0.020675413 0.105515786
000240 d9 b2 b7 bd f0 0f 86 bc ae f3 93 3e 74 7e 96 3e
       -0.08969659 -0.016365021 0.2889685 0.2939335
000250 0e 83 6d be 5b 53 a3 3c 0b 0f 04 3e a5 49 f8 bc
       -0.23194525 0.019937208 0.12896363 -0.030308554
000260 dc 60 d1 be 0f eb b4 3d 8c 49 fa 3d 1a cb 90 bd
       -0.4089421 0.08833896 0.12221059 -0.070699885
000270 9d 7e 9a be 8a 64 65 3c 98 0c 5c be 60 3a 96 3c
       -0.30174723 0.014001021 -0.21489179 0.018338382
000280 5c 55 04 be 45 26 8c bc de d8 d6 bb 8a 14 48 3e
       -0.12923187 -0.017108092 -0.0065566143 0.19539085
000290 01 e9 af 3e a4 10 4c 3e 4f 02 c8 3e 53 35 e3 3d
       0.34357455 0.19928223 0.3906426 0.11094155
0002a0 d5 06 a3 bd e7 d1 0a be 29 d0 92 be 85 62 51 bc
       -0.079602875 -0.13556634 -0.2867444 -0.012779837
0002b0 67 7f 92 bc 8a 79 5f 3e dc a1 5f bd 0c e1 dc 3d
       -0.017883016 0.21823707 -0.05459772 0.10785112
0002c0 4c 27 21 bd c4 35 da 3d 45 a1 0b bd 8c 9d 70 3e
       -0.039344117 0.10654786 -0.034089345 0.234976
0002d0 33 b3 9c 3e f7 62 67 3d 1a ca aa be db 77 51 bd
       0.30605468 0.056490865 -0.33357316 -0.051139694
0002e0 4c 62 f9 3c d9 cd a2 3e 34 ad 85 bd d5 ac 15 be
       0.03044238 0.31797674 -0.065271765 -0.14616711
0002f0 c4 cc 80 bc bc 96 65 bc 6c 4e 6c bc 06 03 f7 bd
       -0.01572264 -0.014012989 -0.014422994 -0.120611235
000300 b5 8e b2 bd 16 d0 4d be 2f 44 48 be 31 54 85 bd
       -0.087186255 -0.2009891 -0.1955726 -0.06510199
000310 80 37 90 be 7b bb 3a 3d 24 fd 2a 3d a9 f9 b4 bd
       -0.28167343 0.04558895 0.04174532 -0.088366814
000320 e5 13 66 bd cd 4f 89 be 84 63 6d be 62 6c fe 3d
       -0.056171317 -0.26818696 -0.23182493 0.12423016
000330 f9 1a 33 bc 9c 2b 09 bd 0f 7d 43 be 73 f8 9f bd
       -0.010931724 -0.033488855 -0.19090675 -0.0781106
000340 46 9b 8f 3d 34 52 ec bd 25 5d 49 3c 1a eb d4 3e
       0.07012038 -0.115391165 0.012290274 0.41585618
000350 38 1c b2 bd b5 ee 84 bd 34 c9 06 be c9 a7 ba bd
       -0.086967885 -0.06490842 -0.1316269 -0.09114034
000360 a0 54 0b be 3f 1b 60 3e 00 ac 89 3e 5a 7c 41 3d
       -0.136065 0.21885394 0.26889038 0.04723773
000370 d4 99 0f 3e 62 66 07 3e 02 7f 76 bd bb e1 6d 3d
       0.14023525 0.1322265 -0.060179718 0.0580766
000380 eb e9 35 3e 5c b1 d7 3e 2c 7c 92 3e a1 56 ac bd
       0.17765014 0.42127502 0.2861036 -0.08414961
000390 27 40 48 bd c3 fd 1c be 3f 0e ad 3d f7 65 a1 3e
       -0.048889305 -0.15331177 0.08449983 0.31523106
0003a0 17 35 43 be df 42 ac bc f6 04 6a 3e 55 cb 22 bd
       -0.19063221 -0.02102798 0.22853455 -0.039744694
0003b0 d5 37 01 3e 7f 3c 92 be c5 9a 50 3d 35 2b f3 bd
       0.12618954 -0.2856178 0.05092885 -0.118734755
0003c0 94 a2 3d be 4f 74 d0 3d 8d 1e 05 bc fb 64 b2 be
       -0.1851905 0.10178434 -0.00812496 -0.34842667
0003d0 5b b8 af 3d 58 4b e6 bc a1 b5 f4 3c 30 7e 9b 3e
       0.08580085 -0.028112099 0.029871764 0.3036971
0003e0 71 18 b9 be 81 68 be 3e 49 a5 2a 3e e4 62 83 be
       -0.3615146 0.37189105 0.16664614 -0.25661385
0003f0 d9 5d 21 bc a2 af fa 3d 7b 89 23 be ea c6 eb ba
       -0.009849035 0.122405306 -0.15970413 -0.0017988358

action_layer.layer1.1.bias f4 [2]
000000 32 5d 06 3c 2b ff c8 ba
       0.00820093 -0.0015334835
