HGAT-MADDPG_ver2/ModelBuffer/model_1000.pt (torch, 369835 bytes, 33 tensors)

encoding_layer.layer.0.weight f4 [64, 180]
-0.05468637 -0.006415706 0.01735876 0.010743268 0.022753129 -0.014049173 -0.03886456 0.033730604
-0.1317042 -0.12311911 0.062254682 -0.06502544 0.04761297 0.0048609427 0.0046799914 -0.05384896
0.026819594 -0.045120742 0.0140966335 0.084591754 0.061965935 0.016098317 0.05882666 0.017176697
0.120059796 0.018632375 0.09933224 0.01210257 -0.06478231 0.040139034 -0.04826371 0.014835145
0.00759201 0.003554064 0.06577252 0.15059908 -0.08847583 -0.23257962 -0.10133812 -0.11636984
0.030301416 0.21215105 0.038261812 -0.07195994 -0.0088137835 0.08541954 0.10054815 -0.19712184
-0.1465078 -0.22176109 0.117228545 -0.06209072 0.018439375 0.0614959 0.036753852 -0.22208644
-0.078947455 -0.017909829 -0.040238645 -0.076092325 -0.20868215 -0.03205539 0.003948038 -0.11143559
-0.07704917 0.03511963 -0.05429093 -0.06265274 -0.21298555 -0.16022637 -0.06117337 -0.02151717
-0.03858551 0.012326359 0.013732348 -0.023425426 0.16808434 0.036043014 -0.040832143 0.04527436
-0.03903097 0.005146079 0.02005117 0.0041616806 0.026900398 -0.01611725 -0.08012345 -0.036117192
0.08710706 0.14284398 0.07895846 -0.0778448 -0.041784532 0.043728285 0.13743003 0.10505314
-0.029273596 0.03585531 0.05132903 -0.01361295 -0.0072485325 0.08008368 -0.034905523 0.033807505
0.01761001 -0.06068682 -0.029436098 0.045092683 0.04401394 0.03377251 -0.0020709177 -0.1161375
-0.044325203 0.010832767 0.03419155 -0.07632566 0.09498152 -0.09640748 -0.024509974 0.11328647
-0.12885736 -0.04908485 -0.051590387 0.06616772 -0.043249007 0.06937631 0.061610557 0.008266569
-0.15524091 -0.16184449 -0.07253602 -0.07280619 0.03499158 -0.098817624 0.058922306 0.042628728
0.09913216 -0.005851379 0.030650832 -0.026064208 0.037004612 -0.09726197 -0.08625187 -0.048525795
0.049121067 0.0066503263 -0.049564376 -0.032334726 0.05388369 0.027266337 -0.02672207 -0.03845874
0.019758122 -0.06236746 -0.0808655 -0.109903954 0.036988907 -0.048148435 -0.07637804 -0.057080735
-0.017789157 0.06500276 0.0026390096 0.030915443 0.08014839 -0.0075687026 0.06990554 0.038541507
0.012302249 -0.024642013 -0.020138742 0.07921777 0.009166551 -0.029594716 -0.015930882 0.047621377
-0.005590952 -0.0051277042 0.24779285 0.008867601 0.06681491 0.0800487 -0.07435978 -0.094688825
0.044532586 -0.013021288 -0.1944819 -0.0038614348 -0.010464712 -0.0012151505 -0.09102819 -0.021860601
-0.16754232 -0.067969166 0.04026792 0.035268497 0.0054443 -0.013159555 0.054917898 0.12871596
-0.003373681 0.010124461 0.08137921 0.07586299 0.01983771 -0.011831082 -0.08721411 0.027008636
0.2066644 -0.037094582 0.048434038 -0.01331086 -0.14396158 -0.10226773 -0.10970854 0.15964827
0.104276516 -0.005411631 0.109269656 -0.022942288 0.06866178 -0.072177775 -0.07538897 0.17349821
0.0738383 0.042556982 0.07303379 -0.023050733 0.043877065 -0.0057751792 -0.00752103 0.06616482
0.012029348 0.018808028 0.044502717 0.033271335 0.04727611 0.013654008 0.07339302 -0.02065529
-0.20843363 0.17723791 -0.0109348195 0.10203008 0.115944736 0.061082736 -0.050148975 -0.0762065
-0.07915143 -0.035025388 -0.10627341 -0.018678362 -0.06779264 -0.07506184 -0.07642259 -0.0468679
00000000: d1fe 5fbd d83a d2bb f533 8e3c 8804 303c
00000010: c564 ba3c 812e 66bc 7230 1fbd 1a29 0a3d
00000020: 77dd 06be df25 fcbd c4fe 7e3d 0f2c 85bd
00000030: d105 433d 8b48 9f3b 9d5a 993b ba90 5cbd
00000040: c4b4 db3c 87d0 38bd 91f5 663c 713e ad3d
00000050: fecf 7d3d 9ee0 833c 39f4 703d 25b6 8c3c
00000060: e9e1 f53d eca2 983c b46e cb3d dc49 463c
00000070: 96ac 84bd d468 243d 2bb0 45bd 1c0f 733c
00000080: 65c6 f83b 4deb 683b beb3 863d a536 1a3e
00000090: d132 b5bd 5a29 6ebe 5c8a cfbd 5053 eebd
000000a0: ad3a f83c 203e 593e 6bb8 1c3d bc5f 93bd
000000b0: b067 10bc 71f0 ae3d 30ec cd3d 4fda 49be
000000c0: 2406 16be 5715 63be 8515 f03d d752 7ebd
000000d0: 2c0e 973c 20e3 7b3d 358b 163d a16a 63be
000000e0: 34af a1bd a2b7 92bc 47d1 24bd 4bd6 9bbd
000000f0: c6b0 55be 834c 03bd 8b5e 813b 5838 e4bd
00000100: f5cb 9dbd 9ad9 0f3d 2b60 5ebd 1450 80bd
00000110: e218 5abe 6212 24be ed90 7abd c744 b0bc
00000120: d70b 1ebd 7ff4 493c a4fd 603c aee6 bfbc
00000130: 4d1e 2c3e d7a1 133d 9b3f 27bd 9b71 393d
00000140: f0de 1fbd 71a0 a83b 5a42 a43c b55e 883b
00000150: 395e dc3c 5308 84bc c317 a4bd 9fef 13bd
00000160: 3065 b23d b145 123e f9b4 a13d 186d 9fbd
00000170: 4226 2bbd 6e1c 333d 75ba 0c3e 1a26 d73d
00000180: 2ecf efbc 04dd 123d 643e 523d da08 5fbc
00000190: 1985 edbb ea02 a43d 18f9 0ebd bd79 0a3d
000001a0: de42 903c be92 78bd f923 f1bc 1bb3 383d
000001b0: f647 343d 0b55 0a3d 3cb8 07bb 7fd9 edbd
000001c0: 588e 35bd eb7b 313c 700c 0c3d a150 9cbd
000001d0: ac85 c23d 4971 c5bd 24c9 c8bc bd02 e83d
000001e0: 2ff3 03be 320d 49bd 7150 53bd f182 873d
000001f0: df25 31bd 2b15 8e3d 5a5b 7c3d 8170 073c
00000200: 79f7 1ebe 90ba 25be c48d 94bd 691b 95bd
00000210: 5553 0f3d e560 cabd 8458 713d 769b 2e3d
00000220: cd05 cb3d edbc bfbb 7417 fb3c 9b84 d5bc
00000230: 2692 173d 4931 c7bd d2a4 b0bd fcc2 46bd
00000240: 2c33 493d fbea d93b 0404 4bbd 6b71 04bd
00000250: 25b5 5c3d a75d df3c 3ee8 dabc e986 1dbd
00000260: c9db a13c 0675 7fbd d09c a5bd 5315 e1bd
00000270: ae81 173d 4b37 45bd 176c 9cbd 7dcd 69bd
00000280: 91ba 91bc 2b20 853d 3cf3 2c3b 6242 fd3c
00000290: d724 a43d e102 f8bb a32a 8f3d b3dd 1d3d
000002a0: 5f8f 493c 0cde c9bc 01fa a4bc ed3c a23d
000002b0: 4d2f 163c 9e70 f2bc 7b81 82bc a20e 433d
000002c0: 4e34 b7bb 4d06 a8bb 69bd 7d3e 6a49 113c
000002d0: 41d6 883d 93f0 a33d f149 98bd 37ec c1bd
000002e0: cd67 363d 3e57 55bc 4326 47be 2010 7dbb
000002f0: 2f74 2bbc af45 9fba fd6c babd 0115 b3bc
00000300: 3790 2bbe 6b33 8bbd f9ef 243d b375 103d
00000310: 1966 b23b 2d9b 57bc 97f1 603d 1ece 033e
00000320: fa18 5dbb 11e1 253c 25aa a63d 0e5e 9b3d
00000330: b182 a23c 28d7 41bc 509d b2bd 3741 dd3c
00000340: d59f 533e 7df0 17bd c562 463d cb15 5abc
00000350: aa6a 13be be71 d1bd dfae e0bd d67a 233e
00000360: ed8e d53d 0d54 b1bb c5c8 df3d 77f1 bbbc
00000370: 8c9e 8c3d f1d1 93bd 8865 9abd 84a9 313e
00000380: 8938 973d 3b50 2e3d bd92 953d e4d4 bcbc
00000390: 70b8 333d b73d bdbb f972 f6bb 6c81 873d
000003a0: be16 453c 4b13 9a3c 7b48 363d 8647 083d
000003b0: 98a4 413d 0fb5 5f3c 144f 963d 4835 a9bc
000003c0: a06f 55be db7d 353e f527 33bc 26f5 d03d
000003d0: 6f74 ed3d e431 7a3d 0369 4dbd 2712 9cbd
000003e0: 251a a2bd c876 0fbd e0a5 d9bd 5d03 99bc
000003f0: ded6 8abd 06ba 99bd 7283 9cbd 8ef8 3fbd

encoding_layer.layer.0.bias f4 [64]
0.060005914 -0.024724705 0.03465962 -0.025652347 -0.02649955 0.08732483 0.030723834 -0.04554532
0.03212652 -0.04039632 -0.0726314 -0.085247554 -0.0077261794 0.037567567 -0.014334771 -0.023445321
-0.018069506 -0.018632451 0.025993217 0.040792927 -0.03190405 -0.01241274 -0.06638901 -0.016902199
-0.03891252 -0.070982605 0.06295358 -0.02141927 0.053597778 -0.015147279 0.022004267 -0.071681075
0.04160289 0.044933267 -0.00033572255 0.009949589 0.0060943533 -0.096907236 -0.09132595 -0.045690574
0.059667226 -0.00044331755 0.013772693 0.060778428 -0.014234321 0.027073724 0.010697343 0.0139033105
-0.08770717 -0.007858395 -0.004639217 -0.0022593199 0.024061292 0.038815092 -0.0009299284 0.059299316
0.001902729 -0.061143328 0.033936806 0.053160284 -0.054131817 -0.021107262 -0.06065774 0.031510603
00000000: c3c8 753d 778b cabc 3ff7 0d3d df24 d2bc
00000010: 9615 d9bc 5cd7 b23d 8db0 fb3c bb8d 3abd
00000020: 1997 033d 9d76 25bd c5bf 94bd 4596 aebd
00000030: e42b fdbb 73e0 193d 63dc 6abc 6710 c0bc
00000040: 8006 94bc 15a3 98bc baef d43c 7c16 273d
00000050: d2ad 02bd ce5e 4bbc f6f6 87bd 7b76 8abc
00000060: bc62 1fbd 545f 91bd ceed 803d 7777 afbc
00000070: 5889 5b3d 4b2c 78bc 4b42 b43c 87cd 92bd
00000080: cb67 2a3d f20b 383d eb03 b0b9 9a03 233c
00000090: 24b3 c73b 4d77 c6bd 1a09 bbbd 0a26 3bbd
000000a0: 9f65 743d 136d e8b9 dda6 613c cdf2 783d
000000b0: 1237 69bc b7c9 dd3c e943 2f3c b6ca 633c
000000c0: d19f b3bd 7fc0 00bc 9304 98bb 1911 14bb
000000d0: 301c c53c 93fc 1e3d 70c6 73ba d7e3 723d
000000e0: fe64 f93a 6d71 7abd 5201 0b3d 99be 593d
000000f0: 53b9 5dbd 23e9 acbc 4074 78bd 4311 013d

relational_layer.layers.0.att_src f4 [1, 1, 64]
0.077225566 0.108092144 -0.2976464 0.08649268 -0.29068798 -0.22618927 0.348374 0.1912555
0.1567288 -0.58538 0.22246978 -0.38176453 0.15960865 0.13905515 0.40410763 -0.010919196
-0.2688707 0.2640437 0.46163058 -0.38059822 0.0660329 -0.115882106 -0.07614726 0.2756082
-0.05145123 -0.27588272 -0.39867046 0.19842254 0.113007724 -0.4224614 -0.26284757 -0.09335363
0.19798754 0.1095714 0.47210827 -0.30299658 0.15956806 -0.044186264 -0.28754306 0.10905398
0.23371252 -0.2034382 -0.102004014 0.09194689 0.5720831 -0.14948618 0.14835747 0.44291955
-0.39773718 -0.2404238 0.059958503 0.27510828 0.21403892 -0.016187493 -0.31362695 0.19696318
-0.2095066 -0.2637921 -0.2309356 -0.047441803 -0.04128659 0.18178202 0.3233123 0.33828694
00000000: 7028 9e3d 6a5f dd3d 1c65 98be 1323 b13d
00000010: 0ed5 94be 299e 67be 145e b23e 7bd8 433e
00000020: 847d 203e 77db 15bf 1ecf 633e a476 c3be
00000030: 7370 233e 7964 0e3e 32e7 ce3e 6de6 32bc
00000040: 6ca9 89be bc30 873e d85a ec3e c5dd c2be
00000050: 423c 873d 9953 edbd 18f3 9bbd 851c 8d3e
00000060: 86be 52bd 8040 8dbe 891e ccbe 472f 4b3e
00000070: 9870 e73d dc4c d8be f593 86be 3030 bfbd
00000080: 3fbd 4a3e f866 e03d 2db8 f13e 5e22 9bbe
00000090: cf65 233e a8fc 34bd d838 93be b157 df3d
000000a0: 5652 6f3e 1a52 50be 7be7 d0bd a74e bc3d
000000b0: 0a74 123f e812 19be 05eb 173e 5ac6 e23e
000000c0: 35a4 cbbe a831 76be 0c97 753d feda 8c3e
000000d0: 052d 5b3e a29b 84bc b693 a0be b7b0 493e
000000e0: e688 56be c20f 87be 627a 6cbe 5652 42bd
000000f0: 211c 29bd 1125 3a3e 3189 a53e f233 ad3e

relational_layer.layers.0.att_dst f4 [1, 1, 64]
-0.4554169 -0.12917298 0.3506474 -0.24831115 -0.36811385 0.07191934 -0.21751107 -0.33863294
0.31490418 -0.25813636 -0.19518197 0.08755878 0.37726155 -0.15575291 -0.09427347 0.054240394
-0.2106186 -0.112612896 0.008822197 0.10750373 0.14519092 -0.03868206 -0.004536004 -0.018101556
-0.25357038 0.1411571 0.14019305 0.08192229 0.044008207 -0.18564117 -0.58268094 -0.21216616
0.34454033 -0.06199258 -0.28653404 0.20216873 0.2425119 0.34384498 0.048383776 0.037740234
-0.22138275 -0.3398281 0.22873713 0.24052049 0.27299264 0.2579606 -0.04699641 -0.16096964
0.021159342 -0.093138956 -0.14380628 -0.18437515 -0.41471016 -0.3234972 -0.18446638 -0.34856817
-0.42131346 -0.41735408 -0.04874596 0.30032665 -0.22329159 -0.3356748 -0.31435126 -0.558118
00000000: 672c e9be ec45 04be 0e88 b33e 4745 7ebe
00000010: 6b79 bcbe 724a 933d 39bb 5ebe 4c61 adbe
00000020: 1f3b a13e 732a 84be c8dd 47be 0552 b33d
00000030: 6d28 c13e b17d 1fbe 7312 c1bd 2d2b 5e3d
00000040: 67ac 57be 97a1 e6bd fa8a 103c ea2a dc3d
00000050: eeac 143e 1471 1ebd c2a2 94bb b749 94bc
00000060: fad3 81be 7d8b 103e c48e 0f3e e0c6 a73d
00000070: f341 343d b818 3ebe 942a 15bf 1642 59be
00000080: 9767 b03e eeeb 7dbd 97b4 92be 5205 4f3e
00000090: 0a55 783e 730c b03e 112e 463d 8195 1a3d
000000a0: 29b2 62be f3fd adbe 113a 6a3e 014b 763e
000000b0: b1c5 8b3e 6913 843e 4f7f 40bd 3ad5 24be
000000c0: 5b56 ad3c a3bf bebd f441 13be d7cc 3cbe
000000d0: e454 d4be 6da1 a5be c1e4 3cbe 8777 b2be
000000e0: 66b6 d7be 6faf d5be d8a9 47bd 6ac4 993e
000000f0: 8da6 64be 91dd abbe a6f2 a0be d2e0 0ebf

relational_layer.layers.0.bias f4 [64]
0.047143385 0.0053018574 -0.059813596 0.022710145 -0.04014629 -0.00034420533 -0.014407071 -0.008711858
-0.057804942 -0.024528872 -0.06257201 0.062226154 -0.06875802 0.04733928 -0.020328013 0.008283698
0.08785205 -0.024709696 0.011910274 0.029513126 -0.11790481 0.039184965 -0.112693414 -0.06242028
0.045753937 0.019337611 0.027872356 -0.019295301 -0.0026433617 0.056661684 -0.0018096179 0.07675952
0.012797564 -0.0060147555 -0.06369773 0.018224487 -0.012953967 -0.054700147 0.02138505 -0.0017090209
-0.029089455 -0.03564497 0.01398263 0.026678782 0.026366567 0.0061800876 0.002576362 -0.024460323
0.016409347 -0.0022434462 0.021918578 0.01239385 -0.033152245 -0.04812362 -0.006845319 -0.06889473
0.06351222 -0.05945137 -0.009864308 0.027880589 0.023523223 -0.01971336 -0.041953534 -0.015249748
00000000: 6c19 413d 34bb ad3b 1aff 74bd a00a ba3c
00000010: 7070 24bd 7576 b4b9 a30b 6cbc 2ebc 0ebc
00000020: e0c4 6cbd c6f0 c8bc c125 80bd dae0 7e3d
00000030: 01d1 8cbd d5e6 413d ef86 a6bc 59b8 073c
00000040: c7eb b33d fd6b cabc 4f23 433c 83c5 f13c
00000050: 1478 f1bd 6a80 203d cecb e6bd 68ac 7fbd
00000060: 7b68 3b3d e969 9e3c 9154 e43c 2e11 9ebc
00000070: 403c 2dbb 1516 683d b330 edba 1834 9d3d
00000080: e0ac 513c 6d17 c5bb f573 82bd 854b 953c
00000090: e03c 54bc 430d 60bd b32f af3c 3a01 e0ba
000000a0: 024d eebc 7600 12bd 6717 653c 768d da3c
000000b0: b3fe d73c 5582 ca3b 2fd8 283b 0461 c8bc
000000c0: e56c 863c c806 13bb 978e b33c 930f 4b3c
000000d0: a6ca 07bd 461d 45bd b34e e0bb ae18 8dbd
000000e0: b212 823d 4883 73bd e89d 21bc d565 e43c
000000f0: c6b3 c03c ea7d a1bc 78d7 2bbd 14da 79bc

relational_layer.layers.0.lin_src.weight f4 [64, 64]
-0.106734686 -0.11574289 0.2615324 -0.36342874 0.14384645 -0.030066384 -0.068889126 -0.2491554
0.027714811 0.19377792 0.067242734 0.020198138 -0.23661377 0.019511858 -0.18929316 0.009251771
0.16219777 -0.045409787 -0.30892816 -0.12437337 -0.13445115 -0.024942579 -0.23321146 0.038113557
-0.14698774 -0.015405812 -0.021503584 -0.12242264 0.20389007 0.050909065 0.11144266 -0.1851374
0.026389183 -0.23389369 -0.04475947 -0.208907 0.04726047 0.12356851 -0.06442015 0.118624404
-0.02868891 -0.21480975 0.081585616 -0.060253695 0.180729 -0.24947809 -0.17281479 0.024231806
-0.18520832 0.008121733 -0.1658508 0.14123067 0.093276285 -0.12688701 0.051373005 -0.1348091
0.10360431 0.2976079 -0.27761292 0.0031864138 -0.118217155 -0.20193951 0.23181064 -0.2075134
0.020531164 -0.22894116 -0.18878415 -0.04808787 -0.13412043 0.09403479 0.13283084 -0.16737305
0.18324211 -0.16414495 -0.015506286 0.093609236 0.042114723 0.31297043 0.020008907 0.10313781
-0.13379334 -0.20949149 0.18224025 0.034419574 -0.064810835 -0.077828825 -0.11331102 -0.13722643
0.056640454 0.053842664 0.061895095 0.16296239 0.061102975 0.0836275 0.12238042 -0.19160642
0.0059266933 0.15500507 0.03045951 0.078522205 -0.08609513 -0.07228362 0.036523286 0.15355435
0.021353375 -0.04929788 0.07886445 -0.08492265 -0.0037428294 0.122130536 -0.026901823 -0.13672389
0.10238544 -0.008649228 0.012263293 -0.12198043 -0.004655756 0.00851873 -0.07690235 0.25936297
-0.07109927 0.3318849 -0.13171363 -0.022531617 -0.1363518 -0.1542786 -0.04493142 -0.07504959
-0.11721008 0.026772046 -0.21265826 0.19585587 -0.22354987 -0.036630716 -0.14055283 0.23772612
-0.20210975 0.10938115 0.06965492 0.13452017 0.07873629 0.08773971 0.13403592 0.18946086
-0.26054722 0.058321323 0.09462592 0.072373256 0.013854105 -0.2500354 0.07811939 -0.08910286
0.042412896 -0.2595757 -0.010177099 0.09372057 -0.14227496 0.3526774 -0.029431922 -0.11750445
-0.06601114 0.17602992 0.04666077 0.03717521 -0.0049915984 -0.119356535 0.18038638 -0.20336902
-0.12073084 0.18313731 0.032389455 0.10610451 -0.08965221 0.030677315 0.030609857 -0.10371572
-0.051897705 -0.106846035 -0.07194256 0.10395961 0.122776896 0.07555624 0.33167535 0.001870935
0.07672766 0.050424736 -0.018390588 -0.08322875 -0.119195685 -0.11532134 0.0658701 -0.13570714
-0.16671339 -0.0111334575 0.11648581 -0.14240304 -0.12379254 -0.10944191 -0.07582102 -0.046642732
-0.06575207 -0.052475125 0.0908872 0.09744963 -0.079165995 -0.30813825 -0.10036202 -0.014617394
-0.06019066 -0.065005586 0.021419646 0.12578653 -0.18489756 -0.16781954 0.06329619 0.15793729
0.0015991651 0.3226339 -0.15762681 -0.19387208 0.27351123 0.10715591 -0.026367681 -0.12467755
0.028302904 0.17511697 -0.2929634 0.013587667 -0.070070125 -0.19185005 -0.30279514 0.015767679
-0.05395441 -0.07195413 -0.10951327 -0.041772656 0.14542411 -0.21786979 0.009761828 -0.08822943
-0.1142066 0.07493657 0.10405587 0.24379948 0.14437585 0.04327195 -0.03955456 -0.15402919
-0.13687399 -0.15726349 0.07564103 -0.107235424 0.026454542 -0.25618145 0.23097175 -0.18114528
00000000: b797 dabd 9c0a edbd 93e7 853e 5513 babe
00000010: 7c4c 133e c74d f6bc be15 8dbd 9822 7fbe
00000020: 2c0a e33c b86d 463e 8fb6 893d 9176 a53c
00000030: e14a 72be 55d7 9f3c 11d6 41be bd94 173c
00000040: 2c17 263e 9dff 39bd d52b 9ebe 77b7 febd
00000050: 90ad 09be 6154 ccbc fcce 6ebe f61c 1c3d
00000060: f483 16be a968 7cbc 4928 b0bc b9b8 fabd
00000070: 8fc8 503e 0686 503d 0d3c e43d a994 3dbe
00000080: 212e d83c d481 6fbe b555 37bd b7eb 55be
00000090: 3294 413d 7d11 fd3d b6ee 83bd 5af1 f23d
000000a0: 0105 ebbc 16f7 5bbe 5c16 a73d 94cc 76bd
000000b0: 0611 393e 2f77 7fbe 5cf6 30be c881 c63c
000000c0: 40a7 3dbe 0411 053c cbd4 29be c69e 103e
000000d0: a307 bf3d abee 01be 806c 523d 660b 0abe
000000e0: 7f2e d43d 1060 983e 4823 8ebe 27d3 503b
000000f0: d61b f2bd 3bc9 4ebe c55f 6d3e 657e 54be
00000100: f930 a83c 8d6f 6abe a250 41be c9f7 44bd
00000110: de56 09be 5095 c03d cf04 083e d763 2bbe
00000120: d2a3 3b3e 9d15 28be 140e 7ebc 33b6 bf3d
00000130: 7d80 2c3d a93d a03e b8e9 a33c eb39 d33d
00000140: 1f01 09be f084 56be 309d 3a3e 8afb 0c3d
00000150: 8bbb 84bd b864 9fbd 9c0f e8bd 1685 0cbe
00000160: d2ff 673d 208a 5c3d b685 7d3d 9ddf 263e
00000170: 1d47 7a3d e544 ab3d 96a2 fa3d 7934 44be
00000180: b534 c23b a6b9 1e3e 3986 f93c 40d0 a03d
00000190: a552 b0bd 6f09 94bd 7199 153d 5a3d 1d3e
000001a0: 46ed ae3c 93ec 49bd af83 a13d edeb adbd
000001b0: 424a 75bb 931f fa3d 3661 dcbc 5901 0cbe
000001c0: 75af d13d 7eb5 0dbc fbeb 483c e0d0 f9bd
000001d0: 508f 98bb 2592 0b3c fb7e 9dbd 39cb 843e
000001e0: 7e9c 91bd d1ec a93e f0df 06be 3a94 b8bc
000001f0: ce9f 0bbe 36fb 1dbe 020a 38bd 99b3 99bd
00000200: d70b f0bd 0d51 db3c 16c3 59be 718e 483e
00000210: 42ea 64be 170a 16bd 15ed 0fbe 7a6e 733e
00000220: dcf5 4ebe 3903 e03d 3da7 8e3d a8bf 093e
00000230: 7e40 a13d e1b0 b33d b640 093e 0702 423e
00000240: 7266 85be 57e2 6e3d 3ccb c13d 6e38 943d
00000250: 54fc 623c a404 80be 0ffd 9f3d 8f7b b6bd
00000260: 25b9 2d3d 1be7 84be d9bd 26bc 92f0 bf3d
00000270: 87b0 11be 2292 b43e 371b f1bc 2ca6 f0bd
00000280: d930 87bd 3041 343e 5d1f 3f3d 0845 183d
00000290: 9090 a3bb 3371 f4bd 35b7 383e f83f 50be
000002a0: bb41 f7bd 5988 3b3e ceaa 043d 524d d93d
000002b0: 949b b7bd fe4e fb3c 86c1 fa3c e868 d4bd
000002c0: b092 54bd 18d2 dabd 9f56 93bd c7e8 d43d
000002d0: 7472 fb3d 3bbd 9a3d 5ad1 a93e 293a f53a
000002e0: 6423 9d3d 2b8a 4e3d dca7 96bc d673 aabd
000002f0: de1c f4bd 982d ecbd e7e6 863d d0f6 0abe
00000300: eab6 2abe 1b69 36bc 1d90 ee3d 1ad2 11be
00000310: f186 fdbd 1523 e0bd 0d48 9bbd 730c 3fbd
00000320: 05a9 86bd 28f0 56bd 1123 ba3d ac93 c73d
00000330: c821 a2bd 4cc4 9dbe 9a8a cdbd cb7d 6fbc
00000340: 7b8a 76bd a621 85bd 4178 af3c 2fce 003e
00000350: c955 3dbe e3d8 2bbe 6fa1 813d 50ba 213e
00000360: 149b d13a 4530 a53e ec68 21be 6786 46be
00000370: aa09 8c3e 8f74 db3d 0901 d8bc f156 ffbd
00000380: 7edb e73c dd51 333e 4cff 95be ce9e 5e3c
00000390: ed80 8fbd 5774 44be f707 9bbe 382b 813c
000003a0: 4dff 5cbd b05c 93bd 7e48 e0bd ce19 2bbd
000003b0: 0fea 143e 4219 5fbe 13f0 1f3c a2b1 b4bd
000003c0: 26e5 e9bd 5878 993d 3e1b d53d 92a6 793e
000003d0: 43d7 133e ee3d 313d f603 22bd d4b9 1dbe
000003e0: b228 0cbe ae09 21be afe9 9a3d 3f9e dbbd
000003f0: 32b7 d83c 372a 83be dc83 6c3e 267e 39be

relational_layer.layers.0.lin_dst.weight f4 [64, 64]
-0.106734686 -0.11574289 0.2615324 -0.36342874 0.14384645 -0.030066384 -0.068889126 -0.2491554
0.027714811 0.19377792 0.067242734 0.020198138 -0.23661377 0.019511858 -0.18929316 0.009251771
0.16219777 -0.045409787 -0.30892816 -0.12437337 -0.13445115 -0.024942579 -0.23321146 0.038113557
-0.14698774 -0.015405812 -0.021503584 -0.12242264 0.20389007 0.050909065 0.11144266 -0.1851374
0.026389183 -0.23389369 -0.04475947 -0.208907 0.04726047 0.12356851 -0.06442015 0.118624404
-0.02868891 -0.21480975 0.081585616 -0.060253695 0.180729 -0.24947809 -0.17281479 0.024231806
-0.18520832 0.008121733 -0.1658508 0.14123067 0.093276285 -0.12688701 0.051373005 -0.1348091
0.10360431 0.2976079 -0.27761292 0.0031864138 -0.118217155 -0.20193951 0.23181064 -0.2075134
0.020531164 -0.22894116 -0.18878415 -0.04808787 -0.13412043 0.09403479 0.13283084 -0.16737305
0.18324211 -0.16414495 -0.015506286 0.093609236 0.042114723 0.31297043 0.020008907 0.10313781
-0.13379334 -0.20949149 0.18224025 0.034419574 -0.064810835 -0.077828825 -0.11331102 -0.13722643
0.056640454 0.053842664 0.061895095 0.16296239 0.061102975 0.0836275 0.12238042 -0.19160642
0.0059266933 0.15500507 0.03045951 0.078522205 -0.08609513 -0.07228362 0.036523286 0.15355435
0.021353375 -0.04929788 0.07886445 -0.08492265 -0.0037428294 0.122130536 -0.026901823 -0.13672389
0.10238544 -0.008649228 0.012263293 -0.12198043 -0.004655756 0.00851873 -0.07690235 0.25936297
-0.07109927 0.3318849 -0.13171363 -0.022531617 -0.1363518 -0.1542786 -0.04493142 -0.07504959
-0.11721008 0.026772046 -0.21265826 0.19585587 -0.22354987 -0.036630716 -0.14055283 0.23772612
-0.20210975 0.10938115 0.06965492 0.13452017 0.07873629 0.08773971 0.13403592 0.18946086
-0.26054722 0.058321323 0.09462592 0.072373256 0.013854105 -0.2500354 0.07811939 -0.08910286
0.042412896 -0.2595757 -0.010177099 0.09372057 -0.14227496 0.3526774 -0.029431922 -0.11750445
-0.06601114 0.17602992 0.04666077 0.03717521 -0.0049915984 -0.119356535 0.18038638 -0.20336902
-0.12073084 0.18313731 0.032389455 0.10610451 -0.08965221 0.030677315 0.030609857 -0.10371572
-0.051897705 -0.106846035 -0.07194256 0.10395961 0.122776896 0.07555624 0.33167535 0.001870935
0.07672766 0.050424736 -0.018390588 -0.08322875 -0.119195685 -0.11532134 0.0658701 -0.13570714
-0.16671339 -0.0111334575 0.11648581 -0.14240304 -0.12379254 -0.10944191 -0.07582102 -0.046642732
-0.06575207 -0.052475125 0.0908872 0.09744963 -0.079165995 -0.30813825 -0.10036202 -0.014617394
-0.06019066 -0.065005586 0.021419646 0.12578653 -0.18489756 -0.16781954 0.06329619 0.15793729
0.0015991651 0.3226339 -0.15762681 -0.19387208 0.27351123 0.10715591 -0.026367681 -0.12467755
0.028302904 0.17511697 -0.2929634 0.013587667 -0.070070125 -0.19185005 -0.30279514 0.015767679
-0.05395441 -0.07195413 -0.10951327 -0.041772656 0.14542411 -0.21786979 0.009761828 -0.08822943
-0.1142066 0.07493657 0.10405587 0.24379948 0.14437585 0.04327195 -0.03955456 -0.15402919
-0.13687399 -0.15726349 0.07564103 -0.107235424 0.026454542 -0.25618145 0.23097175 -0.18114528
00000000: b797 dabd 9c0a edbd 93e7 853e 5513 babe
00000010: 7c4c 133e c74d f6bc be15 8dbd 9822 7fbe
00000020: 2c0a e33c b86d 463e 8fb6 893d 9176 a53c
00000030: e14a 72be 55d7 9f3c 11d6 41be bd94 173c
00000040: 2c17 263e 9dff 39bd d52b 9ebe 77b7 febd
00000050: 90ad 09be 6154 ccbc fcce 6ebe f61c 1c3d
00000060: f483 16be a968 7cbc 4928 b0bc b9b8 fabd
00000070: 8fc8 503e 0686 503d 0d3c e43d a994 3dbe
00000080: 212e d83c d481 6fbe b555 37bd b7eb 55be
00000090: 3294 413d 7d11 fd3d b6ee 83bd 5af1 f23d
000000a0: 0105 ebbc 16f7 5bbe 5c16 a73d 94cc 76bd
000000b0: 0611 393e 2f77 7fbe 5cf6 30be c881 c63c
000000c0: 40a7 3dbe 0411 053c cbd4 29be c69e 103e
000000d0: a307 bf3d abee 01be 806c 523d 660b 0abe
000000e0: 7f2e d43d 1060 983e 4823 8ebe 27d3 503b
000000f0: d61b f2bd 3bc9 4ebe c55f 6d3e 657e 54be
00000100: f930 a83c 8d6f 6abe a250 41be c9f7 44bd
00000110: de56 09be 5095 c03d cf04 083e d763 2bbe
00000120: d2a3 3b3e 9d15 28be 140e 7ebc 33b6 bf3d
00000130: 7d80 2c3d a93d a03e b8e9 a33c eb39 d33d
00000140: 1f01 09be f084 56be 309d 3a3e 8afb 0c3d
00000150: 8bbb 84bd b864 9fbd 9c0f e8bd 1685 0cbe
00000160: d2ff 673d 208a 5c3d b685 7d3d 9ddf 263e
00000170: 1d47 7a3d e544 ab3d 96a2 fa3d 7934 44be
00000180: b534 c23b a6b9 1e3e 3986 f93c 40d0 a03d
00000190: a552 b0bd 6f09 94bd 7199 153d 5a3d 1d3e
000001a0: 46ed ae3c 93ec 49bd af83 a13d edeb adbd
000001b0: 424a 75bb 931f fa3d 3661 dcbc 5901 0cbe
000001c0: 75af d13d 7eb5 0dbc fbeb 483c e0d0 f9bd
000001d0: 508f 98bb 2592 0b3c fb7e 9dbd 39cb 843e
000001e0: 7e9c 91bd d1ec a93e f0df 06be 3a94 b8bc
000001f0: ce9f 0bbe 36fb 1dbe 020a 38bd 99b3 99bd
00000200: d70b f0bd 0d51 db3c 16c3 59be 718e 483e
00000210: 42ea 64be 170a 16bd 15ed 0fbe 7a6e 733e
00000220: dcf5 4ebe 3903 e03d 3da7 8e3d a8bf 093e
00000230: 7e40 a13d e1b0 b33d b640 093e 0702 423e
00000240: 7266 85be 57e2 6e3d 3ccb c13d 6e38 943d
00000250: 54fc 623c a404 80be 0ffd 9f3d 8f7b b6bd
00000260: 25b9 2d3d 1be7 84be d9bd 26bc 92f0 bf3d
00000270: 87b0 11be 2292 b43e 371b f1bc 2ca6 f0bd
00000280: d930 87bd 3041 343e 5d1f 3f3d 0845 183d
00000290: 9090 a3bb 3371 f4bd 35b7 383e f83f 50be
000002a0: bb41 f7bd 5988 3b3e ceaa 043d 524d d93d
000002b0: 949b b7bd fe4e fb3c 86c1 fa3c e868 d4bd
000002c0: b092 54bd 18d2 dabd 9f56 93bd c7e8 d43d
000002d0: 7472 fb3d 3bbd 9a3d 5ad1 a93e 293a f53a
000002e0: 6423 9d3d 2b8a 4e3d dca7 96bc d673 aabd
000002f0: de1c f4bd 982d ecbd e7e6 863d d0f6 0abe
00000300: eab6 2abe 1b69 36bc 1d90 ee3d 1ad2 11be
00000310: f186 fdbd 1523 e0bd 0d48 9bbd 730c 3fbd
00000320: 05a9 86bd 28f0 56bd 1123 ba3d ac93 c73d
00000330: c821 a2bd 4cc4 9dbe 9a8a cdbd cb7d 6fbc
00000340: 7b8a 76bd a621 85bd 4178 af3c 2fce 003e
00000350: c955 3dbe e3d8 2bbe 6fa1 813d 50ba 213e
00000360: 149b d13a 4530 a53e ec68 21be 6786 46be
00000370: aa09 8c3e 8f74 db3d 0901 d8bc f156 ffbd
00000380: 7edb e73c dd51 333e 4cff 95be ce9e 5e3c
00000390: ed80 8fbd 5774 44be f707 9bbe 382b 813c
000003a0: 4dff 5cbd b05c 93bd 7e48 e0bd ce19 2bbd
000003b0: 0fea 143e 4219 5fbe 13f0 1f3c a2b1 b4bd
000003c0: 26e5 e9bd 5878 993d 3e1b d53d 92a6 793e
000003d0: 43d7 133e ee3d 313d f603 22bd d4b9 1dbe
000003e0: b228 0cbe ae09 21be afe9 9a3d 3f9e dbbd
000003f0: 32b7 d83c 372a 83be dc83 6c3e 267e 39be

action_layer.layer1.0.weight f4 [128, 128]
0.053976543 -0.015189159 -0.051706117 -0.098784365 0.03468669 -0.04584978 -0.13440122 -0.062358454
0.047387145 0.07767383 0.03996041 -0.0926339 0.09192878 0.04164093 0.008605975 0.007952429
-0.04316057 0.014965162 -0.020757517 -0.055816825 -0.07074113 0.10801957 0.050164282 -0.012256289
0.02088476 0.04296172 0.024735855 -0.03593854 0.039251737 -0.083279155 0.01214471 0.013832905
-0.080901965 -0.101578526 -0.08491021 0.04401346 0.08700279 -0.0518538 -0.013425681 0.007255095
-0.05725719 -0.024804274 0.0035781383 -0.012830924 0.056430116 0.06500653 0.024942841 0.08994542
-0.047128998 -0.017630426 -0.012124021 0.04003635 0.012903317 0.07483155 0.08575782 -0.038691733
-0.0023447429 0.087233946 0.06968973 -0.017807318 -0.035301138 0.11199063 0.009970864 0.10577328
0.07847227 -0.1493479 -0.06920225 -0.008753027 -0.0323098 0.045961175 -0.05870035 0.034255154
0.098187916 0.046339486 0.013309666 -0.061115034 -0.0038142412 -0.040136706 0.038998455 -0.04145133
0.011452692 -0.020135032 0.032677088 0.09869783 -0.100800626 0.0108093005 0.0715821 0.06528896
0.071988665 0.012223054 0.0822609 -0.011612579 -0.00019481128 -0.13751297 0.051584307 -0.14649324
-0.0821502 -0.046511736 -0.0015302006 0.11277541 -0.084703125 -0.060876295 -0.019755984 -0.008530488
0.05387931 0.040747177 0.02382501 0.048028857 -0.0634542 0.007187407 0.099135 0.06462948
0.033816252 0.05306403 -0.04937133 0.05738922 0.042948704 0.012213894 -0.06137885 0.06072934
-0.04418654 -0.024329254 -0.070981346 -0.06849365 -0.045131907 -0.010843674 0.051250327 -0.044680014
0.07139736 0.03544408 -0.07383282 0.13028121 -0.060177296 -0.06072615 -0.004285296 0.13305353
-0.021018205 -0.13012616 -0.0014563262 -0.032709673 -0.09035444 0.057470433 0.09077314 -0.057585392
-0.021417014 0.002255012 -0.036389787 0.085413314 -0.10605471 -0.08773464 0.015820295 -0.014699256
0.0090160165 -0.16007067 -0.027854206 0.14050542 0.038042225 -0.020730836 0.117654406 -0.057246044
0.083251625 -0.044633515 0.06769099 0.13140483 0.0045456626 0.058779344 -0.082178436 0.0088323755
-9.3340874e-05 0.09662033 -0.049201075 -0.1310499 0.0023840521 0.036036514 -0.005195801 -0.017985396
0.057434727 -0.0026886968 0.060042404 -0.061710957 -0.15273726 0.069172986 -0.015320198 0.097330995
-0.079830684 0.052442078 -0.021447944 0.05292648 -0.03627101 0.07691321 -0.061811112 0.017322218
-0.1015077 -0.017728297 -0.08948767 0.11785431 -0.02392412 -0.0626958 0.025485182 -0.009699651
0.08494637 0.0041721608 -0.010506264 0.008006194 -0.16716105 0.07830966 0.051258147 0.13708746
0.034956887 -0.0016131249 0.08247942 -0.024128048 -0.054327242 0.010714591 -0.063100025 0.048471987
0.017483959 -0.078892305 0.01676602 0.026116088 0.08111543 0.03749877 0.037960544 -0.047395017
-0.03096145 0.03062249 -0.02653109 0.01929836 -0.07040949 0.043079197 0.0068924613 0.054695122
-0.095244005 -0.19796062 -0.11035965 -0.068657875 0.09108915 -0.037100118 -0.053988542 0.14283091
-0.03410742 0.0051061437 0.004732464 0.047971074 0.0021676223 0.06886052 -0.04786968 0.03650248
0.023194522 0.06157629 0.041216563 -0.06564931 -0.015814625 0.02402861 -0.051932152 0.09947307
00000000: 8216 5d3d f3db 78bc cbc9 53bd 754f cabd
00000010: a113 0e3d fbcc 3bbd 79a0 09be 946b 7fbd
00000020: 0619 423d 7513 9f3d 87ad 233d d8b6 bdbd
00000030: 2845 bc3d ae8f 2a3d 1300 0d3c e84a 023c
00000040: 23c9 30bd 7030 753c ab0b aabc 2fa0 64bd
00000050: bae0 90bd 5d39 dd3d 1079 4d3d 9ace 48bc
00000060: 8416 ab3c a1f8 2f3d d9a2 ca3c 4a34 13bd
00000070: 6ec6 203d 438e aabd 9bfa 463c 69a3 623c
00000080: eeaf a5bd 6708 d0bd 67e5 adbd 7547 343d
00000090: 852e b23d a664 54bd 63f7 5bbc 26bc ed3b
000000a0: 8486 6abd 5532 cbbc 337f 6a3b cc38 52bc
000000b0: 4423 673d 2522 853d ee54 cc3c 4e35 b83d
000000c0: 560a 41bd af6d 90bc d4a3 46bc 28fd 233d
000000d0: 6f68 533c 4941 993d cca1 af3d 397b 1ebd
000000e0: 42aa 19bb b6a7 b23d 7db9 8e3d a7e0 91bc
000000f0: ed97 10bd 585b e53d d65c 233c a99f d83d
00000100: 12b6 a03d a8ee 18be e9b9 8dbd db68 0fbc
00000110: 4857 04bd c941 3c3d c76f 70bd 224f 0c3d
00000120: bf16 c93d 79ce 3d3d c910 5a3c c253 7abd
00000130: 59f8 79bb 6366 24bd d8bc 1f3d dfc8 29bd
00000140: 12a4 3b3c 39f2 a4bc 69d8 053d 1722 ca3d
00000150: 8f70 cebd 7e19 313c a399 923d 38b6 853d
00000160: cb6e 933d 3443 483c 6778 a83d b042 3ebc
00000170: 4146 4cb9 33d0 0cbe 114a 533d 5302 16be
00000180: 5d3e a8bd 1783 3ebd 0391 c8ba cbf6 e63d
00000190: d578 adbd 6c59 79bd 4dd7 a1bc 76c3 0bbc
000001a0: 8db0 5c3d 83e6 263d ab2c c33c e8b9 443d
000001b0: 47f4 81bd 5784 eb3b 4a07 cb3d 765c 843d
000001c0: e982 0a3d ab59 593d 9739 4abd f510 6b3d
000001d0: fbea 2f3d c91c 483c 6468 7bbd 54bf 783d
000001e0: f2fc 34bd 254e c7bc ab5e 91bd 6646 8cbd
000001f0: 3cdc 38bd aaa9 31bc ddeb 513d 6402 37bd
00000200: c738 923d d02d 113d a935 97bd 7068 053e
00000210: 787c 76bd fcbb 78bd ab6b 8cbb 2f3f 083e
00000220: 5f2e acbc cb3f 05be 33e2 beba 94fa 05bd
00000230: c00b b9bd 1e66 6b3d 45e7 b93d a9de 6bbd
00000240: bc72 afbc d3c8 133b 750d 15bd 2ded ae3d
00000250: 3633 d9bd 38ae b3bd 9099 813c 26d5 70bc
00000260: eab7 133c 91e9 23be 812e e4bc a7e0 0f3e
00000270: 2ad2 1b3d b7d3 a9bc cbf4 f03d d47a 6abd
00000280: d47f aa3d a2d1 36bd 93a1 8a3d fd8e 063e
00000290: c8f3 943b 9cc2 703d 2b4d a8bd abb5 103c
000002a0: 00c0 c3b8 e1e0 c53d 1187 49bd f231 06be
000002b0: c23d 1c3b 069b 133d 8a41 aabb 1c56 93bc
000002c0: ad40 6b3d d934 30bb 06ef 753d a1c4 7cbd
000002d0: 2867 1cbe 91aa 8d3d 9101 7bbc 7955 c73d
000002e0: 457e a3bd 81cd 563d 99b3 afbc 70c9 583d
000002f0: e990 14bd ac84 9d3d a62d 7dbd 53e7 8d3c
00000300: 45e3 cfbd ef3a 91bc 5045 b7bd 9a5d f13d
00000310: 84fc c3bc a866 80bd 4dc6 d03c 49eb 1ebc
00000320: 5df8 ad3d 9fb6 883b 7722 2cbc 692c 033c
00000330: 442c 2bbe d160 a03d 10f4 513d a860 0c3e
00000340: f42e 0f3d 7d6f d3ba f8ea a83d 2fa8 c5bc
00000350: 3e86 5ebd 408c 2f3c 963a 81bd 908a 463d
00000360: 853a 8f3c 4a92 a1bd e458 893c 68f1 d53c
00000370: d91f a63d 4f98 193d 847c 1b3d 4721 42bd
00000380: dea2 fdbc 04dc fa3c ba57 d9bc 9817 9e3c
00000390: da32 90bd d073 303d 28da e13b fe07 603d
000003a0: 4a0f c3bd 30b6 4abe 3d04 e2bd 809c 8cbd
000003b0: f38c ba3d 4bf6 17bd 1723 5dbd 4442 123e
000003c0: 39b4 0bbd 7051 a73b c912 9b3b 517d 443d
000003d0: ab0e 0e3b bf06 8d3d ff12 44bd a083 153d
000003e0: 7002 be3c 6b37 7c3d b3d2 283d 2573 86bd
000003f0: ac8d 81bc a6d7 c43c cfb6 54bd 89b8 cb3d

action_layer.layer1.0.bias f4 [128]
0.09381335 -0.041633632 0.025582338 -0.014004373 -0.061830904 -0.10128459 -0.023281027 0.0024992332
-0.07187816 -0.07910152 -0.040455204 -0.103408545 0.0491022 0.044497836 -0.0094107 0.03285594
-0.093345135 -0.012868393 -0.025731485 -0.051771987 -0.09975947 -0.08749681 0.07458226 0.07537544
-0.0660582 0.09506606 -0.10200623 0.013812257 -0.005714588 0.020349236 -0.032591656 0.05292408
0.02826926 0.019880924 0.054361958 0.04748256 -0.044632066 -0.011685866 0.03446752 -0.07882818
0.033632837 0.063170366 0.009859112 0.0019941195 0.06729764 -0.06708595 -0.10118246 -0.00363247
0.049294744 -0.04640672 -0.03234281 -0.09183003 0.022222279 -0.017850723 -0.06900036 -0.04352676
-0.014553531 -0.035888445 0.028846793 -0.049029686 0.019759122 -0.106865026 -0.010045458 -0.081621654
0.025625233 0.021493414 -0.086758256 -0.07507689 0.032636918 -0.04917843 0.026063291 -0.07749471
-0.016583297 0.035600185 -0.018534508 -0.04868017 -0.055540677 0.052560773 -0.043556206 0.063257724
-0.063664526 0.077293 -0.06773118 -0.10060377 -0.041481346 0.031099318 -0.023416227 -0.054943155
0.08865301 0.037425164 0.045510434 -0.07211247 -0.017331555 -0.09315821 0.07903036 -0.029999828
-0.03536015 -0.02177228 -0.09087095 -0.031795297 -0.053374525 -0.008394847 -0.07995162 0.011140116
-0.10001876 0.024690518 -0.08107741 -0.08887289 -0.07492865 -0.09486437 0.031180607 -0.00820111
-0.056613453 -0.0048279986 -0.01925024 0.02353286 -0.06811497 -0.027740829 0.050509144 0.022833982
0.042299267 0.054538228 -0.10408287 -0.0031672656 0.07775158 -0.006431859 -0.09243943 -0.0905059
00000000: 3721 c03d 0788 2abd 0d92 d13c 9972 65bc
00000010: 6742 7dbd 4c6e cfbd dab7 bebc 2dca 233b
00000020: db34 93bd faff a1bd 5bb4 25bd dcc7 d3bd
00000030: 631f 493d 5d43 363d 562f 1abc f393 063d
00000040: bc2b bfbd f4d5 52bc d6ca d2bc dd0e 54bd
00000050: b14e ccbd 8731 b3bd 95be 983d 705e 9a3d
00000060: 8649 87bd ffb1 c23d a4e8 d0bd ce4c 623c
00000070: 7041 bbbb 71b3 a63c d47e 05bd ecc6 583d
00000080: ef94 e73c 52dd a23c a5aa 5e3d 137d 423d
00000090: 1dd0 36bd 1376 3fbc d02d 0d3d ab70 a1bd
000000a0: 96c2 093d 775f 813d 1d88 213c c6af 023b
000000b0: 58d3 893d 5c64 89bd c038 cfbd bc0e 6ebb
000000c0: 49e9 493d f914 3ebd e579 04bd 6211 bcbd
000000d0: 7f0b b63c ae3b 92bc 1050 8dbd 1e49 32bd
000000e0: ef71 6ebc c3ff 12bd 1c50 ec3c 5ad3 48bd
000000f0: e2dd a13c 0ddc dabd b495 24bc 4129 a7bd
00000100: 02ec d13c f512 b03c 50ae b1bd eac1 99bd
00000110: 4aae 053d 526f 49bd af82 d53c 8cb5 9ebd
00000120: b2d9 87bc 80d1 113d aed5 97bc dc64 47bd
00000130: 9f7e 63bd f749 573d fe67 32bd 448d 813d
00000140: 8c62 82bd cb4b 9e3d a5b6 8abd 5909 cebd
00000150: 58e8 29bd ffc3 fe3c 63d3 bfbc 130c 61bd
00000160: b68f b53d 214b 193d 2669 3a3d b4af 93bd
00000170: e8fa 8dbc bbc9 bebd abda a13d 33c2 f5bc
00000180: ced5 10bd c85b b2bc 8c1a babd c93b 02bd
00000190: 3f9f 5abd 8a8a 09bc adbd a3bd 0885 363c
000001a0: a3d6 ccbd c543 ca3c ea0b a6bd fd02 b6bd
000001b0: 3174 99bd 4048 c2bd 796e ff3c f35d 06bc
000001c0: 82e3 67bd 3034 9ebb aeb2 9dbc fcc7 c03c
000001d0: dd7f 8bbd bc40 e3bc ade2 4e3d 550e bb3c
000001e0: ff41 2d3d 7a63 5f3d 6629 d5bd e691 4fbb
000001f0: 383c 9f3d 58c2 d2bb e250 bdbd 285b b9bd

action_layer.layer1.1.weight f4 [2, 128]
-0.042319108 0.042099096 -0.24661063 0.06960246 0.13633862 0.0009628462 -0.047613185 -0.21400021
-0.1472748 0.11591213 0.023780527 0.042254142 -0.13169011 -0.012835608 -0.04889798 -0.0027322832
0.20952596 -0.050898176 0.21416876 -0.06813969 -0.13485615 0.11549718 -0.011493812 0.0174713
0.12708111 -0.009026281 0.13946277 0.0042057047 0.048127808 -0.042466763 -0.25240132 0.029044235
-0.19784147 -0.19598004 0.088782266 -0.108973056 -0.049945362 0.21311934 -0.053512976 -0.067367874
-0.21230099 -0.19099043 0.041029293 0.035302598 -0.05361704 0.1688686 -0.097458586 0.16024923
-0.245978 0.076498 0.1282612 0.043729693 0.077967286 -0.19045219 0.17281947 0.059644613
0.1331232 0.21145812 0.09980735 -0.029586054 -0.17719619 -0.064257935 0.036325704 -0.15516503
0.045160048 -0.083365254 -0.2484393 0.1280245 -0.07314868 0.018179175 -0.042673416 0.14395282
-0.059116527 -0.13278252 -0.11918229 0.20816895 -0.0034326557 -0.1454083 -0.12569283 0.0018300927
-0.17325683 -0.06489534 0.055856712 0.06438828 -0.021113822 -0.017722093 -0.074023016 -0.04354067
-0.037883572 0.075253606 -0.057499796 -0.045705568 0.13167492 -0.027485557 -0.061012924 -0.05392348
-0.09113045 -0.10308127 0.005621004 -0.03536285 0.16328761 -0.26280767 0.04364006 -0.10258857
0.021879675 0.11813313 -0.2508241 0.091807775 0.1295201 -0.036975373 0.012250568 -0.09358679
0.21619111 -0.025917621 -0.06121163 -0.10512966 0.17397268 -0.034796312 -0.053774197 -0.0074186707
-0.052163072 0.09896961 0.09214498 -0.015447853 -0.06970425 0.12577994 0.1571851 -0.1316185
0.023180224 0.06460603 0.11767353 -0.103454664 -0.16405278 0.130058 0.055051968 -0.026293438
-0.16895281 -0.062059287 -0.11157476 -0.12772344 0.049718067 -0.123817444 -0.06471064 0.055717696
0.02984266 0.06901225 0.10133324 0.24144274 -0.18985833 -0.017182829 0.107929155 0.071205035
-0.18455791 0.053533543 0.061681338 -0.066872634 -0.16667916 0.07233123 -0.10934132 0.053830285
-0.022901408 -0.047494434 0.028540453 0.0037054983 0.18528642 0.12199767 0.14654823 0.10305601
-0.073893 -0.10481256 -0.15541911 0.12181027 -0.034584634 0.22040175 -0.06398812 0.16998509
-0.04980173 -0.026720066 -0.20396326 0.16733965 0.15267259 -0.10660257 -0.03438269 0.065865576
0.015315129 0.13112806 -0.02725432 -0.121906996 -0.0858621 -0.0706092 -0.104046516 0.06025792
-0.092052706 -0.081883505 -0.0897229 -0.14345543 -0.12148081 0.106353894 0.008906654 -0.078067854
0.026163755 0.039094016 -0.14921336 0.023197537 0.12621212 -0.10058235 -0.12719989 -0.0640701
-0.1773977 -0.07406453 0.088575445 0.10133736 -0.07468133 -0.10825063 -0.21279977 0.039319232
-0.057470556 0.23275389 0.012133384 -0.120294236 0.076292425 0.059439767 0.0024878387 0.0407602
0.039640818 0.115062624 0.22700608 -0.037890498 -0.01909793 -0.056399845 0.07520061 0.15623626
-0.109819636 0.27742264 0.13770096 -0.056539066 0.13610871 0.12945674 0.05385519 -0.06446192
-0.08788978 0.059779197 0.0016325864 -0.12100457 0.020507181 -0.15711235 0.04494628 0.12730365
-0.14896086 0.11091579 0.13905956 -0.16114901 -0.007861534 0.016553087 -0.041257657 -0.01312873
00000000: cd56 2dbd 1a70 2c3d 7f87 7cbe bc8b 8e3d
00000010: 5a9c 0b3e 8467 7c3a 0b06 43bd df22 5bbe
00000020: 35cf 16be 5763 ed3d 61cf c23c ae12 2d3d
00000030: c6d9 06be 714c 52bc 4049 48bd 1b10 33bb
00000040: f98d 563e 9b7a 50bd 0e4f 5b3e d28c 8bbd
00000050: bb17 0abe c989 ec3d 8b50 3cbc f91f 8f3c
00000060: 8d21 023e f7e2 13bc 54cf 0e3e 02d0 893b
00000070: aa21 453d a1f1 2dbd bf3a 81be 2dee ed3c
00000080: f496 4abe feae 48be 7ad3 b53d 442d dfbd
00000090: 8293 4cbd f53b 5a3e 6c30 5bbd 2bf8 89bd
000000a0: 6e65 59be ff92 43be 550e 283d 7599 103d
000000b0: 8b9d 5bbd e4eb 2c3e 5e98 c7bd 6018 243e
000000c0: a8e1 7bbe fcaa 9c3d e756 033e e81d 333d
000000d0: 50ad 9f3d e605 43be 96f7 303e e94d 743d
000000e0: 7351 083e 7a88 583e cc67 cc3d 745e f2bc
000000f0: eb72 35be aa99 83bd 43ca 143d 95e3 1ebe
00000100: bef9 383d 67bb aabd df66 7ebe db18 033e
00000110: face 95bd 7eec 943c 52ca 2ebd 5e68 133e
00000120: 2c24 72bd 24f8 07be d815 f4bd 3e2a 553e
00000130: 68f6 60bb eae5 14be 9fb5 00be b9df ef3a
00000140: 3d6a 31be d9e7 84bd 02ca 643d 01de 833d
00000150: e5f6 acbc ec2d 91bc 6199 97bd b457 32bd
00000160: ce2b 1bbd 901e 9a3d e884 6bbd c335 3bbd
00000170: cad5 063e 6429 e1bc b0e8 79bd dede 5cbd
00000180: 9aa2 babd 461c d3bd 6630 b83b a3d8 10bd
00000190: de34 273e ba8e 86be ebbf 323d f519 d2bd
000001a0: 013d b33c c8ef f13d 046c 80be b705 bc3d
000001b0: eba0 043e 7d73 17bd 9bb6 483c 6eaa bfbd
000001c0: 3461 5d3e 3151 d4bc 0cb9 7abd 384e d7bd
000001d0: e525 323e 9486 0ebd 5542 5cbd 5218 f3bb
000001e0: f2a8 55bd 94b0 ca3d 82b6 bc3d fe18 7dbc
000001f0: 1ac1 8ebd 75cc 003e 21f5 203e 00c7 06be
00000200: 74e4 bd3c 2b50 843d d2fe f03d 0ae0 d3bd
00000210: 74fd 27be ed2d 053e 2c7e 613d 5665 d7bc
00000220: f701 2dbe e131 7ebd 4f81 e4bd efc9 02be
00000230: 2ca5 4b3d 0094 fdbd 0387 84bd 3d38 643d
00000240: 9878 f43c 4b56 8d3d cd87 cf3d c43c 773e
00000250: 396a 42be 01c3 8cbc f609 dd3d f2d3 913d
00000260: c0fc 3cbe fd45 5b3d 92a5 7c3d 85f4 88bd
00000270: f1ad 2abe 6522 943d 58ee dfbd 257d 5c3d
00000280: bc9b bbbc 8689 42bd abcd e93c f2d7 723b
00000290: b9bb 3d3e ead9 f93d bd10 163e 080f d33d
000002a0: 3755 97bd f8a7 d6bd 3026 1fbe aa77 f93d
000002b0: 9ea8 0dbd ffb0 613e 340c 83bd 9210 2e3e
000002c0: e6fc 4bbd 0ae4 dabc bfdb 50be 165b 2b3e
000002d0: 3456 1c3e 7352 dabd ddd4 0cbd 88e4 863d
000002e0: 4fec 7a3c 6f46 063e 7444 dfbc 60aa f9bd
000002f0: 78d8 afbd 8e9b 90bd 5716 d5bd 02d1 763d
00000300: 2186 bcbd 8ab2 a7bd a4c0 b7bd fbe5 12be
00000310: eeca f8bd 12d0 d93d 37ed 113c 0ae2 9fbd
00000320: 5f55 d63c 0c21 203d 63cb 18be c308 be3c
00000330: c03d 013e 1efe cdbd b040 02be 2f37 83bd
00000340: bea7 35be 25af 97bd 0b67 b53d f689 cf3d
00000350: 86f2 98bd 82b2 ddbd 2fe8 59be 340d 213d
00000360: 3f66 6bbd 0957 6e3e 1acb 463c d35c f6bd
00000370: 343f 9c3d 1d77 733d 020b 233b 2bf4 263d
00000380: 695e 223d f4a5 eb3d 4874 683e 1133 1bbd
00000390: 4373 9cbc 8603 67bd c702 9a3d 66fc 1f3e
000003a0: 1ee9 e0bd 570a 8e3e 7b01 0d3e 8295 67bd
000003b0: 1560 0b3e 4f90 043e 4297 5c3d 9c04 84bd
000003c0: 8fff b3bd 08db 743d 82fc d53a 3ed1 f7bd
000003d0: adfe a73c 0fe2 20be 9719 383d e35b 023e
000003e0: 3289 18be d127 e33d a165 0e3e 3f04 25be
000003f0: aacd 00bc 579a 873c cafd 28bd e219 57bc

action_layer.layer1.1.bias f4 [2]
0.03978342 -0.038785674
00000000: f0f3 223d badd 1ebd

encoding_layer.layer.0.weight f4 [64, 180]
0.0638391 -0.015148942 0.020478781 0.11528813 -0.060259916 -0.03261842 -0.03449138 0.0086973775
-0.08738665 -0.005605089 -0.09520847 -0.001099804 -0.04204288 -0.041699145 0.085802644 -0.0013465559
-0.10355639 0.01226072 -0.034699682 -0.14617664 0.10641024 -0.08177118 0.050582442 0.10808471
-0.09921624 0.15026848 -0.021958299 -0.17141803 -0.13272598 -0.08646327 -0.018969016 -0.048377357
-0.022202129 -0.0685373 0.04057909 -0.00273847 -0.028984288 0.06891691 0.06456377 0.074594334
0.022640787 -0.16344227 0.025635187 0.16937904 0.12753886 -0.067308955 0.04446559 0.070527434
0.08360116 -0.0023601502 0.06777154 -0.03430979 -0.078682795 -0.076396346 -0.0590743 0.031749737
0.019164069 -0.049837083 -0.079858065 -0.054008346 0.067059055 0.003401693 0.049480893 -0.091210485
-0.18981145 0.07257063 0.17680667 0.016386468 -0.11973825 -0.15578611 -0.006739541 0.09344772
0.0048148916 -0.060585923 -0.10231817 -0.1610295 0.011257892 -0.05831186 -0.062850825 -0.051421758
0.0036240674 -0.008194224 -0.09637423 0.023691446 -0.08487853 -0.08784638 0.065839134 0.09659123
-0.034745462 -0.02813012 -0.12025729 0.0052838763 0.0642503 0.09672516 -0.007430337 0.055982016
0.018538404 0.018693134 0.087263465 0.07951811 0.12576126 -0.19303457 0.015044508 -0.02185598
0.07652259 0.0490276 0.022572305 0.07358291 0.039766926 0.08968227 -0.046148777 0.09131639
-0.11385916 0.026263982 -0.0585162 0.00095068436 0.065717526 -0.027466554 -0.090293854 -0.037263077
-0.03229746 -0.12642772 0.021052651 -0.091510616 -0.023847815 0.051856883 0.06905874 0.008418211
0.11033043 -0.02606609 -0.07885988 0.03253174 -0.04134163 0.0161214 0.020991357 -0.099594206
-0.092983045 0.04381147 -0.1051257 -0.14381042 0.0069572697 0.08391169 -0.0020318883 -0.011893604
-0.06753061 0.032333523 -0.005786654 0.035801467 0.0103405025 0.06960437 -0.040956497 -0.062179398
0.011581238 -0.07670613 -0.09471247 0.07128074 -0.060687996 -0.04740847 0.0589966 0.08459759
-0.06631806 -0.062251188 -0.00282818 0.00412271 0.045584794 0.03331561 -0.03520303 0.014447715
0.03716959 0.03742755 0.0014867984 -0.0705082 0.048796486 0.05490583 -0.009247476 -0.0012728126
-0.02155007 0.049681757 -0.119295746 -0.047987577 -0.081980936 -0.045280427 -0.06025902 0.0070730858
0.04214895 0.03502835 0.15693441 0.11822601 0.061388224 -0.03003423 0.01734595 0.0148301255
0.15996732 -0.039210744 -0.054743532 -0.06989469 0.036981583 0.009491374 0.05687317 -0.19818096
0.07079037 0.039438687 -0.13621828 -0.16402864 -0.082658425 -0.075871795 -0.09789653 -0.08486654
0.015679752 0.024889493 -0.081151724 -0.1629996 -0.018634936 0.0076960414 0.026729822 -0.0997028
-0.09819785 -0.06199371 -0.015940452 -0.13404782 -0.018041218 0.042957425 0.01420491 0.029216992
-0.008427061 0.012993811 0.042145777 0.118099175 -0.03754137 -0.030730486 -0.053820837 0.022498753
0.052312974 0.031038184 0.019265149 0.09578372 -0.10591718 0.011508924 -0.019683255 0.00023374984
0.062469922 0.025395552 -0.03610935 -0.143192 -0.011483195 0.08726022 -0.07595515 -0.060392607
-0.06558357 0.036300477 -0.0024663964 0.010314858 0.007064953 -0.0016398749 -0.062622994 0.021133954
00000000: 13be 823d 4533 78bc 1ec3 a73c 2f1c ec3d
00000010: 1ad3 76bd e49a 05bd d546 0dbd 727f 0e3c
00000020: c6f7 b2bd e5aa b7bb a9fc c2bd 4c27 90ba
00000030: 2835 2cbd b9cc 2abd 4cb9 af3d eb7e b0ba
00000040: 5f15 d4bd 30e1 483c 4121 0ebd 54af 15be
00000050: 9ded d93d a677 a7bd 892f 4f3d 845b dd3d
00000060: e231 cbbd fbdf 193e e4e1 b3bc 3588 2fbe
00000070: 52e9 07be a813 b1bd e964 9bbc 5627 46bd
00000080: 3de1 b5bc 495d 8cbd 4336 263d e777 33bb
00000090: 7570 edbc 4f24 8d3d 033a 843d eac4 983d
000000a0: 2c79 b93c 695d 27be e200 d23c b371 2d3e
000000b0: 8c99 023e 47d9 89bd 8d21 363d b070 903d
000000c0: 1637 ab3d c0ac 1abb cecb 8a3d 6c88 0cbd
000000d0: 7224 a1bd b075 9cbd e5f7 71bd 030c 023d
000000e0: f7fd 9c3c f821 4cbd a08c a3bd db37 5dbd
000000f0: 4256 893d f0ee 5e3b 7aac 4a3d 90cc babd
00000100: ef5d 42be e99f 943d cf0c 353e ea3c 863c
00000110: 5439 f5bd 6586 1fbe 5ed7 dcbb 8561 bf3d
00000120: 3dc6 9d3b f228 78bd 308c d1bd ebe4 24be
00000130: 0573 383c 6bd8 6ebd efb7 80bd 9f9f 52bd
00000140: c381 6d3b 1141 06bc da5f c5bd 9014 c23c
00000150: cbd4 adbd cee8 b3bd abd6 863d 9fd1 c53d
00000160: 4251 0ebd 2371 e6bc 7449 f6bd 5e24 ad3b
00000170: a995 833d d717 c63d 2f7a f3bb 664d 653d
00000180: dadd 973c 5822 993c 30b7 b23d 64da a23d
00000190: 8fc7 003e dbaa 45be 3d7d 763c 500b b3bc
000001a0: e0b7 9c3d 2ad1 483d 8ee9 b83c a3b2 963d
000001b0: a5e2 223d 57ab b73d 8006 3dbd 1604 bb3d
000001c0: fe2e e9bd 9027 d73c afae 6fbd 5937 793a
000001d0: e996 863d 8a01 e1bc fceb b8bd 2ba1 18bd
000001e0: 574a 04bd 4576 01be 9c76 ac3c eb69 bbbd
000001f0: 7e5c c3bc e267 543d ab6e 8d3d 89ec 093c
00000200: ecf4 e13d 8e88 d5bc 4a81 a1bd 0040 053d
00000210: d755 29bd 0711 843c 11f6 ab3c 0cf8 cbbd
00000220: e56d bebd a873 333d 254c d7bd 0a43 13be
00000230: cff9 e33b e4d9 ab3d 6e29 05bb 64dd 42bc
00000240: 7d4d 8abd 2870 043d f99d bdbb 8fa4 123d
00000250: 366b 293c bc8c 8e3d 00c2 27bd d3af 7ebd
00000260: 3cbf 3d3c 1a18 9dbd 9df8 c1bd a3fb 913d
00000270: fa93 78bd 622f 42bd 6ba6 713d 8041 ad3d
00000280: c3d1 87bd 1afb 7ebd fd58 39bb cc17 873b
00000290: 1fb7 3a3d f375 083d 0d31 10bd 1cb6 6c3c
000002a0: 243f 183d a14d 193d ade0 c23a 9a66 90bd
000002b0: d3de 473d f0e4 603d ba82 17bc 81d4 a6ba
000002c0: c689 b0bc 197f 4b3d 5451 f4bd 9f8e 44bd
000002d0: 9fe5 a7bd f877 39bd 2ad2 76bd 58c5 e73b
000002e0: 61a4 2c3d e379 0f3d 6ab3 203e 7a20 f23d
000002f0: 3872 7b3d 580a f6bc 1819 8e3c 0efa 723c
00000300: 79ce 233e 729b 20bd c13a 60bd f224 8fbd
00000310: 007a 173d b581 1b3c d7f3 683d f3ef 4abe
00000320: 8bfa 903d 768a 213d ce7c 0bbe 20f7 27be
00000330: d248 a9bd ac62 9bbd fa7d c8bd 82ce adbd
00000340: d372 803c 0de5 cb3c e032 a6bd 5ee9 26be
00000350: 4ba8 98bc 132f fc3b 80f8 da3c fb30 ccbd
00000360: f41b c9bd 1eed 7dbd 8d95 82bc d543 09be
00000370: 2dcb 93bc 20f4 2f3d b6bb 683c 7958 ef3c
00000380: a811 0abc fee3 543c 0da1 2c3d fbdd f13d
00000390: fbc4 19bd 80be fbbc 3d73 5cbd 4e4f b83c
000003a0: 2146 563d ca43 fe3c f2d1 9d3c 412a c43d
000003b0: 1beb d8bd ed8f 3c3c c73e a1bc bf1a 7539
000003c0: 76e0 7f3d 550a d03c 66e7 13bd eca0 12be
000003d0: 0324 3cbc 7cb5 b23d 608e 9bbd 3d5e 77bd
000003e0: ae50 86bd cfaf 143d 44a3 21bb a6ff 283c
000003f0: 1f81 e73b 12f1 d6ba 7c40 80bd 1d21 ad3c

encoding_layer.layer.0.bias f4 [64]
-0.06440039 -0.0018566854 -0.062663764 0.0109533565 0.06617636 -0.08192425 -0.0019515849 0.039488602
-0.013421275 0.057381842 -0.07431236 -0.04106749 -0.004585375 -0.05876014 0.07525978 0.03623956
-0.002466065 -0.061627675 0.029523904 -0.05605994 -0.027834099 -0.05190187 0.07297784 -0.052324165
-0.041666612 0.0043247803 -0.095411874 0.00040003963 0.034164675 0.0025857342 0.022348143 0.00093380664
-0.066640995 -0.051055636 -0.039180007 -0.030774634 -0.06779078 -0.0942153 0.05015328 -0.051737294
0.038603056 0.028779453 -0.06364877 -0.055845004 0.034115985 -0.06945435 -0.035352208 -0.031515628
0.007681823 -0.0036801156 -0.061013445 -0.05648728 0.07342189 0.06698873 -0.0019552785 0.010022237
0.017641596 0.028494062 0.024709858 -0.021581681 -0.06964749 0.006484997 0.010188881 -0.00058694277
00000000: 5ae4 83bd 065c f3ba dc55 80bd b575 333c
00000010: 7987 873d e7c7 a7bd 53cc ffba cdbe 213d
00000020: e8e4 5bbc 3909 6b3d 1431 98bd 6236 28bd
00000030: ea40 96bb 79ae 70bd cd21 9a3d ef6f 143d
00000040: b59d 21bb 4d6d 7cbd 1ddc f13c 1c9f 65bd
00000050: 5604 e4bc 0e97 54bd 6875 953d dd51 56bd
00000060: 9caa 2abd e3b6 8d3b 4d67 c3bd 69bc d139
00000070: 42f0 0b3d 6c75 293b 7413 b73c b4ca 743a
00000080: 137b 88bd b71f 51bd 377b 20bd 161b fcbc
00000090: e4d5 8abd f4f3 c0bd 876d 4d3d 7cea 53bd
000000a0: 3d1e 1e3d e3c2 eb3c 495a 82bd bbbd 64bd
000000b0: 34bd 0b3d 153e 8ebd 7acd 10bd 8816 01bd
000000c0: cdb7 fb3b 182e 71bb 3ce9 79bd 355f 67bd
000000d0: 375e 963d 6331 893d 2124 00bb 4f34 243c
000000e0: 1c85 903c 616c e93c 546c ca3c 11cc b0bc
000000f0: 58a3 8ebd 1980 d43b 44ef 263c 10dd 19ba
