HGAT-MADDPG_ver2/ModelBuffer/model_1700.pt (torch, 369835 bytes, 33 tensors)

encoding_layer.layer.0.weight f4 [64, 180]
000000 b6 4e 80 bd ef fe a1 3c 9a 63 0b 3d 6c 81 db b9
       -0.06265013 0.019774882 0.034030534 -0.00041867362
000010 04 a5 08 3d 0c d7 e5 3b 3b 5f 27 bd 17 f5 76 3b
       0.033360496 0.007014161 -0.040862303 0.0037682706
000020 31 e5 03 be 03 73 f6 bd e4 d7 58 3d 42 99 89 bd
       -0.12880398 -0.120336555 0.052940264 -0.06718685
000030 1f 85 a0 3d a3 7b 04 3d 50 fa d8 ba a1 85 ea 3c
       0.07837891 0.03234447 -0.0016554091 0.028628172
000040 02 c4 a5 3d b3 80 8f bc dc c7 b2 bd 0d bb 2d ba
       0.08094026 -0.017517423 -0.087295264 -0.0006627299
000050 eb 28 ac 3d 17 52 ba 3c 9a dc b7 3d 3c ed 69 bc
       0.08406242 0.022744222 0.08977623 -0.0142777525
000060 31 f5 b8 3d ee 0b d3 3d b1 0a a5 3d 66 e3 80 bd
       0.090311415 0.1030501 0.0805868 -0.06293373
000070 6b 55 ab bd 46 31 ad 3d 65 75 e9 bd 8b 24 0b bd
       -0.083659016 0.08456664 -0.11399344 -0.033970397
000080 34 1c f8 3c 76 c9 9c 3b 4b fb cb 3d ed b5 50 3e
       0.030286886 0.004784758 0.0996004 0.20381899
000090 06 4a 71 be f4 1e 29 be 41 71 00 be 16 47 4a be
       -0.23563394 -0.16515714 -0.12543203 -0.1975368
0000a0 c5 e7 c9 3c db 53 8f 3e dd 76 96 3d c8 b4 00 bd
       0.02464665 0.27993664 0.0734689 -0.031422406
0000b0 4f f0 cf 3c 11 32 12 3b 09 5f b8 3d ea a4 44 be
       0.025383143 0.0022307674 0.090025015 -0.19203535
0000c0 6c 2a ca bd bd be 2f be 6a 6e cd 3d bb 68 52 bd
       -0.098713726 -0.17162605 0.100308254 -0.05136941
0000d0 03 b2 30 3d 6b 6d dc 3d 97 af 86 3d 00 49 34 be
       0.043138515 0.10763057 0.0657646 -0.17605972
0000e0 82 44 0c be e6 49 19 3d ec d9 a9 bd 8e f3 f1 bd
       -0.13698009 0.03742399 -0.082935184 -0.118140325
0000f0 cc f2 8e be f7 88 b2 bd 4c 2c 23 3d 8b 2f ef bd
       -0.27919614 -0.0871753 0.039837167 -0.1167899
000100 8d fe 95 bd 65 c9 5f bc d8 f5 2a be 81 0d 19 bd
       -0.07323942 -0.013658856 -0.16695344 -0.037366394
000110 95 9a 57 be 0a e7 31 be 48 05 08 bd 5e e8 9e bd
       -0.21055062 -0.1737329 -0.03320816 -0.07759164
000120 79 9e 45 bd ee 0f f4 3d b0 b7 fe 3d 55 02 0e 3d
       -0.048246834 0.11917101 0.12437379 0.034670193
000130 41 67 05 3e 85 31 0d 3d ad 04 af bb 4d 82 99 3d
       0.1302767 0.034471054 -0.0053411336 0.07495556
000140 cf 7b ff bc 6b 55 44 3c 9e 96 8e 3d dd c9 b2 bc
       -0.031186966 0.011983256 0.06962322 -0.021824772
000150 90 0e 98 3b 62 5d 4f 3b 21 3b ee bd aa 17 05 bd
       0.004640408 0.0031641354 -0.11632372 -0.03249327
000160 c4 aa ae 3d 3a c5 0d 3e 1f 4e a2 3d ca 4e e1 bd
       0.08528665 0.13844767 0.07925057 -0.11001356
000170 af a2 f7 bc 19 b4 3e 3d 3d ec 0c 3e 75 6c ba 3d
       -0.03022894 0.046558473 0.13761993 0.09102718
000180 99 0d ad bd 6d 74 68 3c 84 e5 fd 3b a1 8c 5e bd
       -0.08449859 0.014187914 0.0077483077 -0.054333333
000190 be a8 2e bd e7 0f de 3d 51 97 c1 bc 65 7e e0 ba
       -0.042641394 0.10842877 -0.023631724 -0.0017127512
0001a0 d0 1e 95 bc dc b7 0d bd 3e 99 96 bd 77 40 55 3d
       -0.01820317 -0.03459917 -0.073534474 0.05206343
0001b0 f4 6a a8 3c 0a 8c 13 3c 9a c4 91 3c 52 56 01 be
       0.020558812 0.009005556 0.017793942 -0.12630585
0001c0 3e dd ff bc 30 ca 0e bc f6 17 5b 3c 71 b9 17 be
       -0.031233426 -0.008715197 0.013372412 -0.14816834
0001d0 da 96 82 3d 2c 97 be bd 4a aa 38 bd 0e 0e bf 3d
       0.06376429 -0.093061775 -0.045084275 0.093288526
0001e0 07 82 12 be 40 6a 97 bd d6 67 69 bd 93 36 81 3c
       -0.14307414 -0.073933125 -0.05698379 0.015773093
0001f0 85 3d c0 bd c9 cd e2 3b 1a df 3d 3d 77 a9 2d bb
       -0.09386734 0.006921504 0.046355344 -0.0026498714
000200 0c 20 41 be 19 66 48 be d9 3f b5 bd 0a 16 03 be
       -0.18859881 -0.19570197 -0.088500686 -0.12801376
000210 1e 29 36 3d ff 4c c2 bd cb da 7c 3d 00 32 e3 3c
       0.044472806 -0.09487342 0.061732095 0.027733803
000220 65 c9 e3 3d 96 60 af 3c 3d cd 6b 3d e9 67 a9 3a
       0.11122397 0.02140836 0.057568777 0.0012924644
000230 bb 5c 6c 3d cf 3c b7 bd 91 c2 88 bd cf 51 d9 bc
       0.057705622 -0.08947145 -0.066777356 -0.026528267
000240 16 bc 91 3d 84 4c 93 38 72 51 4f bd 4b 7c b5 bc
       0.07115953 7.0237584e-05 -0.05061478 -0.022153994
000250 ae 11 5a 3d 09 2a dc 3c e3 8f 1f bd e8 3e 19 bd
       0.053239517 0.026875513 -0.03895558 -0.037413508
000260 20 db b8 3c ac 38 72 bd 59 ac 9f bd 6e f4 be bd
       0.022565424 -0.059136078 -0.077965446 -0.09323965
000270 b4 fc 44 3d 81 a1 02 bd 3a 24 7b bd d2 61 29 bd
       0.04809256 -0.031892303 -0.061313845 -0.041353054
000280 01 c6 e9 bb 40 95 9f 3d 20 95 93 3c 40 e9 27 3d
       -0.0071341996 0.07792139 0.018015444 0.04099393
000290 1f ac b8 3d c8 97 25 3c ec 7f b3 3d 4a 72 5e 3d
       0.090172045 0.010106988 0.087646335 0.054308213
0002a0 d6 f2 f2 3c 84 28 ed bb 7b 32 9f bb a2 69 c4 3d
       0.029656809 -0.007237496 -0.0048583127 0.0959046
0002b0 a9 f7 ca 3c 8e aa 5e bc fb ec f6 38 d1 e8 80 3d
       0.024776297 -0.013590468 0.00011774335 0.06294406
0002c0 d2 fe 2f 3d e5 e2 84 be 63 07 1d 3e 6a 49 11 3c
       0.042967625 -0.25954357 0.15334849 0.008867601
0002d0 40 ed 96 3d 55 71 dc 3d 25 1a 22 bd 2b 83 17 bd
       0.073694706 0.10763804 -0.039575715 -0.036990326
0002e0 c6 86 92 3d 47 0e f1 3b fa 45 4e be dd 25 39 bc
       0.07154612 0.0073564383 -0.20143881 -0.011300531
0002f0 ae e6 3e bd 28 f1 b3 3b 16 8b c6 bd af b9 88 ba
       -0.046606712 0.0054913945 -0.09694497 -0.0010431315
000300 fd 41 23 be df b1 50 bd 94 4d a4 3d 0a 27 5d 3d
       -0.15943141 -0.05095088 0.08022609 0.05399231
000310 18 7b 17 bd 64 f9 59 bc 8f 85 d1 3c 0e bc 48 3d
       -0.036982626 -0.013304088 0.025576381 0.049007468
000320 b4 4a d7 bc 07 7f d7 bb 11 27 af 3d 5a 9f 94 3d
       -0.026280738 -0.006576422 0.08552373 0.072569564
000330 07 5a 6d 3c 45 fb 0e 3c 53 a5 42 be 6b 2f 05 3d
       0.014486796 0.0087268995 -0.19008379 0.032515924
000340 e0 ba 9f 3e 9c 14 83 3d 2c 18 0d 3d e2 6a 85 bb
       0.31197262 0.06400415 0.03444688 -0.0040715793
000350 59 42 2c be 32 3c ec bc 11 21 c2 bd b5 4e 82 3e
       -0.16822185 -0.028837297 -0.09478963 0.25450674
000360 e5 31 25 3e 10 f6 be bc 50 49 2c 3d 20 8b 35 bd
       0.16132315 -0.023310691 0.042062104 -0.044322133
000370 51 7f 9f 3d d6 a6 dd bd b8 7b 22 bd 64 a9 26 3e
       0.077879556 -0.10822837 -0.03966877 0.16275555
000380 8a 6c 7e 3d 92 c4 2a bd 4d e6 7a 3d 86 58 9d 3b
       0.06211523 -0.04169137 0.06125479 0.0048018126
000390 93 9d 1e bd bd 7d ce bd 78 38 de bd 4d 19 5d 3d
       -0.038724493 -0.100825764 -0.10850614 0.053979207
0003a0 9c 24 6b 3d 40 12 0a 3d 9f 37 97 3d 0f 34 d9 bd
       0.05740796 0.03370881 0.07383656 -0.106056325
0003b0 1c 90 c7 3d 4e cb c2 bb cf 3e 9a bc c1 3b ea bd
       0.097442836 -0.005944646 -0.018828778 -0.114371784
0003c0 27 f1 84 be 4f b5 c4 3d 0c 86 dc bb 86 dd 80 3d
       -0.25965235 0.09604894 -0.006729847 0.06292252
0003d0 6f 9f 84 3d a7 3a 91 3c 78 b2 8d bd 62 8a 7e bc
       0.06475722 0.017728163 -0.06918806 -0.015535923
0003e0 8c fc aa bc 9c ef 01 3c 52 bd 02 be e1 9c cd bd
       -0.020872377 0.0079306625 -0.12767532 -0.10039688
0003f0 f7 6e a5 bd 76 ba 0a be 1f 3d 0d be 8c bf 6d bd
       -0.080778055 -0.13547692 -0.13792847 -0.058044

encoding_layer.layer.0.bias f4 [64]
000000 ec 7c 95 3d 26 fe bb bc 8d 29 17 3d f0 70 d8 bc
       0.072992176 -0.022948336 0.03690486 -0.02642104
000010 92 c5 ae bc ba 77 b9 3d 5e 3e d9 3c 86 72 76 bd
       -0.021334443 0.09056039 0.026518997 -0.06016781
000020 1b fa ec 3c bb 7c 33 bd d7 40 83 bd f4 fe b2 bd
       0.028927853 -0.043820124 -0.064088516 -0.08740035
000030 03 42 8d bc 36 9b 86 3d 2f bd 6e bc 63 83 ea bc
       -0.01724339 0.06572573 -0.014571472 -0.028627103
000040 59 66 a1 bc 53 f1 69 bc 7c 1d bb 3c 0c c2 26 3d
       -0.019702123 -0.014278728 0.022841208 0.0407124
000050 b7 99 01 bd 70 b3 92 bc b5 5d 88 bd 96 2c e4 bc
       -0.031640735 -0.017907828 -0.06658498 -0.027853291
000060 00 97 45 bd 72 2e 9a bd fe 8f 77 3d 35 fa 99 bc
       -0.048239708 -0.0752839 0.060440056 -0.018796066
000070 9c 99 8d 3d 66 a8 2b bc c9 6e a9 3c 1b 18 a8 bd
       0.06914064 -0.010477161 0.02068271 -0.08207723
000080 71 88 08 3d b5 42 30 3d 4f cf 13 3c 56 13 0f 3c
       0.033333246 0.043032367 0.009021594 0.008732637
000090 e5 d8 5d 3b 22 f4 b8 bd c8 4f c7 bd 2b da 5e bd
       0.0033851203 -0.0903094 -0.09732014 -0.05440728
0000a0 80 dc 5e 3d 58 55 1f bc c4 ff d6 39 cb 0e 30 3d
       0.054409504 -0.009724937 0.0004100782 0.042982858
0000b0 6f d2 37 bc 89 6e 07 3d 9a 8f 59 3b 34 02 38 3c
       -0.011219605 0.0330644 0.0033197165 0.011230994
0000c0 95 c7 ba bd 41 c6 4a bc c9 a8 ce bb 05 6f 17 bc
       -0.091200985 -0.012376369 -0.006306742 -0.009242778
0000d0 05 9f c0 3b 16 ae 33 3d 68 b2 8e 3a 14 43 ab 3d
       0.0058783316 0.043867193 0.001088691 0.083624035
0000e0 ec e3 af bb 0a a9 7d bd ce 3b 21 3d 4d 78 85 3d
       -0.0053677466 -0.061928786 0.039363675 0.06517086
0000f0 b9 39 6c bd e6 9f c6 bc 51 36 2f bd 81 11 42 3c
       -0.057672236 -0.024246167 -0.04277641 0.011844994

relational_layer.layers.0.att_src f4 [1, 1, 64]
000000 4c 0e 2b bd f0 81 25 3e e2 9c 9b be 38 14 a5 3d
       -0.04176168 0.16162848 -0.3039313 0.08060497
000010 11 c1 7e be c4 e1 28 be 9d ac 94 3e 6f a2 24 3e
       -0.24878336 -0.16492373 0.29037943 0.16077588
000020 91 17 78 3e 7f d2 f8 be 3c cc 42 3e 62 33 c7 be
       0.2422774 -0.48598096 0.19023222 -0.3890639
000030 e7 ae 50 3e 7b c0 a7 3d 89 ef e8 3e 88 ed ae bd
       0.2037922 0.081910096 0.4549525 -0.08541399
000040 e3 c6 85 be 29 1a 6d 3e 48 4d ce 3e e7 6c 84 be
       -0.261283 0.2315451 0.40293336 -0.25864336
000050 33 83 a4 bc 95 d9 2e be 9f 9a 3a be eb 86 8b 3e
       -0.020082092 -0.17075188 -0.18223046 0.27251372
000060 9e 99 fb bd b2 e8 b6 be 19 00 e2 be e1 e8 78 3e
       -0.122851595 -0.35724407 -0.441407 0.24307586
000070 a1 97 e7 3d 57 c8 cc be 78 2c 68 be ab 97 a0 3b
       0.11308218 -0.39996597 -0.22673213 0.0049008927
000080 be f0 51 3e f1 6c 84 3a 62 68 ff 3e 6f 71 a6 be
       0.20501992 0.0010103268 0.49884325 -0.32508418
000090 59 a6 c1 3d ab 51 f4 bd 63 f7 7e be ad 76 07 3e
       0.094555564 -0.119296394 -0.24899058 0.13228865
0000a0 cd c7 71 3e e1 b8 89 be 94 cc 03 be f3 18 e8 3c
       0.23611374 -0.26898864 -0.12871009 0.02833221
0000b0 31 1d 0a 3f cb 95 21 be 0b d0 22 3e bd ba a7 3e
       0.5395079 -0.15779798 0.15899675 0.32759658
0000c0 d4 b2 a4 be 2e 1e 82 be d2 02 05 3e 9f 49 9b 3e
       -0.32167685 -0.2541365 0.12989357 0.30329606
0000d0 03 a2 da 3d c3 eb a9 bd 27 92 c3 be da a5 8c 3e
       0.106754325 -0.08296921 -0.38197443 0.27470285
0000e0 83 2c 8d be a0 7b a2 be 18 af 90 be 9e b9 a9 bd
       -0.27573022 -0.31734943 -0.28258586 -0.08287357
0000f0 a6 a6 ed 3a a4 e9 ff 3d 95 6e 1f 3e 8d 9a 67 3e
       0.001813133 0.12495735 0.15569527 0.2261755

relational_layer.layers.0.att_dst f4 [1, 1, 64]
000000 0e c7 e3 be 91 a4 d1 bd ca bd 84 3e 4d 86 74 be
       -0.44487804 -0.10236467 0.25926048 -0.23879357
000010 45 29 ab be 16 37 c8 bc 6f 96 8e be 2a 80 e1 be
       -0.33429924 -0.02444033 -0.27849147 -0.44043094
000020 ee 21 9d 3e f0 70 21 be 3e 2d 31 be 27 4f 11 3d
       0.3068995 -0.15765738 -0.17302415 0.035475876
000030 31 b4 dc 3e ce ab 49 be a1 b9 e5 bd ec d6 67 bb
       0.43106225 -0.19694445 -0.112170465 -0.0035375906
000040 37 c3 6b be 4e 41 49 be c6 6c e0 bc 3d c4 df 3d
       -0.23023687 -0.19653818 -0.027395617 0.10926101
000050 44 d9 10 3e db c2 33 3d 32 a0 82 3d c5 4b 06 bd
       0.1414538 0.043887 0.06378211 -0.032787103
000060 7a 11 71 be ea 4c d4 3d ed 69 66 3e 4f 11 14 3e
       -0.23541823 0.10366233 0.22501345 0.14459728
000070 b9 fa 8d bd 98 69 5b be 7f 3e 04 bf e9 a6 13 be
       -0.06932587 -0.21427 -0.5165786 -0.1441914
000080 a5 fa 9a 3e fb db b6 bc f2 6b 99 be 25 56 15 3e
       0.30269352 -0.022321692 -0.29965168 0.14583643
000090 9e 40 54 3e 44 86 e3 3e 55 1e 58 3d 96 b1 84 3d
       0.20727775 0.44438374 0.052763302 0.06479184
0000a0 45 76 7d be fa 61 0d bf b6 0c 4d 3e 48 5b 5f 3e
       -0.24752147 -0.55227625 0.2002438 0.21812165
0000b0 7c 8e 14 3e b1 80 6f 3e 5b 5b a1 bd ab f2 1e be
       0.14507478 0.23388936 -0.07878753 -0.15522258
0000c0 4a 06 1b 3d d5 09 67 be c4 98 f9 bd f5 40 88 be
       0.037847795 -0.22562344 -0.12187341 -0.26612058
0000d0 d1 af 07 bf e3 41 a7 be 6a ca c1 bd 91 fe b9 be
       -0.5300265 -0.32667455 -0.094624355 -0.3632703
0000e0 42 46 f4 be 8b da d2 be 15 bf 0f 3d 4f 08 99 3e
       -0.47709852 -0.4118236 0.03509434 0.2988915
0000f0 03 1f 7c be 3d b3 cd be 57 10 b4 be 54 20 05 bf
       -0.24621205 -0.4017581 -0.35168716 -0.52002454

relational_layer.layers.0.bias f4 [64]
000000 59 d1 3f 3d ba 99 5d bc 65 b7 1d bd f7 8b 3f 3b
       0.04683051 -0.013525421 -0.038504977 0.0029227713
000010 a2 74 6e bd 65 94 cd 3c c7 3c a4 bd 31 db 2b bc
       -0.0582167 0.025095174 -0.08019405 -0.010489271
000020 d2 be 67 bd 64 17 03 bc d0 e7 8f bd d9 9d 92 3d
       -0.056578465 -0.008001182 -0.070266366 0.07159013
000030 b6 a7 ea bd 54 ce 27 3d 83 e7 a8 bd d4 a9 d7 3c
       -0.114577696 0.040968254 -0.08247282 0.026326098
000040 04 85 ad 3d ca ef f8 bc 91 52 0e 3c e2 54 28 3d
       0.08472636 -0.030387778 0.008686678 0.041096576
000050 22 e3 a1 bd d8 bf 99 3d 0c da 18 be 5c d4 9b bd
       -0.0790465 0.075072944 -0.14926928 -0.07608864
000060 ff d1 7e 3d 4c d1 3e 3d 17 62 c1 3c 64 f7 16 bd
       0.062211987 0.04658632 0.023606343 -0.036857024
000070 f1 ab b9 bb dd 24 8c 3d 32 96 de bc 3b d5 cc 3d
       -0.005666249 0.068429686 -0.027171228 0.10001608
000080 5e e4 fb 3c 2a 48 a8 3a 02 eb 07 bd e1 11 24 3d
       0.030748542 0.0012838889 -0.033183105 0.040056113
000090 80 16 06 3b c6 b6 93 bc f5 4b 6c 3c 4b 56 87 bb
       0.0020460188 -0.01803149 0.014422406 -0.00413016
0000a0 bd 76 c4 bc cb bc 5f bd 61 3c 62 3d 64 3f 09 3c
       -0.0239824 -0.054623406 0.055233363 0.00837693
0000b0 ce 29 d0 3b eb 6e b8 3b 95 69 2e 3d fb 50 6a bc
       0.0063526398 0.005628457 0.04258116 -0.014301534
0000c0 4c 29 75 3d 74 a8 8f bc 1e 49 4b bd a8 a6 12 3b
       0.059853837 -0.01753638 -0.049630277 0.0022377167
0000d0 cd c7 9c bd 69 92 ad bd d4 d4 df bb e2 e4 87 bd
       -0.076552965 -0.08475191 -0.006830791 -0.06635453
0000e0 fa 75 26 3c 77 4b 94 bd 3e a9 1c 3c d4 44 2b 3d
       0.010159964 -0.07240956 0.009561835 0.041813686
0000f0 14 58 d1 3a ef 44 01 bd 04 6d 8a bd ae 6c 43 bd
       0.0015971684 -0.03155988 -0.06759074 -0.047711067

relational_layer.layers.0.lin_src.weight f4 [64, 64]
000000 97 91 12 be 87 de 26 3e d8 3b 8f 3e 0b f7 f2 be
       -0.1431335 0.16295825 0.27975345 -0.47454104
000010 76 39 46 3e 43 ea ae 3c 6f 3c 6a be de 0d 99 be
       0.19357857 0.021351939 -0.22874616 -0.29893392
000020 11 0f e4 3c aa 06 17 3e a1 c0 4c bd d5 6d df bd
       0.027839215 0.14748636 -0.049988393 -0.10909621
000030 43 21 c6 be 48 38 6f 3d 34 53 ce be 57 bc a7 bc
       -0.38697252 0.058403283 -0.40297854 -0.02047555
000040 76 58 3f 3d 75 10 f9 bd 3a d8 87 be 4e 91 a1 be
       0.046715222 -0.12161342 -0.26532155 -0.3155617
000050 ca 66 0c 3d e6 71 83 bd 66 38 bc be 75 82 cb bb
       0.034277715 -0.06418209 -0.3676178 -0.00621062
000060 b7 bc d6 be 6d ca 49 bc 62 c7 30 be 76 a1 cb be
       -0.41940853 -0.0123163285 -0.17263559 -0.39771622
000070 bc 5a 40 3e 0e 62 21 bd fd e0 7b 3d e4 b8 cc bd
       0.18784612 -0.039400153 0.061493862 -0.099962026
000080 b4 bc b0 bd 4a 7f 6e be 43 f3 68 be f7 46 63 be
       -0.08629742 -0.23290744 -0.22749047 -0.2219504
000090 48 93 c6 bd 96 6e 06 3e 90 95 69 be f2 e8 0a 3c
       -0.096960604 0.13128123 -0.2281096 0.00847839
0000a0 e4 1c d2 3d 88 b2 9e bd 09 e0 f4 3d ea 21 81 bd
       0.10259417 -0.07748896 0.11956794 -0.06305297
0000b0 d4 81 79 3e 10 ff e6 be fd 20 27 be 48 70 53 3b
       0.24365932 -0.45116472 -0.16321178 0.003226297
0000c0 16 53 be be af b5 65 3d e3 e5 ee bd a0 ad 1b 3d
       -0.37172765 0.05608147 -0.11664941 0.03800738
0000d0 28 b4 8f 3d 11 36 60 be 49 ca 83 3c 2f d0 3c bd
       0.07016784 -0.21895625 0.016087668 -0.046096977
0000e0 88 a5 ca 3d f7 e5 81 3e 87 06 62 be 52 e8 74 bd
       0.09894854 0.25370762 -0.22072802 -0.05979187
0000f0 62 7a 28 be 89 e7 5d be 15 12 2a 3e 45 13 25 be
       -0.16452935 -0.21670355 0.1660846 -0.16120632
000100 f3 71 39 bd 81 7b 70 be 54 d9 88 be 6c 2b 1e bd
       -0.045274686 -0.23484613 -0.26728308 -0.03861563
000110 ed f2 aa bd 99 9a 16 3e e5 4b 4a 3e 48 8b 60 be
       -0.08347116 0.14707412 0.19755514 -0.21928132
000120 39 9d af 3d ca d1 cc bd dd 1a 4f 3d 09 05 08 3e
       0.0857491 -0.100009516 0.05056273 0.13283171
000130 e2 21 b6 3e d3 36 a7 3e 2f f9 61 3b 2a 62 87 3e
       0.35572726 0.32659015 0.00344808 0.2644208
000140 84 8b c6 bd e8 fe 89 bd f9 04 0c 3d f1 af ad 3d
       -0.09694579 -0.06738073 0.03418443 0.08480824
000150 79 d8 a2 bd e9 e2 e1 bd 40 0d da bc 9f 50 dc bc
       -0.07951445 -0.11029608 -0.026617646 -0.026893912
000160 9b 3e d9 3c 09 4e 0b 3d 84 cf 60 3d 2d 1b 8d 3e
       0.02651911 0.034009967 0.054885402 0.27559796
000170 7c 19 59 3d 75 51 21 3e 9b 92 65 3d b5 73 46 be
       0.05300282 0.1575373 0.056048017 -0.19380076
000180 fc 06 3d 3e fd ea 07 3e 80 5e 65 bd 04 11 4c 3d
       0.18459696 0.13273235 -0.055998325 0.049820915
000190 d1 e8 4e 3c 48 d4 03 be fe 75 30 3d 93 9f fd 3d
       0.01262875 -0.12873948 0.043081276 0.12383952
0001a0 69 19 fa 3c 49 3a ac 3d 6b ae af 3d 2f 5b 24 be
       0.030529695 0.084095545 0.085781895 -0.16050409
0001b0 a5 77 f7 bb 9b 30 07 3d ea 33 83 bd 03 ec 86 be
       -0.0075521045 0.03300534 -0.06406386 -0.26351938
0001c0 98 fa c7 3d 0f e0 fb bd dc 9b b7 3d b3 3e 07 be
       0.09764594 -0.12298595 0.08965275 -0.13207512
0001d0 1c a5 45 bd b8 a6 88 bd 75 bd 03 be d2 ea 22 3e
       -0.048253164 -0.06672424 -0.12865241 0.1590989
0001e0 dd a0 07 be 3a 8d a8 3e e2 53 ce bd 01 aa f3 3d
       -0.13244958 0.32920247 -0.10074593 0.1189766
0001f0 ea d7 84 be a5 f3 7b ba 59 1e b8 bd ca 43 f8 bc
       -0.2594598 -0.0009611196 -0.08990163 -0.030305762
000200 4d 12 09 bd 44 e3 a9 bd db 12 38 be 33 ed 08 3e
       -0.03346472 -0.082953006 -0.17975943 0.13371734
000210 36 b5 9d be e3 f0 8a 3d ce 34 f8 bd 0c e8 5b 3e
       -0.30802315 0.06784227 -0.12119447 0.21475238
000220 31 c3 6f be fb c7 05 3e 85 29 98 3d 8d af fe 3d
       -0.23414303 0.13064568 0.07429794 0.124358274
000230 a0 d3 05 3d 1f b5 7a 3d b3 cc dc 3d 65 58 20 3e
       0.032672524 0.061207887 0.10781231 0.1565872
000240 a9 f3 20 be 67 a3 ea 3c d5 eb 5a 3d d6 22 17 3e
       -0.15717949 0.02864237 0.053447563 0.14759383
000250 91 6c 00 bd ef 53 50 be 13 60 18 bd 1c 5a 1b bd
       -0.031353537 -0.20344518 -0.037201 -0.037927732
000260 a1 3b ed bd f5 be 60 be 79 57 1a 3d 55 ae 44 3e
       -0.11583639 -0.21947844 0.037681077 0.19207127
000270 94 c5 e2 bd b6 7e bc 3e 01 b2 3f 3d ae 41 f7 bd
       -0.11072841 0.36815423 0.046800617 -0.12073074
000280 51 ae af bc 0c 38 f7 3d 4c 1d 83 3e f6 e7 3d 3d
       -0.021445425 0.12071237 0.2560829 0.046363793
000290 e3 37 ae 3d 4b bd 48 be 67 dd 13 3e 0b 6d 0a be
       0.08506753 -0.1960346 0.14439927 -0.13518159
0002a0 5f 24 2d bd 40 6a cf 3d 66 f0 9e 3d bb b9 a0 3d
       -0.042271014 0.101276875 0.07760696 0.07847925
0002b0 e0 49 80 bd ea 34 6e 3d 94 d5 da 3d 36 c9 d0 bd
       -0.062640905 0.05815593 0.10685268 -0.10194628
0002c0 ae 26 30 be 97 97 47 be 87 cc ae bd 57 27 12 3d
       -0.17202255 -0.1949142 -0.08535104 0.03568205
0002d0 e7 8e 28 3e ce 50 ca bc f0 61 bf 3e 18 47 5d 3d
       0.16460763 -0.024696734 0.37379408 0.05402288
0002e0 86 6f cb 3d 4a 7a ad 3d 38 35 84 3d 11 58 b3 bd
       0.09933381 0.084705904 0.06455463 -0.08757032
0002f0 b8 8f d4 bd 12 48 01 be 30 83 1f 3e 75 60 fd bd
       -0.10378975 -0.12625149 0.15577388 -0.12371913
000300 48 1c 17 be d5 b9 08 3e 9c 14 31 3e 00 c2 29 be
       -0.14756882 0.1335214 0.17293018 -0.16577911
000310 60 c9 56 3c 4a 40 ff bd 6c af c0 be a9 65 a4 bd
       0.013109535 -0.12463434 -0.37633836 -0.08027203
000320 71 7a 99 bc 6c 57 94 3d 03 49 9b 3d 01 b0 28 3e
       -0.018735142 0.07243237 0.07582285 0.1647339
000330 d0 41 85 bb dc e3 8b be d7 9b c8 bd 22 c7 c4 bc
       -0.0040666834 -0.2732228 -0.09795349 -0.024020735
000340 b6 be dd 3d a1 fb 18 3c 04 b1 29 3d b9 51 26 3e
       0.10827391 0.009337337 0.04142858 0.16242112
000350 e6 14 a5 bd 0b 25 4a be c8 91 63 3d 6b 80 e3 3d
       -0.08060627 -0.19740693 0.05555895 0.11108478
000360 8d 80 cb 3d cd 97 aa 3e f3 8e 6c be 67 a7 07 3c
       0.099366285 0.3331894 -0.23101406 0.008279658
000370 0b 0e 8b 3e d1 f4 29 3e a1 22 76 bd e1 3c bc bd
       0.2715915 0.16597296 -0.06009162 -0.09191299
000380 0c f0 29 3d 57 34 52 3e 95 25 d3 be 40 c7 5f bd
       0.041488692 0.20527779 -0.4123961 -0.05463338
000390 c7 80 dc 3d 85 4d f7 bd e8 4d a4 be 1e 49 48 3c
       0.1076675 -0.120753326 -0.32090688 0.012224464
0003a0 64 68 32 bd 25 86 90 3d 0f e1 52 be 69 99 67 bd
       -0.043556586 0.07056836 -0.20593666 -0.056542788
0003b0 14 f4 0c 3e 79 42 5c be 0e c4 08 3d 87 21 e3 3a
       0.13764983 -0.21509732 0.033390097 0.0017328718
0003c0 ba ff 3b be f3 95 1b 3e e8 6d 3f 3e eb 4f b2 3b
       -0.1835927 0.1519392 0.1869427 0.005441656
0003d0 55 84 10 3e 48 92 9b 3d 3f 3d 5e be 79 53 8b bd
       0.1411298 0.0759626 -0.21703051 -0.068030305
0003e0 4a d3 84 bd a0 57 82 be 33 90 dc bd ce 07 cb bc
       -0.06485613 -0.25457478 -0.10769691 -0.024783995
0003f0 83 33 1f bd e4 c8 69 be a8 0a 7a 3e ba c8 c8 bd
       -0.038867485 -0.2283054 0.24418128 -0.098039106

relational_layer.layers.0.lin_dst.weight f4 [64, 64]
000000 97 91 12 be 87 de 26 3e d8 3b 8f 3e 0b f7 f2 be
       -0.1431335 0.16295825 0.27975345 -0.47454104
000010 76 39 46 3e 43 ea ae 3c 6f 3c 6a be de 0d 99 be
       0.19357857 0.021351939 -0.22874616 -0.29893392
000020 11 0f e4 3c aa 06 17 3e a1 c0 4c bd d5 6d df bd
       0.027839215 0.14748636 -0.049988393 -0.10909621
000030 43 21 c6 be 48 38 6f 3d 34 53 ce be 57 bc a7 bc
       -0.38697252 0.058403283 -0.40297854 -0.02047555
000040 76 58 3f 3d 75 10 f9 bd 3a d8 87 be 4e 91 a1 be
       0.046715222 -0.12161342 -0.26532155 -0.3155617
000050 ca 66 0c 3d e6 71 83 bd 66 38 bc be 75 82 cb bb
       0.034277715 -0.06418209 -0.3676178 -0.00621062
000060 b7 bc d6 be 6d ca 49 bc 62 c7 30 be 76 a1 cb be
       -0.41940853 -0.0123163285 -0.17263559 -0.39771622
000070 bc 5a 40 3e 0e 62 21 bd fd e0 7b 3d e4 b8 cc bd
       0.18784612 -0.039400153 0.061493862 -0.099962026
000080 b4 bc b0 bd 4a 7f 6e be 43 f3 68 be f7 46 63 be
       -0.08629742 -0.23290744 -0.22749047 -0.2219504
000090 48 93 c6 bd 96 6e 06 3e 90 95 69 be f2 e8 0a 3c
       -0.096960604 0.13128123 -0.2281096 0.00847839
0000a0 e4 1c d2 3d 88 b2 9e bd 09 e0 f4 3d ea 21 81 bd
       0.10259417 -0.07748896 0.11956794 -0.06305297
0000b0 d4 81 79 3e 10 ff e6 be fd 20 27 be 48 70 53 3b
       0.24365932 -0.45116472 -0.16321178 0.003226297
0000c0 16 53 be be af b5 65 3d e3 e5 ee bd a0 ad 1b 3d
       -0.37172765 0.05608147 -0.11664941 0.03800738
0000d0 28 b4 8f 3d 11 36 60 be 49 ca 83 3c 2f d0 3c bd
       0.07016784 -0.21895625 0.016087668 -0.046096977
0000e0 88 a5 ca 3d f7 e5 81 3e 87 06 62 be 52 e8 74 bd
       0.09894854 0.25370762 -0.22072802 -0.05979187
0000f0 62 7a 28 be 89 e7 5d be 15 12 2a 3e 45 13 25 be
       -0.16452935 -0.21670355 0.1660846 -0.16120632
000100 f3 71 39 bd 81 7b 70 be 54 d9 88 be 6c 2b 1e bd
       -0.045274686 -0.23484613 -0.26728308 -0.03861563
000110 ed f2 aa bd 99 9a 16 3e e5 4b 4a 3e 48 8b 60 be
       -0.08347116 0.14707412 0.19755514 -0.21928132
000120 39 9d af 3d ca d1 cc bd dd 1a 4f 3d 09 05 08 3e
       0.0857491 -0.100009516 0.05056273 0.13283171
000130 e2 21 b6 3e d3 36 a7 3e 2f f9 61 3b 2a 62 87 3e
       0.35572726 0.32659015 0.00344808 0.2644208
000140 84 8b c6 bd e8 fe 89 bd f9 04 0c 3d f1 af ad 3d
       -0.09694579 -0.06738073 0.03418443 0.08480824
000150 79 d8 a2 bd e9 e2 e1 bd 40 0d da bc 9f 50 dc bc
       -0.07951445 -0.11029608 -0.026617646 -0.026893912
000160 9b 3e d9 3c 09 4e 0b 3d 84 cf 60 3d 2d 1b 8d 3e
       0.02651911 0.034009967 0.054885402 0.27559796
000170 7c 19 59 3d 75 51 21 3e 9b 92 65 3d b5 73 46 be
       0.05300282 0.1575373 0.056048017 -0.19380076
000180 fc 06 3d 3e fd ea 07 3e 80 5e 65 bd 04 11 4c 3d
       0.18459696 0.13273235 -0.055998325 0.049820915
000190 d1 e8 4e 3c 48 d4 03 be fe 75 30 3d 93 9f fd 3d
       0.01262875 -0.12873948 0.043081276 0.12383952
0001a0 69 19 fa 3c 49 3a ac 3d 6b ae af 3d 2f 5b 24 be
       0.030529695 0.084095545 0.085781895 -0.16050409
0001b0 a5 77 f7 bb 9b 30 07 3d ea 33 83 bd 03 ec 86 be
       -0.0075521045 0.03300534 -0.06406386 -0.26351938
0001c0 98 fa c7 3d 0f e0 fb bd dc 9b b7 3d b3 3e 07 be
       0.09764594 -0.12298595 0.08965275 -0.13207512
0001d0 1c a5 45 bd b8 a6 88 bd 75 bd 03 be d2 ea 22 3e
       -0.048253164 -0.06672424 -0.12865241 0.1590989
0001e0 dd a0 07 be 3a 8d a8 3e e2 53 ce bd 01 aa f3 3d
       -0.13244958 0.32920247 -0.10074593 0.1189766
0001f0 ea d7 84 be a5 f3 7b ba 59 1e b8 bd ca 43 f8 bc
       -0.2594598 -0.0009611196 -0.08990163 -0.030305762
000200 4d 12 09 bd 44 e3 a9 bd db 12 38 be 33 ed 08 3e
       -0.03346472 -0.082953006 -0.17975943 0.13371734
000210 36 b5 9d be e3 f0 8a 3d ce 34 f8 bd 0c e8 5b 3e
       -0.30802315 0.06784227 -0.12119447 0.21475238
000220 31 c3 6f be fb c7 05 3e 85 29 98 3d 8d af fe 3d
       -0.23414303 0.13064568 0.07429794 0.124358274
000230 a0 d3 05 3d 1f b5 7a 3d b3 cc dc 3d 65 58 20 3e
       0.032672524 0.061207887 0.10781231 0.1565872
000240 a9 f3 20 be 67 a3 ea 3c d5 eb 5a 3d d6 22 17 3e
       -0.15717949 0.02864237 0.053447563 0.14759383
000250 91 6c 00 bd ef 53 50 be 13 60 18 bd 1c 5a 1b bd
       -0.031353537 -0.20344518 -0.037201 -0.037927732
000260 a1 3b ed bd f5 be 60 be 79 57 1a 3d 55 ae 44 3e
       -0.11583639 -0.21947844 0.037681077 0.19207127
000270 94 c5 e2 bd b6 7e bc 3e 01 b2 3f 3d ae 41 f7 bd
       -0.11072841 0.36815423 0.046800617 -0.12073074
000280 51 ae af bc 0c 38 f7 3d 4c 1d 83 3e f6 e7 3d 3d
       -0.021445425 0.12071237 0.2560829 0.046363793
000290 e3 37 ae 3d 4b bd 48 be 67 dd 13 3e 0b 6d 0a be
       0.08506753 -0.1960346 0.14439927 -0.13518159
0002a0 5f 24 2d bd 40 6a cf 3d 66 f0 9e 3d bb b9 a0 3d
       -0.042271014 0.101276875 0.07760696 0.07847925
0002b0 e0 49 80 bd ea 34 6e 3d 94 d5 da 3d 36 c9 d0 bd
       -0.062640905 0.05815593 0.10685268 -0.10194628
0002c0 ae 26 30 be 97 97 47 be 87 cc ae bd 57 27 12 3d
       -0.17202255 -0.1949142 -0.08535104 0.03568205
0002d0 e7 8e 28 3e ce 50 ca bc f0 61 bf 3e 18 47 5d 3d
       0.16460763 -0.024696734 0.37379408 0.05402288
0002e0 86 6f cb 3d 4a 7a ad 3d 38 35 84 3d 11 58 b3 bd
       0.09933381 0.084705904 0.06455463 -0.08757032
0002f0 b8 8f d4 bd 12 48 01 be 30 83 1f 3e 75 60 fd bd
       -0.10378975 -0.12625149 0.15577388 -0.12371913
000300 48 1c 17 be d5 b9 08 3e 9c 14 31 3e 00 c2 29 be
       -0.14756882 0.1335214 0.17293018 -0.16577911
000310 60 c9 56 3c 4a 40 ff bd 6c af c0 be a9 65 a4 bd
       0.013109535 -0.12463434 -0.37633836 -0.08027203
000320 71 7a 99 bc 6c 57 94 3d 03 49 9b 3d 01 b0 28 3e
       -0.018735142 0.07243237 0.07582285 0.1647339
000330 d0 41 85 bb dc e3 8b be d7 9b c8 bd 22 c7 c4 bc
       -0.0040666834 -0.2732228 -0.09795349 -0.024020735
000340 b6 be dd 3d a1 fb 18 3c 04 b1 29 3d b9 51 26 3e
       0.10827391 0.009337337 0.04142858 0.16242112
000350 e6 14 a5 bd 0b 25 4a be c8 91 63 3d 6b 80 e3 3d
       -0.08060627 -0.19740693 0.05555895 0.11108478
000360 8d 80 cb 3d cd 97 aa 3e f3 8e 6c be 67 a7 07 3c
       0.099366285 0.3331894 -0.23101406 0.008279658
000370 0b 0e 8b 3e d1 f4 29 3e a1 22 76 bd e1 3c bc bd
       0.2715915 0.16597296 -0.06009162 -0.09191299
000380 0c f0 29 3d 57 34 52 3e 95 25 d3 be 40 c7 5f bd
       0.041488692 0.20527779 -0.4123961 -0.05463338
000390 c7 80 dc 3d 85 4d f7 bd e8 4d a4 be 1e 49 48 3c
       0.1076675 -0.120753326 -0.32090688 0.012224464
0003a0 64 68 32 bd 25 86 90 3d 0f e1 52 be 69 99 67 bd
       -0.043556586 0.07056836 -0.20593666 -0.056542788
0003b0 14 f4 0c 3e 79 42 5c be 0e c4 08 3d 87 21 e3 3a
       0.13764983 -0.21509732 0.033390097 0.0017328718
0003c0 ba ff 3b be f3 95 1b 3e e8 6d 3f 3e eb 4f b2 3b
       -0.1835927 0.1519392 0.1869427 0.005441656
0003d0 55 84 10 3e 48 92 9b 3d 3f 3d 5e be 79 53 8b bd
       0.1411298 0.0759626 -0.21703051 -0.068030305
0003e0 4a d3 84 bd a0 57 82 be 33 90 dc bd ce 07 cb bc
       -0.06485613 -0.25457478 -0.10769691 -0.024783995
0003f0 83 33 1f bd e4 c8 69 be a8 0a 7a 3e ba c8 c8 bd
       -0.038867485 -0.2283054 0.24418128 -0.098039106

action_layer.layer1.0.weight f4 [128, 128]
000000 33 00 b8 bd a4 6a d4 3c 9f aa d4 bd e9 90 98 bd
       -0.08984413 0.025929756 -0.10384106 -0.074495144
000010 b9 74 9c 3d b2 22 5f 3d 3f e0 0d be ac 68 c8 bd
       0.076394506 0.054476447 -0.13855074 -0.097855896
000020 d5 f6 d0 bd be d7 ad 3d 7b c6 7d 3d e5 ab e7 bd
       -0.102033295 0.08488415 0.061956864 -0.11312083
000030 60 e3 3c 3e 8a 9c 3c bd a2 05 ba bb 16 97 35 bd
       0.18446112 -0.046047725 -0.005676941 -0.04433354
000040 b5 2f 49 bd 2a 73 65 3d 68 8b 60 bc 4f 53 ad bd
       -0.049117763 0.056018032 -0.013705112 -0.084631555
000050 ba 82 a8 bd 09 2f ab 3d 58 90 01 be 4c df aa bd
       -0.08228059 0.083585806 -0.12652719 -0.08343372
000060 68 3a 94 bd b8 74 c9 3c 3e 7f 0c 3d 51 c0 6b bd
       -0.072377026 0.024591789 0.034301035 -0.057556454
000070 f6 56 0a 3d 1c 22 11 bc 93 49 92 bd f9 26 e3 3d
       0.03377434 -0.00885823 -0.071429394 0.11091418
000080 75 6a 40 be 2e ef 0d be fe 4a ac bc 98 9f 01 3d
       -0.1879061 -0.13860771 -0.021031853 0.03164634
000090 5d af 94 3d eb 81 79 3d 20 dc 00 3d ea 1b c5 3c
       0.072600104 0.060914915 0.031459928 0.024061162
0000a0 27 0a 00 be a6 00 a3 bc e1 f6 9c 3c ac d1 53 bc
       -0.12503873 -0.01989777 0.01916069 -0.012928408
0000b0 50 cc 81 3d 93 86 e3 3d 32 c5 c8 3c c7 04 8f 3d
       0.06337798 0.11109652 0.024508093 0.06983333
0000c0 91 e7 42 bd 35 28 69 3c 42 0d 59 3d 9d 08 3d 3d
       -0.04758412 0.0142307775 0.05299116 0.046150792
0000d0 46 62 0b 3d 16 43 92 3d d0 ad 05 3d 3f f3 44 bd
       0.034029268 0.07141702 0.032636464 -0.04808354
0000e0 8d c0 f6 bb 5d 40 81 3d ea 45 19 3e ae eb 4f bd
       -0.007530278 0.063111044 0.14968076 -0.05076187
0000f0 90 40 72 3b 30 1a 97 3a 95 8e 70 bd 43 7b ff 3d
       0.0036964752 0.001152819 -0.058729727 0.12474682
000100 2a 86 04 3e e1 ed 01 be 4b b8 dd bd 74 2c b1 bc
       0.12941805 -0.126884 -0.10826167 -0.021627642
000110 9b 8c db 3c 19 cf df 3d f8 bf 27 bd b5 b8 8a 3b
       0.026800444 0.109281726 -0.04095456 0.0042334446
000120 23 c3 ba 3d ac e8 8d bc c0 ad 7b 3d 5e ab a6 bd
       0.091192506 -0.01732286 0.061444998 -0.081381544
000130 0d 60 18 bd ad 13 d0 3d 6c d2 1f 3c 45 32 24 be
       -0.037200976 0.10160003 0.009754758 -0.16034801
000140 80 21 85 3d d6 15 e1 3c 33 4a 98 3c a4 86 cf 3d
       0.0650053 0.027476232 0.018590068 0.101331025
000150 1b 9e 90 bd f5 f7 8e bd d8 95 62 3d dc 22 84 3d
       -0.07061406 -0.06980888 0.055318683 0.064519614
000160 ec 22 9d bb 19 86 8e 3c 35 19 61 3d 19 ff 28 bd
       -0.004795423 0.017397927 0.05495568 -0.041258905
000170 74 89 bb bc fa 16 2b be e1 f0 fa 3c e2 d3 b7 bd
       -0.022892691 -0.16707984 0.030632438 -0.0897596
000180 65 32 68 bd d9 6e b3 bd e3 b5 67 bc 89 f2 d4 3d
       -0.056688685 -0.08761377 -0.014142486 0.103978224
000190 be c7 64 be 2c 5e 69 bc cb ba 04 3d 6a 2e 84 3d
       -0.2234182 -0.014243644 0.032404702 0.06454165
0001a0 59 f9 bf 3d 53 d5 18 bd 89 4c 18 3d 92 00 1c 3d
       0.09373731 -0.037312817 0.037182365 0.03808648
0001b0 37 28 83 bd f8 82 e4 bc 96 f3 d3 bb a4 b1 60 3c
       -0.06404155 -0.027894482 -0.0064682467 0.013714228
0001c0 68 d5 48 3d 49 31 ed 3c 79 9f be bd 35 2e f8 bc
       0.049031645 0.028954165 -0.09307761 -0.03029547
0001d0 ee 55 d4 3c 2d 28 b2 bd e5 bf b0 bd 4a d1 9b 3c
       0.02591988 -0.08699069 -0.08630351 0.019020695
0001e0 b1 23 05 bd 6c 2c f9 bd 76 52 3b bc dd 96 70 3c
       -0.03250474 -0.12166676 -0.011433234 0.014684406
0001f0 e3 65 63 3d 63 10 a1 bb 04 f4 e1 3d 73 e2 96 3c
       0.05551709 -0.0049152835 0.110328704 0.018418526
000200 76 77 bf 3d a7 98 e1 3b c6 ad e4 bd 69 b6 fc 3d
       0.09348957 0.0068846527 -0.11165957 0.123394795
000210 93 ea a8 bd 89 7a a8 bc 66 c1 d6 3b 33 45 f4 3d
       -0.082478665 -0.020566242 0.0065538166 0.11927261
000220 4d fa 55 3d c6 85 d2 bd 75 24 6e 3c 8b c3 9b bc
       0.05224066 -0.102794215 0.014535059 -0.01901414
000230 ed ac 84 3c 92 a3 42 3e 2a c0 bf 3d f9 5d fb bd
       0.016195739 0.1900771 0.09362824 -0.12273783
000240 c2 66 8a bd c1 0b 45 bc 7a 90 e9 bd 3e 16 93 3d
       -0.06757881 -0.012026728 -0.1140451 0.07181977
000250 18 50 1a bb 9d 3f f6 bd 02 5b 02 bd 2b 6d ab 3d
       -0.0023546275 -0.12023852 -0.031825073 0.083704315
000260 9f ce c1 bc a6 9d fe bd 5e 1f 6a bd b9 25 ae 3d
       -0.023658095 -0.12432413 -0.05715882 0.08503289
000270 1c cc 9c 3d d5 be 54 3d 50 67 f6 3d 36 43 52 be
       0.07656118 0.051939804 0.12031424 -0.20533451
000280 13 47 bb 3d 29 37 0a bd 37 90 c9 3d d8 ee e6 3d
       0.09144416 -0.03374401 0.0984196 0.112760246
000290 22 76 83 be f0 9f 27 3d 2b 4f 40 bd 47 44 e6 3c
       -0.25676066 0.040924013 -0.0469505 0.028108729
0002a0 1d d2 05 be 1d d3 b9 3d f0 24 2c be 4b 3a 05 be
       -0.13068433 0.0907347 -0.16810966 -0.13010518
0002b0 67 10 2d 3d 97 7c 93 3d a5 99 5c bc 3b 78 b7 bd
       0.04225197 0.07201498 -0.013464366 -0.08958479
0002c0 8f 2b 1a 3d d0 63 e1 bc 13 d2 43 3c f7 7f 33 bd
       0.037639197 -0.027513415 0.011951941 -0.04382321
0002d0 16 0d 96 be 63 98 5b bd 70 9f 59 3d db bf 18 3e
       -0.2930686 -0.053612124 0.053130567 0.14916937
0002e0 c7 a4 82 bd c8 78 e7 3d 3f 4a a9 bb 0e 68 1a 3e
       -0.06379085 0.11302334 -0.0051663215 0.15078756
0002f0 59 eb e8 3d 11 c2 00 bd 48 f3 ce bd 4f 82 f1 3d
       0.11373014 -0.031435076 -0.10104996 0.117924325
000300 7d ba 0e be a6 66 b1 bd 64 21 82 bd 5b 48 c9 3c
       -0.13938327 -0.08662157 -0.06354025 0.024570635
000310 67 83 15 bd c4 cc c3 bd 26 d8 d1 3c 91 55 7a bd
       -0.03650227 -0.0956054 0.025615763 -0.06111676
000320 3e fe b8 3d 8e 96 ad 3c aa 40 30 3c d4 e7 8e bc
       0.09032868 0.021189954 0.010757605 -0.017444529
000330 6b 26 2f bd 83 95 03 3d 2b 74 c3 bb 34 f3 14 3e
       -0.042761248 0.032125007 -0.005964776 0.145459
000340 e8 ce 86 bc 63 4f b4 bc 26 29 d2 3d b5 c1 06 bd
       -0.016456082 -0.02201051 0.10261755 -0.032899577
000350 35 81 3c 3d 32 0c b4 3d 9e f3 86 bd b7 bd 18 ba
       0.04602166 0.087913886 -0.06589435 -0.00058266096
000360 fc d9 1b bb 65 f8 b8 bc ac 23 68 bd 07 bd 8e 3d
       -0.0023781052 -0.022579381 -0.056674644 0.06969648
000370 f4 a9 bb 3d c3 d4 a7 3c b9 14 f3 3d 86 1b b5 bd
       0.09163275 0.020487195 0.11869187 -0.0884314
000380 b5 08 f2 3d 99 be 8d bd 71 cf a0 bd 0c 81 f0 3c
       0.11818067 -0.06921119 -0.07852066 0.02935841
000390 26 bb 31 bd 1d 06 f7 bd 66 d6 d8 3c 33 8a 42 3d
       -0.04339137 -0.12061713 0.02646942 0.04749508
0003a0 6a 89 99 3b 6b 98 fa bd 20 bf 22 be 1b 1d 0f 3d
       0.0046855705 -0.12236103 -0.15893221 0.034939867
0003b0 d7 f6 71 3d 6f 6e 09 3c 06 ce 57 3d ab 83 0c bd
       0.059073295 0.008388146 0.052686714 -0.034305256
0003c0 d7 74 01 bd 58 87 4f be 56 79 91 3c 65 aa 26 3d
       -0.031605568 -0.20266473 0.017758053 0.040689845
0003d0 d7 00 3a bd d6 7c 42 bd 8f 4d e5 bc 54 aa 44 3c
       -0.045410957 -0.047482334 -0.027991084 0.0120035
0003e0 bd 3e 9b bd 0a e2 9d 3d c3 db 93 bd 3b cf 9f bc
       -0.07580326 0.07709129 -0.072196506 -0.019507995
0003f0 b3 4e 10 3d 51 5e 28 bc fd d2 11 be 01 5a 12 3e
       0.035231303 -0.010276393 -0.14240642 0.14292146

action_layer.layer1.0.bias f4 [128]
000000 bb 2a b4 3d 92 ff 68 bd 7e 6d c0 3b 39 f3 b7 bc
       0.08797213 -0.056884356 0.0058724275 -0.022454845
000010 33 a8 12 bd 08 20 e7 bd 20 36 0f bd 44 62 a0 bc
       -0.03580494 -0.11285406 -0.034963727 -0.019578107
000020 b8 83 ba bd b0 2e b8 bd 3f 4c cd bc 1b 5e fc bd
       -0.091071546 -0.0899328 -0.025060771 -0.12322637
000030 68 7e 01 3d 78 37 f7 3c a9 dd 68 bc 92 b5 51 3d
       0.03161469 0.030177817 -0.014213004 0.05119855
000040 64 a9 cb bd 3a 37 9d bc bf 39 5d bc da de 5d bd
       -0.09944418 -0.019191373 -0.013502537 -0.054167606
000050 cf 13 e2 bd 15 42 a3 bd 0b e7 89 3d 70 ae a5 3d
       -0.110389344 -0.079715885 0.06733521 0.08089912
000060 48 e9 aa bd c9 4f b6 3d 41 99 c2 bd 86 ec 22 3c
       -0.08345276 0.089019366 -0.09501887 0.009944087
000070 f8 9f de 3c 51 93 80 3c 30 99 8b bd 87 d5 98 3d
       0.027175888 0.015695246 -0.068163276 0.07462602
000080 ee 53 89 3c 9f aa fe 3b 63 3b a9 3d 55 8a 14 3d
       0.016763654 0.0077718045 0.0826328 0.036264736
000090 07 3f 73 bd 0e 56 a1 bc 74 ad e4 3c 43 31 bd bd
       -0.05938628 -0.019694354 0.02791474 -0.092379116
0000a0 d8 3f c0 3c 4d 69 87 3d f5 21 3b 3b f1 6e b5 bb
       0.023467943 0.066118814 0.0028554176 -0.005536907
0000b0 aa 4d 9c 3d f7 40 94 bd d5 b5 f5 bd ea fa 98 3b
       0.07632001 -0.072389536 -0.11997572 0.004668583
0000c0 10 fc 60 3b dc a6 45 bd 30 59 e4 bc 48 4d ac bd
       0.0034329928 -0.048254833 -0.02787456 -0.08413178
0000d0 0c 0a bb 3c 99 a6 08 bd db 13 ab bd 4c 63 6b bd
       0.02283194 -0.033362005 -0.083533965 -0.057467744
0000e0 01 b3 9d bc 50 fd 55 bd 0e c9 2d 3d 18 fa 21 bd
       -0.019250395 -0.05224353 0.04242807 -0.03954515
0000f0 65 8d 61 3c 7c f1 dc bd eb b0 c9 bc 8f 3f b1 bd
       0.013766621 -0.10788247 -0.024620494 -0.08654701
000100 53 0e b7 3b 7f cc fb 3b 9f 98 b7 bd 11 5c a7 bd
       0.0055864244 0.00768429 -0.08964657 -0.08171857
000110 15 61 6a 3c 6d df 7b bd 3d b6 01 3c 5e 95 59 bd
       0.014305373 -0.061492372 0.007916984 -0.053120963
000120 59 3a b7 bc e4 c5 c2 3c 74 23 96 bc 96 19 da bc
       -0.02236669 0.023776002 -0.018327452 -0.026623528
000130 b8 19 1d bd 56 7f 16 3d 55 e1 80 bd d9 c4 85 3c
       -0.038354605 0.03674253 -0.06292979 0.016329216
000140 24 6a 72 bd 83 97 79 3d ad 35 9f bc ab fd a0 bd
       -0.059183255 0.06093551 -0.019434774 -0.07860883
000150 b0 5f 4f bd ec 23 b5 3c 79 2c 2f bc ca 10 67 bd
       -0.050628364 0.022111855 -0.010691755 -0.056412496
000160 99 21 8e 3d b9 8d 3c 3d bf 4a 27 3d d3 44 e0 bd
       0.06940002 0.046033595 0.040842768 -0.10950627
000170 a0 bc 9c bc a2 5c a0 bd 73 b3 ac 3d c5 27 69 bd
       -0.019132912 -0.07830168 0.08432665 -0.056922693
000180 cb 67 a9 bd ed 5c fa bc f0 30 b1 bd e4 47 c1 bc
       -0.0827175 -0.030561889 -0.08651912 -0.02359385
000190 c3 22 8a bd 2d 82 30 bd df 8e 66 bd 9b f9 21 bc
       -0.067449115 -0.043092895 -0.056288596 -0.009886171
0001a0 11 18 ab bd 1f 9e 82 bc ce a5 ab bd a1 8b e8 bd
       -0.083542 -0.015944539 -0.08381234 -0.11354757
0001b0 80 27 a6 bd 46 7a a9 bd ff d8 4a 3d 27 47 21 bd
       -0.08113003 -0.08275275 0.04952335 -0.039374497
0001c0 ce 80 3e bd c3 2c 8d bc 04 fb 21 bd 30 6d 42 3c
       -0.046509556 -0.017233258 -0.039546028 0.011866853
0001d0 c1 8a c2 bd b4 d9 d7 bc e8 94 66 3d ad 2f 66 3c
       -0.094991215 -0.026348926 0.05629435 0.014049453
0001e0 d6 2b 5d 3d f5 54 35 3d c4 59 e1 bd 8e 27 98 3a
       0.053996883 0.044270474 -0.110034496 0.0011608468
0001f0 d0 77 b1 3d 70 ea a9 bc b3 9e 92 bd e9 c6 b1 bd
       0.086654305 -0.020741671 -0.07159176 -0.08680517

action_layer.layer1.1.weight f4 [2, 128]
000000 9a 99 72 bd 49 e8 3e 3d 87 47 c6 be 04 b8 5e 3d
       -0.059228517 0.046608243 -0.38726446 0.05437471
000010 a8 67 68 3e 9f 92 02 3e 31 13 8b bd 02 ce a5 be
       0.22695792 0.12751244 -0.0679077 -0.32383734
000020 ca ef 0e be 25 95 d5 3d 41 4d de 3b f4 83 ad 3d
       -0.1395866 0.10428838 0.0067841117 0.08472434
000030 2f 4d 00 be b0 4b ec 39 9b a6 9b bd 3a 8f 07 ba
       -0.12529443 0.0004506982 -0.07600137 -0.0005171184
000040 52 8b 1f 3e 21 17 a0 bd d7 a2 71 3e 14 ef 92 bd
       0.1558049 -0.078169115 0.23597275 -0.07174507
000050 d5 a1 91 be 3f ba 01 3e f0 81 99 3c 18 1e 3f bd
       -0.2844378 0.12668703 0.018738717 -0.04665956
000060 59 f5 3b 3e 04 a7 2b bd 2f 1a ee 3d 46 e6 09 3d
       0.18355311 -0.041907325 0.11626088 0.03366687
000070 53 f5 92 3a 93 a8 9d bd 8a 56 64 be 40 9d 4e 3d
       0.0011212028 -0.076981686 -0.22298637 0.050442934
000080 ac 8e f9 bd f6 0e 8a be 96 bc 07 3e ca 21 f7 bd
       -0.121854156 -0.2696454 0.13255534 -0.120669916
000090 46 7f 1c bc 9d 58 64 3e d9 86 24 be 05 6f 05 bd
       -0.009551829 0.22299428 -0.16067065 -0.03257658
0000a0 19 3b 62 be d4 05 cc bd 52 f2 5c 3d 53 92 a0 3d
       -0.22092856 -0.09962049 0.053942032 0.07840409
0000b0 07 8f 87 bd e1 80 39 3e 25 4c a2 bd 10 2b 52 3e
       -0.06619077 0.1811557 -0.0792468 0.2052424
0000c0 a7 8d cd be 4a f3 d1 3d 24 4a 0b 3e 15 93 44 ba
       -0.40147135 0.10251482 0.13602501 -0.00074987236
0000d0 3b a7 3d 3d 3d fe 6a be fe 5d 2a 3e 57 15 b4 3d
       0.04630206 -0.22948547 0.16637418 0.08793133
0000e0 6f 32 19 3e c0 9e 3f 3e 69 90 f0 3d d9 7d 35 bd
       0.14960645 0.18712902 0.11746294 -0.04430947
0000f0 47 a5 06 be de 87 a7 bd 7a ff 39 3e e0 d6 2b be
       -0.13148986 -0.081802115 0.18163863 -0.16781187
000100 b4 f2 98 3d 92 79 1f bd 83 76 95 be f5 d0 49 3d
       0.07468167 -0.038934298 -0.2919198 0.049271543
000110 cd 23 c2 bc 9d f5 2c bd 17 11 60 bd b2 65 2d 3e
       -0.023698712 -0.042226423 -0.0547038 0.16933325
000120 d0 b7 a0 bd 19 2c 48 be 37 cb bd bd 62 16 87 3e
       -0.078475595 -0.19548072 -0.09267276 0.26384264
000130 14 7b e0 3d 3b 44 e8 bd 57 58 0a be 1b 83 15 3c
       0.10960975 -0.11341139 -0.13510261 0.009125496
000140 ec 03 d3 bd 9c ea c0 bd c1 d5 14 3e 92 05 41 3e
       -0.103034824 -0.09419748 0.14534666 0.18849781
000150 ba ff 18 3d d4 34 59 3c be d8 96 bd 72 99 7f bd
       0.037353255 0.013257224 -0.07365559 -0.062402196
000160 66 bb 41 3d 55 47 e7 3d a8 cd 60 bd 0d 51 1a 3c
       0.047297858 0.112929024 -0.05488363 0.009418738
000170 75 2c 32 3e 01 7c 2a bd 03 e8 a2 bd 1f 5e b2 bd
       0.17399772 -0.041622166 -0.07954409 -0.087093584
000180 38 1e bb bd 4a 68 9a 3d 9c a6 e5 bc 23 32 5e bd
       -0.09136623 0.07539423 -0.028033547 -0.054247033
000190 86 5e 10 3e 0b d9 57 be 8b fc 40 3d 63 0b e6 3c
       0.14098558 -0.21078889 0.047115844 0.028081601
0001a0 76 bb 76 bc cf a4 44 3e df c8 84 be f4 80 c5 3d
       -0.015059343 0.19203494 -0.25934502 0.096437365
0001b0 1a f1 ec 3d a9 52 e8 bd 02 9f b9 3c 9d 7e 02 be
       0.11569424 -0.11343891 0.022658829 -0.12743612
0001c0 0e aa 63 3e 6a 63 ae 3c 74 f3 c1 bd 06 c4 1d bd
       0.2223284 0.021287639 -0.09470263 -0.03851702
0001d0 a6 5f 5c 3e 7f 14 47 bd c3 15 85 bd bb df 5e bd
       0.21520862 -0.04860353 -0.06498291 -0.054412585
0001e0 3c ce 6c bd 3f 77 a6 3d b3 4b a0 3d ca 84 6a bd
       -0.057813868 0.08128213 0.078269385 -0.057255544
0001f0 8a de 84 bd 4e 2f 1b 3e 6c f0 22 3e f9 38 e8 bd
       -0.064877585 0.15154764 0.15912026 -0.11338992
000200 5f a9 5a 3d c9 e0 b0 3d 53 0a 3e 3e 64 79 b7 bd
       0.05338418 0.08636624 0.18558626 -0.089587
000210 1e 8b ed bd a6 d2 42 3e 28 ef 89 3d 01 9b 8d bd
       -0.115988 0.19025669 0.067350686 -0.0691433
000220 49 98 2f be bc c4 5d bd 4a 9d 35 be e4 b6 97 bd
       -0.17147936 -0.0541427 -0.17735782 -0.074079305
000230 48 6a b2 3c 9c 1c 2f be b0 73 c7 bc 1c 64 bf 3d
       0.021779194 -0.17100757 -0.024347156 0.09345266
000240 36 a4 4b bc 2f e9 fe 3c a4 01 f1 3c df 7c 5c 3e
       -0.012429288 0.03111705 0.029419728 0.2153201
000250 47 15 2b be 84 5c b7 bc 59 bd 8e 3d 32 80 61 3d
       -0.16707335 -0.022382982 0.06969709 0.055053897
000260 fe 07 6c be db 33 c7 3d f5 90 88 3d 34 85 9b bd
       -0.23049924 0.097266875 0.06668273 -0.07593766
000270 45 fd 19 be 58 37 6a 3d c2 92 bd bd 8a 7f 83 3d
       -0.15038021 0.057181686 -0.092565075 0.064208105
000280 b4 b8 2d be e1 d9 84 bd c6 2e f2 3c 9f aa 9c 3d
       -0.1696499 -0.064868696 0.029563319 0.07649731
000290 d5 aa a2 3e d4 11 f1 3d 27 68 1a 3e d9 5e 1f 3e
       0.3177096 0.117709786 0.15078793 0.15563525
0002a0 db cb 98 3d 53 f5 f8 bd 45 9c 28 be 33 0d 29 3e
       0.07460757 -0.12156167 -0.16465862 0.16508941
0002b0 e9 c2 59 bd b1 fa 5b 3e aa 5a 53 bd 74 6e da 3d
       -0.053164396 0.2148235 -0.051600136 0.106655985
0002c0 9f 7e ab bd ca ea 8f bc c8 5b e1 bd 91 f4 85 3e
       -0.083737604 -0.01756801 -0.11003834 0.26163152
0002d0 4f ed 4a 3e 76 8e d6 bd fc 41 e5 bd 9b 9a 8f 3d
       0.19817089 -0.10476391 -0.11194226 0.070119105
0002e0 ab f7 5c bc c3 98 83 3d 20 c1 f5 ba de 80 1a be
       -0.013486783 0.06425621 -0.0018749572 -0.15088221
0002f0 1a 8f 02 be 35 84 96 bd 4c 94 1f bd bb 07 0a 3d
       -0.12749901 -0.07349435 -0.038959786 0.03369878
000300 b3 b5 d8 bd 2b 8b f0 bd 70 74 95 bd 59 d0 c4 bd
       -0.105815314 -0.11745294 -0.07297599 -0.09610052
000310 57 17 38 be fa a2 e2 3d 5f 50 96 3c 76 ee e6 bc
       -0.17977653 0.110662416 0.01834887 -0.028189879
000320 2c 30 98 3c 29 58 0b 3d 6f cc ca bd 77 aa cd bd
       0.018577658 0.034019623 -0.09902274 -0.10042279
000330 05 e6 e2 3d 99 41 e3 bd 04 d5 f1 bd 6b 59 6c bd
       0.11079029 -0.11096496 -0.11808208 -0.057702463
000340 0a 19 f2 bd e3 97 1d be d6 f9 9b 3c a6 5c 12 3e
       -0.11821182 -0.15389971 0.01904003 0.14293155
000350 04 be 90 bd c4 9c 2a be cb da 3c be df b8 71 3c
       -0.070674926 -0.16661364 -0.18442838 0.014753549
000360 d5 11 c2 bd 10 cc 5e 3e 09 a7 c7 3d 89 1a 06 be
       -0.094760574 0.21757531 0.09748656 -0.1309606
000370 64 17 da 3d 6b 69 4d 3d 3f bb a5 bc 1f 2f bd 3c
       0.10648993 0.050149363 -0.020230887 0.023093758
000380 7d 7a 44 3d 56 97 54 3e 51 33 86 3e 95 58 8f bd
       0.047968376 0.20760855 0.26211026 -0.069993176
000390 bb 29 c7 bd e1 95 93 bd 1d 37 77 3d 89 37 41 3e
       -0.09724756 -0.072063215 0.060355294 0.18868841
0003a0 90 da 03 be 4b 65 26 3e 24 39 07 3e 5d 1d 75 bd
       -0.12876344 0.16249578 0.13205391 -0.059842456
0003b0 56 5f d1 3d 3b f8 da 3d a2 18 93 3d a0 19 fc bb
       0.10223262 0.106918775 0.07182433 -0.0076934844
0003c0 1c 21 bd bd b6 7b d2 3d 1a 93 81 bc 74 29 35 be
       -0.09234831 0.10277502 -0.015817214 -0.17691594
0003d0 3d 4c 94 3d 06 c5 62 be 00 0d 5f 3c 70 d4 3b 3e
       0.07241104 -0.22145471 0.013613939 0.18342757
0003e0 00 13 29 be b8 3e cb 3d a1 04 19 3e f4 b6 40 be
       -0.16511154 0.09924072 0.14943172 -0.18819791
0003f0 82 a9 4c 3d ed 6b a5 3d 2a b1 3e bd a9 f0 42 3d
       0.049966343 0.08077226 -0.046555676 0.047592793

action_layer.layer1.1.bias f4 [2]
000000 23 6e 19 3d 7b 00 25 bd
       0.03745855 -0.04028366
