HGAT-MADDPG_ver2/ModelBuffer/model_200.pt (torch, 369803 bytes, 33 tensors)

encoding_layer.layer.0.weight f4 [64, 180]
0	0xbd38d645	-0.04512622
1	0x3c22b9e6	0.009932017
2	0x3d32d377	0.0436587
3	0x3d24298c	0.040078685
4	0x3c319420	0.010838538
5	0xbd5d1e83	-0.053984176
6	0xbd96d456	-0.073647186
7	0x3d3fe97c	0.046853527
8	0xbd8926cc	-0.06696853
9	0xbd6804b2	-0.056645103
10	0x3d43643c	0.047703013
11	0xbd964109	-0.07336623
12	0x3d4e12dc	0.050310954
13	0xbd8ae5fc	-0.06782147
14	0x3d13a578	0.036046475
15	0xbbf377a5	-0.007430034
16	0x3d091154	0.03346379
17	0xbcad2593	-0.02113608
18	0x3d262883	0.04056598
19	0x3d8607ef	0.06544482
20	0x3d547ae1	0.051875
21	0xbc891825	-0.016735146
22	0x3dd175ac	0.10227522
23	0x3d73bca0	0.05950606
24	0x3ca7b1a8	0.020470455
25	0xbd59d754	-0.05318387
26	0x3da66628	0.081249535
27	0xbd9be2df	-0.076116316
28	0xbdb3f754	-0.087874085
29	0xbd45a455	-0.048252422
30	0x3da7437c	0.081671685
31	0x3c5ccf6b	0.013477187
32	0x3d33db11	0.04391009
33	0xbb378965	-0.0028005478
34	0x3d79665c	0.060888633
35	0x3d081fdb	0.033233505
36	0xbb39a521	-0.0028327184
37	0xbd71330b	-0.05888657
38	0xbd6015f3	-0.054708432
39	0xbd32f805	-0.04369356
40	0x3d104a32	0.03522701
41	0x3dadd4d6	0.08487861
42	0x3d024b6a	0.0318102
43	0xbd1f4025	-0.038879532
44	0x3d2e6382	0.042575367
45	0x3d7a5576	0.06111666
46	0xba915cd2	-0.0011090285
47	0xbd8ab7c1	-0.067733295
48	0xbd0972d6	-0.03355678
49	0xbd9f5129	-0.07779152
50	0x3dbba01b	0.09161397
51	0x3c8de650	0.017321736
52	0x3c910878	0.017704234
53	0x3cd293d9	0.025705265
54	0x3d5333f0	0.051563203
55	0xbd4f6597	-0.050633993
56	0xbd134ef1	-0.035963956
57	0xbd5d8bb1	-0.0540883
58	0x3cdcd0ec	0.02695509
59	0x3ca801ca	0.020508666
60	0xbdbb072d	-0.09132228
61	0xbd17a2ed	-0.037020613
62	0x3d1b3947	0.03789642
63	0x3c12b6f8	0.008954756
64	0x3d260aa1	0.04053748
65	0xbcfd0511	-0.030886205
66	0xbd49cb18	-0.04926595
67	0xbce686fc	-0.028140537
68	0xbd94b251	-0.07260574
69	0xbda1c202	-0.07898332
70	0xbcd47993	-0.025936877
71	0x3c3541d6	0.01106306
72	0xbd7b8cd8	-0.061413616
73	0xbb82af64	-0.0039881933
74	0xbcdb9995	-0.026806632
75	0xbca4df52	-0.020126019
76	0x3da87f31	0.08227385
77	0xbc55db03	-0.013052705
78	0xbcfed1f7	-0.031105978
79	0x3d7f3265	0.06230392
80	0xbd7bf4e4	-0.061512843
81	0xbd1242e7	-0.035708334
82	0xbcb5d2d0	-0.02219525
83	0xbd9630a2	-0.07333495
84	0xbd841372	-0.064490214
85	0xbaff51e5	-0.0019479363
86	0xbcf3bcb3	-0.029753065
87	0xbcda79b7	-0.026669366
88	0xbc82ebcf	-0.015981583
89	0x3d7c8b02	0.061656006
90	0xbc147586	-0.009061223
91	0xbcf5e506	-0.030016433
92	0xbd8730e5	-0.06601123
93	0xbd2518c8	-0.040306836
94	0x3d64aeb1	0.05583066
95	0x3d90b1e0	0.07065177
96	0xbd7672cc	-0.060168073
97	0x3cc31d13	0.023817575
98	0x3d1bcf92	0.03803975
99	0xbc8cafb9	-0.017173635
100	0x3d4cecc9	0.050030503
101	0xbbab0522	-0.0052191177
102	0xbd5b965f	-0.053610202
103	0x3d7a15e9	0.06105605
104	0x3cbf0c5f	0.023321329
105	0xbd6b701b	-0.05747996
106	0xbd19f0f2	-0.0375833
107	0x3d4e2ceb	0.050335806
108	0x3cfc7c26	0.030820917
109	0x3ba9e87d	0.0051851855
110	0xbd0c4040	-0.03424096
111	0xbc83c2c9	-0.016084092
112	0x3b6a0cc0	0.0035713166
113	0xbd8ccafd	-0.068746544
114	0xbc768976	-0.015047422
115	0xbda0bda1	-0.07848669
116	0x3d74507c	0.05964707
117	0xbd9b3459	-0.07578344
118	0xbd9b05ba	-0.07569452
119	0x3d101de8	0.03518477
120	0xbd8e7651	-0.06956161
121	0xbd8f601a	-0.07000752
122	0xbd9dc416	-0.07703416
123	0xbb4ab174	-0.0030928524
124	0xbdd10e00	-0.102077484
125	0x3badfa36	0.0053093685
126	0x3b8de7d8	0.0043306164
127	0x3d87f30d	0.06638155
128	0xbd260526	-0.040532254
129	0xbd9e0ba2	-0.077170625
130	0xbca5c657	-0.020236177
131	0x3d2c2e80	0.042036533
132	0xbcc15365	-0.023599336
133	0xbded82e7	-0.11597233
134	0x3c41a867	0.011819935
135	0x3cbf6fc7	0.02336873
136	0x3d9b04bc	0.075692624
137	0x3d2e5583	0.04256202
138	0x393ddf3e	0.00018107609
139	0xbd809807	-0.06278997
140	0xbd3ea258	-0.04654154
141	0xbd5fcbe7	-0.054637816
142	0xbd471715	-0.048605997
143	0xbd8f1694	-0.06986728
144	0x3d14f089	0.036362205
145	0x3cd07e63	0.02545089
146	0xbd207688	-0.03917554
147	0xbba765c7	-0.0051085684
148	0x3dc89b23	0.09795215
149	0x3d78f84b	0.060783666
150	0xbbb5d560	-0.005549118
151	0xbd134aad	-0.03595989
152	0x3d274cf5	0.040844876
153	0xbd8549f3	-0.06508245
154	0xbdd0551f	-0.101724856
155	0xbd34f06d	-0.0441746
156	0x3b1515ad	0.0022748515
157	0xbd0aaf06	-0.03385832
158	0xbd183b50	-0.03716594
159	0xbc9bc4a6	-0.019014668
160	0xbced57b4	-0.028972484
161	0xbc667a33	-0.0140672205
162	0xbba8a2f6	-0.0051463796
163	0xbbeeb582	-0.007284821
164	0x3d27dc09	0.040981326
165	0x3c2b1cd0	0.010443881
166	0x3d0ee93f	0.03489041
167	0x3ce52f7a	0.02797674
168	0xbccd4a9f	-0.025059996
169	0xbd85def1	-0.06536663
170	0xbd207bbd	-0.039180506
171	0x3d22e173	0.039765786
172	0x3c8d4b31	0.017247768
173	0xbd0928dc	-0.033486232
174	0xbc8b3f2e	-0.0169979
175	0x3ce9782e	0.028499689
176	0xbc7e53ff	-0.015522956
177	0xbd8c080e	-0.06837474
178	0xbd15031a	-0.03637991
179	0x3c11496a	0.008867601
180	0x3d079b5b	0.033107143
181	0x3d79a2dd	0.060946334
182	0x3c12faf7	0.0089709675
183	0x3afa4eb0	0.0019096937
184	0x3d7885c2	0.060674436
185	0xbd83172c	-0.06400904
186	0xbd710d90	-0.058850825
187	0xbdd6c84f	-0.104874246
188	0x3d652248	0.055940896
189	0x3c1e0fcd	0.009647322
190	0xbd82bda0	-0.06383824
191	0x3bcf1fef	0.0063209455
192	0xbd8916db	-0.066938125
193	0xbd150b5c	-0.036387786
194	0x3d95889a	0.07301445
195	0x3cc93460	0.024561107
196	0x3ca996fe	0.020701881
197	0xbd200afa	-0.039072968
198	0x3da9131e	0.082555994
199	0xbcd76a58	-0.026295826
200	0xbcdb5f1f	-0.026778756
201	0xbad34cd7	-0.0016120923
202	0x3d6865af	0.056737598
203	0x3bacf8be	0.005278676
204	0x3d4eef20	0.050521016
205	0xbdc78b3a	-0.09743352
206	0xbd26b3eb	-0.040698927
207	0x3b19854c	0.0023425398
208	0x3d57c549	0.05267838
209	0xbd8e6451	-0.069527276
210	0x3dbdf191	0.09274591
211	0xbd149eb8	-0.03628418
212	0xbdc01909	-0.09379775
213	0xbd90576c	-0.070479244
214	0xbd2a5a6c	-0.04159014
215	0x3d7fe5e7	0.06247511
216	0x3c8d5e4b	0.017256876
217	0x3d35db1f	0.044398423
218	0x3dbdcc8d	0.092675306
219	0xbd672cce	-0.056439213
220	0x3db47d36	0.088129446
221	0xbc2e756d	-0.010648114
222	0xbc9463cf	-0.018113999
223	0x3d314668	0.043280035
224	0xbd324c47	-0.043529775
225	0xbca77e94	-0.0204461
226	0x3d699e65	0.057035822
227	0x3b05ed59	0.002043566
228	0x3ce3b23e	0.027794953
229	0x3bff7088	0.007795397
230	0x3d650b97	0.055919256
231	0x3d4c5854	0.049888924
232	0x3c2ec63c	0.01066738
233	0x3c86133c	0.016366594
234	0x3cc64f08	0.024207607
235	0xbce24e7b	-0.027625313
236	0x3da773ff	0.081764214
237	0x3d4aab7e	0.049479954
238	0x3d2c7c86	0.042110942
239	0xbd80808d	-0.06274519
240	0xbdb4394d	-0.08799992
241	0x3df2b320	0.11850572
242	0x3d2ba12a	0.041901745
243	0x3d26e75c	0.040747985
244	0x3d71fb12	0.05907733
245	0x3d985bbc	0.07439372
246	0xbb9b2ba4	-0.004735427
247	0xbd8f61ec	-0.07001099
248	0xbd0efb1b	-0.03490744
249	0x3c463a79	0.012098902
250	0xbd98cf6b	-0.07461437
251	0x3ce9477e	0.028476473
252	0xbd8cb810	-0.06871045
253	0xbbc35c94	-0.005961964
254	0xbc2f9148	-0.01071579
255	0xbd794e4c	-0.060865685

encoding_layer.layer.0.bias f4 [64]
0	0x3d9af646	0.07566504
1	0xbd2af16d	-0.041734148
2	0x3d019b05	0.03164198
3	0xbbc43492	-0.005987712
4	0xbd375401	-0.044757847
5	0x3d6545a1	0.055974606
6	0x3ce55dc2	0.027998809
7	0xbd5ad5f5	-0.0534267
8	0x3d09784f	0.033562
9	0xbccf13f8	-0.025278077
10	0xbd98428f	-0.0743457
11	0xbda618be	-0.08110188
12	0xbca05ef8	-0.019576535
13	0x3c3b1bea	0.011420229
14	0xbc3c2f11	-0.011485831
15	0xbd057d16	-0.032589994
16	0xbcab6e7d	-0.020926708
17	0xbccfc6d8	-0.02536337
18	0x3d09768c	0.03356032
19	0x3d124bcd	0.03571682
20	0xbc017bd4	-0.007903058
21	0xbc049e4f	-0.008094384
22	0xbd73fffb	-0.059570294
23	0xbc981510	-0.01856473
24	0xbd236ba0	-0.03989756
25	0xbd8134d4	-0.06308904
26	0x3d87e27b	0.066349946
27	0xbcd18ce1	-0.025579872
28	0x3d82b692	0.06382479
29	0xbb5b898c	-0.0033498732
30	0x3c8ed02b	0.017433247
31	0xbd883046	-0.066498324
32	0x3d2fa1ec	0.04287903
33	0x3d253211	0.04033095
34	0x3c054555	0.008134206
35	0x3c67f2fd	0.014157054
36	0xbb2336e2	-0.002490454
37	0xbda34079	-0.079712816
38	0xbda32817	-0.07966631
39	0xbd1a6db2	-0.03770227
40	0x3d49083f	0.04908013
41	0x3cb10db0	0.021612972
42	0x3d3c9a07	0.04604533
43	0x3d9d16d0	0.07670367
44	0xbc1a3dfa	-0.00941419
45	0x3d006c97	0.03135356
46	0x3caf8236	0.021424394
47	0x3cc6ddce	0.024275687
48	0xbd7040ff	-0.058655735
49	0x3cc6da1b	0.024273923
50	0xbabd4b3a	-0.0014441975
51	0xbc8c46b2	-0.017123554
52	0x3d0ce2d1	0.034395996
53	0x3ce0c17f	0.027436016
54	0x38e037b6	0.00010691529
55	0x3d4953bc	0.04915212
56	0x3b887bf1	0.0041651656
57	0xbd5e095a	-0.054208137
58	0x3d316c72	0.043316312
59	0x3d6fa49a	0.058506586
60	0xbd31e65d	-0.043432582
61	0xbcfbca36	-0.03073607
62	0xbd988d75	-0.07448856
63	0x3cb4c75a	0.022067714

relational_layer.layers.0.att_src f4 [1, 1, 64]
0	0x3dbaa7fa	0.0911407
1	0x3e34ab28	0.17643416
2	0xbeac61d3	-0.33668384
3	0x3e30d391	0.17268206
4	0xbe4b73cf	-0.19868396
5	0xbe4601e1	-0.19336654
6	0x3e78de93	0.24303655
7	0x3e41f8c1	0.18942548
8	0x3e4a98d5	0.19784863
9	0xbeb02d36	-0.34409493
10	0x3e5744d4	0.2102235
11	0xbe85d750	-0.26140833
12	0x3dc6183a	0.096725896
13	0x3e4f7302	0.20258716
14	0x3e726419	0.23670997
15	0xbdd4aa7e	-0.10384081
16	0xbe51f85f	-0.20504902
17	0x3de696eb	0.11259254
18	0x3eabcbf3	0.33554038
19	0xbeac4919	-0.3364952
20	0xbc78d8c2	-0.015188398
21	0xbdd773c8	-0.105201304
22	0xbda1ac1d	-0.07894156
23	0x3e5beb2c	0.2147643
24	0xbe2f5348	-0.17121613
25	0xbe2d9d91	-0.16954638
26	0xbe995dcc	-0.29954374
27	0x3dc84003	0.09777834
28	0xbde96f21	-0.11398149
29	0xbe8d632d	-0.27614728
30	0xbdf9ab2d	-0.12190852
31	0x3d961787	0.07328706
32	0x3e92607e	0.28589243
33	0x3e62d399	0.2215103
34	0x3e8aa117	0.27076027
35	0xbea20b55	-0.3164927
36	0x3db827fb	0.08992001
37	0xbca73328	-0.020410135
38	0xbdee94c8	-0.116494715
39	0x3d9915ac	0.07474837
40	0x3e1faefd	0.15594096
41	0xbe744d75	-0.23857673
42	0x3ccbfade	0.024899896
43	0x3e79ed53	0.24406938
44	0x3ed18037	0.40918133
45	0xbd371877	-0.044701066
46	0x3dc88dca	0.09792669
47	0x3e9c69ec	0.30549562
48	0xbe85af1e	-0.26110166
49	0xbd7b7dd6	-0.061399303
50	0x3d1e9ad6	0.03872188
51	0x3eaf6983	0.34260187
52	0x3e183fda	0.14868107
53	0x3d1c294f	0.038125332
54	0xbe3c7fe1	-0.18408157
55	0x3e5d45e6	0.21608695
56	0xbda113c5	-0.07865099
57	0xbe783bdc	-0.24241585
58	0xbe220e80	-0.15825844
59	0x3d92af39	0.07162327
60	0xbc4138fe	-0.011793373
61	0x3e030244	0.12793833
62	0x3e9e9c4d	0.30978623
63	0x3e5d4125	0.21606882

relational_layer.layers.0.att_dst f4 [1, 1, 64]
0	0xbe8a74f4	-0.27042353
1	0xbe80a285	-0.25123993
2	0x3e2f6a86	0.17130479
3	0xbe810a82	-0.2520333
4	0xbe7e78c2	-0.24850753
5	0xbcd43a6b	-0.025906762
6	0xbe646508	-0.22304165
7	0xbe327bd3	-0.17430048
8	0x3e26cf39	0.16289987
9	0xbe0ecafa	-0.13944617
10	0xbe5671b0	-0.20941806
11	0x3e6b9cd3	0.23009042
12	0x3e583f12	0.2111781
13	0xbe1fcaef	-0.15604757
14	0xbe3b904c	-0.18316764
15	0xbd87da51	-0.066334374
16	0xbe1a4e27	-0.15068875
17	0xbe1c6e59	-0.1527647
18	0x3d91ec53	0.071251534
19	0x3d9db79b	0.077010356
20	0x3e04d584	0.12972075
21	0xbc8d4a02	-0.017247204
22	0xbc4963b9	-0.012291842
23	0xbb6a0176	-0.0035706437
24	0xbe31e14c	-0.173711
25	0x3e8f6072	0.2800327
26	0x3ddc3c69	0.1075371
27	0x3e42a67a	0.19008818
28	0xbd3a9f0f	-0.045561846
29	0xbe1307ed	-0.14358492
30	0xbe99f272	-0.30067784
31	0xbe22a5da	-0.1588358
32	0x3e9ac2ed	0.30226842
33	0x3db23951	0.087023385
34	0xbe81a9ed	-0.25324956
35	0x3dfada44	0.12248662
36	0x3dd102e7	0.10205632
37	0x3e62df13	0.22155409
38	0xbd1ebdd8	-0.038755268
39	0x3e04356a	0.12911001
40	0xbe0a4425	-0.13502558
41	0xbe1e5f7e	-0.15466115
42	0x3e554c61	0.20829917
43	0x3e76c8e8	0.24100077
44	0x3e05e718	0.13076437
45	0x3e1d3134	0.15350801
46	0xbdcdd75e	-0.10050844
47	0xbe84fc1e	-0.259736
48	0x3ddbe890	0.10737717
49	0x3c28b0db	0.010296072
50	0xbdade804	-0.08491519
51	0xbe4c5d18	-0.19957387
52	0xbe878438	-0.26468062
53	0xbe4a8e59	-0.19780864
54	0xbdc43486	-0.095803306
55	0xbe232724	-0.159329
56	0xbead3639	-0.3383043
57	0xbe8f7551	-0.28019193
58	0xbd75bf7e	-0.059997074
59	0x3e8ebbed	0.2787775
60	0xbea7bd9c	-0.32761848
61	0xbeade269	-0.339618
62	0xbe94f6f2	-0.29094654
63	0xbe970b4b	-0.29500803

relational_layer.layers.0.bias f4 [64]
0	0x3d00b940	0.03142667
1	0x3c22a4eb	0.009927015
2	0xbc840bac	-0.016118847
3	0xba6da106	-0.0009064827
4	0xba5080a4	-0.0007953739
5	0xbb5ad606	-0.0033391728
6	0xbc0eb60a	-0.008710394
7	0x3cde976e	0.027171817
8	0xbc4ddb35	-0.01256447
9	0xbadbe2ff	-0.0016776024
10	0xbca4d623	-0.02012164
11	0x3d00c5bf	0.031438585
12	0xbd0c9a07	-0.03432658
13	0x3ce2fcaf	0.02770838
14	0xbc4df6ed	-0.012571079
15	0xbc04c2b4	-0.0081030615
16	0xbc0214bf	-0.007939517
17	0xbb5bdb24	-0.0033547366
18	0xbbe290ed	-0.006914249
19	0xbb6a1bbb	-0.0035722095
20	0xbd087f8e	-0.03332477
21	0xbcd29d5b	-0.025709799
22	0xbc65984d	-0.014013362
23	0xbc4add08	-0.0123817995
24	0xbcde5923	-0.027142113
25	0xba42f690	-0.00074372534
26	0x3c2e0120	0.010620385
27	0xbb8d4de4	-0.004312264
28	0x3b2a643e	0.002599969
29	0x3cd55154	0.026039757
30	0x3bbe46e7	0.005806792
31	0x3be8ce4e	0.0071046716
32	0xbc1163f8	-0.008873932
33	0x3ca5d327	0.020242287
34	0x3c32b01d	0.0109062465
35	0x3b25bb90	0.0025288798
36	0xbc5f3564	-0.013623569
37	0xbb424e4e	-0.0029648724
38	0xbc9f1cb0	-0.019422859
39	0x3d06700a	0.032821693
40	0xbc8f383c	-0.01748287
41	0xbc500bdd	-0.012698141
42	0xba819da8	-0.0009888904
43	0x3b4423df	0.0029928607
44	0x3c82b52f	0.015955536
45	0xbc966d2a	-0.0183626
46	0xbcd5de69	-0.02610703
47	0x3aee6200	0.0018187165
48	0xbc4a8fa5	-0.012363349
49	0x3bfdb512	0.0077425325
50	0xbbd121da	-0.0063822092
51	0x3ce11f22	0.027480666
52	0xbc2c59a5	-0.01051942
53	0xbc647138	-0.013943009
54	0x3aa3fcb6	0.0012511227
55	0xbc202b1a	-0.009775901
56	0x3d001694	0.031271532
57	0xbd0dcc32	-0.034618564
58	0xbc83a27b	-0.016068688
59	0xbc0b0e14	-0.008487243
60	0xbc985725	-0.018596241
61	0xbcca272c	-0.024676882
62	0xbc30cc15	-0.010790844
63	0xbc785280	-0.015156388

relational_layer.layers.0.lin_src.weight f4 [64, 64]
0	0xbdec37af	-0.11534058
1	0xbdb3b480	-0.08774662
2	0x3e20a8d3	0.15689401
3	0xbe741f34	-0.23840028
4	0x3db4120f	0.08792507
5	0xbddd0407	-0.10791784
6	0xbd0fa0dd	-0.03506552
7	0xbe194787	-0.14968692
8	0xbe0d2e99	-0.13787307
9	0x3e09df11	0.13464
10	0x3d642a8c	0.05570464
11	0x3c93e979	0.018055664
12	0xbe7e4d85	-0.24834259
13	0x3c9a75c2	0.01885498
14	0xbe07ccfb	-0.13261788
15	0xbd3c9e73	-0.046049546
16	0x3d80fcc5	0.06298212
17	0x3da5a333	0.080877684
18	0xbe30ca35	-0.17264636
19	0xbe59aa6f	-0.21256422
20	0xbe0faa89	-0.14029898
21	0x3d52aba1	0.05143321
22	0xbe5349f2	-0.20633677
23	0x3d1ab77a	0.037772633
24	0xbd6f8de8	-0.05848494
25	0xbd0278d1	-0.0318535
26	0xbdc9320c	-0.09823999
27	0xbd8795f3	-0.066203974
28	0x3e489831	0.19589306
29	0x3c08e578	0.008355491
30	0x3d642679	0.055700753
31	0xbe2ac95d	-0.16678376
32	0x3d54f2a0	0.051989198
33	0xbde980f1	-0.11401547
34	0x3d81fb0b	0.06346711
35	0xbe4989c5	-0.19681461
36	0x3dded143	0.10879757
37	0x3e5bdb62	0.21470407
38	0xbddf2dff	-0.10897445
39	0xbd139b7f	-0.036036965
40	0x3a8cbfe7	0.0010738344
41	0xbdef0e89	-0.11672694
42	0x3d880785	0.06642059
43	0xbd60e130	-0.054902256
44	0x3e42c6d3	0.19021158
45	0xbe47ef6d	-0.19524927
46	0xbddbeed6	-0.10738914
47	0x3df73eae	0.12072502
48	0xbe697c3c	-0.22801298
49	0x3d2d5041	0.042312864
50	0xbe3912d6	-0.18073592
51	0x3e5de977	0.21671091
52	0xbdde8225	-0.10864667
53	0xbe0e5b54	-0.13902026
54	0x3dee054c	0.11622104
55	0xbe478bb3	-0.19486885
56	0x3da31afe	0.07964133
57	0x3e2836d7	0.1642717
58	0xbe1166ab	-0.14199321
59	0xbd8b6905	-0.0680714
60	0xbc0830ba	-0.008312399
61	0xbe8aec45	-0.27133384
62	0x3e2f5400	0.17121887
63	0xbe0b7759	-0.13619746
64	0x3c22e098	0.009941243
65	0xbd1cd023	-0.038284432
66	0xbe67d43d	-0.22639556
67	0xbc236916	-0.009973785
68	0xbda1d295	-0.079014935
69	0x3dcf52f0	0.10123241
70	0x3e50ad80	0.20378685
71	0xbdae5375	-0.08512012
72	0x3e2a073f	0.16604327
73	0xbe2d06b3	-0.16897087
74	0x3c6af8f7	0.014341584
75	0x3e04fb22	0.12986425
76	0xbe6e7a06	-0.23288736
77	0x3e19dc38	0.15025413
78	0xbd9339b6	-0.07188742
79	0x3e2b91a4	0.16754776
80	0xbdce4c22	-0.10073115
81	0xbe261efb	-0.16222756
82	0x3e4a6b3b	0.19767468
83	0x3d4e8688	0.050421268
84	0xbdf9a7ab	-0.12190183
85	0xbe0ba219	-0.13636054
86	0xbbfb72e1	-0.0076736067
87	0xbe2db8f4	-0.16965085
88	0x3de7dc39	0.11321301
89	0x3dcff0ec	0.10153374
90	0x3d767a0c	0.060174987
91	0x3e5973ef	0.21235631
92	0x3d810099	0.06298942
93	0x3da29471	0.07938469
94	0x3dc4a1c1	0.096011646
95	0xbe56bd7d	-0.20970722
96	0x3b81dd26	0.0039631305
97	0x3df41cfd	0.119195916
98	0x3dcfdffb	0.10150143
99	0x3dd4d2ef	0.10391795
100	0xbcb40b0a	-0.02197792
101	0xbe300fd5	-0.1719354
102	0xbd710b8e	-0.05884891
103	0x3e1d404f	0.15356563
104	0xbbd1cdd5	-0.006402711
105	0x3c23dda4	0.010001574
106	0x3d965bcc	0.073417276
107	0xbda61058	-0.08108586
108	0x3d0ed419	0.03487024
109	0x3e10681b	0.14102213
110	0x3c4e4460	0.012589544
111	0xbd4d4a75	-0.050119836
112	0xbd403ccd	-0.046932984
113	0x391f22be	0.00015176364
114	0x3d7011b2	0.058610626
115	0x3db4974d	0.08817921
116	0xbe079894	-0.13241798
117	0xbd802c51	-0.06258453
118	0xbd481c4a	-0.048855104
119	0x3dcdf043	0.10055592
120	0xbc0ed650	-0.008718088
121	0x3e3ae5fc	0.18251795
122	0xbdca9a5d	-0.09892724
123	0x3d8d4979	0.068987794
124	0xbddef993	-0.10887446
125	0xbe2dee65	-0.16985472
126	0xbe0a415c	-0.13501495
127	0x3cad0196	0.02111892
128	0xbdfcc1b5	-0.12341634
129	0xbe161e22	-0.14659932
130	0xbe444077	-0.19165216
131	0x3e10f2f7	0.14155184
132	0xbe46d70f	-0.19417976
133	0xbccebd06	-0.025236618
134	0xbe4e8d7a	-0.20171157
135	0x3e3ddb95	0.18540795
136	0xbe40e54f	-0.18837474
137	0xbd3b2156	-0.04568609
138	0x3d959a9f	0.07304882
139	0x3cb17aa5	0.021664927
140	0x3d1fa3e8	0.038974673
141	0xbd198e82	-0.03748942
142	0x3e0a4adc	0.13505119
143	0x3e2271db	0.15863745
144	0xbe5f6024	-0.21814018
145	0x3d342a58	0.043985695
146	0x3e0ecf1c	0.13946193
147	0xbc5931f6	-0.0132565405
148	0x3d6d14cd	0.057881165
149	0xbdb0d718	-0.08634776
150	0x3e32ff82	0.17480281
151	0xbd641f7d	-0.055694092
152	0x3ceb161f	0.028697072
153	0xbd830e25	-0.06399182
154	0xbd06b6dd	-0.032889236
155	0x3db8d151	0.09024299
156	0xbe32101c	-0.17388958
157	0x3e6dc0a2	0.23218015
158	0x3d1cfccd	0.038327027
159	0xbd412cd9	-0.04716191
160	0xbe3b898d	-0.1831419
161	0x3dfb63f2	0.122749224
162	0xbd2469f4	-0.040140107
163	0xbb8bb32a	-0.0042633014
164	0x3e0c1e01	0.1368332
165	0xbddec910	-0.108781934
166	0x3e15abaf	0.14616273
167	0xbe3062b6	-0.17225155
168	0xbe2f3863	-0.17111354
169	0x3e3abe45	0.18236645
170	0x3d6ec604	0.05829431
171	0x3df951c6	0.121738
172	0xbd0e934e	-0.03480845
173	0x3af17125	0.001842056
174	0x3d7f9f43	0.062407743
175	0xbd9a0e57	-0.07522266
176	0xbe35b217	-0.17743717
177	0xbe0e2fde	-0.13885447
178	0x3d0aad85	0.033856887
179	0xba55eafd	-0.0008160321
180	0x3e21e8c7	0.15811454
181	0xb8007d48	-3.0634255e-05
182	0x3e3be485	0.18348892
183	0x3e24ea22	0.1610494
184	0x3e1c41d7	0.15259491
185	0x3dde6bbc	0.108603925
186	0xbca18c71	-0.019720288
187	0xbe02371f	-0.1271634
188	0xbe151167	-0.1455742
189	0xbd105492	-0.035236903
190	0x3d1db7be	0.03850531
191	0xbe0bb5a6	-0.13643512
192	0xbe38c329	-0.18043198
193	0x3d06ebc6	0.032939695
194	0x3e0f6c90	0.14006257
195	0xbdfd5c5f	-0.12371134
196	0xbdb3500a	-0.087555006
197	0xbe55a3e4	-0.208633
198	0x3d0d5d97	0.034513082
199	0xbdef97f3	-0.11698904
200	0x3dd07f63	0.10180547
201	0xbd008ece	-0.03138619
202	0x3d8894ec	0.066690296
203	0x3de45920	0.11149812
204	0x3e360446	0.17775068
205	0xbe178e7c	-0.14800447
206	0xbd4af1f4	-0.04954715
207	0xbda834f3	-0.08213224
208	0xbd7f93f4	-0.06239696
209	0xbd8906bc	-0.066907376
210	0xbb225296	-0.0024768463
211	0x3dcf016c	0.10107693
212	0xbd28bb3e	-0.041194193
213	0xbe225370	-0.15852141
214	0x3e277e01	0.1635666
215	0x3e208477	0.15675531
216	0x3db01616	0.085979626
217	0x3e4775e1	0.19478561
218	0xbd130d82	-0.035901554
219	0xbe09ca34	-0.1345604
220	0x3e580910	0.21097207
221	0x3cf4b474	0.029871203
222	0x3b5ea32e	0.0033971774
223	0xbe1a8ce5	-0.1509281
224	0xbd7096cd	-0.058737565
225	0x3dbd6212	0.09247221
226	0xbdda63d0	-0.10663569
227	0x3ae94ce7	0.0017799408
228	0xbdbfea3b	-0.09370848
229	0xbe2f72f8	-0.17133701
230	0xbe6091ef	-0.21930669
231	0x3d5e30cc	0.054245755
232	0xbdd3e87d	-0.10347078
233	0xbdfbb5b3	-0.12290516
234	0x3cecb4f2	0.028894875
235	0xbc809ebe	-0.015700694
236	0x3e2c488c	0.1682455
237	0xbe443ad2	-0.19163063
238	0x3c3c12c1	0.011479081
239	0xbddb6e9b	-0.10714456
240	0xbdd0c8a2	-0.10194518
241	0x3d58da9f	0.05294287
242	0x3e3e86cc	0.18606108
243	0x3e419599	0.18904723
244	0x3e4a8009	0.19775404
245	0x3d07d621	0.033163194
246	0xbdccbca2	-0.09996916
247	0xbd62cb5c	-0.05536972
248	0xbe2b2b78	-0.16715801
249	0xbdf6087c	-0.12013337
250	0x3e0709d4	0.13187343
251	0xbd3995d1	-0.04530889
252	0x3d76a97f	0.060220238
253	0xbe70df58	-0.23522699
254	0x3e03efc6	0.12884435
255	0xbe40afe9	-0.18817104

relational_layer.layers.0.lin_dst.weight f4 [64, 64]
0	0xbdec37af	-0.11534058
1	0xbdb3b480	-0.08774662
2	0x3e20a8d3	0.15689401
3	0xbe741f34	-0.23840028
4	0x3db4120f	0.08792507
5	0xbddd0407	-0.10791784
6	0xbd0fa0dd	-0.03506552
7	0xbe194787	-0.14968692
8	0xbe0d2e99	-0.13787307
9	0x3e09df11	0.13464
10	0x3d642a8c	0.05570464
11	0x3c93e979	0.018055664
12	0xbe7e4d85	-0.24834259
13	0x3c9a75c2	0.01885498
14	0xbe07ccfb	-0.13261788
15	0xbd3c9e73	-0.046049546
16	0x3d80fcc5	0.06298212
17	0x3da5a333	0.080877684
18	0xbe30ca35	-0.17264636
19	0xbe59aa6f	-0.21256422
20	0xbe0faa89	-0.14029898
21	0x3d52aba1	0.05143321
22	0xbe5349f2	-0.20633677
23	0x3d1ab77a	0.037772633
24	0xbd6f8de8	-0.05848494
25	0xbd0278d1	-0.0318535
26	0xbdc9320c	-0.09823999
27	0xbd8795f3	-0.066203974
28	0x3e489831	0.19589306
29	0x3c08e578	0.008355491
30	0x3d642679	0.055700753
31	0xbe2ac95d	-0.16678376
32	0x3d54f2a0	0.051989198
33	0xbde980f1	-0.11401547
34	0x3d81fb0b	0.06346711
35	0xbe4989c5	-0.19681461
36	0x3dded143	0.10879757
37	0x3e5bdb62	0.21470407
38	0xbddf2dff	-0.10897445
39	0xbd139b7f	-0.036036965
40	0x3a8cbfe7	0.0010738344
41	0xbdef0e89	-0.11672694
42	0x3d880785	0.06642059
43	0xbd60e130	-0.054902256
44	0x3e42c6d3	0.19021158
45	0xbe47ef6d	-0.19524927
46	0xbddbeed6	-0.10738914
47	0x3df73eae	0.12072502
48	0xbe697c3c	-0.22801298
49	0x3d2d5041	0.042312864
50	0xbe3912d6	-0.18073592
51	0x3e5de977	0.21671091
52	0xbdde8225	-0.10864667
53	0xbe0e5b54	-0.13902026
54	0x3dee054c	0.11622104
55	0xbe478bb3	-0.19486885
56	0x3da31afe	0.07964133
57	0x3e2836d7	0.1642717
58	0xbe1166ab	-0.14199321
59	0xbd8b6905	-0.0680714
60	0xbc0830ba	-0.008312399
61	0xbe8aec45	-0.27133384
62	0x3e2f5400	0.17121887
63	0xbe0b7759	-0.13619746
64	0x3c22e098	0.009941243
65	0xbd1cd023	-0.038284432
66	0xbe67d43d	-0.22639556
67	0xbc236916	-0.009973785
68	0xbda1d295	-0.079014935
69	0x3dcf52f0	0.10123241
70	0x3e50ad80	0.20378685
71	0xbdae5375	-0.08512012
72	0x3e2a073f	0.16604327
73	0xbe2d06b3	-0.16897087
74	0x3c6af8f7	0.014341584
75	0x3e04fb22	0.12986425
76	0xbe6e7a06	-0.23288736
77	0x3e19dc38	0.15025413
78	0xbd9339b6	-0.07188742
79	0x3e2b91a4	0.16754776
80	0xbdce4c22	-0.10073115
81	0xbe261efb	-0.16222756
82	0x3e4a6b3b	0.19767468
83	0x3d4e8688	0.050421268
84	0xbdf9a7ab	-0.12190183
85	0xbe0ba219	-0.13636054
86	0xbbfb72e1	-0.0076736067
87	0xbe2db8f4	-0.16965085
88	0x3de7dc39	0.11321301
89	0x3dcff0ec	0.10153374
90	0x3d767a0c	0.060174987
91	0x3e5973ef	0.21235631
92	0x3d810099	0.06298942
93	0x3da29471	0.07938469
94	0x3dc4a1c1	0.096011646
95	0xbe56bd7d	-0.20970722
96	0x3b81dd26	0.0039631305
97	0x3df41cfd	0.119195916
98	0x3dcfdffb	0.10150143
99	0x3dd4d2ef	0.10391795
100	0xbcb40b0a	-0.02197792
101	0xbe300fd5	-0.1719354
102	0xbd710b8e	-0.05884891
103	0x3e1d404f	0.15356563
104	0xbbd1cdd5	-0.006402711
105	0x3c23dda4	0.010001574
106	0x3d965bcc	0.073417276
107	0xbda61058	-0.08108586
108	0x3d0ed419	0.03487024
109	0x3e10681b	0.14102213
110	0x3c4e4460	0.012589544
111	0xbd4d4a75	-0.050119836
112	0xbd403ccd	-0.046932984
113	0x391f22be	0.00015176364
114	0x3d7011b2	0.058610626
115	0x3db4974d	0.08817921
116	0xbe079894	-0.13241798
117	0xbd802c51	-0.06258453
118	0xbd481c4a	-0.048855104
119	0x3dcdf043	0.10055592
120	0xbc0ed650	-0.008718088
121	0x3e3ae5fc	0.18251795
122	0xbdca9a5d	-0.09892724
123	0x3d8d4979	0.068987794
124	0xbddef993	-0.10887446
125	0xbe2dee65	-0.16985472
126	0xbe0a415c	-0.13501495
127	0x3cad0196	0.02111892
128	0xbdfcc1b5	-0.12341634
129	0xbe161e22	-0.14659932
130	0xbe444077	-0.19165216
131	0x3e10f2f7	0.14155184
132	0xbe46d70f	-0.19417976
133	0xbccebd06	-0.025236618
134	0xbe4e8d7a	-0.20171157
135	0x3e3ddb95	0.18540795
136	0xbe40e54f	-0.18837474
137	0xbd3b2156	-0.04568609
138	0x3d959a9f	0.07304882
139	0x3cb17aa5	0.021664927
140	0x3d1fa3e8	0.038974673
141	0xbd198e82	-0.03748942
142	0x3e0a4adc	0.13505119
143	0x3e2271db	0.15863745
144	0xbe5f6024	-0.21814018
145	0x3d342a58	0.043985695
146	0x3e0ecf1c	0.13946193
147	0xbc5931f6	-0.0132565405
148	0x3d6d14cd	0.057881165
149	0xbdb0d718	-0.08634776
150	0x3e32ff82	0.17480281
151	0xbd641f7d	-0.055694092
152	0x3ceb161f	0.028697072
153	0xbd830e25	-0.06399182
154	0xbd06b6dd	-0.032889236
155	0x3db8d151	0.09024299
156	0xbe32101c	-0.17388958
157	0x3e6dc0a2	0.23218015
158	0x3d1cfccd	0.038327027
159	0xbd412cd9	-0.04716191
160	0xbe3b898d	-0.1831419
161	0x3dfb63f2	0.122749224
162	0xbd2469f4	-0.040140107
163	0xbb8bb32a	-0.0042633014
164	0x3e0c1e01	0.1368332
165	0xbddec910	-0.108781934
166	0x3e15abaf	0.14616273
167	0xbe3062b6	-0.17225155
168	0xbe2f3863	-0.17111354
169	0x3e3abe45	0.18236645
170	0x3d6ec604	0.05829431
171	0x3df951c6	0.121738
172	0xbd0e934e	-0.03480845
173	0x3af17125	0.001842056
174	0x3d7f9f43	0.062407743
175	0xbd9a0e57	-0.07522266
176	0xbe35b217	-0.17743717
177	0xbe0e2fde	-0.13885447
178	0x3d0aad85	0.033856887
179	0xba55eafd	-0.0008160321
180	0x3e21e8c7	0.15811454
181	0xb8007d48	-3.0634255e-05
182	0x3e3be485	0.18348892
183	0x3e24ea22	0.1610494
184	0x3e1c41d7	0.15259491
185	0x3dde6bbc	0.108603925
186	0xbca18c71	-0.019720288
187	0xbe02371f	-0.1271634
188	0xbe151167	-0.1455742
189	0xbd105492	-0.035236903
190	0x3d1db7be	0.03850531
191	0xbe0bb5a6	-0.13643512
192	0xbe38c329	-0.18043198
193	0x3d06ebc6	0.032939695
194	0x3e0f6c90	0.14006257
195	0xbdfd5c5f	-0.12371134
196	0xbdb3500a	-0.087555006
197	0xbe55a3e4	-0.208633
198	0x3d0d5d97	0.034513082
199	0xbdef97f3	-0.11698904
200	0x3dd07f63	0.10180547
201	0xbd008ece	-0.03138619
202	0x3d8894ec	0.066690296
203	0x3de45920	0.11149812
204	0x3e360446	0.17775068
205	0xbe178e7c	-0.14800447
206	0xbd4af1f4	-0.04954715
207	0xbda834f3	-0.08213224
208	0xbd7f93f4	-0.06239696
209	0xbd8906bc	-0.066907376
210	0xbb225296	-0.0024768463
211	0x3dcf016c	0.10107693
212	0xbd28bb3e	-0.041194193
213	0xbe225370	-0.15852141
214	0x3e277e01	0.1635666
215	0x3e208477	0.15675531
216	0x3db01616	0.085979626
217	0x3e4775e1	0.19478561
218	0xbd130d82	-0.035901554
219	0xbe09ca34	-0.1345604
220	0x3e580910	0.21097207
221	0x3cf4b474	0.029871203
222	0x3b5ea32e	0.0033971774
223	0xbe1a8ce5	-0.1509281
224	0xbd7096cd	-0.058737565
225	0x3dbd6212	0.09247221
226	0xbdda63d0	-0.10663569
227	0x3ae94ce7	0.0017799408
228	0xbdbfea3b	-0.09370848
229	0xbe2f72f8	-0.17133701
230	0xbe6091ef	-0.21930669
231	0x3d5e30cc	0.054245755
232	0xbdd3e87d	-0.10347078
233	0xbdfbb5b3	-0.12290516
234	0x3cecb4f2	0.028894875
235	0xbc809ebe	-0.015700694
236	0x3e2c488c	0.1682455
237	0xbe443ad2	-0.19163063
238	0x3c3c12c1	0.011479081
239	0xbddb6e9b	-0.10714456
240	0xbdd0c8a2	-0.10194518
241	0x3d58da9f	0.05294287
242	0x3e3e86cc	0.18606108
243	0x3e419599	0.18904723
244	0x3e4a8009	0.19775404
245	0x3d07d621	0.033163194
246	0xbdccbca2	-0.09996916
247	0xbd62cb5c	-0.05536972
248	0xbe2b2b78	-0.16715801
249	0xbdf6087c	-0.12013337
250	0x3e0709d4	0.13187343
251	0xbd3995d1	-0.04530889
252	0x3d76a97f	0.060220238
253	0xbe70df58	-0.23522699
254	0x3e03efc6	0.12884435
255	0xbe40afe9	-0.18817104

action_layer.layer1.0.weight f4 [128, 128]
0	0x3cd59114	0.026070155
1	0xbd0e199f	-0.034692403
2	0xbd95fd9a	-0.07323761
3	0xbd8316e6	-0.06400852
4	0x3d00349b	0.03130017
5	0xbd2d06e5	-0.042242903
6	0xbd8a41f6	-0.06750862
7	0xbdb83ddc	-0.08996174
8	0x3b983051	0.0046444316
9	0x3da55f7c	0.08074853
10	0x3d0a1155	0.033707935
11	0xbd700139	-0.058594916
12	0x3d1910bd	0.03736948
13	0x3d80d15b	0.062899314
14	0x3c65346c	0.013989549
15	0xbc97926f	-0.018502442
16	0xbd597d90	-0.05309826
17	0xbb91180c	-0.0044279154
18	0xbc3eec4b	-0.011653016
19	0xbd7f221d	-0.062288392
20	0x3da25a81	0.079274185
21	0x3d44891e	0.047982328
22	0xbb4b56b2	-0.0031027016
23	0xbc36fe51	-0.011169032
24	0xbd6466c7	-0.05576208
25	0xbcbdb902	-0.023159508
26	0x3d94facb	0.072743975
27	0xbceb3858	-0.02871339
28	0x3d0c1aa5	0.034205098
29	0xbc719d95	-0.014747043
30	0x3cc98a79	0.024602162
31	0x3b76cf9a	0.0037660361
32	0xbd7b3ab0	-0.061335266
33	0xbd97c1d2	-0.07410015
34	0x3d3a567b	0.04549263
35	0x3d99f8d8	0.07518166
36	0xbafcd720	-0.0019290186
37	0xbbcf018b	-0.0063173226
38	0x3c6944a2	0.014237555
39	0xbd4ac418	-0.049503416
40	0x3a8b360e	0.0010620968
41	0x3cc98eef	0.024604289
42	0xbd4a26d3	-0.049353432
43	0xbbcd0aae	-0.0062573766
44	0x3c330d79	0.010928505
45	0x3d305da2	0.043058045
46	0x3d19e572	0.03757233
47	0x3d8d726a	0.069065884
48	0xbda13eb3	-0.07873287
49	0xbb8fd1de	-0.004389032
50	0xbca3ac93	-0.01997975
51	0xbbe59083	-0.0070057525
52	0x3d7a0f39	0.061049674
53	0x3da9f728	0.082990944
54	0x3d299744	0.041404024
55	0x3a467c30	0.0007571606
56	0xbc78672b	-0.015161316
57	0x3d915e1f	0.0709803
58	0xbd04fd90	-0.03246838
59	0x3d383b0d	0.04497819
60	0xbce0b06a	-0.02742787
61	0x3ceaf549	0.028681414
62	0xbd1f1c30	-0.03884524
63	0x3db79d70	0.08965576
64	0x3dce17b6	0.10063116
65	0xbd81d221	-0.06338907
66	0xbdbdcfe6	-0.09268169
67	0xbcbdb15b	-0.023155859
68	0xbda406a4	-0.08009079
69	0x3c9b6c47	0.01897253
70	0xbd6ebf50	-0.05828792
71	0x3cd4400a	0.025909442
72	0x3d38b3dd	0.045093406
73	0x3d9bcd15	0.07607476
74	0xbd058426	-0.03259673
75	0x3cd37db7	0.025816781
76	0xbcf91229	-0.030404167
77	0xbba3c553	-0.004997888
78	0x3d511b5b	0.05105148
79	0xbd8157e7	-0.06315594
80	0xbc318afc	-0.010836359
81	0xbc879132	-0.016548727
82	0x3ba47f2e	0.005020044
83	0x3d62f36e	0.055407934
84	0xbd9a1fac	-0.07525572
85	0xbbfddc38	-0.0077471994
86	0x3d80b969	0.06285364
87	0xbc43edae	-0.011958523
88	0x3d582f5e	0.052779548
89	0xbaebb1ea	-0.00179821
90	0x3d7aab20	0.061198354
91	0x3b650790	0.0034947135
92	0xbbf7ee41	-0.007566244
93	0xbdb78773	-0.08961382
94	0x3dab6ecd	0.08370743
95	0xbb717fde	-0.0036849896
96	0xbd774199	-0.060365293
97	0xbd43f765	-0.047843356
98	0x3d4f293f	0.050576445
99	0x3d57dc3c	0.052700266
100	0xbd90b4b9	-0.0706572
101	0x3d413ac1	0.047175173
102	0xbdbc021f	-0.09180092
103	0x3c036950	0.008020714
104	0x3d5f70ae	0.05455082
105	0x3d96dc25	0.07366208
106	0xbc850221	-0.016236367
107	0x3d826b90	0.06368172
108	0xbc4a5878	-0.012350194
109	0xbc61ea09	-0.0137887085
110	0x3d0898b1	0.033348743
111	0x3dc475b7	0.09592765
112	0xbd3d7600	-0.04625511
113	0x3d5d742b	0.054065865
114	0x3ae59e17	0.0017518428
115	0x3d9003e8	0.07031995
116	0x3bb19e43	0.0054204776
117	0x3d7ef44d	0.062244702
118	0xbcdb43c3	-0.02676571
119	0x3d84489f	0.06459164
120	0x3bdda9b0	0.006764613
121	0xbd2a95a4	-0.041646615
122	0xbd8dc289	-0.0692187
123	0xbc100d70	-0.008792266
124	0x3d07b8f4	0.03313537
125	0xbb29a26d	-0.0025884167
126	0x3b888935	0.004166747
127	0x3c811cc7	0.015760792
128	0x3c282c3d	0.0102644535
129	0xbcb6eff7	-0.022331221
130	0xbc9ca822	-0.01912314
131	0x3d8953af	0.067054145
132	0xbd61d07b	-0.055130463
133	0x3d661438	0.056171626
134	0x3d8d1eef	0.06890666
135	0x3d5fdd45	0.05465438
136	0xbcdcc3e8	-0.026948884
137	0x3d837511	0.06418813
138	0x3b8be8b6	0.0042696847
139	0xbd73b569	-0.059499178
140	0x3c14fd73	0.00909363
141	0x3d87fead	0.066403724
142	0x3d52157a	0.051290013
143	0xbb8bb59c	-0.004263593
144	0xbd8b52c2	-0.06802894
145	0xbd3a74aa	-0.045521416
146	0xbd924307	-0.07141691
147	0x3d49432a	0.04913632
148	0xbd441386	-0.04787018
149	0xbda9b959	-0.082873054
150	0x3d5ac948	0.053414613
151	0xbd39e89c	-0.04538785
152	0x3d57893c	0.05262111
153	0x3d394139	0.045228217
154	0xbcc5daa6	-0.024152111
155	0x3c14e92f	0.009088798
156	0x3da1f39d	0.07907794
157	0xbd48333f	-0.048876997
158	0x3d82e4b8	0.06391281
159	0xbc6390c3	-0.013889494
160	0x3d8dc0b8	0.06921524
161	0xbcc11380	-0.023568869
162	0x3c8f8886	0.017521154
163	0x3d6a35b9	0.05718014
164	0xbcce2128	-0.025162295
165	0x3d217d63	0.03942622
166	0xbccd963a	-0.025096048
167	0x3d2479b6	0.040155135
168	0x3b9e52c7	0.004831645
169	0x3c872450	0.016496807
170	0x3c46e9df	0.01214072
171	0xbd9cba0a	-0.07652672
172	0xbbe9a60b	-0.0071303896
173	0x3d810204	0.062992126
174	0x3cfb256e	0.030657496
175	0xbd68e4db	-0.05685888
176	0xbba24138	-0.0049516223
177	0xbd5c38ba	-0.053765036
178	0x3d1b37e8	0.037895113
179	0x3d82edaf	0.06392991
180	0xbd5a1d12	-0.05325038
181	0xbd327f58	-0.043578476
182	0xbd97921a	-0.074009135
183	0x3ce89d18	0.02839522
184	0x3cf6fbd9	0.030149387
185	0x3ced6733	0.028979873
186	0xbd2fe269	-0.04294053
187	0x3d6e41df	0.05816829
188	0x3bd230eb	0.006414523
189	0x3c732da3	0.014842424
190	0xbb9234e4	-0.0044618715
191	0x3cd2fa16	0.025754016
192	0xbce03170	-0.027367324
193	0x3afcb447	0.0019279801
194	0xbdca6541	-0.09882594
195	0x3d8f8759	0.070082374
196	0x3d70ef02	0.058821686
197	0xbcfdac78	-0.030966029
198	0x3d2b88d0	0.04187852
199	0xbda64e25	-0.08120374
200	0x3d04aa01	0.03238869
201	0xbcccd20d	-0.025002504
202	0x3cfd5500	0.03092432
203	0xbda84578	-0.08216375
204	0xbcfcb985	-0.030850181
205	0x3d93196f	0.071825854
206	0xbd59dc3c	-0.053188547
207	0x3d452ae5	0.04813661
208	0x3db958fd	0.09050176
209	0x3ce08b92	0.027410302
210	0x3d4e394a	0.050347604
211	0xbcffa7a3	-0.031207865
212	0xbdadec70	-0.084923625
213	0xbd7027e0	-0.058631778
214	0x3985d20b	0.0002552423
215	0x3be50f6c	0.006990364
216	0xbddcd855	-0.107834496
217	0xbd7977b0	-0.06090516
218	0x3d89d11f	0.0672934
219	0x3d23c763	0.039985072
220	0x3b7ae01c	0.0038280552
221	0xbd84f2bb	-0.0649161
222	0xbda65c4f	-0.08123075
223	0xbd79b3e4	-0.060962573
224	0xbcf16fec	-0.029472314
225	0x3dc13088	0.09433085
226	0x3d41b530	0.047291934
227	0x3de20f36	0.110380575
228	0xbdb466b3	-0.08808651
229	0x3c2ece41	0.010669292
230	0x3ce57ca2	0.028013531
231	0xbd11891f	-0.03553116
232	0xbd257b03	-0.040400516
233	0xbdc39cf0	-0.09551418
234	0xbd783c15	-0.060604174
235	0xbc3f1aa7	-0.011664069
236	0x3cbff2c7	0.023431195
237	0xbd554e7c	-0.0520768
238	0xbd80f7d1	-0.06297267
239	0x3dba081a	0.090835765
240	0xbb892940	-0.0041858256
241	0x3ca6f273	0.02037928
242	0x3d8d74bd	0.06907032
243	0x3d98e92c	0.07466349
244	0xbcca863b	-0.02472221
245	0xbd2c27d0	-0.042030156
246	0x3d673bf1	0.05645365
247	0x3cb557c4	0.022136576
248	0x3d6bebf7	0.05759808
249	0x3d853c89	0.06505687
250	0x3d6fcf7d	0.058547486
251	0x3d047c47	0.032345083
252	0xbc4eea38	-0.012629084
253	0x3d1b5f08	0.037932426
254	0xbd6712c5	-0.056414384
255	0x3ddd7ff7	0.10815423

action_layer.layer1.0.bias f4 [128]
0	0x3dc654c7	0.09684139
1	0x3c4a95e9	0.012364843
2	0x3ce6af32	0.028159712
3	0x3c330db0	0.010928556
4	0xbcb9d2a4	-0.02268345
5	0xbd938f40	-0.07205057
6	0xbcfb103b	-0.030647388
7	0xbb71367f	-0.0036806164
8	0xbd9fc315	-0.07800881
9	0xbd9154b2	-0.070962325
10	0xbd1fc0e6	-0.03900232
11	0xbda8ddd0	-0.082454324
12	0x3d17d84c	0.03707151
13	0x3d8058e7	0.06266957
14	0x3cd9183b	0.026500812
15	0x3d217eb0	0.03942746
16	0xbd19311c	-0.03740035
17	0xbb5b244a	-0.0033438378
18	0x3cba4ba4	0.022741146
19	0xbc19bf07	-0.009383923
20	0xbd8b32f5	-0.06796829
21	0xbd8b7d17	-0.06810968
22	0x3d66d7b0	0.05635804
23	0x3d9bb237	0.07602351
24	0xbd329532	-0.043599315
25	0x3d9f1f41	0.07769633
26	0xbdb4eabf	-0.08833837
27	0x3c4e299d	0.012583164
28	0x3b9fec74	0.0048804823
29	0x3d16641c	0.036716565
30	0x3b848e07	0.0040452513
31	0x3d11d6fe	0.035605423
32	0x3c987f89	0.018615501
33	0x3cc53d06	0.02407695
34	0x3d13fd92	0.036130495
35	0x3c61dac2	0.013785066
36	0xbc5efe96	-0.013610503
37	0x3c88a355	0.016679445
38	0x3d3b5ffb	0.04574583
39	0xbd5ba1d1	-0.053621117
40	0x3c83421e	0.016022738
41	0x3dad9114	0.08474937
42	0x3a2a172f	0.000648844
43	0x3d2e631d	0.04257499
44	0x3da61deb	0.08111175
45	0xbcc96973	-0.024586415
46	0xbd8da3b4	-0.069159895
47	0x3d17faa5	0.037104268
48	0x3d722958	0.05912146
49	0xbd4ff1cc	-0.050767705
50	0xbc638eb7	-0.013889006
51	0xbd5b9174	-0.05360551
52	0x3d089c11	0.03335196
53	0xbbe0e325	-0.0068630152
54	0xbd30b2ad	-0.04313915
55	0xbd5533d0	-0.052051365
56	0xbc804088	-0.01565577
57	0xbd0aa072	-0.03384442
58	0xbc6bbde7	-0.014388538
59	0xbd1ed572	-0.038777776
60	0x3d8de401	0.06928254
61	0xbd8e0ac9	-0.06935651
62	0x3bd57586	0.006514254
63	0xbd98d45b	-0.074623786
64	0x3c7c3556	0.015393576
65	0x3c5976b7	0.013272933
66	0xbd598979	-0.05310962
67	0xbd393dce	-0.045224957
68	0x3ca3869b	0.019961646
69	0xbd622ad9	-0.055216644
70	0x3d3f941d	0.04677211
71	0xbc8582ac	-0.01629766
72	0xbd063f9c	-0.032775506
73	0x3d0750c4	0.03303601
74	0xbca4c3c0	-0.020112872
75	0xbd16f282	-0.036852367
76	0xbd804919	-0.06263942
77	0x3d7096bc	0.0587375
78	0xbd5e4518	-0.05426511
79	0x3da97531	0.082743056
80	0xbd134fa5	-0.035964627
81	0x3d9ff642	0.07810642
82	0xbce39bae	-0.027784195
83	0xbd619360	-0.05507219
84	0xbd202fdd	-0.039108146
85	0x3d413072	0.04716534
86	0xbb4fc74d	-0.0031704486
87	0xbc3bad2c	-0.011454862
88	0x3d8bb394	0.06821361
89	0x3d692c39	0.05692694
90	0x3c8cb5f8	0.017176613
91	0xbd497bfb	-0.049190503
92	0xbc6a43b8	-0.014298372
93	0xbd7a814a	-0.061158456
94	0x3dadc93e	0.084856495
95	0xbcf1af53	-0.029502546
96	0xbd7316c7	-0.059347894
97	0x3c382811	0.011240021
98	0xbd718be2	-0.058971293
99	0xbbd9ef2b	-0.0066508255
100	0x3c200727	0.00976733
101	0x3a1609fc	0.00057235337
102	0xbd8c6c20	-0.06856561
103	0x3cb912df	0.022592006
104	0xbdacbfb6	-0.084350035
105	0x3d80c07f	0.06286716
106	0xbd823b63	-0.06358983
107	0xbdb86a7f	-0.090046875
108	0xbda7c21a	-0.08191319
109	0xbda218ed	-0.079149105
110	0x3d26ffc3	0.040771257
111	0xbc88b776	-0.016689043
112	0xbcb11865	-0.021618078
113	0xbc0aaeac	-0.008464497
114	0xbc693c14	-0.014235515
115	0x3cecef47	0.02892269
116	0xbd7db1da	-0.06193719
117	0xbd269ea0	-0.04067862
118	0x3d5e10fe	0.054215424
119	0x3d40177e	0.046897404
120	0x3d6111f7	0.054948773
121	0x3d8e65f9	0.069530435
122	0xbd7536ce	-0.05986672
123	0xbb3c7f04	-0.002876223
124	0x3d6f9b32	0.058497615
125	0x3d093bb9	0.03350422
126	0xbdbd39e2	-0.09239556
127	0xbd4fb8a2	-0.05071319

action_layer.layer1.1.weight f4 [2, 128]
0	0xbd27a65f	-0.04093015
1	0x3a6cd971	0.0009035087
2	0x3c26141f	0.010136633
3	0x3cefbf98	0.029266164
4	0x3c84753f	0.016169189
5	0xbd29cb9b	-0.04145394
6	0xbd1bccc5	-0.03803708
7	0xbdeff3c1	-0.11716414
8	0xbd520a6f	-0.05127948
9	0x3dcc0f87	0.09963899
10	0x3d2f33c4	0.042773977
11	0x3b9f7f2b	0.0048674545
12	0xbd722c4e	-0.059124283
13	0x3d842167	0.064516835
14	0xbb9d9dd0	-0.0048100725
15	0xbd3cecb3	-0.04612417
16	0x3e014cbb	0.12626927
17	0xbd07ce45	-0.0331557
18	0x3d567d9f	0.052365895
19	0xbd94e5c7	-0.07270389
20	0xbbb81143	-0.005617292
21	0x3d0e7c03	0.034786236
22	0x3c65c7de	0.014024703
23	0xba34f443	-0.0006902853
24	0x3db73931	0.08946455
25	0xbd064d61	-0.032788638
26	0x3d1c226b	0.03811876
27	0x3c6b7726	0.014371669
28	0x3db6c70b	0.08924683
29	0xbd0343ef	-0.03204721
30	0xbd20b7a5	-0.039237637
31	0x3d7424d0	0.05960542
32	0xbc3a33bd	-0.011364874
33	0xbdb14bbf	-0.086570255
34	0x3da59724	0.080854684
35	0xbc35bf3c	-0.011092957
36	0xbd31293c	-0.043252215
37	0x3dc900d4	0.09814611
38	0xbd22a31a	-0.039706327
39	0xbd70b200	-0.058763504
40	0xbd908408	-0.07056433
41	0xbc820d60	-0.015875518
42	0x3da31bda	0.07964297
43	0xbcb60001	-0.022216799
44	0xbd5dde6f	-0.054167207
45	0x3d97eeb3	0.07418575
46	0x3c74b516	0.014935752
47	0x3d04fdcd	0.032468606
48	0xbd22ce60	-0.039747596
49	0x3d82e06c	0.06390461
50	0x3dd6e72b	0.104933105
51	0xbd548d5e	-0.05189263
52	0x3d852f4f	0.06503164
53	0x3cf22d48	0.029562607
54	0x3da06658	0.078320205
55	0x3cbfb529	0.023401814
56	0x3d3bc60d	0.045843173
57	0x3deeb443	0.11655476
58	0x3d654b3f	0.055979963
59	0x3d78f530	0.060780704
60	0x3c91f309	0.017816084
61	0xbdc46a07	-0.095905356
62	0x3da8928b	0.08231076
63	0xbd1c388f	-0.038139876
64	0x3d9e4256	0.07727496
65	0xbb874d3e	-0.004129081
66	0xbda9bbc2	-0.08287765
67	0x3d822b8c	0.06355962
68	0x3b2de2a0	0.0026532784
69	0xbc561bc5	-0.013068144
70	0xbda9efd4	-0.08297697
71	0x3e22f825	0.15914972
72	0xbd23f8c4	-0.040032163
73	0xbd155937	-0.036462035
74	0xbca3beec	-0.0199885
75	0x3d9ebc0e	0.07750712
76	0x3ce4cbe6	0.027929258
77	0xbd220294	-0.03955324
78	0xbd1a6205	-0.037691135
79	0xbbeaad81	-0.0071617966
80	0xbcc702dd	-0.024293358
81	0xbce58835	-0.02801905
82	0xbd89c850	-0.0672766
83	0x3d4dcdf1	0.05024523
84	0x3aaf2da1	0.0013365039
85	0x3d2a3bee	0.04156106
86	0x3d71eb37	0.05906221
87	0xbcc734b9	-0.024317132
88	0x3d348ff2	0.04408259
89	0x3dc5d127	0.09659033
90	0xbd34ed7e	-0.044171803
91	0x3d185068	0.037186056
92	0x3d50a6c8	0.050940305
93	0xbd41893a	-0.04725001
94	0xbd594311	-0.053042475
95	0xbcc58c8a	-0.024114866
96	0xbd689127	-0.056779053
97	0x3c1cff86	0.009582406
98	0x3d53aa6e	0.051676206
99	0xbd07c7d7	-0.033149567
100	0x3d680d47	0.056653287
101	0xbd6cfdb8	-0.057859153
102	0xbb8dfcac	-0.0043330994
103	0x3ada2f55	0.0016646186
104	0x3d517d86	0.0511451
105	0x3d88e29e	0.06683849
106	0xbd282ad8	-0.041056484
107	0x3d0d446b	0.034489077
108	0x3d8b01f4	0.06787482
109	0x3d81e5b4	0.063426405
110	0xbc98e00f	-0.018661527
111	0xbd194538	-0.037419528
112	0x3defc67d	0.117077805
113	0x3c8cc5e5	0.017184207
114	0xbd1763be	-0.036960356
115	0x3c7fc578	0.015611045
116	0x3dfc62a8	0.12323505
117	0x3db2c0a3	0.08728149
118	0xbcf2436b	-0.029573163
119	0x3bf773c7	0.0075516435
120	0x3d91ec2b	0.071251236
121	0x3e052f21	0.1300626
122	0x3b98668e	0.0046508973
123	0x3ded60b3	0.115907095
124	0xbce40b06	-0.027837288
125	0x3d466b80	0.048442364
126	0x3d9f6003	0.07781985
127	0xbd760bff	-0.060070034
128	0x3d1e3727	0.038626816
129	0x3d26325c	0.04057537
130	0xbdc0d1fb	-0.094150506
131	0xbdf02c09	-0.11727149
132	0xbd97bcee	-0.07409082
133	0x3de94928	0.113909066
134	0x3d072117	0.03299054
135	0xbc092c37	-0.008372358
136	0xbd81ec85	-0.06343941
137	0xbd783bab	-0.06060378
138	0xbdea9e37	-0.11455958
139	0xbd735e1c	-0.05941592
140	0x3d8d848f	0.06910049
141	0xbddae504	-0.106882125
142	0xbda0b596	-0.07847135
143	0x3d7fb0df	0.062424537
144	0xbd176493	-0.03696115
145	0x3d99b6ad	0.07505546
146	0x3d11684d	0.03549986
147	0x3e0a5745	0.13509853
148	0xbdb3b10d	-0.08774004
149	0x3a08d071	0.00052190485
150	0x3db07132	0.0861534
151	0x3d5a7d7b	0.053342324
152	0xbdc4cde6	-0.096095845
153	0x3d695dc3	0.056974184
154	0x3dd21f40	0.10259867
155	0xbd7f8c4d	-0.06238966
156	0xbdd918b7	-0.10600417
157	0x3d2adfe0	0.04171741
158	0xbdf103ce	-0.11768304
159	0x3d5f7de3	0.054563414
160	0xbe29b641	-0.1657343
161	0xbd1e6e21	-0.038679246
162	0xbd5714a4	-0.05250992
163	0xbd54a714	-0.05191715
164	0x3d56225f	0.052278873
165	0xbcf53e49	-0.029936926
166	0x3deb4a75	0.11488811
167	0x3d13b429	0.036060486
168	0xbe041cdd	-0.12901635
169	0xbdf55e0b	-0.11980828
170	0xbdbfd94a	-0.093676165
171	0x3d606f83	0.054793846
172	0xbd323943	-0.04351164
173	0x3e3e50da	0.1858553
174	0xbd712832	-0.058876224
175	0x3d049565	0.032369036
176	0xbd47937b	-0.048724633
177	0xbd5411fa	-0.051774956
178	0xbdb2d94f	-0.087328546
179	0x3d53d3d8	0.0517157
180	0x3ddddeab	0.10833486
181	0xbdffc5be	-0.12488888
182	0xbd232510	-0.039830267
183	0x3d64bafd	0.05584239
184	0x3d5bd1c2	0.053666838
185	0x3d4b5896	0.04964503
186	0xbd1f118f	-0.038835105
187	0xbe131cef	-0.14366506
188	0xbd307299	-0.04307804
189	0xbe049450	-0.12947202
190	0xbdf02945	-0.117266215
191	0x3c4e95e1	0.012608976
192	0xbdc5fcf5	-0.09667388
193	0xbd709f59	-0.058745716
194	0xbdcfdfab	-0.10150083
195	0xbd17ce13	-0.037061762
196	0xbde1d942	-0.11027767
197	0x3db3fecb	0.08788832
198	0xbcb72797	-0.022357745
199	0xbc93a7f3	-0.01802442
200	0x3d2a4542	0.041569956
201	0x3d3461a3	0.044038426
202	0xbddadfca	-0.106872156
203	0xbc1f6e13	-0.009730834
204	0x3d798a3d	0.06092285
205	0xbdd32778	-0.103102624
206	0xbe03d67a	-0.12874785
207	0xbd29b55a	-0.041432716
208	0xbe00b568	-0.12569201
209	0xbd736d2c	-0.059430286
210	0x3d8e2dac	0.06942305
211	0x3d11f34d	0.03563242
212	0xbd0c0da1	-0.034192685
213	0xbd4a5870	-0.049400747
214	0xbe2104f3	-0.15724544
215	0x3d383e02	0.04498101
216	0xbdc3acc9	-0.095544405
217	0x3dbe50fe	0.09292792
218	0x3cabbc58	0.020963833
219	0xbd85c8fd	-0.06532476
220	0x3c89e975	0.016834954
221	0x3d60454d	0.05475359
222	0xbb29d047	-0.0025911496
223	0x3d4b217a	0.049592473
224	0x3c117c58	0.0088797435
225	0x3dfa065b	0.122082435
226	0x3df25b0c	0.11833772
227	0xbc94520c	-0.01810553
228	0x3b9f66d2	0.004864552
229	0xbcce205b	-0.025161913
230	0x3cc9c197	0.024628444
231	0x3db6c9f7	0.089252405
232	0xbd9a5956	-0.07536571
233	0x3ddeb8fa	0.10875125
234	0x3d347806	0.044059776
235	0xbd876440	-0.06610918
236	0x3d94ef60	0.0727222
237	0x3d9c14f1	0.07621182
238	0x3d871f6f	0.06597792
239	0xbd44a8d7	-0.04801258
240	0xbd7d6bdb	-0.061870437
241	0x3d837ed9	0.06420679
242	0x3acf2ea0	0.0015806742
243	0xbdb729eb	-0.08943542
244	0xbc2077f0	-0.00979422
245	0xbe0f15a0	-0.13973093
246	0x3d18b181	0.037278656
247	0x3e1146a4	0.14187104
248	0xbd7898e9	-0.0606927
249	0x3db70b1d	0.089376666
250	0x3d1dcc9f	0.03852522
251	0xbe0da694	-0.13833076
252	0x3d14d5ca	0.036336698
253	0xbc7a35b9	-0.015271598
254	0xbc534795	-0.012895484
255	0xbc60c71e	-0.013719348

action_layer.layer1.1.bias f4 [2]
0	0x3d8481af	0.06470048
1	0xbd048ef4	-0.032362893
