hcanet-3.27_maddpg_old/data/test_model/model_1400.pt (torch, 268587 bytes, 16 tensors)

FC1.weight f4 [128, 180]
00000000: 9547 81bd d8ac 493d 1ee6 ea3c ab3d e13c
00000010: e41d cfba 457f 9abd ac0e 8dbd 56cb d13d
00000020: a916 30bd ad11 77bd 8b38 023e 13f2 a3bd
00000030: 5934 e63c e6b7 69bd 1744 843c 41fb ebbc
00000040: bc21 6c3d e39f dbbd fd67 bc3d e471 813d
00000050: b5d4 483d 870b 63bd c7dd 603d 7b6e 5abb
00000060: 7a13 c1bc d97f e7bd a946 88bc 4993 08be
00000070: 62c0 69be e20a 53be d08e f03d 3073 203d
00000080: 8f10 c63d 4529 213d 9169 943d 4c74 40bd
00000090: 5aae 24be 4455 c5bd a7a4 3bbe c1ec 27be
000000a0: 1c17 a63d 175c de3d 0241 8c3d 6f30 81bd
000000b0: 88c7 fa3c e04e 543e e7ae 74bd 3ab1 c4bd
000000c0: 57c5 1e3d 392b 943c 98a4 1d3d d74f a9bd
000000d0: 9019 583c ba16 7bbd ab08 cebc 3dd3 74bc
000000e0: 57f2 53bc b91c 02bd ce29 ed3c 3636 d93c
000000f0: 8362 ffbd 981c a6bd da80 343c 96e7 4b3d
00000100: c0d9 bd3d bcfe d7bd 8757 83bd d5a2 57bd
00000110: b8d7 a5bd 1530 96bd 8e01 f1bb b026 c33d
00000120: 9947 77bd aa98 fd3c 315b 983c 55c2 cebb
00000130: a56f 963c e4c0 a8b9 6ee6 d4bc 7839 873d
00000140: d291 3d3d b80a 773c 3717 493d 4fc4 d23c
00000150: ec9b 293d 094d a83d 1374 0d3c 4935 77bd
00000160: 3074 993c d884 d73d 53bc 1c3d 4242 48bd
00000170: 931e a3bd 1e3c 32bd ab5f 983d 2c50 0b3e
00000180: e2de 83bd 5dfb c23c b291 1f3d 6fbf f4bc
00000190: 2df1 cf3d 1906 393d afaf 86bd bf54 1a3d
000001a0: e83e 103d 853e 2fbd 5dc1 16bd 127e 6d3d
000001b0: 84b4 133d 6bc7 a33c 1edb 803d c146 0e3c
000001c0: 98f5 213c 9179 4bbd 969d 9a3c bd9b 83bd
000001d0: 4ba0 8b3d a8ce 34bd 102b 4ebd d1c8 993d
000001e0: bee0 25bc 45d5 81bd f49a 8dbd 3d54 cc3c
000001f0: 06b7 42bd 7619 893d 0dcb 3a3c 4282 8b3d
00000200: 9c83 ebbc 2b1b 69bd 09d9 f2bc cbc9 8a3d
00000210: 81a7 ddbc 124c 83bd d146 823d 73ac ff3c
00000220: 279b 8b3d 5650 4d3d fdd5 ed3b 8bf2 65bd
00000230: 163e 4abd 3ff9 2dbd c688 3abd 6f0d 80bd
00000240: 2179 563d c4ab 5c3d 0d81 57bd bd75 1dbc
00000250: e523 873d 48bb f93c 630b a7bc 7ae2 c8bc
00000260: 0055 093d 54b0 0bbd 687e 7dbd 1793 a3bc
00000270: 0e47 453d 04e4 efbc da3e 52bd 0eea dcbc
00000280: 525f e4bc f286 5ebd 2e89 38ba 938b 1d3d
00000290: 6ae7 8f3d 5ecd ac3c ec25 753d ff0a f63c
000002a0: ff69 97bc c2bb 64bd 9dbd 98bc 0277 143d
000002b0: d4b9 863c 330f 9dbc b5d6 1cbb bd4e d63c
000002c0: 8a66 4b3d 3e43 253d 0eb0 fabd 6a49 113c
000002d0: 927a 873d 1164 c53d 6cda 873d d1fb a13d
000002e0: e459 a73d b9d8 bcbd 7654 79bd e025 75bd
000002f0: 2856 253d 2c23 dc3b 11f2 33be 7ebb 133d
00000300: ca39 eabd d6cb 123d a6e6 343b 0390 5ebc
00000310: 590b 683d 0030 14bd afbb 173c 70ec 76bd
00000320: 41aa 5f3d e3cb 0abc 527b 8b3d 104f cebc
00000330: f6dc 113d c873 dabd b11b 3bbd 4543 ab3c
00000340: 502c 153e ed5a ba3c 8ff0 063d 30f3 113c
00000350: 7f57 c5bd 2a35 08bd fbf3 b73a 28ff 3ebd
00000360: d78e 333d fbea 983d 9aa2 0d3d 2bbe c0bd
00000370: dde7 003d 697d a2bd d33e 6139 cf4d 373d
00000380: c20e 1fbd 9e4a 0fbb 8616 7abd d68f f63c
00000390: b77d d03c 7c83 013c 0a7d fc3d 98e8 763d
000003a0: bfe8 c63c a5e2 8dbc 805b b8bb 54e4 b1bc
000003b0: e180 ca3d 3da1 f63d 5c6c 813d 8a84 26bd
000003c0: 4a6c f43c 468f b73d 7b3d 9c3d fbd7 9d3c
000003d0: 3712 093d 2500 b93d 95c7 9abd b700 cbbc
000003e0: 56a1 d23d a5ec 0e3e 2ae8 67bd 7418 833c
000003f0: a45a a1bd 295e e13c 8dc6 c63c 6678 abbc
-0.06312481 0.049237102 0.028674182 0.027495226 -0.0015801755 -0.07543806 -0.06887564 0.102438614
-0.04299036 -0.06031959 0.12716882 -0.08005156 0.028101133 -0.057060145 0.016145749 -0.02880633
0.05764936 -0.10723855 0.09199522 0.06320551 0.04903098 -0.055430915 0.054899003 -0.0033330012
-0.023568857 -0.11303682 -0.016635256 -0.13337435 -0.22827294 -0.2060962 0.11745989 0.03917235
0.09671127 0.039346 0.07246698 -0.04698591 -0.16082135 -0.09635404 -0.18324529 -0.16398908
0.081098765 0.108574085 0.06848337 -0.06308066 0.030612722 0.20733213 -0.059737112 -0.09604116
0.038762417 0.018087016 0.038487047 -0.08267181 0.013189688 -0.06130097 -0.025150618 -0.014942941
-0.012936196 -0.031765673 0.028950598 0.026515108 -0.124699615 -0.081109226 0.011017049 0.049781404
0.09270048 -0.105466336 -0.06413179 -0.052645523 -0.08097786 -0.0733339 -0.0073549217 0.095288634
-0.060371015 0.030956585 0.018598171 -0.0063097873 0.018363783 -0.00032187172 -0.025988784 0.06602758
0.046281643 0.015078239 0.049094405 0.025728373 0.041408464 0.08217818 0.008633631 -0.06035355
0.01873216 0.10523385 0.038265537 -0.048891313 -0.07964816 -0.043514363 0.07440122 0.13604802
-0.06438996 0.0238015 0.038957305 -0.029876439 0.101534225 0.04517183 -0.06576478 0.037678476
0.035216242 -0.042784233 -0.0368055 0.05798156 0.036060825 0.01999255 0.06291793 0.008683861
0.009885214 -0.04967648 0.018873971 -0.06426189 0.06817683 -0.044142395 -0.050334036 0.07509006
-0.0101243835 -0.06339506 -0.069143206 0.024942512 -0.047537826 0.066943094 0.01140095 0.06811954
-0.02874928 -0.056910675 -0.029644506 0.0677677 -0.027057411 -0.06410994 0.063611634 0.03121016
0.06816702 0.050125442 0.0072581754 -0.05613951 -0.049375616 -0.042474028 -0.045540594 -0.06252562
0.05236161 0.053874746 -0.052613307 -0.0096105905 0.06598643 0.03048481 -0.020391172 -0.024522055
0.033528328 -0.034103706 -0.06188813 -0.019967599 0.048163466 -0.029283531 -0.05132947 -0.026967075
-0.027877484 -0.054327913 -0.00070394843 0.038463186 0.070265606 0.02109402 0.05985062 0.03003454
-0.01848316 -0.055843122 -0.018645102 0.036246307 0.016446032 -0.019172287 -0.0023931686 0.026160592
0.049658336 0.04034733 -0.12240611 0.008867601 0.06615175 0.09638227 0.066334575 0.07909358
0.08171442 -0.09221024 -0.060871564 -0.059850574 0.040365368 0.00671806 -0.1757281 0.03606748
-0.11436804 0.035838924 0.0027603297 -0.01358414 0.056651447 -0.03617859 0.009261056 -0.060284078
0.054605726 -0.008471462 0.06810631 -0.025184184 0.035611115 -0.10666615 -0.045680705 0.0209061
0.14567685 0.022748435 0.03294426 0.008908078 -0.09635829 -0.033253826 0.0014034504 -0.046630055
0.043837395 0.07466694 0.034578897 -0.09411272 0.031471122 -0.07934076 0.00021481076 0.04475194
-0.038832434 -0.0021864544 -0.061056636 0.030097883 0.02545057 0.0079048835 0.12328537 0.060280412
0.024280904 -0.017319987 -0.005626142 -0.02171532 0.09887863 0.120424725 0.06319496 -0.040653743
0.029836792 0.08962874 0.07628914 0.019268027 0.033464637 0.09033231 -0.075575985 -0.024780614
0.10284679 0.1395746 -0.056617893 0.016002871 -0.078786165 0.02751072 0.024264598 -0.020931434

FC1.bias f4 [128]
00000000: eac6 793d f0ba 93bb 90a6 a7bd 2fdd 9dbd
00000010: b902 c1bc 4e63 32bd 18a4 4fbd a41a acbd
00000020: b8ca b73c 0596 623d 0faa 3a3d b646 92bd
00000030: 63ba 48bc f2e3 95bd a145 08bc 4a56 2bbc
00000040: 9a4e 293d 6c41 bcbc 1ea1 ea3c 68a5 803d
00000050: 331f 293d 91e3 acbc c9fd 28bd 4fcf 06bd
00000060: 6393 893c 77ed eebc cc3f 853d 6efe 78bd
00000070: cab3 91bb db9a 5ebd d48f db3c 6d71 9fbd
00000080: 37a1 58bd 7507 923d 1a9f 64bd e88e 2a3d
00000090: 884a 23bd 39bf 42bd 5547 253d 187c 7a3d
000000a0: ec52 463d d09e 6fbb 3d0a adbb 864f 4e3d
000000b0: 45fe 063d d2ab fdbc dd1f 96bd d707 7b3d
000000c0: 7371 a13c 1d3e 92bd 780f 7bbd d85d 29bd
000000d0: 887e 033d 10e6 76bd 2be1 363d 657a b63b
000000e0: ea74 92bc 7366 fabc 955a 8d3d 9cd4 353b
000000f0: f36f 273d 2463 a739 85d7 ef3c 6813 49bc
00000100: 85e4 91bb ecda 91bc 1ea0 96bb 98b2 38bd
00000110: a189 44bd 01d9 cc3c 0cb6 adbd 5103 30bd
00000120: 8725 ab3c b16d f63c db50 05b9 65f7 793d
00000130: 8908 b0bd ceb7 ffbc 87c5 a03c 4dc9 773d
00000140: 55de 17bc 5dbd f03c 4d64 20bd 8124 093d
00000150: 6c03 203b c5b3 543c f921 34bd 35fe a0bc
00000160: 3b55 0539 01e2 843d 6955 e3bc 6b70 753d
00000170: 67f5 1cbd 24eb 8c3d ac44 8f3d 6f7b 113d
00000180: ea2e 85bd 5c04 383d 2f3b 49bd 50f5 733d
00000190: ca25 8d3d 8462 1cbd c89d 893d 2731 283d
000001a0: 42d1 00bd 5eea 1c3c 74a0 3abc 4480 ec3c
000001b0: d2d3 b8bc d6da 69bd 19ac fdbb a97c 2abc
000001c0: 5991 e23c eeab 653d b0e4 b1bc debb 893b
000001d0: 718d 943d 0332 1bbd db3d 5d3d ff22 2dbd
000001e0: 7040 08ba deee cb3c 7b0f 97bb b9e1 fdbc
000001f0: fff6 acbc a1b1 6e3d 617e 65bd 52a1 84bd
0.060980715 -0.0045083687 -0.08186066 -0.07708203 -0.023560869 -0.043551736 -0.0506936 -0.08403519
0.022435531 0.05531885 0.045572337 -0.07142393 -0.012251469 -0.07318868 -0.008317382 -0.010457585
0.041334726 -0.022980414 0.02864128 0.06281549 0.04128952 -0.021104606 -0.041257653 -0.03291255
0.016793912 -0.029165966 0.06506309 -0.060789518 -0.0044464814 -0.0543469 0.026801981 -0.07785306
-0.05288812 0.071303286 -0.055815794 0.041640192 -0.039866 -0.047545645 0.04035123 0.0611535
0.048418924 -0.0036563165 -0.0052807615 0.05036881 0.032957334 -0.03096572 -0.07330296 0.061286774
0.019707417 -0.071407534 -0.06129405 -0.041349262 0.03210309 -0.060278 0.04464833 0.00556879
-0.017878015 -0.03056643 0.06902043 0.0027745133 0.040878247 0.00031926588 0.029277572 -0.012272693
-0.0044522905 -0.017804585 -0.004596724 -0.045092195 -0.047982816 0.02500582 -0.08481988 -0.042971913
0.020891918 0.030081602 -0.0001271399 0.06102695 -0.08595378 -0.031215575 0.019625438 0.06049471
-0.009269317 0.02938717 -0.039158154 0.03348208 0.0024416102 0.0129823135 -0.04397771 -0.019652465
0.00012715619 0.06488419 -0.027750688 0.059921663 -0.03831997 0.06880787 0.0699552 0.035518106
-0.06503089 0.044926032 -0.049128707 0.05956012 0.06891973 -0.03817989 0.067195475 0.0410625
-0.031449564 0.009577362 -0.011390794 0.028869756 -0.022561941 -0.057093464 -0.007741463 -0.010405698
0.027657198 0.056072168 -0.021715492 0.0042033037 0.0725354 -0.03788949 0.054014068 -0.042269703
-0.000519759 0.024894174 -0.0046099997 -0.030991422 -0.02111387 0.05827487 -0.056028727 -0.06476082

FC2.weight f4 [64, 128]
00000000: fb9a 1fbd a943 14bd 9aaa 9b3c bae0 bebd
00000010: f45d 25bd 06bd d4b9 c4ca b33c 8405 1dbe
00000020: b019 133e 95df 743d a38e 73bd 1660 24bc
00000030: 5a70 73bc e46b 833d 9411 8abc 576c 943c
00000040: 32f4 6dbe 9f12 dfbb 4c30 11be e208 11be
00000050: 790c 62bd 907a babd 4ebd 4bbd 74b2 c13d
00000060: fc41 903c ac60 2fbe 5f12 bebd f23b 853d
00000070: afea 3d3d 9876 4cbd 5483 913d 5613 253c
00000080: cc13 383d 80f4 4ebd 91bd f93b 77f4 463c
00000090: cc80 c53d 90e1 17bd 4f90 81be 8c04 f3bd
000000a0: 2c86 4e3d 3c6b 86bd 6007 8ebd 3927 a2bc
000000b0: d79d 613c 5287 21be ded4 d2bd 404b 483e
000000c0: 32fd d93c 1756 033c 93dc efbb 22fa fa3c
000000d0: 463a e73d 7c59 eabc 0d8d 493c dbdc a9bd
000000e0: 1fa6 603c 6ae9 ddbc 4e3f 503c 2e14 01bd
000000f0: b7f9 b83c 3c10 9abd d317 febd 3687 513d
00000100: dce7 93bd 4ee0 5b3d 0e64 573e 1b09 a13d
00000110: 0b59 a93d f03e 8cbd 096e 46bd 205b d3bd
00000120: 9c48 053d 44a7 9f3d 45a3 26bd 67b4 5a3c
00000130: 3e72 8f3c 8f44 97bc 0fff f93d 61f0 ca3d
00000140: 06fc dbbb 6822 7a3d f030 a7bd eaec 003e
00000150: df6f 033d 6641 65bd c9db f8bc 4341 00bd
00000160: 5869 f9bd e7fa 673d 1d15 9e3c 2d42 e53a
00000170: 5849 723d f825 403d 0fef 49be 328a c93c
00000180: 37d3 8e3d 501f be3d 60dd 0ebd f392 3dbd
00000190: 14c8 c73c 1ff2 d63c b70b 31bd 3a34 103d
000001a0: a1d8 8dbd ac74 e4bd 8c38 09bc 6c65 e4bd
000001b0: 0f8e b2bd ea38 33be ab4d aebd ceaf 2fbe
000001c0: 2fbe a7bd a1ae 113e c61e 6ebd 1595 483d
000001d0: e6ca 5b3d d37e b43d 3eea d73b e072 2c3d
000001e0: 1074 04bd da64 a7bc 9c4d 36be fe9e d9bc
000001f0: 86e7 8cbc 9968 08bd 5cfd 93bd f884 0b3e
00000200: d5e1 543d 21dd 9cbd d8ac 9abd dcd9 143d
00000210: be23 48bd 01a5 16bc 038f d53c 1960 b73d
00000220: b1d7 9e3d ae32 bb3d c799 9dbd bc42 5a3c
00000230: bcaa 353d 0c6d 09bd 53bb d43c 9be2 8cbc
00000240: 89c1 5fbc 9c7c 823d f3d2 b1bc 5ce0 0abe
00000250: 9537 87bc b60a 963b 9254 7ebc af17 cb3c
00000260: 3bac f93c 084f f83a 7b83 83ba a04e 8abd
00000270: a1f7 f63c c4a9 a43d 529f 42bd 19c7 70bd
00000280: 2b26 323d 4946 6f3d c03c 16bc 2c85 a5bc
00000290: 4f4a 6e3d 85cd 033e 4653 bc3d 6a0e 99bd
000002a0: 8145 3f3d 2212 ae3b 9ea1 d93b 5c5e adbd
000002b0: a525 ecbc 7f93 15bb cf33 843d 71ea e83d
000002c0: 14f7 903d 4f5f 22bd 1183 a4bd f6be 143d
000002d0: 5f06 f6bd 3dc7 8f3c e71a d63d fcf0 933c
000002e0: ebea 043d 13c0 6e3d e232 70bd d4d1 70bc
000002f0: 2b25 9d3d 1a9a a3bd d189 d1bd 07f5 56bd
00000300: 27b5 bebb b73a 11bc d799 78bd 6d50 c9ba
00000310: 59ab 183d b49e 673d 2fd6 aebd 9bd3 92bc
00000320: edd1 8f3d a599 84bd c45c 993d 819a 7dbd
00000330: 4b60 4b3d 39f2 3d3c aea5 193a 3a1a 373d
00000340: e4ab 073d c507 353d 96d2 a1bd 9812 3a3d
00000350: 63e2 47bd ed06 8c3c dee8 19bd 92db b4bc
00000360: 545a 9d3d 3463 793c 9799 89be 98c9 2b3d
00000370: 90f5 353d da94 df3c 5b70 10bc 20c2 89bd
00000380: ca65 723d 58dc 0f3d b68e b4bd 7270 06be
00000390: 2d56 4c3d 1219 62bd 71ee a43d 06d4 033e
000003a0: 80f5 bebd 02e1 0d3d 9543 ed3d 69f8 8f3d
000003b0: c743 a0bd 322f 993d 0fab 1bbd 3fee 06be
000003c0: 6311 66bc a5b4 17bd 45db da3b dd89 703d
000003d0: c845 f13d de67 14bc 006c 17bb bfc0 9b3c
000003e0: 1d24 abbd 6e59 903d e9bf bdbc 8c50 bb3d
000003f0: 6a36 0dbe ca3d b63b 342a c9bd 10e4 18bd
-0.03896616 -0.03619734 0.019002248 -0.09320207 -0.040372804 -0.00040576624 0.021947272 -0.15334135
0.14365268 0.059783537 -0.0594622 -0.010032674 -0.01485833 0.06417063 -0.016854085 0.018118067
-0.23237684 -0.0068076397 -0.1417858 -0.14163545 -0.055187676 -0.09105408 -0.049741082 0.09457865
0.017609589 -0.17126721 -0.09280848 0.06505574 0.04636639 -0.049917787 0.07105127 0.010075411
0.044940755 -0.050526142 0.007621475 0.012143246 0.09643707 -0.037080348 -0.2530541 -0.118661016
0.050420925 -0.06563422 -0.069350004 -0.019794093 0.013770542 -0.15774277 -0.102945074 0.19559956
0.02660999 0.008016131 -0.0073199957 0.03063685 0.11290412 -0.028607123 0.0123016955 -0.08294078
0.013711481 -0.02708884 0.0127104055 -0.031513385 0.02258001 -0.07522628 -0.12406888 0.051154338
-0.07221958 0.05368071 0.21034262 0.07863065 0.08268937 -0.06847942 -0.04844478 -0.10320115
0.03253995 0.07795575 -0.04068305 0.013348675 0.01751053 -0.018465308 0.12206852 0.0990913
-0.006713393 0.06106797 -0.08163631 0.12590376 0.03208911 -0.055970572 -0.03037824 -0.03131224
-0.12178296 0.056635763 0.019297177 0.0017491035 0.059151977 0.04691121 -0.197201 0.02460203
0.0697388 0.09283316 -0.03487909 -0.04628272 0.024387397 0.0262385 -0.043224063 0.035206057
-0.06926084 -0.11155066 -0.008375298 -0.11152157 -0.08718502 -0.1750218 -0.08510908 -0.17156908
-0.081905715 0.14226772 -0.058134817 0.0489703 0.053660296 0.08813252 0.006589203 0.04210174
-0.03233725 -0.020433832 -0.17803043 -0.026565071 -0.017200243 -0.033302877 -0.07226059 0.13624942
0.051973183 -0.076593645 -0.075524986 0.03634058 -0.04886221 -0.009194613 0.02606917 0.08953876
0.077559836 0.09140526 -0.07695346 0.013321575 0.044352278 -0.03355126 0.02596823 -0.017197898
-0.013656982 0.063714236 -0.021707034 -0.13562149 -0.016505996 0.0045789136 -0.015523093 0.024791567
0.030477634 0.0018944452 -0.0010033691 -0.06753278 0.030147376 0.08040193 -0.04751522 -0.058783624
0.04349343 0.05841664 -0.009169757 -0.020205103 0.058176335 0.12871368 0.09195571 -0.074734524
0.046697143 0.00531222 0.0066415807 -0.08465263 -0.028826544 -0.002282351 0.06455194 0.11372841
0.070783764 -0.039641675 -0.080328114 0.036314927 -0.12012934 0.017551059 0.1045435 0.018059246
0.032450598 0.058288645 -0.058642276 -0.014698464 0.07673105 -0.07988377 -0.102313645 -0.05247977
-0.005819935 -0.008864096 -0.060693588 -0.0015359052 0.037272785 0.056547835 -0.08536946 -0.017923167
0.07022462 -0.06474618 0.07488397 -0.061914925 0.04965238 0.011593395 0.0005861175 0.044702746
0.033122912 0.044196863 -0.07901494 0.04542789 -0.048799884 0.017093146 -0.037575595 -0.022077356
0.07683244 0.015221406 -0.26874992 0.0419403 0.04442364 0.027292658 -0.00881585 -0.067264795
0.059179105 0.035122246 -0.088162825 -0.13128832 0.04988687 -0.05519969 0.080532916 0.1287385
-0.09324169 0.034638412 0.11585156 0.07029802 -0.078254275 0.07479705 -0.03800493 -0.13176821
-0.014042231 -0.03703751 0.006678971 0.058725227 0.11780888 -0.009057967 -0.0023105145 0.019012807
-0.083564974 0.07048307 -0.023162799 0.091462225 -0.13790289 0.005561565 -0.09822503 -0.037326872

FC2.bias f4 [64]
00000000: 6040 32bc 5243 95bd 1dec a6bd c031 cdbd
00000010: 8d07 febc 1886 8e3d 0074 a7bc d19a cbbc
00000020: 88ce 78bd 1d1a fd3c 436c bf3c e3f7 a4bd
00000030: 5a7a 683c 1870 803d 75be 353d cae9 1e3d
00000040: a855 99bd 8211 cc3b ad37 713d 674b b8ba
00000050: c295 03bd 98e0 46bd 1f58 4abd b3d7 2e3b
00000060: 0bab 513d 542f 1d3d 618f ffbc 44a8 b6bd
00000070: 54f0 06bc 791b 52bd 9e65 c4bd c95c 07bd
00000080: 79de d13d 93b6 38bd 297a 1bbc 7bd5 b3bd
00000090: be7d 34bd 477c 343d 29cd df3d 0403 c43d
000000a0: ff86 a2bd 5b28 8bbd 410a a9bc 6063 fdbb
000000b0: 8921 ab3c b94a a53d acc8 393d d3eb 2fbc
000000c0: d003 013d 5d9d 83bd 4cca 70bb 78f2 623d
000000d0: 73c1 d73d aa3c 713d 3d28 ffbc 8cac 263d
000000e0: 9271 2bbd 3feb eeba df15 e9bb 7594 10bc
000000f0: d229 2b3c f11f 9a3d 8eec c1bc 69c1 823d
-0.010879606 -0.07288231 -0.08150504 -0.10019255 -0.03100946 0.0695917 -0.020441055 -0.024854096
-0.06074384 0.03089624 0.023367053 -0.08055093 0.014189327 0.0627138 0.044371087 0.038797177
-0.07487041 0.006227673 0.058890987 -0.0014060558 -0.032125242 -0.048554033 -0.049400445 0.002667886
0.05118851 0.038375214 -0.031196298 -0.08918813 -0.00823601 -0.05129573 -0.095896944 -0.03304747
0.102475114 -0.04509599 -0.0094895745 -0.087809525 -0.04406523 0.044063833 0.10927803 0.09570888
-0.07935905 -0.067948066 -0.020634772 -0.0077327937 0.020890014 0.08070893 0.04535739 -0.010737377
0.031497777 -0.06426499 -0.0036741672 0.055407017 0.105349444 0.058895744 -0.031147117 0.040691897
-0.041856356 -0.0018228068 -0.007113203 -0.008824457 0.010446982 0.075256236 -0.023672368 0.06384546

FC3.weight f4 [2, 64]
00000000: f862 18be 8305 443d 2e9b 6cbd 7fc7 b23d
00000010: 48b9 763d 7023 cebd 8c91 d2bc ad90 193e
00000020: 4972 9a3d bd3b b8bd 1dcb 5b3e fafa c63d
00000030: a7e5 8a3d a2ec 07bd d43c fdbc cced fb3d
00000040: 108a 493e 1600 b7be bc69 edbd e1f6 b6bd
00000050: 828c 883d 28d4 153e 23d6 ab3e 9d6c 193d
00000060: e073 37bd 73b1 12be c1e9 60bd 9e30 343e
00000070: 8009 df3b 2894 743d 5cd3 e53d e5ed dcbc
00000080: 8ff3 1d3b 8994 16be ffe7 19be e701 8e3d
00000090: f145 3fbd 1024 1d3e 7475 acbd 9c7c bdbd
000000a0: 1bcc 6f3d d7b6 403e 39ff fd3d 90fc 22bd
000000b0: 3177 ccba 9054 773c a3f2 7bbe 403e 553d
000000c0: 6846 ba3d 2e29 f93b a434 91bd bee0 b5bd
000000d0: 78e6 a4bd 82c3 63bd 1728 b6bc c313 70bd
000000e0: 3cb6 d33d b129 943d 19e8 e23c 24de 43bd
000000f0: 69c1 b1bd c562 ddbc f2c4 9abd e9ad b5bd
00000100: 8181 aabd 2f8b 9dbd 7e09 f7bd 719e 8a3d
00000110: 3292 67bd 6ede c5bc d005 4bbe 17f4 753d
00000120: c0b2 853d 65fd dfbc d4b8 5a3e 1ef5 4a3d
00000130: 21ee 0d3d 3757 36bd 7755 6ebd 5597 e93d
00000140: d8fe 183e 1478 7ebe 3f99 37bc 7d0e 08be
00000150: 58cf 83bc 21c1 593e 2630 6b3e fac9 42bd
00000160: 58d0 bfbc 9b20 c1bd ae66 72bd 3cd7 c33d
00000170: d763 1abe 80b8 fb3d 4f93 ef3d 6ecd 6abd
00000180: b2a8 863d 1ac6 76be 155c 1cbd 27e0 d93d
00000190: 1f1d 633d 4af2 123e 4671 4e3c f4bc 9cbd
000001a0: 10ba 4ebd 9954 823d c4fc 903d 5b17 97bd
000001b0: cbf1 01be 2fba b83d 1a75 3cbe bf97 153d
000001c0: ea5d 163d d848 db3d bf62 8ebd 889c debb
000001d0: 284d 4a3c 3db7 0cbd e31e 433d f744 e1bd
000001e0: 7e5a bbbd 6912 643e 7fda 8c3d ea33 0d3b
000001f0: f39c 28bc dba3 843c bd8b c3bd 3547 89bd
-0.14881504 0.04785682 -0.05776518 0.08729457 0.06023529 -0.10065353 -0.025704168 0.14996596
0.075413294 -0.08995769 0.214642 0.09715839 0.06782084 -0.033184655 -0.030912794 0.123012155
0.19681573 -0.35742253 -0.11592433 -0.08933807 0.06667425 0.14631712 0.3356181 0.037457097
-0.04478824 -0.14325504 -0.054910425 0.17596671 0.0068065524 0.059711605 0.11221954 -0.026968906
0.002410147 -0.14705099 -0.15029906 0.069339566 -0.04669756 0.15345788 -0.0842084 -0.09252283
0.05854426 0.18819748 0.124021955 -0.039791644 -0.0015599487 0.015095845 -0.24604277 0.05206132
0.0909546 0.007603786 -0.070901185 -0.08880757 -0.08051771 -0.055606373 -0.022235913 -0.058612596
0.10337493 0.072345145 0.027698563 -0.04781927 -0.08679468 -0.027024636 -0.075570956 -0.08871061
-0.08325482 -0.07692563 -0.12062357 0.067685015 -0.056535907 -0.024153914 -0.19826436 0.060047235
0.065282345 -0.027342508 0.21359569 0.04955017 0.034650926 -0.04451677 -0.058186974 0.114058174
0.14940965 -0.24850494 -0.01120597 -0.13286777 -0.01609008 0.21265079 0.22967586 -0.0475559
-0.023414776 -0.09430047 -0.059179954 0.09562537 -0.15077148 0.1229105 0.11698019 -0.05732482
0.06575145 -0.24099007 -0.038173754 0.10638457 0.055447694 0.14350238 0.012600249 -0.076532274
-0.05047041 0.06363792 0.07079461 -0.073775016 -0.12689893 0.09019887 -0.18404046 0.03652167
0.036710657 0.10707253 -0.06952428 -0.0067935623 0.012347497 -0.034354437 0.047636878 -0.10999482
-0.091481194 0.22272648 0.06877612 0.0021545836 -0.010291326 0.016191414 -0.09548137 -0.06703035

FC3.bias f4 [2]
00000000: 1b06 ac3d 6f10 9b3c
0.08399602 0.018928735

FC1.weight f4 [128, 180]
00000000: 2066 a2bd 85d3 40bd 7427 b3bd 32e5 4e3d
00000010: e832 b03b 20c8 243d ccf2 eebc ce67 de3d
00000020: 7f42 a2bc c11a 373d 2a00 003d e89c 6abd
00000030: 7b4e 043c 67d8 22bd 39b2 b33d 7c20 e33c
00000040: 6c3d 5d3d f589 373d 9806 5ebd 3c51 bd3d
00000050: be1e 593d b9d3 733c c990 033d 0bc5 4a3d
00000060: 45a7 c93b 2b1b 623d 3b27 17bd 2083 683d
00000070: f18a 85bd f18d d4bc c58f 40bd 4dfc ec3d
00000080: 7a0c 543d f634 fe3c e6f1 c23d 6c45 efbc
00000090: ce25 633d c4a2 0c3d 2730 6fbe c72f 283d
000000a0: 8e2c c9bd 3700 983d 2d23 8bbd 1d0e 1cbe
000000b0: 5c16 b1bd 6baf 91bd 9de0 18bc 7165 b1bc
000000c0: 5a17 bc3d 71ec 673d 316b 93bd 8176 973d
000000d0: f80a 33bc f76f 02bd 2d1f 113d 0dd7 0dbd
000000e0: 1699 9c3d 20fe 8b3d 301e f03c 9486 e7bd
000000f0: f441 ac3c 8034 f839 63ed 2abd 8141 793b
00000100: 8d61 5dba 63a5 4fbd be16 4abd aee6 56bc
00000110: df89 753d fe28 7fbc 1151 723d 5ccb 0cbb
00000120: 4715 a43d 6f61 363b 7103 ffbc 5b69 9fbc
00000130: 7da3 32bd 87d2 d63c d64f a2bd edd3 1bbd
00000140: e041 14bd e057 033d 3a52 57bb d196 923c
00000150: 7087 c5bd 0a02 2e3c 7440 853d 6c29 143d
00000160: 08c2 a9bb c14d 8abd 582d aebd 57af cfbd
00000170: de76 aa3b 2385 253d 5f75 4a3d 641f 3b3d
00000180: 1c8f 293b 8b9e 7a3d 46d4 68bd 6607 61bd
00000190: 37f2 7dbd 259c 383d 8547 bc3c 1dbb df3d
000001a0: 30c9 cebc aa5e 4bbd d3a4 2b3c 2714 853c
000001b0: 732f 9c3d 7b19 af3d edfd 1fbc b064 c2bd
000001c0: e24c 9d3d 6b3f 383d e7a9 273d 88ef 26bd
000001d0: fd86 c43c 90f8 74bd 9477 45be 1e8b 82be
000001e0: 8078 8e3d 1050 953d cbb2 dabc e811 47bd
000001f0: 1782 a1bd 86d5 86bc deff 21bd ab29 08be
00000200: a9f4 e3bd be83 62bd 6967 3a3c 70af c83d
00000210: 9f99 32bd 8fae ff3c 8d44 903b ef21 5f3d
00000220: 2c5a 91bd 4d1d 35bd 97be a2bd 6267 3b3d
00000230: 7757 dbbd 8514 0dbc 4dc7 913c 4a39 0ebd
00000240: b7bd 20be 900b c9bd 9b8d 533c 736a 6c3d
00000250: 2b19 f53c fadf fd3c d1b7 61bd eb69 40ba
00000260: 0d65 1b3d 45f7 babc 0550 993d d9ec acbc
00000270: 4d96 503b c44c 413d 1116 e3bc f0f1 343c
00000280: 9865 463d 628c 32bd 8093 5a3d 4d99 9dbd
00000290: 774d 9dbd 7154 24bd bb66 96bd 37c5 1dbd
000002a0: a79c be3c 4cad 713c f04d c4bc 1741 433c
000002b0: 7be8 99bd 4532 883c 14e4 dabc 0fd5 d63c
000002c0: a3ad 293d 5a5b 64bd f9ef 7a3d f3a1 873d
000002d0: 8bb9 a0bc 0a83 e23c 0e9c 0d3c 70bc 74bd
000002e0: 3461 6dbb adf4 3fbc 0295 983c 794a 2abe
000002f0: f449 883c cd72 933b 6bc3 ecbc af81 c1bc
00000300: dd38 bc3d aede 1e3d f240 5dbd 7c74 68bd
00000310: 3e3c ce3c 126f 88bd af4f 1b3e ba00 20bd
00000320: 95a3 b43d 95fa b7bc 13cd 44bd b3be 393d
00000330: 7aeb 143d 0b3c 583e 308a 4e3b 324c 083d
00000340: ab10 3d3d 356c 643d 36ee 18be 60c1 ab3d
00000350: 23f2 e9bc fb31 08bd ecc2 a43d b338 63bd
00000360: 6c10 cbbd dff9 d1bb e532 d93c 910b bc3d
00000370: 66f6 ea3d 24da 23be 0354 513d 2352 23bd
00000380: aad5 0bbd 2c86 5a3d 260b 83bd ad6d 93bd
00000390: 3a31 d7bc 986f 2b3c ad91 723c 6560 e93c
000003a0: 595d cf3c 192a 49be 9e45 ebbd 36de 43bd
000003b0: 90c2 af3d 0210 d9bc 8af6 533d 99ae 9a3d
000003c0: 4277 94bc 3d96 56bc 3ac7 4cbd d7e2 69bd
000003d0: a7b2 b83a 6838 013d 3335 54bd 5f7a 5abd
000003e0: 0f81 e93d dd13 90ba 9024 babd 3960 c0bd
000003f0: a613 f53c 0385 653d 89eb 8d3d fea2 343d
-0.07929635 -0.04707672 -0.087477595 0.050511546 0.0053771622 0.040229917 -0.029168509 0.10859643
-0.019807098 0.04470325 0.031250156 -0.057278544 0.008075352 -0.03975716 0.08774228 0.02772545
0.054013655 0.0448093 -0.054205507 0.0924401 0.053007834 0.014882022 0.0321205 0.04950432
0.0061539733 0.05520169 -0.036902647 0.056765676 -0.065206416 -0.02594659 -0.04701211 0.1157156
0.05176971 0.031031113 0.09518795 -0.029207908 0.055455975 0.034334913 -0.23358212 0.04106119
-0.09822951 0.07421916 -0.067938186 -0.15239759 -0.08646843 -0.071135364 -0.009330896 -0.021654816
0.091841415 0.056621972 -0.071981795 0.0739565 -0.010927908 -0.03184506 0.035430122 -0.034628917
0.07646386 0.0683558 0.02931127 -0.113049656 0.021027543 0.00047341362 -0.041730296 0.0038033428
-0.0008445017 -0.050694834 -0.049338095 -0.013116522 0.059945937 -0.015573738 0.059159342 -0.0021483516
0.08011871 0.002782907 -0.03112957 -0.019459417 -0.043612946 0.026223434 -0.07925384 -0.038043905
-0.036195636 0.032066226 -0.0032855407 0.01789418 -0.09644973 0.010620603 0.06506434 0.036172315
-0.005180601 -0.06753112 -0.085047424 -0.10140865 0.0052021584 0.040410172 0.04942834 0.045684233
0.0025872653 0.061186355 -0.056843065 -0.054938696 -0.061998572 0.045070786 0.022983322 0.10924361
-0.025242418 -0.049650826 0.010476309 0.016244961 0.07626238 0.08549782 -0.0097651305 -0.09491861
0.0768068 0.044982355 0.040933516 -0.04075578 0.023990149 -0.05980736 -0.19283897 -0.25496763
0.06956577 0.07290661 -0.026696583 -0.04860106 -0.07886141 -0.016459238 -0.039550655 -0.13297145
-0.111306496 -0.05530142 0.011377194 0.09799087 -0.043603536 0.031211166 0.004402703 0.05447572
-0.07097277 -0.044217397 -0.079465084 0.04575289 -0.10710042 -0.008610849 0.01779523 -0.034722604
-0.1569737 -0.098166585 0.012912179 0.057718705 0.029919228 0.03099059 -0.05510694 -0.0007340002
0.037938166 -0.022822985 0.07485966 -0.021109032 0.0031827867 0.04719235 -0.027720483 0.0110440105
0.04843673 -0.04359091 0.053363323 -0.076952554 -0.07680791 -0.040119592 -0.07343813 -0.038518157
0.023268057 0.01475079 -0.023962945 0.011917374 -0.07515045 0.016625533 -0.026720084 0.026224641
0.04142536 -0.055751182 0.061264012 0.06622686 -0.019619724 0.027650375 0.008643163 -0.05975002
-0.0036221268 -0.01171605 0.01862574 -0.16629972 0.016636826 0.0044997693 -0.028901776 -0.023621408
0.09190533 0.038786583 -0.054017015 -0.056751713 0.02517521 -0.0666181 0.15167116 -0.039063193
0.08820263 -0.022458354 -0.048047137 0.04534788 0.03635738 0.21116655 0.0031515472 0.03327579
0.046158474 0.055767257 -0.1493462 0.08386493 -0.028557843 -0.03325079 0.08044991 -0.055473994
-0.099152416 -0.006407961 0.026513526 0.091818936 0.11472778 -0.16001183 0.05110551 -0.039873254
-0.034139313 0.053350613 -0.06398611 -0.07198653 -0.02626859 0.010463618 0.01480524 0.028488347
0.025313066 -0.19644965 -0.11487888 -0.04781934 0.08582032 -0.026496891 0.05174879 0.07552833
-0.018123273 -0.013097343 -0.049994685 -0.057101097 0.0014091328 0.031547934 -0.051808547 -0.05333936
0.11401569 -0.0010992248 -0.09089005 -0.09393353 0.029916596 0.056035053 0.069296904 0.044100754

FC1.bias f4 [128]
00000000: 85fa 98bd 97f7 2b3d 6292 9dbd b405 9b3b
00000010: 9590 32bc 4e22 f8bc ca37 12bd 3b6b 7bbc
00000020: 0330 f23c e9b1 82bc d55b 41bd 53c1 0fbd
00000030: 5073 8a3c 8b57 4ebd cb06 9ebc 47d8 8bbc
00000040: a195 8cbd ad2f 8bbb 5e8c 0ebd d2bd 733d
00000050: fa42 f73b addc a3bb 0438 e83b cf1d 6a3d
00000060: 5d15 46bd bcde 8ebd cf18 58bc 88ba 6f3d
00000070: 1281 be3c 789b 593d 6635 5c3d 1395 493d
00000080: 1476 cdbc 4367 3abd 4cb0 1cbd 2189 873d
00000090: de99 24bd bbbd 08bd ff72 75bd 4e8e 2cbd
000000a0: 91ef 64bd 46da 79bd 6cdb 513d af71 e33c
000000b0: 1757 b1bc efeb 0fbd 7085 283d ba8d 503d
000000c0: 924f 633d b13d 943c adf3 473c 9ca6 143d
000000d0: ca13 1b3d 2ee9 093d e6f3 86bd 3bb2 3b3c
000000e0: 682f 5cbd a836 eabc 7226 04bd caea a3bd
000000f0: 734a 363d 7b79 053d 273c 0a3d 35ab 1fbc
00000100: aa1a 183d 52e3 13bd 166d 4ebd b427 1e3d
00000110: 8620 16bc c414 4c3d 819e f1bb 813f edbc
00000120: 188b a2bc 012e d0bb 90e0 803d d229 19bd
00000130: 5fbe 1cbd 61dd 95bd 527f b5bc 709b 7abd
00000140: 5742 113d a4f7 57bc 1fc7 263d 521a 1ebd
00000150: ab99 b4bd 62b0 143d a486 15bd 47bc 3ebd
00000160: 2e33 f23c 6281 92bd 82a3 8bbd 33b5 443d
00000170: 075c 023d cd8d 88bd 14d2 3bbd 30a1 1cbd
00000180: b40a dbbb 7da1 8e3d 7f9e d43b 13a2 753d
00000190: 8d75 ea3b 8ebb c83b d4a4 483c faf7 843d
000001a0: 532f 98bd 83ab 963b c34d 263c 8674 193d
000001b0: 1b06 7b3d 1773 5bbd 1b81 43bd 2a88 ff3c
000001c0: 534a a1bc f46b 8cbc 7ffb 2f3d 4868 6dba
000001d0: 3ae2 dbb9 c91e 4d3d 21cc 23bd 85d6 04bd
000001e0: ed52 8b3d 23b6 8d3d e8d6 6c3d b331 6e3d
000001f0: 8b93 3b3d 4b96 193c b0b4 2e3d d056 30bc
-0.07469658 0.041984167 -0.07693936 0.0047309045 -0.010898729 -0.030289795 -0.035697736 -0.01534539
0.02956391 -0.015953975 -0.04720672 -0.035096478 0.016900688 -0.050376456 -0.019290349 -0.017070903
-0.06864477 -0.0042476268 -0.034801833 0.0595072 0.007545826 -0.005000672 0.0070867557 0.057157334
-0.048360217 -0.06976077 -0.013189509 0.0585275 0.023254905 0.053126782 0.053761862 0.049214434
-0.025080718 -0.045508634 -0.038254067 0.06617952 -0.0401858 -0.033384066 -0.059924122 -0.0421279
-0.05589253 -0.060999177 0.051234648 0.02776417 -0.021647973 -0.035137113 0.04114288 0.05091641
0.055495806 0.018095823 0.012204093 0.036291704 0.03786067 0.033669643 -0.06589489 0.011456068
-0.053756148 -0.028590515 -0.032263227 -0.08003767 0.044504594 0.032586556 0.033748772 -0.009745409
0.037134804 -0.03610546 -0.050397 0.038612083 -0.009163028 0.04982449 -0.0073736315 -0.028960945
-0.019841716 -0.0063531403 0.06292832 -0.0373934 -0.03826749 -0.07317615 -0.022155438 -0.061183393
0.035463657 -0.013181601 0.04071724 -0.03859932 -0.08818372 0.036301024 -0.036505356 -0.046566274
0.02956542 -0.07153584 -0.06818296 0.048024368 0.031826045 -0.06667671 -0.045854643 -0.038239658
-0.0066846255 0.06964395 0.006488621 0.05996902 0.0071551264 0.006125874 0.012246329 0.0649261
-0.074309014 0.0045980825 0.010150376 0.03746464 0.06128512 -0.053576555 -0.047730546 0.031192858
-0.01968876 -0.01714132 0.042964455 -0.00090563716 -0.00041939487 0.050078187 -0.039989594 -0.032431144
0.06802926 0.069195054 0.057822138 0.058152866 0.045795005 0.009374212 0.042652786 -0.010762885

FC2.weight f4 [64, 128]
00000000: a080 dcbc 37a9 c2bd b6ad 3ebc 2fe9 8bbb
00000010: f177 043d 295c e43b d0d0 3dbd f13e 28bd
00000020: 2a1b 943d da68 e63d dcd3 59bd eb78 e33c
00000030: a51f 10be 3ec7 b43c a59d 44bd 2151 2bbb
00000040: e901 b23b 13ec 49bd a99c b13d fec6 823c
00000050: 32d4 e73c 82c5 d2bd c0f3 adbd c849 b8bc
00000060: 04fa bcbd e3aa d43c d12a 9abd a432 e8bc
00000070: 82f6 0f3c 54d6 e73c 6879 113d 7f9c 67bd
00000080: c6c7 15bd 2fe5 473d dc9f 353c c54a 873c
00000090: a623 f9bc 8ce4 78bd 145c 433d 645c 853d
000000a0: 3cbd 8e3c fd67 8cbd bf81 693d daea 333d
000000b0: 68a1 9b3d 1748 cebd 8b19 8cbc dc07 e7ba
000000c0: ac9b 063d 808d 07bd a537 633d 1bd9 853d
000000d0: 448b 08be dfa9 543d 9c80 d83d d946 1b3d
000000e0: d3e5 acbc 6dc3 463d 7de4 da3d 6da7 94bd
000000f0: 3a45 0e3d 0909 95bd d279 e8bd 1fbb 49bd
00000100: 6a00 c33c 91b1 343d 64cb 1ebd 798e cb3d
00000110: 8fd5 fb3c d579 983c b0f0 5c3c 93f0 9e3d
00000120: d56c fd3c 9da4 af3c c3e0 f13d 832e c2bd
00000130: 4925 6cbd 853a e7bc 1078 73bb 6f86 c6bd
00000140: 80ec 97bc cb31 aebd 7986 8a3c 44d3 72be
00000150: fff9 063c 4316 abbd b304 823d 8434 253d
00000160: 007b 403d f34c 7f3d 5254 0cbd 5976 b6bc
00000170: 989f d23c 1df6 42bd fb28 eabc ee6e 4cbd
00000180: df45 29be e106 97bd 87fe adbc 51d8 473d
00000190: cc67 edbc 861d b13d ab33 c83c 909f e93b
000001a0: 9bea a2bd 4b85 e33d 51d1 0f3c 4ed1 123d
000001b0: 6e0f 50bc 2acd 983c ce99 1a3e 07a0 1c3b
000001c0: c369 45be 0a97 f73b dee2 fd3c e529 9a3d
000001d0: b57c afbb 61fa b53c 84c2 153d 08da acbc
000001e0: 1862 7dbc a2c9 703d 6eea 93bd 91eb dfba
000001f0: 6825 35bd 9e5d 813d b81d cabd f4e2 ce3b
00000200: f72c 10be ef67 393d f41d a63d 8c31 c8bd
00000210: 78a5 26be 9139 97bd b19c fc3c 9a4a b73c
00000220: 3e64 04bd 65c9 a53d 980b 253d eba3 a93d
00000230: cbfe 72be 0afe 7a3d f1dd c93a 6f14 a6bc
00000240: 3d22 4a3c 3ae0 a7bd c8c0 e5bd 8d0c 27bd
00000250: 6156 93bb 6643 24be 1a27 41be ab39 6b3d
00000260: ee73 37bd df12 16bd d853 9ebc d0dd b93d
00000270: d886 9dbd 0635 e3bd 8c25 0c3d 4a90 2b3d
00000280: 3f5d 57bc 5b84 d6bc 5522 0bbd c320 3b3d
00000290: 72d6 a7bd a3c6 91bb d023 b83c 9e91 09bd
000002a0: 7b46 c3bd 59f5 9c3d 74b2 333d 7920 60bd
000002b0: deff d83c db68 6f3c 1537 2e3d 072f 133c
000002c0: fec7 f53d fec2 a4bd 03f2 9b3d a1bf 53bd
000002d0: 3615 3cbd 4fdf fabc 515b 9f3c 16fc 27be
000002e0: 58b8 e43c afe8 c53c 0ae6 1dbe db61 783d
000002f0: 4db9 363d ffeb 08bd 2b24 85bd e479 8cbd
00000300: aa84 e1bd f1cd 9a3c 93b5 a03d dce8 11bc
00000310: f0c0 353b fa6a 073e aa58 fabd 2116 233d
00000320: 8a8d e1bc dd0c 4d3d fe5b a8bd d0f1 82be
00000330: 428e 20be 4c24 e6bc 7a25 34bd 99d0 e8bd
00000340: bb9f 8d3c 5c73 65bc 4449 c4bd 9c2a 47bc
00000350: c0e3 d7bd fead f03c fada b83d 9c36 153d
00000360: fc4a c3bd e0aa 04bd da78 4cbb 0a06 dc3c
00000370: 860b 80bc 21f1 7ebd 28c5 c93d 5cd6 8f3d
00000380: b3ad 1d3b ae97 44bc c41f 0f3d 30c1 943c
00000390: c4ab ebbc 4cf0 6fbe efc1 9ebc 7b23 183d
000003a0: 248e ff3c 5c03 8fbc a97e 00be 1c35 1fbd
000003b0: d9c9 043e 5869 82be c965 cebc cab1 d93c
000003c0: 5d76 17be 3005 0a3d 0c5b e23c 3988 30be
000003d0: a16a 9a3c 6b8a 26bd 180e 3e3b f7d4 bc3d
000003e0: 39f9 abbb 52c5 e3bc d6c0 6ebd 2187 2a3e
000003f0: 7abd 40bc 0b22 e0bc 531c 4fbe d59f 0cbe
-0.026916802 -0.095049314 -0.011638096 -0.004269741 0.032340948 0.006968994 -0.046341717 -0.04107565
0.07231744 0.112504676 -0.05318056 0.02776762 -0.14074571 0.022067662 -0.048001904 -0.0026140886
0.0054323566 -0.049297404 0.08672459 0.015964027 0.028299425 -0.10291578 -0.08493757 -0.02249612
-0.09227374 0.025960391 -0.07527698 -0.02834446 0.008786799 0.028300442 0.035516173 -0.05654573
-0.036567472 0.04880255 0.011085477 0.016515145 -0.030412506 -0.060764834 0.047695234 0.06511763
0.017424218 -0.06855772 0.0570085 0.043925144 0.07599145 -0.10072344 -0.017102024 -0.0017626244
0.032863304 -0.03309393 0.05547299 0.0653555 -0.13334376 0.051919814 0.10571405 0.037909362
-0.021105682 0.048526216 0.10688112 -0.072584964 0.03473399 -0.07277114 -0.113513604 -0.04925072
0.023803908 0.044114653 -0.038768187 0.09939284 0.030741481 0.018612782 0.013485119 0.0776073
0.030935684 0.021440798 0.11810448 -0.09481528 -0.057652745 -0.028226146 -0.003715042 -0.0969361
-0.01854539 -0.08505591 0.016909825 -0.23713404 0.008238315 -0.083538555 0.063485526 0.040333286
0.046992302 0.062329244 -0.0342601 -0.02227323 0.025710866 -0.047597993 -0.028583994 -0.04991048
-0.1653056 -0.07374359 -0.021239532 0.04879028 -0.028980158 0.08648209 0.0244387 0.007129617
-0.07954904 0.11109408 0.008777932 0.03584414 -0.012698991 0.018652517 0.15097734 0.0023899095
-0.19278626 0.007555847 0.030991968 0.07527522 -0.0053554424 0.022214117 0.036562458 -0.02110006
-0.015465282 0.058786042 -0.07222448 -0.0017083754 -0.044225127 0.06316684 -0.0986895 0.006313676
-0.14079653 0.045265134 0.08111182 -0.09775075 -0.16274059 -0.07384027 0.030836435 0.02237444
-0.03232216 0.080950536 0.04029426 0.08283218 -0.23730008 0.061277427 0.0015401227 -0.020273415
0.012337265 -0.08197065 -0.11218411 -0.040783454 -0.004496381 -0.16041335 -0.18862572 0.057428043
-0.044788294 -0.03663909 -0.01932709 0.090755105 -0.07691735 -0.11094098 0.034215495 0.04188565
-0.01314479 -0.026186159 -0.03396829 0.04568554 -0.08195199 -0.004448728 0.022478014 -0.033586137
-0.095349275 0.07663984 0.043871358 -0.05471847 0.026489194 0.014612402 0.042533 0.00898338
0.12001036 -0.08045004 0.076145194 -0.051696423 -0.045918666 -0.03062406 0.019452723 -0.16404757
0.027919933 0.024158804 -0.15419784 0.060640197 0.04461031 -0.03342819 -0.06501039 -0.06859186
-0.11011632 0.018897029 0.078471325 -0.008905616 0.0027733408 0.13224402 -0.122239426 0.039816026
-0.027533311 0.050061096 -0.08220671 -0.25575113 -0.15679267 -0.02809348 -0.043981053 -0.11367912
0.01728808 -0.014004555 -0.09584287 -0.012156155 -0.10541487 0.029379841 0.090261415 0.036429033
-0.095357865 -0.03238952 -0.0031199963 0.026858348 -0.015630495 -0.062241677 0.09852058 0.07023308
0.0024059832 -0.011999054 0.034942403 0.018158525 -0.028768428 -0.2343151 -0.019379584 0.03714321
0.031195708 -0.017457657 -0.12548317 -0.03886901 0.12967624 -0.25470996 -0.02519502 0.026574034
-0.14791246 0.033696353 0.027631305 -0.17239465 0.018849673 -0.04065935 0.00290001 0.09220307
-0.0052482155 -0.02780405 -0.05828937 0.1665311 -0.011763925 -0.027359983 -0.20225649 -0.13732846

FC2.bias f4 [64]
00000000: 2781 44bd 9555 3a3d 583c 2bbd 8959 083c
00000010: 8967 873d 8bcb 30bd eadc dc3c d468 653c
00000020: 3c38 25bd 1196 c3bc 634a cb3c f1d2 bbbd
00000030: 4250 8c3d 436c 1b3c f1f7 bc3c 2285 babd
00000040: 590b febb 06f9 49bd 24e4 2cbd 15d0 18bc
00000050: 90ba a1bc df19 7b3d 9c51 0d3c 0919 af3b
00000060: 50c5 24bd 398d bb3c 3981 863d c603 2fbd
00000070: 0b5f 14bc 7c90 bfba 02a2 f8ba 16d9 afbd
00000080: 2d7e 8bbc aad2 dd3c df6c 173c 6bb2 453d
00000090: 4552 e5bc 25ab e9bd b5a4 c9bb eafb ce3c
000000a0: a287 033d 2dac e4bd 40c7 a0bc 1b32 3b3c
000000b0: 4ed4 783c a04c 95bd 67d1 863d 5085 f8bc
000000c0: 4bff 9bbd d64e 8ebd b105 0c3d c057 9cbd
000000d0: d5ca 37bd dfef a8bd dca1 d1bb 174f 06bd
000000e0: 9455 9bbd 03c8 dabc 9609 f7bd 3137 28bc
000000f0: 90c5 6bbc 9c59 8ebd 081e 1a3d 9e3e 56bc
-0.04797473 0.045491774 -0.041805595 0.008322128 0.06611545 -0.043162864 0.026960809 0.014002044
-0.040336832 -0.023875268 0.024815744 -0.09171093 0.068512455 0.009486261 0.023067446 -0.09107424
-0.0077528176 -0.049309753 -0.04220976 -0.009326954 -0.01974228 0.06130397 0.008625414 0.0053435606
-0.040227234 0.022894489 0.06567616 -0.042728208 -0.009055863 -0.0014615203 -0.001896918 -0.08586328
-0.017027939 0.027077992 0.0092422655 0.048265856 -0.02799333 -0.11409596 -0.006153668 0.025266606
0.03211177 -0.111656524 -0.01962626 0.01142552 0.015187336 -0.07290006 0.06582909 -0.030337006
-0.07617053 -0.069486305 0.034185115 -0.076339245 -0.04487117 -0.08248877 -0.006397469 -0.03279027
-0.07584682 -0.026706701 -0.12062375 -0.010267065 -0.014390364 -0.069506854 0.037626296 -0.013076453

FC3.weight f4 [2, 64]
00000000: 8b33 41bc 12ac 01be 3333 fabd 05e3 b0bd
00000010: 87e6 8bbe fd37 1dbe ca23 de3d eb4e 9fbd
00000020: 1def 173e 205c 20be a5e7 af3d 5d68 23be
00000030: 2abd 54bd d78f 75bd f52b 73bd f8d9 75be
00000040: 91ee 023e 26f6 78bd 928e acbd 8ce7 72bd
00000050: 0c89 2b3e 1153 05bd ff43 37be d83f 25bd
00000060: 3ae0 3bbe 15fe 1abd b11e 883c e459 5cbe
00000070: c6d3 2fbe ffb5 ac3d 8968 103e 4bff 153d
00000080: 0e2d 85be a028 463e 4bed b8bd 7434 0abe
00000090: 1fbf 493e 40ab 093d eea9 6d3d c69a dd3d
000000a0: 7bea 96bc b988 f13d e6bf 60be 4bf0 95bd
000000b0: 504a fbbd 59ae bb3d ea1d 0e3e 04ad f2bc
000000c0: 46a5 263e 087e 873d 665c 96bd 8eec f53d
000000d0: f7be 9abd 0bd8 46bd 45d1 f3ba 35e4 3c3e
000000e0: 6c64 bbbd d613 a63d 9446 c43d dd87 3dbd
000000f0: 4ed1 4c3e 7d16 e13d 1a48 b2bd 55e9 0dbe
00000100: c7bd abbd 8a8c 2cbe 6683 93bd e000 8dbc
00000110: 8306 febd 0ac9 3e3c f502 b7bd 0da9 9e3d
00000120: de95 523d a316 b83d 4c20 29bd 3a72 f63d
00000130: 76ca c2bd 273f a73d 19fc c8bc b8ff a1bd
00000140: fa14 45bb 30bc 833d ec14 9a3d c240 e0bd
00000150: 47d4 bf3c 7174 913d 8f25 97bd ecf0 3e3e
00000160: 1af2 093e 4ce2 db3d 439f a43d 122d 103a
00000170: ce4a 0dbd ed7f 8cbd e3d3 51bd 48db 75bd
00000180: 2623 6cbc d7f1 58bd 210d 8dbd 5d34 a0bc
00000190: 3891 f63d 3331 14be 8422 4d3d 1775 dd3d
000001a0: 124e b8bd 1458 9fbc 2bc3 87bd 3adc 1fbe
000001b0: 4b82 0b3d 0a99 0cbd 0e43 d23d c9f6 80bd
000001c0: 9a33 903d 6a09 93bd 5d80 e4bc 41bf 083b
000001d0: 525f 463d 1a78 4abe 2122 d2bd 9f2f a23c
000001e0: d972 0dbe 8076 d43d fc47 d5bd 516a a63c
000001f0: e2ed 143e f556 a2bd c175 d73d 9f53 3fbd
-0.011792074 -0.12663296 -0.12216797 -0.086370505 -0.27324316 -0.15353389 0.1084667 -0.07778724
0.14837308 -0.15660143 0.085891046 -0.1595778 -0.051938213 -0.05995163 -0.059368093 -0.2400893
0.12786318 -0.06078162 -0.08425631 -0.05930285 0.16751498 -0.03254992 -0.17897032 -0.04034409
-0.18347254 -0.037839968 0.016616197 -0.21518666 -0.17170629 0.084331505 0.14102377 0.03662042
-0.26010936 0.19351435 -0.09029635 -0.13496572 0.19701813 0.033610582 0.058023386 0.10820536
-0.018422356 0.11793656 -0.21948203 -0.07321223 -0.12270033 0.091641136 0.13878599 -0.029623516
0.16273984 0.066158354 -0.07341842 0.1200801 -0.07555955 -0.04854588 -0.0018601796 0.18446429
-0.09150013 0.08109252 0.09583774 -0.046272147 0.20001718 0.109906174 -0.087051585 -0.1385854
-0.083858065 -0.16850486 -0.07202797 -0.017212331 -0.12403586 0.011644611 -0.08936111 0.07747088
0.051412456 0.089886926 -0.041290566 0.12033506 -0.095112726 0.08166342 -0.024534272 -0.079101026
-0.0030072317 0.06432378 0.07523522 -0.109498516 0.023416651 0.071022876 -0.073802106 0.18646592
0.1347126 0.10736522 0.08038189 0.000549988 -0.034495167 -0.068603374 -0.05122746 -0.060023576
-0.014412677 -0.05296501 -0.0688727 -0.019556219 0.12039417 -0.14471893 0.050081745 0.10813349
-0.08999266 -0.019451179 -0.06629022 -0.15611354 0.034059804 -0.034325637 0.10266696 -0.062970705
0.07041092 -0.0717953 -0.02789324 0.002086595 0.04843075 -0.19772378 -0.10260416 0.019798098
-0.13813342 0.103741646 -0.104141206 0.020314367 0.1454387 -0.07926742 0.10520507 -0.046710607

FC3.bias f4 [2]
00000000: c66c 633c 6bb5 a73c
0.013880914 0.020472249

FC1.weight f4 [64, 40]
00000000: 06b2 c13d b8fd 07bc 82ef da3d d54a ffbd
00000010: 8a12 dabd 313d 09bd f427 d3bd d6e0 d93b
00000020: 7daf ed3d 99cf 11bc cf82 483d 6499 d63d
00000030: 3b08 0f3e 02e3 423d 6cde a63d 2fa6 8c3d
00000040: befa eabd 9ba4 a23c 09ed 93bd 99ef febc
00000050: 7925 b43c 4886 b73d 2f5f fcbd 6718 cf3d
00000060: 9e65 e63d 937c a6bd 1cb4 1cba dfc1 0fbe
00000070: df19 b9bd 328d d63d f7f0 b7ba fa9b 01bc
00000080: b2ed 8b3d 0c23 b6bb 2391 2d3b a069 ff3d
00000090: 8aac 3b3e b2b1 2d3e d3af f1bd 65c6 bf3d
000000a0: 7ed3 85bd 38eb 0cbd dbca a5bb 14f9 0abe
000000b0: 1118 95bd 26c6 35bd 39e9 2e3e f097 d6b9
000000c0: 4006 6a3d 7a91 d43d d618 013e 33d4 9e3d
000000d0: 3341 f73d c100 1a3e 7fa9 993d 09c9 b73d
000000e0: 13b2 b8bc 1684 b83d 3141 bebd f86a 0fbe
000000f0: e816 2fbd 06c2 5f3d 7563 f9bc 8ee0 e33d
00000100: 4163 e83d af40 eb3d c985 e5bd a43c 623d
00000110: 5ac1 90bd d77a 873b 7198 04be 8a4c 763d
00000120: 1d7d 783c 91a0 033e 569b 1bbd 7ba5 4d3d
00000130: 7765 09bd 517d 16be b312 1b3d cc04 fe3c
00000140: bec8 75bc 5d62 fd3a 8b4f cf3d eae9 e33d
00000150: c2a9 143e 2cfb ffbc c100 e4bb 0820 e43d
00000160: f0d0 d13c faa0 3fbd a396 9e3c 8378 6e3d
00000170: 11c5 3cbc ecc5 be3d 98c3 743c 39e6 923d
00000180: b55c 943d 4020 0d3e 5258 30bd 4039 20be
00000190: 7540 6cbd cea8 c4bd adb1 a63c 64bb 943c
000001a0: 553c 72be 618b 4abe f18f b0bd b553 02be
000001b0: 326f 29be 4d6b adbd 3596 163d 770d d83b
000001c0: 779e 10be c573 e2bd e4d7 da3d 1265 efbd
000001d0: 26ea e73c e366 5d3d 5a92 67bc 7cf9 f93d
000001e0: e37e 983d a3d7 053c 1bb7 0ebe 30e9 5abd
000001f0: b68c 15bd 827f dcbd 9ee4 ccbd dccf a9bd
00000200: e243 6c3c d9f7 07bd 22cd d1bd 0430 b43d
00000210: bde5 91bb c7f8 0fbe 895e 323b f452 b13d
00000220: 5c97 903d 1b22 0c3e fc25 ebbd 572c dfbd
00000230: 15dd ba3d 3f34 ed3d 7d1d 173d 4c9c 7cbd
00000240: ae06 b93d 4b22 17bd 8e90 b13d 36fe afbe
00000250: 8e09 35be fabc 1abe e931 29bd 960e c93d
00000260: c2fd c23b 0778 173c 082e 78bd 1712 223d
00000270: 3bae 22be 88dc a93d 89cc b2bd 3318 023e
00000280: 066d a13d e044 28be 4312 10bc 11e9 92bb
00000290: 04fb c63c e19e 8f3b 3b1f 843d 277c 0fbe
000002a0: 0679 f2bd 53a2 683d 4fc9 21be 5ad9 fcbc
000002b0: 982a f2bd eb1b e63d 44c8 bc3d 9288 20ba
000002c0: 8901 28be c6ad 6cbb d80f dcbc 3502 643d
000002d0: 4a7c 8f3d 41c8 f53d d29b 3c3c 2210 1e3d
000002e0: 0c3a a6bb a5d9 c53d 8f00 a8bd 174a 8d3b
000002f0: 9966 de3d d91c c9bb b08a b7bb 05a0 5abe
00000300: 8d96 cdbd 6e2b 9ebe f204 eebd e4d1 203e
00000310: 9f30 d9bd 984d 1bbe 711b 9abd 0679 81bd
00000320: 44de 0c3e f3e8 00bd f8c1 023e a8c8 97bd
00000330: feab f0bd ac34 f8bd 98a3 e23d e62f 1bbd
00000340: c194 fc3d fbf7 c5bd 4617 3d3e e4d9 f13d
00000350: 6619 0bbe 2fe3 58bd f53d 1f3e b709 dd3c
00000360: fbc8 1b3e 9bfd 0c3e 49f6 57bd 4449 a1bc
00000370: 85ab 363d 349f 1bbd d9f3 083e 8b79 723d
00000380: d346 11bd 085b d1bc 2b21 1ebd 59f6 0dbe
00000390: 93ce 013d 4e14 40bd c7e3 5fbd 2e08 a43d
000003a0: c960 a53b ea6c 80bd b223 d43d ee59 7fbd
000003b0: 05ec 853a 1eae 15be 356d 28bd 5f11 4ebd
000003c0: 72f2 f93c e218 cdbd c703 af3e f2e4 38bf
000003d0: 96a4 0cbf 772f 5c3d dccf 20bd e951 3a3e
000003e0: d9be 9b3d 0d36 e63d 3468 573d e43e 0c3e
000003f0: 7d3e 9a3d 12e6 b03c 9c84 a03c 1d30 2dbe
0.094577834 -0.008300237 0.10690214 -0.12465445 -0.10648067 -0.033505622 -0.10310355 0.006649117
0.11605737 -0.008899593 0.048952874 0.10478476 0.13967983 0.047579773 0.08147892 0.068676345
-0.114736065 0.01985388 -0.07222945 -0.031120108 0.021990525 0.08961159 -0.12322842 0.10112076
0.11249851 -0.081292294 -0.0005977766 -0.140388 -0.09038138 0.104761496 -0.0014033605 -0.007910723
0.06832446 -0.005558377 0.0026484213 0.12471318 0.18327537 0.16962317 -0.11801114 0.09364013
-0.065344796 -0.03440401 -0.0050595826 -0.13571578 -0.07279981 -0.044378422 0.17081155 -0.00040930463
0.057134867 0.1037931 0.1260713 0.077553175 0.12072983 0.1503935 0.07503032 0.08973891
-0.02254585 0.090095684 -0.09289778 -0.14005649 -0.042746454 0.054628395 -0.030442933 0.11126815
0.11347056 0.11486947 -0.11207158 0.055233613 -0.07068129 0.0041345167 -0.12948777 0.060131587
0.015166548 0.1285422 -0.037989937 0.050206643 -0.03354403 -0.14696242 0.03785963 0.031008147
-0.015001474 0.0019331683 0.101225935 0.111286 0.14517882 -0.031247698 -0.0069580977 0.11138922
0.025612324 -0.04678438 0.019358939 0.058220398 -0.011521594 0.09315094 0.014939211 0.07172818
0.07244245 0.13781834 -0.04305298 -0.15646839 -0.05767866 -0.096025094 0.020348394 0.018155761
-0.23655827 -0.19779731 -0.08621205 -0.12727244 -0.16546324 -0.084677316 0.036764342 0.006593402
-0.1412295 -0.110572375 0.10685709 -0.116891995 0.028309893 0.0540532 -0.014134014 0.122057885
0.07446077 0.008169088 -0.13937037 -0.05344504 -0.036511146 -0.10766508 -0.10004543 -0.08291599
0.014420481 -0.03319535 -0.10244204 0.08798221 -0.0044524358 -0.14059745 0.0027216992 0.086584
0.070601195 0.13684885 -0.11481854 -0.10897129 0.09124199 0.11582231 0.036893357 -0.061672494
0.09034477 -0.03689794 0.0867015 -0.34373635 -0.17679426 -0.15111151 -0.041307364 0.09817235
0.0059506604 0.009244925 -0.060590774 0.039568033 -0.15886776 0.08294016 -0.08730418 0.12704544
0.07882123 -0.16432524 -0.008793416 -0.00448335 0.024289615 0.0043829535 0.06451269 -0.14012204
-0.1183949 0.05679543 -0.1579945 -0.03086536 -0.1182453 0.11235794 0.09217885 -0.0006123866
-0.16406836 -0.003611432 -0.026863024 0.055666167 0.07006128 0.12001086 0.01151176 0.038589604
-0.0050728377 0.09660653 -0.082032315 0.0043118107 0.10859413 -0.006137472 -0.0056012496 -0.21350105
-0.10038481 -0.3089251 -0.11622037 0.15705067 -0.10604977 -0.15166318 -0.07524765 -0.063219115
0.13756663 -0.031472158 0.12769306 -0.07411319 -0.11751555 -0.12119421 0.11066359 -0.037887476
0.1233306 -0.09666439 0.1846591 0.118091375 -0.13583907 -0.052951034 0.15550978 0.026982171
0.15213387 0.13768618 -0.05272511 -0.019688256 0.044597168 -0.037993625 0.1337427 0.059197944
-0.035467934 -0.025556102 -0.03860585 -0.13863505 0.031691145 -0.046894364 -0.054660585 0.08009373
0.005046938 -0.06270774 0.10358371 -0.062341623 0.0010217434 -0.14617202 -0.041119773 -0.050309535
0.030511115 -0.10014512 0.3418257 -0.7222434 -0.5493864 0.053756204 -0.03926073 0.18195309
0.07604761 0.11240778 0.05258961 0.13695866 0.0753145 0.021594081 0.019594483 -0.16912885

FC1.bias f4 [64]
00000000: a67a 0ebe 0bf3 cc3d 39e6 6dbd a0a2 cd3d
00000010: 8536 cb3d b137 e3bd 8073 1cbd c5ee 52bd
00000020: 8b3f 563c be30 ebba 7bb9 1ebe 236c bcbc
00000030: 8b2a 083e 4e83 0f3e d2f5 363e 4046 fabd
00000040: 1403 2cba a462 093d e2f5 81bb 61d9 55bd
00000050: 9f8a 083d bb32 a1bc 1543 10bd 5774 a7bd
00000060: c992 18bd 9b0f 91bb f0e1 0d3e a0b6 d9bd
00000070: 331d 24be 065f 6ebd 4295 3dbd 478b 00be
00000080: f3b2 d13a 55d2 92bd 8932 15be c59c fe3c
00000090: 4a5c 18be bb03 c33d c009 133d ec23 e2ba
000000a0: 56f3 f9bc c76b ebbd 4a91 c8bd b47a 103e
000000b0: 6138 f5bd 9b84 f6bd a071 1b3d 132c 0f3d
000000c0: e71d 41bd 0a69 d2bd d3a2 753c d8a8 023e
000000d0: 371d 88bc 94ff 783d dac5 12be 13c4 14bc
000000e0: 825f d5bd ffbb 853d 39d1 0e3e ab4d e63d
000000f0: 14a6 d23d d1da 793d 5e9e 83bc 3e56 a7bd
-0.13913974 0.10007294 -0.058080886 0.10040784 0.09922508 -0.11094607 -0.038196087 -0.05149724
0.013076673 -0.0017943603 -0.15500443 -0.023000782 0.13297479 0.14014933 0.1786721 -0.122204304
-0.0006561738 0.033541337 -0.003966079 -0.05220926 0.033335324 -0.01967751 -0.035220224 -0.08176487
-0.03724936 -0.004426909 0.1385572 -0.10630536 -0.16026764 -0.05819609 -0.04628492 -0.1255313
0.0015998766 -0.07169024 -0.14570059 0.031080613 -0.14878955 0.09522196 0.03589797 -0.0017253137
-0.03051154 -0.11495166 -0.09793337 0.14109308 -0.11973644 -0.12037011 0.037950158 0.03495414
-0.047147658 -0.10273941 0.014992434 0.12759721 -0.016615493 0.060790613 -0.14333287 -0.009079951
-0.10418607 0.06529998 0.13947 0.11245283 0.10285583 0.060999695 -0.016066726 -0.08170746
