hcanet-3.27_maddpg_old/data/test_model/model_3400.pt (torch, 268587 bytes, 16 tensors)

FC1.weight f4 [128, 180]
000000 d0 8f 70 bd 90 7e e4 3b a1 21 b9 bc 0e 92 a6 3d
       -0.0587309 0.0069730952 -0.022599043 0.081333265
000010 e8 bc be bc 43 85 a9 bd 8c 01 d5 bc cf dd 08 3e
       -0.023283437 -0.08277371 -0.026001714 0.13365863
000020 d1 ca b1 bd 5f 23 52 bd 2d 70 13 3e d3 f0 9a bd
       -0.08681262 -0.051303264 0.1439826 -0.07565465
000030 12 65 29 3e ad 20 e0 bc 85 07 80 bb bb 57 0a 3e
       0.16542462 -0.027359331 -0.0039071464 0.13510029
000040 f5 a8 c3 3d 85 71 7c bd 38 3e 85 3d 26 48 a4 bd
       0.0955371 -0.0616317 0.06506008 -0.08021574
000050 25 45 a0 3c 66 41 38 3c 56 b4 4f bc 7f 2a 09 be
       0.01956422 0.011246061 -0.012677273 -0.13395117
000060 bc a7 1e be 1d 13 cb bd 6b 2a cd 3d e9 34 68 be
       -0.15493673 -0.09915755 0.10017856 -0.22676434
000070 e5 d9 b0 be cd 93 9c be 8e 4b 69 3d 27 65 2c be
       -0.3454124 -0.30581513 0.05695682 -0.16835462
000080 43 c1 9a 3d 92 bb bb 3c fe 94 9d 3b 35 bd a5 3d
       0.07556393 0.022916589 0.004809021 0.08092729
000090 23 68 b5 be ea 81 36 be 55 be 3c be 4b 04 42 be
       -0.35431013 -0.17822996 -0.18431981 -0.1894695
0000a0 67 f1 ad bd d9 49 c8 bc 8e 4a 1f 3e 55 64 41 be
       -0.084933095 -0.024449276 0.15555784 -0.1888593
0000b0 05 51 49 be 57 8f 82 3e 20 f4 a6 be 3e 1f 90 bd
       -0.19659813 0.25499985 -0.32608128 -0.07037209
0000c0 f5 9b e7 3d ec 7e 05 3e 9a 61 22 3e 85 28 48 be
       0.11309043 0.13036698 0.15857545 -0.19546707
0000d0 a6 28 24 3c 18 d8 01 bf db 52 01 bf c5 10 e9 bd
       0.010019457 -0.5072036 -0.5051705 -0.11380152
0000e0 75 95 a9 3d 5d 15 9e ba eb 95 a8 3d 6f ce 9b 3d
       0.0828046 -0.001206081 0.082317196 0.076077335
0000f0 9b 9c c8 bd b2 03 15 3d 53 ed aa bd 83 c8 34 bb
       -0.09795495 0.036380477 -0.08346047 -0.0027585335
000100 e9 d7 d3 3d 98 39 14 be 36 3f 38 ba cc 69 16 be
       0.10343916 -0.14475095 -0.0007028462 -0.14688796
000110 e5 6e 39 be 4a 9e 25 be a5 7c d7 bd 6a 0d 11 3d
       -0.18108709 -0.16173664 -0.10521821 0.035413183
000120 4b 1e e2 bd e3 5e 65 bd e5 bf 20 bd f8 cc 96 bc
       -0.11040934 -0.055998694 -0.039245505 -0.018408284
000130 4f 61 b5 bc c8 dd 14 bd f5 0c a6 3d 1f f2 2d 3e
       -0.022141127 -0.03634432 0.0810794 0.16986893
000140 3b 92 3b 3d 14 b4 34 3d 60 bf d4 3c a4 f7 33 3e
       0.045793753 0.04411705 0.025970161 0.17574936
000150 28 1a 4b 3e f3 82 5e bd 8d 89 10 3e 6d f7 ad bd
       0.19834197 -0.0543241 0.14114971 -0.08494458
000160 70 f0 2c 3d 9d bf 09 3e 91 5e 4c 3e 1d 6e 54 bc
       0.042221487 0.13452001 0.19957949 -0.012965706
000170 7c d7 d8 bc bd 1c 6e 3d 95 da 33 3e 94 54 a0 3d
       -0.026469938 0.058132876 0.17563851 0.07828632
000180 f4 8f 5f bc 4b 62 a4 bc 80 ff ac 3d 9c 7a f9 bc
       -0.013645161 -0.020066401 0.0844717 -0.030453973
000190 5b 6a 40 3d 3d 88 13 bd 3e 65 4d bd bc f2 b3 3c
       0.04697643 -0.0360186 -0.05014538 0.02196633
0001a0 e7 24 0f 3d 99 b7 14 3d d5 4c 10 3d e1 6e a2 3d
       0.034947302 0.036307905 0.035229523 0.07931305
0001b0 fe 2c 97 3d bc c8 7d 3d e0 c7 58 3c d8 65 4f 3c
       0.073816285 0.061959013 0.013231248 0.012658559
0001c0 84 82 bd bc c9 13 43 bd b5 79 d3 3c 5f be 06 be
       -0.023133524 -0.04762629 0.02581487 -0.13158558
0001d0 b4 d9 4e 3d 76 5e b8 bd 4a ca be bc 7a 44 c5 3d
       0.050500587 -0.09002392 -0.023289818 0.096322015
0001e0 53 08 34 bc cc 3b 75 bd 55 14 35 bd 40 7e 4d 3d
       -0.010988313 -0.05987148 -0.044208843 0.05016923
0001f0 bb a4 77 bc 68 62 d1 3d b4 0a 22 3d c2 c2 98 3d
       -0.015114958 0.10223848 0.03956099 0.07459022
000200 c0 f1 7c bc 54 4e 37 bd a5 8d 6b bd da 56 bd 3d
       -0.015438497 -0.044752434 -0.05750813 0.09245081
000210 f8 de 10 bd 1f 3d ad bd e8 14 53 3d a5 9b c8 3c
       -0.03536889 -0.084589235 0.05153361 0.02448828
000220 7f d5 e1 3d 84 35 e0 3c 32 ef 79 bc 1c 88 97 bd
       0.11027049 0.027369268 -0.0152547825 -0.07399008
000230 91 ae 27 bd 59 06 3f bd 8a c0 26 bd 2b fb 84 bd
       -0.040937964 -0.046636913 -0.040710963 -0.06493219
000240 d3 6b 57 3d 75 3a 35 3d 59 93 30 bd c8 7b b2 bc
       0.052593064 0.044245202 -0.04310927 -0.02178754
000250 95 1a 3b 3d da db 27 3c fb c8 4b bc ed 67 cd bc
       0.045679647 0.010245288 -0.012438054 -0.02507397
000260 e4 57 e2 3c 75 b5 7b bc 0c 21 3e bd d8 40 f9 bc
       0.0276298 -0.015363087 -0.046418235 -0.030426428
000270 ea bb 44 3d cc 47 25 bd 17 ce 59 bd a1 47 e9 bc
       0.04803077 -0.040351674 -0.05317506 -0.028476538
000280 cb cb 17 bd 64 69 74 bd d1 9e 4f bc 2a 9c df 3c
       -0.037059586 -0.05967082 -0.012672142 0.027296145
000290 21 49 72 3d 97 6c a7 3c 8b c1 4c 3d 1a 04 95 3c
       0.059151772 0.020437522 0.049989264 0.018190432
0002a0 7e 0a d6 bc a1 a4 83 bd 21 e6 10 bd 45 a9 9d 3c
       -0.02612805 -0.06427885 -0.035375718 0.019245753
0002b0 d7 88 a5 3a e7 20 0b bd 82 48 8c bc 9a d6 3e 3c
       0.0012629282 -0.033966925 -0.017124418 0.011647845
0002c0 20 87 be 3d db 43 25 3d 62 19 87 3e 6a 49 11 3c
       0.09303117 0.040347915 0.26386553 0.008867601
0002d0 bb c9 6c bc df 5a 4c 3e 2c 34 ba 3d 2e eb 05 3d
       -0.014452393 0.1995654 0.09091982 0.032694988
0002e0 29 e6 11 be 36 22 a3 be fb 4d 69 be 17 ea 8a be
       -0.14247955 -0.31862038 -0.22783653 -0.2713172
0002f0 c3 82 1f be 1d 66 a0 3d 8b 08 9b be b1 6a 36 bd
       -0.15577225 0.078319766 -0.30279955 -0.044535343
000300 0a 64 66 be af 75 6f 3d 05 33 bf bc c6 c3 98 bb
       -0.224991 0.05846184 -0.023339758 -0.00466201
000310 08 7b a2 3d af 9f 7e bd 3d 64 77 3b ee 77 4b be
       0.079336226 -0.062164005 0.0037748956 -0.19869968
000320 3c 62 32 3e aa ed de bb 92 8d 1b 3e cb c4 e9 3c
       0.17420286 -0.006803234 0.15190724 0.028536221
000330 bb 3b 88 3c ef fa 8a bc 21 e7 20 bd fc fe e7 3d
       0.016630044 -0.016965358 -0.03928292 0.11327931
000340 1e b9 76 3e 84 21 d1 3d 77 5d c1 3d 3f 6b 1c 3c
       0.24094054 0.10211471 0.09441655 0.009547054
000350 fc 70 48 bd a4 17 21 be e3 2b 8f bd 8b 21 47 bd
       -0.048935875 -0.15731674 -0.069907926 -0.048615973
000360 ac 73 0b 3e 61 fa 66 3e bf 27 ce bd 8c f2 65 be
       0.13618344 0.2255645 -0.10066175 -0.22455806
000370 86 9f 0b 3d 2d b7 56 bc d7 9b 9f 3d 8a 81 93 3d
       0.03408768 -0.013105196 0.07793396 0.07202442
000380 a4 79 32 3c 65 ca ee 3b 20 bf 41 3e 10 02 f0 3d
       0.010893259 0.007287311 0.18920565 0.117191434
000390 47 5b 82 3b 1c 8a 6a bc 0c 6a 88 3e 90 94 9f bc
       0.0039781663 -0.014315154 0.26643407 -0.01948002
0003a0 b9 be 07 3e 56 3a ba bb 82 93 59 bb 26 52 72 bd
       0.13256349 -0.0056832237 -0.0033199494 -0.059160374
0003b0 13 68 6b 3e a5 17 76 3e 59 52 96 3d 10 67 26 bd
       0.2298892 0.24032457 0.07339925 -0.04062563
0003c0 9d 57 a9 3d 3d 7f 75 3e 74 91 af 3d 1e d3 33 be
       0.08268664 0.23974319 0.08572665 -0.17561004
0003d0 ec 43 37 be 1c e2 cd 3d d9 53 8b bd c8 f6 0d 3c
       -0.17897004 0.100528926 -0.06803102 0.008664794
0003e0 31 10 26 3d e9 12 b1 3d f2 94 a1 3c ea e4 14 bd
       0.040542785 0.08646185 0.019724343 -0.036351122
0003f0 e0 09 c5 bd 03 a6 6a bc a9 01 b7 bc f9 9c 5f 3c
       -0.09621024 -0.014321807 -0.022339659 0.013648265

FC1.bias f4 [128]
000000 c8 de 36 3d 95 01 42 bb cc 6b a5 bd 00 17 9e bd
       0.044646055 -0.0029602994 -0.08077201 -0.07719231
000010 b5 7b f1 bc 76 7d 46 bd be f1 84 bd 00 c0 a1 bd
       -0.029477933 -0.048459493 -0.06491421 -0.07897949
000020 5f 47 99 bb 9a a5 5d 3d 70 55 1c 3d 08 72 aa bd
       -0.0046776976 0.054113008 0.038167417 -0.08322531
000030 a0 6e ac bc d3 2c 88 bd 71 31 83 bc f1 a7 1c 3c
       -0.021048844 -0.066491745 -0.016014786 0.009561525
000040 3e 28 30 3d 24 e0 a4 bc 78 b2 91 3c 8a 03 82 3d
       0.043007128 -0.02012641 0.017785296 0.06348331
000050 7c b8 40 3d b3 a5 ad bc 44 fc 08 bd d5 ba e8 bc
       0.047050938 -0.021197176 -0.033443704 -0.028409401
000060 7e d3 ad 3c c6 09 52 bc 22 80 75 3d 5b 76 8e bd
       0.021219011 -0.012819713 0.05993665 -0.06956168
000070 41 82 a3 bc d7 25 30 bd a5 c8 d2 3c dc e1 b4 bd
       -0.01995957 -0.043004837 0.02573044 -0.08832142
000080 90 db 4c bd 70 33 ac 3d d4 6d 8a bd 9d 9e 35 3d
       -0.05001408 0.084082484 -0.06759229 0.04434072
000090 57 28 9e bc a9 10 3e bd 99 56 6e 3d da 7f 72 3d
       -0.019306345 -0.046402607 0.058188055 0.05920396
0000a0 00 cd 42 3d 83 1f 37 3b ff 1b 6b 3c 54 b5 45 3d
       0.047558784 0.0027942366 0.0143499365 0.04826863
0000b0 8b 80 02 3d 6e db 35 bd 41 70 8f bd 8c a2 2d 3d
       0.03186087 -0.044398718 -0.070038326 0.042391345
0000c0 0c 6b 3e 3c 6f cd 92 bd a0 b4 88 bd 0e 0c 20 bd
       0.011622202 -0.071680896 -0.066750765 -0.039073996
0000d0 a0 bf d3 3c 07 7d 80 bd 99 7e 42 3d c1 79 64 3a
       0.02584821 -0.06273847 0.047484014 0.00087156525
0000e0 fd 9f 01 bd 8e a5 07 bd f0 e6 8e 3d cd 55 33 bc
       -0.031646717 -0.03311687 0.069776416 -0.0109457495
0000f0 ba e7 0a 3d 73 f0 0a bc 33 78 c5 3c 49 37 b4 bc
       0.033912398 -0.008480179 0.024105167 -0.021999018
000100 ee 79 aa bc 7d bc b3 bc ff ac 1f bc c4 33 d6 bc
       -0.020810094 -0.021940464 -0.009745835 -0.02614773
000110 19 26 5a bd 36 ec b9 3c 7e 7c 96 bd 4b 74 29 bd
       -0.05325899 0.022695642 -0.07347964 -0.04137067
000120 6e de e0 3c a4 8c 37 3d ae 97 13 bc 9d 2d 76 3d
       0.027449813 0.04481186 -0.009008331 0.060102094
000130 64 94 9f bd d7 36 eb bc 21 ba f0 3c f6 32 30 3d
       -0.07791975 -0.028712673 0.029385628 0.04301735
000140 7a 48 e6 bb 99 0d 12 3d 48 43 c8 bc 91 f3 2d 3d
       -0.007027683 0.0356575 -0.024446145 0.04246861
000150 73 96 ec 3b 5d eb b5 3c 46 5a 22 bd 5c 2b ae bc
       0.0072200834 0.022206957 -0.039636873 -0.02126091
000160 6b 98 e5 b9 72 3b 7e 3d fc 1a 14 bd bc 10 76 3d
       -0.00043791844 0.06206841 -0.036158547 0.060074553
000170 8c d3 42 bd 1a a2 76 3d 84 eb 9f 3d 1d 92 aa 3c
       -0.047565028 0.060213186 0.07808593 0.020821625
000180 f9 a1 82 bd ca f4 81 3d ff 20 6b bd a0 f6 4a 3d
       -0.0637855 0.06345518 -0.057404514 0.049551606
000190 69 ea 9f 3d e5 ba 1d bd db 20 61 3d b7 e6 10 3c
       0.07808382 -0.038508315 0.054962974 0.008844069
0001a0 bd fe e5 bc 3c 74 8c 3a 94 9c da bb 19 1f d0 3c
       -0.02807557 0.0010715793 -0.0066714976 0.025405454
0001b0 b4 e8 9e bc 16 1c fd bc b1 b0 b3 bc f9 97 ad ba
       -0.01939807 -0.030897181 -0.021934839 -0.0013244144
0001c0 ab 3e 92 3c 05 29 20 3d 0f 21 17 bd 53 89 6b bc
       0.017852148 0.03910162 -0.03689676 -0.014376002
0001d0 27 0c 79 3d 29 18 16 bd 04 10 3e 3d c0 a3 5d bd
       0.060802605 -0.036644135 0.046401992 -0.054111242
0001e0 fd c6 8a bc 1d 37 b1 3c 49 97 5c bc eb 9c 32 bd
       -0.016940588 0.021632725 -0.013463804 -0.04360668
0001f0 c1 22 ac bc ad 0c 77 3d 62 3b 54 bd 14 d5 b6 bd
       -0.021012666 0.060314823 -0.051814444 -0.0892736

FC2.weight f4 [64, 128]
000000 a4 5f 0b 3c a1 28 b3 bd 1d 58 80 3d c7 72 b7 bd
       0.008506689 -0.08747984 0.06266806 -0.08957439
000010 46 fe 39 3d 20 19 52 be b3 d4 48 3d 3f aa 31 be
       0.04540851 -0.20517397 0.04903097 -0.173501
000020 29 aa 2f 3d 6d f4 fb 3d a9 a9 13 be dd 35 6e 3d
       0.042886887 0.1230248 -0.14420189 0.058156837
000030 2b 1f ff 3c a4 73 3a be 14 b6 ce 3c b6 ff 1e 3d
       0.031142792 -0.18208176 0.025233306 0.038818084
000040 c1 b8 15 be 40 b5 86 bd 45 59 13 bd e6 c8 c0 be
       -0.1462126 -0.065775394 -0.035973806 -0.37653273
000050 0b 6a 53 3d 89 b8 64 be aa 6e a5 bd 7b 57 c4 bc
       0.051614802 -0.2233602 -0.08077748 -0.023967495
000060 61 6a 0b 3c ca a0 61 be 7e fe 4b bd 0c 43 bd 3d
       0.008509249 -0.22033992 -0.04980325 0.09241304
000070 90 73 11 be 36 14 df bd 7c 4c f0 3d b2 0b 00 be
       -0.1420424 -0.10892527 0.11733338 -0.12504461
000080 9c 05 7e 3d e3 e4 aa bd 17 e5 7d 3d f6 b1 49 3d
       0.06201707 -0.08344438 0.061986055 0.049241982
000090 40 10 ea 3d 9e 14 4e 3d 3a 33 93 be 24 0c ce bd
       0.11428881 0.05031263 -0.2875002 -0.100609094
0000a0 c8 5b c9 bc ad 17 4a 3d 5d c4 dd bb 9c a5 66 bd
       -0.024579898 0.049338985 -0.006767793 -0.05631028
0000b0 e7 1d e6 3d f9 0a f9 bd be 42 39 be 97 ec 82 3e
       0.11236172 -0.12160296 -0.18091866 0.2557113
0000c0 a4 3c ae bd 24 b6 23 3d 86 2a 80 bd e0 36 0c be
       -0.0850766 0.039968625 -0.06258111 -0.13692808
0000d0 29 73 3f 3e b5 f9 61 bc b2 2d c2 3d 0c aa 28 bd
       0.18696274 -0.013792445 0.09481372 -0.041177794
0000e0 0a f6 b7 bd 0d 16 c0 3d 71 f0 48 bd 09 06 96 3d
       -0.08982475 0.09379206 -0.049057428 0.0732537
0000f0 1c 93 e5 3d ad c5 f8 3b 41 ed 58 be ab e0 aa 3d
       0.112096995 0.007591924 -0.21184255 0.08343633
000100 8c c5 b2 bd db 9a 34 3e e1 a6 5a 3e 62 50 8a 3d
       -0.08729085 0.17637198 0.21352722 0.06753613
000110 1b e6 80 bd f0 d7 58 3c de 85 38 bd 5f 1c 40 be
       -0.06293889 0.013235077 -0.04504954 -0.18760823
000120 19 9c 52 3d f5 f1 ca bc 35 d0 09 3d 35 7f 6a bd
       0.051418398 -0.024773577 0.033645827 -0.05725022
000130 32 d8 9c 3d 36 f0 ae 3c c0 d2 30 3e 18 9a 17 3e
       0.076584235 0.021354776 0.17267895 0.14804876
000140 e5 6f b1 3c 03 f5 13 3e fa c6 6c be ba fc 02 3e
       0.0216598 0.14448933 -0.23122779 0.1279172
000150 ad 66 fc 3d 2e e0 6f be ea de 12 3d 2e 87 4e 3d
       0.12324271 -0.23425362 0.03585712 0.050421886
000160 82 67 50 be 3c 2e 0c be 77 ed 22 3d d5 a5 6f 3d
       -0.20351985 -0.13689512 0.039777245 0.05850776
000170 3d cc db 3d b0 b7 8c bd d9 96 d5 bc f0 3d 4f 3d
       0.10732315 -0.06870973 -0.026072906 0.050596178
000180 51 1a 86 3d 18 93 07 3e 81 8c ac 3d a5 46 23 be
       0.06547988 0.13239706 0.084252365 -0.15944918
000190 1e 79 8a bc e6 b4 1f 3e a3 02 ab bd 22 e6 02 3d
       -0.016903456 0.15596351 -0.08350112 0.031957753
0001a0 28 00 9d bc bc 51 2e 3c c6 a9 dd 3d 77 f7 47 bc
       -0.019165114 0.010639604 0.10823397 -0.012204996
0001b0 09 55 6f bd 90 ad c0 bd 7d 5a f3 3c 03 ef a3 be
       -0.058430705 -0.094081044 0.029706234 -0.3201829
0001c0 06 40 d7 bc 21 bc 35 3e 2b a0 e0 bd 6e 96 da 3c
       -0.026275646 0.17747547 -0.109680496 0.026683059
0001d0 ba 70 0c 3d f4 15 4a bd 01 a1 d7 bd 42 22 bc bd
       0.034287192 -0.049337342 -0.10528756 -0.09186222
0001e0 b7 5f 8b 3d 1a f9 88 bb a7 30 8b 3d ae b0 5b 3c
       0.068053655 -0.004180086 0.06796389 0.013408823
0001f0 99 27 1d be a7 16 8b 3d be bf 48 be 5e ae e3 bb
       -0.15347137 0.0679143 -0.19604394 -0.0069482764
000200 68 75 54 be 72 d2 ff bd ec b9 01 be 2d 9f 0d b9
       -0.20747912 -0.12491311 -0.1266858 -0.00013506105
000210 54 f2 08 be 98 29 57 bd ac f7 0c 3d 09 63 bd 3d
       -0.13373691 -0.0525299 0.034415886 0.09247405
000220 11 ad 73 bd 09 6c da 3d 18 0b 49 be 08 3a f6 bc
       -0.05949122 0.10665137 -0.19633138 -0.030056968
000230 a6 bf 9b 3d c6 8e 4e bd a5 15 56 3e c6 1c 5f be
       0.076049134 -0.050429128 0.20906694 -0.2178832
000240 c9 25 0f bc 7d f0 c3 bd db b3 d1 3d 78 36 1b be
       -0.008737036 -0.09567354 0.10239383 -0.15157497
000250 70 20 ba bd 7f f4 48 bc 1c 64 e7 3d b0 9b b7 bc
       -0.09088218 -0.012265324 0.11298391 -0.022413105
000260 52 21 76 bd 3c 7f 78 bc 2d 16 57 bd 20 d2 85 be
       -0.06009037 -0.015167054 -0.052511383 -0.26136875
000270 df 3c 45 3d 65 bb 85 3d 8d 41 76 be 20 6a ba 3d
       0.048153754 0.06529883 -0.24048443 0.09102273
000280 3c 17 2a be a2 49 84 bc c6 05 d6 bc 7a 9c f1 bd
       -0.16610426 -0.016148392 -0.0261258 -0.11797424
000290 e1 3a e0 3d 73 6e 21 3e 33 ec 15 be ba ec 05 be
       0.1094873 0.1576479 -0.14640884 -0.13078585
0002a0 32 27 07 bd 7c c1 e6 3d 8a e4 81 be 7b ce 0e bd
       -0.032996364 0.11267373 -0.25369674 -0.034864884
0002b0 66 21 52 3e 58 83 43 3c 52 78 84 be f6 ee 0c 3d
       0.20520553 0.01193317 -0.25873047 0.03440758
0002c0 3f ff 40 3e 0e 40 7d bd 8a cc 29 be e5 55 4b bd
       0.18847369 -0.061828665 -0.16581932 -0.049642462
0002d0 73 3f e2 be 0a ba 70 bd da 50 aa 3d 9a 6b 37 bc
       -0.44189033 -0.05877117 0.083162025 -0.011195088
0002e0 2c da 30 3d bb 48 8a 3d a4 52 15 3d 32 bc 0b 3b
       0.043176815 0.067521535 0.036455765 0.002132189
0002f0 70 6b a7 3d cf 78 85 be 65 88 99 bc e4 45 83 bd
       0.08174789 -0.26068732 -0.018741796 -0.06409815
000300 35 d4 06 be ea 48 8b bc 1b c7 24 3e 6f da a0 bd
       -0.13166888 -0.017002542 0.16091578 -0.07854163
000310 ac 2e 42 3d bb 7a 15 3e 5a 7c 6c bd ae e3 00 be
       0.04740779 0.14597599 -0.05773578 -0.12586853
000320 f3 14 92 3d b1 d3 05 be 49 45 ab 3d 11 b5 bf 3b
       0.07132902 -0.13069035 0.083628245 0.005850442
000330 39 a0 f7 3d 8d 1f 81 bc 87 53 00 3e 40 b4 bd 3d
       0.12091107 -0.015762115 0.12531863 0.092628956
000340 af fb 1e 3e e3 97 58 bc 85 b9 74 be 87 e1 47 3e
       0.15525697 -0.013219806 -0.23898895 0.19519626
000350 f9 1e 43 3e ca b9 9a bd 02 1e 2f bc 2c c9 10 be
       0.19054784 -0.07554968 -0.010688307 -0.14139241
000360 9d 69 94 3d 78 55 b5 be ea 6b 41 be 47 9f b1 3c
       0.07246707 -0.3541677 -0.18888822 0.021682395
000370 5f 18 34 bc b8 bc 01 3d 6f ab c7 bd 3d 64 7a 3c
       -0.010992139 0.031674117 -0.09749495 0.015282688
000380 6b 0c 1e 3d 03 24 54 3e 1d 16 8f 3d 36 ec 2d be
       0.03858606 0.20716862 0.0698664 -0.16984639
000390 d0 75 27 3e 3a c8 d0 be fb cc 73 3e 7b 5e 54 3e
       0.16353536 -0.4077776 0.23808663 0.20739166
0003a0 b5 f7 6f bd 92 33 ef 3d 4e 86 12 3e b7 6e ff 3a
       -0.05858584 0.11679758 0.14309046 0.0019487952
0003b0 31 37 08 be e1 53 0b bd 40 b0 1e bd 7b 4d 56 be
       -0.13302304 -0.03401554 -0.038742304 -0.20927994
0003c0 3d cb 48 3e f1 aa 04 3d 4c fc b2 bc 69 1c d5 3c
       0.19608779 0.032389585 -0.02184882 0.026014524
0003d0 b4 92 50 3e ce 08 33 be de 21 20 be 83 39 93 3d
       0.20368463 -0.17483827 -0.1563792 0.07188704
0003e0 dc d4 03 3e 06 f0 9a 3d 0c 0f 0f bc b5 77 d5 3d
       0.12874168 0.07565312 -0.008731615 0.10423223
0003f0 1b 88 8f be 84 01 51 be 1b e3 11 bd 03 81 4e be
       -0.28033528 -0.20410734 -0.035616975 -0.20166402

FC2.bias f4 [64]
000000 c3 7f da bd b2 91 ec bd 84 ba a1 bd 61 88 fb bd
       -0.106689 -0.11551227 -0.07896903 -0.122818716
000010 bf 32 d2 bc 17 6a a8 bc b1 e0 bf 39 6d 46 cb bb
       -0.025658963 -0.0205584 0.00036597767 -0.0062034638
000020 c5 ee 25 bd 6f ee 2c 3d 52 10 93 bc 82 98 63 bd
       -0.04051091 0.042219575 -0.017952118 -0.055565365
000030 07 14 51 bd ca 33 9d 3d 13 ff d4 bc cf e8 0e 3a
       -0.05104449 0.076758936 -0.026000535 0.00054515613
000040 34 be 0e be 7b 3d b0 bd a7 1c d0 3c a0 41 3e bd
       -0.13939744 -0.086054765 0.025404288 -0.046449304
000050 6e 79 c0 bd 1c 3f b3 bd 33 57 bd bd 0a a4 b0 bb
       -0.09398161 -0.087522715 -0.092451476 -0.0053906487
000060 26 dd 78 bc ca da 79 bd 23 a9 98 3c d7 ca 14 be
       -0.015189445 -0.06099967 0.018635338 -0.14530502
000070 f7 3b 33 bc 6c 74 8e bd 8b ed 9f bd 47 39 43 bd
       -0.01093959 -0.069557995 -0.078089796 -0.047662046
000080 f0 cc e4 3d 5d d7 97 bd b0 a4 c3 bd b2 95 8f bd
       0.11171901 -0.07414124 -0.09552896 -0.07010974
000090 bb 99 67 bc c4 d1 6e 3d 6a a8 ac 3d 49 28 f8 3d
       -0.014135773 0.058305517 0.0843056 0.12117059
0000a0 9b 54 62 bd 1e 5b f8 bc c9 93 87 bd 06 ed c3 3c
       -0.055256467 -0.030316886 -0.06619985 0.023916733
0000b0 5a ab 7a 3c 4b 36 87 3d b4 1f 68 bc 26 5a 4d bd
       0.015299642 0.066021524 -0.014167715 -0.0501348
0000c0 76 5e e5 bc 33 e4 2c be 85 b7 0d bd 97 18 72 bb
       -0.027999144 -0.16883926 -0.034598846 -0.0036940926
0000d0 4c ad 20 3e 2b 01 32 3d 86 6e b3 3d ba 28 26 3c
       0.15691108 0.043458145 0.08761315 0.010141546
0000e0 b1 8b a7 bd ee b2 4c bd ee 2f 14 bd 67 5e 32 3d
       -0.08180941 -0.04997533 -0.03617852 0.04354706
0000f0 cc 9c 03 bd 60 98 52 3d 11 e1 67 3a 00 7a 86 3d
       -0.032131955 0.051414847 0.0008845488 0.065662384

FC3.weight f4 [2, 64]
000000 30 6f 18 be 40 ff 50 3e 00 a9 8f 3e de 5c f0 3d
       -0.14886165 0.2040987 0.28058624 0.11736463
000010 60 75 79 3e 3a b0 56 be 14 91 a6 bd f3 55 22 3e
       0.24361181 -0.20965663 -0.0813314 0.158531
000020 ad 3c 06 3e 43 02 1b bd 5e 8e c7 3e a8 1c 90 3e
       0.13109083 -0.037843954 0.38975805 0.28146863
000030 2a cb 04 3e 0e 91 a5 3d 65 22 57 3d 27 3e 67 3e
       0.12968126 0.080843076 0.052523036 0.22582303
000040 61 ed 90 3e 0e 72 9e be d2 f3 f1 bd 20 69 36 be
       0.28306106 -0.30946392 -0.11814083 -0.1781354
000050 f5 e5 87 3e 8c 93 ed 3d b0 06 83 3e 36 c3 ec 3d
       0.2654263 0.11600408 0.2559104 0.11560671
000060 b4 bb 08 be fb 58 7c be bf cc e1 3d 0d 72 4f 3e
       -0.13352853 -0.24643318 0.1102538 0.2025835
000070 29 02 b7 bd de 3f d5 bd 74 8f 1d 3e cb d5 37 bd
       -0.08935959 -0.10412572 0.15386754 -0.044881623
000080 7a ce 0d 3d b8 59 91 bd 3c 63 5b be 9a f3 03 3e
       0.03462074 -0.070971906 -0.21424574 0.12885895
000090 85 20 fb bd e9 f9 5b 3e 32 4d 9d bd dd 27 4d bd
       -0.12262062 0.21482052 -0.076807395 -0.050086845
0000a0 b4 26 11 3e bb bf fd 3d 78 70 01 3e f3 08 2d be
       0.1417492 0.12390085 0.1264056 -0.16897945
0000b0 ec fb 42 bd 80 95 95 3d c0 78 aa be 04 cf 30 3d
       -0.047603533 0.073039055 -0.3329525 0.043166175
0000c0 58 e0 d4 3d 58 d7 a1 be a5 3e 64 bd 5a 58 9f be
       0.10394353 -0.31609607 -0.055723805 -0.31122094
0000d0 1f 4e 8a bd b7 57 07 3b 54 17 16 bd d2 f8 b8 bd
       -0.06753182 0.0020651647 -0.03664334 -0.09031834
0000e0 cc e0 8c bc ee fa ce 3b c9 ad a8 3e 24 e6 56 bd
       -0.017197035 0.0063165342 0.32945088 -0.052465573
0000f0 e8 8f 16 be 43 3c 31 bd ee 69 43 bd 2a cf 4e bd
       -0.14703333 -0.04327036 -0.047708444 -0.050490536
000100 47 17 f2 bc 04 d1 cc be c4 26 3f be df 1c d3 3d
       -0.029552115 -0.40003216 -0.18667132 0.10308241
000110 47 aa df bc d7 28 9c 3d 82 0f 5a be ba 44 6f bd
       -0.027302874 0.07624977 -0.21294978 -0.058415152
000120 f0 0c 54 3d 3b 74 23 bd b4 ce 1b 3c 78 05 9d 3e
       0.05177015 -0.039905768 0.009509731 0.30668235
000130 b0 c2 a3 39 44 52 8c bd bb 56 34 be 5e 6f 58 3e
       0.00031234836 -0.068516284 -0.1761121 0.21136233
000140 96 3b b6 3e da d4 16 be 7f 62 e4 3c 22 7e 3a 3e
       0.35592335 -0.14729634 0.027878998 0.18212178
000150 52 49 ab bd bd 9f cf 3d 3d e0 7d 3e 5c a6 81 bd
       -0.08363594 0.101378895 0.24792571 -0.06330559
000160 85 76 57 bc 5e 6d 18 be 47 dd 34 be 0e 67 4e 3e
       -0.013150816 -0.1488547 -0.17662536 0.201565
000170 21 ee fd bd ea 1f 2d 3e b8 50 1d bd 6e 53 72 bd
       -0.12398935 0.16906705 -0.038407058 -0.059161596
000180 d9 7a df 3d 2c 51 70 be 3e f6 1a bd 97 01 8f 3d
       0.10912103 -0.23468465 -0.03783249 0.06982725
000190 26 ab cd 3c 02 c8 1b 3d 0a 1c 90 bc 63 39 14 bd
       0.025106024 0.03803254 -0.017591495 -0.03618754
0001a0 12 22 c7 bd 94 96 2a 3d 61 66 e6 bd 13 38 26 3d
       -0.09723295 0.04164751 -0.11249996 0.04058082
0001b0 d2 f2 cb bd 82 df a1 3e 33 30 fb bd d7 ec a8 3d
       -0.09958424 0.31615835 -0.12265053 0.082482986
0001c0 d6 87 ca 3d ec b8 50 3e c9 3d 8f bd 8e 7f ed bd
       0.0988919 0.20383042 -0.069942065 -0.11596595
0001d0 d0 11 2c 3d 14 e1 bb bd 6b 4a 31 3d 55 20 b8 3c
       0.042009175 -0.091737896 0.04328386 0.022476355
0001e0 a4 36 99 be c4 eb 1e 3e 09 9e 95 3c 9f e6 63 3d
       -0.299245 0.15519625 0.018263834 0.05563986
0001f0 36 d6 60 3c ed 9f a3 3d 02 70 d4 bd 40 7d 52 bd
       0.013722947 0.07989488 -0.10372926 -0.05138898

FC3.bias f4 [2]
000000 ba 62 6c 3d f7 46 20 bc
       0.05771134 -0.009782544

FC1.weight f4 [128, 180]
000000 8d 00 a5 bd db af 0d bd 88 00 b2 bd 92 20 5c 3d
       -0.08056746 -0.034591537 -0.086915076 0.053742
000010 cf 34 dc bc 51 cd 39 3d 67 f5 84 bc 07 19 7c 3e
       -0.02688065 0.04536182 -0.016230298 0.24618922
000020 16 37 0f bb e9 26 6a 3c 0a 03 bc bc 3f d1 6f bd
       -0.0021852902 0.0142915035 -0.022950668 -0.058549162
000030 4f 77 be 3d 84 92 51 bd 2c ae df 3d f0 ee cb 3d
       0.093001 -0.05116512 0.109218925 0.09957683
000040 76 78 d8 bd f8 90 af 3c 1f 32 d8 bd 07 5a 11 3c
       -0.10569851 0.021431431 -0.10556435 0.008871562
000050 62 e2 be 3d a6 0e 93 bd 2b 38 be 3c 2f f8 41 3e
       0.09320523 -0.07180528 0.023220142 0.18942331
000060 f9 6a 39 3e c9 2f 8b 3b 7e 8b 85 3d 7f 02 14 3d
       0.18107213 0.00424764 0.06520747 0.036135193
000070 0d 50 30 bd ed 2e 14 3c 21 d3 87 bd f2 ce d0 3c
       -0.043045092 0.009044391 -0.066320665 0.025489304
000080 f2 19 ff 3d 4e 71 1d 3e 16 63 63 3e 26 4d 44 be
       0.124561206 0.15375254 0.22205767 -0.19170055
000090 d4 3c 03 3e d6 a8 43 3d ad c5 6a be 6e f4 56 3d
       0.12816173 0.047768436 -0.2292697 0.0524792
0000a0 7f c4 92 be 75 de fb bc ae 41 21 bd 9c f8 68 be
       -0.2866554 -0.030745724 -0.039369278 -0.22751087
0000b0 6e e4 06 be 7b f6 41 bd cb 04 fe bb ed 0a 01 3d
       -0.13173077 -0.047354203 -0.007752036 0.03150456
0000c0 e1 cc 43 3d 8c 7d 05 3d 10 64 13 bd bb 5c 31 3c
       0.04780281 0.032590434 -0.0359841 0.010825331
0000d0 64 a2 9b bb 3b 0f ce 3c c6 39 ce 3d 53 60 9c bc
       -0.004749583 0.025153747 0.10069613 -0.0190889
0000e0 63 f3 bb 3d e3 79 fe 3d 3a 28 33 ba ed 4f 8e be
       0.09177282 0.12425592 -0.00068343023 -0.27795354
0000f0 6d be 1d 3e ba fd 8b bc 84 c1 d8 bd 71 c9 d5 bc
       0.15404673 -0.01708876 -0.10583785 -0.026097031
000100 bf d5 06 3c 55 d7 f2 bd 0a 29 40 be 5d ff b2 bb
       0.008229672 -0.118574776 -0.18765655 -0.0054625706
000110 9c 16 fc 3d 71 83 f6 3c 9d 24 31 3e ef 74 05 be
       0.12309 0.030091973 0.17299123 -0.13032888
000120 f6 d9 1a 3c 4e 3f 78 bd 42 79 d1 bd d4 46 3b 3c
       0.00945138 -0.060607247 -0.10228206 0.011430461
000130 1e b6 99 bd 43 cb ec 3d 56 65 04 3e 7b 57 32 3e
       -0.07505439 0.115622066 0.12929282 0.17416184
000140 b3 07 d6 bc 4a e7 1d 3e 9a 44 7a 3d 0c 29 68 3d
       -0.026126718 0.15420261 0.06110058 0.05667977
000150 86 8c c5 bd 1d 0d e3 bc 3c 55 4f 3e 8d 09 f0 3b
       -0.09645943 -0.027716214 0.20247358 0.0073253573
000160 be 8e ea bb 87 0c d2 bd a5 12 ca bd d6 51 70 be
       -0.0071581295 -0.10256296 -0.098668374 -0.23468718
000170 3e 7c 43 3d 8a 28 b6 bd ce 2f bb bd 4f 17 4c 3c
       0.04772591 -0.08894451 -0.091399774 0.012456729
000180 e1 33 aa bd 78 ad fc 3d 3b a8 f9 3d 23 16 0b 3e
       -0.08310676 0.12337774 0.121902905 0.13582663
000190 16 90 61 3d 79 3c 4f bd f3 7a 27 3d b7 2c 00 3e
       0.05506905 -0.05059478 0.040888738 0.12517057
0001a0 dd e8 04 3c 53 90 40 3e a7 50 c0 3d 85 54 78 3d
       0.00811216 0.18805055 0.09390383 0.06062748
0001b0 61 32 28 3e 19 be 14 3e f9 57 00 3e 6e 45 66 bd
       0.16425468 0.14525642 0.12533559 -0.056218557
0001c0 c4 53 06 bd c0 7a 18 3d 8b e6 23 3d 1f 04 b8 bb
       -0.03279473 0.03722644 0.040014785 -0.0056157256
0001d0 17 55 db 3b 05 ed 16 be 01 2f 7b be 23 4c b7 be
       0.006693493 -0.14738853 -0.2452965 -0.35800275
0001e0 1d 60 8d 3c 32 de 87 bd c6 5b 95 bd 7b 05 13 be
       0.017257744 -0.06634177 -0.07292895 -0.1435756
0001f0 83 ab 64 be b9 ba 44 be 62 75 58 be b4 b7 14 be
       -0.22331052 -0.19211854 -0.21138528 -0.14523202
000200 e3 4b 83 be 01 bc 49 be f3 db 77 be 80 e1 0d 3e
       -0.25643834 -0.19700624 -0.24204998 0.13855553
000210 47 0b 9f bd 29 fb 0e be da 2b ec bd 1e 25 16 be
       -0.07765823 -0.13962997 -0.115318015 -0.14662597
000220 0b bf 31 be b0 67 a8 bb 59 b7 c5 bd cb 91 30 3d
       -0.17358033 -0.0051393136 -0.096541114 0.04310779
000230 2a 54 90 bd 7f f5 17 be 95 de c0 3d 93 d8 7a bd
       -0.07047303 -0.14839743 0.09417454 -0.061241698
000240 14 dc 85 be 9d 9a fe bd 61 ab c3 3d 1d 15 2e 3d
       -0.2614447 -0.12431834 0.09554172 0.042500604
000250 ab 02 52 bb e6 cb d6 bc 59 c4 b5 bd 69 62 5c bd
       -0.0032045047 -0.026220273 -0.08875341 -0.05380479
000260 54 8b e3 3c 2d 18 bc bd c7 60 b3 ba ef 10 60 bd
       0.027776398 -0.09184299 -0.0013685458 -0.05470365
000270 9c 31 1b bd b9 3b 26 3b e5 f9 a3 bd 77 6e 32 bd
       -0.037889108 0.0025365187 -0.08006648 -0.04356238
000280 26 61 97 3d a7 b8 9d bd 1c 19 93 3d 15 b9 d3 bd
       0.073915765 -0.07701235 0.071825236 -0.10338036
000290 df ff f5 bd 9a bb 65 bd 9a 17 a8 bd 7a 8f 56 bd
       -0.12011694 -0.056087114 -0.08207627 -0.052382924
0002a0 99 f9 b2 3c d1 18 2b 3c 0a dc 86 3b bd 8c ef 3c
       0.021847533 0.010442928 0.004115586 0.029241914
0002b0 56 44 cb bd 92 fa e4 3b 0a 7f 0e bd 2f b0 84 bd
       -0.099251434 0.006987878 -0.034789123 -0.06478917
0002c0 c2 0d a9 3d b0 bf 4e 3e eb a5 15 3e f3 a1 87 3d
       0.08254577 0.2019031 0.14614074 0.06622686
0002d0 a2 4a 15 3b d6 8c 3a bc 6a ae 7e 3d 77 81 55 be
       0.002278008 -0.011386117 0.062178053 -0.20850168
0002e0 00 86 30 be 2a ac 4f bd 96 0b 43 3d bd 37 97 be
       -0.17238617 -0.050701298 0.04761847 -0.29534712
0002f0 08 82 43 bd 61 81 5f bd 57 fd fe bc 0f f3 e1 ba
       -0.04773143 -0.054566745 -0.031126661 -0.0017238575
000300 67 45 2c 3d 72 3a 01 3d 23 bc db bd 63 f7 97 3b
       0.042058375 0.03154988 -0.107292436 0.004637645
000310 7a 0c 8a 3e f4 32 5e be a0 22 ca 3d a6 47 01 3e
       0.26962644 -0.21699125 0.098698854 0.12624988
000320 00 a8 16 3e 0d 03 86 bd 70 09 3a be 19 02 1b 3e
       0.14712524 -0.06543551 -0.18167663 0.15137519
000330 ca ef 08 3e 97 17 8e 3e 9c e6 27 bd e3 63 0b 3e
       0.13372722 0.27752373 -0.04099141 0.13612323
000340 ff 95 8f 3e 83 96 96 3e b0 7a 17 be 13 97 d6 bd
       0.28044125 0.29411706 -0.14792895 -0.10478034
000350 e6 28 96 bc 3e 27 31 be 44 cf ad bd bd dc b1 bd
       -0.018330049 -0.17300126 -0.084867984 -0.086846806
000360 54 26 b1 bd 22 20 7e b9 56 d4 25 3c 0a bf 98 3d
       -0.08649889 -0.00024235298 0.010121426 0.07458313
000370 01 50 fe 3d f6 d0 76 bd f4 5f 8b 3d cc 2b 77 3c
       0.12417603 -0.060257874 0.06805411 0.015086126
000380 29 62 e2 3c c2 36 f2 3d 8f 2c b5 bd 4f 2c 80 bd
       0.027634697 0.118268505 -0.088463895 -0.06258451
000390 50 34 98 bd c5 4a 4e bd 60 c3 d1 3d d8 7e 92 3b
       -0.07431853 -0.050364275 0.10242343 0.0044706874
0003a0 29 63 81 bd 0b 52 a2 be 89 5c 8b be 0c af 3f 3e
       -0.063177414 -0.3170322 -0.27219036 0.18719119
0003b0 ae 49 5b 3d 5d 37 a2 bd ed a9 82 3d 3b 81 88 3d
       0.053537063 -0.07920716 0.06380067 0.06665274
0003c0 36 88 4b bd 39 ba 0a 3e 29 29 05 be fe 03 32 be
       -0.049690448 0.13547601 -0.13003983 -0.17384335
0003d0 00 ca f6 bd f2 48 9c 3d ef 50 32 be 59 e6 07 be
       -0.12050247 0.07631101 -0.17413686 -0.13271464
0003e0 50 f9 2c 3e 19 41 76 3d 58 16 a0 bd b9 42 ef bc
       0.1689198 0.060120676 -0.07816762 -0.02920662
0003f0 52 3c b9 3d 07 ea 1d 3e 3e 4e 26 3e 15 aa 57 3d
       0.09044708 0.15421306 0.16240785 0.052652437

FC1.bias f4 [128]
000000 77 4c 8c bd 64 b5 cb 3c 53 eb c4 bd ad 74 17 3c
       -0.06850522 0.024866767 -0.09615197 0.009244126
000010 f1 8a 9a bc ad 12 0a bd fe 21 3f bd a5 51 a3 bc
       -0.01886508 -0.033709217 -0.046663277 -0.019936392
000020 1f 82 f7 3c 06 13 ef bb 60 64 45 bd 1e 19 1d bd
       0.030213414 -0.007295969 -0.04819143 -0.03835403
000030 65 ba 8d 3a 16 02 4a bd b9 7c 03 bc b0 b0 17 bd
       0.0010812996 -0.049318396 -0.008025342 -0.037033737
000040 39 bf 8d bd ef 65 f2 3b c7 93 2a bd 30 1a 11 3d
       -0.069212385 0.0073974053 -0.041644838 0.035425365
000050 d5 d9 87 3c 80 2f c3 bc cf 24 07 bc 6f 0b 2c 3d
       0.016583363 -0.02382636 -0.008248522 0.04200309
000060 ae ec 77 bd 32 51 cc bd d1 67 b8 bc 98 a6 2b 3d
       -0.06052845 -0.09976424 -0.022510441 0.041906923
000070 99 87 9e 3c 42 9f 23 3d cd 01 74 3d bd f4 55 3d
       0.019351767 0.039946802 0.05957203 0.052235354
000080 c9 7a d1 bc 4a b9 6d bd 10 d4 0f bd a9 ba 46 3d
       -0.025571244 -0.058038034 -0.035114348 0.048517857
000090 e2 85 0b bd 3d 31 4b bd ac a5 3c bd 60 9d e5 bc
       -0.034063227 -0.049607504 -0.046056435 -0.028029144
0000a0 b9 18 4c bd 78 cb a4 bd 21 96 49 3d 9a e6 78 3c
       -0.049828265 -0.08046621 0.04921544 0.015191698
0000b0 a3 98 d4 bc d9 87 4c bd 2d 2b 17 3d 76 9b 87 3d
       -0.02595169 -0.049934242 0.03690641 0.06621449
0000c0 a8 04 4a 3d d6 eb 42 bc 9c 4a 4f 3b 50 30 bf 3c
       0.049320847 -0.011897048 0.0031630164 0.023338467
0000d0 cd d1 bb 3c 7a 67 f6 3c 3a 03 94 bd 78 df ce 3b
       0.02292719 0.030078638 -0.07227178 0.0063132606
0000e0 cb 95 9c bd b0 74 0f bd e4 cf e6 bc bd 82 b1 bd
       -0.07645758 -0.03502339 -0.028175302 -0.086675145
0000f0 bd cd 33 3d 0d 29 fa 3c 2f 65 09 3d 91 b2 0b 3c
       0.04389738 0.030537153 0.03354376 0.00852646
000100 9a 9e 1c 3c 19 f1 1e bd 12 92 58 bd f5 2f 20 3d
       0.009559298 -0.038804147 -0.05287368 0.039108235
000110 60 d3 f3 bc 02 34 09 3d 8a f2 71 bc b3 e2 c1 bc
       -0.029763877 0.033496864 -0.0147672985 -0.023667669
000120 36 b1 75 bc aa 8d 52 bc 0e 75 82 3d 03 88 91 bd
       -0.014995864 -0.012851158 0.06369983 -0.0710602
000130 16 b5 5b bd 26 28 c8 bd 0b 20 b3 bc cf 48 81 bd
       -0.053639494 -0.09773283 -0.021865865 -0.06312715
000140 da 9e 1a 3d d8 53 a0 bc 71 8c 08 3d b8 de 65 bd
       0.03774915 -0.01957123 0.03333706 -0.056120604
000150 a3 f6 d9 bd b4 d9 a5 3c 78 17 4d bd 8b 33 82 bd
       -0.10642745 0.02024541 -0.05007121 -0.06357487
000160 39 24 15 3d 40 1d 8a bd 49 ca a0 bd 51 f8 41 3d
       0.036411498 -0.0674386 -0.07851083 0.047355954
000170 6b 60 ac 3c fe 66 8b bd 95 19 fe bc c0 ff 1f bd
       0.02104207 -0.068067536 -0.031018058 -0.03906226
000180 f4 84 00 bc 50 86 90 3d 09 2b cd 3b eb 54 52 3d
       -0.0078441985 0.07056868 0.0062612337 0.051350515
000190 4e c0 0c 3c ff 4d 89 3b f3 1a 76 3c a1 1b 83 3d
       0.008590771 0.004190206 0.015021074 0.06401754
0001a0 c9 0a 6d bd f7 85 ae bb 16 c9 a3 3b 5b 3c 03 3d
       -0.057871614 -0.0053260284 0.0049983365 0.03203998
0001b0 c1 8e 6d 3d 96 88 84 bd 63 33 55 bd 5e 75 76 3d
       0.05799747 -0.06471364 -0.05205096 0.060170524
0001c0 9e d0 d1 bb 9e 89 0d bd bb 1e d6 3c e7 59 3b bb
       -0.006403043 -0.03455507 0.0261377 -0.0028587522
0001d0 3b d2 f3 bb 18 c9 7c 3d 71 ea 0c bd 97 65 fe bc
       -0.007440833 0.061715215 -0.03440327 -0.031054301
0001e0 31 ca 6f 3d 35 d3 6d 3d 10 bd 3c 3d d3 46 23 3d
       0.058542434 0.05806275 0.04607874 0.039862465
0001f0 11 47 bf 3c e8 2e 16 bc 0c 36 63 3d f4 ce ae bc
       0.023349317 -0.009166457 0.055471465 -0.021338917

FC2.weight f4 [64, 128]
000000 7c 93 6a be f5 96 e9 3d 4e 94 4f bd d4 90 78 3d
       -0.22907823 0.11405746 -0.050678544 0.060684994
000010 f0 91 54 3d aa a5 8c 3b 12 ac c3 3b 6e e9 6a bc
       0.05189699 0.0042922096 0.00597144 -0.014337881
000020 8c 49 a9 bd 4b 57 57 3e f6 f7 08 3e a6 aa dd 3d
       -0.08265981 0.21029393 0.1337584 0.10823564
000030 20 e4 33 be 8d 6a 22 3c 97 11 0d be 02 88 17 3e
       -0.17567492 0.009913099 -0.13776241 0.14797977
000040 13 c2 05 bd 26 26 34 be c9 29 80 3d 64 c9 f0 bd
       -0.032655787 -0.17592677 0.0625797 -0.11757162
000050 60 b1 de bd 8b 49 6f bb 66 ce 3c bd eb 95 51 bc
       -0.10873675 -0.003651234 -0.046095274 -0.012792091
000060 bf c7 2f 3c a4 a5 25 bc 8c 16 11 be 78 58 80 be
       0.0107287755 -0.010110293 -0.14168757 -0.25067496
000070 cc fb a7 3c 63 01 4f 3e 04 1a c4 3d 2c 40 6e 3e
       0.020505808 0.20215373 0.095752746 0.23266667
000080 d6 77 ff bd 10 16 6c bd 1d aa 33 be af d2 9d bd
       -0.12474029 -0.057638228 -0.17545362 -0.077062
000090 a7 2c 65 bd 57 f5 06 3e 37 cb 01 be 19 89 33 3e
       -0.055950787 0.13179527 -0.12675177 0.17532767
0000a0 0e ee b6 3d d6 49 b9 bd e1 b2 92 bc d3 ea 87 3d
       0.08932124 -0.09047286 -0.017907562 0.06636586
0000b0 19 0c 82 3d 95 47 2b bd 57 39 9a bd 01 e6 3f 3d
       0.06349964 -0.041816313 -0.07530468 0.04685021
0000c0 cd 3d 09 3e 26 c6 ab bb 5b e4 73 3d 83 2a 9f bd
       0.13402481 -0.005242127 0.05954395 -0.0777178
0000d0 6d 3f b4 be 8a 86 f1 bc a8 65 e5 3d 5c 65 01 be
       -0.3520464 -0.029483099 0.1120103 -0.12636322
0000e0 79 77 1a be 5c 45 32 3e 92 81 1f 3e 62 84 ae 3c
       -0.15084638 0.17409271 0.15576771 0.02130336
0000f0 20 26 c7 3c f4 75 3a 3d 5a 48 ed bd 5c f6 b0 3c
       0.024310172 0.045522645 -0.115860656 0.021601848
000100 4a 88 d6 bd 6b e2 3d bd c0 4f ce 3c 3e 40 1e 3e
       -0.10475214 -0.046358507 0.025184512 0.15454194
000110 cb 76 ca 3d bc 72 ee 3c d6 f6 ab 3d 27 3b 6c bd
       0.09885939 0.029107444 0.083966896 -0.0576736
000120 bd e3 fa bd 20 04 8d bc ea a6 28 be 8e ec 1c 3c
       -0.12250469 -0.017213881 -0.16469923 0.009577883
000130 8c f6 a6 bd d1 de 77 bd bd 33 89 3c bb 85 2c be
       -0.08152494 -0.06051523 0.016748304 -0.16847889
000140 a7 07 80 bd 90 90 2c be bf b8 9a 3d 9a dc ff bd
       -0.062514596 -0.16852021 0.07554769 -0.12493248
000150 57 76 02 be d6 3d 71 3d 0b 85 c8 3c c6 96 91 3c
       -0.12740456 0.058896862 0.024477502 0.01777209
000160 5d b2 2b bd 07 2e 87 3c 6b 30 68 3c 77 a3 89 3d
       -0.041918147 0.01650144 0.0141717 0.067206316
000170 c6 07 92 bd 68 0e a9 3d 17 e4 4c 3d 74 1c 01 3d
       -0.07130389 0.08254701 0.05002221 0.031521276
000180 dd d0 08 bd db cd fe bd 88 16 92 bc 6e 52 03 3d
       -0.033402313 -0.124416076 -0.01783301 0.032061033
000190 c5 9e 82 be 65 92 e4 3c f6 01 a1 3d ef 20 d4 3d
       -0.25511757 0.027901838 0.07861702 0.10357844
0001a0 e3 60 24 be 8c 79 e6 3d b6 0f ee 3d 32 32 70 bd
       -0.16052584 0.11253652 0.116240904 -0.05864162
0001b0 5a 5f 0a ba ae 8b ef 3c 0a 8e d6 3a 13 49 29 be
       -0.0005278491 0.02924141 0.0016369235 -0.16531782
0001c0 98 35 d4 bd 30 f5 f2 b9 56 49 f4 bd 86 1b 8c bc
       -0.10361785 -0.00046340516 -0.1192805 -0.017102968
0001d0 e5 74 dd bd c0 7c cc 3c a3 b3 c5 bd cf f1 39 3d
       -0.108133115 0.02496183 -0.096534036 0.045396622
0001e0 1b d2 8e bd 3e 21 6b 3d 64 23 1c 3d 67 02 b8 3c
       -0.06973668 0.05740475 0.03811969 0.022462083
0001f0 ac c6 86 bd f1 b7 1f 3e 9d 0d 44 bd de 39 e0 bb
       -0.065808624 0.15597512 -0.047864545 -0.006842836
000200 0e da d2 be 8c 9b e0 bd bd 23 4a bd a2 7c 5e 3a
       -0.41181988 -0.10967168 -0.04935049 0.00084871997
000210 61 24 4b be 91 24 f0 3d 63 72 b6 3d 09 7c be bc
       -0.19838096 0.117257245 0.08908536 -0.023252504
000220 57 bf 9e 3d e4 70 69 bd a6 e6 4a 3d de 15 af 3d
       0.07751339 -0.056992427 0.04953637 0.08549093
000230 d4 84 47 bd ce 90 9b 3c 04 cb 26 3d ee 83 b6 bc
       -0.04871066 0.018989947 0.040720955 -0.022279706
000240 90 44 b5 be bb 85 52 be fa e7 fd bc 88 fb c4 bc
       -0.35403872 -0.20558827 -0.030994404 -0.02404572
000250 8e 89 3a bd 6e 96 6f be 4a 91 37 be b6 9b 23 3d
       -0.04554134 -0.23397228 -0.17926517 0.03994342
000260 b8 1e 26 bc 31 47 a7 bd 82 08 5f bd b3 95 f1 3c
       -0.01013916 -0.081678756 -0.054451473 0.029490327
000270 cb 36 2f be 31 2c df be cc b9 1d bd 60 44 cb 3d
       -0.17110746 -0.43588403 -0.038507268 0.09925151
000280 d0 a3 6c bc 00 c7 d1 bd 50 48 f5 bd 62 bd 32 3d
       -0.014443353 -0.10243034 -0.11976683 0.04363764
000290 dd 8b 79 bd f7 ec 29 bb 12 0c 0d 3d 91 e0 1f bc
       -0.0609244 -0.0025928596 0.03443534 -0.009758131
0002a0 21 4a ef bd 40 29 85 3d 24 ea d1 bd ab 4b af 3c
       -0.11684061 0.065020084 -0.10249737 0.021398386
0002b0 54 13 0c 3d 47 d1 d2 3b f4 82 9a bc 3a b2 b6 bc
       0.03419812 0.006433639 -0.018861271 -0.022301782
0002c0 83 13 05 3e f3 22 30 be a7 d5 9d 3c ac 01 35 be
       0.12995724 -0.17200832 0.019266916 -0.17676419
0002d0 ed ce 12 be 9d b4 80 3d f6 36 c3 3c 83 64 27 be
       -0.14336748 0.06284449 0.023829918 -0.16346936
0002e0 ba 18 cd bb ed d1 18 be d6 27 10 be 45 4f e7 3d
       -0.006259051 -0.1492383 -0.14077696 0.11294416
0002f0 fe a3 6e 3d 56 eb 1f bd 04 5c 32 bd 22 c9 94 be
       0.058261864 -0.039042793 -0.043544784 -0.29059702
000300 bc b5 2a 3a 5d e0 d7 3c f5 c0 01 bd 21 ca 1a 3d
       0.0006512066 0.026352102 -0.03167816 0.03779042
000310 f8 4f 68 bd 4f 9c 59 3e d3 1e a0 3d 4f 68 40 be
       -0.05671689 0.21251033 0.07818379 -0.1878979
000320 cb e8 72 3c a1 10 79 3d d9 22 b2 bd a2 69 94 be
       0.01482601 0.060806874 -0.08698053 -0.2898684
000330 98 a9 05 be b2 47 9e be b8 d8 dd bd 8f 2d 7d bd
       -0.13052976 -0.30914074 -0.108323514 -0.061811026
000340 ec 4b f1 3d e6 82 81 3c 97 fb 64 3d 13 2d dd 3d
       0.11782059 0.015809488 0.055903997 0.10799613
000350 4c c0 eb be ee 75 12 3e 1d 65 27 3d a8 a9 95 bd
       -0.46045148 0.14302799 0.040867914 -0.0730775
000360 c4 73 b9 be 7f 51 ff bd cf c8 f2 3d 5d c8 a7 bc
       -0.36221135 -0.12466716 0.118547074 -0.020481283
000370 21 c4 ea bd 10 6c 51 be 6c 17 26 3e 5b 18 53 bb
       -0.1146319 -0.20451379 0.16219872 -0.0032210562
000380 c6 ea 0b be 39 66 9d bd ec bb c4 3d e2 5b ac bc
       -0.13663778 -0.07685513 0.09606156 -0.021039907
000390 7e 82 b0 bd 22 ff 51 be 81 b3 54 bc ec 65 6c be
       -0.086186394 -0.20507482 -0.01298225 -0.23085755
0003a0 82 67 2f be 2a 9f b4 bd fe e9 28 be 93 12 7c be
       -0.17129329 -0.08819421 -0.16495511 -0.2461646
0003b0 d4 c3 0b 3e c2 be ce be 85 40 3f 3d 72 4c 21 3c
       0.13648921 -0.40379912 0.04669239 0.009844886
0003c0 5a fe 69 bd 94 a2 95 be 84 14 ed bd 8f 0e c9 bd
       -0.057127334 -0.292256 -0.11576179 -0.0981723
0003d0 8a 23 b2 be dc 6e 91 3c 83 ec 0f be 34 de a0 3d
       -0.3479274 0.017753057 -0.14055066 0.07854882
0003e0 b1 84 2e 3c 17 7d e5 bd 39 59 71 be 98 61 a7 3d
       0.010651753 -0.112054996 -0.23569192 0.081729114
0003f0 c1 4c a3 3c 05 2e 3f 3d e6 f9 d9 ba da 53 b3 bb
       0.01993406 0.046674747 -0.0016630262 -0.0054726424

FC2.bias f4 [64]
000000 4b 6f 44 bd 9c 76 1f 3c 8e 8f 1c be a8 74 c2 bb
       -0.0479577 0.0097328685 -0.15289137 -0.0059343167
000010 8a 04 90 bd 7f 9f 31 3b fc 79 8d 3d 9a 26 5b 3d
       -0.07032116 0.0027103124 0.06908032 0.05350361
000020 c5 46 9c bd 86 1b ba 3a 51 2f 94 3d 47 11 0a be
       -0.07630686 0.0014198876 0.072355874 -0.13483153
000030 2c 65 be 3d c5 cc 6e 3c 42 03 15 3c 20 6a e2 bd
       0.09296641 0.014575188 0.009095015 -0.11055398
000040 4d 87 ad bd 8f d0 a7 bd d4 06 b1 bd a0 56 b3 bd
       -0.08473072 -0.08194076 -0.086438805 -0.08756757
000050 d6 00 02 bd 97 da 48 3d 1d 77 a7 bd 93 53 1d bd
       -0.03173908 0.04903659 -0.08177016 -0.03840978
000060 a7 b4 a1 bd 59 05 d7 bc 28 9d 42 3d da 2f 0b be
       -0.07895785 -0.026247667 0.047513157 -0.13592473
000070 08 4c 8a bd d0 77 6d bd 81 e6 da bc 67 40 3a bd
       -0.06752783 -0.05797559 -0.026721241 -0.045471575
000080 ff 84 93 bd bd 6e f3 bc 68 08 fe 3c f4 2e ae 3d
       -0.07203101 -0.02971589 0.031009868 0.08505049
000090 02 4c 4d bc ce fc 50 be ba e7 6d bc a0 5e db bb
       -0.012530329 -0.20408937 -0.01452058 -0.00669463
0000a0 45 cf b3 3d bd b7 14 be 85 58 3e ba 3f 9d 83 bd
       0.08779768 -0.14523216 -0.0007261115 -0.06426477
0000b0 17 68 48 3d b0 99 a8 bd 75 2f b8 3c e2 4c 86 bd
       0.048927393 -0.082324386 0.022483567 -0.06557633
0000c0 c0 8b 12 be 76 32 e6 bd 60 b8 09 3c a0 c2 15 be
       -0.14311123 -0.112400934 0.008405775 -0.14625025
0000d0 7d dd 8c bd 58 ad 96 bd be ad 03 bc 38 de cd bd
       -0.06878183 -0.073572814 -0.008037029 -0.100521505
0000e0 3b a9 a7 bd ca b0 43 bc a1 72 85 bd b6 81 e6 bd
       -0.08186575 -0.011944005 -0.06516004 -0.11255209
0000f0 db 66 e1 bd 08 21 21 bd 73 67 0c 3e be f1 0f 3d
       -0.11005946 -0.03933814 0.13711338 0.035142653

FC3.weight f4 [2, 64]
000000 a4 e1 0d bc c5 43 68 be 1e 51 30 be d0 83 02 be
       -0.008659754 -0.22682102 -0.17218444 -0.12745595
000010 00 b8 a2 be 3a 9a e3 bc da 6c eb 3d ee b6 84 bc
       -0.31781006 -0.027783502 0.11495371 -0.016200509
000020 3e c3 16 3e 4e 3c d1 bd ce ee fc 3d ee 8a 95 be
       0.14722916 -0.1021658 0.12350236 -0.29207557
000030 21 d9 f2 bd 3f dd 7b bd d1 5e 19 be be fa 39 be
       -0.1185782 -0.061490294 -0.14977576 -0.18162057
000040 94 1f 0c 3e 42 55 0c be 2e 8b 6d b9 1c 77 de bd
       0.13683921 -0.13704398 -0.0002265393 -0.10862562
000050 89 81 0b 3e 0b 7a 50 be 33 ce c1 be e1 47 a7 3d
       0.13623632 -0.20359056 -0.3785263 0.08168007
000060 00 92 77 be e8 e0 c2 bd 99 17 98 bc 4b 11 a8 be
       -0.24176788 -0.09515554 -0.01856594 -0.32825693
000070 ad 4f c2 bd 11 e6 a0 3d 7c 02 79 3e 0c fd ac 3d
       -0.09487853 0.07856382 0.24317354 0.08446702
000080 ad 87 01 be a1 53 51 3e 60 41 24 be be 1d 0a be
       -0.12649412 0.20442058 -0.16040564 -0.13487908
000090 d5 84 1f 3e 2f 07 c8 bd 6b a3 ea 3d b4 c0 68 3c
       0.15578015 -0.09766995 0.11456951 0.0142061
0000a0 f8 af c1 3d a9 29 3e 3e 30 1a e8 bd ac 92 01 be
       0.094573915 0.1857058 -0.1133312 -0.12653607
0000b0 2e 24 d7 bd 9d fb 47 3e 68 23 d7 3d 1f cf 90 3d
       -0.105049476 0.19529577 0.105048 0.07070755
0000c0 b5 40 9f 3e 18 51 86 3e 4c 0e 08 be 43 42 22 ba
       0.31104055 0.26233745 -0.13286704 -0.00061896833
0000d0 b4 bd 3a be 35 8f e1 bd 17 1a 65 3d ca 7b 01 3e
       -0.18236428 -0.11013643 0.055933084 0.12644878
0000e0 4e a9 c1 3c 34 e6 81 3e d6 e9 b2 3d 6c 53 cc bd
       0.023640301 0.25370944 0.08736007 -0.09976849
0000f0 ff 6f 2c 3e cf f0 21 3e c5 68 1c bd cd 81 c6 bd
       0.16839598 0.15814517 -0.038185854 -0.09692726
000100 6f ca b7 bd d1 a7 4b bd 17 b6 ba bd 06 53 38 3d
       -0.08974158 -0.04972059 -0.09116762 0.045001052
000110 98 ce 0e 3e 62 2a 55 3e 13 20 3e bc 37 1d cf 3d
       0.13945997 0.20816949 -0.011604327 0.10112994
000120 98 4f 9b 3d 9a be bb 3d 13 db 33 3c 6f b2 57 3e
       0.07583541 0.09167214 0.010977524 0.21064161
000130 e2 52 3c bd 49 06 db 3d 79 4f d8 bd 8d ae a5 bd
       -0.04597748 0.10694558 -0.10562033 -0.080899335
000140 9c 5a 07 be cf b9 24 3d 6d 15 21 3e 0b 3b 32 be
       -0.13218158 0.040216263 0.1573083 -0.17405336
000150 b9 93 0a 3d f7 7f 21 3e 05 bd 98 be 4e cf 19 3e
       0.033832286 0.15771471 -0.2983171 0.15020487
000160 bb 7f f1 3d c5 cf 5a 3e 77 b9 08 3e 78 51 14 3e
       0.11791941 0.2136832 0.13351999 0.14484203
000170 91 1c 15 3e 35 e9 f5 bd 22 eb e8 3d 67 94 4d bd
       0.14561678 -0.12007371 0.11372973 -0.050190356
000180 3d da f9 3d 25 c7 a3 3d 40 c0 54 bc 06 3a 82 bc
       0.12199829 0.07996968 -0.012985289 -0.015896808
000190 31 f9 32 3e cb 44 36 be e7 c7 ef 3d ce 37 71 3e
       0.17477871 -0.1779968 0.1170805 0.23556444
0001a0 ef c0 72 bd 0b bb 34 3d 66 d8 89 bd 39 b6 25 be
       -0.059266027 0.04412369 -0.06730728 -0.16182794
0001b0 5d 76 12 3e 00 c2 74 ba d0 7c ea 3d 6e ec a6 bd
       0.14302965 -0.00093367696 0.11449587 -0.08150564
0001c0 e7 7c 7a bd d2 e9 b1 3c 26 77 99 bd 90 b5 38 3e
       -0.061154272 0.02171794 -0.07493429 0.1803801
0001d0 7c 99 ad 3d af 64 6c bd 05 2e 06 be 5a 89 d3 bd
       0.084765404 -0.057713207 -0.13103493 -0.10328932
0001e0 b3 f2 2f be 30 e8 0a bd c6 ea 8a bd 28 eb 20 3e
       -0.17182426 -0.033912838 -0.06783061 0.15714705
0001f0 9b 68 9a bc e0 0c 2c bd f7 ea 43 3e c7 cf 7b 3c
       -0.018848708 -0.042004466 0.191326 0.015369362

FC3.bias f4 [2]
000000 7d 79 a8 bb 6e 11 84 3c
       -0.0051414357 0.016121592
