hcanet-3.27_maddpg_old/data/test_model/model_3600.pt (torch, 268587 bytes, 16 tensors)

FC1.weight f4 [128, 180]
0	0xbd8e805c	-0.06958076
1	0x3c892f43	0.016746169
2	0xbd2f4f66	-0.04280033
3	0x3dba0694	0.09083286
4	0xbd1249d3	-0.035714936
5	0xbdc580be	-0.09643696
6	0xbd3c9865	-0.046043772
7	0x3de983d3	0.114020966
8	0xbdb8efa9	-0.090300865
9	0xbd4bdc45	-0.049770612
10	0x3e1c7661	0.15279533
11	0xbdb1294a	-0.086504534
12	0x3e3d748e	0.18501493
13	0xbcd88f68	-0.026435569
14	0xbbe1fb1f	-0.006896391
15	0x3dced095	0.100983776
16	0x3e0a6b88	0.13517582
17	0xbda7e7c0	-0.081985
18	0x3e15c754	0.14626819
19	0xbe2135df	-0.15743206
20	0x3ccafc67	0.024778558
21	0x3d60e4fc	0.054905877
22	0xbc12a3d6	-0.008950194
23	0xbe06d245	-0.13166149
24	0xbe1b86e9	-0.15188183
25	0xbd8a4fe6	-0.06753521
26	0x3dd5d40a	0.10440834
27	0xbe85b96a	-0.26118022
28	0xbebc5715	-0.36785188
29	0xbea7c04c	-0.32763898
30	0x3dc83bda	0.09777041
31	0xbe064be4	-0.13114887
32	0x3d9274bb	0.07151171
33	0x3d67c3b2	0.056583114
34	0x3d300515	0.042973597
35	0x3deeb388	0.116553366
36	0xbebe4cb9	-0.3716791
37	0xbe2fc255	-0.17163976
38	0xbe2db800	-0.16964722
39	0xbe2a5de0	-0.16637373
40	0xbd4f2d85	-0.05058052
41	0xbd2818b4	-0.041039184
42	0x3e15ea61	0.1464019
43	0xbe4e8e47	-0.20171462
44	0xbe55c980	-0.20877647
45	0x3e8f088d	0.2793621
46	0xbeabcaa1	-0.3355303
47	0xbd7a03c8	-0.061038762
48	0x3db6542e	0.08902775
49	0x3dd1cdb3	0.10244312
50	0x3e195bf2	0.1497648
51	0xbe431750	-0.19051862
52	0xbbc8398e	-0.0061103767
53	0xbf09a761	-0.53771025
54	0xbf08172e	-0.5316037
55	0xbdaa14a9	-0.08304722
56	0x3d838c32	0.064232245
57	0x3cae21fd	0.021256441
58	0x3d806eb5	0.06271116
59	0x3d71a1ef	0.058992323
60	0xbda0081e	-0.07814048
61	0x3d82f5ee	0.063945636
62	0xbdae1ad4	-0.08501211
63	0x3cb84703	0.022494799
64	0x3e045abb	0.12925236
65	0xbe142a49	-0.14469256
66	0x390f594f	0.00013670813
67	0xbe218f09	-0.1577722
68	0xbe2a1474	-0.16609365
69	0xbe1654c1	-0.14680769
70	0xbda865d2	-0.08222546
71	0x3d54033f	0.05176091
72	0xbdc66861	-0.096878774
73	0xbdbd0e95	-0.09231297
74	0xbd966909	-0.073442526
75	0xbc6fe082	-0.014640929
76	0xbcba8e07	-0.022772802
77	0xbd334136	-0.043763362
78	0x3da04f43	0.07827618
79	0x3e2cbce2	0.16868928
80	0x3d44f524	0.048085347
81	0x3d63b1a9	0.05558935
82	0x3d1e59a6	0.038659714
83	0x3e321108	0.1738931
84	0x3e495506	0.1966134
85	0xbd470d48	-0.04859665
86	0x3de74157	0.112917595
87	0xbdc9cc41	-0.098534115
88	0x3ce2a86d	0.027668202
89	0x3df4fb15	0.119619526
90	0x3e44f0fa	0.1923255
91	0xbcf20f34	-0.029548265
92	0xbca1b331	-0.019738765
93	0x3d60ebf0	0.054912508
94	0x3e306a3d	0.17228027
95	0x3daa3973	0.08311739
96	0xbcb6ee38	-0.022330388
97	0xbca97854	-0.02068726
98	0x3da42fa8	0.08016902
99	0xbd0e35ba	-0.034719206
100	0x3d359589	0.04433206
101	0xbcdde4e1	-0.027086677
102	0xbd488cb7	-0.04896232
103	0x3d14422e	0.036195926
104	0x3d47bb74	0.048762754
105	0x3cfece6a	0.031104285
106	0x3c95d857	0.018291635
107	0x3da503cd	0.080573656
108	0x3d8b10a4	0.06790283
109	0x3d66fb1f	0.05639183
110	0x3c54ee4e	0.012996269
111	0xbab9210c	-0.0014124229
112	0xbcb48eee	-0.02204081
113	0xbd3fc71e	-0.046820752
114	0x3cda756d	0.026667321
115	0xbe1485d4	-0.14504176
116	0x3d4ed94c	0.0505002
117	0xbdc079a0	-0.09398198
118	0xbcd628b3	-0.026142454
119	0x3dbf209c	0.093323916
120	0xbc027236	-0.0079618
121	0xbd8774f7	-0.06614106
122	0xbd3f20a7	-0.046662
123	0x3d500c61	0.050793055
124	0xbc641e33	-0.013923216
125	0x3dcfb38e	0.10141669
126	0x3d1c361c	0.03813754
127	0x3d95945a	0.073036864
128	0xbc77a420	-0.015114814
129	0xbd35f971	-0.04442734
130	0xbd5e59bd	-0.0542848
131	0x3dc86eef	0.09786784
132	0xbd154056	-0.03643831
133	0xbda8547c	-0.08219239
134	0x3d5cf315	0.05394276
135	0x3cd15bc6	0.025556456
136	0x3ddfcd1a	0.10927792
137	0x3cd772c9	0.026299851
138	0xbc78c90f	-0.015184655
139	0xbd97b057	-0.07406681
140	0xbd2c7e5a	-0.042112686
141	0xbd42852c	-0.047490284
142	0xbd2ec08a	-0.04266409
143	0xbd879d78	-0.06621832
144	0x3d51f460	0.051258445
145	0x3d39ef64	0.045394316
146	0xbd29872a	-0.041388668
147	0xbcbddcc3	-0.023176556
148	0x3d37463d	0.04474472
149	0x3c1b1d45	0.009467428
150	0xbc44a16c	-0.012001377
151	0xbcd8eb1a	-0.026479293
152	0x3cd68ac6	0.02618922
153	0xbc86ad16	-0.016439956
154	0xbd429044	-0.047500864
155	0xbd077c27	-0.033077385
156	0x3d372f56	0.044722877
157	0xbd2d8a0a	-0.042367972
158	0xbd63ab43	-0.05558325
159	0xbcfd0231	-0.030884834
160	0xbd253f09	-0.040343318
161	0xbd7cbdbd	-0.061704386
162	0xbc75a879	-0.01499378
163	0x3ccb1315	0.024789372
164	0x3d6804f3	0.056645345
165	0x3c9b2ba1	0.018941702
166	0x3d468fbf	0.04847693
167	0x3c8504c2	0.01623762
168	0xbce42772	-0.02785084
169	0xbd872bdd	-0.06600163
170	0xbd1721b0	-0.03689736
171	0x3c8eb911	0.01742223
172	0xba2f9d7d	-0.0006699188
173	0xbd125a24	-0.035730496
174	0xbc9abb21	-0.018888058
175	0x3c1db57f	0.009625792
176	0x3de83eed	0.11340127
177	0x3cfeb3ce	0.031091597
178	0x3e85a3bf	0.2610149
179	0x3c11496a	0.008867601
180	0x3d3a6f3c	0.045516238
181	0x3e7dba6b	0.24778144
182	0x3dad3efc	0.08459279
183	0x3c9bc2b5	0.019013742
184	0xbe40d0ee	-0.188297
185	0xbebd809c	-0.37012184
186	0xbe8c9ddb	-0.27464184
187	0xbea030d7	-0.31287262
188	0xbe26fd52	-0.16307572
189	0x3dda39a8	0.10655528
190	0xbea2d8cd	-0.3180603
191	0x3c7cdbd8	0.015433274
192	0xbe5f3d33	-0.2180069
193	0x3d653688	0.05596021
194	0xbcda76e7	-0.026668025
195	0xbc0da255	-0.00864466
196	0x3dc66613	0.09687438
197	0xbd705ebe	-0.058684103
198	0xbccca907	-0.024982942
199	0xbe73d244	-0.23810679
200	0x3eb1db93	0.34737834
201	0xbc03a8e6	-0.008035874
202	0x3dba0b9b	0.09084245
203	0x3c001ece	0.007819844
204	0xbb752459	-0.0037405698
205	0x3d05dfd0	0.032684147
206	0xbca28a53	-0.019841349
207	0x3e15f778	0.14645183
208	0x3e86d512	0.26334435
209	0x3dff378b	0.12461766
210	0x3e0a07be	0.13479516
211	0xbc97bacc	-0.018521689
212	0xbdbadb57	-0.09123867
213	0xbe7aef50	-0.24505353
214	0xbe17eed2	-0.14837196
215	0xbd56ebcb	-0.052470963
216	0x3e57c627	0.21071683
217	0x3e6249db	0.22098486
218	0xbda96d6d	-0.082728244
219	0xbe555596	-0.2083343
220	0x3c846c06	0.01616479
221	0x3cb87cdf	0.02252048
222	0x3d9eb30f	0.077489965
223	0x3bc1e833	0.005917573
224	0xbd613778	-0.05498454
225	0x3b8af3c3	0.0042404844
226	0x3e56a57f	0.20961569
227	0x3dea6bd2	0.11446346
228	0x3cb0cf80	0.021583319
229	0x3bc9254e	0.0061384803
230	0x3e894128	0.26807523
231	0xbd4dae05	-0.050214786
232	0x3dde545a	0.108559325
233	0xbbd8344c	-0.006598031
234	0xbb3aa5a3	-0.0028480075
235	0xbd4c0e32	-0.049818225
236	0x3e4d7349	0.20063509
237	0x3e63a304	0.22230154
238	0x3d9dc192	0.07702936
239	0xbd127a52	-0.035761185
240	0x3d81dd15	0.06340996
241	0x3e57b1cb	0.21063916
242	0x3dda160d	0.10648737
243	0xbdfba87f	-0.122879975
244	0xbdfbec0c	-0.12300882
245	0x3e1c7a45	0.15281017
246	0x3d372358	0.04471144
247	0x3cadec77	0.02123092
248	0x3d623345	0.055224676
249	0x3dd1e786	0.10249238
250	0x3d2f13ab	0.042743366
251	0xbad26ef6	-0.0016054797
252	0xbdd1b305	-0.102392234
253	0xbb28003d	-0.0025634908
254	0xbc282c58	-0.010264479
255	0x3c76a7ab	0.015054624

FC1.bias f4 [128]
0	0x3d2e9cc5	0.042629976
1	0xbbd50735	-0.0065011033
2	0xbda62317	-0.081121616
3	0xbd98e24a	-0.07465036
4	0xbd11a394	-0.03555639
5	0xbd392c78	-0.045208424
6	0xbd8499ea	-0.06474669
7	0xbda39851	-0.079880364
8	0xbc062cb9	-0.008189374
9	0x3d5dbdf6	0.05413624
10	0x3d1da172	0.038484044
11	0xbda5fbac	-0.08104643
12	0xbca4cd7a	-0.02011751
13	0xbd8bc637	-0.06824916
14	0xbc3a634f	-0.011376216
15	0x3c01b763	0.007917258
16	0x3d4016da	0.046896793
17	0xbcb179db	-0.02166455
18	0x3c8e027f	0.017335175
19	0x3d886dab	0.066615425
20	0x3d4a37a4	0.04936947
21	0xbcb4b32b	-0.02205809
22	0xbd285575	-0.041097123
23	0xbce83409	-0.028345125
24	0x3cab4b25	0.020909855
25	0xbc601599	-0.013677024
26	0x3d731482	0.05934573
27	0xbd92c22b	-0.07165941
28	0xbcb22f11	-0.021750959
29	0xbd37e2c1	-0.044893984
30	0x3cba9098	0.022774026
31	0xbdb909cf	-0.09035074
32	0xbd6103b7	-0.054935183
33	0x3da63697	0.08115881
34	0xbd8bcaff	-0.06825828
35	0x3d385e94	0.04501207
36	0xbc8d69b1	-0.017262312
37	0xbcffb5d7	-0.031214638
38	0x3d6678dc	0.056267604
39	0x3d6c59ca	0.057702817
40	0x3d4c4ccc	0.049877927
41	0xba3b920d	-0.0007155247
42	0x3c945c48	0.01811041
43	0x3d3f5f97	0.04672202
44	0x3d075edf	0.03304946
45	0xbd354c9f	-0.044262525
46	0xbd93cfd7	-0.07217377
47	0x3d2837ba	0.04106877
48	0x3c369e5a	0.011146152
49	0xbd94a935	-0.07258836
50	0xbd84499d	-0.06459353
51	0xbd1b4045	-0.03790309
52	0x3cc285a3	0.023745364
53	0xbd8680e0	-0.0656755
54	0x3d41519e	0.047196977
55	0x3b98ae01	0.0046594148
56	0xbd05c784	-0.032660976
57	0xbcda7182	-0.026665453
58	0x3d8df8aa	0.069321945
59	0xbb420ed2	-0.0029610884
60	0x3d1bae17	0.038007822
61	0xbc4ac024	-0.012374911
62	0x3cb90836	0.022586923
63	0xbcb75b54	-0.022382416
64	0xbcc0149f	-0.023447333
65	0xbcb2dd07	-0.02183391
66	0xbc4d8195	-0.012543102
67	0xbcdcb1b6	-0.026940208
68	0xbd598ae8	-0.053110987
69	0x3cb5b5f4	0.022181489
70	0xbd97ed63	-0.07418325
71	0xbd250c19	-0.04029474
72	0x3ce4b030	0.027916044
73	0x3d31f3d0	0.04344541
74	0xbbef52ec	-0.007303586
75	0x3d77e810	0.060524046
76	0xbda2a9bc	-0.079425305
77	0xbce8e740	-0.028430581
78	0x3cfc327a	0.030785788
79	0x3d27b5b0	0.040944755
80	0xbc0b1c67	-0.008490658
81	0x3d0875b7	0.033315387
82	0xbcc83f25	-0.024444172
83	0x3d2a1f5b	0.04153381
84	0x3c20e221	0.009819538
85	0x3cb2bc25	0.02181823
86	0xbd18844a	-0.037235536
87	0xbcc1217a	-0.023575533
88	0xba224cb6	-0.00061912404
89	0x3d848858	0.06471318
90	0xbd20f0ca	-0.039292134
91	0x3d541567	0.051778223
92	0xbd4a7c6d	-0.049435068
93	0x3d73e411	0.059543673
94	0x3da0e8ed	0.07856927
95	0x3ca6977d	0.020335907
96	0xbd81d63a	-0.063396886
97	0x3d7f9d1c	0.06240569
98	0xbd482b2f	-0.048869308
99	0x3d4dabca	0.05021266
100	0x3da4884b	0.08033808
101	0xbd22b752	-0.03972561
102	0x3d6adb8d	0.057338286
103	0x3bd8280d	0.0065965713
104	0xbcec90ba	-0.028877605
105	0x395b651e	0.00020923137
106	0xbb1dae36	-0.0024060137
107	0x3cb6952d	0.02228793
108	0xbcb567f0	-0.022144288
109	0xbce520ac	-0.02796968
110	0xbcbeef93	-0.023307597
111	0x3a905657	0.0011012059
112	0x3c8d43d2	0.017244253
113	0x3d1b6378	0.037936658
114	0xbd1a4408	-0.037662536
115	0xbc836ca2	-0.016043011
116	0x3d7bdb7c	0.061488613
117	0xbd17829f	-0.036989804
118	0x3d479c7f	0.04873323
119	0xbd5ec6c1	-0.054388765
120	0xbc87f1e6	-0.016594838
121	0x3ca392cc	0.01996746
122	0xbc652d7b	-0.013987894
123	0xbd3bdc19	-0.0458642
124	0xbcbf4e04	-0.02335263
125	0x3d71071f	0.05884468
126	0xbd5d80e2	-0.05407799
127	0xbdb8c368	-0.09021646

FC2.weight f4 [64, 128]
0	0xbb3d1912	-0.0028854054
1	0xbdcec982	-0.10097028
2	0x3d92c19d	0.07165835
3	0xbdfd7fbe	-0.123778805
4	0x3d442e1a	0.04789553
5	0xbe533b91	-0.20628192
6	0x3d1da8bc	0.038490996
7	0xbe5e6479	-0.21718015
8	0x3d028ea6	0.03187432
9	0x3de1a57d	0.110178925
10	0xbe439629	-0.1910025
11	0xbc833fb6	-0.01602159
12	0x3d3434be	0.04399561
13	0xbe5628cc	-0.20914
14	0x3c28228d	0.010262144
15	0x3c97747a	0.018488158
16	0xbe5357e0	-0.2063899
17	0xbd15ffb7	-0.03662082
18	0xbd12df6d	-0.035857607
19	0xbebfa912	-0.37433678
20	0x3d1775f0	0.03697771
21	0xbe84f005	-0.2596437
22	0xbe1d4dd5	-0.15361722
23	0x3c3d3922	0.011549266
24	0xbd06ed8b	-0.032941382
25	0xbe66712f	-0.22504114
26	0xbd9163bc	-0.07099101
27	0x3df8fe96	0.121579334
28	0xbe121716	-0.14266619
29	0xbdee6c54	-0.11641756
30	0x3df6cbab	0.12050565
31	0xbdf7478b	-0.120741926
32	0x3d5bb801	0.053642277
33	0xbded1758	-0.11576718
34	0x3d8db446	0.0691915
35	0x3d245c4a	0.040127076
36	0x3df87aea	0.12132819
37	0x3d00e8b6	0.03147193
38	0xbe9fb217	-0.3119056
39	0xbd9271d0	-0.07150614
40	0xbd5dc14a	-0.054139413
41	0xbc25c8b9	-0.010118657
42	0xbc91531e	-0.017739829
43	0xbdcaec83	-0.09908392
44	0x3db7e39a	0.089789584
45	0xbe13e7e1	-0.14443924
46	0xbe2c9244	-0.16852671
47	0x3e88da4a	0.2672904
48	0xbd2e4b15	-0.042552073
49	0x3cc1c918	0.02365546
50	0xbdcacfc4	-0.099029094
51	0xbe2e4a3e	-0.17020509
52	0x3e319e05	0.17345436
53	0xbcc423da	-0.023942877
54	0x3dba5422	0.09098078
55	0xbe07de06	-0.13268289
56	0xbcc62525	-0.024187634
57	0x3e020885	0.12698562
58	0xbdc17869	-0.094467945
59	0x3d631712	0.055441923
60	0x3da82154	0.08209482
61	0xbc5bcdc7	-0.01341576
62	0xbe65161a	-0.22371712
63	0x3d901ec1	0.07037116
64	0xbd9e290a	-0.07722671
65	0x3e2d803b	0.16943447
66	0x3e4acee0	0.19805479
67	0x3d5cb8f5	0.053887326
68	0xbd1a699d	-0.037698377
69	0xbc48c6b4	-0.012254406
70	0xbd98699a	-0.07442017
71	0xbe219949	-0.1578113
72	0xbc2f4508	-0.010697611
73	0xbd16edc9	-0.036847863
74	0x3d735de9	0.05941573
75	0xbda2fdd9	-0.07958574
76	0x3d568a75	0.052378137
77	0x3d18a8bc	0.037270293
78	0x3e237774	0.15963537
79	0x3e0cbcbb	0.1374387
80	0xbb56dd2f	-0.0032785644
81	0x3d616f26	0.05503764
82	0xbe7966c9	-0.24355616
83	0x3d53912e	0.051652126
84	0x3dcb24c9	0.099191256
85	0xbe7098b7	-0.23495756
86	0x3d1886f0	0.03723806
87	0x3d68f34c	0.05687265
88	0xbe3a785a	-0.18209973
89	0xbe0a758c	-0.13521403
90	0x3cbf6dcd	0.023367787
91	0x3da5864e	0.08082257
92	0x3defce09	0.1170922
93	0xbe3c66ce	-0.18398592
94	0xbcb389d9	-0.021916317
95	0x3d871b0f	0.06596958
96	0x3c90b70b	0.017665407
97	0x3e23a655	0.1598142
98	0x3d7a6a8a	0.06113676
99	0xbe1b6fcc	-0.15179366
100	0xbcad12ec	-0.021127187
101	0x3e410199	0.18848266
102	0xbd516a8e	-0.05112701
103	0x3cf7f045	0.030265937
104	0xbd221a9a	-0.03957615
105	0x3c9aca17	0.018895192
106	0x3dc727c1	0.09724379
107	0xbd07c9ee	-0.03315156
108	0x3b89469a	0.0041893246
109	0xbdb3b275	-0.08774272
110	0x3c8939fd	0.016751284
111	0xbeaad40c	-0.33364904
112	0xbd3e6fe6	-0.046493433
113	0x3e27ca01	0.16385652
114	0xbdef83f5	-0.11695091
115	0x3c70d413	0.014699
116	0x3d27d444	0.040973917
117	0xbd8d9ae4	-0.06914309
118	0xbdb70a37	-0.08937495
119	0xbd876cb0	-0.06612527
120	0x3ca3e9e5	0.02000899
121	0xbc2742f5	-0.010208835
122	0x3d7a968c	0.06117873
123	0xbcddb081	-0.027061703
124	0xbdec2cbd	-0.11531971
125	0x3d85bc0f	0.0653001
126	0xbe4b9926	-0.1988264
127	0xbcd635b0	-0.026148647
128	0xbe4b907c	-0.19879335
129	0xbe41e8b6	-0.18936428
130	0xbe038122	-0.12842229
131	0xbb8681c8	-0.0041048266
132	0xbe290c1f	-0.1650853
133	0xbd187e7d	-0.037230004
134	0x3c1c8238	0.009552531
135	0x3dc4211c	0.095766276
136	0xbdd1bee2	-0.10241486
137	0x3d9ebe48	0.07751137
138	0xbe64e57a	-0.22353163
139	0xbd1e1a97	-0.038599577
140	0x3dcbc866	0.09950332
141	0xbd0a5247	-0.033769872
142	0x3e3fec56	0.18742499
143	0xbe66bd72	-0.22533205
144	0xbc6bf2ca	-0.014401147
145	0xbe047b53	-0.1293767
146	0x3e031cd5	0.12803967
147	0xbe0e1e17	-0.13878666
148	0xbdeed54a	-0.116617754
149	0x3bfd33b9	0.007727113
150	0x3dded98f	0.1088134
151	0xbc2f101b	-0.010684992
152	0xbd03da78	-0.03219077
153	0x3d795905	0.06087591
154	0xbd9e153b	-0.07718893
155	0xbe85678a	-0.26055557
156	0x3d694c73	0.056957673
157	0x3d85ef6f	0.06539809
158	0xbe6a6ee2	-0.22893861
159	0x3dd779b4	0.1052126
160	0xbe2df080	-0.16986275
161	0xbb733200	-0.003710866
162	0xbc9e89da	-0.019352842
163	0xbdeb389c	-0.11485407
164	0x3dfdcf20	0.123930216
165	0x3e2a78b1	0.16647603
166	0xbe1e4e8b	-0.1545965
167	0xbe16af5b	-0.1471533
168	0xbb15d2de	-0.0022861282
169	0x3e0394d7	0.12849747
170	0xbe333ff0	-0.17504859
171	0xbc38e46c	-0.011284929
172	0x3e6bdb46	0.23032865
173	0x3d59dca6	0.053188942
174	0xbe80caac	-0.25154626
175	0x3d24742a	0.040149845
176	0x3e50a728	0.20376265
177	0xbd314555	-0.04327901
178	0xbe154508	-0.14577115
179	0xbd8643a3	-0.065558694
180	0xbf02aacb	-0.5104186
181	0xbda46bc5	-0.08028368
182	0x3cc9c9ee	0.02463242
183	0xbd23eb89	-0.040019546
184	0x3c29ffb7	0.010375909
185	0x3d5696ed	0.052390028
186	0x3ca7dd5b	0.020491293
187	0x3ba661fc	0.0050775986
188	0x3d513d2e	0.051083736
189	0xbe5a9ebc	-0.21349615
190	0xbaa1a31d	-0.0012331937
191	0xbd8141a8	-0.06311351
192	0xbdeb5d1e	-0.1149237
193	0x3d4aa9f1	0.049478475
194	0x3e1f02bb	0.15528385
195	0xbca44869	-0.02005406
196	0x3db8462b	0.089977585
197	0x3e3e0f19	0.18560447
198	0xbd7dea23	-0.06199087
199	0xbe11c606	-0.14235696
200	0x3de0ac58	0.10970372
201	0xbe195f27	-0.14977704
202	0x3de6834f	0.11255514
203	0xbb8522db	-0.004062993
204	0x3dfa95a7	0.12235575
205	0x3cf59d2f	0.029982178
206	0x3e16ed9f	0.14739083
207	0x3de088fc	0.10963628
208	0x3e2395ac	0.15975064
209	0x3c096818	0.008386634
210	0xbe782dd7	-0.24236237
211	0x3e3b4f68	0.1829201
212	0x3e42e699	0.19033279
213	0xbdb720bd	-0.08941791
214	0xbc9466d2	-0.018115435
215	0xbca8acbd	-0.02059018
216	0x3de19595	0.11014859
217	0xbeb7ea2b	-0.35920843
218	0xbe449b3d	-0.19199844
219	0xbcc24516	-0.023714583
220	0x3ca46785	0.020068893
221	0x3d4af764	0.049552336
222	0xbe110fe9	-0.14166225
223	0x3caae660	0.020861804
224	0x3d4ba3b8	0.04971668
225	0x3e485084	0.19561964
226	0x3d95b4f7	0.07309907
227	0xbe120f08	-0.14263546
228	0x3e1767f0	0.14785743
229	0xbef66682	-0.48125082
230	0x3e761f76	0.24035439
231	0x3e50fdbf	0.20409296
232	0xbd8775d3	-0.0661427
233	0x3e02efa3	0.12786727
234	0x3e2d4a27	0.16922818
235	0x3bbc44de	0.0057455143
236	0xbe0d67ba	-0.138091
237	0xbca111fb	-0.019661894
238	0xbd23f3e6	-0.04002752
239	0xbe5f3ed1	-0.21801306
240	0x3e613af8	0.21995151
241	0x3d1246d1	0.035712067
242	0xbac0d1ef	-0.0014711003
243	0x3d66cbca	0.056346692
244	0x3e52c3e5	0.2058254
245	0xbe2e75a6	-0.17037067
246	0xbe1bd213	-0.15216856
247	0x3d97f09b	0.07418939
248	0x3daa6cb5	0.083215155
249	0x3d99ed45	0.07515959
250	0x3cd72289	0.026261585
251	0x3dc93d82	0.09826185
252	0xbe976f43	-0.29577073
253	0xbe5cd1f8	-0.21564472
254	0xbd924bce	-0.07143365
255	0xbe43a78b	-0.19106881

FC2.bias f4 [64]
0	0xbdc39ceb	-0.09551414
1	0xbde5f2e1	-0.11227966
2	0xbdcc3d71	-0.099726565
3	0xbe102e60	-0.1408019
4	0xbc8fc814	-0.01755146
5	0xbb95891c	-0.004563464
6	0xbc3f4368	-0.011673786
7	0xbc5d6074	-0.013511766
8	0xbd0d5cec	-0.034512445
9	0x3d25b026	0.04045119
10	0xbcd70116	-0.026245635
11	0xbd95cf48	-0.073149264
12	0xbd2351d3	-0.039872956
13	0x3dbc2166	0.09186058
14	0xbd001a5a	-0.03127513
15	0x3b982699	0.004643273
16	0xbe1a10c6	-0.15045461
17	0xbdd0bf5d	-0.1019275
18	0x3be5d7ff	0.007014274
19	0xbd1ad32e	-0.037799053
20	0xbdc82a3a	-0.09773679
21	0xbdba0d9e	-0.090846285
22	0xbdc6ac87	-0.09700876
23	0x3b16d223	0.0023013435
24	0xbc9560c2	-0.018234614
25	0xbd8def0f	-0.069303624
26	0x3c21cac2	0.009875001
27	0xbe0ea3ff	-0.13929747
28	0xbccd428b	-0.025056144
29	0xbdaed11e	-0.0853598
30	0xbdab68ce	-0.08369599
31	0xbd738dc4	-0.05946137
32	0x3de001e2	0.10937859
33	0xbd9d0a55	-0.07667986
34	0xbdd97861	-0.106186636
35	0xbd988a5a	-0.074482635
36	0xbc8224f5	-0.015886763
37	0x3d890b18	0.06691569
38	0x3daec59f	0.08533787
39	0x3dfcc633	0.12342491
40	0xbda38e59	-0.07986135
41	0xbc744b5d	-0.014910546
42	0xbd980dfd	-0.07424543
43	0x3cabba4a	0.020962853
44	0x3c2c0d20	0.010501176
45	0x3d7a445a	0.06110034
46	0xbcc87ce1	-0.02447361
47	0xbd5384ca	-0.05164031
48	0xbcd6a110	-0.026199847
49	0xbe3544fe	-0.177021
50	0xbd103f97	-0.035216894
51	0xbd1c6822	-0.038185246
52	0x3e2cb58a	0.16866127
53	0x3d56a6d2	0.052405186
54	0x3db039c6	0.086047694
55	0x3bb4237b	0.0054973937
56	0xbdb430ce	-0.08798371
57	0xbd898977	-0.067156725
58	0xbd01eaa6	-0.03171792
59	0x3d051a63	0.032495867
60	0xbd522861	-0.05130804
61	0x3d392346	0.045199655
62	0x3ce3f227	0.027825428
63	0x3dbd11b6	0.09231894

FC3.weight f4 [2, 64]
0	0xbe00d46f	-0.12581037
1	0x3e622f91	0.22088458
2	0x3e93b052	0.2884546
3	0x3dadf066	0.08493118
4	0x3e7b31b5	0.2453068
5	0xbe217491	-0.15767123
6	0xbdd0ca11	-0.10194791
7	0x3e376b7a	0.17912093
8	0x3e15d740	0.14632893
9	0xbcff2aa0	-0.031148255
10	0x3ec797c6	0.3898298
11	0x3e8dadbc	0.2767161
12	0x3e0f5930	0.13998866
13	0x3db11923	0.086473726
14	0x3dd4e2eb	0.10394844
15	0x3e696e2e	0.22795936
16	0x3e93093d	0.28717986
17	0xbe908b2c	-0.2823118
18	0xbe0985dd	-0.13429971
19	0xbe2c5557	-0.1682943
20	0x3e916b8e	0.2840237
21	0x3dc21492	0.0947658
22	0x3e7b2b78	0.24528301
23	0x3dee8d1a	0.11648007
24	0xbe1edd26	-0.15514049
25	0xbe7b19e3	-0.24521594
26	0x3dad4906	0.08461194
27	0x3e66263f	0.22475527
28	0xbd8ffeaf	-0.07030999
29	0xbe3b2a00	-0.1827774
30	0x3e18abe2	0.14909318
31	0xbd165b55	-0.036708195
32	0x3cef541b	0.02921491
33	0xbd39fffd	-0.045410145
34	0xbe5405de	-0.20705363
35	0x3e134981	0.14383508
36	0xbdd853fe	-0.10562895
37	0x3e7b4b6a	0.24540487
38	0xbdbe2259	-0.09283895
39	0xbd04fa7d	-0.032465447
40	0x3dd542bd	0.1041312
41	0x3e1ae7f3	0.15127544
42	0x3e166f3a	0.14690867
43	0xbe22f68a	-0.1591436
44	0xbd23cab6	-0.039988242
45	0xbbd973d2	-0.0066361213
46	0xbe9ef4fe	-0.3104629
47	0x3d252fdd	0.04032885
48	0x3daa40de	0.08313154
49	0xbea16ffd	-0.31530753
50	0xbd65df1a	-0.05612097
51	0xbe95e082	-0.29272848
52	0xbda0db53	-0.07854333
53	0xb964e6cd	-0.00021829754
54	0xbd279b4e	-0.040919594
55	0xbdc1566f	-0.09440314
56	0x3c94551b	0.018106988
57	0x3ccca2c6	0.02497996
58	0x3ea0a39c	0.31374824
59	0xbd7c0392	-0.061526842
60	0xbe052311	-0.13001658
61	0xbcbc8433	-0.023012256
62	0xbd48bb04	-0.049006477
63	0xbd4ea86c	-0.05045359
64	0xbc6435fa	-0.013928885
65	0xbedc3f7b	-0.43017182
66	0xbe2551d3	-0.16144495
67	0x3e187c2e	0.14891121
68	0x3d253f00	0.040343285
69	0x3d659ac2	0.05605579
70	0xbe5bdb9b	-0.21470492
71	0xbd6bf5bc	-0.057607397
72	0x3bb6f03c	0.0055828374
73	0xbd65dbdb	-0.056117874
74	0xbadfd3ba	-0.0017076649
75	0x3e8e66f0	0.2781291
76	0xbc91373f	-0.017726539
77	0xbda7f774	-0.08201495
78	0xbe37d0b8	-0.17950714
79	0x3e3a39c7	0.18186103
80	0x3eaef03c	0.3416766
81	0xbe0ce579	-0.13759412
82	0x3cf7ef03	0.030265337
83	0x3e3e86ec	0.18606156
84	0xbc4d8afe	-0.012545345
85	0x3dcf9e61	0.1013763
86	0x3e6ffe20	0.23436785
87	0xbd9ba88c	-0.07600507
88	0x3ce9da9d	0.028546626
89	0xbe2eba2f	-0.17063211
90	0xbe31d058	-0.17364633
91	0x3e497882	0.19674876
92	0xbe16dd57	-0.14732872
93	0x3e01e24d	0.12683983
94	0xbd58f5a7	-0.052968647
95	0xbd962950	-0.073320985
96	0x3dcb7314	0.09934059
97	0xbe549ba3	-0.20762496
98	0xbd429dee	-0.047513895
99	0x3dbc20cb	0.09185942
100	0x3d06b708	0.032889396
101	0x3d583f72	0.05279488
102	0xbd19d03c	-0.037552103
103	0xbd5d39b2	-0.0540101
104	0xbdb28dc9	-0.087184496
105	0x3d4f3de4	0.050596133
106	0xbe157c4a	-0.14598194
107	0x3cce07ff	0.025150297
108	0xbdd0b82c	-0.10191378
109	0x3ead6e19	0.3387306
110	0xbe369540	-0.17830372
111	0x3dbc8f1a	0.09206982
112	0x3ddded07	0.10836225
113	0x3e57b350	0.21064496
114	0xbdae45af	-0.08509385
115	0xbe0396d4	-0.12850505
116	0x3d4333af	0.04765671
117	0xbdcc5077	-0.09976285
118	0x3d558383	0.052127372
119	0x3d030ec4	0.031996503
120	0xbeac106c	-0.3360628
121	0x3e12f4a1	0.14351131
122	0xbbe2e434	-0.0069241766
123	0x3d8819b1	0.06645525
124	0x3d2e0d63	0.042493235
125	0x3dde870b	0.10865601
126	0xbdd08901	-0.101823814
127	0xbd5a3311	-0.053271357

FC3.bias f4 [2]
0	0x3d5924c3	0.053013574
1	0xbc314851	-0.010820464

FC1.weight f4 [128, 180]
0	0xbd962521	-0.073313005
1	0xbd5e3c72	-0.054256864
2	0xbdbe96d1	-0.0930611
3	0x3d6fa3b4	0.05850573
4	0xbcaba192	-0.020951066
5	0x3d483346	0.048877023
6	0xbc517ac4	-0.012785617
7	0x3e793675	0.2433718
8	0xba222012	-0.00061845884
9	0x3c861159	0.016365694
10	0xbcb6594e	-0.02225938
11	0xbd521a01	-0.05129433
12	0x3da1c1ad	0.07898269
13	0xbd9898c6	-0.07451014
14	0x3ddb24ed	0.107004024
15	0x3dcf854d	0.10132847
16	0xbd18789e	-0.037224405
17	0x3ce3cc73	0.02780745
18	0xbdb48859	-0.08815069
19	0x3c6390ee	0.013889534
20	0x3dd5eab2	0.10445155
21	0xbda3b3d3	-0.07993283
22	0x3c4dd70b	0.012563477
23	0x3e2fe6bd	0.17177863
24	0x3e271746	0.16317472
25	0xbce1942b	-0.027536472
26	0x3db8aa53	0.09016862
27	0x3cdb226e	0.026749816
28	0xbce6895e	-0.028141674
29	0x3cc5e10c	0.024155162
30	0xbd3041fd	-0.04303168
31	0x3cb5c1a4	0.022187062
32	0x3deacc20	0.11464715
33	0x3e200544	0.15627009
34	0x3e64250c	0.22279757
35	0xbe2b4c48	-0.16728318
36	0x3e101dd2	0.14073876
37	0x3d35d0a1	0.044388417
38	0xbe44c5f6	-0.19216141
39	0x3db8f89e	0.09031795
40	0xbe9160e2	-0.28394228
41	0xbaf75294	-0.0018869215
42	0xbd37f81b	-0.044914346
43	0xbe5c3f62	-0.21508554
44	0xbdf9a002	-0.12188722
45	0xbd21909b	-0.039444547
46	0xbd65fc11	-0.056148592
47	0x3d13dbdc	0.036098346
48	0x3d23f990	0.040032923
49	0x3cd472ef	0.02593371
50	0xbcd2a2a4	-0.025712319
51	0x3d224b48	0.039622575
52	0xbc0b03c0	-0.008484781
53	0x3d2075fb	0.039175015
54	0x3decfac3	0.115712665
55	0xbc3d4505	-0.0115521
56	0x3de894a2	0.113564745
57	0x3dfc371b	0.12315198
58	0xbc8951e4	-0.016762681
59	0xbe9c929c	-0.30580604
60	0x3e2b9d39	0.16759194
61	0x3c367607	0.011136538
62	0xbddc6f8a	-0.10763462
63	0xbcd567bb	-0.02605044
64	0x3be30194	0.0069276784
65	0xbe07185a	-0.13192883
66	0xbe1a0580	-0.1504116
67	0xbcf2574f	-0.029582648
68	0x3ded0b42	0.11574413
69	0x3c9ed0c7	0.019386662
70	0x3e0a91f9	0.13532247
71	0xbdd34485	-0.103158034
72	0x3cd457d7	0.025920792
73	0xbda8fdae	-0.082515106
74	0xbe019b4b	-0.12656896
75	0xbcac0f22	-0.02100331
76	0xbd702db8	-0.05863735
77	0x3dbed58c	0.093180746
78	0x3e2a7dcf	0.16649555
79	0x3e58f747	0.21188079
80	0xbd126f14	-0.035750464
81	0x3e2590b7	0.16168486
82	0x3d6f2cf2	0.058392473
83	0x3d208507	0.039189365
84	0xbdf7e7c9	-0.121047564
85	0xbb6827ec	-0.0035424186
86	0x3e5204dd	0.20509668
87	0x3b174917	0.0023084336
88	0xb9aeba10	-0.00033326494
89	0xbde39967	-0.111132436
90	0xbdca9445	-0.098915614
91	0xbe68fa73	-0.22751789
92	0x3d2fa930	0.04288596
93	0xbdca8f9c	-0.098906726
94	0xbdbee3bf	-0.09320783
95	0x3c8a9153	0.016915
96	0xbde38fc2	-0.11111404
97	0x3dec4e87	0.115384154
98	0x3e171063	0.14752345
99	0x3e230223	0.15918784
100	0x3caa9902	0.020824913
101	0xbdc897c0	-0.09794569
102	0x3d2728a1	0.04081023
103	0x3dfc87eb	0.12330612
104	0x3bb98847	0.0056619975
105	0x3e251d37	0.16124426
106	0x3e00c1cf	0.12573932
107	0x3d850894	0.06495777
108	0x3e498fb8	0.1968373
109	0x3e2de832	0.16983107
110	0x3e242370	0.16029143
111	0xbd888fb3	-0.066680335
112	0xbd374040	-0.044739008
113	0x3c875e3e	0.01652443
114	0x3caed58f	0.021342067
115	0x3c9330ac	0.017967544
116	0xbc2462a4	-0.010033283
117	0xbe195cd8	-0.14976823
118	0xbe84c404	-0.25930798
119	0xbebebe7f	-0.37254712
120	0x3bf7029e	0.007538154
121	0xbd5d949e	-0.05409681
122	0xbd8175ea	-0.063213184
123	0xbe19a05a	-0.15002576
124	0xbe88dfa7	-0.26733133
125	0xbe31b0fa	-0.17352667
126	0xbe4ea0d3	-0.20178537
127	0xbe0ed4f2	-0.1394842
128	0xbe819ad0	-0.25313425
129	0xbe44c87c	-0.19217104
130	0xbe7e218e	-0.24817488
131	0x3e22f5cb	0.15914075
132	0xbda05d59	-0.07830305
133	0xbddd8cad	-0.108178474
134	0xbd9e0b20	-0.07716966
135	0xbe10b9f7	-0.1413344
136	0xbe45cb2b	-0.19315784
137	0xbca46330	-0.020066828
138	0xbdeccb30	-0.115621924
139	0x3ccb139d	0.024789626
140	0xbd0ecc08	-0.034862548
141	0xbe1efe57	-0.1552671
142	0x3da29d1b	0.07940122
143	0xbd89f4b8	-0.067361295
144	0xbe88b24e	-0.26698536
145	0xbe1e9f0e	-0.15490362
146	0x3dc82a19	0.097736545
147	0x3d27f708	0.04100707
148	0x39a653fb	0.00031724558
149	0xbccec3a7	-0.025239779
150	0xbe078813	-0.13235502
151	0xbd7f29b0	-0.062295616
152	0x3cb32e9b	0.02187281
153	0xbdea8a6d	-0.11452184
154	0xbcd2d83d	-0.025737876
155	0xbd44bef2	-0.048033662
156	0xbdc3aa5e	-0.09553979
157	0x3b3e0c73	0.002899912
158	0xbddcb65e	-0.10776971
159	0xbd9020bf	-0.07037496
160	0x3d95611e	0.07293914
161	0xbd999863	-0.074997686
162	0x3d8b3c0f	0.06798565
163	0xbddee56c	-0.108836025
164	0xbdfaabdd	-0.122398116
165	0xbd44bb9a	-0.048030473
166	0xbd8a9bba	-0.06767984
167	0xbd61edc5	-0.055158395
168	0x3d5361ee	0.051607065
169	0x3d1f7cf2	0.038937517
170	0x3c94b8bb	0.018154493
171	0x3cb396e9	0.021922546
172	0xbdcba7e6	-0.099441335
173	0x3c0bff54	0.008544762
174	0xbd081968	-0.033227354
175	0xbd7bd319	-0.061480615
176	0x3d9ed9f8	0.07756418
177	0x3e315c71	0.1732042
178	0x3e189d35	0.1490372
179	0x3d87a1f3	0.06622686
180	0xba1f9a33	-0.0006088346
181	0xbc7415d1	-0.01489778
182	0x3d73c148	0.0595105
183	0xbe5db5ee	-0.21651432
184	0xbe3446bd	-0.1760511
185	0xbd67c53b	-0.056584578
186	0x3d2662e4	0.040621653
187	0xbe9534e4	-0.29141915
188	0xbd15789a	-0.036491968
189	0xbd2d88ec	-0.042366907
190	0xbcfee129	-0.031113224
191	0xbb971544	-0.0046106894
192	0x3d54d160	0.051957488
193	0x3d21540f	0.039386805
194	0xbdd1b7ab	-0.1024011
195	0xbcbdc5a6	-0.023165535
196	0x3e780d04	0.24223715
197	0xbe6532f7	-0.22382723
198	0x3dc673ad	0.09690032
199	0x3dc9252f	0.09821545
200	0x3e5a3fca	0.21313396
201	0xbd8eb54c	-0.069681734
202	0xbe386210	-0.18006158
203	0x3e26a654	0.16274387
204	0x3e1471d7	0.14496551
205	0x3e806a00	0.25080872
206	0xbd4f9ca2	-0.050686486
207	0x3e10636c	0.14100426
208	0x3e9e863e	0.30961794
209	0x3ea5a66d	0.32353535
210	0xbe1795fb	-0.14803307
211	0xbe1d4a3f	-0.15360354
212	0xbb250402	-0.002517939
213	0xbe3105e1	-0.17287399
214	0xbdb8ec05	-0.09029392
215	0xbd864370	-0.065558314
216	0xbdabfd36	-0.083979055
217	0x3c8539a6	0.01626284
218	0x3c7cb30f	0.01542355
219	0x3d90aa3b	0.07063719
220	0x3e033440	0.128129
221	0xbd4ce440	-0.050022364
222	0x3d54bf62	0.05194033
223	0x3c33bc8b	0.010970245
224	0x3d02f66b	0.031973284
225	0x3dc60225	0.09668378
226	0xbdd7969a	-0.10526772
227	0xbd5879ee	-0.052850656
228	0xbd22edd1	-0.03977758
229	0xbc859b31	-0.016309353
230	0x3dd8a9b7	0.105792455
231	0x3c60c00e	0.013717664
232	0xbdc12e4d	-0.09432659
233	0xbe9a2640	-0.30107307
234	0xbe84073e	-0.25786775
235	0x3e59438c	0.21217173
236	0x3d19914b	0.037492078
237	0xbd81c31d	-0.06336043
238	0x3d46a965	0.04850139
239	0x3d508e13	0.050916743
240	0xbdada856	-0.08479373
241	0x3e1ebe87	0.15502368
242	0xbdf6b12c	-0.120455116
243	0xbe4383b3	-0.19093208
244	0xbe0b3bd3	-0.1359704
245	0x3db09840	0.086227894
246	0xbe772cec	-0.2413823
247	0xbe182fc1	-0.14861967
248	0x3e220604	0.15822607
249	0x3d4d8290	0.050173342
250	0xbd889f13	-0.06670966
251	0xbd945c80	-0.072442055
252	0x3dcb7a1e	0.099354014
253	0x3e2702dc	0.16309685
254	0x3e30f3e0	0.17280531
255	0x3d19240d	0.037387896

FC1.bias f4 [128]
0	0xbd90839b	-0.07056352
1	0x3cce0c48	0.02515234
2	0xbdc6f4f1	-0.097146876
3	0x3bc94711	0.006142505
4	0xbccf02ae	-0.025269832
5	0xbd11dff3	-0.035613965
6	0xbd3f37e2	-0.046684153
7	0xbcaec35b	-0.021333387
8	0x3cee5a73	0.029095864
9	0xbc00a386	-0.007851487
10	0xbd40f4c1	-0.047108416
11	0xbd260af2	-0.040537782
12	0xb6aa4ed2	-5.0755707e-06
13	0xbd582ea5	-0.05277886
14	0xbc430000	-0.0119018555
15	0xbd1c146e	-0.03810542
16	0xbd895073	-0.067047976
17	0x3c035fa3	0.008018407
18	0xbd21ae45	-0.039472837
19	0x3d129409	0.03578571
20	0x3c904d85	0.01761509
21	0xbca961de	-0.02067655
22	0xbc7aba3c	-0.015303191
23	0x3d229719	0.03969488
24	0xbd838a02	-0.06422807
25	0xbdc1aade	-0.094564185
26	0xbcab0ea1	-0.020880999
27	0x3d22ab07	0.039713886
28	0x3cb31e3e	0.021865007
29	0x3d22a1bf	0.039705034
30	0x3d64ec6d	0.055889536
31	0x3d5f76f2	0.054556794
32	0xbcf55b7b	-0.029950848
33	0xbd6f5021	-0.058426026
34	0xbd12f4ca	-0.03587798
35	0x3d564bc6	0.052318357
36	0xbd00eddf	-0.03147685
37	0xbd4c81bf	-0.049928423
38	0xbd3ae10c	-0.045624778
39	0xbcf2b495	-0.029627124
40	0xbd6108a7	-0.054939892
41	0xbda4e1da	-0.0805089
42	0x3d418ff2	0.047256418
43	0x3c3f8a72	0.011690723
44	0xbcd147bb	-0.025546899
45	0xbd5403aa	-0.051761307
46	0x3d15e0b8	0.03659126
47	0x3d8e9c25	0.06963376
48	0x3d3b221b	0.045686822
49	0xbc43518b	-0.011921297
50	0x3b42c800	0.002972126
51	0x3ce44149	0.027863162
52	0x3ccb08d0	0.024784476
53	0x3d0619a8	0.03273931
54	0xbd91ba15	-0.071155705
55	0x3bf32a66	0.007420826
56	0xbd9ce17a	-0.07660194
57	0xbd19b17c	-0.037522778
58	0xbcdefedb	-0.027221134
59	0xbda51403	-0.080604576
60	0x3d344d97	0.044019308
61	0x3ccbf08b	0.024894973
62	0x3cf4b781	0.029872658
63	0x3c53d459	0.012929046
64	0x3c37d3f5	0.011219968
65	0xbd238d58	-0.039929718
66	0xbd53e9ce	-0.051736645
67	0x3d2c063b	0.04199813
68	0xbd0661ce	-0.032808118
69	0x3d169446	0.0367625
70	0xbc816e3c	-0.015799634
71	0xbcd18066	-0.02557392
72	0xbc96c6bc	-0.01840531
73	0xbc5a4214	-0.013321418
74	0x3d822b66	0.06355934
75	0xbd92851f	-0.07154297
76	0xbd6a21e4	-0.057161227
77	0xbdc2f9c7	-0.095202975
78	0xbcb9cb3c	-0.022679918
79	0xbd806377	-0.062689714
80	0x3d25ef21	0.040511254
81	0xbc9f4e58	-0.019446537
82	0x3d13b78d	0.03606372
83	0xbd79f6ef	-0.06102651
84	0xbddca1bc	-0.10773036
85	0x3ca6c918	0.02035956
86	0xbd60ba0c	-0.054864928
87	0xbd835ffe	-0.064147934
88	0x3d0c4a0d	0.034250308
89	0xbd875497	-0.06607931
90	0xbd9b0d30	-0.07570875
91	0x3d2b7514	0.0418597
92	0x3cc1b73d	0.023646945
93	0xbd901097	-0.07034414
94	0xbd03fb44	-0.032222047
95	0xbd132399	-0.03592262
96	0xbc2263fe	-0.009911535
97	0x3d8bac8b	0.06820019
98	0x3b5e2108	0.00338942
99	0x3d5d2626	0.05399146
100	0x3c3e1bb8	0.011603288
101	0x3b6ceeb1	0.0036153013
102	0x3c6f448d	0.014603746
103	0x3d7dc101	0.06195164
104	0xbd657236	-0.056017123
105	0xbb038814	-0.0020070123
106	0x3ace14da	0.0015722767
107	0x3cffc48c	0.03122165
108	0x3d681f20	0.056670308
109	0xbd85119a	-0.06497498
110	0xbd5c00c7	-0.05371168
111	0x3d75bbf7	0.05999371
112	0xbaea1a8a	-0.0017860692
113	0xbd1df70e	-0.038565688
114	0x3ccbc9cd	0.0248765
115	0xbba931aa	-0.005163391
116	0xbc301171	-0.010746346
117	0x3d64e2cf	0.055880364
118	0xbd0c053e	-0.034184687
119	0xbcf9a736	-0.03047524
120	0x3d64fff7	0.05590817
121	0x3d62edca	0.055402555
122	0x3d3a7548	0.045522004
123	0x3d48c95c	0.049020156
124	0x3cace3dd	0.021104747
125	0xbc12d2f1	-0.008961425
126	0x3d57616b	0.05258314
127	0xbcbdc53a	-0.023165334

FC2.weight f4 [64, 128]
0	0xbdc226d1	-0.0948006
1	0x3dd7ff38	0.10546726
2	0xbcf4ebc1	-0.029897572
3	0x3ca2ea02	0.019886974
4	0x3d539323	0.051653992
5	0x3d9ec489	0.0775233
6	0x3c430c78	0.011904828
7	0xbc8f6369	-0.017503457
8	0xbd867a89	-0.065663405
9	0x3e215f9f	0.15759133
10	0x3e39610b	0.18103425
11	0x3de39bb0	0.111136794
12	0xbdfb94cf	-0.12284242
13	0xbce904f4	-0.028444745
14	0xbde037a0	-0.109481096
15	0x3e032309	0.12806334
16	0x3c702a32	0.014658498
17	0xbe1fa9bf	-0.15592097
18	0x3d3e27c0	0.046424627
19	0xbdecb448	-0.115578234
20	0xbe294476	-0.16530022
21	0xbc85fa0e	-0.016354587
22	0xbc9e2d0b	-0.019308588
23	0x3d45925e	0.04823529
24	0x3d841daa	0.064509705
25	0xbcb83a66	-0.022488784
26	0xbe739a73	-0.23789386
27	0xbe45dc5a	-0.19322339
28	0x3d230ea2	0.039808877
29	0x3e582c6e	0.21110699
30	0x3e154bc0	0.14579678
31	0x3e7aadf5	0.24480422
32	0xbdf327db	-0.11872836
33	0xbd5d9f74	-0.054107144
34	0xbe3a0d30	-0.18169093
35	0xbdebc4d0	-0.115121484
36	0xbd28c4dc	-0.041203365
37	0x3e229960	0.1587882
38	0xbd7d8110	-0.06189066
39	0x3e510df0	0.20415473
40	0x3e2071e7	0.1566845
41	0xbd0059b6	-0.031335555
42	0xbcee0a87	-0.029057754
43	0x3dc53b68	0.096304715
44	0x3ce6fc99	0.02819662
45	0xbd3afd13	-0.045651507
46	0xbd82b132	-0.063814536
47	0x3da8ed35	0.08248369
48	0x3e0e60e7	0.13904153
49	0xbc894a92	-0.01675919
50	0x3dc8a789	0.0979758
51	0xbc8b52d4	-0.017007269
52	0xbea45208	-0.32093835
53	0x3cb54947	0.022129668
54	0x3e21f15a	0.15814725
55	0xbe29f7ef	-0.16598485
56	0xbdaa565f	-0.08317255
57	0x3e445d0f	0.19176124
58	0x3deb87f7	0.115005426
59	0xbd925f94	-0.07147136
60	0x3cd00a19	0.02539544
61	0x3d9d2ac7	0.07674175
62	0xbda1d150	-0.07901251
63	0x3b04ab1c	0.002024359
64	0xbde1a2a0	-0.110173464
65	0xbd287037	-0.04112264
66	0xbc9d1d8c	-0.019179128
67	0x3e174cc8	0.14775383
68	0x3e08d149	0.13361086
69	0x3c884646	0.016635071
70	0x3dc6869d	0.09693644
71	0xbdc592fd	-0.096471764
72	0xbde84547	-0.113413386
73	0xbd14e3e9	-0.036350165
74	0xbe09e2b5	-0.13465388
75	0xbb9a301d	-0.0047054426
76	0xbdc30b1d	-0.09523604
77	0xbe053ed2	-0.13012245
78	0x3cafc074	0.021454073
79	0xbe1e7055	-0.15472539
80	0xbd816472	-0.063179865
81	0xbe3e4551	-0.1858113
82	0x3d8a9954	0.06767526
83	0xbe0dbdb6	-0.138419
84	0xbd3da623	-0.04630102
85	0x3e08aa6c	0.13346261
86	0x3d15ade7	0.0365428
87	0x3d203462	0.039112456
88	0xbda70431	-0.08155096
89	0x3d0e75d1	0.034780327
90	0x3c2e0328	0.01062087
91	0x3dadec13	0.08492293
92	0xbd405479	-0.04695556
93	0x3d2d7c00	0.042354584
94	0x3d67d696	0.05660113
95	0x3d89b115	0.06723229
96	0xbbb3d7df	-0.0054883803
97	0xbe09abef	-0.13444494
98	0xbd17cdf3	-0.037061643
99	0x3d822eb2	0.06356563
100	0xbe8831ea	-0.2660058
101	0x3d6785de	0.05652415
102	0x3d3975c5	0.04527833
103	0x3da694f7	0.081338815
104	0xbe3bfb26	-0.18357524
105	0x3e167fb0	0.14697146
106	0x3dce3c57	0.10070103
107	0xbd86a7fd	-0.0657501
108	0xbda36a97	-0.07979315
109	0x3d38e9f9	0.04514501
110	0x3c9fca87	0.019505752
111	0xbe0f194b	-0.13974492
112	0xbdf8e6e0	-0.12153411
113	0x3d38832f	0.04504698
114	0xbdeb4833	-0.1148838
115	0xbd260a07	-0.040536907
116	0xbdcc6244	-0.0997968
117	0x3c7a589b	0.015279914
118	0xbd043b24	-0.032282963
119	0x3d28e775	0.04123636
120	0xbd2fd0b4	-0.042923644
121	0x3d63739c	0.055530176
122	0x3ce17a0e	0.02752402
123	0xbd1353e2	-0.03596867
124	0xbdac93af	-0.08426606
125	0x3e4f3a7f	0.20237158
126	0xbdb3af6f	-0.08773696
127	0xbaea1344	-0.0017858525
128	0xbed76cf7	-0.4207532
129	0xbd5db0fe	-0.05412387
130	0xbd814e82	-0.06313802
131	0xbda3fe1c	-0.08007452
132	0xbe59b83c	-0.21261686
133	0x3e024f02	0.12725452
134	0x3de652cf	0.11246263
135	0xbd22ffcd	-0.039794732
136	0x3d9bdc92	0.0761043
137	0xbd068dae	-0.03284996
138	0x3d9fbc55	0.07799593
139	0x3daaeb64	0.083456784
140	0xbca58a0b	-0.020207426
141	0x3cdbf835	0.026851753
142	0x3dbe1b08	0.092824996
143	0xbd561220	-0.05226338
144	0xbeb2bd2c	-0.34909952
145	0xbe1edf7d	-0.15514942
146	0xbd45477a	-0.04816387
147	0xbd310104	-0.04321386
148	0xbd8706e4	-0.06593111
149	0xbea1a125	-0.31568256
150	0xbe0e5945	-0.13901241
151	0x3c826f81	0.01592231
152	0xbc3f9b15	-0.011694689
153	0xbd3dc369	-0.046328936
154	0xbd97022a	-0.0737346
155	0x3d09c5d4	0.03363593
156	0xbe3d7c34	-0.18504411
157	0xbee27e8b	-0.4423717
158	0xbc95c41c	-0.018281989
159	0x3de58589	0.112071104
160	0x3baec562	0.0053335885
161	0xbd9fd2ef	-0.07803904
162	0xbdfb7888	-0.12278849
163	0x3daab8ed	0.08336053
164	0xbd047b6f	-0.032344278
165	0xbac53466	-0.0015045523
166	0x3d46f2f5	0.048571546
167	0x3be74b2d	0.007058522
168	0xbdaf8993	-0.08571162
169	0x3d1be442	0.03805948
170	0xbdeddde8	-0.11614591
171	0x3d007418	0.031360716
172	0x3d3218f7	0.04348084
173	0x3b5b3f3f	0.0033454446
174	0x3d309b8f	0.043117102
175	0x3b1a9ff2	0.002359387
176	0x3e099983	0.13437466
177	0xbe24799b	-0.16062014
178	0x3c611a77	0.01373922
179	0xbe688801	-0.22708131
180	0xbe33e0b7	-0.1756619
181	0x3dc46521	0.09589601
182	0xbb92453a	-0.004463819
183	0xbe54405f	-0.2072768
184	0xb99fe160	-0.0003049476
185	0xbe057adf	-0.13035153
186	0xbe0d6a68	-0.13810122
187	0x3e05164d	0.12996788
188	0x3cbc9825	0.023021767
189	0xbd9a44fe	-0.075326905
190	0x3b577160	0.0032873973
191	0xbeaf0007	-0.34179708
192	0x3cca1ef0	0.024672955
193	0x3d455cc5	0.048184175
194	0xbced4900	-0.028965473
195	0xbb0cd85b	-0.0021491263
196	0xbd8ea142	-0.06964351
197	0x3e73250a	0.23744598
198	0x3de18b73	0.11012926
199	0xbe494d32	-0.19658354
200	0x3d3956da	0.045248844
201	0x3d831a03	0.06401446
202	0xbd22f8cd	-0.039788056
203	0xbe8c991f	-0.27460572
204	0xbe046e2a	-0.12932649
205	0xbe9d7ad2	-0.30757767
206	0xbe061e8c	-0.1309759
207	0xbba2723d	-0.004957466
208	0x3e344de8	0.17607844
209	0x3c8dc98a	0.017308015
210	0xbcd01d03	-0.025404459
211	0x3da34dfa	0.07973857
212	0xbed8e567	-0.4236252
213	0x3dff4112	0.12463583
214	0x3d1886c8	0.037237912
215	0xbda455eb	-0.080242
216	0xbeaf0c48	-0.34189057
217	0xbdced0e9	-0.1009844
218	0x3dc89409	0.097938605
219	0xbc6f687f	-0.014612316
220	0xbe49fca9	-0.19725288
221	0xbe2e6d9b	-0.17033999
222	0x3e343961	0.17600013
223	0xbcc44278	-0.023957476
224	0xbe0de421	-0.13856556
225	0xbdb20402	-0.08692171
226	0x3d9816c1	0.07426215
227	0xbca389f0	-0.019963235
228	0x3d8794d6	0.06620185
229	0xbe627d73	-0.22118168
230	0x3c41c368	0.011826374
231	0xbe83fe34	-0.2577988
232	0xbdb026c8	-0.08601147
233	0xbd282586	-0.04105141
234	0xbe31890c	-0.17337435
235	0xbe5690dc	-0.20953697
236	0x3e420b99	0.18949737
237	0xbeb33d60	-0.35007763
238	0x3d52bb8b	0.051448386
239	0x3c035ce5	0.008017753
240	0xbcbc2841	-0.022968413
241	0xbe959383	-0.29214105
242	0xbe1d018f	-0.15332626
243	0xbe17f3c8	-0.14839089
244	0xbea130a7	-0.3148243
245	0x3d6210b6	0.055191718
246	0xbdd99e3d	-0.10625885
247	0x3dc410b0	0.095734954
248	0x3d20c502	0.03925038
249	0xbdeb352e	-0.114847526
250	0xbe6d45cd	-0.23171158
251	0x3dfda7b8	0.123855054
252	0x3cf079e8	0.029355004
253	0x3cd54981	0.026036026
254	0xbd2ea163	-0.04263438
255	0xbd09b6b5	-0.03362151

FC2.bias f4 [64]
0	0xbd3c5817	-0.045982447
1	0x3b41ae29	0.002955327
2	0xbe1bae8b	-0.15203302
3	0xbb905138	-0.0044042133
4	0xbda6b1a9	-0.08139355
5	0xbc50df61	-0.01274857
6	0x3d92d68c	0.07169828
7	0x3d8a0a81	0.06740285
8	0xbda09bf4	-0.07842246
9	0x3c25c599	0.010117912
10	0x3db33af2	0.08751477
11	0xbe0b70ad	-0.13617201
12	0x3da6985e	0.081345305
13	0xbb6cf8c0	-0.0036159009
14	0x3c38a966	0.0112708565
15	0xbde07dd9	-0.109615035
16	0xbdb3f9c2	-0.08787872
17	0xbda71ba4	-0.08159569
18	0xbd982388	-0.07428652
19	0xbda13ee2	-0.07873322
20	0xbcd2be35	-0.025725463
21	0x3d296795	0.04135855
22	0xbdbded5e	-0.0927379
23	0xbd251643	-0.040304434
24	0xbda2ced4	-0.079496056
25	0xbc456966	-0.012049055
26	0x3cc45817	0.023967786
27	0xbe154830	-0.14578319
28	0xbda1c5fe	-0.07899092
29	0xbd877c9b	-0.066155635
30	0xbcf49faa	-0.02986129
31	0xbd58ebae	-0.052959137
32	0xbd9161f8	-0.07098764
33	0xbcf84196	-0.030304711
34	0x3c90e006	0.017684948
35	0x3db66327	0.089056306
36	0xbc6081e9	-0.013702848
37	0xbe5ab8db	-0.2135958
38	0xbc97fc61	-0.01855296
39	0xbc2ceb3d	-0.010554132
40	0x3dc89580	0.0979414
41	0xbe175985	-0.14780243
42	0x3b50e9e0	0.0031877682
43	0xbd39b294	-0.04533632
44	0x3d1cb60c	0.03825955
45	0xbd9f7a00	-0.077869415
46	0x3c670689	0.014100679
47	0xbd604971	-0.05475754
48	0xbe174429	-0.14772095
49	0xbde98860	-0.114029646
50	0x3ce6c9f1	0.028172465
51	0xbe197484	-0.14985853
52	0xbd853ac9	-0.06505353
53	0xbdadcab2	-0.08485927
54	0xbcb119fd	-0.021618837
55	0xbdd0e5fa	-0.102001145
56	0xbd9b9001	-0.07595826
57	0xbc5dbc7e	-0.01353371
58	0xbd6773e7	-0.056507017
59	0xbde0754d	-0.10959873
60	0xbe05125b	-0.12995283
61	0xbd02df44	-0.031951204
62	0x3e035795	0.12826379
63	0x3d02692e	0.03183859

FC3.weight f4 [2, 64]
0	0xbc47b021	-0.0121879885
1	0xbe6f08cf	-0.23343204
2	0xbe248050	-0.16064572
3	0xbdf2e18c	-0.11859426
4	0xbe956bf4	-0.29183924
5	0xbd3c57ae	-0.045982055
6	0x3dee7ffa	0.11645503
7	0xbc9fd5fe	-0.01951122
8	0x3e07a92c	0.13248128
9	0xbde42ddd	-0.1114156
10	0x3e05181d	0.1299748
11	0xbe91370a	-0.28362304
12	0xbdf7d410	-0.121009946
13	0xbd881925	-0.06645421
14	0xbe114649	-0.14186968
15	0xbe33aa73	-0.1754549
16	0x3e0702f7	0.13184725
17	0xbe23107a	-0.15924254
18	0xbc55bf4f	-0.0130461
19	0xbdc85b66	-0.09783058
20	0x3e059fe8	0.1304928
21	0xbe5a7124	-0.21332222
22	0xbed1abea	-0.40951473
23	0x3dcd28e5	0.10017566
24	0xbe5a86b1	-0.21340443
25	0xbddf9a24	-0.10918072
26	0xbcd201f1	-0.025635691
27	0xbe9a77eb	-0.30169615
28	0xbdc7880b	-0.09742745
29	0x3d8a6dec	0.06759247
30	0x3e604a61	0.21903373
31	0x3dd783d3	0.1052319
32	0xbdf6ec9f	-0.12056851
33	0x3e5e3d06	0.21702966
34	0xbe39d7a0	-0.1814866
35	0xbdfff28c	-0.12497434
36	0x3e0708c3	0.13186936
37	0xbdbb2f3f	-0.09139871
38	0x3da4d8ba	0.0804915
39	0xbb320f62	-0.0027169813
40	0x3dcdd34f	0.100500695
41	0x3e3161ab	0.17322414
42	0xbdfdb811	-0.123886235
43	0xbdf64f58	-0.12026852
44	0xbda9ed81	-0.082972534
45	0x3e6ae90c	0.22940463
46	0x3dce61df	0.10077261
47	0x3dbdb9ae	0.09263931
48	0x3ea48141	0.32129863
49	0x3e97a0bf	0.29614827
50	0xbe07125d	-0.13190599
51	0xbd2872d4	-0.041125134
52	0xbe6acf1b	-0.22930567
53	0xbdd370b6	-0.10324232
54	0x3db8ea47	0.0902906
55	0x3de4745f	0.111550085
56	0x3d853636	0.065044805
57	0x3e7efe35	0.2490166
58	0x3dcd6239	0.100285
59	0xbd6a0ad0	-0.057139218
60	0x3e48d2a0	0.19611597
61	0x3e27c940	0.16385365
62	0xbd56a24f	-0.052400883
63	0xbdd37f24	-0.103269845
64	0xbdcd60ce	-0.1002823
65	0xbc6428b7	-0.013925723
66	0xbdae8951	-0.08522285
67	0x3d493ed7	0.049132194
68	0x3e3cd486	0.18440446
69	0x3e80a952	0.2512918
70	0xbc77208d	-0.015083444
71	0x3dce5159	0.100741096
72	0x3d9391cc	0.07205543
73	0x3e079b21	0.1324277
74	0x3cb910fb	0.022591105
75	0x3e777259	0.24164714
76	0xbd213204	-0.03935434
77	0x3dccf80d	0.100082494
78	0xbdc909ba	-0.09816308
79	0xbcef4df8	-0.029211983
80	0xbe119137	-0.14215551
81	0x3d21ad8a	0.03947214
82	0x3e2942d2	0.16529396
83	0xbe3833f2	-0.17988566
84	0x3d0bdd1b	0.03414641
85	0x3de22f08	0.11044127
86	0xbe8e60bd	-0.2780818
87	0x3dfe863c	0.12427947
88	0x3df8faf3	0.1215724
89	0x3e63b16b	0.22235648
90	0x3e046475	0.12928946
91	0x3e22b6af	0.15890001
92	0x3e2c6d9c	0.16838688
93	0xbdb98329	-0.0905822
94	0x3e0ec4db	0.13942282
95	0xbd5d09b5	-0.053964335
96	0x3de6096b	0.11232265
97	0x3d883075	0.066498674
98	0xbb1f8284	-0.0024339268
99	0xbb94f109	-0.004545335
100	0x3e4ab389	0.1979505
101	0xbe307492	-0.17231968
102	0x3e051504	0.12996298
103	0x3e602702	0.2188988
104	0xbd565ca5	-0.052334446
105	0x3d0a5aea	0.03377811
106	0xbdbbc168	-0.09167749
107	0xbe08b5e1	-0.13350631
108	0x3e0fb915	0.14035447
109	0x3c3c8aa5	0.011507665
110	0x3de3ceb6	0.11123411
111	0xbdb9de27	-0.09075575
112	0xbd3c7bc6	-0.046016477
113	0xbc379c7c	-0.011206742
114	0xbd934fb9	-0.0719294
115	0x3e65b18b	0.22431009
116	0x3d939c7c	0.072075814
117	0xbd6d869b	-0.057989698
118	0xbdd58eac	-0.10427603
119	0xbe024bbb	-0.12724201
120	0xbe27014e	-0.16309091
121	0xbd79bf92	-0.06097371
122	0xbd53f79e	-0.051749818
123	0x3e54141c	0.20710796
124	0xbc4df310	-0.012570158
125	0xbd18211c	-0.03714095
126	0x3e32e0b7	0.17468534
127	0xbbd5add4	-0.006520966

FC3.bias f4 [2]
0	0xbbcc9b49	-0.0062440974
1	0x3c97f62b	0.01855
