hcanet-3.27_maddpg_old/data/test_model/model_1700.pt (torch, 268587 bytes, 16 tensors)

FC1.weight f4 [128, 180]
000000 d9 c3 81 bd 72 c0 34 3d 86 37 0c 3d f0 6c 02 3d
       -0.06336183 0.044128843 0.03423264 0.031842172
000010 a5 7c 1e bc e0 9b c2 bd b0 e3 af bd 57 50 d3 3d
       -0.009673272 -0.09502387 -0.0858835 0.10318058
000020 b9 e2 1d bd 63 1f 5c bd 1f a2 df 3d 10 6e a4 bd
       -0.038546298 -0.05374087 0.10919594 -0.08028805
000030 df ed 37 3d 7a 5a f2 bc d2 b9 ac 3b 5c a5 f9 bb
       0.044904586 -0.029584158 0.005271175 -0.0076185893
000040 da 7f 75 3d 1d e6 01 be 36 f9 88 3d 68 44 4d 3d
       0.059936382 -0.12685438 0.06688158 0.050114065
000050 b4 3c 59 3c 51 06 2f bd 27 08 57 3d 32 d1 ac 3d
       0.013259102 -0.042730633 0.05249801 0.08438338
000060 d3 80 35 3d 02 df ed bd b7 72 3d 3c 09 03 28 be
       0.04431231 -0.11614801 0.011562995 -0.16407408
000070 cb e9 66 be 75 3e 4e be 12 e4 ef 3d 55 a6 0e 3d
       -0.22550122 -0.20141013 0.11713423 0.034826595
000080 47 91 ba 3d c2 90 6a 3d 6c af c3 3d b3 b9 6e bd
       0.09109741 0.057266958 0.095549434 -0.058282565
000090 ac 00 69 be 86 99 a5 bd fa f7 04 be 79 f1 04 be
       -0.22754163 -0.08085923 -0.1298522 -0.1298274
0000a0 8f ef 81 3d 38 10 b2 3d 7b 8b b4 3d a1 b0 e5 bc
       0.0634452 0.086945 0.08815666 -0.028038325
0000b0 03 a1 42 3d 5d 76 6d 3e bd 10 1b be bc f7 bc bd
       0.047516834 0.23189683 -0.15143104 -0.09226939
0000c0 98 56 c5 3d e6 00 a2 3d 86 ba 81 3c 90 13 86 bd
       0.09635657 0.079103276 0.015836012 -0.065467
0000d0 7f e3 02 3d 67 6a 0d be 05 6d c4 bd df 8a dc 3b
       0.03195524 -0.1381012 -0.09591106 0.006730422
0000e0 dd 8c 4f 3d 02 20 c6 bc e3 a4 3b 3d ca fa 14 3d
       0.050671447 -0.024185184 0.045811545 0.036371984
0000f0 20 da a6 bd 04 04 dd bd 92 14 23 3c 35 10 88 3d
       -0.08147073 -0.107917815 0.009953635 0.06643716
000100 18 96 cc 3d bf 0d 8d bd 2d 51 93 bd 35 7f 85 bd
       0.099895656 -0.068873875 -0.071932174 -0.065184034
000110 62 44 ef bd 8e 59 e3 bd b6 a6 71 3c e9 57 81 3d
       -0.11682965 -0.111010656 0.01474922 0.06315596
000120 98 98 63 bd c4 97 31 3d 1f 1a e3 3c a8 37 99 3c
       -0.055565447 0.043357626 0.027722416 0.018703297
000130 43 ed e3 3b 29 d6 a2 ba 7e e8 47 bc c1 b7 ad 3d
       0.006955774 -0.0012423444 -0.012201427 0.08482314
000140 be 06 85 3d 4a 51 07 bd 59 e1 1c 3d 80 3d 53 3d
       0.064954266 -0.033036508 0.038300846 0.051572323
000150 4d d9 8c 3d 56 b4 97 3d ee b7 3a 3c 7e df 85 bd
       0.06877384 0.07407443 0.011396391 -0.065367684
000160 e8 be c4 bc 1b 89 82 3d 29 20 19 3d c8 e9 8b bd
       -0.024016812 0.06373807 0.037384186 -0.068316996
000170 d2 0e a0 bd a2 7d 05 bd b6 30 ac 3d 29 03 0b 3e
       -0.07815327 -0.032590516 0.084077284 0.13575424
000180 02 bc 61 bd 0f a1 e4 3c 3b 96 98 3d ef 01 c8 bc
       -0.05511094 0.02790883 0.07450529 -0.024414985
000190 43 28 c3 3d dd 65 2b 3d 79 ee 65 bd cc 59 19 3d
       0.09529164 0.04184519 -0.05613563 0.037439153
0001a0 84 1e 12 3d 33 7d 55 bd 62 7d 29 bd 34 78 5f 3d
       0.035673633 -0.052121352 -0.04137934 0.054557994
0001b0 c1 71 3a 3d 77 f3 e8 3c 98 a4 5b 3d de 0e df 3c
       0.04551864 0.028436406 0.053623766 0.027228769
0001c0 b5 8f e8 3b 43 b2 42 bd e2 7a 9e 3c 94 e2 76 bd
       0.0070972093 -0.047533285 0.019345704 -0.060274675
0001d0 53 cb 95 3d 9c 8b 2a bd 15 46 56 bd 6f 35 97 3d
       0.07314172 -0.041637048 -0.05231293 0.073832385
0001e0 6a 34 09 bc 3a 97 81 bd e0 fe 87 bd 23 bb e9 3c
       -0.008374313 -0.06327672 -0.066404104 0.028531617
0001f0 79 4e 35 bd 94 89 91 3d 71 11 c5 3c 0e 2c 96 3d
       -0.04426429 0.07106319 0.024056168 0.073326215
000200 75 04 c8 bc 09 30 52 bd 88 2d 16 bd 39 a0 7c 3d
       -0.024416188 -0.05131534 -0.036664516 0.061676238
000210 ab ab ec bc 7e 48 85 bd 7b d2 7f 3d 33 64 04 3d
       -0.028890451 -0.065079674 0.06245659 0.03232212
000220 b9 ea 8c 3d 0b df 49 3d cc f6 bf 3b 6c ce 6b bd
       0.06880707 0.049284976 0.005858278 -0.057569906
000230 96 88 53 bd 49 96 35 bd 90 15 3d bd 4d 37 83 bd
       -0.05164393 -0.044332776 -0.04616314 -0.06407032
000240 95 24 50 3d a8 4c 58 3d c6 ba 56 bd 84 ef 24 bc
       0.050816137 0.05280748 -0.052424215 -0.010066871
000250 46 b4 85 3d 9a fc f3 3c 7d f0 a9 bc 03 54 c9 bc
       0.06528525 0.029783536 -0.020744557 -0.024576193
000260 8a d0 08 3d a6 6f 0c bd f0 3d 7e bd 13 c0 a2 bc
       0.033402003 -0.034286164 -0.062070787 -0.019866979
000270 27 67 45 3d b0 79 ef bc 9a f7 51 bd 52 5b dc bc
       0.048194077 -0.02923283 -0.051261522 -0.026899014
000280 e1 38 e4 bc 92 73 5e bd b4 b8 33 ba f3 9e 1d 3d
       -0.027859153 -0.054309435 -0.0006855831 0.038481664
000290 20 f1 8f 3d cf f3 ac 3c 4c 39 75 3d 70 31 f6 3c
       0.07028413 0.02111235 0.059869096 0.03005287
0002a0 8e 43 97 bc 62 a8 64 bd 2c 97 98 bc 62 8a 14 3d
       -0.01846483 -0.055824645 -0.018626772 0.036264785
0002b0 94 e0 86 3c c2 e8 9c bc a5 a2 1b bb 2e 75 d6 3c
       0.01646451 -0.019153956 -0.0023748067 0.026178923
0002c0 4e 31 9e 3d ec e6 92 3d cb 40 02 3c 6a 49 11 3c
       0.07724248 0.07172951 0.007950018 0.008867601
0002d0 da 09 21 3d ee 69 fb 3d 96 18 8c 3d 6d 4e 87 3d
       0.039316036 0.12276064 0.06840627 0.066067554
0002e0 4c 49 67 3d 22 21 06 be 39 a8 cc bd 83 b9 a6 bd
       0.056466386 -0.13098577 -0.099930234 -0.08140852
0002f0 5c ff 0d bc 63 57 de 3c c5 19 80 be 09 46 17 3c
       -0.008666839 0.027141279 -0.2501966 0.009233006
000300 26 1a ee bd 8d 22 30 3d b5 8a 50 bb 77 03 8c 3c
       -0.11626081 0.0430017 -0.0031820957 0.017091496
000310 c4 9c 85 3d c2 69 3f bd 85 c3 cc 3c aa 15 98 bc
       0.06524041 -0.046731718 0.024995575 -0.018565018
000320 c2 87 80 3d 21 5a 28 3c 45 a7 9e 3d 82 7d bc bc
       0.06275894 0.010275395 0.07746748 -0.023009066
000330 ef e5 31 3d 11 17 b7 bd 56 85 93 bd f9 92 13 3d
       0.043432172 -0.089399464 -0.07203166 0.036028836
000340 45 c0 3b 3e 0a 52 62 3d 4f 5c ca 3c 10 3b 31 3c
       0.18335064 0.05525402 0.02470222 0.010817304
000350 e9 49 c1 bd 27 ff 61 bd d1 23 1e bc e6 eb 55 bd
       -0.09437925 -0.055174973 -0.009652094 -0.052226923
000360 7d b9 3f 3d f2 54 a8 3d 1f ab 72 3d 98 28 74 bd
       0.046807755 0.08219327 0.059245225 -0.059609026
000370 18 c7 02 3d 46 4e e3 bd 6a ec 94 3c 72 4f c3 3d
       0.03192815 -0.11098914 0.018179137 0.09536637
000380 1d b2 4e 3c cc c1 4b 3c 4b 8e bd bc 44 54 d8 3c
       0.012615708 0.0124363415 -0.02313914 0.026407368
000390 21 7b ee 3c 36 ca 3a 3c 62 d3 09 3e 84 5d e8 3d
       0.029111447 0.01140075 0.13459542 0.11345962
0003a0 5b 68 1e 3d 41 a1 11 bc 71 0c 97 3b 97 32 80 bc
       0.03867374 -0.008888544 0.0046096374 -0.015649123
0003b0 47 0d 07 3e 8b 00 0e 3e a2 89 96 3d 0b 38 de bc
       0.13188659 0.13867395 0.0735047 -0.027126333
0003c0 6f ad cf 3c 7e f5 0d 3e 2b 08 a8 3d 97 70 82 3d
       0.025351254 0.13863179 0.08204683 0.06369131
0003d0 5c 13 a0 3d eb 6a a4 3d 88 4e e3 bc 78 fd 8c bc
       0.078161925 0.080282055 -0.027747408 -0.017210707
0003e0 b6 8d ed 3d 55 28 1e 3e 2f 3b 38 bd c7 76 66 3d
       0.11599295 0.15445073 -0.044978317 0.05626562
0003f0 7d 37 9c bd 22 c9 33 3d c4 e2 29 3d 9f 5e 5b bc
       -0.07627771 0.043892987 0.041476026 -0.013389259

FC1.bias f4 [128]
000000 48 da 79 3d 14 78 05 bc 07 6b a8 bd a9 69 9b bd
       0.060999185 -0.008146305 -0.08223539 -0.075885125
000010 5c dd c2 bc 84 4f 31 bd c0 ce 30 bd 28 7c ac bd
       -0.023787193 -0.043288723 -0.043165922 -0.084221184
000020 6f e1 a4 3c ad 69 85 3d 43 ce 36 3d d2 ff 92 bd
       0.020127026 0.06514297 0.0446303 -0.071777
000030 bf b5 11 bc 53 ea 8b bd c6 79 16 bc c2 b7 93 bb
       -0.008893429 -0.06831803 -0.0091843065 -0.0045079896
000040 49 0a 34 3d 0f 73 aa bc 82 3c 02 3d a9 ec 7f 3d
       0.04395512 -0.020806817 0.031795986 0.062481556
000050 2c 41 43 3d ce 24 a5 bc 55 72 1a bd 0b 9e 0b bd
       0.047669575 -0.020159151 -0.03770669 -0.03408627
000060 5f 07 74 3c d8 ab ee bc 1d 5c 82 3d f3 a5 74 bd
       0.0148943355 -0.029134676 0.063652255 -0.059728574
000070 83 b5 f3 ba 43 8f 62 bd 5d 5c d0 3c e8 77 9c bd
       -0.0018593523 -0.055312406 0.025434667 -0.07640058
000080 b0 26 52 bd a0 21 8e 3d fe 7f 6d bd ea b1 27 3d
       -0.051306427 0.06940007 -0.05798339 0.040941156
000090 71 2e 2a bd 0b 4d 2d bd b6 6a 20 3d 8c 57 60 3d
       -0.041548196 -0.042309802 0.039164267 0.05477099
0000a0 21 b2 3d 3d c9 8e 7c bb dc fb 82 bb ca 6d 54 3d
       0.046312455 -0.0038537255 -0.003997309 0.051862516
0000b0 7e de 02 3d 20 39 fa bc 89 64 9c bd 23 f7 6b 3d
       0.031950466 -0.030544817 -0.07636363 0.057608735
0000c0 61 86 9d 3c 4f 10 93 bd 95 e5 77 bd 86 89 35 bd
       0.019229116 -0.07180845 -0.06052168 -0.044320606
0000d0 7e 51 01 3d 0e 76 84 bd 8b 8e 38 3d 79 a3 4f 3b
       0.031571858 -0.0646783 0.045057815 0.003168313
0000e0 49 1a 9c bc f9 88 ef bc cc a7 8f 3d d4 ff 6e 3b
       -0.019055502 -0.029240118 0.070144266 0.0036468403
0000f0 08 a3 2f 3d aa c6 ad ba f2 42 fe 3c ce 87 4d bc
       0.042880088 -0.0013258059 0.031037781 -0.012544585
000100 99 e2 16 bc 8a dc 8e bc d4 6f f2 bb fc 4d 24 bd
       -0.0092092985 -0.017439146 -0.007398585 -0.040113434
000110 7d 46 46 bd 78 7b c9 3c 1f 1f ac bd ae 28 30 bd
       -0.048407067 0.024595007 -0.084043734 -0.043007545
000120 67 d5 a2 3c 73 09 f8 3c 88 62 08 bb 88 40 7e 3d
       0.019877149 0.030277943 -0.0020810682 0.06207326
000130 a9 24 a4 bd 2f 4c e7 bc 77 cc a4 3c c6 40 82 3d
       -0.08014805 -0.02823457 0.020117028 0.06360011
000140 0b 6e 39 bc 17 b3 04 3d 1b e6 17 bd 00 04 13 3d
       -0.01131774 0.032397356 -0.03708468 0.035892487
000150 a2 75 93 3b ca e8 1a 3c bf b4 3e bd 5c 8b a2 bc
       0.004500107 0.009454915 -0.04655909 -0.019841842
000160 93 e8 78 bb 3b 2c 83 3d 59 a6 d7 bc d5 0c 77 3d
       -0.0037980422 0.06404921 -0.026324438 0.060314972
000170 b4 bf 1e bd 93 d0 94 3d d9 5e 8a 3d 5d f0 09 3d
       -0.03875704 0.07266345 0.06756372 0.033676494
000180 e6 d6 85 bd b4 61 39 3d 87 ef 5c bd dd 7c 67 3d
       -0.06535129 0.045259193 -0.05393937 0.056515563
000190 c5 d9 8b 3d 5b e0 2d bd 3d ba 8a 3d 74 33 30 3d
       0.068286456 -0.04245029 0.067738034 0.04301782
0001a0 75 19 03 bd 3e be 33 3c f5 e1 3f bc fe 75 de 3c
       -0.0320067 0.01097065 -0.011711587 0.027155872
0001b0 28 15 c3 bc 12 f4 66 bd c8 28 31 bc 73 a4 03 bc
       -0.023813799 -0.056385107 -0.010812946 -0.008034813
0001c0 4c e4 e5 3c a4 29 53 3d aa ce ae bc 3f e9 9e 3b
       0.028062962 0.051553383 -0.02133878 0.0048495824
0001d0 31 91 95 3d 38 4a 14 bd 37 d9 5f 3d ad d3 39 bd
       0.07303084 -0.036203593 0.05465051 -0.045367885
0001e0 56 ad 8d b7 98 4b f5 3c b5 18 45 bb 9d af f5 bc
       -1.6889226e-05 0.029943272 -0.003007454 -0.029990966
0001f0 4b a7 bf bc 53 3e 57 3d 99 af 5f bd 04 7a 86 bd
       -0.023395201 0.05254967 -0.054610822 -0.065662414

FC2.weight f4 [64, 128]
000000 01 f4 06 bd 5c bd 20 bd b0 ee 4a 3d 50 7b 83 bd
       -0.032947544 -0.039243087 0.049544036 -0.06420004
000010 6f 43 a6 bd ed 39 a5 bc d8 c8 09 3d ec 39 35 be
       -0.08118331 -0.020169223 0.033638805 -0.17697877
000020 f5 dc 11 3e e8 a5 85 3d 8c 61 44 bd cd 66 46 3b
       0.14244445 0.06525785 -0.04794459 0.0030273676
000030 f5 f0 9b 3a 69 68 6a 3d e5 f3 5f bc 46 9a 23 3d
       0.0011897372 0.05722848 -0.013668989 0.03994205
000040 0d e8 6c be a1 55 83 bc a5 5e 16 be 97 27 27 be
       -0.23135395 -0.016032042 -0.14684542 -0.16323696
000050 1d 47 ce 3b 1b f1 e3 bd 8a da e8 bc 1e 2b 87 3d
       0.0062950985 -0.111299716 -0.02842452 0.06600021
000060 c5 bd 86 3c 99 f1 89 be df e4 a3 bd 82 b1 46 3d
       0.016447911 -0.26942137 -0.08002638 0.04850913
000070 6e f4 55 3d 65 13 85 bd 40 51 6a 3d 3d 16 ce 3b
       0.05223506 -0.0649784 0.057206392 0.006289272
000080 24 0e 55 3d aa f7 ce bd 2c f1 99 bc cf 1e fd bb
       0.05201544 -0.10105832 -0.018791758 -0.00772462
000090 54 f7 d1 3d 56 ba 93 bb 95 cf 75 be bc 75 09 be
       0.10252252 -0.004508297 -0.24004968 -0.13423818
0000a0 fe e4 39 3d c8 e0 f3 bc ba ec 5b bd 33 48 b5 bc
       0.0453844 -0.02977027 -0.053692557 -0.022129154
0000b0 b3 e7 01 bc 0d de 28 be e5 ed 95 bd 2b 79 63 3e
       -0.007928777 -0.16490956 -0.073207654 0.2221419
0000c0 f7 3d ed 3b cc a4 9b 3c a9 a9 a9 3a 84 76 a1 3d
       0.007240053 0.01899948 0.001294424 0.07883933
0000d0 33 ec 0e 3e 9f fd 7c bc 0e a5 1e bd b5 13 97 bd
       0.1395729 -0.015441327 -0.038731627 -0.07376806
0000e0 0c 6d cc bb 37 de 14 bd d2 de 63 3d 27 53 1b bc
       -0.0062385853 -0.036344733 0.05563242 -0.009480274
0000f0 30 26 37 3d 4b 24 1c bd f6 f1 f8 bd f7 72 3e 3d
       0.044714153 -0.03812055 -0.121555254 0.046496358
000100 03 21 b4 bd 32 34 7f 3d ee 6d 54 3e 42 75 29 3d
       -0.08795359 0.062305637 0.2074506 0.04137159
000110 2c 2a 9f 3d 20 e0 65 bd ff b9 14 bd e7 bf d9 bd
       0.077717155 -0.056121945 -0.036310192 -0.106323056
000120 8d 2a 61 3d 2c 63 63 3d 1c e7 cb bc a7 ad 40 3c
       0.05497222 0.0555145 -0.024890475 0.011760152
000130 cd 36 07 3d 7e 99 d0 bb e8 1b 0b 3e 3e 5d 04 3e
       0.033011246 -0.006365954 0.13584864 0.12926194
000140 9e 34 8a 3b e3 68 ab 3d 3e bb 60 bd ab fb 08 3e
       0.0042176982 0.08369615 -0.054866068 0.13377254
000150 f0 4e 26 3d d6 85 55 bd 37 f6 07 bd b1 45 a4 bc
       0.040602624 -0.05212959 -0.033193793 -0.020052763
000160 72 f5 ec bd bc 96 75 bc d0 66 56 3d 0f b4 17 3d
       -0.115702525 -0.014989551 0.052344143 0.03703695
000170 ad dd 5d 3d e2 cb 35 3d 8c 76 4c be a7 4f 81 3b
       0.054166485 0.04438389 -0.19967097 0.003946263
000180 4f 3b 89 3d 48 31 89 3d 99 81 96 bc a3 da 8f bd
       0.06700765 0.06698853 -0.018372344 -0.070241235
000190 3a 16 a0 3c 9e 3a 10 3d 3a 06 4d bd 86 04 40 3d
       0.019541848 0.03521215 -0.050054766 0.046879314
0001a0 3a 53 aa bd 01 24 4f bd 96 8d b2 3c 8d 5e d4 bd
       -0.083166555 -0.050571445 0.021796029 -0.10369597
0001b0 c8 d0 b0 bd 28 56 18 be d1 64 5e bd 9d ad 24 be
       -0.08633572 -0.14876616 -0.054295365 -0.16081853
0001c0 80 2a b0 bd 39 5e 1a 3e 05 46 bf bd 1a 08 40 3d
       -0.08601856 0.15075006 -0.09339527 0.046882726
0001d0 9e fc 91 3d 3b 4f 84 3d af 29 5f bd 3b f5 01 3c
       0.07128261 0.064604245 -0.054483112 0.007932003
0001e0 69 12 07 bd f9 0c a9 ba e3 e3 28 be d4 96 3c 3a
       -0.03297654 -0.0012897543 -0.16493182 0.0007194106
0001f0 d1 d6 0c 3c 87 80 bb bd e0 ef 92 bd 5c b0 0d 3e
       0.008596138 -0.09155374 -0.07174659 0.13836807
000200 c8 a9 33 bd eb a5 8e bd f5 61 3a 3d c3 05 0b 3d
       -0.043863088 -0.0696524 0.045503575 0.03394104
000210 9f f8 93 bd 4b a7 b5 bc 7c db c8 3c 4b 9b b7 3d
       -0.07225155 -0.022174498 0.02451872 0.08965167
000220 26 d6 58 3d b8 29 d2 3d 53 85 d4 bd 9b ea 14 bc
       0.052938603 0.102618635 -0.10376992 -0.009089137
000230 b1 a4 7c 3d 85 93 80 bd 24 fe 69 3d fe 17 ff bd
       0.0616805 -0.06278137 0.057127133 -0.12455748
000240 8a 2b 94 bc 9a 81 a1 3d 8e 70 46 3d 9d 3e fd bd
       -0.018087167 0.07886048 0.048447184 -0.12365458
000250 e3 b7 86 bd 2a 46 c1 bb cf 9d 0d ba bf 46 69 3c
       -0.06578042 -0.005898257 -0.00054022385 0.014238059
000260 a0 cc 43 3d 49 98 09 bd 14 ae 40 3b 07 61 8a bd
       0.047802567 -0.033592496 0.0029400634 -0.06756788
000270 f9 05 fb 3c 04 4c b2 3d d2 84 96 bd f0 4e ca bd
       0.030642496 0.08705905 -0.07349552 -0.098783374
000280 63 a9 52 3d 79 ad 81 3d b2 e9 79 bc 5d ff 3b bd
       0.05143107 0.063319154 -0.015253471 -0.04589783
000290 64 07 86 3d a0 e6 04 3e 06 d7 70 3d 86 db d8 bd
       0.065443784 0.12978601 0.058798812 -0.10588746
0002a0 bf d0 78 3d 81 e8 00 3d 97 28 c2 bd 3e 07 b3 bd
       0.06074595 0.031471733 -0.09480398 -0.08741616
0002b0 fe d5 23 3d ce ba 4b 3b ec eb 8d 3d bb a6 d7 3d
       0.039999 0.0031086686 0.06929764 0.10529848
0002c0 84 fc a9 3d a7 a3 02 bd 6c 39 49 be 49 62 ec 3c
       0.08300117 -0.031894352 -0.19650811 0.02885546
0002d0 7b 8d 07 be 2c 4e d5 3b ac d6 b0 3d c9 8e 86 3d
       -0.13237564 0.006509563 0.086346954 0.06570203
0002e0 ae 2e 13 3d ed 9c 1d 3d a0 29 51 bd b9 07 aa bc
       0.03593319 0.038479734 -0.051065087 -0.020755636
0002f0 31 b3 d6 3d 46 13 b0 bd 82 5a b6 bd 05 2e 16 bd
       0.10483397 -0.08597426 -0.08903982 -0.03666498
000300 e7 01 36 bd ea 0e d0 3c 95 e2 44 bd 24 81 15 bc
       -0.044435408 0.025397737 -0.048067648 -0.009125028
000310 1b d6 4e 3d 06 06 d3 3d 0a 7d 49 bd 21 30 50 bc
       0.050497156 0.10303883 -0.049191512 -0.012706787
000320 8b d3 6e 3d db 68 a0 bd 9b 4c 7f 3d 75 5e 9a bd
       0.05830721 -0.078324996 0.062328916 -0.075375475
000330 5d 47 64 3d 85 b9 24 bd e2 57 03 bd a0 8d 32 3d
       0.05573212 -0.040215988 -0.032066233 0.043592095
000340 d1 79 c6 3c 7f 7a 2f 3d 67 85 a5 bd 7b 96 c0 3d
       0.024228008 0.04284143 -0.08082085 0.09403702
000350 8a 7f a1 3c 4a b5 97 bd 1f 38 3c bd 7e c2 46 bd
       0.019714136 -0.07407625 -0.04595196 -0.048525326
000360 41 fb 68 3d 46 ff 91 39 a5 db 82 be e2 bb 1c bc
       0.05688024 0.0002784675 -0.255582 -0.009566279
000370 c2 c5 2c 3d d4 e3 32 3d d6 80 81 bd 2a 2c 8d bd
       0.042180784 0.043674305 -0.06323402 -0.06893189
000380 7c d6 47 bc e0 33 aa 3d 54 f4 88 bd 38 8b 14 be
       -0.012197133 0.083106756 -0.06687227 -0.14506233
000390 a3 ee 0d 3d fd 3a 84 bd f9 57 32 3c bc d0 ed 3d
       0.03465141 -0.064565636 0.010885232 0.116120785
0003a0 80 a4 c0 bd ec 32 d2 3c d1 68 14 3e 15 94 21 3d
       -0.09406376 0.025659047 0.1449311 0.039447863
0003b0 b6 59 a4 bd cb b6 92 3d d4 2f 86 bc 60 ba e3 bd
       -0.080249235 0.07163771 -0.016380228 -0.111195326
0003c0 30 df 07 3c 73 13 d1 bc 33 72 8c 3a 38 a4 5d 3d
       0.008292958 -0.02552197 0.0010715186 0.05411169
0003d0 17 00 01 3e 5a 35 a6 bd 42 8a 32 bc f5 10 67 ba
       0.1259769 -0.08115645 -0.010897221 -0.00088144775
0003e0 b8 f2 1d bd 7e a9 65 3d 8f b4 2c bd e8 65 b6 3d
       -0.038561553 0.056069843 -0.04216438 0.08906156
0003f0 87 5d 13 be 81 94 a1 3c b9 1a 09 be b8 a8 2a bd
       -0.14391147 0.019724132 -0.133891 -0.04166481

FC2.bias f4 [64]
000000 ae 43 f2 bc 29 66 9e bd 7a 9d 8a bd f9 51 d8 bd
       -0.029573288 -0.07734329 -0.067683175 -0.1056251
000010 b2 f2 06 bd 2c 03 80 3d 61 24 a5 bc f9 8b 08 bd
       -0.032946296 0.06250605 -0.020158948 -0.033336613
000020 81 da 63 bd 48 b1 04 3d 44 33 97 3c b8 34 9d bd
       -0.055628303 0.03239563 0.018457063 -0.07676071
000030 99 e7 95 3b 32 70 a6 3d 55 82 e2 3c bf f9 45 3d
       0.0045747277 0.08126868 0.027650038 0.04833388
000040 2b d9 90 bd 3e f7 5b bb df 0d 45 3d e2 3f 46 bb
       -0.070726715 -0.0033564116 0.04810893 -0.003025048
000050 74 ad 2a bd bd a5 75 bd 3c 08 66 bd 5a c6 30 3c
       -0.041669324 -0.059972513 -0.056160197 0.010789478
000060 8b ec 7b 3d f7 59 0c 3d 75 60 9e bc 7f d7 b2 bd
       0.06150488 0.034265485 -0.019333104 -0.08732509
000070 88 b4 a4 bc fc e5 80 bd cd 82 b7 bd fd f1 4b bd
       -0.020105615 -0.06293866 -0.08960495 -0.049791325
000080 f1 32 d5 3d c6 34 5c bd 75 a9 c3 bc f6 83 c5 bd
       0.10410107 -0.053761266 -0.023884514 -0.0964431
000090 d0 f5 12 bd 20 6a 00 3d 32 e7 d8 3d c6 18 dd 3d
       -0.035878956 0.03135121 0.10590972 0.10795741
0000a0 5f d3 8b bd 56 83 6c bd 08 16 a3 bc f9 34 b8 3c
       -0.06827425 -0.05774244 -0.019907966 0.022486197
0000b0 6a 18 90 3c 2a 51 85 3d e5 88 0d 3d 1e 74 d9 bc
       0.017589767 0.065096214 0.03455438 -0.026544627
0000c0 f3 2b 81 3c 3c c5 72 bd 64 96 a6 bc cc 58 59 3d
       0.015768027 -0.05927013 -0.020335384 0.0530632
0000d0 31 0f cd 3d 48 89 42 3d 67 ed d2 bc b2 b5 76 3d
       0.10012663 0.047494203 -0.025747968 0.060231872
0000e0 21 55 9d bc 9d bc 3b 3b 2e 92 02 bd 74 de c2 bb
       -0.019205632 0.0028646358 -0.03187769 -0.0059469286
0000f0 81 14 68 3b c8 79 86 3d 59 05 ac bc 74 00 8f 3d
       0.0035412612 0.06566197 -0.020998644 0.06982508

FC3.weight f4 [2, 64]
000000 64 52 2c be 75 b3 81 3d 4e 62 41 bc 5c 7a 97 3d
       -0.16828305 0.06333057 -0.011803223 0.07396385
000010 00 ca f8 3d 71 ea 0d be 7a 7e db b8 e7 33 42 3e
       0.121479034 -0.13858964 -0.00010466292 0.18965112
000020 f3 f3 b0 3d 75 25 a9 bd f6 83 6b 3e c0 6d ed 3d
       0.086402796 -0.082590975 0.22999558 0.11593199
000030 38 73 c8 3d a1 e2 67 bc 01 33 21 3d 6e 7a 0e 3e
       0.09787601 -0.014153154 0.03935528 0.1391389
000040 59 6d 7f 3e ea 02 ab be 92 59 17 be 84 f3 f2 bd
       0.24944057 -0.3340066 -0.14780262 -0.11862853
000050 e1 93 f0 3d c6 b5 43 3e 8a 05 b1 3e b5 8e 9c 3d
       0.11746956 0.1911231 0.34574538 0.07644407
000060 60 c5 9f bd 3c 0f 1f be 5e ce 03 bd ad 03 5d 3e
       -0.07801318 -0.15533155 -0.03217923 0.21583433
000070 24 5a 14 bd 38 1b 77 3d 4e 7e d1 3d 72 0f 9b bc
       -0.036218777 0.060328692 0.10229169 -0.018928263
000080 ad 05 7a bc 24 a0 29 be 9a 3a 12 be 74 0e c1 3c
       -0.015260142 -0.16564995 -0.14280167 0.023566462
000090 1b c0 c2 bd 21 35 1a 3e e5 bc a0 bd 1e 3a a4 bd
       -0.095092975 0.1505933 -0.07848529 -0.080188975
0000a0 15 15 a6 3d d0 61 28 3e bc 1f fe 3d 73 49 49 bd
       0.0810949 0.16443563 0.124083966 -0.049142312
0000b0 f2 5a 91 bd f0 19 32 3d f0 82 5e be 27 b3 50 3d
       -0.070974246 0.043481767 -0.21729636 0.050952103
0000c0 86 10 d7 3d 6e 1d 75 3b cd 2f 47 bd 30 0c c5 bd
       0.105011985 0.0037401575 -0.04862957 -0.09621465
0000d0 4e 9b 93 bd f0 8c 22 bd f0 9c 59 bd 11 01 7e bd
       -0.072073564 -0.03968519 -0.053128183 -0.062012736
0000e0 19 d9 09 3e 53 d9 94 3d 81 b5 d7 3d e8 a4 74 bd
       0.13461722 0.07268014 0.10532666 -0.05972758
0000f0 2c 2c 8d bd ea c6 7d bd 87 50 60 bd 50 9e 8b bd
       -0.06893191 -0.061957277 -0.054764297 -0.06817305
000100 81 57 b7 bd 70 c8 ac bd a2 fb 15 be 13 17 9c 3d
       -0.08952237 -0.08436668 -0.14646772 0.076215886
000110 a7 0d 58 bd 54 bd 1f bd 92 8b 3f be 8b 5f 60 3b
       -0.052747395 -0.038998917 -0.18705586 0.0034236636
000120 16 ea 8e 3d 6f 64 b2 bc 93 af 2c 3e 59 dc 43 3d
       0.06978242 -0.021776406 0.16863851 0.04781756
000130 e2 18 0d 3d 67 4a 4e bd c8 df bd bd be 9b 7c 3d
       0.03444756 -0.050363924 -0.092711985 0.061671965
000140 a4 fd 07 3e 18 50 82 be 8a f1 14 3b 05 77 1b be
       0.1328035 -0.25451732 0.0022726976 -0.15182121
000150 72 49 4a bd e0 69 11 3e 31 4b 50 3e f3 0f a1 bd
       -0.04938645 0.14200544 0.20341183 -0.0786437
000160 43 1c 44 bc 46 f0 cc bd 2d 32 4d bd af 44 df 3d
       -0.011969629 -0.10006766 -0.05009668 0.10901772
000170 26 ae 06 be 0c 2e 16 3e 1b d1 db 3d 45 fe 96 bd
       -0.1315237 0.14666003 0.10733243 -0.07372717
000180 94 4f a0 3d 8b ad 61 be b0 b6 c3 bc 41 8c 06 3e
       0.07827678 -0.22038858 -0.023890823 0.1313944
000190 ce ee bf 3d 6a ca 01 3e 01 39 79 3c 22 c0 9d bd
       0.0937172 0.12674871 0.015211345 -0.07702662
0001a0 56 3e 90 bd 75 2e e3 3c 87 03 99 3d 76 e0 c3 bd
       -0.0704314 0.027732113 0.07471376 -0.09564297
0001b0 d1 ec e0 bd 12 bf d6 3d 99 70 54 be de d9 ce 3c
       -0.10982669 0.104856625 -0.20746078 0.025250372
0001c0 58 f5 24 3d 53 4c 41 3e a2 1b 51 bd f6 24 82 3c
       0.04027304 0.18876772 -0.051051743 0.015886765
0001d0 66 f0 96 3c 76 b8 02 bd 02 d4 85 3d fc 53 fb bd
       0.018425178 -0.031914197 0.06534578 -0.12271878
0001e0 5e 34 be bd 73 c5 33 3e 47 7b fd 3c dc dd ff 3b
       -0.09287332 0.1755579 0.030942572 0.00780843
0001f0 1d 97 8d 39 5a 42 ac 3c de b9 ab bd c3 19 83 bd
       0.00027006204 0.021027733 -0.08385061 -0.06401398

FC3.bias f4 [2]
000000 ae b8 af 3d b0 38 ca 3b
       0.08580147 0.0061713085

FC1.weight f4 [128, 180]
000000 2f ff be bd e1 fe 1e bd 16 48 cd bd 1d 6a 59 3d
       -0.09326016 -0.03881729 -0.10023515 0.053079713
000010 7d 21 98 3b b7 e7 1e 3d 78 c5 74 bc 54 7d 2f 3e
       0.004642664 0.0387952 -0.014939658 0.17137653
000020 06 4a aa bc c5 0f 25 3d 81 35 f2 3c 53 e7 91 bd
       -0.02078725 0.040298242 0.029566528 -0.071242
000030 9c 90 18 3c 8a f9 65 bd 69 d8 c1 3d c4 bf e5 3c
       0.009311821 -0.056146182 0.09465105 0.028045543
000040 d4 19 2d 3d ff 2b 29 3d c0 a9 ac bd 90 c3 c0 3d
       0.04226096 0.041301724 -0.08430815 0.094123006
000050 73 28 e0 3c a8 9e 09 bb ae 4f a3 3c c7 3f 15 3d
       0.027363038 -0.0020999108 0.019935455 0.036437776
000060 d8 86 74 3c 8d 23 44 3c d7 ec b4 bc 2c a9 26 3d
       0.014924727 0.011971367 -0.02208559 0.04068868
000070 fc f4 82 bd 5c a2 93 bc 2c b7 ce bc 79 43 e0 3d
       -0.06394383 -0.018021755 -0.025233828 0.109503694
000080 7d e8 85 3d 9e 88 9e 3c f0 ac a8 3d 37 47 5d bd
       0.06538484 0.019352254 0.0823611 -0.054022994
000090 a7 f9 90 3d 98 63 67 3d d8 28 39 be 46 3f c9 3d
       0.070788674 0.056491464 -0.18081987 0.098265216
0000a0 b7 55 05 be 9e e7 61 3d 19 21 a9 bd a6 f3 1b be
       -0.13020979 0.055152528 -0.08258266 -0.15229663
0000b0 66 be af bd 82 e0 93 bd 20 de 44 bc dd c1 54 3b
       -0.085812375 -0.07220556 -0.012015849 0.0032464184
0000c0 5b 18 97 3d 81 64 26 3d ba df aa bd 46 65 9e 3d
       0.07377692 0.04062319 -0.08343454 0.0773416
0000d0 69 b0 c9 bc b5 cf 10 bd 04 d0 04 3d 14 a7 d2 bd
       -0.024620252 -0.035354335 0.03242494 -0.10285774
0000e0 4a c0 9c 3d d7 ee b5 3d 90 38 07 3d 12 72 d8 bd
       0.07653864 0.08883446 0.033012927 -0.10568632
0000f0 fd 2e c6 ba 64 fc 01 3d d9 e9 63 bd b4 b9 74 3c
       -0.0015120205 0.03173484 -0.055642936 0.014936853
000100 5f 7a 5d 3c a4 40 82 bd 94 26 a3 bd 89 87 e0 bb
       0.013517945 -0.063599855 -0.079663426 -0.0068520945
000110 5c ca 40 3d b3 ba df bc ff 65 57 3c a9 16 7c bc
       0.047067985 -0.027310705 0.013146876 -0.015386262
000120 84 2a a8 3d bd cb a1 bc 41 62 0a bd 86 28 9b bc
       0.08211234 -0.01975047 -0.03378511 -0.018940222
000130 6c 52 23 bd 13 73 00 3d c2 73 a6 bd 5e eb 22 bd
       -0.039873526 0.031359743 -0.08127548 -0.039775245
000140 db a7 b4 bd 5a 3a 39 3d 01 9e 5d 3c 00 56 a5 3c
       -0.088210784 0.045221664 0.013526441 0.02018261
000150 80 53 dc bd 37 f7 17 3c 9e 37 c4 3d 57 07 95 3c
       -0.10758114 0.009275249 0.09580921 0.018191976
000160 27 90 ac bb 47 78 86 bd 7e 38 fa bd 02 a5 18 be
       -0.0052662077 -0.0656591 -0.12217806 -0.14906695
000170 0e 60 1a bd 89 44 2d 3c 60 eb c9 3c 2c 3e b5 3c
       -0.03768926 0.010575422 0.024648368 0.022124372
000180 60 9b 62 3c 8a 89 c5 3d f9 9f 54 bd d7 82 13 bd
       0.01383099 0.09645374 -0.051910374 -0.03601345
000190 34 6e 7b bd c7 88 68 bb 74 18 61 3d 8d 0f e9 3d
       -0.061384395 -0.0035481916 0.05495496 0.11379919
0001a0 43 0b ab bc 61 07 4b bd f9 31 ae 3b f1 8f f7 3c
       -0.020879393 -0.049567584 0.005316016 0.030220004
0001b0 7f 08 98 3d 8d f3 aa 3d 3a 13 58 bc 90 d3 d7 bd
       0.074234955 0.08347235 -0.013188178 -0.10538399
0001c0 48 9c 5b 3d 66 9a 7a 3d 61 21 6a 3d 3b dc 93 bd
       0.05361584 0.061182402 0.05716074 -0.0721974
0001d0 a1 cf cc 3c c0 74 98 bd 5d e2 6e be 75 3e 97 be
       0.025001349 -0.07444143 -0.23328538 -0.29539838
0001e0 07 25 3d 3d 9f 55 ab 3d 89 09 5c bd db af 34 bd
       0.04617789 0.0836594 -0.05372003 -0.04411302
0001f0 84 74 96 bd 7a 30 97 bd e6 0d 8c bd 91 a2 1f be
       -0.07346442 -0.07382293 -0.068385884 -0.15589358
000200 42 dc c4 bd b7 f1 23 bd 5b 57 dd bc f3 17 09 3e
       -0.09612323 -0.04002544 -0.027019193 0.13388042
000210 2d 6f bf bd db 30 9b bc 15 71 38 bd bd d8 0d 3d
       -0.09347377 -0.018944195 -0.04502972 0.034630526
000220 47 1e b9 bd 30 66 7e bd 91 3c 90 bd 26 a6 88 3d
       -0.09038978 -0.062109172 -0.07042802 0.06672315
000230 ce d6 d7 bd 4c 70 94 bc db 54 98 3c 14 a4 a0 bc
       -0.105390176 -0.018119954 0.01859515 -0.019609489
000240 5b fb 02 be f0 48 c8 bd 05 c1 39 3c 25 45 5b 3d
       -0.12791197 -0.09779537 0.011337523 0.05353274
000250 c8 ae f4 3c b8 73 0a 3d b5 37 3d bd a5 2b 48 bb
       0.029868498 0.033801764 -0.046195704 -0.0030543592
000260 6c 0a 18 3d 1b 89 79 bc 93 b7 aa 3d 96 80 b8 bc
       0.037119314 -0.015230442 0.08335795 -0.022522252
000270 8b ea 89 3a 20 c8 3b 3d 63 2c f3 bc ae 27 19 3c
       0.001052217 0.04584515 -0.029684251 0.009347839
000280 1a 9e 47 3d 35 b7 45 bd 3b 09 54 3d 86 7c a5 bd
       0.04873476 -0.048270423 0.051766615 -0.080803916
000290 f4 68 a5 bd cc 0f 2b bd eb 13 9e bd b2 76 1f bd
       -0.08076659 -0.041763112 -0.07718643 -0.038931556
0002a0 33 97 b2 3c 82 62 59 3c 19 27 e2 bc 93 5f 28 3c
       0.021800613 0.013268115 -0.027606534 0.010276693
0002b0 3d db 9c bd 9a 39 70 3c b9 c6 ea bc 78 98 99 3c
       -0.07659004 0.014662171 -0.028659211 0.01874946
0002c0 92 49 e6 bc ad a9 85 3d 2b 96 c8 3d f3 a1 87 3d
       -0.028111253 0.06526504 0.09794267 0.06622686
0002d0 99 77 6d bb b2 98 be 3c da c0 75 3b 59 5c 87 bd
       -0.0036234616 0.02326617 0.0037498982 -0.06609411
0002e0 65 f2 6d bc 13 07 52 bc 8f 49 99 3d b0 92 5a be
       -0.014523123 -0.012819069 0.07484733 -0.2134502
0002f0 fa 61 3a 3c 8f 65 ae 3b 3d a8 c3 bb 53 dc f9 bb
       0.0113758985 0.0053221653 -0.0059709833 -0.0076251416
000300 27 91 b1 3d 3e 22 fe 3c 57 fe 66 bd 9b de 4f bd
       0.08670264 0.031022187 -0.0563949 -0.050749402
000310 6d 68 94 3d 83 14 72 bd 42 c5 3b 3e 7b 3a 08 bd
       0.0724648 -0.059101593 0.18336967 -0.033258896
000320 3a 8e 0d 3e 20 fd 0c bd c0 c0 8c bd 79 b0 c0 3c
       0.13823786 -0.034421086 -0.06872702 0.023521649
000330 00 cf 73 3c 3e 7f 74 3e ea ed f3 bc 79 83 08 3d
       0.014880896 0.23876664 -0.029776532 0.033328507
000340 92 42 3b 3d 1d 8c 5f 3d e0 ca 1e be c3 f9 e5 3d
       0.045717783 0.05457698 -0.15507078 0.11229279
000350 fd b5 8a bd 98 29 cb bc f4 d7 b5 3d f7 c6 ea bc
       -0.06772993 -0.024800107 0.088790804 -0.028659327
000360 c6 bc bc bd 8b 92 e8 bc 65 91 44 3d 70 28 e7 3d
       -0.09215693 -0.02839019 0.04799022 0.1128701
000370 e0 d1 00 3e 48 3a 36 be 24 9e 87 3d a1 78 3a 3d
       0.12580061 -0.1779567 0.0662196 0.045525197
000380 a1 53 52 3d 36 a4 a2 3d 0e d8 67 bd 31 3c e9 bd
       0.051349286 0.07941477 -0.05660253 -0.11388434
000390 43 2b b1 bc 39 2d 75 3c 7c 5a e7 3d f9 7c cc 3c
       -0.021627074 0.014964395 0.112965554 0.024961935
0003a0 c9 a6 54 3c cc 8d 3b be 0e b9 d3 bd 16 72 b5 3b
       0.012979218 -0.1831581 -0.10338031 0.0055372817
0003b0 ad 72 9f 3d 39 76 5d bd 8e c5 2b 3d 7e e3 87 3d
       0.077855445 -0.054067824 0.04193645 0.066351876
0003c0 01 21 5c 3b 54 77 6c 3a 4a 7f 9e bd f0 62 94 bd
       0.0033589008 0.0009020467 -0.07739122 -0.07245433
0003d0 d7 23 5e bc 7e 9f 31 3d 9e d1 41 bd 9f f8 8e bd
       -0.01355835 0.043364994 -0.047319047 -0.069810145
0003e0 5f ca c8 3d 09 7a 83 bc ad 29 83 bd 1a 16 ce bd
       0.09804224 -0.016049402 -0.064044334 -0.10062809
0003f0 30 d4 03 3d ac fd 1d 3d b5 8c 51 3d d5 b9 9b 3d
       0.03218478 0.038572 0.05115958 0.07603804

FC1.bias f4 [128]
000000 19 e5 9a bd 73 70 23 3d 92 ab 9e bd c9 f4 5a 3b
       -0.07563228 0.03990216 -0.07747568 0.0033410063
000010 11 af 21 bc d2 d9 f5 bc 6d 7d f7 bc 53 39 68 bc
       -0.009868399 -0.030011091 -0.030211175 -0.014173823
000020 4a b5 ce 3c 7e cc 94 bc f1 b7 29 bd 3b e4 0d bd
       0.02523293 -0.018163916 -0.041435186 -0.034641486
000030 30 59 91 3c bf 7c 4c bd 2e 93 a2 bc 0d c8 d9 bb
       0.017742723 -0.049923655 -0.019845571 -0.0066461624
000040 d7 b1 8f bd 96 88 93 bb 1a f7 0c bd aa 61 63 3d
       -0.07016342 -0.0045023663 -0.034415342 0.05551306
000050 95 c4 20 3c b9 a0 f4 bb 72 9e d7 3b 37 8d 69 3d
       0.009812494 -0.0074654487 0.0065801675 0.05701944
000060 1e ea 38 bd b1 a0 8e bd 39 97 75 bc e1 0b 65 3d
       -0.045145147 -0.06964243 -0.014989668 0.05591953
000070 a4 d7 97 3c 92 1f 50 3d d1 0e 67 3d 83 ab 5b 3d
       0.018535443 0.050811358 0.056410614 0.053630363
000080 fe 5c bb bc 10 d7 3e bd e4 45 18 bd 06 ac 76 3d
       -0.02287149 -0.04659182 -0.037176028 0.060222648
000090 87 c3 2e bd 4e 8d 06 bd 99 ab 72 bd b9 a2 35 bd
       -0.04266694 -0.032849602 -0.05924568 -0.044344638
0000a0 86 ae 68 bd ef a5 83 bd 4c 3b 59 3d 77 5d c4 3c
       -0.056807064 -0.06428134 0.053035066 0.023970349
0000b0 a3 d4 9d bc 5b 28 11 bd 5c cc 2c 3d 11 da 53 3d
       -0.019266432 -0.035438877 0.04218708 0.051721636
0000c0 5e 10 53 3d 3c d6 95 3c f9 81 2f 3c 93 22 09 3d
       0.05152928 0.018290631 0.01071214 0.03348024
0000d0 7a f1 1d 3d df 2b 0c 3d 48 e2 8d bd f0 83 09 3c
       0.038560368 0.034221526 -0.06927925 0.008393273
0000e0 6a d8 6d bd ae e5 0a bd e5 83 05 bd fa c7 a9 bd
       -0.058067717 -0.033910446 -0.032596488 -0.082900956
0000f0 aa 55 34 3d be 21 f5 3c 43 47 0b 3d f8 22 3d bc
       0.044027008 0.029923316 0.034003507 -0.011543982
000100 e0 a2 12 3d b6 c7 07 bd 4c a2 54 bd 8b 06 16 3d
       0.03579986 -0.033149444 -0.05191259 0.036627334
000110 fb b2 68 bc 8b 79 3d 3d a0 f1 54 bc 12 68 d0 bc
       -0.0142028285 0.04625849 -0.012997061 -0.02544025
000120 00 1a 60 bc af 62 12 bc e3 d3 82 3d 62 8f 29 bd
       -0.013678074 -0.008934661 0.063880704 -0.041396506
000130 b4 f7 1f bd 76 ab 8e bd 0c c7 b6 bc 07 73 80 bd
       -0.039054587 -0.06966297 -0.02231171 -0.0627194
000140 77 71 0e 3d 82 7a 61 bc 31 b9 10 3d 83 a7 21 bd
       0.034776177 -0.013762118 0.035332862 -0.039466392
000150 86 98 bf bd b1 7c 0b 3d bb 2a 26 bd 56 0b 53 bd
       -0.093552634 0.034054462 -0.040568095 -0.051524483
000160 62 0f da 3c 0b f8 91 bd 62 63 94 bd 0f 09 48 3d
       0.026618663 -0.071273886 -0.07245518 0.048836764
000170 f9 c3 fc 3c 47 0b 80 bd 51 78 46 bd a3 2f 2b bd
       0.030855166 -0.06252151 -0.048454586 -0.041793477
000180 ed 63 91 bb 79 9f 87 3d 96 ea 89 3c d4 31 74 3d
       -0.004436961 0.06622214 0.016835492 0.059617832
000190 a2 8d 62 3c f7 71 72 3b 6b e1 3c 3c dd c0 94 3d
       0.013827713 0.0036994198 0.011528353 0.07263348
0001a0 66 f1 92 bd 84 20 f2 3a e8 9a ee 3b 6b 09 13 3d
       -0.07174949 0.0018472825 0.00728165 0.035897654
0001b0 49 4e 71 3d d3 89 51 bd b5 03 3c bd da 2c 0b 3d
       0.05891255 -0.05115683 -0.045901973 0.03397832
0001c0 d8 ca a0 bc c3 fb 83 bc a7 88 12 3d 90 23 d5 b9
       -0.019627973 -0.01611126 0.035774853 -0.00040653022
0001d0 06 5e 6a ba a1 5e 3a 3d 33 70 31 bd d8 a5 01 bd
       -0.0008940402 0.0455004 -0.043319892 -0.0316523
0001e0 d0 2e 86 3d fc e5 88 3d b7 4b 67 3d 58 fd 6d 3d
       0.065518975 0.06684491 0.05646869 0.058102936
0001f0 ff 13 30 3d 38 f4 c1 3b 9c 13 54 3d f2 b3 43 bc
       0.04298782 0.0059190057 0.051776513 -0.011944758

FC2.weight f4 [64, 128]
000000 f3 96 65 bd 47 a4 81 bd 84 73 71 bd 68 2c 06 bc
       -0.05605216 -0.063301615 -0.058948055 -0.008189298
000010 df e3 27 3c cc e5 2e bd 28 d3 39 bd c2 91 50 3b
       0.0102472 -0.04269962 -0.04536739 0.003182516
000020 25 e5 90 3d c3 e1 fc 3d c8 61 5b bd a6 75 e0 3b
       0.07074956 0.12347748 -0.05356005 0.0068499623
000030 92 30 0f be 9d 8d 2d 3d ca 8d 09 bd 85 55 a3 3c
       -0.13983372 0.04237138 -0.033582486 0.01993824
000040 a5 28 0a 3d 2a 4d 03 bd 7c d3 c4 3d 22 c4 68 bd
       0.033730168 -0.03205601 0.0961065 -0.05682767
000050 d8 1b 17 ba e5 90 03 be 9c 7e 8d bd ea 4d 12 3d
       -0.0005764342 -0.12848242 -0.069089144 0.035718836
000060 a9 e5 4d bd 1c f6 93 3c 26 d1 63 bd 8a af 20 be
       -0.05026785 0.01806169 -0.05561938 -0.15691963
000070 14 ed 17 3c 12 c1 75 3c 11 83 c2 3c 3e 6c 99 bd
       0.009272832 0.014999645 0.023744138 -0.07491349
000080 6d 3a b7 bd f8 5b 29 3d 62 ce 2b bd ad 5e 79 bd
       -0.08946691 0.041347474 -0.04194487 -0.060881305
000090 b7 a0 53 bd 04 eb 9f bd 02 4a a8 3d 1f 39 56 3d
       -0.05166694 -0.078084975 0.08217241 0.05230057
0000a0 2e c5 8e bb 13 f2 32 bd 92 c8 63 3b 45 e9 3e 3c
       -0.0043570017 -0.04368789 0.0034757 0.0116522955
0000b0 05 eb 07 bc d5 d2 e8 bd 1f 3a db bd b9 36 d1 bb
       -0.008295779 -0.11368338 -0.10704445 -0.0063846973
0000c0 49 25 77 3c 16 00 07 bd 0e cd 2f 3d 5a 35 2d bd
       0.015084573 -0.032959066 0.042920165 -0.04228721
0000d0 f6 f1 81 be 6b bb fa 3a 83 53 b0 3d e6 71 6f 3c
       -0.25379914 0.0019129341 0.086096786 0.014614558
0000e0 5c e9 26 bd dc da 85 3d 9e 9b 90 3d 86 29 46 3c
       -0.040749893 0.06535885 0.070609316 0.012094861
0000f0 ad e2 7f 3d 63 ce 6e bd 69 71 6d be ae e8 a7 bd
       0.062472034 -0.058302294 -0.23187794 -0.08198677
000100 2c f7 29 bc 20 46 3b 3a 7d c7 7a bb 6f d4 b5 3d
       -0.010373872 0.00071439333 -0.0038265877 0.08878409
000110 66 03 2d 3c e8 5e 43 3c 52 0a f0 bc 21 89 bb 3d
       0.010559892 0.011924483 -0.029301796 0.09157015
000120 b6 ea 50 3d 14 d0 cc bc a8 ab 86 3d be ea 88 bd
       0.051005088 -0.025001563 0.065757096 -0.066853985
000130 87 82 6b bd b1 b1 3e 3d 8c fa b0 3d 60 86 f8 bd
       -0.057497527 0.04655618 0.08641538 -0.12135005
000140 d5 e8 1b bd 26 e3 b7 bd 4c 87 7b bd 34 ef b5 be
       -0.038063843 -0.08978872 -0.061408326 -0.3553406
000150 d3 12 d7 39 5b b3 1e 3d 3c 42 6f bc 48 20 37 3c
       0.0004102202 0.038745265 -0.014603194 0.01117713
000160 eb d7 ac 3d c0 68 5b bd 5d de be 3b 75 25 0c be
       0.084396206 -0.053566694 0.0058248476 -0.13686164
000170 6a 03 a2 3c d3 ed 8c bd 1f 70 2d be 0d 9e b3 3c
       0.019777019 -0.06881299 -0.16937302 0.02192595
000180 c9 c7 06 be 59 b9 4e bc 2f f4 01 bc 4d 0e 64 3d
       -0.1316215 -0.0126174325 -0.007931753 0.0556777
000190 00 34 0e be 14 14 02 3e e2 54 3a 3d 88 ec be 3d
       -0.13887024 0.12702972 0.045491107 0.093224585
0001a0 e4 b1 3d bc 46 02 ee 3d a8 4e 40 3d 8a 86 84 3d
       -0.011578057 0.116215274 0.046950012 0.06470974
0001b0 c7 52 a5 bd d4 3c ec 3b 62 a5 0f 3d 62 4b ab bc
       -0.08072429 0.0072093997 0.03506983 -0.020909969
0001c0 af 2f 8b be 31 69 2c bd 17 40 47 3a 84 37 6c 3d
       -0.27184817 -0.042092506 0.00076007977 0.05767013
0001d0 53 f6 22 bd 7d 21 cf 3b 69 8c ef ba a2 8c 53 bd
       -0.039785694 0.006321131 -0.0018276098 -0.05164779
0001e0 b7 09 9a 3c 82 45 6b 3d 28 c6 65 bd d4 5f 98 bb
       0.01880346 0.057439335 -0.05609718 -0.0046500955
0001f0 af 1d f5 bd 7d d6 f5 3d ef ac b3 bd f0 03 2e bd
       -0.11968552 0.12003801 -0.08773219 -0.042484224
000200 3f ed 6c be f9 88 03 bd f4 0b 8d 3d f8 dd 7e bd
       -0.23137377 -0.03211305 0.068870455 -0.062223405
000210 06 7e 1d be 3a 86 ef ba f3 dd e2 3d 2e a7 33 3d
       -0.15380105 -0.0018274256 0.1107749 0.043860607
000220 da db a0 3b 76 60 2e bc 98 6d 40 3d d2 58 60 3d
       0.004909021 -0.010643115 0.046979517 0.054772206
000230 ca 2b 7b be 1e 7e 8c bc a6 67 e5 bc bc d3 06 bd
       -0.24528423 -0.017149981 -0.028003525 -0.03291677
000240 15 06 d0 3c 93 77 d4 bd c5 38 e1 bd d4 8f cf 3b
       0.025393525 -0.103743695 -0.10997156 0.0063342843
000250 47 10 28 bc b4 22 40 be cf 20 26 be d3 58 8b 3d
       -0.010257787 -0.18763238 -0.16223453 0.06804051
000260 61 5b 2c bc d6 7d 2e bd 0d 4e 46 bd db 09 aa 3d
       -0.010519833 -0.042600475 -0.04841428 0.08302661
000270 7c 74 77 bd 84 29 6d bd fd 6f 1a 3d 3a e6 ec 3c
       -0.060413823 -0.05790092 0.037704457 0.028918374
000280 ff 1b 57 bd e0 dd 29 bd b4 51 2c bd ef f3 83 3d
       -0.052516934 -0.041471362 -0.042070106 0.06443011
000290 9c bf a5 bd b5 53 2b bd f1 b0 2e bd a4 b6 2a bd
       -0.08093187 -0.041827876 -0.042649213 -0.041678086
0002a0 53 6f 4f bd 27 d6 42 3d 17 29 cb 3c 0f 50 96 bd
       -0.050643276 0.047567513 0.024799867 -0.07339489
0002b0 81 66 27 3a 0c db 11 bd be b4 9d bc 5b 03 bf 3c
       0.00063858187 -0.03560929 -0.019251224 0.02331703
0002c0 93 2c f0 3d e0 76 13 be e7 85 88 3c d0 cc 34 bd
       0.11727252 -0.14400816 0.016665412 -0.044140637
0002d0 fd 37 32 bd c2 25 c7 bc 19 9f 64 bb 98 38 37 be
       -0.043510426 -0.024309997 -0.0034884869 -0.17892683
0002e0 fc d9 43 bc bf 44 07 3c 45 62 54 be 3c 53 12 bc
       -0.011953827 0.008256136 -0.20740612 -0.008930977
0002f0 d4 be a5 3c 5a ee d9 bd 8a f8 fe bd 1d ea d7 bd
       0.020232596 -0.10641165 -0.12449749 -0.105427004
000300 34 94 13 be d1 b3 d4 3b 70 63 9e 3d 2b c3 c0 bc
       -0.14412004 0.0064911623 0.0773381 -0.023530563
000310 a8 3e 32 bd f5 83 19 3e 8c 4e a4 bd c8 a3 75 bc
       -0.043516785 0.14991744 -0.08022794 -0.014992662
000320 31 1c 57 bc c1 44 b8 3d 8e 26 04 be b7 95 53 be
       -0.01312928 0.08997489 -0.12905332 -0.2066258
000330 b8 76 0e be e1 8f 1d bd 2b 36 78 be f1 fd 0f bd
       -0.13912475 -0.03846729 -0.24239413 -0.035154287
000340 40 63 22 bd 96 bd 3f bd 3e 1b 90 bd 33 74 c5 bc
       -0.039645433 -0.046811663 -0.07036446 -0.02410326
000350 40 cd 3e be 73 c8 05 3d 9f d5 cc 3c 41 8e 82 3d
       -0.18632984 0.032661866 0.025004206 0.06374789
000360 3f 83 a8 bd b1 cd 85 bd 54 b2 f4 3b ff 54 9a 3c
       -0.08228158 -0.06533373 0.0074675474 0.018839357
000370 f9 e3 1a bd 86 bf 8d bd 1d fe fe 3d 7c 04 8e 3d
       -0.037815068 -0.06921296 0.12450812 0.06934449
000380 f2 33 9d bd 3d 19 0d bd 25 fd e8 bb 2d c3 6e 3c
       -0.076759234 -0.034447897 -0.0071102553 0.014572901
000390 53 62 57 bc f7 e3 6e be 78 9e 8b 3b 1a 89 ca bc
       -0.013146001 -0.23329149 0.0042608343 -0.024723578
0003a0 e4 25 4c 3d d5 83 60 bd 13 16 07 be 8e 72 c7 bd
       0.049840823 -0.054813225 -0.13192014 -0.097386464
0003b0 38 c0 ee 3d 8d b7 9a be 57 1b 7a bc 04 4f 56 3d
       0.116577566 -0.30218163 -0.015265307 0.05232145
0003c0 55 6d 12 be 14 92 49 bc 51 40 7e bd 30 27 05 be
       -0.1429952 -0.012302894 -0.062073056 -0.1300323
0003d0 5e 08 f8 bb 64 ec 24 bc 19 c0 c1 bc 84 86 fd 3d
       -0.007569357 -0.010066126 -0.02365117 0.123791724
0003e0 48 36 62 bd 35 2f 06 be 2d f2 c2 bc f5 4e 0c 3e
       -0.055227548 -0.13103946 -0.023797119 0.13701995
0003f0 cd 3f 1d bc 66 69 b9 3b e8 e4 4a be 0b a9 3e be
       -0.009597731 0.0056583164 -0.19813883 -0.18619172

FC2.bias f4 [64]
000000 21 17 31 bd 07 0e 3d 3d b5 a1 7c bd 81 71 bc bb
       -0.043234948 0.046155956 -0.061677653 -0.0057508354
000010 53 fe 60 3d ba 14 01 bd 9b 93 2e 3d 42 00 08 3c
       0.054930042 -0.031513907 0.042621236 0.008300843
000020 c0 a1 22 bd b5 d7 00 bd b7 15 12 3d d8 b3 d6 bd
       -0.039705038 -0.031455714 0.03566524 -0.10483521
000030 36 77 94 3d ce f8 83 3b e5 39 fb 3c aa 05 cb bd
       0.072493 0.0040274626 0.030667255 -0.0991319
000040 07 de 0a bc 43 eb 6d bd b3 7d 2b bd da 36 4d bb
       -0.008475787 -0.05808569 -0.041867923 -0.0031313212
000050 03 37 5a bb 23 b4 83 3d e4 fd cc bb e0 77 84 3c
       -0.003329695 0.06430843 -0.006255852 0.016170442
000060 6b 72 00 bd 72 d9 29 3d 45 2c 71 3d e4 af 8f bd
       -0.031359117 0.041467138 0.05888011 -0.0701597
000070 51 a8 f9 bc a2 e8 71 ba d2 8d a6 bc 20 cf 95 bd
       -0.030475767 -0.00092280854 -0.020331297 -0.073148966
000080 55 59 e8 bc 99 ef 97 bb 55 93 a5 3c 75 f8 2c 3d
       -0.02836291 -0.0046367166 0.020211855 0.042229135
000090 c0 84 04 bd 2a d0 f5 bd 0d e0 24 3b d9 0a 08 3d
       -0.032353163 -0.12002595 0.0025157959 0.03321347
0000a0 a2 d1 4f 3d c6 f8 05 be 3c 7b b8 bc 28 64 b7 3c
       0.05073703 -0.13083181 -0.0225197 0.022386625
0000b0 7d 89 d4 3c ed cf 9a bd 0b ae 7a 3d 31 30 ab bc
       0.025944466 -0.0755919 0.061201137 -0.020897003
0000c0 66 ba 9b bd fa cb 97 bd cb 70 d4 3c df d7 b1 bd
       -0.07603912 -0.07411952 0.02593269 -0.08683752
0000d0 d4 00 4f bd 2c ed 95 bd 19 43 9a bc 03 7a 2d bd
       -0.0505379 -0.073206276 -0.018830823 -0.042352688
0000e0 91 d0 8c bd 6b 96 c6 bc c9 91 cc bd 89 66 b5 bc
       -0.068757184 -0.024241647 -0.09988744 -0.02214362
0000f0 5b 09 2b bc 50 98 90 bd 64 1c 8b 3d 09 05 17 bc
       -0.010439242 -0.07060301 0.067925245 -0.009217509

FC3.weight f4 [2, 64]
000000 46 07 8b 3c 05 d8 2b be 74 d3 02 be 72 15 f5 bd
       0.016971242 -0.16781624 -0.12775975 -0.11966981
000010 d9 97 a0 be 41 96 26 be a2 d7 c3 3d 47 8c 85 bd
       -0.3136585 -0.16268255 0.09562613 -0.065208964
000020 b6 ce 0f 3e f7 52 30 be 36 00 a0 3d e0 eb 66 be
       0.14043698 -0.17219149 0.0781254 -0.22550917
000030 48 ce 83 bd a4 ba 49 bd 41 4d bd bd 57 20 9c be
       -0.064358294 -0.04925026 -0.09243251 -0.30493423
000040 48 db 1b 3e 9c 62 8c bd 7e 53 a4 bd 01 84 4d bd
       0.15220368 -0.06854746 -0.08023737 -0.050174717
000050 ec d0 09 3e ff 82 26 bd 76 19 21 be 5e dc a1 bd
       0.13458604 -0.04065227 -0.15732369 -0.0790336
000060 af db 6e be af b9 88 bd e9 25 4d 3d 51 15 16 be
       -0.2332599 -0.06676041 0.050084982 -0.14656569
000070 d2 4f 23 be 76 b2 c3 3d 9d f6 33 3e af 60 27 3d
       -0.15948418 0.09555523 0.17574544 0.04086369
000080 e7 61 a1 be 2c dc 93 3e 4a 2d b9 bd a5 fe fd bd
       -0.31520006 0.28878915 -0.09041841 -0.12402085
000090 78 7b 2b 3e f9 65 9a 3c e6 0a 53 3d 78 b0 be 3d
       0.16746318 0.018847452 0.051524065 0.093110025
0000a0 73 a1 1c bb 7e b5 21 3e e2 c4 15 be 39 61 dc bd
       -0.0023899942 0.1579189 -0.14625886 -0.10760731
0000b0 a0 72 f2 bd 20 8c de 3d e8 36 1c 3e a4 1b 01 bd
       -0.11838269 0.108665705 0.1525532 -0.0315205
0000c0 45 4e 3e 3e 63 81 55 3d 34 dc b5 bd 13 ef 04 3e
       0.18584545 0.052125346 -0.08879891 0.12981825
0000d0 b9 e5 c6 bd 9e 0a 84 bc 2e f4 97 3c 8a 4c 26 3e
       -0.09711785 -0.016118344 0.018549051 0.16240135
0000e0 f8 eb 9d bd 6f b6 de 3d 73 ce 9d 3d d4 ea 25 bd
       -0.07711023 0.1087464 0.07705393 -0.040507153
0000f0 00 ac 36 3e 9f 21 4a 3e 2d a3 a2 bd 8f 84 f7 bd
       0.1783905 0.19739388 -0.079412796 -0.120858304
000100 c8 4b d9 bd bd 1e f5 bc e1 43 29 be 62 58 49 bc
       -0.10610157 -0.029921884 -0.165298 -0.0122891385
000110 cf 21 96 bd 23 0f 07 3e 69 1b e2 bd b9 cf af 3d
       -0.07330667 0.13189368 -0.11040384 0.08584542
000120 e4 29 58 3d 14 70 ba 3c 18 db 48 bd 7e f9 8e 3d
       0.052774325 0.022758521 -0.04903707 0.069811806
000130 63 3a 5e bd 28 fe 7b 3d f2 08 4e bd 5d d6 8e bd
       -0.0542549 0.06152168 -0.0503015 -0.0697448
000140 c4 e9 70 bd 15 96 c6 3c 9d 01 93 3d b9 a0 bc bd
       -0.058816686 0.024241487 0.07178042 -0.09210343
000150 13 21 57 3d 11 7c d3 3d e5 0c ea bd c8 18 43 3e
       0.052521776 0.10326398 -0.11428241 0.19052422
000160 db 15 d3 3d 3d 1b 0d 3e 7f 4e 95 3d 04 54 89 3d
       0.10306903 0.13779922 0.072903626 0.06705478
000170 15 19 5e 3d 94 52 2d bd 5d 73 bf bd 0c c9 45 bd
       0.05422314 -0.04231508 -0.09348176 -0.048287436
000180 46 2d 8a bc 8e 7c a3 bc 7c 58 4e bd 80 80 a2 bc
       -0.016867291 -0.019956853 -0.050377354 -0.019836664
000190 e2 99 d2 3d f1 71 1e be f0 51 34 3d 3a cb bb 3d
       0.10283257 -0.15473153 0.044023454 0.09169622
0001a0 66 98 fa bd cf 8b 37 3d b2 4d 60 bd 8e 80 04 be
       -0.12236099 0.044811066 -0.054761596 -0.12939665
0001b0 38 cb 29 3d 38 0b bd bc 7d ec b0 3c d6 1c d3 bd
       0.04145357 -0.023076639 0.021597141 -0.103082344
0001c0 84 60 8b 3d 10 d5 e5 bd e0 0f ba bc 9f a2 71 3b
       0.06805518 -0.11222279 -0.022712648 0.0036870611
0001d0 93 e0 5a 3d 09 68 05 be 76 f2 f9 bd 1d 36 3b bd
       0.053436827 -0.13027968 -0.12204449 -0.045705903
0001e0 2c 9b e8 bd c4 20 4e 3d 4c f6 bc bd 40 c7 2e 3d
       -0.11357722 0.050324216 -0.09226665 0.04267049
0001f0 e3 24 b9 3a e4 7a de 3b c6 7a 02 3e 29 6a b0 bc
       0.0014125373 0.006789552 0.12742147 -0.021534996

FC3.bias f4 [2]
000000 e1 e4 75 3c fb c5 2a 3c
       0.015008182 0.010423179
