hcanet-3.27_maddpg_old/data/test_model/model_2600.pt (torch, 268587 bytes, 16 tensors)

FC1.weight f4 [128, 180]
00000000: e911 8bbd a99e 363d f30b 22bc 9b63 703d
00000010: c2a8 eebb 297e ccbd d5cb 97bd 7d87 093e
00000020: e99d 04bd e8f3 4cbd 8548 e73d 8ebb adbd
00000030: 87d6 e03d 6eb6 c1bc d080 51bb bc1e a13d
00000040: 8373 863c 1fbc d4bd 0526 e439 047e 97bd
00000050: a2df a53c 798f c9bd d291 093c 6bfe a9bd
00000060: eeaf fbbd 4470 a4bd eba0 c83d 927e 45be
00000070: 09c2 9bbe b824 89be e3c8 063e 669e bdbd
00000080: 4bf8 6b3d 912a 8c3d 2d12 773d d1d7 5fbd
00000090: ac15 c2be f5e5 1dbe 2ed9 36be 0f50 31be
000000a0: d8dc 0338 401c 113c f55d df3d 7bea 2bbe
000000b0: c407 2bbe cc36 993e 1f33 b0be 8609 dabd
000000c0: e1a8 673d fe48 b83d c93a 203c b9d7 19be
000000d0: dcea 673c 0d68 a6be 49d8 a2be a5a8 76bd
000000e0: 26d1 453e 93dc e8bc 7b53 b53d cb42 5f3d
000000f0: e5ef 47bd 3a1c 98bd 3239 65bc ec92 a63d
00000100: 05f5 073e 30b4 f2bd eec7 1abd 80f8 b3bd
00000110: 8923 4abd 530b f2bc b177 aabc ca2d 853d
00000120: a146 c8bd 7552 a8bc b4f4 ad3b 8e19 7abb
00000130: 90bb 05bd f454 bcbc 352d c33c b7de ef3d
00000140: 19c8 a43d 1865 b7bd 43bc 323d 18fc 5a3d
00000150: a1fa a23d a58c a5ba 34e8 3d3d a010 2bbd
00000160: 2d4a b43c b540 f03d 9dfc c13d ea6d 8ebc
00000170: be34 28bd 826f 353d 5cab 263e ed6b cf3d
00000180: bef9 3ebc bfd8 4038 6979 b53d 0cc4 b5bc
00000190: 39e8 bb3d d876 60bb bf44 3cbd 8e09 363d
000001a0: f545 373d badf 253c 4905 8bbb 344c 7d3d
000001b0: d4de 8e3d 7edb 5f3d 9573 9e3c 9f2c 61bc
000001c0: 8c67 59bc e15c 44bd 7061 853c a210 e2bd
000001d0: 0ee4 2d3d 7225 96bd 5736 86bd e593 5e3d
000001e0: bda0 b03c 9035 ebbc 14d5 89bd 861b 463d
000001f0: cdb1 9bbc aa13 a63d 5a5a 8f3c d869 a13d
00000200: b77b f5bc 50f4 7fbd c5ab 87bd 7d45 803d
00000210: cca6 2abd 7ce2 cbbd f009 143d cb75 973c
00000220: 89b4 c53d e712 183d 4278 4abc d9f7 8fbd
00000230: 4f85 0dbd 5fbf e2bc 62a2 3ebd a80e 88bd
00000240: 0acd 593d d6b4 633d 5d4a 03bd d1c3 7bbc
00000250: 7e01 7c3d 894e ca3c 0a93 1a3b de80 2bbc
00000260: cddd fd3c ae01 4fbc a570 2cbd d602 05bc
00000270: f4b2 673d df90 16bd 2d30 30bd c71b 9abc
00000280: 8010 fbbc 9bf0 56bd 57ce 38bc f0d7 0e3d
00000290: 39c6 883d 6bd8 e23c bcb0 723d 74ed a63c
000002a0: 72ee a6bc cbc6 6fbd 658d dabc 90d8 d53c
000002b0: b640 9e3b c291 e8bc 9b28 3dbc 991b 7f3c
000002c0: 300f 2a3d b593 a63d f318 1c3e 6a49 113c
000002d0: 59b1 103d 2574 173e 1f0d 6d3d d277 963c
000002e0: 8880 f3bd fdbc 83be f374 5dbe da03 87be
000002f0: 55e0 f3bd 7dfb 853d 6c02 88be afc8 ab3b
00000300: 7421 31be afbf 7d3d ba36 d2bc 4b27 12bd
00000310: 7c33 813d cabd 48bd 733e 00bc 7d4d b4bd
00000320: cb31 633e 4172 abbd 1c90 e83d 0984 4b3d
00000330: 16fd 573d 77a4 14bc 0eb2 6cbd bb3d c03d
00000340: 6bb9 463e bec4 603d 6ef4 913d cefe 33bd
00000350: c580 93bd 13d0 bdbd 6161 29bd 6efc c6bc
00000360: 49a0 a63d 116e 033e e446 a9bd 863c 47be
00000370: 5838 a23d 1a37 b1bd cad4 873d 114e 9fba
00000380: 12a2 8bbd 9b64 873d 63c8 e03b 5b2c 6b3d
00000390: 9f07 02be a058 19be 31f9 623e 65ae 943d
000003a0: 84b0 a53d 62bd 4bbd 648a 03bd ac20 163c
000003b0: a3d2 163e ebcf 593e aa30 1c3e 2867 433d
000003c0: f3e0 a83d beb8 813e 9342 c23d ee4b 943d
000003d0: 173f a43d 3442 b13d b4e5 0f3c 3904 61bc
000003e0: ca6a a03d 3e71 023e 8f4d 3bbd 3837 1a3d
000003f0: 81b1 b5bd 6548 2e3d 5102 0d3d 4f29 f9bb
-0.067905255 0.044584904 -0.009890544 0.05868874 -0.007283301 -0.09985001 -0.07411925 0.13430591
-0.032377157 -0.050037295 0.11293129 -0.08483039 0.10978418 -0.02364656 -0.0031967647 0.0786719
0.016412502 -0.10387444 0.00043515876 -0.073970824 0.020248238 -0.09841818 0.008396583 -0.083004795
-0.12289415 -0.080292255 0.09796318 -0.19286564 -0.30421475 -0.26785827 0.1316257 -0.09258728
0.057609838 0.068440564 0.06032007 -0.054649178 -0.3790716 -0.15419753 -0.17856285 -0.17315696
3.143851e-05 0.008856833 0.10906593 -0.16788666 -0.16702181 0.2992462 -0.34414002 -0.10646348
0.05655754 0.08998297 0.0097796405 -0.15023698 0.014155116 -0.3250126 -0.31805637 -0.060219426
0.19318065 -0.02842549 0.08853813 0.054507058 -0.048812766 -0.07427259 -0.013990687 0.08133492
0.13277061 -0.11850774 -0.037788324 -0.08787632 -0.049350295 -0.029546415 -0.020809026 0.06502874
-0.097790964 -0.020547131 0.005308712 -0.0038162204 -0.032649577 -0.022989728 0.023825267 0.11712401
0.08045978 -0.08954829 0.04363657 0.05346307 0.0795796 -0.0012630416 0.046364024 -0.0417639
0.022008026 0.11731092 0.0947201 -0.017386395 -0.041065924 0.044295795 0.16276306 0.10128007
-0.011656223 4.5978228e-05 0.08861048 -0.022188209 0.09175152 -0.0034250524 -0.045964 0.044442706
0.04474445 0.010124141 -0.0042425734 0.06184025 0.06976095 0.054652683 0.019342223 -0.013743549
-0.013269316 -0.04794014 0.016281813 -0.11038329 0.042453818 -0.07331361 -0.06553333 0.054340262
0.021561021 -0.028712064 -0.067300946 0.048366092 -0.01900568 0.08109219 0.017499138 0.07881516
-0.029966218 -0.062488854 -0.06624559 0.06263254 -0.041662976 -0.09955308 0.03614229 0.018488785
0.09653575 0.0371274 -0.012357773 -0.07029695 -0.03455096 -0.027679143 -0.04654158 -0.066434205
0.053174056 0.05559238 -0.03205334 -0.0153665105 0.06152486 0.024695652 0.0023586177 -0.010467736
0.030989552 -0.012634678 -0.042099614 -0.008118352 0.056567147 -0.036759254 -0.043014694 -0.018812073
-0.030647516 -0.052475553 -0.011279664 0.034873903 0.06678433 0.027691087 0.05925058 0.020376898
-0.020377371 -0.058539193 -0.02667875 0.026104242 0.0048294915 -0.028389815 -0.011545326 0.015570545
0.04151839 0.08133642 0.15243892 0.008867601 0.035325382 0.147904 0.05787384 0.018367682
-0.1188975 -0.25730124 -0.21626644 -0.26370126 -0.11908022 0.06542108 -0.26564348 0.005242429
-0.17297918 0.06195038 -0.025660861 -0.035682004 0.06308648 -0.049009122 -0.007827389 -0.08803842
0.22186963 -0.083714016 0.11355612 0.049686465 0.052731596 -0.009072415 -0.057786994 0.09386774
0.19406669 0.054875128 0.071266994 -0.043944173 -0.07202295 -0.09268203 -0.041352633 -0.02429029
0.08136041 0.12834956 -0.082654744 -0.19456682 0.07920903 -0.08653088 0.06632383 -0.0012154003
-0.06818022 0.06610986 0.0068598255 0.057415348 -0.1269822 -0.14975214 0.22165371 0.072598256
0.08090308 -0.049741156 -0.0321144 0.009163063 0.14728789 0.2127072 0.15252939 0.0477058
0.08246031 0.2533626 0.09485354 0.07241045 0.08019846 0.08655205 0.008782793 -0.013733917
0.078328684 0.12738511 -0.045728263 0.037650317 -0.08871747 0.04254951 0.034426037 -0.0076038013

FC1.bias f4 [128]
00000000: c468 453d 048f 3fbc e78f a7bd a8a5 9fbd
00000010: bbf1 d8bc dd41 43bd 7b87 42bd a846 a9bd
00000020: 5a28 36bb c623 833d 43ca 273d 65ac 96bd
00000030: 2668 77bc 5e84 6bbd 71f1 d3bb 4fa3 3dbc
00000040: 1816 293d 358b b7bc 6410 933c bc02 883d
00000050: c7cc 393d 58a4 87bc 017a 0fbd e8ac d1bc
00000060: 4498 613c fb2a f5bc 692f 863d aefa 8bbd
00000070: 49ca 30bc 11cc 35bd 5f3d ca3c 3958 adbd
00000080: 4e57 37bd 028e a83d c97b 77bd 5937 2d3d
00000090: 7b62 16bd e924 3bbd a42a 583d c07d 793d
000000a0: e84b 233d 6898 d93a 44bd 243c c9b7 4d3d
000000b0: 7dbe ed3c 8738 30bd 75a8 8abd 6a3e 403d
000000c0: ded6 703b 6f6d 8bbd 0a96 84bd 3441 0ebd
000000d0: fc6f c73c e32e 77bd a356 283d d5a0 aa39
000000e0: e788 e2bc 9d43 f5bc 1b79 903d 3012 fb39
000000f0: 0ced 233d 1c6c 21bb be43 c73c 6dae 81bc
00000100: aac1 aebc 55d1 62bc eb4b 5abc d895 04bd
00000110: 4a3e 4abd d7e2 cb3c faaf a3bd 34b7 48bd
00000120: 7662 d53c 13c6 1e3d 4d3b 70bc 3fbe 673d
00000130: 4282 9ebd 8eab cbbc d277 af3c 8fc4 6d3d
00000140: 9a4a 99bb f83d 313d b851 00bd c3ac 1a3d
00000150: 0984 ca3b e198 343c 47bd 08bd 323f 9fbc
00000160: 21e5 8aba 703d 8b3d 4c7e dfbc 5ff8 8b3d
00000170: 7727 41bd 56e7 733d b091 913d 3b1d ba3c
00000180: 7d8b 84bd 61a3 7a3d 14e7 34bd a196 503d
00000190: e0e5 833d e1ac 20bd adaa 6c3d b33c 4b3c
000001a0: 8f10 00bd 3b50 253c 1a3c 24bc 43ca 093d
000001b0: bd61 82bc d3df 30bd 8944 6bbc 94dc 61bc
000001c0: f3c8 813c 6cd0 2a3d ec1f f4bc ada2 5fbb
000001d0: 9185 913d 448b 10bd 595c 3a3d ba15 3bbd
000001e0: 6a8f 17bc e16b 153d ee6d 39bc 3a0f 08bd
000001f0: ce95 cbbc 7f0f 5b3d dcb3 49bd 9d25 9fbd
0.048195615 -0.011691812 -0.08181744 -0.07795268 -0.026482454 -0.047670234 -0.047492485 -0.0826543
-0.0027795047 0.064033076 0.040964376 -0.073571004 -0.0151005145 -0.057499282 -0.006467991 -0.01157458
0.041280836 -0.022405246 0.017952152 0.066411465 0.045361307 -0.016557857 -0.03502846 -0.025595143
0.013769213 -0.029927721 0.065520115 -0.06834923 -0.010790416 -0.044384066 0.024687467 -0.08464093
-0.044760995 0.08230211 -0.060420785 0.04228911 -0.036715012 -0.045689497 0.05277504 0.06091094
0.03986731 0.0016601207 0.01005489 0.0502241 0.029021496 -0.04302266 -0.06770412 0.046934523
0.0036749165 -0.06807982 -0.0647393 -0.03473015 0.02434539 -0.06034745 0.04109825 0.00032544756
-0.02765317 -0.029939467 0.07054349 0.00047888 0.040020987 -0.0024631089 0.024324294 -0.015830243
-0.02133258 -0.013843854 -0.013323764 -0.032369465 -0.04937581 0.02488844 -0.07992549 -0.04900284
0.026047926 0.038763117 -0.014662576 0.056577917 -0.077396885 -0.024862077 0.02141944 0.05804878
-0.0046780827 0.04327199 -0.031327933 0.037762415 0.0061802906 0.011022777 -0.033383634 -0.019439314
-0.001059685 0.06798828 -0.027281903 0.068344824 -0.047156777 0.05954679 0.07107866 0.022719016
-0.06471918 0.061190967 -0.044165686 0.0509249 0.064403296 -0.03922737 0.057779957 0.012404609
-0.03126579 0.010089929 -0.010024095 0.033640157 -0.015915746 -0.043182205 -0.014359602 -0.0137855
0.01584289 0.041702673 -0.029800378 -0.0034124062 0.07105554 -0.035289064 0.045498226 -0.045675017
-0.009250501 0.036479834 -0.011317713 -0.033217646 -0.024851706 0.053481575 -0.049243793 -0.07770846

FC2.weight f4 [64, 128]
00000000: 4f9c 553c 8ed9 88bd 9b87 e73d ff96 b9bd
00000010: f894 1cbd 962b 99bc 7ee0 933d bdb5 45be
00000020: de25 313e c749 4a3d 89c2 623c 63d7 fb3b
00000030: f54d 91bc d417 293c 3bdf 92bc 162d df3d
00000040: db8c 0fbe 3429 61bb be58 c2bd 1326 98be
00000050: ac8c ccbc f989 53be 8f43 8c3d e976 d93d
00000060: 4c70 eb3c 38a2 9cbe 030f d2bd b0e0 893d
00000070: f400 b0bd 2a8a 3ebd 52ed ae3d b4c6 d3bc
00000080: 928a a63d 830c 6dbd d3c1 b8bd 9b64 263c
00000090: a4cf 103e 83b5 da3c f21d 86be 825a 2fbe
000000a0: 4c6f 153d 2ba2 293d ad3d b7bc a580 4e3c
000000b0: fdb5 6fbc f960 0dbe c789 62bd 5d6a 5c3e
000000c0: a366 f73c db2b 133d 11b2 723c 4809 3a3d
000000d0: 01af 3e3e 2c06 d5bc 8693 c1bb d3ea d03c
000000e0: e109 97bd 95bc dc3c 5a6b 0a3c 2d1a bf3c
000000f0: 4ad2 c93d 6cf3 e03a eee8 2cbe 273b ec3d
00000100: b57d c0bd 99b0 d83d 9274 733e abab e63d
00000110: 9338 373d 3e15 c8bd 1e07 6ebc b98b 3cbe
00000120: 5a84 d93d d92b b33b f406 8e3c c4e4 1abd
00000130: c143 4b3d 8704 333d d9a2 2d3e ab87 313e
00000140: 14f3 efbc 9251 e83d 3610 4dbe 611f 413e
00000150: d5f6 9f3d 287e 4fbe 9d23 4d3b e2e8 833d
00000160: 19d0 20be 17fa 01be 248e 8e3d 6b65 80bc
00000170: e1b8 de3b 16d6 9f3d 3928 32bc 2630 c0bc
00000180: e437 3d3d 7b94 0c3d f7bd 7e3d 4181 eabd
00000190: 4cc7 73ba 6a33 943d 9793 22be 48ec 1e3d
000001a0: a8f4 253d 626d f3bc 3d0a 953d fc63 26be
000001b0: 1f6f b2bd ce34 b7bd 7865 5ebd deaf 39be
000001c0: fd96 1d3c 6b0e 113e 3152 5cbd 6824 803d
000001d0: 0f49 b33d bfce 333d f594 95bc 8fd7 89bd
000001e0: a654 3fbc 35e1 0c3d 5938 99bd 6b82 553c
000001f0: b1d7 9fbd 3214 6fbd 09eb 41be dd6d db3d
00000200: 9ed4 b9bd e0c3 9abd 5b96 1ebe aeda fa3d
00000210: f105 b7bd d06c 423b 8dba 273d 7e25 063e
00000220: 9424 683d 685c 173e 4396 05be ad1e c33c
00000230: 8bc8 403d 9293 29bb 37b4 3f3e ee01 88be
00000240: 93fa 2d3b 674d 743d 7021 5c3d 3247 40bd
00000250: cc06 58bd 6eb0 9abd 3e28 873c 5e66 26bd
00000260: f23b b8bd dc80 c4bd e2ba 24bd 7138 45be
00000270: c8a3 053d 0789 343d 81b4 80be 5c76 783d
00000280: 7bd9 c93c f83d 8e3d 6ffa 563d 4d8e b7bc
00000290: 3aa0 323e 3709 013e 7358 3cbd 7537 03be
000002a0: 6e4f a3bc bb3b 073e 1ff0 8bbe 3fd8 fbbc
000002b0: ffea 053e 1c42 37bd 607e 023d b82d 083e
000002c0: d233 303e f34f 80bd 4c55 44be 83bf 77bc
000002d0: f647 8dbe 7de6 7cbd 7ead dc3d 4499 1bbb
000002e0: 2430 de3d 756c 103e 59c7 9c3c 0af9 d7bb
000002f0: ffd3 0a3e c1f8 4cbe 5166 6bbd 5195 17bd
00000300: 027f f1bd 0c4f 853d 0d77 d93c ed59 c5bd
00000310: cdbe c03d fd9a 033e 1420 87bd 1393 41be
00000320: 0655 a13d 35e1 89bd 06dc ee3d fe3a 313d
00000330: 803a 9f3d de49 22bd 0b29 4b3d 2a36 863d
00000340: 5e21 0a3e 4360 593c eb95 cbbd cfb0 ea3d
00000350: 194e 253e 3ace 40be c802 ca3c 1afe adbd
00000360: 9c12 793d ac1c 13be bc00 6bbe 319b 1d3d
00000370: d595 813d 508e 9a3d 7a38 3e3d f5a3 9a3c
00000380: 8382 863c 864b 483e 7234 a83c 816f 2bbe
00000390: 9ed7 c33d 3c43 ecbd 39db ea3d e7d1 0d3e
000003a0: e0f6 dfbd b605 3f3d b772 2f3e 5f23 563d
000003b0: 4da4 f9bd 1d06 a1bd 7039 e8bc fa6a e1bd
000003c0: 0531 3a3e 311e c33d bed5 24be e78f 8cbd
000003d0: a6f5 e33d 562f 87bd 5bd9 883b 6b3a fbbb
000003e0: a015 b5ba 23b5 d03d 62f9 b73c 09fa 72bc
000003f0: 7002 88be c60a acbd 794c e7bd 9ae8 34bc
0.013037755 -0.0668212 0.113051616 -0.09062003 -0.038228005 -0.018697541 0.07220553 -0.19307609
0.17299601 0.049386766 0.013840326 0.007685588 -0.017737368 0.0103206225 -0.01792871 0.10897271
-0.14018576 -0.0034356834 -0.094895825 -0.29716548 -0.024969421 -0.20658101 0.06848823 0.106183834
0.02874007 -0.30592513 -0.102567695 0.06732309 -0.08593932 -0.046518482 0.08541359 -0.025851585
0.08131899 -0.05787326 -0.09021344 0.010155822 0.14141709 0.02669788 -0.2619472 -0.1712437
0.036483094 0.04141442 -0.022368276 0.012603913 -0.014630792 -0.13806523 -0.055307176 0.2152495
0.030200308 0.035930496 0.014812962 0.045419008 0.18621446 -0.02600392 -0.0059074787 0.025502598
-0.07374931 0.026945392 0.008448446 0.023327911 0.098545626 0.0017162389 -0.1688573 0.1153472
-0.09398977 0.10580558 0.23774937 0.11263212 0.044731688 -0.097696766 -0.014528064 -0.18412675
0.10620947 0.0054678735 0.0173373 -0.037815824 0.049625162 0.04370549 0.16956653 0.1733691
-0.029290713 0.11343683 -0.20025715 0.18859626 0.07810751 -0.20262969 0.0031301745 0.06440903
-0.15704383 -0.12693058 0.06960705 -0.01567336 0.0067969416 0.078045055 -0.010873848 -0.023460459
0.04619588 0.03432129 0.062192883 -0.114504345 -0.0009299412 0.07236369 -0.15876614 0.038799554
0.040516526 -0.029715244 0.072773434 -0.16249079 -0.08712601 -0.089456186 -0.054295987 -0.18133494
0.009618518 0.14165656 -0.05378932 0.06256944 0.08754169 0.04389834 -0.018259505 -0.06730568
-0.011677897 0.03439446 -0.074814506 0.013031582 -0.07804812 -0.05836887 -0.18937315 0.10714314
-0.09073757 -0.075568914 -0.15487044 0.12248741 -0.0893668 0.0029666908 0.040949393 0.1310024
0.05667551 0.14781344 -0.13045602 0.023818338 0.047066253 -0.0025875312 0.1872109 -0.26563972
0.002654706 0.05964413 0.053742826 -0.046942897 -0.052740857 -0.075531825 0.016498681 -0.04062497
-0.08995809 -0.095948905 -0.040217288 -0.19259812 0.032626897 0.044075992 -0.25137714 0.06065975
0.024639836 0.06945413 0.052484926 -0.022406721 0.17443934 0.12601171 -0.04598279 -0.12814124
-0.019935336 0.13206379 -0.27331635 -0.030742763 0.13077925 -0.04474078 0.0318588 0.1329869
0.17207268 -0.06265249 -0.19173163 -0.015121344 -0.27593964 -0.06174325 0.107752785 -0.0023742476
0.10849026 0.14103873 0.019138025 -0.006590967 0.13557433 -0.20016767 -0.057470623 -0.037007634
-0.11791803 0.065092176 0.026546026 -0.096362926 0.09411392 0.12852092 -0.06597915 -0.1890376
0.07877545 -0.06732408 0.1166306 0.04326915 0.0777483 -0.039621226 0.04959969 0.065533
0.13489291 0.0132675795 -0.09940704 0.11459505 0.16143073 -0.18828669 0.02465953 -0.08495732
0.060808763 -0.14366406 -0.22949499 0.03847808 0.06327406 0.07546675 0.04644058 0.018877009
0.016419655 0.1956006 0.02053282 -0.16741754 0.0956261 -0.115362614 0.11467595 0.13849603
-0.109357595 0.046636306 0.17133604 0.052279826 -0.12189541 -0.07862494 -0.0283477 -0.11006732
0.18182762 0.09527243 -0.16097161 -0.06863385 0.11130838 -0.066008255 0.0041763014 -0.007666876
-0.0013815649 0.10190799 0.022457782 -0.014830121 -0.2656436 -0.08400492 -0.11293883 -0.011041785

FC2.bias f4 [64]
00000000: 5688 8cbd 46d4 c4bd 7429 d8bd 3808 f4bd
00000010: 4ac1 8bbd eec9 d73b 81e0 bebc 8c6c 2ebd
00000020: 59d4 39bd 18ae 5e3d a859 a6bc c029 93bd
00000030: e84f 6fbd 911a 353d 4f8a 44bc f223 093d
00000040: 4f5c bdbd 16aa 08bd ec96 e63c 6a46 63bc
00000050: 01e2 9bbd 85b2 98bd 5421 a0bd 6d71 56bc
00000060: e858 213c cbb3 d9bc e25f 0b3d 2925 f7bd
00000070: c6ff 08bd 9780 a9bd da61 ccbd 8d5e 4ebd
00000080: 6751 f33d 6733 20bd 1fb4 85bd 2c74 4bbd
00000090: 5107 dabc 5148 323d b3cf b13d bdb3 f03d
000000a0: 6eac d6bc 9cb8 42bd 2c4b 2dbd c3dd ea3c
000000b0: a911 9b3c 3f74 3d3d 78d1 c73c 8a03 4bbd
000000c0: 974f aebc 61bc d1bd b75c a6bc 6f5b e43c
000000d0: 97e6 f83d 52d6 333d 1c0a 403c dd49 3f3d
000000e0: d86f 63bd 3b2d 81bb 3bb8 f0bc 1a34 0b3d
000000f0: 9742 adbc 71fe 8e3d a57d edbb e30d 8b3d
-0.068619415 -0.096108004 -0.105547816 -0.1191563 -0.06823976 0.006585351 -0.023300411 -0.042583987
-0.045368526 0.054365247 -0.020306423 -0.071856976 -0.058425814 0.04421479 -0.011995866 0.033481546
-0.09246122 -0.03336533 0.028148137 -0.0138717685 -0.07611466 -0.07455925 -0.07818857 -0.013088566
0.009847857 -0.02657499 0.034026988 -0.120676346 -0.03344705 -0.0827648 -0.09979601 -0.05038314
0.11880761 -0.03911152 -0.06528496 -0.049671337 -0.026614817 0.043525998 0.086821936 0.11753032
-0.026205268 -0.04753934 -0.042308018 0.028670197 0.01892932 0.04625344 0.024391875 -0.049563922
-0.021278186 -0.102410085 -0.020307882 0.02787563 0.121533565 0.043905564 0.01172116 0.0467013
-0.055526584 -0.0039421595 -0.029384723 0.033985235 -0.021149917 0.069821246 -0.007247644 0.06789758

FC3.weight f4 [2, 64]
00000000: 3a3b 89be 509a 0b3e 0443 1a3c 743f b53d
00000010: 7760 2a3e 182d 97be 1727 663c 3b4d e93d
00000020: 7b00 de3d ae29 75bd 943d 5e3e a0d8 4b3e
00000030: fae7 e33d 4e3e 593d eb1b 0e3d 2a00 d93d
00000040: 666f bf3e 456f a4be 117f f5bd 1e28 01be
00000050: 49a4 143e 5a53 713e 9165 bd3e a906 a53d
00000060: 24fa 01be a072 b6be b69f 813b c1a5 683e
00000070: 6681 eebd fc92 093e ac93 533e 113a 35bd
00000080: 0b6b 38bc 7896 d3bd 8b7e 3fbe b5ec da3d
00000090: 0473 d5bd 9ba0 173e c316 82bd 9042 59bd
000000a0: 6fa6 0c3e 12b0 0a3e 71f1 0c3e 5958 e6bd
000000b0: fe57 b3bd 6ff1 443e 2c2f 88be df31 4c3d
000000c0: d6ce 2e3e c3ba 1bbe abb9 71bd 27c6 9fbe
000000d0: 3c16 91bd a2af e5bc e98f 4cbd 8253 83bd
000000e0: ef02 c43d f0c4 c03d 59ef a13e 39c5 61bd
000000f0: a2c2 01be 7ca7 a0bd 1309 9bbd 0e34 b7bd
00000100: 5835 89bd 08e2 8abe 329c 22be 4eee 743d
00000110: 839e 3ebe bef7 27bc 1a17 39be 3385 81bd
00000120: 0f42 6d3d 73c6 8bbc 0af0 0d3d 4a4f 463e
00000130: a70d dabc b4dc 94bd 86d2 19be de47 b33d
00000140: cad9 8a3e bee6 64be a432 b93b a028 14be
00000150: 4d88 f0bd eb54 c23d d486 363e b504 88bd
00000160: 3ad8 0ebd 739f 22bd 04b2 e6bd 21df b73d
00000170: 850c f1bd 9f72 f33d 0641 5c3c 1ce8 62bd
00000180: 11e8 a53d 61d0 42be 5669 a2bd d2e9 4a3d
00000190: 6ebb 583d fbec 1dbd 36fe 003c eddd 30bd
000001a0: ef7c cbbd 496e 153d 459b d5bc 896c 153c
000001b0: 4d98 bfbd 9110 ae3d 66e0 14be 00a2 753d
000001c0: 4218 963c 22a7 d43d c3d6 a9bd 5588 69bc
000001d0: 1b09 423d cd80 9fbd 1c81 4d3d 5da8 7fbd
000001e0: 5b94 7fbe e43f fa3d 4b6f 8dbd 4e86 0d3d
000001f0: 8035 203d f5da a93d 4685 dcbd 6cc3 87bd
-0.26803 0.13633084 0.009415392 0.08849993 0.16638361 -0.2952659 0.014047406 0.11391684
0.108399354 -0.059854202 0.21703178 0.19906855 0.111282304 0.053037934 0.034694593 0.105957344
0.37389678 -0.32116142 -0.119871266 -0.1261296 0.14515795 0.23566952 0.36991552 0.08057911
-0.12693077 -0.35634327 0.0039558066 0.2271948 -0.116457745 0.13434976 0.20661801 -0.04424483
-0.01125599 -0.10331434 -0.18700616 0.106896795 -0.10422328 0.1480736 -0.06351998 -0.053041995
0.13735364 0.13543728 0.13763978 -0.1124732 -0.087570176 0.19232725 -0.2659849 0.04985225
0.17071089 -0.15207963 -0.059014957 -0.31205866 -0.07084319 -0.02803785 -0.04994193 -0.06412412
0.09570872 0.09412563 0.3162792 -0.055119727 -0.12671903 -0.07844445 -0.0757009 -0.089454755
-0.06699628 -0.27125573 -0.15879896 0.059797578 -0.18615155 -0.010251937 -0.18075219 -0.06324234
0.057924327 -0.017062401 0.034652747 0.19366184 -0.026617838 -0.07268658 -0.15021715 0.08753942
0.27119285 -0.22353646 0.005651789 -0.14468622 -0.11744747 0.09488853 0.1782487 -0.06641523
-0.03487418 -0.039702844 -0.112644225 0.08978105 -0.11769966 0.118870966 0.013443237 -0.055397138
0.08100904 -0.19024803 -0.079302475 0.049539395 0.052913122 -0.03855608 0.007873109 -0.043180395
-0.099359386 0.03648213 -0.026075015 0.009120115 -0.09355221 0.084992535 -0.14538726 0.05996895
0.018322114 0.103834406 -0.08292916 -0.0142536955 0.047371965 -0.07788239 0.050171956 -0.062416423
-0.24958937 0.122192174 -0.06905993 0.03455191 0.03911352 0.08293716 -0.107676074 -0.06629071

FC3.bias f4 [2]
00000000: 1b11 913d b5a7 ecba
0.07083341 -0.0018055352

FC1.weight f4 [128, 180]
00000000: 9d07 cabd 8678 23bd 0e32 fcbd 38ad 453d
00000010: 52b8 15bd ced7 fe3c b853 c3bc 92d0 6c3e
00000020: 241b b7bc 2519 2f3d 91b0 be3c c1ef 9cbd
00000030: b886 e63c 7f90 12be 1608 8f3d a4a6 3c3d
00000040: 6576 0bbd e546 283d 8f35 5cbd d2a8 ac3d
00000050: d9f7 36bc 8066 a3bc e9d8 bf3c 13f0 0f3e
00000060: 9fa2 073e c90e d73b 4ce8 683c 8a71 ed3c
00000070: 7505 2abd 91f7 243c e428 cd3c ee86 533d
00000080: 40e6 c03d 42a3 b93d 4bd6 1f3e 71c5 aabd
00000090: 69d1 103e 23ce bc3d 6c12 89be d990 763c
000000a0: 9f70 33be f0b1 1b3d c8de 72bd 9bc8 98be
000000b0: da09 53be 1fc1 44bd 3e49 f33c 06a3 8e3c
000000c0: 7bb3 643d 7212 ec3c c507 5fbd 7960 153d
000000d0: 3e7f 9dbc c117 8fbb 8db9 853d 3867 83bd
000000e0: 846b 003e c3b5 b83d 7c1c 2b3d a228 49be
000000f0: 1ec3 863d 5113 213d 3c1a b1bd 79a1 5ebd
00000100: c45d f9bc 8518 14be 2bd5 03be 85ef 8ebc
00000110: 1f76 d93d cbfb 853c ae5c 623d bede 39bd
00000120: 8f9d 843d dc96 7abd 9748 bfbd dec7 413c
00000130: 9c1f 2bbd b725 3d3d b9af f2bc 3fd5 5a3c
00000140: 18a4 40bd 768f 193e 0329 413d 2332 653d
00000150: 6f61 dcbd 5364 a2bc 5ed1 2c3e 59af faba
00000160: 7ed0 31bd 8405 07be be27 80bd 54e7 5dbe
00000170: 881d 04bd e5fd 26bd 82a4 4fbd cc4e 0d3d
00000180: a2aa aa3d aa5c 033e e3de 2b3d ba9d 523d
00000190: 350b 04bc 0a72 483d 66c7 e73c a01a ef3d
000001a0: 563d 82bc e628 dfbc 8eac 603c fdc0 ff3c
000001b0: 76c6 223e 87a5 173e 482d fd3c 1549 1fbe
000001c0: 50ef 0c3b 3fd9 823d ce98 523d 3078 60bd
000001d0: ed1b 2f3d 4b07 bbbd ad48 5cbe 4fc1 92be
000001e0: 349f d03c 6e21 d23c 5699 0dbd 04b6 c8bd
000001f0: a854 03be 08c4 03be 910c ccbd 5baf edbd
00000200: b15e 59be a588 1ebe b588 05be 1950 543e
00000210: fd44 a1bd c535 ddbd 660d dcbd 105b b6bc
00000220: 7d5a aabd ce96 66bd bd14 debd b382 ff3c
00000230: 729b b5bd 9223 6ebd 7dae 0a3d 621b a1bd
00000240: 1cee 8dbe 075d b2bd 5b02 cf3d 03cf 2b3d
00000250: e4cf c73b a9ab dbbb 86c6 72bd 0a98 f0bc
00000260: 086a d13c ea6f 813c 0eaa e53d 6254 3cbd
00000270: c480 74bd aaa9 473b 4ba8 5bbd a357 93bc
00000280: 1a01 1b3d 91b6 80bd 1780 8a3d 16a2 95bd
00000290: 99fe b0bd 7e61 a4bd 95fd 55bd a5c3 30bd
000002a0: 4d29 e93c 4e29 973c a55f 2bbc 6c02 973d
000002b0: 9d31 b2bd 711a 143d 4fe0 babb 076e 3abd
000002c0: 6a4b 4d3d 8a94 023e f1d7 6d3e f3a1 873d
000002d0: 5e69 20bc b2eb 87bc 1a5b 303d ca83 4bbe
000002e0: ca86 29be 41e1 37bd 9474 3b3d 0297 77be
000002f0: 3869 7e3c 7050 3bbc 9040 a5bc f4f9 61bc
00000300: 4082 ad3d 9a70 8a3d dd00 d3bd 8a8c 82bc
00000310: 8ef1 483e 80a2 2fbe 433a 093e a152 17b9
00000320: df20 133e a6d1 40bd 7341 ecbd cd41 d53d
00000330: f0cb bf3d 201e 963e 283c d8bd 2bcc b43d
00000340: f50c 503e 54b9 5b3e 97a9 1dbe 2ba5 19bd
00000350: 3388 f2bc 372a 00be 932c eebc 1535 e7bc
00000360: 155a 35bd a267 36bd 2448 01bd 8bc4 0a3d
00000370: dc5b da3d e65f 98bd 1371 5b3d 57e0 023e
00000380: 3e8b 073e 972e 0e3e aa3a 03be f13c bcbd
00000390: a78f cc3c 5769 563d 1d28 373e f0ee e4bc
000003a0: 2bb6 ccbb 75b0 1bbe a173 abbd 6193 143e
000003b0: 7b8d 4f3d 4b62 dbbd 3298 e03c 7c68 333d
000003c0: 9dc1 2d3d d401 913c d8a3 d5bd fc46 5cbd
000003d0: 061a 7c3b 682c 9c3d faf8 81be 9fa2 f4bd
000003e0: 9e76 303e 03e8 813d ef5e a1bd 3c85 9abd
000003f0: e7d1 d93d 9f39 283e c4d0 383e 2bd6 863d
-0.09864733 -0.039909862 -0.12314235 0.048260897 -0.036552735 0.031108763 -0.023843631 0.23126438
-0.022351809 0.04274859 0.023277553 -0.07662917 0.02814041 -0.14312933 0.06983964 0.04605736
-0.034048457 0.041083235 -0.053762015 0.084306374 -0.01116749 -0.019946337 0.02341886 0.14056425
0.13245629 0.006563042 0.01421554 0.028984804 -0.04150911 0.01006879 0.025043912 0.05164235
0.09418917 0.09064342 0.1560909 -0.0833844 0.14142384 0.09219005 -0.26771867 0.015049183
-0.1752343 0.03801149 -0.059294492 -0.2984055 -0.20609227 -0.048035737 0.02969801 0.01741172
0.05583523 0.02881739 -0.05445077 0.036468957 -0.019225713 -0.0043668454 0.06529532 -0.06416172
0.12541014 0.09019043 0.04177521 -0.19644406 0.065801844 0.039325062 -0.08647582 -0.05435321
-0.030440219 -0.14462478 -0.12874286 -0.017448196 0.10618233 0.016355416 0.055264167 -0.04537844
0.064753644 -0.061179027 -0.09340017 0.011827437 -0.041778192 0.046178546 -0.029624807 0.013356506
-0.047031492 0.14996132 0.047158252 0.055956017 -0.107607715 -0.019823229 0.16876742 -0.0019125744
-0.043411724 -0.13185698 -0.0625758 -0.21670276 -0.032254726 -0.040769476 -0.050693996 0.034498975
0.08333327 0.12828317 0.04196061 0.05141995 -0.008059313 0.04893688 0.028293323 0.11675
-0.015898388 -0.027241182 0.013713015 0.031219954 0.1589602 0.14809237 0.03090538 -0.15555222
0.0021504946 0.06389093 0.051415257 -0.05480212 0.04275124 -0.091322504 -0.21512099 -0.28663108
0.025466539 0.025650706 -0.03457006 -0.09800342 -0.12825263 -0.12867749 -0.09963334 -0.11605712
-0.21227528 -0.15481813 -0.13040431 0.2073368 -0.078744866 -0.10801271 -0.10744743 -0.022260219
-0.083180405 -0.056296162 -0.10843799 0.031190252 -0.088675395 -0.05813939 0.03385781 -0.07866551
-0.27720726 -0.0870915 0.10107871 0.04194547 0.0060977805 -0.006703813 -0.059271358 -0.029369373
0.025563255 0.015800435 0.11214076 -0.04597891 -0.059693113 0.0030466118 -0.053627294 -0.017986124
0.037842847 -0.06284822 0.067627124 -0.07306306 -0.08642311 -0.08026408 -0.052243788 -0.04315533
0.028462077 0.018452313 -0.010459815 0.07373509 -0.08700869 0.03615803 -0.005703009 -0.045515087
0.05012075 0.12751976 0.23226906 0.06622686 -0.0097907465 -0.01659188 0.04305563 -0.19874492
-0.16555324 -0.044892553 0.045765474 -0.24178699 0.015528016 -0.011432752 -0.020172387 -0.013792504
0.08472109 0.06759758 -0.10302899 -0.015936155 0.19623396 -0.17151833 0.13401131 -0.00014431264
0.14368008 -0.047074936 -0.11535921 0.10412941 0.0936507 0.2931986 -0.10558349 0.088280044
0.20317443 0.21457416 -0.15396725 -0.037511032 -0.02960596 -0.12516104 -0.029073989 -0.028223554
-0.044275362 -0.044532426 -0.03156294 0.033878844 0.10662052 -0.07440166 0.053574633 0.12780891
0.1323671 0.1388496 -0.12815347 -0.09191311 0.024970843 0.052346554 0.17886396 -0.027945966
-0.006247302 -0.15204032 -0.08371664 0.14509346 0.050672036 -0.10712107 0.027416322 0.043800816
0.042420972 0.017701067 -0.10431641 -0.053778633 0.003846766 0.07625657 -0.25385267 -0.1194508
0.17232749 0.06343081 -0.07879435 -0.07544944 0.10635739 0.1642823 0.18048388 0.06583818

FC1.bias f4 [128]
00000000: 2ebc 9fbd bb02 fe3c 91ad c5bd d3ba bb3b
00000010: f47d 3fbc eff3 dfbc 0eee 27bd 257c c7bc
00000020: 917c 003d ad2c 13bc ca91 2fbd 8d75 edbc
00000030: 596a e43b 26b9 75bd 8698 92bc e45e e6bc
00000040: 799e 93bd d4c7 f63a afe1 fcbc d623 233d
00000050: f87b 603c d199 6cbc c58f d4ba b769 503d
00000060: 8567 51bd cb9c bdbd 92a0 88bc 7d9e 563d
00000070: bcdc 5a3c 6831 363d f005 803d f3a6 493d
00000080: e840 b8bc 9eff 46bd b6c7 06bd a423 583d
00000090: ccc1 21bd 26c6 20bd 5d55 44bd 88a0 e7bc
000000a0: 0918 73bd 331f 9fbd 81c1 653d 1fe5 c33c
000000b0: 0989 a5bc ba5a 35bd e1c8 183d 18d8 843d
000000c0: 8037 3c3d e20b 903b f76d 34bb 2da9 bf3c
000000d0: 7846 133d f6ed c33c 403c a7bd 5f65 d03b
000000e0: f9bc 6fbd d3f4 23bd 3835 08bd e6e5 afbd
000000f0: 6a0b 2b3d 4741 f83c 4039 173d b883 f8bb
00000100: 3e73 bb3c 31b4 e5bc f277 58bd 91ff 263d
00000110: e9de e2bc ffed 093d 6dd5 81bc 9c3f d7bc
00000120: 50fd 96bc 67f0 1cbc 4ac0 9e3d adeb 71bd
00000130: 72cd 50bd 98b2 b8bd e033 5dbc 889f 7cbd
00000140: dfdc 183d 58a7 91bc f56a 163d c600 52bd
00000150: b112 ccbd 3411 d23c d490 48bd 236d 72bd
00000160: cf91 0e3d 5765 96bd 2e5f aabd 296b 473d
00000170: b457 f63c 7198 83bd 2c02 39bd 37ce 27bd
00000180: 1b62 06bc 930f 8c3d 646d 933b ae81 6e3d
00000190: 4949 283c c2e8 553a 889b ac3c 3825 8a3d
000001a0: ce7e 84bd 9db8 07bc 2d61 043c c67e 283d
000001b0: 0c7c 773d a99d 63bd e504 4ebd 7eb1 4e3d
000001c0: dd71 a2bc 55fe c1bc e606 ea3c 58c3 97bb
000001d0: a2d2 7abb e6b4 523d edba 2abd c416 13bd
000001e0: 8946 833d bb44 613d 394d 4a3d 35d6 393d
000001f0: 4a24 003d 0937 373b 1de1 8a3d bbe7 86bc
-0.07799564 0.031007161 -0.09652246 0.0057290583 -0.011687744 -0.027337996 -0.04099851 -0.024351189
0.031368796 -0.0089828195 -0.042863645 -0.028986717 0.0069706854 -0.059991024 -0.017894994 -0.02812142
-0.07207961 0.0018827864 -0.030869333 0.039829098 0.013701431 -0.01444097 -0.0016217163 0.050882068
-0.051124115 -0.092584215 -0.016678128 0.05239724 0.013358291 0.04448071 0.062511325 0.04923148
-0.022491887 -0.04858362 -0.032905303 0.052768365 -0.03949146 -0.03925147 -0.04793297 -0.02827479
-0.059349094 -0.07769623 0.056092743 0.023912964 -0.020206945 -0.044275977 0.037300948 0.06486529
0.045951366 0.004395948 -0.0027531364 0.023396099 0.035955876 0.02391718 -0.08165789 0.0063597406
-0.058529828 -0.040028404 -0.03325388 -0.085887715 0.041758932 0.030304564 0.036919832 -0.0075840615
0.0228821 -0.028040024 -0.052848764 0.04077107 -0.027694182 0.033674236 -0.01584884 -0.026275449
-0.018431336 -0.009578801 0.0775152 -0.05906265 -0.050977178 -0.09018439 -0.0135011375 -0.06167558
0.037320014 -0.017779991 0.036723096 -0.05127027 -0.099645026 0.025642969 -0.048966244 -0.059186112
0.034807023 -0.07343548 -0.08318935 0.04868618 0.030071117 -0.0642556 -0.045168087 -0.040968146
-0.008202101 0.06838908 0.0044991244 0.05822914 0.010271379 0.0008159989 0.021070257 0.0674538
-0.064694986 -0.008283761 0.008079809 0.041136526 0.060421035 -0.05557028 -0.050297637 0.05046224
-0.019829685 -0.023680845 0.028567743 -0.004631441 -0.003827252 0.05144205 -0.041682173 -0.035910383
0.06409938 0.054997187 0.04939005 0.0453703 0.031284608 0.0027956387 0.06781218 -0.01646792

FC2.weight f4 [64, 128]
00000000: 1613 11be ee1b a13d eea8 44bd 8c98 4a3d
00000010: 8005 40bc c1ad 113a 78f7 a63c 2868 13bd
00000020: 9d5b d5bc 9ebd 1b3e 7f5b 563d 8407 953d
00000030: bc6d 6dbe b1a8 163d ac1f af3c d09c 613d
00000040: 1f3b df3c 534e 3dbd df84 843d a878 6fbd
00000050: bfe8 89bc 3887 48bc 34a9 9fbc bf7b 9f3c
00000060: c9d2 573d db00 2a3b c9aa afbd 280b 74be
00000070: 90c7 45bd 9cdd 643e f726 f8bd 44c0 f33d
00000080: 3107 dbbd cf3b 2fbd fb86 8cbe 2826 4dbd
00000090: f523 dabd 5092 1a3d 9520 ca3d 3d80 b83d
000000a0: 6b8d fb3c 9e89 b5bd 8638 d33b a3fb c83d
000000b0: 6b53 633c 5608 05be 8fa9 12bd 9470 893d
000000c0: 87ad 103c 0e8f 7f3d f9b1 943d 25c7 ac3d
000000d0: 4177 c5be 7515 c63d 6e06 d33d 10a6 58bd
000000e0: 406d 10bd a647 0a3e b16a e13d 734e 9ebd
000000f0: e6df bd3b 715b 7bbd 46db 0bbe e38d 5c3d
00000100: f1cd 5cbd ee42 3c3a a844 063d 219f b63d
00000110: c20d c73c 12c1 343c 04d0 fb3c c317 debd
00000120: 0549 7f3d 0887 763d 5a9e d3bd 7bdf e5bb
00000130: 1d1c 6fbd 5a6f bebc cdc8 203e 71c9 cfbd
00000140: b699 31bd 8edb c2bd b80a bdbd 5e6f 94be
00000150: 6282 fabd fa5c 1f3d a251 553c 9f4a 6d3c
00000160: 3cf7 393d 117a 90bc 9774 d8bb 8a5e 2abb
00000170: 425a 2dbb fd78 b93d 8f9e fcbd 3587 2b3d
00000180: 3a39 6abd b946 a1bd ef72 393c 50ec 763d
00000190: 1a64 d5bd e371 f33d 59a7 9d3d f9d3 e23d
000001a0: 370e 3dbd 67e2 f73d 5b20 163e 19e4 5e3d
000001b0: 6418 aabd 7a6b 723d 6922 a23c b914 bcbd
000001c0: 7dcb 82be 78a3 473c ba03 e03c 7d81 23bd
000001d0: 3b89 2bbd 7bf3 523d 02a8 07bd 924c be3c
000001e0: fcf5 793d 61be 453c 83b1 af3d 5a0f d23d
000001f0: e9f9 cd3c d1f7 4b3e afba 2dbd 6ccb 823d
00000200: 6146 b2be 1fd1 3cbd 7bc1 cb3c c3b5 b4bb
00000210: ffc1 efbd 2940 753d f07b f63d f294 273d
00000220: 27c3 2fbc 0232 08bd d225 e83d a65c a33d
00000230: 41c6 6ebe e2cc 04bd d78a 34bd 0282 05bd
00000240: 7fe8 32be 4d23 12be 5245 c6bd d3c4 ce3b
00000250: 7105 debd 8e7c 82be f6cd 2fbe 8fc8 903d
00000260: d3d2 74bd 18cf dcbd 83be e5bd a1f0 353d
00000270: 5b9e 86bd d024 b0be 98f1 9bbc d578 3e3d
00000280: c7ef 1fbd 5243 9bbd 0ce6 a7bd 41b4 ec3d
00000290: 432e f5bd 88ec d3bb f40f 8c3c 29ec 51bc
000002a0: be54 56bc 2e59 1d3c 147a bfbd 0adc c43c
000002b0: 3258 153d 54a7 773c 6f1c b539 1d52 3b3d
000002c0: e47f b63d 728c 2dbe 8c8c a5bc f206 22bd
000002d0: e131 07be cd60 3dbd 44ac 323d c86a 87bd
000002e0: f41b e1bc 120e a8bd f079 31be 113d a03d
000002f0: 6f8b ffbc 99f5 49bd 7530 80bd 3d75 25be
00000300: 6034 4bbe 8c54 e73c 5a04 893d b73e f7bc
00000310: 9950 18be 7483 463e 6f8c 8ebd 4662 5ebe
00000320: da6b 663d 942f 28bc 8107 73bd 1528 5abe
00000330: 5054 f8bd 690d 06be 8908 12be 9f5e 2ebe
00000340: 3351 ea3c 1f86 803d c41c e5bd 7e79 ebbc
00000350: b421 6cbe d5e3 0f3c b4fb d13d c5e5 92bd
00000360: c2bb 1abe 0f22 27be d9a5 733d fa50 1abd
00000370: e048 24be 00d7 18be 08cf 1d3e 2759 ccbb
00000380: d80f 4ebe 5cd9 b0bc 52f9 a6bc aa15 213c
00000390: b62b 73bc 366f 4ebe c67f 233c d605 7ebd
000003a0: 7763 05be 273c b73c 7e6a 43be ed70 11be
000003b0: d376 1b3e 51f8 b6be eec6 c1bb 9526 d93d
000003c0: 914c 3ebc 780c 8cbe 00b9 f4bd a2e7 51bd
000003d0: bcb9 90be a64a a5bd 1b8d a2bc 051a 283e
000003e0: 6e94 b0bc 13d4 1bbe 1c7c 823d 5477 5d3d
000003f0: 95b8 3e3d 6c67 323d 7d68 afbd 959c 2cbe
-0.14167437 0.07866655 -0.048012666 0.049461886 -0.011720061 0.00055572024 0.020381674 -0.035988003
-0.026044661 0.15209052 0.05233335 0.07276824 -0.23186392 0.03678197 0.021377407 0.05508119
0.02724987 -0.046217274 0.06470656 -0.058464676 -0.016834615 -0.01223927 -0.019489862 0.019468186
0.052691255 0.0025940451 -0.085774966 -0.23832381 -0.04828602 0.22350162 -0.12116807 0.11901906
-0.10694731 -0.042781647 -0.27446732 -0.050085217 -0.106513895 0.03773719 0.09869496 0.090088345
0.030707082 -0.08864139 0.006445947 0.09813621 0.013874869 -0.12991461 -0.035806235 0.06710926
0.008830435 0.062392287 0.07260508 0.08436421 -0.38567546 0.09672061 0.10303961 -0.052892745
-0.03526044 0.13503894 0.11006678 -0.07729807 0.005794513 -0.061366502 -0.13657865 0.05384625
-0.05390734 0.0007181604 0.03278032 0.0891707 0.024298552 0.01103236 0.030738838 -0.10844376
0.062325496 0.06018737 -0.103329375 -0.0070151663 -0.05837642 -0.023246456 0.157016 -0.10145844
-0.04335948 -0.09514533 -0.0923056 -0.28991216 -0.122319 0.03890703 0.013019951 0.014483123
0.045401797 -0.01763633 -0.0066056955 -0.002599629 -0.0026451503 0.0905628 -0.1233493 0.04187699
-0.05718348 -0.078748174 0.011318906 0.06028396 -0.104194835 0.118869565 0.07697935 0.11075587
-0.046156134 0.1210373 0.1466078 0.05441675 -0.083054334 0.05918453 0.019791799 -0.0918364
-0.25545874 0.01218497 0.027345527 -0.03991841 -0.04187892 0.051501732 -0.03311921 0.023229871
0.061025605 0.012069316 0.085787795 0.10256834 0.02514358 0.19918753 -0.042414363 0.06386456
-0.3481932 -0.04609787 0.024872532 -0.0055148317 -0.11706924 0.05987564 0.12035358 0.04091353
-0.01072768 -0.033250816 0.11335339 0.07976656 -0.23317815 -0.032421954 -0.04407772 -0.03259469
-0.17471503 -0.14271279 -0.096811906 0.0063100844 -0.108408816 -0.25485653 -0.17168412 0.070695035
-0.05977137 -0.107816875 -0.11217978 0.044418935 -0.06573173 -0.34403086 -0.0190361 0.046501953
-0.03904703 -0.075812 -0.08198175 0.11557818 -0.11971714 -0.0064674057 0.01709745 -0.012812653
-0.013081728 0.009603782 -0.093494564 0.024030704 0.036461063 0.015115578 0.00034544195 0.045732606
0.08911112 -0.16948107 -0.02020862 -0.039557405 -0.13202621 -0.046234895 0.043621317 -0.06612164
-0.02747915 -0.08205809 -0.17331672 0.078241475 -0.031194417 -0.049306486 -0.062592424 -0.16158004
-0.19844198 0.028238557 0.06690283 -0.030181272 -0.14874496 0.19386083 -0.06960379 -0.21717176
0.0562552 -0.01026525 -0.05933333 -0.21304353 -0.12125456 -0.13091053 -0.14261068 -0.17028283
0.028603172 0.062755816 -0.11187127 -0.028744455 -0.23059732 0.008782347 0.10253087 -0.07172731
-0.15110686 -0.16321586 0.059484337 -0.03767488 -0.16043425 -0.14925766 0.15411007 -0.0062362137
-0.20123231 -0.02158802 -0.020382557 0.009831825 -0.0148419645 -0.20159611 0.009979194 -0.062017284
-0.13026224 0.02236755 -0.19083592 -0.14203234 0.15182047 -0.35736325 -0.005913607 0.10603062
-0.011614935 -0.27353263 -0.119493484 -0.051246293 -0.28266704 -0.08070879 -0.019842675 0.16416176
-0.021555152 -0.15217619 0.06371328 0.05406888 0.04656275 0.043555662 -0.085648514 -0.16856606

FC2.bias f4 [64]
00000000: f3e0 d4bc c4aa b73c 54ea 99bd ab4b 453a
00000010: e6eb aabc 113b 4cbb 34ef 8a3d e93d 823c
00000020: 2d7f 85bd 230a 84bc dbfd 0c3d 36a0 bcbd
00000030: 75d3 ce3d f2ad cb3b a4fe b23c 4e60 afbd
00000040: d572 92bd c016 a9bd d9e7 9abd 12c0 84bd
00000050: 910c 56bc f388 a23d bf1d 06bd 2f6e d7bc
00000060: ae27 99bd b50f 2abc bb3d 7c3d 622b d8bd
00000070: 0cf7 39bd 747f 47b8 3b8d 2dbd 0e0d 2cbd
00000080: 12a4 47bd cfc5 04bd f43f c43c db1a 8d3d
00000090: a9d3 06bd d77c 22be 1034 83bc 9c03 46bc
000000a0: 9ef1 a63d d257 11be 843b 963b de68 ecbc
000000b0: a39f 613d e5c3 a6bd 24ce 223d f40a 68bd
000000c0: 6f90 a8bd 4fb7 b4bd 16ec a6bb 55fb e6bd
000000d0: 6465 97bd 4aae 56bd 76cc c7bc 807d 72bd
000000e0: 6330 78bd 43f2 b3bb f750 b4bd d30f adbd
000000f0: 21d9 86bd c26b 80bd 2eb5 c93d e407 ec3c
-0.02598617 0.022420295 -0.07515398 0.0007526229 -0.020864438 -0.0031163136 0.067839056 0.015898662
-0.065183975 -0.016118115 0.034421783 -0.09210245 0.10098926 0.0062158043 0.021849938 -0.085632905
-0.07150809 -0.08256292 -0.07563753 -0.06481947 -0.0130645195 0.07936277 -0.03274321 -0.026297657
-0.074782714 -0.010379721 0.06158231 -0.105551496 -0.045401618 -4.7563997e-05 -0.042371016 -0.042004637
-0.048740454 -0.032415207 0.023956276 0.06889888 -0.0329167 -0.15867935 -0.016016036 -0.0120858215
0.081515536 -0.14193657 0.0045847315 -0.028858598 0.055083882 -0.08142833 0.039747372 -0.05665107
-0.082306735 -0.08824026 -0.0050940616 -0.112784065 -0.073923856 -0.05241231 -0.024389487 -0.059201717
-0.06059302 -0.0054915263 -0.08804505 -0.08450284 -0.06584383 -0.06270553 0.098490104 0.028812356

FC3.weight f4 [2, 64]
00000000: 7d96 cbbc ebfa 49be ce29 21bd 7cc8 c8bd
00000010: 969b 94be e20f fbbd 89d3 9f3d 34e3 10bd
00000020: f98a 3d3e 570a 1cbe 8510 b93d e375 8fbe
00000030: 10bf debd 2382 8bbd 94f6 0abe f3c0 8ebe
00000040: 76ba ed3d 18b9 acbd 6384 ba3b a9ba 9cbd
00000050: e9dd 0f3e 7ab8 1abe 95cd 56be 01f6 a73d
00000060: 1d5e 5dbe 33b1 93bc f7bb 523d fa09 9ebe
00000070: 9811 c7bd 76b8 b83d da44 403e 37a2 6c3d
00000080: ff5c 77be c04d 423e c311 33be 6bcc e1bd
00000090: d85e 053e 6646 e43b 03ca de3d c192 a43d
000000a0: bcda 0e3c 1956 433e 4c4e 11be eaa4 25be
000000b0: e974 c9bd 7e41 053e a805 fd3d d96c 203d
000000c0: 8af9 5d3e b287 593e 3bba 02be 3b43 0c3e
000000d0: 3e44 90be eaf1 a1bd 4707 abba 9ce3 203e
000000e0: 1385 043c e2bd 243e 38b1 b13d e2c2 a8bd
000000f0: dfc9 313e 8298 2b3e e643 4ebd df0e ffbd
00000100: 196b bebd 9371 a9bd 36bd 0abe d971 1fbd
00000110: 98b6 8d3d ec3f 2c3e 7df8 4ebd 556a cc3d
00000120: c482 9e3d c88d 6d3d 4f6d 78bc bf68 463e
00000130: 3556 a2bd 5634 b83d ddd9 e1bd 245d ccbd
00000140: 516b f0bd 9cf2 583d 4a9a 193e 6434 02be
00000150: bf72 b13d 7542 283e a832 9dbd 1772 0c3e
00000160: fe77 2a3e 9fae 3f3e f7f0 fd3d cb81 843d
00000170: 7d8f fa3d dc51 b1bd f721 c1bb ab77 95bd
00000180: 9fdf a63d 8f46 1b3d 21d0 64bd 97d4 ecbc
00000190: 31b0 323e 2a76 3abe cd49 a73d a400 153e
000001a0: bcea 05be c5da c73d 5fb7 c2bd 7c70 81be
000001b0: 617d ba3d f26b 8e3c 536b 1a3e 79ac f8bd
000001c0: 7d6c c83c 201c c53c d6da 04be aa68 b43d
000001d0: ba99 4c3e 1cb2 f8bd 1452 c9bd 20e9 b8bd
000001e0: e7b9 97be 6ac1 3f3c 6e06 2fbd 392f 2d3e
000001f0: d5ce eabd 01d1 7ebd 4ec8 163e 0f19 d8bc
-0.024852032 -0.19724624 -0.03934651 -0.09803864 -0.29024953 -0.12258889 0.07804019 -0.035372928
0.18510045 -0.1523832 0.09036354 -0.28019628 -0.10876286 -0.06811931 -0.13570625 -0.27881584
0.1160783 -0.08433741 0.0056920513 -0.0765279 0.14049496 -0.15109435 -0.20976861 0.082012184
-0.21617933 -0.018028831 0.05144879 -0.30866987 -0.097201526 0.09019558 0.18776265 0.057771888
-0.24156569 0.18974972 -0.17487244 -0.11025318 0.13024461 0.0069664 0.108783744 0.080358036
0.0087191425 0.19075812 -0.14190024 -0.16176191 -0.09836752 0.13013265 0.123545945 0.039166305
0.21677223 0.2124317 -0.12766354 0.13697521 -0.28177065 -0.079074696 -0.0013048433 0.15711826
0.008088368 0.1608806 0.0867638 -0.08240296 0.17362164 0.16757396 -0.05035772 -0.12454008
-0.09297771 -0.08273616 -0.1354874 -0.038926933 0.069195926 0.1682126 -0.050529946 0.09981219
0.07739785 0.05799654 -0.01516278 0.19375895 -0.07926599 0.08994357 -0.11027882 -0.09978703
-0.11739219 0.052965745 0.15000263 -0.12715298 0.08664464 0.16431601 -0.076756775 0.13715397
0.16647336 0.18718956 0.12399476 0.064700685 0.122343995 -0.086581916 -0.0058939415 -0.072982155
0.08148121 0.037909087 -0.05586255 -0.028909964 0.17450024 -0.18209139 0.08168373 0.14551026
-0.13077825 0.09758524 -0.095076315 -0.2528113 0.091059454 0.017385457 0.15080003 -0.121422715
0.024465794 0.024061263 -0.12974104 0.088090256 0.19980517 -0.12143347 -0.09830108 -0.0902884
-0.2963402 0.011703828 -0.04273074 0.16912545 -0.11465231 -0.06221104 0.14724848 -0.026379136

FC3.bias f4 [2]
00000000: 0420 683c 4b3f ef3c
0.014167789 0.029204985

FC1.weight f4 [64, 40]
00000000: 4171 c63d 846d 8abd 4dcf 6b3d 5c11 f4bd
00000010: f3e1 c2bd d841 a3bc 0ba8 d5bd aaaf b2bc
00000020: 3d37 e83d 7665 3f3b 84e1 f43d dc35 533e
00000030: 8682 f53d 678d 933d ed40 cf3d 7f83 7e3d
00000040: 38b3 07be f5c7 bcbc f7dc ecbd dc2a 25bd
00000050: af08 143c eb8e 273d a2db fdbd a2d7 d33d
00000060: 658d 2b3d 107f adbd 4169 2abd 8a94 07be
00000070: 47dc d0bd 7555 b03d 5b37 043c b684 9b3c
00000080: 868c bf3c 7382 7e3c 0878 603d 03c2 893e
00000090: 7633 a33e 6018 f83d 011f 3ebd c727 f23d
000000a0: b66c 79bd cb07 62bd be8b 34bc 6a95 f7bd
000000b0: 32c7 afbd c00e a7bd e5bc 163e 03d4 aa3c
000000c0: b690 923d 6782 253d d874 4f3e e468 663e
000000d0: 793d 8a3d 436a 5aba e7c9 98bd ada8 143d
000000e0: 337a 07bd d03e 4a3d 15e9 00be 3eae 21be
000000f0: 43cd 51bd 1652 e83b 5111 94bd 43fd ec3d
00000100: 9e38 0b3e 95a9 dd3d 5118 07be 097a 533d
00000110: e65f db3c 9caa acbd ec92 dbbb 4ad7 6c3d
00000120: f8da 66bc cb23 0a3e a274 fbbd 927d 0c3e
00000130: b1f6 0b3c d273 82bd 9ecf b43c 9d26 3d3d
00000140: eb55 95bd 7c27 0a3e 642d 1f3e a75a ad3d
00000150: 77ea a43d ee74 e0bd 4a87 57bd ab44 cd3d
00000160: 2dd1 7f3d 523a bbbd f01a 0cbd 8d45 2dbd
00000170: a0a0 eabd f11d 743d 8c18 9cbb 2f9f a93d
00000180: b3b1 d03d a1a7 2a3e c5c4 d73c 5c88 23bd
00000190: aa2e 783d 1536 27be 34c1 f03d b9db 22bd
000001a0: 3bf9 0abe 7dcf 8bbd 533d d2be b2bc 233d
000001b0: a75a 9dbd 9962 9c3c 6378 c23a ac60 7a3c
000001c0: 049e d5bd f029 43be 8c5a 4d3d 4e6e 8ebe
000001d0: a0b7 b7bc 2cd2 eb3d 8301 2e3c 8f8b 173e
000001e0: 0d3b 793d 89fa b8bc 008d 13be be05 8bbd
000001f0: f79f 3b3c 119e 33bd c9b1 d9bd 7bbd 91bd
00000200: 4d57 043d acf2 0b3c 08e6 bbbc 928b 273e
00000210: 26d8 0cbe 6039 bbbe 4342 5fbe 7f65 513d
00000220: 9580 af3c 8037 0d3e 98bd 04be ded4 33be
00000230: fe63 d43b 8d3e 1dbe 4535 4ebe 002f 9abd
00000240: 6b48 573d bab4 7ebd 4af6 4a3d 1648 77be
00000250: 6100 8fbe b51f b3bd 943d 863b 0ae4 aa3d
00000260: 670c b43c 2365 8c3c ca1b 8dbb e5d9 a13d
00000270: 0b7a 7cbe 2942 a2bd 20ce d3bd 1b9e c73d
00000280: 82b0 8c3d 0542 1cbe 3762 053c ff9e 78bb
00000290: 61b1 fc3c c78f b3ba 331e 813d af3b eabd
000002a0: be10 e5bd d07b 2d3d a1fa 5abe 9f55 a5bd
000002b0: a0de 75bd a364 df3d 25f7 a13d 2a72 76bc
000002c0: e985 26be 7ae0 5fbd 6cb7 9abd a5c9 7c3c
000002d0: aa3d 143d e415 fb3d 9953 a83c 0931 e93c
000002e0: 780a b23c acff e13d 5970 8fbd f508 f73c
000002f0: 5e3d 0e3e fbee 0abd 5dc4 eb3d 037c dabd
00000300: 8a21 2dbe 6cd2 dabe 9eec a5bd c71c 133e
00000310: 23af 08be dc98 a3bd 26b0 3abe baa0 88bd
00000320: 6fcc 603e 64b1 f93d 7a2e 133e 7305 abbd
00000330: 4dca dbbd 1396 05be 79e4 f63d 2b98 f0bc
00000340: d24b d03d 6058 c7bd 4d07 c43d 298a 0d3a
00000350: bf11 bdbd 92d4 8ebd cf6c ee3d f682 e23c
00000360: 2024 0a3e 0da5 ec3d 18ec 93bd e566 e5bd
00000370: e0cc 9bbc 44fd 69bd 0453 4a3e 468c 103e
00000380: b920 3cbd e001 3dbd ac22 d4bd 5387 63be
00000390: b3de 243d e634 a63d 6a5c b73c c577 cabb
000003a0: d7e5 c3bc bb21 80bd 59a1 983d a85c 393e
000003b0: a16e cf3c 22fe 38be f28d 1d3d 09d1 7fbd
000003c0: 9249 3f3c 9cb1 aebd 6df3 ae3e fcea 38bf
000003d0: 6dbb 07bf 2359 203d cefb 51bd 889a 203e
000003e0: e482 863d b979 853d e297 c63b ac32 a13d
000003f0: b8e7 ce3d cc03 4f3d 1ed6 82bb 807e 3cbe
0.0968957 -0.0675917 0.057570744 -0.119173735 -0.09515753 -0.019928858 -0.10432442 -0.021812279
0.11338661 0.0029204763 0.11957076 0.20626014 0.11987786 0.07204705 0.101198055 0.062137123
-0.1325196 -0.023044566 -0.11565583 -0.040324077 0.009035273 0.04090778 -0.12395407 0.10343863
0.04188289 -0.08471501 -0.041604284 -0.13240257 -0.101982646 0.0861005 0.008069838 0.01898418
0.023382436 0.015534031 0.05480197 0.26905832 0.318752 0.12114024 -0.046416286 0.11823993
-0.06089469 -0.055183213 -0.011019645 -0.12089045 -0.08582915 -0.0815711 0.14720495 0.020853048
0.07156508 0.040407564 0.20259416 0.2250095 0.06750006 -0.0008331874 -0.07460385 0.036293674
-0.033075523 0.04937631 -0.12588914 -0.15789124 -0.051221143 0.0070898635 -0.07229865 0.11571743
0.13595816 0.10823361 -0.1319287 0.051630054 0.026779126 -0.08430979 -0.006700864 0.057822503
-0.014090292 0.13490216 -0.12278105 0.13719776 0.0085427025 -0.06369747 0.022071656 0.046179403
-0.07291778 0.13491625 0.15544659 0.08464556 0.08052533 -0.109598026 -0.052619256 0.10022863
0.062455345 -0.09141983 -0.034205377 -0.042302657 -0.11456418 0.059598867 -0.0047636684 0.08282315
0.101901434 0.16665508 0.026338944 -0.039924964 0.060591377 -0.16329224 0.117556006 -0.039760325
-0.13571636 -0.068266846 -0.41062412 0.039974876 -0.07683306 0.019089984 0.0014836903 0.015281837
-0.1043053 -0.19058967 0.05013518 -0.2781853 -0.022426426 0.115146965 0.010620478 0.14799331
0.06084733 -0.022580402 -0.14409256 -0.067882046 0.011451713 -0.043851916 -0.10629613 -0.07116219
0.03230982 0.008541744 -0.022936836 0.16361836 -0.13754329 -0.3656721 -0.2180262 0.051122185
0.021423617 0.13790703 -0.1296295 -0.17561671 0.0064816466 -0.15355892 -0.20137508 -0.07528496
0.052559298 -0.062184073 0.049551286 -0.24148592 -0.27929977 -0.08746282 0.004096696 0.08344276
0.02197857 0.01713807 -0.004306291 0.07902888 -0.2465593 -0.07922775 -0.103420496 0.09746953
0.06869604 -0.1525956 0.008141092 -0.0037936566 0.0308463 -0.0013699465 0.06304588 -0.11437165
-0.11184834 0.042354405 -0.2138467 -0.080729716 -0.060026765 0.10907867 0.07908467 -0.015041867
-0.1626202 -0.054657437 -0.07554516 0.015428935 0.03619162 0.12260035 0.020547675 0.028465765
0.021733508 0.11035094 -0.070038505 0.030155638 0.13890597 -0.033919316 0.11512063 -0.106681846
-0.16907325 -0.42738664 -0.08101772 0.14366446 -0.1334806 -0.0798814 -0.18231258 -0.06671281
0.21952985 0.12192038 0.14373198 -0.08350649 -0.10731945 -0.1304553 0.120552965 -0.029369434
0.101707116 -0.09733653 0.09571705 0.00053993106 -0.092319004 -0.06974138 0.11641847 0.027650338
0.13490343 0.115549184 -0.07222766 -0.11201266 -0.01901859 -0.0571263 0.1975823 0.1411601
-0.045929644 -0.046144366 -0.10358176 -0.22219591 0.040251445 0.08115558 0.022382934 -0.0061788284
-0.023913307 -0.062564336 0.074526496 0.18101752 0.025321307 -0.18065694 0.038465448 -0.06245521
0.011675255 -0.0852997 0.34170094 -0.7223356 -0.53020364 0.039147507 -0.05126553 0.15683949
0.06567934 0.065173574 0.0060605863 0.07870993 0.101027906 0.05054073 -0.00399281 -0.18407631

FC1.bias f4 [64]
00000000: be94 eabd ad03 ec3d 3baa 03bd 0a10 913d
00000010: 320e c43d a414 fcbd fa69 85ba 4797 5fbc
00000020: d9fe b13d a42c 3bbd ba4c 1cbe 9e44 55bd
00000030: ba4f 033e 83f2 253e 17c9 563e c59d 29be
00000040: 9f96 613d 8b7d 56bd 1da9 273c 731a acbb
00000050: 8971 c73d 8a1e a53c c44c 0abc 8b9a 85bd
00000060: 7382 37bc 63f1 8ebd 2565 143e 5f8d 1fbe
00000070: cff4 42be c78e 6fbd 0812 ebbd 91ac f0bd
00000080: e5c1 073c 3fe6 a0bd ae9a 08be efd4 3e3d
00000090: be5b 1bbe b9a7 203e 6313 ac3c 5c82 00bd
000000a0: 1ca7 69bd aaa2 33be 18a5 80bd 0efb 123e
000000b0: d0b3 efbd 0304 d5bd 1397 ba3d 06ad 5e3d
000000c0: 35d7 b2bd 893e 05be 08bc 23bc 31da 213e
000000d0: 7d3b 2b3d 96aa 2b3d af79 dabd 5aa1 0abb
000000e0: 7d33 23bd 2507 9a3d dcbc 313e 0690 103e
000000f0: 7b5e 073e a915 ab3d 172f 993c 45a4 b5bd
-0.114541516 0.115241386 -0.032144766 0.07083137 0.0957302 -0.123086244 -0.0010178678 -0.013646907
0.086911865 -0.04569687 -0.15263644 -0.05206739 0.12823382 0.16205792 0.20975147 -0.1656409
0.055075284 -0.05236582 0.010233191 -0.0052521764 0.09738452 0.020156164 -0.008441154 -0.06523617
-0.011200535 -0.069796346 0.14491709 -0.15581273 -0.190387 -0.058485772 -0.114780486 -0.117516644
0.008285974 -0.07856416 -0.13340256 0.046589788 -0.15171716 0.15688981 0.021005338 -0.03137432
-0.057044134 -0.1754252 -0.06281489 0.14353582 -0.117042184 -0.10401156 0.09110846 0.054364227
-0.08732454 -0.13012137 -0.009993561 0.1580589 0.04180478 0.04191073 -0.106677406 -0.0021153302
-0.039844025 0.07520894 0.173572 0.1411744 0.13219635 0.08353741 0.018699212 -0.088692226
