hcanet-3.27_maddpg_old/data/test_model/model_200.pt (torch, 268569 bytes, 16 tensors)

FC1.weight f4 [128, 180]
000000 c7 4a 72 bd f8 6e 8d 3c 72 66 06 3d 82 92 ee 3c
       -0.059153344 0.017264828 0.032812543 0.029122595
000010 16 e9 dd 3b d1 0e 32 bd f7 0a 91 bd 5a 63 9f 3d
       0.006772171 -0.04347116 -0.070821695 0.07782622
000020 68 ba ec bc d5 93 72 bd 3c 32 5e 3d 2d d0 9b bd
       -0.02889748 -0.059223015 0.054247126 -0.07608066
000030 43 b1 3c 3d b0 d1 53 bd 3a 90 88 3c ef 7f 66 bc
       0.046067487 -0.051713645 0.016670335 -0.014068588
000040 2a 4e 10 3c 8f a2 8d bc e7 a4 5b 3d a7 81 6e 3d
       0.008807698 -0.017289428 0.05362406 0.058229115
000050 2b a2 94 3d af f8 7c bc 6e a8 9e 3d ef 4b 79 bc
       0.072574936 -0.01544015 0.07746969 -0.015215858
000060 19 ea 0e bd 6a 47 93 bd 12 9b 3f 3d 63 d9 62 bd
       -0.03489122 -0.071913555 0.046778746 -0.055383097
000070 a3 78 21 bd 7c 5e 35 bc 72 ec 59 3d 99 80 28 3d
       -0.03942169 -0.01106989 0.053204007 0.041138265
000080 b8 1c 7c 3d 58 2d e6 3c 5e c8 7a 3d c1 44 8c 3d
       0.061550826 0.028097793 0.06122624 0.06849051
000090 e8 7c 28 bd 13 65 ca bc dd 59 6c bd de 79 1d bd
       -0.041134745 -0.024706399 -0.057702888 -0.0384463
0000a0 e4 ab 84 3d f4 b5 97 3d cb 0f f4 3c c1 72 a1 bd
       0.06478098 0.07407752 0.029792687 -0.07883216
0000b0 f4 db 73 3c f9 c2 66 3d a2 71 d0 3d e4 56 99 bd
       0.014883984 0.056338284 0.10177924 -0.07487276
0000c0 47 41 af bb 90 71 d6 bc d7 7c 33 3d 4e 48 15 3d
       -0.005348358 -0.026177198 0.04382023 0.03644591
0000d0 7a af 30 3c da ca 50 3c c2 a7 3e 3d 35 30 6d bd
       0.010784024 0.012743676 0.046546705 -0.057907302
0000e0 40 b8 04 ba d4 79 4b bd 32 b0 20 3d 97 06 14 3d
       -0.0005062856 -0.04967673 0.039230533 0.036139097
0000f0 75 ba a4 bd b5 e3 75 bc cc 97 2a 3d ff 6f 2c 3d
       -0.08043376 -0.015007903 0.04164867 0.042098995
000100 11 f6 af 3d 1f 37 96 bd 7f 20 1c bd 75 99 06 bd
       0.08591855 -0.07334732 -0.03811693 -0.03286119
000110 4d 30 7b bd fa a2 57 bd 81 88 a7 bc b3 9c 3a 3d
       -0.06132536 -0.05264566 -0.020450832 0.045559596
000120 e3 e6 52 bd a9 87 b8 bc 73 92 12 bd 43 28 80 bd
       -0.051489722 -0.022525625 -0.035784196 -0.06257679
000130 f8 63 6c 3d fa 6d 25 3c c1 26 b8 bc 37 f3 8e 3d
       0.057712525 0.010097021 -0.022479417 0.06979983
000140 47 4c 11 bd 13 0c 6f bc 09 d6 27 bc a4 df fd bc
       -0.035473134 -0.014590281 -0.010243901 -0.03099043
000150 7f 8a 7c bc ec fb 78 3c 10 ef 76 3c 4e 54 35 bd
       -0.015413879 0.015196782 0.015071645 -0.044269852
000160 29 f7 0b 3c 98 da c6 3d cb 1a a0 3c 26 09 da bb
       0.008542814 0.09709662 0.019544026 -0.0066539226
000170 19 40 90 bd 6e e7 60 bd af ac 82 3d fa b5 9e 3d
       -0.07043476 -0.05490821 0.06380593 0.07749553
000180 df 25 9f bd 93 4a 31 3c 0e 79 b3 3c f1 72 9f bc
       -0.07770895 0.010821003 0.02190831 -0.019463988
000190 19 ed 58 3d b8 b9 c2 3c 84 fe 73 bd 35 b2 82 3d
       0.05296049 0.023770198 -0.059568897 0.063816465
0001a0 5b 5a 5b 3d a1 ee 31 bd 03 6d 67 3b cf 25 54 3d
       0.053552967 -0.043440465 0.0035312779 0.05179387
0001b0 19 1d 52 3d 4e 3e 0c 3d a3 e6 33 3d 5a 65 8d b9
       0.05129728 0.034239106 0.043921124 -0.00026969129
0001c0 42 72 0c 3c e1 d4 58 bd 65 e5 63 3c 32 ac 8e bd
       0.008572163 -0.052937392 0.013909672 -0.069664374
0001d0 68 9b 2b 3d 05 6e 55 bd dd e2 5a bd 7a 5a 8d 3d
       0.041896254 -0.052106876 -0.05343901 0.06902023
0001e0 5d e5 ce bc 18 ef 69 bd 56 ba 88 bd 29 bc 07 3d
       -0.025255853 -0.057112783 -0.06676166 0.033138428
0001f0 bd 5d 2b bd df df 57 3d b6 31 c7 3c 9e 55 93 3d
       -0.041837443 0.052703734 0.024315696 0.071940646
000200 3d 19 ef bc 93 1a 6d bd ee 68 84 bc e1 0e 8a 3d
       -0.02918684 -0.05788667 -0.016163316 0.06741119
000210 6d a3 ed bc 32 cf 8a bd 31 45 73 3d 8c 45 20 3d
       -0.029008592 -0.067778006 0.059392158 0.039128825
000220 44 f2 93 3d c1 bf 53 3d c6 50 78 3b 3f ff 70 bd
       0.07223943 0.051696543 0.0037889942 -0.05883717
000230 c8 4e 3e bd 21 bd 14 bd 88 71 37 bd 58 4f 69 bd
       -0.04646185 -0.03631318 -0.044786006 -0.056960434
000240 fd f4 69 3d e6 b1 6b 3d 31 f9 69 bd 21 69 95 bb
       0.057118405 0.057542704 -0.057122413 -0.0045596515
000250 ba 2f 90 3d f9 66 0f 3d a3 a2 62 bc 55 2f cd bc
       0.07040353 0.03501031 -0.013832721 -0.025046984
000260 b6 07 1d 3d 52 a1 ec bc 75 3a 67 bd 88 c3 95 bc
       0.03833743 -0.028885517 -0.056452233 -0.018281713
000270 1b 98 4c 3d df 7e e1 bc c5 25 4b bd 14 b9 ce bc
       0.049949747 -0.027526317 -0.049596567 -0.025234737
000280 63 99 d5 bc 7d 23 57 bd 8e 22 90 3a 08 ef 24 3d
       -0.026074117 -0.05252408 0.0010996626 0.04026702
000290 01 99 93 3d 4d 93 bb 3c 4a 89 7c 3d 02 69 02 3d
       0.072069176 0.022897387 0.061654367 0.031838425
0002a0 eb a3 88 bc 4d 58 5d bd 91 f7 89 bc 77 da 1b 3d
       -0.016679725 -0.05403929 -0.016841682 0.03805014
0002b0 d0 7f 95 3c 34 49 8e bc fe 8a 1a ba b0 14 e5 3c
       0.018249422 -0.01736889 -0.0005895345 0.027963966
0002c0 c3 6c 65 3d a1 59 36 3c 6a 8b 1d bc 6a 49 11 3c
       0.056011926 0.011129768 -0.009615758 0.008867601
0002d0 0d b8 1f 3d eb d5 a3 3d 84 ad 1f 3d ea f9 33 3d
       0.038993884 0.07999786 0.038983837 0.04393951
0002e0 6d 5b a5 3d 15 1d 7b bd 86 9b 21 bd bc 14 17 bd
       0.08074079 -0.06130703 -0.03945496 -0.03688501
0002f0 e7 80 93 3d 50 eb bb ba ab 2b 86 bd b5 fa 11 3c
       0.072023205 -0.0014337096 -0.06551298 0.008909871
000300 fa 18 96 bd 66 2b 1e 3d dd c3 80 3d 0b bd 7a 3d
       -0.07328983 0.038615607 0.06287358 0.06121544
000310 c5 36 49 bb 21 b8 18 bd 88 ca 47 3d a9 2e b6 bc
       -0.0030702811 -0.037284974 0.048777133 -0.022239046
000320 d1 6d b5 3c 96 7a 53 bc 23 fc 86 3d f6 c0 37 bc
       0.022147091 -0.012907645 0.0659106 -0.011215439
000330 6f 89 4a 3d c0 a1 6d bd b8 a5 9a bd 03 e6 6e 3c
       0.049447473 -0.058015585 -0.075511396 0.014581206
000340 04 35 8c 3d ee a2 2e bd 46 16 4d 3d 09 be e6 3b
       0.068460494 -0.04263585 0.05007007 0.007041697
000350 c2 91 68 bd 06 8c 12 bd 5c c8 93 ba 58 d1 94 3b
       -0.05677963 -0.035778068 -0.0011274922 0.0045415573
000360 44 cf fa 3c bb c1 69 3d cb 9a 67 3d c3 c1 93 bd
       0.03061641 0.05706952 0.056544106 -0.072146915
000370 6b 0c e9 3c 5f cd 75 bc 6d 03 7c 3b 06 52 8e 3d
       0.028448304 -0.015002578 0.003845419 0.069492385
000380 32 f1 66 bc 03 b5 16 bd db 3c c5 3c 6a 63 91 3c
       -0.014095591 -0.03679372 0.02407687 0.0177476
000390 c8 8d d7 3c 3f bc 1b 3c 18 98 99 3d 2d 82 77 3d
       0.026312724 0.009505331 0.07499713 0.06042688
0003a0 96 22 b0 3c 8a 6d f1 3a 48 83 7c 3c 7e 5c 15 bd
       0.021500867 0.0018419486 0.015412159 -0.03646516
0003b0 e9 b6 3f 3d 3a d9 a1 3d 45 80 72 3d 43 47 2d bd
       0.046805296 0.07902761 0.05920436 -0.04230429
0003c0 53 4f e4 bc 88 cd 81 3d ca 58 7a 3d e7 92 21 3d
       -0.027869856 0.0633803 0.061119832 0.039446738
0003d0 42 2b 55 3d f9 ed 80 3d 1b e4 2f bd 49 aa 5d bd
       0.052043207 0.0629539 -0.042942148 -0.054117475
0003e0 84 d8 b7 bb 6d c4 1c 3d f8 f2 b6 bc a7 ec 54 bd
       -0.0056105275 0.038273264 -0.022332653 -0.0519835
0003f0 15 13 9e bd 45 25 01 3c 83 f9 da 3b 7f 68 07 bd
       -0.07718483 0.007882421 0.006682576 -0.03305864

FC1.bias f4 [128]
000000 1a 95 80 3d dd 38 4b 3b f6 16 87 bd 7b 49 9b bd
       0.06278439 0.0031009235 -0.06596176 -0.07582375
000010 91 a9 63 bc f0 4d 46 bd 85 b2 37 bd 52 67 a2 bd
       -0.013895408 -0.04841417 -0.044847984 -0.07929863
000020 67 d0 c8 3c 27 65 84 3d 84 9c 40 3d a0 43 91 bd
       0.024513436 0.06464606 0.047024265 -0.070929766
000030 dc ad 8f bc 4d f9 85 bd 1d 4c be ba 42 fe 97 bb
       -0.017538957 -0.06541691 -0.0014518533 -0.004638464
000040 30 2a 64 3d e5 48 a3 bc 51 73 00 3d de 93 78 3d
       0.055704296 -0.01993222 0.031359974 0.060687892
000050 d6 20 37 3d f6 38 7a bc ea 87 0c bd d4 ab fa bc
       0.04470905 -0.01527237 -0.034309305 -0.030599512
000060 27 14 9b 3c 15 98 c7 bc 4e ac 98 3d 33 de 6f bd
       0.018930508 -0.02436451 0.074547395 -0.058561515
000070 25 23 cf bb aa ce 66 bd a5 f4 05 3d da 31 89 bd
       -0.006321328 -0.056349434 0.032704014 -0.066989616
000080 f8 75 32 bd cf 61 9e 3d 8f 7f 55 bd 04 d4 38 3d
       -0.043569535 0.07733499 -0.052123602 0.04512407
000090 e8 b8 2c bd b8 e5 02 bd 24 14 41 3d 36 ba 6b 3d
       -0.042168528 -0.031957358 0.04713835 0.05755063
0000a0 eb ff 44 3d d3 77 fa 3a 3a f8 86 bb 03 59 66 3d
       0.048095625 0.0019109197 -0.0041189464 0.056237232
0000b0 f3 76 01 3d 3b 79 af bc 0d 86 88 bd 0e af 74 3d
       0.03160758 -0.021420112 -0.06666193 0.059737258
0000c0 46 1a c7 3c 36 97 88 bd a4 e5 6e bd 84 48 22 bd
       0.02430452 -0.06669466 -0.05832447 -0.039619938
0000d0 5f 93 17 3d 8d c9 83 bd c9 ba 4c 3d 17 9f d6 3b
       0.03700578 -0.06434927 0.04998282 0.0065497267
0000e0 c0 f4 8b bc 58 8c e5 bc 91 de 92 3d f1 b3 08 3c
       -0.01708448 -0.028021023 0.071713574 0.008343683
0000f0 65 d3 47 3d a8 df bb 3b a1 df 01 3d 4a 00 c4 bb
       0.048785586 0.005733449 0.03170741 -0.00598148
000100 3e b6 6c ba 1a 2d 4f bc fa b2 9c bb 0d 15 3f bd
       -0.0009029842 -0.01264503 -0.004782078 -0.046650935
000110 d5 ff 43 bd 4f 25 ce 3c 85 a4 9e bd 73 f2 20 bd
       -0.047851402 0.025164274 -0.07746223 -0.039293718
000120 f9 0c b3 3c 85 62 17 3d 75 ce f7 bb 4f 28 89 3d
       0.021856772 0.03695919 -0.0075624534 0.066971414
000130 d6 06 9b bd 43 0c f0 bc dd 6b a1 3c 0f e0 93 3d
       -0.07569663 -0.029302722 0.019704754 0.0722047
000140 9b 94 d6 bb 92 65 38 3d e8 a5 31 bd 1b c7 cd 3c
       -0.006548477 0.04501874 -0.04337111 0.025119355
000150 d9 96 36 3c 25 c9 bb 3c c4 a7 3c bd 32 10 93 bc
       0.011144363 0.022923062 -0.04605843 -0.017952058
000160 5c 19 16 3c ce 23 8d 3d e0 2b 45 bc d5 66 87 3d
       0.00916132 0.06891595 -0.012034386 0.066114105
000170 39 c9 15 bd 2a 01 88 3d 4e 5d 9e 3d b3 bb 19 3d
       -0.036568854 0.06640847 0.0773264 0.03753252
000180 21 33 77 bd f7 e2 35 3d 7d 9b 33 bd 56 9e 69 3d
       -0.060351495 0.044405904 -0.043849457 0.057035767
000190 f5 3a 8c 3d e2 e9 04 bd a7 fb 97 3d 42 a7 3a 3d
       0.06847183 -0.03244961 0.07421046 0.045569666
0001a0 84 4f ff bc 43 98 80 3c 29 40 1e bc ce 0d 10 3d
       -0.031165846 0.015697604 -0.009658852 0.035169415
0001b0 15 bd 96 bc b2 ff 56 bd c9 2e 02 bc d6 8a 0a bc
       -0.018400708 -0.052489944 -0.007945725 -0.008455953
0001c0 a6 bf e9 3c be a3 49 3d 33 00 92 bc 5f 65 a7 3a
       0.028533768 0.049228422 -0.01782236 0.00127713
0001d0 84 8b 8d 3d d0 29 06 bd f3 eb 68 3d db 11 2e bd
       0.06911376 -0.03275472 0.056865644 -0.042497497
0001e0 0d 77 d3 b8 7c 01 01 3d e9 39 88 3a 5a ce d9 bc
       -0.00010083439 0.031495556 0.0010393235 -0.026587654
0001f0 d7 97 8e bc 22 1c 92 3d 96 9f 4f bd a0 9d 84 bd
       -0.017406387 0.07134272 -0.050689302 -0.06475377

FC2.weight f4 [64, 128]
000000 55 2a 22 3b 65 ca 82 3d b1 49 d5 bc 1b 80 2c be
       0.002474447 0.0638626 -0.026036115 -0.16845743
000010 da c5 b7 bd d1 36 74 3d a4 ca 7b 3b 47 c8 a5 bd
       -0.08973284 0.05962259 0.0038420344 -0.080948405
000020 1d cc c7 3d 46 23 62 3d 63 a0 45 bc ae 88 0d bd
       0.097557284 0.05520942 -0.012062165 -0.034554176
000030 8b c1 c2 bc a7 e3 d8 3d 51 14 7a bd 4b 49 34 3d
       -0.02377393 0.10590296 -0.06105453 0.04401521
000040 fc 5e 98 bd d2 52 79 bd 57 d4 8e bd d9 b7 22 bd
       -0.07439992 -0.06087 -0.06974094 -0.039726112
000050 93 f5 cb bd 51 72 cd 3c 2c 20 50 bd a1 64 97 3d
       -0.09958949 0.025078924 -0.05081193 0.0739224
000060 87 89 98 bd 04 6c e1 bc f6 47 22 bd 0d 9e 26 3d
       -0.07448106 -0.027517326 -0.03961941 0.040678073
000070 1f 34 c2 3c f3 ac 9b bc 9e 7f 96 3d f1 1f 47 bb
       0.023706494 -0.019003367 0.0734856 -0.0030384029
000080 40 ba 01 3d f3 93 fa 3c fe f8 62 3c 92 aa 0b 3d
       0.031671762 0.030588126 0.01385331 0.034098215
000090 5a c7 b2 3d 32 e9 6d bc 29 d3 84 bd c0 a0 11 bd
       0.087294295 -0.01452093 -0.06485588 -0.035553694
0000a0 7a a4 38 3d 84 0a 23 bd 0d 5c ad bd ff 72 52 bc
       0.045078732 -0.03980495 -0.08464823 -0.0128448
0000b0 25 ce 1a 3d a2 4d f0 bd 82 41 60 bd 9d a6 03 3e
       0.03779425 -0.11733557 -0.054749973 0.12856527
0000c0 33 18 42 3c 37 6b c2 bc 95 e1 9d bd e6 e8 48 3d
       0.01184659 -0.023732765 -0.07709042 0.049050234
0000d0 8b ab 6d 3d 90 94 b8 bd 75 a5 8e 3c 46 36 ae bc
       0.058024924 -0.09012711 0.01741288 -0.021266114
0000e0 02 e3 07 3d 15 95 73 3b dd 09 6b bd f9 64 57 bd
       0.033175476 0.0037167717 -0.057382453 -0.05258653
0000f0 66 ed ce 3d 4a 20 ad bd bc ad 90 bd 66 8a 6c 3d
       0.10103874 -0.08453424 -0.07064387 0.057749175
000100 16 2b a2 bd a9 4d 8e 3d 11 ed 8b 3d f4 49 27 3d
       -0.07918374 0.06948406 0.06832326 0.04084201
000110 13 46 e2 3c 84 77 5b bd 75 50 47 bd f7 85 17 bd
       0.027621305 -0.053580776 -0.048660714 -0.036992993
000120 d9 47 2b 3d 4e df de bc b8 2e a5 bd 7a 24 11 bd
       0.041816566 -0.02720609 -0.080655515 -0.035435177
000130 f0 cf 26 3c af d3 59 3d a1 a5 95 3d 5f 0f 34 3a
       0.010181412 0.053180393 0.07306982 0.00068687455
000140 51 ae 12 bc 9c dd 4a 3d ed 6a 20 bd a0 7b 7c 3d
       -0.008952693 0.04952775 -0.039164472 0.061641335
000150 f3 af a5 3c 5f 1f 4b 3d 21 72 62 bc 4b f4 11 bd
       0.0202255 0.049590465 -0.013821156 -0.035633367
000160 89 52 d8 bd e5 a7 63 bd 6c 12 90 3d 83 8d bc 3c
       -0.10562617 -0.05558004 0.07034764 0.023016697
000170 44 a4 21 3c 46 f3 19 b9 bb c5 57 bd 7c fc 9c 3d
       0.009865824 -0.00014681843 -0.052678805 0.07665345
000180 cd 36 90 3d 79 ea 05 3d 47 ea d2 bc a5 8f 71 bd
       0.070417024 0.032694314 -0.025746478 -0.05897488
000190 29 77 ec ba a7 8a fe 3b b9 c2 7d bd de 90 85 3c
       -0.0018040884 0.0077679935 -0.06195328 0.01630443
0001a0 1b 14 84 bc fc 8f c0 3c 64 54 95 bc 30 7a 83 bd
       -0.016122868 0.023506157 -0.018228717 -0.0641979
0001b0 80 68 6e bd 2a 7e 1d be eb 8d 6b 3b 82 04 06 be
       -0.058205128 -0.15380159 0.0035942744 -0.13087657
0001c0 6e 06 a1 bd 9c b6 56 3d dd ce 0a bd ed 69 9e 3c
       -0.078625545 0.052420244 -0.033888686 0.019337619
0001d0 c2 ec 62 3d 1b be d6 3d ba ac 85 3d 10 28 7b 3d
       0.05540157 0.104854785 0.065270856 0.061317503
0001e0 a4 f7 b1 bc cb 7d 76 bd d6 4a 44 bd 6c 83 be 3b
       -0.02172453 -0.06017856 -0.04792293 0.0058140066
0001f0 27 39 a6 bd 46 d1 de bc ca 06 2f 3d b1 44 bf 3d
       -0.0811637 -0.027199399 0.042731084 0.09339274
000200 a6 ef 03 bd f0 66 42 bd 76 59 53 bd b0 08 2a 3d
       -0.03221097 -0.04746145 -0.05159899 0.04151219
000210 90 22 9c 3d c9 d9 13 bb 55 5f 18 3d aa 63 b4 3d
       0.0762378 -0.002256023 0.03720029 0.08808072
000220 7e d0 7a 3d 2e 30 4a 3d 08 98 04 3d c4 46 58 3d
       0.06123399 0.049362354 0.03237155 0.052801862
000230 2d 56 23 3d 51 81 8c bd bf 12 8b ba 65 f3 2c 3d
       0.039877106 -0.06860603 -0.0010610445 0.042224307
000240 55 35 a4 3d 4d be 27 3d 58 60 93 3d 6f bb 90 bd
       0.08017985 0.04095297 0.071961105 -0.07067
000250 34 ae 0e 3d f6 ee ff 3c b3 db b4 3d 0e 43 37 3c
       0.0348341 0.031241875 0.08830967 0.011185421
000260 9a 46 9f 3d bb 78 b9 3d 00 46 03 3d 85 47 e8 bc
       0.07777138 0.09056231 0.03204918 -0.028354416
000270 49 db f1 3b 7a f8 4e 3d c2 df 55 bd 74 92 da bc
       0.007380877 0.050529934 -0.052215345 -0.026681162
000280 4f 72 35 b9 ef 4f a3 3d 3e 28 d4 3d 02 ef 1d bd
       -0.00017304088 0.079742305 0.10359238 -0.038558014
000290 18 9f b5 bc 3f 1c 90 3d 31 45 31 3d bc 11 43 3c
       -0.022170588 0.070366375 0.043278877 0.011906084
0002a0 bb 5d 63 3d 86 ee 12 bd 64 79 47 bc e6 77 b3 bd
       0.05550931 -0.035872005 -0.012174938 -0.08763103
0002b0 91 86 9a 3c 1e 29 4f bc 8f f7 70 3d 39 29 51 3d
       0.018862994 -0.01264408 0.05882984 0.051064704
0002c0 eb e0 15 3d 47 d7 6e bc 4f a0 2e bd e7 70 16 3c
       0.03659145 -0.014577693 -0.04263335 0.009182191
0002d0 5d c4 72 3d e6 93 8e 3c 69 89 ba 3d de 6f c1 3c
       0.059269298 0.017404508 0.0910824 0.023612913
0002e0 f2 85 51 3d eb c3 2c 3d 62 40 c0 bc 7b 2e 52 bd
       0.05115313 0.04217903 -0.0234682 -0.05131386
0002f0 2f f8 07 3d 6e 3b 9d 3d c7 38 f9 3b 10 45 34 bd
       0.03319567 0.07677351 0.0076056453 -0.044011176
000300 a9 93 96 3d 5e c5 54 bd ef 65 04 3c 0e a4 04 3d
       0.07352383 -0.051946037 0.0080809435 0.032383017
000310 61 27 aa ba a2 bc 1f bc 56 59 5d bd 55 4e 9b bd
       -0.0012981707 -0.009749563 -0.054040276 -0.075833
000320 80 b0 06 3d 11 f3 cc bc 00 0f ad 3d 44 99 54 bd
       0.032883167 -0.025018247 0.08450127 -0.051903978
000330 2a 0f 28 3c 6b 96 ac bc d4 f1 bd 3b 35 c0 81 3c
       0.010257522 -0.021067819 0.0057966504 0.015838722
000340 33 66 ca 3c db 8a 73 3d b2 77 a4 bd 55 d5 64 3c
       0.024706936 0.059458595 -0.080306426 0.013966878
000350 36 1b 8a bd 35 fd 69 bc a3 07 23 bd 7c f8 6f 3d
       -0.06743471 -0.014281561 -0.039802205 0.058586583
000360 e4 a2 b5 3d 79 f5 97 bd aa 3d a7 bd 87 7b 67 3d
       0.088689595 -0.07419867 -0.08166058 0.05651429
000370 6a 1b 69 3d d9 60 0d 3d 4f fa 47 3d 65 0d 12 ba
       0.05691091 0.03451619 0.048822697 -0.0005571454
000380 45 bb b2 3d 2e bc 24 bd ac ea b5 bd d6 f7 43 3c
       0.08727125 -0.040218525 -0.08882651 0.011960944
000390 8c 44 b3 3c 21 f4 90 bd fb 65 97 3d 44 b9 d2 3d
       0.021883272 -0.07077814 0.07392498 0.10289243
0003a0 02 d9 9c bd ea 5f 76 3d 66 14 87 3d 54 b3 73 3d
       -0.076585785 0.060150065 0.065956876 0.059497193
0003b0 fa db 59 bd 03 ec 4f 3d 5a d0 33 bd 96 f9 aa 3c
       -0.0531883 0.050762188 -0.04389987 0.020870965
0003c0 e4 08 ac bd 57 20 39 3b 9b dc bc bd 3b 40 50 3d
       -0.08400133 0.0028248036 -0.09221765 0.050842505
0003d0 7a 79 9c 3d 99 b9 35 3b c4 f5 55 3d 53 f4 56 3d
       0.07640357 0.0027729033 0.052236333 0.0524791
0003e0 b0 26 93 bd 3a 62 41 3d 72 c3 22 bb 0c 19 b2 ba
       -0.071851134 0.047212817 -0.0024835733 -0.0013587787
0003f0 c0 c8 9f bd 97 11 ba 3d 02 09 70 3c 5c ca 22 be
       -0.07801962 0.09085386 0.014650585 -0.15897506

FC2.bias f4 [64]
000000 2e 00 b7 3b e1 24 ce bc 6f c6 ae bd 4d 8e 90 bd
       0.005584738 -0.02516407 -0.08533942 -0.07058392
000010 45 92 ce 3b 87 8e 24 3d 4f 89 72 bb 2a b9 31 3c
       0.006304058 0.040174987 -0.0037008112 0.010847369
000020 be 82 a6 bd ed 2b c4 bc 8c 90 3e bc 07 11 0b bd
       -0.08130406 -0.023946727 -0.011631142 -0.033951785
000030 51 dc f7 3c 72 0f 44 3d 33 94 b0 3d fb fc ac 3d
       0.030256422 0.047866292 0.08622017 0.0844669
000040 a2 67 b8 bd 75 74 97 3c e0 f1 5f 3d a6 b2 b3 3c
       -0.090041414 0.018488148 0.05467403 0.021935772
000050 5a 17 4e 3d 86 8d 8a bd 19 4b e0 bc 4a e4 15 3d
       0.05031524 -0.06765275 -0.02737956 0.036594667
000060 cb e9 a5 3d d8 ec 9a 3d 2e 82 8f bd 18 ce 9e bd
       0.08101233 0.075647056 -0.07007252 -0.07754153
000070 b3 c1 56 3d 54 1c 06 bd fa ea b2 bd cd 1e 72 bd
       0.05243082 -0.03274186 -0.087362245 -0.059111405
000080 ad a1 96 3d 0b 51 7e bd 67 79 62 bc 81 e8 9c bd
       0.07355056 -0.062089007 -0.01382289 -0.07661534
000090 a4 fb 22 bd 0d d0 8d 3d 85 12 95 3d 27 ee 6c 3d
       -0.039790764 0.06924448 0.07278923 0.057844307
0000a0 3a bb a0 bd 4f 30 74 bd 22 33 ca 3c d0 08 e7 3a
       -0.07848211 -0.059616383 0.024682585 0.0017626528
0000b0 f2 d4 84 3d de cb 72 3d 91 bd ae 3d 4b b9 b9 3c
       0.064859286 0.059276454 0.08532251 0.022671362
0000c0 1e f2 8d 3d 0b 7e 22 bd 28 db e2 3b 2c c0 66 3d
       0.06930946 -0.039670985 0.006923098 0.056335613
0000d0 76 cf 5a 3d b2 35 4f 3d aa 77 4a bd ff 77 0c 3d
       0.053420506 0.050588317 -0.049430527 0.034294125
0000e0 ba c1 2c bd 70 68 5c 3c 04 6b e6 bb dc 88 23 bd
       -0.04217694 0.013452634 -0.0070318 -0.03992544
0000f0 e1 5f 1f bd bb a2 87 3d 99 31 6d 3b ca 3e 23 3d
       -0.038909797 0.06622835 0.0036192893 0.039854802

FC3.weight f4 [2, 64]
000000 c7 b4 8d bd bb c3 9a 3d 63 b5 47 3d 60 fb e4 3d
       -0.06919246 0.07556864 0.04875697 0.111807585
000010 ba d3 32 bc ad b4 a7 bc 7c 90 ff 3d 53 06 03 3e
       -0.010914737 -0.020471895 0.1247873 0.12795381
000020 bf e6 70 3d 07 a2 ae bd 03 50 e0 3d 1e dc b4 3d
       0.058813807 -0.08526998 0.10952761 0.088310465
000030 d1 38 88 3d d0 41 d8 bb 31 13 9a bd 80 18 0e 3e
       0.06651462 -0.0065996423 -0.07523192 0.13876534
000040 7a fc f0 bc 11 07 87 bd bb c9 fe bd ef 6b f9 bd
       -0.029417265 -0.06593145 -0.12440821 -0.1217879
000050 31 76 49 3d 58 be 6a 3d 93 66 da 3d d5 e9 a7 3d
       0.04918498 0.057310432 0.10664096 0.08198897
000060 d0 92 6e 3b 2f d3 21 be ed 4b 2c bd c9 5f b6 3d
       0.0036403425 -0.15803216 -0.042064596 0.08904988
000070 17 8d 81 3d d7 79 fc 3c ee 60 59 3d e8 56 de bc
       0.06325739 0.030819817 0.053070955 -0.02714105
000080 a8 b0 3c bd 3d 50 a5 3c 1c 8d 9b bd 4e c6 25 3d
       -0.04606691 0.020179862 -0.07595274 0.04047232
000090 f2 26 fa bd 35 bc d0 3c 24 d9 ae bd d6 ce 9c bd
       -0.122144595 0.02548037 -0.0853751 -0.07656638
0000a0 5f 26 40 3d 25 6a 9d 3d c8 59 79 3d c0 91 84 3d
       0.046911594 0.07686261 0.060876638 0.06473112
0000b0 19 ef 8f 3d a2 09 9f ba f4 4d ef bd 51 1a 7d bb
       0.07028026 -0.0012133608 -0.1168479 -0.0038620422
0000c0 bf 74 c5 3d 47 49 2b 3d 4e ba 5b bd 1a dc 40 bd
       0.09641408 0.04181793 -0.05364447 -0.047084905
0000d0 97 7a b6 bd db d4 72 bd f0 57 04 bd 64 ca 44 bb
       -0.08910101 -0.059285026 -0.032310426 -0.003002786
0000e0 12 eb f4 3c 76 56 0e 3e 42 a8 28 3b 14 6d 00 be
       0.029897247 0.1390017 0.0025735055 -0.1254161
0000f0 fd 21 f2 bd de c3 0b bd 1c c4 ae 3d 56 5a fe bd
       -0.11822889 -0.03412234 0.08533499 -0.12419574
000100 c7 d2 a4 3d 8a ba 00 be b7 4a fe bd c9 e6 99 3d
       0.08048015 -0.12571159 -0.124165945 0.07514722
000110 dc 29 90 bd 74 2c 09 3e 31 2d d5 bd 75 e0 94 3d
       -0.07039234 0.13395864 -0.1040901 0.07269374
000120 77 88 b4 3d af f4 ec 3c 56 e8 85 3d 03 1d 50 3d
       0.08815091 0.028925268 0.06538455 0.050808918
000130 43 e3 14 3c ae 98 b9 bd 05 f0 05 bd 04 af 2d 3c
       0.009087387 -0.090623245 -0.032699604 0.010600809
000140 33 0d 80 3d 2c 3c 03 3e 40 a7 c7 ba a9 49 e3 bd
       0.062525176 0.12815922 -0.001523234 -0.11098034
000150 08 6e 57 bd 98 35 34 3e f4 f7 02 be c7 b1 78 bd
       -0.05259517 0.1759857 -0.12789899 -0.060716417
000160 ab 17 f4 bc fa 26 f8 bc 52 7c 82 3b 7f 2e 8e 3c
       -0.029796442 -0.030292023 0.0039821053 0.017356155
000170 b2 9b 1e be 03 6d 00 3e 89 3f f2 3d fe d0 00 bd
       -0.1548908 0.12541585 0.118285246 -0.03144931
000180 dc 4c cc 3d 0a 95 ad bd e2 8a 08 3d b0 01 2b 3d
       0.09975597 -0.084756926 0.033335574 0.041749656
000190 da 77 91 3d 1c d1 ed 3d 7a 95 06 3d 1f 71 b5 bd
       0.07102938 0.1161215 0.032857396 -0.08859467
0001a0 eb d5 9d bd 52 2d be 3c bd 6b 79 bc 10 6a 88 bd
       -0.07706817 0.02321497 -0.015223441 -0.06660855
0001b0 d1 f7 f7 bd a7 c7 fc 3d 73 41 27 bc 63 e4 18 3c
       -0.12107814 0.12342768 -0.010208475 0.009331795
0001c0 d7 66 28 bd 61 11 dd 3d e9 1a b1 bd 71 02 ef 3c
       -0.0411137 0.107943304 -0.08647711 0.029175969
0001d0 ea 0d b0 3d 9a fa 0e 3c 42 3f 78 3d 9b cf ca bd
       0.08596404 0.00872674 0.060607202 -0.09902879
0001e0 71 21 e3 bd eb 44 e2 3d 05 f5 98 3d 59 83 e9 3c
       -0.11090363 0.11048301 0.07468609 0.028505014
0001f0 c7 0e 11 ba 1f df 6e 3d 11 22 b4 bd 22 0a d7 bd
       -0.0005533513 0.058318254 -0.0879556 -0.104999796

FC3.bias f4 [2]
000000 15 fa f0 3d 56 f8 c7 ba
       0.11766449 -0.0015256505

FC1.weight f4 [128, 180]
000000 00 a0 60 bd d8 d7 3f bd ed 0d 5c bd 82 24 14 3d
       -0.054840088 -0.046836704 -0.05372422 0.03616763
000010 de 1c 90 3b 42 6e 17 3d e5 59 ed bc a9 c0 95 3d
       0.0043979725 0.036970384 -0.02897353 0.07312138
000020 e4 b1 27 bc f7 d9 59 3d 6b f6 17 3d cf 70 06 bd
       -0.0102352835 0.053186383 0.037100237 -0.032822426
000030 39 49 df 3a 36 12 28 3b fe d7 8d 3d 1d d7 79 3c
       0.0017035372 0.002564562 0.06925963 0.015249041
000040 68 b7 18 3d cd dd 3e 3d 9f ea c1 bc dc 84 87 3d
       0.037284285 0.046598244 -0.023671446 0.06617138
000050 e6 e3 1c 3d a3 03 01 3c 92 80 24 3d 4a 7f 02 3d
       0.03830328 0.007874402 0.040161677 0.031859674
000060 6b b6 19 ba ec 26 21 3d a3 a6 7e bd 89 11 4f 3d
       -0.0005863669 0.03934376 -0.062170636 0.050553832
000070 d1 4e 3e bd 20 11 87 bc 65 31 ee bc 2f 0a b0 3d
       -0.046461884 -0.016487658 -0.029076288 0.08595692
000080 f1 c5 06 3d c5 3a fd bb 71 bc 88 3d f7 5f a5 3b
       0.032903615 -0.007727953 0.06676567 0.0050468403
000090 89 24 6a 3d db b0 6d 3c c0 94 ad bd b1 ba dc 3c
       0.05716375 0.014507498 -0.084756374 0.02694449
0000a0 f7 97 97 bd e2 d4 5a 3d 14 ef 3d bd 3c ed b3 bd
       -0.07402032 0.053425677 -0.04637058 -0.08785483
0000b0 1c 85 c4 bc bc cf 40 bd 89 14 ec 3c 63 a4 0b bd
       -0.023989253 -0.04707311 0.028818386 -0.03409232
0000c0 84 15 c4 3c 75 01 60 3c ea c0 f4 bb 54 fb 08 3d
       0.02393604 0.013672222 -0.007469286 0.03344281
0000d0 f0 dd 34 bc 61 3b 92 bd ad 9c 39 bb 9c 81 18 3c
       -0.011039242 -0.07140232 -0.0028322146 0.009308245
0000e0 2d c2 b0 3d 06 60 53 3d 25 f8 90 3d d7 f7 91 bd
       0.08630786 0.051605247 0.0707858 -0.0712735
0000f0 b6 87 88 3d 6c 03 cb ba c7 2b 19 bc 70 60 c0 3b
       0.0666651 -0.0015488691 -0.009348816 0.0058708712
000100 23 8d 2f bc 65 a6 c9 bc 17 df fc bc 89 f4 6a bc
       -0.010714802 -0.024615476 -0.030868096 -0.014340528
000110 68 c4 65 3d 2a c9 2e bc ad 58 59 3d 62 50 7c bc
       0.05609551 -0.010668078 0.053063083 -0.015400024
000120 d2 32 67 3d 57 96 64 bc 8b d8 31 bd 53 59 0d 3d
       0.05644495 -0.013951859 -0.043419402 0.034509014
000130 bb bc 46 bd f2 07 e3 3c 04 7b 20 bd d8 da 5a bc
       -0.04851983 0.02771375 -0.039179817 -0.0133578405
000140 38 53 cf 3c 16 41 41 bc ae 30 3e ba a8 e9 42 3d
       0.025308236 -0.011795303 -0.00072551786 0.047586113
000150 f6 24 89 bd 95 6b 21 3d d2 7c 3c 3d a2 c8 35 3d
       -0.06696503 0.03940924 0.046017475 0.04438079
000160 e0 a9 7f ba af ed 83 bd 22 21 e0 bb bd a0 3a bd
       -0.00097527914 -0.06441819 -0.0068398872 -0.04556345
000170 a4 b1 9b 3c 98 77 41 3d c9 b5 59 3d 03 29 c3 3c
       0.019005604 0.047233194 0.05315188 0.023823267
000180 09 63 2e bd 81 df 6e 3d 02 9a c8 bc 8b 5a 01 bd
       -0.042574916 0.05831862 -0.0244875 -0.03158049
000190 93 0c 62 bd ff 57 3d 3d 12 f4 a0 3c 31 b0 7c 3d
       -0.055187773 0.046226498 0.019647632 0.061691467
0001a0 0f bc 89 bd 98 b4 4b bd a9 4c a4 3b 2c f6 8e 3c
       -0.067253225 -0.049732774 0.0050140214 0.017451368
0001b0 51 e4 a8 3c bf 2d 00 3d 54 32 ac bc eb b2 45 bd
       0.020616682 0.031293627 -0.021020092 -0.048266333
0001c0 a8 5c 88 3d aa 01 ab 3c 21 1f a5 3c 84 53 e7 bb
       0.06658298 0.020874817 0.020156445 -0.0070595164
0001d0 4a a5 cd 3c 34 4b 42 bd 34 5c 8a bd c7 cd 01 be
       0.02510323 -0.047435 -0.067558676 -0.12676154
0001e0 8d 7d 38 3d 9f 33 f5 3c de 5b de bc 81 8c 0e 3c
       0.04504161 0.029931841 -0.027143415 0.008700491
0001f0 58 ec 85 bc bc ee 7a 3d 61 b5 b4 bc 4b 21 b0 bd
       -0.016348049 0.06126283 -0.022059144 -0.086001
000200 01 f2 7e bd b9 39 c1 bb fe c5 cb 3c 98 6d 85 3d
       -0.06224251 -0.0058967737 0.024874683 0.06515044
000210 f3 22 8f bc 73 d0 4c 3b 89 8e c3 bc c0 b8 3a 3d
       -0.01747272 0.0031252175 -0.023871677 0.045586348
000220 b2 6c fa bc 9a 13 06 bd b8 51 7b bd f9 4f 7f 3d
       -0.030569408 -0.032733537 -0.06135723 0.062332127
000230 ba 9e 5c bd 12 40 8b bc 61 00 3a 3d 37 60 41 3d
       -0.05386231 -0.016998325 0.045410518 0.0472109
000240 54 f5 a0 bd c1 85 70 bd a6 58 ab 3c 13 6f 31 3d
       -0.078592926 -0.058721308 0.020916294 0.04331882
000250 a5 cb fd 3c 8b 5b 8b 3c 43 8d 2b bd 78 fd f6 3c
       0.030980894 0.017011425 -0.041882765 0.03015016
000260 d6 8e 18 3d 00 8d 00 bd b6 82 86 3d a3 70 02 3c
       0.037245594 -0.031384468 0.065679 0.007961425
000270 ae 28 66 3d 9d e5 8f 3d b4 c7 1e 3c 86 7e 3c 3d
       0.05619114 0.07026217 0.009691168 0.0460191
000280 07 2c 6b 3d ea b4 2b bd fb 7f 47 3d 74 5d a1 bd
       0.057415035 -0.04192058 0.048706036 -0.07879153
000290 6f ac a4 bd 25 75 1a bd 4a 69 47 bd 63 49 e4 bc
       -0.080407016 -0.037709374 -0.048684396 -0.027867025
0002a0 95 7f 0e 3d 37 9c d8 3c 57 e7 ad bc b5 4a 94 3c
       0.03478964 0.026441677 -0.021228475 0.01810203
0002b0 fc ee 92 bd f8 73 af 3c ce 98 b1 bc 02 8e ef 3c
       -0.07174489 0.021417603 -0.021679308 0.02924252
0002c0 94 da f6 3c 5a 5b 64 bd cd f9 71 3d f3 a1 87 3d
       0.030133523 -0.055751182 0.05907612 0.06622686
0002d0 68 6f 22 bd 96 c5 00 3d 21 3c 07 3d 72 55 51 bd
       -0.039657027 0.031438433 0.033016328 -0.051106878
0002e0 39 68 77 3b f3 ef 8e bc 2a 36 c3 3c f8 95 41 bd
       0.003775133 -0.017448401 0.023829538 -0.047262162
0002f0 aa 97 8d 3c 74 de 97 bb ea 66 02 bd 74 d3 32 bd
       0.017284233 -0.004634673 -0.031836428 -0.04365869
000300 ea 47 de 3d 6c 99 25 3d 8f 52 8a bd e0 3e 7e bd
       0.1085356 0.040429518 -0.06754028 -0.06207168
000310 d7 59 98 3b 46 2b 88 bd fe 35 c4 3d f7 9e 42 bd
       0.0046493816 -0.06648879 0.09580611 -0.047514882
000320 5c 97 47 3c 51 95 25 bd 38 44 1b bd a8 f7 5a 3d
       0.012182083 -0.040425602 -0.037906855 0.05345884
000330 2e 53 38 3d 6c 79 d7 3d be 1f 47 3c d1 86 ca 3c
       0.0450012 0.10521206 0.012153564 0.024722489
000340 92 c3 0b 3d c1 ce 3a 3d 03 a0 79 bd 03 d5 c2 3d
       0.034122057 0.045607332 -0.060943615 0.09513285
000350 4a 99 a2 bb f2 7d bf bd e3 a1 4b bc c7 3c b0 bd
       -0.004962121 -0.09350194 -0.0124287335 -0.08605342
000360 b2 df 43 bd ab 8e 99 3a 03 b3 ad 3b a6 6f 95 3d
       -0.047820754 0.0011715492 0.005300881 0.07296686
000370 ff 17 8f 3d 77 78 a9 bd ac 46 71 3d a3 c1 8f 3b
       0.06986999 -0.0827493 0.05890529 0.004387097
000380 45 35 2a 3c b4 e8 82 3d 4b f8 41 bd 46 a2 4d bd
       0.010388677 0.06392041 -0.04735593 -0.050203584
000390 8b e4 8b bd 70 5a d6 bc 1f 7f 43 bd 3a 6c 2c 3d
       -0.068307005 -0.02616617 -0.047728654 0.0420954
0003a0 64 c8 d6 3c 1e 58 d6 bd d3 df bb bd 06 8e bf bc
       0.0262186 -0.10466026 -0.091735505 -0.023383152
0003b0 81 1f f6 3c be 5b 73 3c 51 81 1f 3d c8 ab 85 3d
       0.03004432 0.014853416 0.038941685 0.06526905
0003c0 d7 f1 d7 bc da 20 75 bd 5e e0 b2 bc 36 fb d0 bc
       -0.026360435 -0.059845783 -0.021835502 -0.025510412
0003d0 97 e2 04 3d 4b 6f e5 3c dd cd 31 bd 0a 42 76 bd
       0.032442655 0.02800717 -0.043409217 -0.060121574
0003e0 8e e1 87 3d 36 df ab bc 59 c8 1e bd ef 9b 84 bc
       0.06634818 -0.020980459 -0.038765285 -0.016187636
0003f0 8d 21 a8 3c 7d d9 2b 3d cf 55 51 3d 70 84 04 bd
       0.02052381 0.04195546 0.051107224 -0.032352865

FC1.bias f4 [128]
000000 d9 14 95 bd 1c f6 2c 3d 0b 6a 90 bd b8 6d b6 3b
       -0.07279367 0.042226896 -0.07051476 0.0055672787
000010 6f e2 75 ba 69 af 04 bd fc 56 fb bc f2 f1 20 bc
       -0.00093797495 -0.032393847 -0.030681126 -0.009823309
000020 2e 45 1c 3d de 62 60 bc 41 3d 30 bd 99 22 e6 bc
       0.038151912 -0.013695447 -0.043027166 -0.02809267
000030 c9 73 9c 3c ba b7 56 bd e3 ad 6d bc 6a 5a 11 bc
       0.01909818 -0.05242131 -0.01450679 -0.008871654
000040 ef 58 83 bd d7 3f 01 bc 86 f1 ed bc 28 bb 7e 3d
       -0.06413447 -0.007888756 -0.029045831 0.062190205
000050 39 59 73 3c c3 b3 b8 bb 27 dd 27 3c 99 33 90 3d
       0.014852815 -0.0056366636 0.010245598 0.070410915
000060 6e 4f 0f bd a2 a0 7e bd 65 8e 62 b8 93 e0 87 3d
       -0.03498786 -0.06216491 -5.4015214e-05 0.06634631
000070 73 d8 c8 3c e5 6d 7c 3d 0c b4 67 3d 8b ed 58 3d
       0.024517274 0.06162824 0.05656819 0.052960914
000080 97 17 d1 bc 43 98 0a bd 2c 50 3f bd 63 e4 82 3d
       -0.025523944 -0.033836614 -0.046707317 0.063912176
000090 c1 7f 23 bd a7 19 ae bc 86 46 5e bd b8 55 00 bd
       -0.039916757 -0.021252466 -0.054266475 -0.031331748
0000a0 f7 c1 6b bd 47 8e 4c bd 3e 0e 68 3d fb 4d 08 3d
       -0.057558026 -0.049940374 0.056654207 0.033277493
0000b0 42 6f 2f bc b3 00 0f bd c4 9e 53 3d 83 6e 7c 3d
       -0.010707678 -0.034912776 0.051665083 0.06162883
0000c0 54 fe 82 3d b3 86 a3 3c 9e f3 a3 3c 11 bb 39 3d
       0.063961655 0.01996169 0.020013627 0.045344416
0000d0 e2 01 1e 3d 02 9e 22 3d 27 c6 74 bd 39 5b ab 3c
       0.038576014 0.03970147 -0.059759285 0.020917522
0000e0 d5 c3 70 bd 1a 4b bb bc 0c 96 e1 bc fc 2e 90 bd
       -0.05878051 -0.02286296 -0.027537368 -0.070402116
0000f0 db 60 29 3d c7 ec 1b 3d 64 66 10 3d 53 99 13 bc
       0.041352134 0.038067605 0.035253897 -0.009008723
000100 cf d7 29 3d 6a 18 cf bc e9 9c 31 bd 24 45 1f 3d
       0.041465577 -0.025280196 -0.04336253 0.038884297
000110 bd 31 c8 bb 4a cc 54 3d fd bd 63 bb 54 45 84 bc
       -0.006109445 0.051952638 -0.0034750693 -0.01614634
000120 09 a9 7a bc f2 0c a5 bb 85 32 87 3d 4c 9f d3 bc
       -0.01529909 -0.0050369436 0.06601433 -0.025832795
000130 4f 17 1c bd 47 21 91 bd 81 cb af bc 66 57 6c bd
       -0.038108166 -0.07086425 -0.021459343 -0.057700537
000140 90 94 10 3d d5 78 18 bc a7 a3 48 3d e0 23 06 bd
       0.03529793 -0.009306152 0.048984196 -0.032749057
000150 31 b4 96 bd 06 2e 3e 3d fb 25 c5 bc ff 43 16 bd
       -0.073585875 0.04643061 -0.024065962 -0.03668594
000160 78 84 3d 3d 6a 13 95 bd de 8b 97 bd 78 10 4d 3d
       0.04626891 -0.072790936 -0.073997244 0.050064534
000170 e5 3d 0b 3d 55 49 7d bd b1 e8 3f bd 6e 57 01 bd
       0.033994574 -0.061837513 -0.04685277 -0.03157752
000180 4c 70 8d bb f8 15 94 3d d1 81 91 3b 63 f8 78 3d
       -0.0043163653 0.07230753 0.004440524 0.060783755
000190 30 41 b4 3c d4 77 89 3c 86 dd 7d 3c 7a d2 8d 3d
       0.02200374 0.016780771 0.01549471 0.06924911
0001a0 10 ac 6f bd c2 3e 89 3b cf 79 84 3c 8a fb 31 3d
       -0.0585137 0.0041883895 0.016171364 0.043452777
0001b0 a8 95 92 3d e2 b3 4c bd 07 86 35 bd 49 00 0f 3d
       0.07157451 -0.049976237 -0.04431727 0.03491238
0001c0 67 97 91 bc 11 bd b9 bc cd 1a 45 3d f9 52 32 bb
       -0.01777239 -0.022673162 0.048121262 -0.00272101
0001d0 22 7c 81 3b 82 65 56 3d 00 88 0c bd 62 89 ea bc
       0.0039515654 0.0523429 -0.034309387 -0.028629962
0001e0 f8 94 83 3d 5b d5 90 3d 10 6e 82 3d aa 50 86 3d
       0.06424898 0.07071944 0.06368649 0.06558354
0001f0 cc 4c 50 3d 9c ed 10 3c 29 7b 50 3d 89 31 45 bb
       0.05085449 0.008845713 0.050898705 -0.003008934

FC2.weight f4 [64, 128]
000000 37 7b 83 bd 0b 1d c8 bd ad ba 26 bd 5f b7 80 3d
       -0.06419986 -0.097711645 -0.04070537 0.06284975
000010 2b be b5 3d 86 ff 20 3b 09 81 34 bd 00 b0 8c bd
       0.08874162 0.0024566366 -0.04406837 -0.06869507
000020 2f 0b 80 3d 52 f5 5c 3d ce 55 9d bc f9 d5 a0 3c
       0.06252133 0.053944893 -0.019205954 0.01963328
000030 77 69 3c bd 0a b1 23 3d 2a 0a 89 bc 75 73 51 3c
       -0.045999017 0.03996376 -0.01672848 0.012783875
000040 95 ee 50 3b 7d 87 90 bd 78 e2 b5 3d c5 b9 91 3d
       0.0031880487 -0.07057092 0.08881086 0.07115511
000050 dc c9 1e 3d 2d cc 0c bd 10 69 95 bd 69 52 7e 3d
       0.038766727 -0.034374405 -0.0729543 0.06209031
000060 03 1d 24 bd d1 45 09 bd 24 6a b8 bc 14 ba 9d bd
       -0.04006673 -0.033513848 -0.02251155 -0.07701507
000070 60 4e a0 3c dc b7 e5 3c 41 4a 37 bd 31 89 60 bd
       0.019568622 0.028041773 -0.04474855 -0.054818336
000080 8e e1 8f bc 73 6f cc 3d 1c e4 e5 3c 71 df 2d 3d
       -0.017563608 0.09982195 0.028062873 0.04244942
000090 7b aa 78 bd cd df 84 bd 02 04 a5 3c 4d fd a3 3c
       -0.060709458 -0.06487999 0.020143513 0.020018244
0000a0 1f 74 45 3c 7e 95 7d bd ca 2f a8 3b 13 38 b2 bc
       0.012051611 -0.061910145 0.00513265 -0.021755254
0000b0 77 c8 cc 3d 64 f6 1f 3c f8 16 aa 3c 1a 79 4b bd
       0.09999173 0.009763334 0.020762905 -0.04967604
0000c0 2b f1 22 3d 67 3c 1a bc 15 20 5f 3d 5c c7 28 bc
       0.039780777 -0.009413815 0.054473955 -0.010301437
0000d0 33 ea 69 bd c7 cb 03 3b d6 09 9f 3d b5 5f a9 3c
       -0.057108115 0.0020110474 0.07765548 0.02067552
0000e0 f5 be 05 bd bc fb 4a 3c 8e be 50 3d bb ac 97 bd
       -0.032652814 0.01238912 0.050962977 -0.074059926
0000f0 5e ea b4 3c 07 b2 84 bd 68 c2 8f 3d 19 2b 85 bd
       0.022084411 -0.064792685 0.07019502 -0.06502361
000100 6e 5a 83 3d 90 1f d4 3d 1f 00 82 bd 99 a9 97 3d
       0.064137325 0.103575826 -0.06347679 0.07405395
000110 63 e8 c1 3b e0 16 84 bd 0d 76 dd 3c 02 50 6f 3d
       0.0059175952 -0.064496756 0.02703383 0.05842591
000120 62 cb f7 bc c3 32 0a 3d 8b 09 9f 3d a9 10 68 bd
       -0.030248348 0.033739816 0.07765492 -0.056656513
000130 eb be b0 bc 5a 55 b0 bd b3 12 a0 3d df 9e 68 bd
       -0.021575412 -0.086100295 0.078160666 -0.056792136
000140 b2 da 42 bd ed 94 0a bd da 2f 66 3c d8 f8 54 bd
       -0.047571845 -0.033833433 0.014049495 -0.05199513
000150 dd be c6 3b 27 65 49 3d aa 4a 87 3b 9b f9 65 3d
       0.006065233 0.049168732 0.0041287737 0.056146245
000160 7a 17 11 3d fd e4 85 3d 78 d5 1a bd e5 4f 37 bd
       0.03542278 0.06537817 -0.037801236 -0.044753928
000170 d1 28 9b 3c ba cb 67 bc 80 4b 6c bd 9e 0e c6 3c
       0.018940361 -0.014147693 -0.05768919 0.024176892
000180 67 18 91 bd 9c cb 57 bd f0 30 36 bd cc b9 b4 3d
       -0.070847325 -0.05268441 -0.044480264 0.088245004
000190 79 39 99 3c 14 59 b8 3d 32 48 76 3d 82 6e 87 3d
       0.018704163 0.09001365 0.060127445 0.066128746
0001a0 0d 03 4c bd 74 7e 13 3d e7 ac 68 bc eb 79 b5 3d
       -0.049807597 0.036009267 -0.014201379 0.08861145
0001b0 0f a0 b7 bc f3 9f 88 3b 93 a4 94 3d 7f 06 3e 3d
       -0.02241519 0.004169458 0.072579525 0.046392914
0001c0 ba e0 35 bd 35 98 56 bd 96 b3 a1 3d 5c f1 aa 3d
       -0.04440377 -0.05239125 0.078955814 0.08346817
0001d0 b2 1b 4f 3d 62 db 2e 3c 71 af 88 3d d7 f8 10 3b
       0.05056352 0.010672422 0.06674088 0.0022120976
0001e0 65 51 45 bd 30 be 6f 3b 8f c6 5b bd 27 0e ce bc
       -0.048173327 0.0036581866 -0.053656157 -0.025153233
0001f0 eb f3 7c bc a9 18 6d 3d 99 7e b2 bd 01 47 68 bd
       -0.015439014 0.057884846 -0.08715553 -0.05670834
000200 f4 c8 7d 3b de fe 74 3d fb 9d fe 3c 1a f3 3d bd
       0.0038724514 0.059813373 0.03108119 -0.046374418
000210 12 b4 24 be 45 88 c7 bd 8b c3 14 3c db 85 19 3d
       -0.16084316 -0.09742788 0.009079824 0.03748117
000220 ee e2 f2 bc 30 27 ac bc dc 71 43 3d 60 0b 69 3d
       -0.029649224 -0.02101478 0.047716007 0.056895614
000230 71 9b ec bd 6f a1 fb 3c 10 89 81 3b 30 7d 1e 3c
       -0.115530856 0.030716626 0.0039531067 0.009673402
000240 2b 5a ce bc b6 c9 a0 bd f0 9e b1 bd fc 7f 65 bd
       -0.02518948 -0.07850973 -0.08672893 -0.05603026
000250 ca f9 35 3d 1f 7e f6 bd ff ed ba bd 8a 67 78 bc
       0.04442767 -0.120357744 -0.091274254 -0.015161404
000260 a8 9f 26 bd 0a e7 ef bc e6 dd ae 3b 24 9e 75 3d
       -0.040679604 -0.029284973 0.005336511 0.059965268
000270 6c 0d e5 3b f8 8a 08 be de 6c 74 ba 35 ab f7 3c
       0.0069901254 -0.13334262 -0.0009324084 0.030233005
000280 60 1e 9e bd 1c 1e 47 3d f3 72 89 bd b5 72 36 3d
       -0.07720637 0.0486127 -0.06711378 0.044542987
000290 db d1 67 bd 7a 90 4c bc 32 72 1d bc 83 01 1f bd
       -0.05659662 -0.012485618 -0.009609746 -0.0388198
0002a0 a7 00 95 bd bf d6 a6 3d 03 7d ad 3c b6 18 98 bd
       -0.07275515 0.08146428 0.021177774 -0.07426588
0002b0 d5 bd d7 3b 7b f1 e7 bb 95 f3 a3 3d 09 90 44 bd
       0.006583909 -0.0070783473 0.08005444 -0.047988925
0002c0 28 67 14 bd 4b a1 df bd 1e 0f 3c bc 76 04 88 bd
       -0.03623119 -0.10919436 -0.011478214 -0.06641476
0002d0 36 72 9c 3c 44 ad 08 bb c4 5c 72 3d b3 42 6d bd
       0.019097429 -0.0020855227 0.0591705 -0.057924937
0002e0 69 1d 3e 3c 3a c2 83 bd 86 32 ce bc 89 1e a7 bd
       0.011603692 -0.0643353 -0.025170576 -0.08160121
0002f0 0c b5 3e 3d 46 cf 41 3b 47 2d 9f bd f6 5f 92 ba
       0.04655938 0.0029573007 -0.07772308 -0.0011167515
000300 f0 06 3b bd c3 59 04 3d 0b 66 da 3d 4c 47 51 3d
       -0.045660913 0.032312166 0.106639944 0.051093385
000310 86 bc d5 bc ed f4 7f 3d 7e 9d 1f bd 6d d6 88 3d
       -0.026090872 0.06248944 -0.038968556 0.066815235
000320 99 cd dd bd 8a e2 b5 3d 42 cc af bd 50 05 ce bd
       -0.1083023 0.088810995 -0.08583881 -0.10059607
000330 1f 4c 05 be c2 64 04 bd 08 bf 0b be b2 44 d5 3c
       -0.13017319 -0.032322653 -0.13647091 0.026033733
000340 f6 f5 db 3c 46 6e cb bc 53 b2 36 bd ac 6d 90 3b
       0.026850682 -0.024832856 -0.044603657 0.004407605
000350 34 9b 73 bd c9 73 29 3d fb 3f 9a 3d e5 35 ee 3b
       -0.059474185 0.041370187 0.075317346 0.0072696083
000360 78 3c 2c bd cf f0 37 bd 30 1c 25 3d 8c 2f 93 3d
       -0.042049855 -0.044907387 0.040310085 0.07186803
000370 98 1c aa 3d b1 3b 87 bd 87 0e c8 3d 28 f8 6e 3d
       0.08306235 -0.06603182 0.09768396 0.05834213
000380 58 fd 4d bd 15 00 87 3d 31 9a 1c 3b e9 32 89 3d
       -0.050290436 0.065918125 0.0023895616 0.066991635
000390 83 cd 99 bb b0 7d cb bd fa ce 2a bc 7d d8 b8 3c
       -0.0046936884 -0.09936082 -0.010425324 0.022564167
0003a0 59 db cd 3c 87 a8 8a 3d 5b b6 a5 bd c5 4b 5f 3d
       0.025129007 0.06770425 -0.08091422 0.05451562
0003b0 a3 82 cb 3d 3b 73 31 3c a5 22 1e 3b 6c aa 01 bc
       0.09937026 0.010830696 0.0024129536 -0.007914167
0003c0 40 8c 2e bd ff fa 83 3d c6 b1 0f bd 42 be cf bd
       -0.04261422 0.06444358 -0.035081647 -0.10143711
0003d0 a8 e3 6c 3d b1 b7 86 bd e2 fe f4 bc f4 65 99 3d
       0.057834297 -0.06578005 -0.029906694 0.07490149
0003e0 2a 98 7e bc 83 6a 8b 3c 05 d2 8b 3a cf a0 e3 3d
       -0.015539208 0.017018562 0.0010667449 0.11114656
0003f0 3e 9f 47 bd c2 5e ac bd 9a 8d 16 be a2 6a 96 bd
       -0.04873585 -0.08416511 -0.14702454 -0.07344557

FC2.bias f4 [64]
000000 00 46 1b bd 86 ab a0 3d 4a 18 26 bd bc 2d ff bb
       -0.037908554 0.078452155 -0.040550508 -0.0077874344
000010 d6 22 87 3d 25 63 ab bc ea 79 6e 3d 41 b9 ac 3c
       0.06598441 -0.0209213 0.058221735 0.02108443
000020 d2 29 bd bc f9 03 91 3c fa 9e d1 3c 8f e1 82 bd
       -0.02309123 0.01770209 0.025588501 -0.06390678
000030 95 43 18 3d 7c d7 3e bc b6 76 b2 39 ce 5c 60 bd
       0.037173826 -0.011648055 0.00034039252 -0.054776005
000040 1d a8 64 3c d9 ce 8a bd 61 22 44 bd ca 79 8d bd
       0.013956097 -0.06777734 -0.04788435 -0.06907995
000050 05 9f 1c bd 1d 77 68 3d d2 37 de bc a5 60 2f bd
       -0.03823759 0.05675422 -0.027126227 -0.042816777
000060 7f 2e c0 bc bd 0f 08 3d 6e e5 ac 3d 53 7a 82 bd
       -0.023459671 0.033218134 0.08442198 -0.06370988
000070 48 62 80 3b 9d 5b 0e 3d 68 bd 31 3d 42 12 91 bd
       0.003917966 0.034755338 0.043393523 -0.070835605
000080 28 48 4b 3c 36 1b 89 3d 41 20 2c bd 62 4b 37 3d
       0.01240734 0.06694643 -0.042022947 0.044749625
000090 59 4d d2 bc d1 0a ae bd 5e dc f1 39 2b 89 2f 3d
       -0.025671648 -0.08498157 0.00046131288 0.042855423
0000a0 f4 46 64 3c 21 aa aa bd bb 83 1a bb af 58 19 3d
       0.013932932 -0.08333231 -0.0023577053 0.03743809
0000b0 f5 c6 06 3d 2c 39 8a bd f1 00 6c 3d 82 f9 05 bd
       0.032904584 -0.06749186 0.057618085 -0.032708652
0000c0 2c 1e 7c bd 6f 6a 9d bd 32 bb af 3c c7 c7 b1 bd
       -0.06155221 -0.07686316 0.021451566 -0.08680683
0000d0 62 1a 3b bd fc 45 61 bd 3c 39 88 bb f5 c1 1d bd
       -0.045679457 -0.054998383 -0.0041572135 -0.03851505
0000e0 c0 b6 a0 bd 03 48 95 bc 88 af c2 bd 34 b3 06 bd
       -0.07847357 -0.018222814 -0.09506136 -0.032885745
0000f0 cb 89 23 bc 7f a7 89 bd 1b 5f af 3c b3 8e e0 bc
       -0.009981583 -0.067214005 0.021407655 -0.027411794

FC3.weight f4 [2, 64]
000000 c7 2e d8 3d 65 6b e2 3d b1 11 1c 3d 75 92 98 bd
       0.10555797 0.1105564 0.03810281 -0.074498095
000010 fc 5f 48 3c 87 6a 00 be a2 c0 a3 3d 11 bc 00 be
       0.012229916 -0.12540637 0.07995726 -0.12571742
000020 21 e1 2d 3d f2 dd b6 bd d0 4f a1 3d 83 8c 03 be
       0.042451028 -0.089290515 0.07876551 -0.1284657
000030 ec 40 96 3c ae b2 94 bd a6 9c ac bd 64 39 bd bd
       0.018341504 -0.07260643 -0.08428316 -0.09239462
000040 64 e1 f3 3d ed ad 03 be b5 f1 fd bd 73 4b 80 3b
       0.11908224 -0.12859316 -0.123996176 0.0039152442
000050 0f ea f9 3d d8 73 b6 bd 4b ae 48 bd f7 0b cf 3c
       0.12202846 -0.08908814 -0.048994344 0.02527426
000060 aa 43 e2 bd 1c 80 c2 bd eb ce 83 bd ee 96 b4 bd
       -0.11048062 -0.09497091 -0.06435951 -0.0881785
000070 e4 c5 b4 bd 40 9f c0 3d e6 ad 02 3e f9 43 1f 3d
       -0.08826807 0.094053745 0.1276165 0.038883183
000080 37 1e fb bd f7 61 fd 3d d7 c3 05 bd 3c ea e8 bd
       -0.122616224 0.12372201 -0.03265747 -0.11372802
000090 b0 dd 6c bd d3 85 55 3d 91 f8 1b 3b 9a a5 4c 3d
       -0.057828605 0.052129578 0.002379928 0.049962617
0000a0 d4 ee 8f 3d 0c 36 a3 3d 64 ee 9f bc 36 6a 90 3d
       0.07027975 0.07969293 -0.019522853 0.07051508
0000b0 01 50 61 bd 62 05 11 3e 35 16 ab bc b4 d8 0a 3d
       -0.05500794 0.1416221 -0.020884613 0.03389807
0000c0 5c 90 d3 3d ac 12 78 3d c6 cb ac bd 22 50 f1 3d
       0.10330269 0.060564682 -0.08437304 0.11782862
0000d0 fc 96 ec bd 4b fb e6 3d 98 b4 58 3d 1e 86 a0 3d
       -0.115522355 0.11278399 0.052906603 0.07838081
0000e0 a9 23 eb bd dc 21 1e 3c 73 7f 90 3d c6 29 8d bd
       -0.11481411 0.009651627 0.07055559 -0.06892733
0000f0 c0 c4 d2 bd 02 57 15 3e 40 55 d8 bd 66 aa 82 bd
       -0.10291433 0.14583972 -0.10563135 -0.06380157
000100 61 4c b9 bd c0 07 b7 bd d3 6a c3 bd bc d1 89 bd
       -0.09047771 -0.08937025 -0.095418595 -0.06729457
000110 6f f4 f3 bd 9c 9b e0 bd e2 0f 8e bd dd 8a e9 3d
       -0.119118564 -0.1096718 -0.06936623 0.11403439
000120 b6 13 4d 3d 07 07 0b 3d d1 8c 48 3d 8f 04 4d 3d
       0.050067626 0.03394225 0.048962418 0.050053176
000130 89 36 b0 bd 59 6c ff bb ae ef 13 bd b4 2b fe bd
       -0.08604152 -0.0077948985 -0.03611725 -0.124106795
000140 7a a3 8c bb 55 05 21 bd 19 61 98 3d ed 50 bb bd
       -0.004291949 -0.039311726 0.07440395 -0.09146295
000150 cc de 11 3d de da 56 bd ef ea a4 bd 1d 42 ce 3d
       0.035612866 -0.05245482 -0.080526225 0.10071204
000160 d0 03 e9 bb 43 2a c6 bb a0 64 9e bd e0 3c 2b bd
       -0.00711105 -0.0060475185 -0.077340364 -0.0418061
000170 74 6d 99 bd 68 b8 08 bd 3c a2 c4 3d ff c4 2b 3d
       -0.0749158 -0.03337899 0.09601256 0.041935917
000180 00 be f2 bd ec 7d 70 bd a9 b3 bb bd 9c e9 bf bd
       -0.11852646 -0.05871384 -0.09165127 -0.09370729
000190 6b d6 87 3d 41 a0 7f bd ab 9e dd 3d 51 9f 76 3d
       0.06632694 -0.06240869 0.10821279 0.06021053
0001a0 8d e2 b7 bd 04 c0 68 3d de 46 10 bd c4 76 c3 bd
       -0.08978758 0.056823745 -0.035223834 -0.09544137
0001b0 f3 69 59 bb 38 d1 21 bd fa 5d ae 3d 36 87 15 bd
       -0.0033174723 -0.039506167 0.08514018 -0.0365059
0001c0 e0 64 b1 3d a4 d0 f1 bc 8c 13 c2 bd 88 52 18 3c
       0.086618185 -0.029518433 -0.094763845 0.009297021
0001d0 95 ae 21 3d 44 7e 2d bd 35 4f 66 3d 30 fb a1 3d
       0.039473135 -0.042356744 0.05622788 0.07909238
0001e0 cc 4c fa bd ef 44 84 3d 73 8f 52 3d 8d 1a 50 3c
       -0.12221679 0.064584605 0.051406335 0.012701643
0001f0 e9 17 b9 bd d0 86 90 3d b2 c3 df 3d 27 72 df bd
       -0.090377636 0.070569634 0.10925998 -0.10910445

FC3.bias f4 [2]
000000 28 8b ad 3c 99 e6 2b 3d
       0.021184519 0.041967962
