hcanet-3.27_maddpg_old/data/test_model/model_1800.pt (torch, 268587 bytes, 16 tensors)

FC1.weight f4 [128, 180]
0	0xbd7f3ea6	-0.062315606
1	0x3d1daf19	0.038497064
2	0x3d04461e	0.03229343
3	0x3d02ee8f	0.03196579
4	0xbc8429e3	-0.016133254
5	0xbdc0e58c	-0.094187826
6	0xbdab9602	-0.08378221
7	0x3dc8c539	0.09803242
8	0xbd2295a7	-0.0396935
9	0xbd509616	-0.050924383
10	0x3dc4020b	0.09570702
11	0xbda24961	-0.07924152
12	0x3d2a82c0	0.0416286
13	0xbcd09b5b	-0.025464704
14	0xb9b85b0c	-0.0003516305
15	0x3b2ee45b	0.0026686403
16	0x3d5e4302	0.054263122
17	0xbe035fa5	-0.12829454
18	0x3d960522	0.07325198
19	0x3d50008f	0.050781783
20	0x3ab70036	0.0013961855
21	0xbd2b7133	-0.041856002
22	0x3d37df11	0.044890467
23	0x3da90142	0.08252193
24	0x3d27c08c	0.04095511
25	0xbdef707b	-0.11691376
26	0x3ca066a4	0.019580193
27	0xbe22e05d	-0.159059
28	0xbe5ba5d1	-0.21449973
29	0xbe421a76	-0.18955407
30	0x3ded2b2b	0.11580499
31	0x3c5980d9	0.013275349
32	0x3dbb7c1f	0.091545336
33	0x3d94fb04	0.0727444
34	0x3dcfbe5b	0.10143729
35	0xbd4f60b2	-0.050629325
36	0xbe84b940	-0.25922585
37	0xbd9fc75a	-0.07801695
38	0xbdd8210a	-0.10553177
39	0xbde24406	-0.11048131
40	0x3d9674f7	0.07346528
41	0x3dafa273	0.085759066
42	0x3dc3c0fd	0.09558294
43	0xbd2166e9	-0.039404783
44	0x3d0c9190	0.034318507
45	0x3e7cda86	0.24692735
46	0xbe3f0f8d	-0.18658276
47	0xbdbc78a5	-0.092026986
48	0x3dad0096	0.084473774
49	0x3d8f3fff	0.06994628
50	0x3c68681b	0.014184977
51	0xbd7fbadf	-0.062434074
52	0x3d030e8a	0.031996287
53	0xbe357337	-0.17719732
54	0xbe086049	-0.1331798
55	0x3ca91127	0.020638062
56	0x3d8211bd	0.063510396
57	0xbcbe80fa	-0.02325486
58	0x3d1348a2	0.03595794
59	0x3cd52657	0.026019258
60	0xbdb1ac43	-0.086754344
61	0xbde0c0e0	-0.10974288
62	0x3be7b417	0.007071029
63	0x3d889067	0.066681676
64	0x3dca4294	0.0987598
65	0xbda70124	-0.081545144
66	0xbd970f61	-0.0737598
67	0xbd873007	-0.06600957
68	0xbdc8fc9f	-0.09813809
69	0xbdbfee7d	-0.0937166
70	0x3c809043	0.01569379
71	0x3d8eb546	0.06968169
72	0xbd4b217b	-0.049592476
73	0x3d5cc2ad	0.053896595
74	0x3d1af4ca	0.037831105
75	0x3ca88d6a	0.020575244
76	0xbbb23e76	-0.005439575
77	0xbc381be0	-0.011237115
78	0xbc8c247d	-0.017107243
79	0x3da0c9be	0.07850979
80	0x3d87af6a	0.066252545
81	0xbd3d9624	-0.046285763
82	0x3d172d8f	0.036908682
83	0x3d6f6f7f	0.05845594
84	0x3d9a3d15	0.07531182
85	0x3d9f1dae	0.07769333
86	0x3ca66482	0.020311598
87	0xbd621372	-0.055194326
88	0xbcd601cf	-0.02612391
89	0x3d7982b3	0.06091566
90	0x3d062b6a	0.032756247
91	0xbd8fea0f	-0.07027065
92	0xbdaa79a2	-0.08323981
93	0xbcacd6d8	-0.02109854
94	0x3dc33cbf	0.09533071
95	0x3e136422	0.14393666
96	0xbd35d6b9	-0.04439423
97	0x3d0361d2	0.03207571
98	0x3db84773	0.08998003
99	0xbca38218	-0.019959494
100	0x3dcd33ca	0.100196436
101	0x3d230c74	0.039806798
102	0xbd62ec8b	-0.055401366
103	0x3d146680	0.036230564
104	0x3d0e9ac6	0.034815572
105	0xbd4da92f	-0.050210174
106	0xbd0eefbd	-0.0348966
107	0x3d4c4dde	0.049878947
108	0x3d3cd5a9	0.0461022
109	0x3ce9fc6d	0.028562749
110	0x3d65fa7f	0.056147095
111	0x3cf49666	0.029856872
112	0x3baf205f	0.005344435
113	0xbd3baa19	-0.045816515
114	0x3ca16217	0.019700093
115	0xbd71bdd4	-0.059018925
116	0x3da4ffb7	0.08056586
117	0xbd244ac2	-0.040110357
118	0xbd52bcec	-0.0514497
119	0x3d9aed17	0.075647525
120	0xbbec5fee	-0.007213584
121	0xbd8a8e86	-0.067654654
122	0xbd89b74a	-0.06724413
123	0x3d000770	0.031257093
124	0xbd2f774c	-0.04283838
125	0x3d963a19	0.073353
126	0x3d04006f	0.032226976
127	0x3d99613f	0.07489251
128	0xbcb4afe5	-0.02205653
129	0xbd4417f9	-0.047874425
130	0xbd1dc4b7	-0.03851768
131	0x3d81b590	0.063334584
132	0xbcf2be43	-0.02963174
133	0xbd8629c0	-0.06550932
134	0x3d7de6c3	0.06198765
135	0x3d023381	0.0317874
136	0x3d89720e	0.06711207
137	0x3d4540dc	0.048157558
138	0x3b8bbf56	0.0042647524
139	0xbd7271ed	-0.05919068
140	0xbd5969a2	-0.053079255
141	0xbd39e07a	-0.045380093
142	0xbd427245	-0.047472257
143	0xbd856a42	-0.06514408
144	0x3d4bbeaa	0.04974238
145	0x3d50302d	0.050827194
146	0xbd5cc90c	-0.05390267
147	0xbc3b0c24	-0.011416469
148	0x3d82cc62	0.06386639
149	0x3ce85d8c	0.02836492
150	0xbcb13483	-0.021631485
151	0xbcd0c95a	-0.025486637
152	0x3d052650	0.03250724
153	0xbd101262	-0.03517378
154	0xbd80f033	-0.06295814
155	0xbcaa3b0c	-0.020780109
156	0x3d41a87c	0.04727982
157	0xbcf6f647	-0.030146731
158	0xbd55b5b6	-0.052175246
159	0xbce3d746	-0.027812611
160	0xbcebb664	-0.028773494
161	0xbd623267	-0.05522385
162	0xbad1b48b	-0.001599924
163	0x3d19e01e	0.03756725
164	0x3d8e11bc	0.06936976
165	0x3ca5764c	0.02019801
166	0x3d717a77	0.058954682
167	0x3ceeb3ee	0.029138532
168	0xbc9ec111	-0.01937917
169	0xbd686737	-0.05673906
170	0xbca014af	-0.019541113
171	0x3d10cb8d	0.03535037
172	0x3c7ec63b	0.0155501915
173	0xbca46645	-0.020068297
174	0xbb578ece	-0.0032891515
175	0x3ccef7ab	0.025264582
176	0x3da489de	0.080341086
177	0x3d7b1209	0.061296497
178	0x3b859cac	0.0040775146
179	0x3c11496a	0.008867601
180	0x3cd53bf2	0.02602956
181	0x3e02b113	0.12762861
182	0x3d8f52e3	0.06998231
183	0x3d83fc25	0.06444577
184	0x3d4af5fd	0.049551
185	0xbe1676f7	-0.14693819
186	0xbdec1ed2	-0.11529316
187	0xbdb16488	-0.08661753
188	0xbc9ea4a5	-0.019365618
189	0x3d13fc2e	0.03612917
190	0xbe8c634e	-0.27419513
191	0xbb84d2fb	-0.004053471
192	0xbdebedad	-0.115199424
193	0x3d3a2819	0.045448396
194	0xb9a37008	-0.00031173253
195	0x3ca4b25c	0.02010458
196	0x3d866b41	0.06563426
197	0xbd406552	-0.046971627
198	0x3ccb188b	0.024791976
199	0x3bef574d	0.0073041082
200	0x3d8e80d4	0.06958166
201	0x3bd950ba	0.006631938
202	0x3db9e74c	0.090773195
203	0xbc8b0234	-0.016968824
204	0x3d4dd044	0.050247446
205	0xbdb1c86f	-0.08680808
206	0xbda1c64b	-0.078991495
207	0x3d2ed303	0.042681705
208	0x3e427b29	0.18992294
209	0x3d77fc19	0.060543153
210	0x3c9b7d7e	0.018980738
211	0x3cc8fce4	0.02453465
212	0xbdc28763	-0.09498479
213	0xbd8c9ac9	-0.068654604
214	0xbcbcd01b	-0.023048451
215	0xbd5deb22	-0.05417932
216	0x3d64cd17	0.05585965
217	0x3db8877c	0.090102166
218	0x3d81cebd	0.0633826
219	0xbd591830	-0.053001583
220	0x3d0c9cda	0.034329273
221	0xbe13810e	-0.14404699
222	0x3cc5629e	0.024094876
223	0x3dd328e6	0.10310535
224	0x3cac9553	0.021067297
225	0x3cd93cb6	0.026518207
226	0xbccc9f88	-0.024978414
227	0x3d0a1959	0.03371558
228	0x3d201334	0.039080814
229	0x3cb7a113	0.022415673
230	0x3e0dc26f	0.13843702
231	0x3dfbf90f	0.123033635
232	0x3d3c93dd	0.04603945
233	0xbc65973f	-0.014013111
234	0x38542da0	5.058723e-05
235	0xbc418ace	-0.011812879
236	0x3e13b3eb	0.14424102
237	0x3e1bd856	0.15219244
238	0x3db7066b	0.08936771
239	0xbc375084	-0.01118863
240	0x3d000605	0.03125574
241	0x3e24b63b	0.1608514
242	0x3dacd085	0.084382094
243	0x3d7ff27b	0.062487107
244	0x3d9cc7e5	0.07655314
245	0x3da46dff	0.080287926
246	0xbcf434d7	-0.029810352
247	0xbc7142b1	-0.014725373
248	0x3dec02ad	0.11523948
249	0x3e1ddb3c	0.15415663
250	0xbd480f7c	-0.048842892
251	0x3d7203e5	0.059085745
252	0xbd9d7a7e	-0.07689379
253	0x3d1a0aff	0.037608143
254	0x3d141a7a	0.036158063
255	0xbc9a3424	-0.01882369

FC1.bias f4 [128]
0	0x3d761b77	0.060084786
1	0xbc04ec34	-0.008112956
2	0xbda4332f	-0.08017575
3	0xbd9c95b2	-0.076457396
4	0xbcc260ef	-0.023727862
5	0xbd31da56	-0.043421112
6	0xbd363bad	-0.044490505
7	0xbda7ad86	-0.08187394
8	0x3ca5922d	0.020211304
9	0x3d8aeb65	0.06783179
10	0x3d3ad73c	0.04561542
11	0xbd95f85d	-0.07322762
12	0xbc28102e	-0.010257764
13	0xbd8e79c9	-0.069568224
14	0xbc0ec194	-0.008713145
15	0xbb2cab7e	-0.0026347334
16	0x3d3ca7b0	0.046058357
17	0xbcb05fc7	-0.021530045
18	0x3cf7acd8	0.030233786
19	0x3d7f67a5	0.062354703
20	0x3d4fcde9	0.05073348
21	0xbc99d3b4	-0.018777706
22	0xbd1a45f7	-0.03766438
23	0xbd034f00	-0.032057762
24	0x3c7404a4	0.014893685
25	0xbce82fa7	-0.028343035
26	0x3d84d231	0.06485403
27	0xbd7672cd	-0.060168076
28	0xba153a0a	-0.00056925474
29	0xbd654430	-0.05597323
30	0x3cd77629	0.02630146
31	0xbd9cb655	-0.076519646
32	0xbd4280f0	-0.047486246
33	0x3d8fe82b	0.070267044
34	0xbd744f79	-0.059646104
35	0x3d20eb2e	0.039286785
36	0xbd33682c	-0.043800518
37	0xbd21e228	-0.03952232
38	0x3d2218d5	0.039574463
39	0x3d6654c0	0.056233168
40	0x3d3b042a	0.045658268
41	0xbb6d8846	-0.0036244555
42	0xbbb48211	-0.005508669
43	0x3d53d28e	0.051714472
44	0x3d0757f5	0.033042867
45	0xbcf508cd	-0.029911423
46	0xbd9a3c4f	-0.07531034
47	0x3d6b666c	0.057470724
48	0x3c972b80	0.01845336
49	0xbd8f7557	-0.07004803
50	0xbd804a87	-0.06264215
51	0xbd2bbad1	-0.04192621
52	0x3d03f424	0.032215253
53	0xbd6d155c	-0.057881698
54	0x3d3a7ab6	0.045527183
55	0x3b87d986	0.004145804
56	0xbc9cc271	-0.019135686
57	0xbcf11773	-0.029430127
58	0x3d8d2d52	0.0689341
59	0x3be87078	0.0070934854
60	0x3d2ef038	0.04270956
61	0xba4045c8	-0.0007334617
62	0x3d01a996	0.03165587
63	0xbc50c8cf	-0.012743189
64	0xbc0f734c	-0.008755516
65	0xbc9cd3fc	-0.01914405
66	0xbc265b3d	-0.010153589
67	0xbd1d66f9	-0.03842828
68	0xbd5118c7	-0.05104902
69	0x3cca0508	0.024660602
70	0xbdb04e5e	-0.08608697
71	0xbd30fff4	-0.043212846
72	0x3cb33a7a	0.02187847
73	0x3cf7f901	0.030270102
74	0xbb1c6425	-0.0023863402
75	0x3d7ccf65	0.061721224
76	0xbd9c3465	-0.07627181
77	0xbcef01c7	-0.029175652
78	0x3c9c8e39	0.019110786
79	0x3d8728a4	0.065995485
80	0xbc56d026	-0.01311115
81	0x3d082064	0.033234015
82	0xbd1ec96f	-0.03876632
83	0x3d1063f1	0.03525156
84	0x3b85448a	0.0040670084
85	0x3c17d416	0.009266874
86	0xbd49c200	-0.04925728
87	0xbc948ab8	-0.018132553
88	0xbaef9a9b	-0.0018280329
89	0x3d857910	0.065172315
90	0xbcd5c1df	-0.026093422
91	0x3d7a352c	0.061085865
92	0xbd24715a	-0.040147163
93	0x3d8e004b	0.0693365
94	0x3d890325	0.06690053
95	0x3d050d37	0.032483306
96	0xbd84edd3	-0.06490674
97	0x3d4441f8	0.047914475
98	0xbd51766c	-0.051138327
99	0x3d6e2347	0.05813911
100	0x3d8e1dda	0.069392875
101	0xbd27814b	-0.040894788
102	0x3d899669	0.067181416
103	0x3d29727d	0.04136895
104	0xbd03dff3	-0.032195996
105	0x3c4aec23	0.012385401
106	0xbc50b4b1	-0.012738393
107	0x3ceec9aa	0.029148895
108	0xbcbd26e0	-0.023089826
109	0xbd62f2c6	-0.055407308
110	0xbc497b33	-0.012297439
111	0xbbeae242	-0.0071680853
112	0x3ce24eb4	0.02762542
113	0x3d527fe8	0.051391512
114	0xbc9dfa28	-0.019284323
115	0x3c2871d4	0.010281045
116	0x3d950eb2	0.072781935
117	0xbd1cfe3a	-0.038328387
118	0x3d63fddb	0.055662017
119	0xbd3396dd	-0.043845046
120	0x3ae1f53b	0.0017239222
121	0x3d04ce52	0.032423325
122	0xbb7e8df9	-0.0038841947
123	0xbcfdb1ea	-0.030968625
124	0xbcba42ad	-0.022736872
125	0x3d55bedd	0.052183975
126	0xbd5c5f8a	-0.05380205
127	0xbd88120a	-0.06644066

FC2.weight f4 [64, 128]
0	0xbd257c79	-0.04040191
1	0xbca23d1a	-0.019804526
2	0x3d590ab0	0.052988708
3	0xbd9267f0	-0.07148731
4	0xbda7cc61	-0.08193279
5	0xbc8090f8	-0.015694126
6	0x3d2b7d3c	0.04186748
7	0xbe362a57	-0.17789589
8	0x3e14591d	0.14487119
9	0x3d837315	0.064184345
10	0xbd06c326	-0.03290095
11	0xbb7d731b	-0.0038673345
12	0x3bc00235	0.005859638
13	0x3d695a43	0.056970846
14	0xbc810cb8	-0.015753135
15	0x3d2deeeb	0.042464178
16	0xbe659fe8	-0.2242428
17	0xbc4f64e2	-0.01265833
18	0xbe1a78a8	-0.15085089
19	0xbe2f247d	-0.17103763
20	0xbc0e50aa	-0.008686224
21	0xbdf504ab	-0.11963781
22	0xbd055624	-0.032552853
23	0x3d84dd3b	0.06487509
24	0x3c968128	0.018372133
25	0xbe9666e8	-0.29375386
26	0xbd9fe8e3	-0.078080915
27	0x3d52d298	0.05147037
28	0x3d68b261	0.05681074
29	0xbd7f3505	-0.062306423
30	0x3dab6038	0.08367962
31	0x3a9f3297	0.0012145814
32	0x3d4d7a6c	0.05016558
33	0xbdf74104	-0.120729476
34	0xbb846289	-0.0040400666
35	0xbca177f6	-0.019710522
36	0x3dd1f1ec	0.10251221
37	0xbc0f7fe9	-0.0087585235
38	0xbe755142	-0.23956779
39	0xbe0dc46e	-0.13844463
40	0x3ce3066c	0.027713023
41	0xbcdf5dc7	-0.027266396
42	0xbd529bf3	-0.051418256
43	0xbcdd9174	-0.027046897
44	0xbc817d60	-0.015806854
45	0xbe3efb4b	-0.18650548
46	0xbd90d0e6	-0.07071094
47	0x3e6c7e65	0.2309509
48	0xb99b325a	-0.0002960142
49	0x3c8b2491	0.01698521
50	0x3bb9c353	0.0056690364
51	0x3d82f81d	0.0639498
52	0x3e0ee945	0.13956173
53	0x3c00d527	0.0078633195
54	0xbd61a799	-0.055091474
55	0xbd982887	-0.07429605
56	0xbbae1f02	-0.005313755
57	0xbd169be1	-0.03676975
58	0x3d83c67b	0.064343415
59	0xbc10c109	-0.008835086
60	0x3d504824	0.05085005
61	0xbd08ec23	-0.033428323
62	0xbdec2017	-0.11529558
63	0x3d61782c	0.055046245
64	0xbdb1eff5	-0.08688346
65	0x3d81b6bc	0.06333682
66	0x3e5074cb	0.20357053
67	0x3d539220	0.051653028
68	0x3da69ce5	0.08135394
69	0xbd41d72b	-0.04732434
70	0xbd0c84f9	-0.0343065
71	0xbdea8b05	-0.11452297
72	0x3d587ca1	0.05285323
73	0x3d5e94e6	0.05434122
74	0xbb9edc5d	-0.0048480467
75	0x3be561a9	0.0070001674
76	0x3cf7b103	0.030235773
77	0xbc0858fd	-0.008321998
78	0x3e1067e2	0.14102128
79	0x3e064aee	0.13114521
80	0x3b406f23	0.0029363118
81	0x3daf2ca3	0.08553436
82	0xbd97657b	-0.07392403
83	0x3e0cf057	0.13763557
84	0x3d41a469	0.047275934
85	0xbd7c7c0e	-0.061641745
86	0xbd15199d	-0.03640138
87	0xbc8d0e60	-0.017218769
88	0xbde942f6	-0.11389725
89	0xbca91851	-0.020641478
90	0x3d473e27	0.048643257
91	0x3d1fd91f	0.039025422
92	0x3d6297d3	0.055320572
93	0x3d44d96e	0.04805892
94	0xbe2d37c1	-0.169158
95	0xbb7244f4	-0.0036967369
96	0x3d80e4ac	0.06293616
97	0x3d840f76	0.064482614
98	0xbc9c59d3	-0.0190858
99	0xbdb69999	-0.08916015
100	0x3c74341b	0.014905001
101	0x3cd825ba	0.026385177
102	0xbd9a7fe3	-0.07543924
103	0x3d7bc519	0.061467264
104	0xbda58bf0	-0.080833316
105	0xbcf76e3b	-0.03020393
106	0x3cd67c68	0.026182368
107	0xbdccd8e7	-0.10002308
108	0xbdbb079f	-0.09132313
109	0xbe1c1373	-0.15241794
110	0xbd5beb20	-0.05369103
111	0xbe297340	-0.1654787
112	0xbd9b37d3	-0.07579007
113	0x3e1f15f4	0.15535718
114	0xbd8f93d1	-0.070106156
115	0x3d20a8f3	0.039223623
116	0x3d8c2a4c	0.06844005
117	0x3d681c74	0.05666776
118	0xbd2c7bee	-0.042110376
119	0xbc1bec80	-0.009516835
120	0xbcae7394	-0.021295346
121	0x3a86c25c	0.0010281312
122	0xbe23b9c8	-0.15988839
123	0x3c4bff49	0.012451001
124	0x3b6540fb	0.0034981358
125	0xbddc61da	-0.10760851
126	0xbd827da8	-0.06371623
127	0x3e120a24	0.14261681
128	0xbd67558a	-0.05647806
129	0xbdc6d264	-0.097080976
130	0x3d94b342	0.07260753
131	0x3d83c408	0.06433874
132	0xbd98e632	-0.07465781
133	0xbcf4805e	-0.029846366
134	0x3cc0e72d	0.023547733
135	0x3db8123a	0.089878514
136	0x3d42c08a	0.0475469
137	0x3dd7bfb0	0.10534608
138	0xbdf0d504	-0.117593795
139	0xbbddc29a	-0.006767583
140	0x3d5ed67c	0.054403767
141	0xbd9cb34b	-0.07651385
142	0x3d88229f	0.066472284
143	0xbe104491	-0.14088656
144	0xbc626206	-0.013817316
145	0x3d95ea10	0.073200345
146	0x3d6064ef	0.054783758
147	0xbdf2eeee	-0.118619785
148	0xbd88b4a1	-0.06675077
149	0xbca83022	-0.020530764
150	0xbb9898bf	-0.0046568806
151	0x3c92138a	0.017831583
152	0x3cd9ac61	0.026571454
153	0xbd46efad	-0.048568416
154	0x3bf1ae92	0.0073755467
155	0xbdc0f641	-0.09421969
156	0x3cf78dc1	0.03021896
157	0x3dc9c54f	0.09852087
158	0xbdae9401	-0.08524323
159	0xbdbfceff	-0.09365653
160	0x3d551aaf	0.0520274
161	0x3d866055	0.065613426
162	0xbc5e314b	-0.013561557
163	0xbd61753e	-0.05504345
164	0x3d7edacd	0.062220383
165	0x3e02a4e1	0.12758209
166	0x3d87cbd8	0.06630677
167	0xbde7f222	-0.1132548
168	0x3db6ac0b	0.08919533
169	0x3ca5ce88	0.020240083
170	0xbde2d3e5	-0.11075572
171	0xbde282aa	-0.110600784
172	0x3d233604	0.039846435
173	0x3cbc3851	0.022976073
174	0x3d612301	0.054965023
175	0x3dc9bd0a	0.098505095
176	0x3daccc16	0.08437364
177	0xbcec940e	-0.028879192
178	0xbe4000d2	-0.18750313
179	0x3cd136e7	0.025538875
180	0xbe08e0b0	-0.13366961
181	0x3c134ffb	0.008991237
182	0x3dc0961e	0.094036326
183	0x3d8e8509	0.06958968
184	0x3d583f8c	0.052794978
185	0x3cbaecaf	0.022817938
186	0xbcfde956	-0.030995052
187	0xbcda52c3	-0.026650792
188	0x3dd75a7a	0.10515304
189	0xbdf466b1	-0.11933649
190	0xbdc14e55	-0.09438769
191	0xbd2e0f98	-0.04249534
192	0xbd151e51	-0.036405865
193	0x3cc0c657	0.023532076
194	0xbd443ce5	-0.047909636
195	0xbc9c6f3b	-0.019096008
196	0x3d95b04c	0.073090166
197	0x3dc13610	0.0943414
198	0xbd8c5618	-0.068523586
199	0xbbfd8e97	-0.0077379453
200	0x3d54228b	0.051790755
201	0xbda84692	-0.08216585
202	0x3d9f6906	0.077837035
203	0xbd4ddb82	-0.050258167
204	0x3d5459bc	0.05184339
205	0xbdb00f5d	-0.0859668
206	0xbd52913f	-0.05140805
207	0x3d2d7482	0.04234744
208	0x3d08799c	0.0333191
209	0x3d0528b8	0.032509536
210	0xbd849ac4	-0.06474832
211	0x3dc43683	0.0958071
212	0x3d7fa4ef	0.062413152
213	0xbdc761c8	-0.09735447
214	0xbd3876c3	-0.045035135
215	0xbdac3fc2	-0.08410598
216	0x3d0b8bcf	0.03406888
217	0xbc96ee48	-0.018424168
218	0xbe83483c	-0.25641048
219	0xbc995442	-0.018716935
220	0x3d1078ea	0.035271563
221	0x3d304459	0.04303393
222	0xbd954b33	-0.07289734
223	0xbd30a5f9	-0.043127034
224	0xbac8b5b1	-0.0015312937
225	0x3d84e743	0.06489422
226	0xbd87ec95	-0.06636921
227	0xbe0d7b34	-0.1381653
228	0x3cfbfebd	0.030761117
229	0xbd7ef3cb	-0.062244218
230	0x3b85ff12	0.0040892446
231	0x3de21105	0.110384025
232	0xbdc80352	-0.09766258
233	0x3c97feb3	0.018554067
234	0x3e182c10	0.14860559
235	0x3d1ed69e	0.038778894
236	0xbda7ac9b	-0.08187219
237	0x3d8cfe8f	0.06884491
238	0xbd3b5de7	-0.04574385
239	0xbe06c70e	-0.13161871
240	0x3bb86f2a	0.005628486
241	0xbcb9deb0	-0.022689193
242	0x3bf662f5	0.007519121
243	0x3cbad87e	0.02280831
244	0x3e0c1c30	0.13682628
245	0xbda02d2c	-0.07821116
246	0x3ca8acf7	0.020590289
247	0xbb012fda	-0.001971236
248	0xbd2a74e4	-0.04161538
249	0x3d538bcd	0.051646996
250	0xbd208870	-0.039192617
251	0x3da6f08a	0.08151348
252	0xbe10b943	-0.14133172
253	0x3cf0df3d	0.029403323
254	0xbe0db718	-0.13839376
255	0xbd36f768	-0.04466954

FC2.bias f4 [64]
0	0xbcee63a1	-0.029100241
1	0xbd9be3d1	-0.07611812
2	0xbd88f73f	-0.066877834
3	0xbdd7c529	-0.10535652
4	0xbd2a4f77	-0.04157969
5	0x3d7eaab6	0.06217452
6	0xbcb7be59	-0.022429632
7	0xbd0594b4	-0.032612517
8	0xbd5baf27	-0.053633835
9	0x3d059b4f	0.032618817
10	0x3c5d9710	0.013524786
11	0xbda41324	-0.08011463
12	0xba398ea4	-0.0007078445
13	0x3da79101	0.08181954
14	0x3ced6a29	0.028981285
15	0x3d6e7bd2	0.058223553
16	0xbd966de1	-0.073451765
17	0xbba2daeb	-0.0049699447
18	0x3d3f6887	0.046730544
19	0xbb82a1f2	-0.0039865905
20	0xbd30702e	-0.043075733
21	0xbd7c4f4e	-0.06159907
22	0xbd6a8ed2	-0.05726511
23	0x3c7f1b8f	0.015570535
24	0x3d5f8c4a	0.05457715
25	0x3cec142c	0.028818212
26	0xbc62f665	-0.01385269
27	0xbdb2bee2	-0.08727814
28	0xbca67a9e	-0.02032214
29	0xbd85ae3e	-0.06527375
30	0xbda7d13d	-0.08194206
31	0xbd65bc77	-0.056087937
32	0x3dccf737	0.1000809
33	0xbd4a352d	-0.04936712
34	0xbcfabecb	-0.030608555
35	0xbdbedc95	-0.093194164
36	0xbd1735dd	-0.036916602
37	0x3d5737b3	0.052543353
38	0x3dd021c2	0.10162689
39	0x3ddbad9a	0.10726471
40	0xbd6e7cac	-0.058224365
41	0xbd625e61	-0.055265788
42	0xbcc65e18	-0.02421479
43	0x3cdbdd84	0.026839025
44	0x3c9523af	0.018205492
45	0x3d87c1c6	0.06628756
46	0x3d0ddda5	0.034635205
47	0xbcd5d76c	-0.026103698
48	0x3c9b9689	0.01899268
49	0xbd87f3ca	-0.06638296
50	0xbcb94668	-0.02261658
51	0x3d421f1e	0.047392957
52	0x3dc7a15a	0.09747572
53	0x3d201a82	0.03908778
54	0xbcf25e49	-0.029585974
55	0x3d7be6fc	0.06149958
56	0xbc59861c	-0.013276603
57	0xbabb21ae	-0.0014277005
58	0xbd203a34	-0.039118007
59	0xbbb1bfa1	-0.0054244553
60	0x3ade38ba	0.0016954162
61	0x3d89fe62	0.06737973
62	0xbce7f4ab	-0.028314909
63	0x3d8c5e08	0.068538725

FC3.weight f4 [2, 64]
0	0xbe3b5259	-0.18293132
1	0x3da30e25	0.07961682
2	0x3bfa1499	0.00763185
3	0x3d94f3c6	0.072730586
4	0x3df8f490	0.121560216
5	0xbe1a1f0c	-0.15050906
6	0x3ca65546	0.020304333
7	0x3e3405de	0.17580363
8	0x3dbd74e9	0.092508145
9	0xbda4785a	-0.08030768
10	0x3e78798b	0.24265115
11	0x3e101d4d	0.14073677
12	0x3dc63034	0.09677163
13	0xbc4f86a9	-0.012666383
14	0x3d3c93a8	0.046039253
15	0x3dfea6ed	0.12434182
16	0x3e8ae769	0.27129677
17	0xbeaf4e56	-0.34239453
18	0xbe178f9d	-0.14800878
19	0xbe0c7898	-0.13717878
20	0x3de618b7	0.11235183
21	0x3e503f19	0.2033657
22	0x3eba24e5	0.36356273
23	0x3da08dc0	0.07839537
24	0xbdbb1e89	-0.091366835
25	0xbe2807dd	-0.1640925
26	0xbd251e1b	-0.040311914
27	0x3e6aee5b	0.22942488
28	0xbd1e202e	-0.038604908
29	0x3d84f6fd	0.06492422
30	0x3def5bf1	0.11687458
31	0xbc8c16df	-0.01710075
32	0xbc939a0a	-0.018017787
33	0xbe1dfcd4	-0.15428478
34	0xbe050d0d	-0.1299326
35	0x3d2dc70a	0.042426147
36	0xbddd0917	-0.107927494
37	0x3e349496	0.17634806
38	0xbd951488	-0.07279307
39	0xbd9bf70e	-0.07615481
40	0x3daa6bbc	0.0832133
41	0x3e25b821	0.16183521
42	0x3df09c0e	0.11748515
43	0xbd9c8243	-0.07642033
44	0xbd75e59b	-0.060033422
45	0x3dbd7bcc	0.09252128
46	0xbe67b056	-0.2262586
47	0x3d498871	0.049202386
48	0x3dcdc670	0.100476146
49	0xbc8d8553	-0.017275488
50	0xbd38d48d	-0.04512458
51	0xbdc1b507	-0.09458356
52	0xbd8647c7	-0.06556659
53	0xbcd3262e	-0.025775041
54	0xbd6c7a50	-0.057733834
55	0xbd8c1f2b	-0.06841882
56	0x3e0e13ff	0.13874815
57	0x3daf9f5b	0.085753165
58	0x3e049340	0.12946796
59	0xbd698571	-0.057012025
60	0xbd8ab7cc	-0.06773338
61	0xbd8a3c5d	-0.06749795
62	0xbd9d1c2c	-0.07671389
63	0xbd904383	-0.07044127
64	0xbdba540a	-0.090980604
65	0xbdb1bd5c	-0.086786956
66	0xbe0e2aa0	-0.13883448
67	0x3d9d9e21	0.07696176
68	0xbd5cfcff	-0.053952213
69	0xbd7ddd44	-0.061978593
70	0xbe3dad5e	-0.18523166
71	0xbc021194	-0.007938761
72	0x3d9ac37f	0.07556819
73	0xbcaf0554	-0.021364845
74	0x3e1f2bb3	0.15544014
75	0x3d4fbc75	0.050716836
76	0x3d12d9a7	0.0358521
77	0xbd4747f1	-0.048652593
78	0xbdf649e0	-0.12025809
79	0x3c816a8e	0.01579788
80	0x3e2134a1	0.15742733
81	0xbe880027	-0.26562616
82	0x3b74cd53	0.0037353828
83	0xbe2371c9	-0.15961374
84	0xbd83168e	-0.06400786
85	0x3dde1224	0.10843304
86	0x3e49677d	0.19668384
87	0xbda654c0	-0.081216335
88	0xbc2879bf	-0.010282933
89	0xbdccb71d	-0.099958636
90	0xbd509651	-0.050924603
91	0x3de2421f	0.11047768
92	0xbe1116d3	-0.14168863
93	0x3e175291	0.1477759
94	0x3dddedee	0.10836397
95	0xbd9ab2f3	-0.07553663
96	0x3d994a0f	0.07484829
97	0xbe5d91b8	-0.21637619
98	0xbb9d5c33	-0.004802251
99	0x3de5f800	0.11228943
100	0x3dca6cb7	0.09884017
101	0x3dce44bf	0.10071706
102	0x3c815224	0.015786238
103	0xbda18b7c	-0.07887933
104	0xbd999a18	-0.07500094
105	0x3d2d0cc2	0.042248495
106	0x3d4baee6	0.049727343
107	0xbda85129	-0.08218605
108	0xbe026b96	-0.12736353
109	0x3e0d704d	0.1381237
110	0xbe5668a1	-0.2093835
111	0x3ce09a00	0.027417183
112	0x3d12f6ce	0.035879903
113	0x3e516fbb	0.20452778
114	0xbd573ce0	-0.05254829
115	0x3c86c1bd	0.016449803
116	0x3cf4b9f9	0.029873835
117	0xbd019f64	-0.031646147
118	0x3d86d176	0.0658292
119	0xbdfcc5e3	-0.123424314
120	0xbdd2766b	-0.10276493
121	0x3e1d4102	0.1535683
122	0x3c31bdfd	0.010848519
123	0x3c1e40e3	0.009659025
124	0x3ca1aee4	0.019736715
125	0x3cb8ee27	0.022574497
126	0xbd894d6d	-0.06704221
127	0xbd823531	-0.06357802

FC3.bias f4 [2]
0	0x3dae607e	0.08514498
1	0x3b63a0a2	0.0034733196

FC1.weight f4 [128, 180]
0	0xbdc1e509	-0.09467513
1	0xbd1de63c	-0.038549647
2	0xbdd1e6a6	-0.10249071
3	0x3d53fd53	0.05175526
4	0x3b858c83	0.004075588
5	0x3d1cde11	0.038297717
6	0xbbcd24f4	-0.0062605087
7	0x3e3dc3aa	0.18531671
8	0xbcb366a4	-0.021899529
9	0x3d1fac93	0.03898294
10	0x3cebe216	0.02879433
11	0xbd94cd2d	-0.07265697
12	0x3c0db613	0.008649367
13	0xbd6b01cf	-0.05737477
14	0x3dc05a61	0.093922384
15	0x3cf1ff8d	0.029540801
16	0x3d057862	0.03258551
17	0x3d249ec3	0.04019047
18	0xbdaa0465	-0.083016194
19	0x3dad5688	0.0846377
20	0x3ccad77d	0.024760956
21	0xbb8d6a48	-0.004315648
22	0x3c8e9f84	0.017410047
23	0x3cf801e6	0.030274343
24	0x3c30f752	0.010801153
25	0x3ca0e7ae	0.019641723
26	0xbc6f13e3	-0.014592144
27	0x3d18d161	0.037309054
28	0xbdab73c8	-0.08371693
29	0xbd19e078	-0.037567586
30	0xbce3e00e	-0.027816799
31	0x3de2ffde	0.11083959
32	0x3d8bf375	0.06833545
33	0x3cc0d2ff	0.02353811
34	0x3db0fd94	0.08642116
35	0xbd8de5e1	-0.069286115
36	0x3d614f6a	0.055007376
37	0x3d68f3b5	0.056873042
38	0xbe4e78be	-0.20163247
39	0x3d9cacdf	0.0765016
40	0xbdfbb56f	-0.12290465
41	0x3d86ae0b	0.06576165
42	0xbdbac17a	-0.09118934
43	0xbe31c1cc	-0.17359084
44	0xbddbd7e6	-0.10734539
45	0xbd9ca61b	-0.076488696
46	0xbc6ecf7c	-0.014575835
47	0x3bb5bb69	0.0055460227
48	0x3da03bcc	0.07823905
49	0x3d34f5ed	0.044179846
50	0xbd92f125	-0.07174901
51	0x3d90f158	0.07077283
52	0xbcb2ba22	-0.02181727
53	0xbd1e2be0	-0.03861606
54	0x3ceec935	0.029148677
55	0xbddf5e08	-0.10906607
56	0x3d8418e8	0.06450063
57	0x3db36846	0.08760123
58	0x3cfb673a	0.03068887
59	0xbddcd66f	-0.107830875
60	0x3c2914ed	0.0103199305
61	0x3d11474f	0.035468396
62	0xbd88e107	-0.066835456
63	0xbba5be38	-0.005058076
64	0xbbb5b38f	-0.0055450867
65	0xbd890038	-0.06689495
66	0xbdced798	-0.10099715
67	0xbadcfe83	-0.0016860518
68	0x3d4d726e	0.050157957
69	0xbcc5da9d	-0.024152094
70	0x3cbcd3fd	0.023050303
71	0xbccad95b	-0.024761846
72	0x3dab5d5b	0.083674155
73	0xbcbd93f0	-0.023141831
74	0xbd154e6b	-0.03645174
75	0xbcacd24a	-0.021096367
76	0xbd23d027	-0.03999343
77	0x3d009eb9	0.03140137
78	0xbd9e9b9c	-0.07744524
79	0xbd0de445	-0.034641523
80	0xbdbe3ee5	-0.0928934
81	0x3d356513	0.044285845
82	0x3c213588	0.009839423
83	0x3c9d4449	0.0191976
84	0xbde10257	-0.109867744
85	0x3c3e1865	0.011602496
86	0x3dc19958	0.09453076
87	0x3c775220	0.015095264
88	0xbbb1f9fa	-0.005431411
89	0xbd86fc37	-0.06591075
90	0xbe02df90	-0.12780595
91	0xbe1f9772	-0.15585116
92	0xbd2b0e3b	-0.041761618
93	0xb9eb5453	-0.0004488552
94	0x3c6e74eb	0.014554243
95	0x3ca46e90	0.020072252
96	0x3c8bfcbf	0.017088292
97	0x3dc65eb5	0.09686033
98	0xbd5eeff5	-0.05442806
99	0xbd15b5b0	-0.036550224
100	0xbd7e9ccd	-0.062161256
101	0xbc6e9704	-0.014562372
102	0x3d5b9867	0.05361214
103	0x3de29223	0.110630296
104	0xbcc5b7aa	-0.02413543
105	0xbd42d763	-0.04756869
106	0x3c8e0bc0	0.017339587
107	0x3cea2d37	0.028586013
108	0x3d99a20b	0.0750161
109	0x3dac8fce	0.08425866
110	0xbc216027	-0.009849585
111	0xbdd6ba77	-0.10484784
112	0x3d43b9bd	0.047784556
113	0x3d759e36	0.059965335
114	0x3d650841	0.055916075
115	0xbda90ab4	-0.082539946
116	0x3d053a4b	0.032526296
117	0xbda05e8b	-0.07830533
118	0xbe603162	-0.21893838
119	0xbe8fe0e8	-0.28101277
120	0x3d37aae4	0.04484071
121	0x3da02ce5	0.07821063
122	0xbd41b134	-0.047288135
123	0xbd83026a	-0.06396945
124	0xbdbf1b33	-0.0933136
125	0xbdab7bce	-0.08373223
126	0xbd908dfb	-0.070583306
127	0xbe27fe35	-0.16405566
128	0xbdc6cdda	-0.09707232
129	0xbd27e4f4	-0.04098983
130	0xbc534751	-0.012895421
131	0x3e0dc00d	0.13842793
132	0xbdb1ed7a	-0.08687873
133	0xbbca72f2	-0.0061782533
134	0xbd00fed5	-0.031493027
135	0x3d1c79b6	0.03820201
136	0xbda357da	-0.07975741
137	0xbd85a421	-0.06525446
138	0xbd973015	-0.07382218
139	0x3d840a9a	0.064473346
140	0xbdd18ee9	-0.10232336
141	0xbca54e8f	-0.020179061
142	0x3c9bff18	0.019042537
143	0xbc9ffb39	-0.019528972
144	0xbe020f80	-0.12701225
145	0xbdc69b27	-0.09697562
146	0x3c8a9523	0.016916817
147	0x3d5c272d	0.0537483
148	0x3cda5a09	0.02665426
149	0x3cfc3ec3	0.030791646
150	0xbd353520	-0.044240117
151	0xbb206b6a	-0.0024478086
152	0x3d15dd95	0.03658827
153	0xbc663cfc	-0.014052626
154	0x3dadbab0	0.084828734
155	0xbcd7b8b1	-0.026333185
156	0x3b1b3807	0.0023684518
157	0x3d369818	0.04457864
158	0xbcf09112	-0.02936605
159	0x3c1b42de	0.009476392
160	0x3d4afe11	0.049558703
161	0xbd5f4e2a	-0.054517902
162	0x3d4fa316	0.05069264
163	0xbdaa7ca3	-0.08324554
164	0xbdaa847e	-0.08326052
165	0xbd283009	-0.041061435
166	0xbd9c4fcd	-0.07632408
167	0xbd24e197	-0.0402542
168	0x3ca9c032	0.020721529
169	0x3c46f65e	0.012143699
170	0xbcf72af4	-0.030171849
171	0x3bdd877e	0.0067605367
172	0xbda0290f	-0.07820331
173	0x3c5ca8a0	0.013467938
174	0xbcf47416	-0.02984051
175	0x3c5005fc	0.012696739
176	0xbd0b8b6b	-0.034068506
177	0x3da2ae83	0.07943442
178	0x3dd37154	0.1032435
179	0x3d87a1f3	0.06622686
180	0xbb578715	-0.0032886912
181	0x3c80259d	0.015642935
182	0xbafff22d	-0.001952713
183	0xbd8d645b	-0.06903907
184	0xbcd44715	-0.0259128
185	0xbc6c2b70	-0.014414653
186	0x3d8dcd98	0.069239795
187	0xbe5a4f06	-0.21319208
188	0x3c68eec0	0.014217079
189	0x3b9c8084	0.0047760624
190	0xbbf620da	-0.0075112404
191	0xbbeee45b	-0.0072904057
192	0x3dad6691	0.084668286
193	0x3cd0ac4c	0.025472783
194	0xbd698f87	-0.057021644
195	0xbd912c0f	-0.07088482
196	0x3d8f9d13	0.070123814
197	0xbd691b33	-0.056910705
198	0x3e4d066b	0.2002198
199	0xbd147b61	-0.036250476
200	0x3e0cd78a	0.13754097
201	0xbd256e3e	-0.04038834
202	0xbd98da73	-0.07463541
203	0x3c883385	0.016626129
204	0x3c05e859	0.008173072
205	0x3e7c6f2c	0.24651784
206	0xbd5b809f	-0.05358946
207	0x3d19bd96	0.03753432
208	0x3d8ad05b	0.06778022
209	0x3d9ce942	0.07661678
210	0xbe185ecd	-0.14879914
211	0x3dd7daff	0.10539817
212	0xbd881213	-0.066440724
213	0xbc9bd58c	-0.019022726
214	0x3dc16192	0.09442438
215	0xbcc986b3	-0.024600362
216	0xbdbb3a6f	-0.09142005
217	0xbd060ebd	-0.0327289
218	0x3d668e5d	0.056288112
219	0x3df7a28d	0.12091551
220	0x3dfea6b7	0.12434142
221	0xbe3acc5d	-0.18242021
222	0x3d8fbcb2	0.07018413
223	0x3d4f41af	0.05059975
224	0x3d6726a3	0.05643333
225	0x3db2b835	0.08726541
226	0xbd887250	-0.066624284
227	0xbde7b719	-0.1131422
228	0xbc9a8306	-0.018861305
229	0x3c90f58e	0.017695215
230	0x3e027824	0.12741143
231	0x3c7b7732	0.015348243
232	0x3c577b6a	0.013151983
233	0xbe38771c	-0.18014187
234	0xbdce262f	-0.10065877
235	0x3c3f9535	0.011693289
236	0x3daac82a	0.083389595
237	0xbd7a9bbf	-0.061183687
238	0x3d026208	0.03183177
239	0x3d66f5f6	0.05638691
240	0x3bc27b33	0.0059350966
241	0xb96275ec	-0.00021596969
242	0xbdb9ecbf	-0.09078359
243	0xbd948f6a	-0.072539166
244	0xbc5daecd	-0.013530445
245	0x3d5c75d2	0.0538233
246	0xbd9e1544	-0.077189
247	0xbd99dea4	-0.075131685
248	0x3dbf83f7	0.09351342
249	0xbcafb4eb	-0.021448573
250	0xbd938546	-0.07203154
251	0xbdd3bfca	-0.10339315
252	0x3d0d035b	0.03442703
253	0x3d3beea2	0.045881875
254	0x3d6f6070	0.05844158
255	0x3db34c74	0.08754817

FC1.bias f4 [128]
0	0xbd9d2e70	-0.07674873
1	0x3d1f2e62	0.038862593
2	0xbd9fbb0f	-0.077993505
3	0x3b5b752f	0.0033486595
4	0xbc35c0e4	-0.011093352
5	0xbcf820a8	-0.03028901
6	0xbcfa5c6b	-0.030561646
7	0xbc5835f3	-0.013196456
8	0x3ccaf427	0.024774624
9	0xbc8cc28b	-0.017182609
10	0xbd25fc70	-0.040523946
11	0xbd1138ac	-0.035454437
12	0x3ca57021	0.020195069
13	0xbd558e09	-0.05213741
14	0xbca37d6b	-0.019957265
15	0xbc1b913e	-0.009495078
16	0xbd8f25b6	-0.06989615
17	0xbbc0d031	-0.0058841933
18	0xbd0be48c	-0.034153506
19	0x3d5d57ee	0.054038934
20	0x3c2dc371	0.010605679
21	0xbbf74ac4	-0.0075467546
22	0x3bfea6e7	0.007771361
23	0x3d69bb88	0.05706361
24	0xbd3b8e8c	-0.04579024
25	0xbd919130	-0.071077704
26	0xbc78be79	-0.015182131
27	0x3d614b2f	0.05500334
28	0x3c9c4e2f	0.01908025
29	0x3d4b2675	0.049597222
30	0x3d62585e	0.055260055
31	0x3d59525c	0.05305706
32	0xbcb94cf9	-0.022619711
33	0xbd455daa	-0.048185028
34	0xbd15821d	-0.03650104
35	0x3d6c9430	0.05775851
36	0xbd2b9b75	-0.041896302
37	0xbd04f955	-0.032464344
38	0xbd6baca4	-0.05753769
39	0xbd3b065e	-0.04566037
40	0xbd747656	-0.059683166
41	0xbd8797cc	-0.0662075
42	0x3d5f4e9b	0.054518323
43	0x3cd45a51	0.025921972
44	0xbc9eb6e9	-0.019374328
45	0xbd131ddf	-0.03591716
46	0x3d2c7938	0.04210779
47	0x3d4b2870	0.04959911
48	0x3d4e28ba	0.05033181
49	0x3c89a904	0.016804226
50	0x3c1b35b1	0.00947325
51	0x3d001d15	0.031277735
52	0x3d1d7ada	0.03844724
53	0x3d0db3d3	0.034595322
54	0xbd917cfb	-0.07103916
55	0x3c12debf	0.00896424
56	0xbd743bdb	-0.059627395
57	0xbd1579b8	-0.036493033
58	0xbd06acc8	-0.03287962
59	0xbda8e1a2	-0.08246161
60	0x3d315bf3	0.04330058
61	0x3ce913b1	0.028451772
62	0x3d0cb195	0.034349043
63	0xbc3a81bd	-0.011383471
64	0x3d0c218d	0.034211684
65	0xbd1477fe	-0.036247246
66	0xbd525a09	-0.051355395
67	0x3d11aa24	0.03556265
68	0xbc608a7d	-0.013704893
69	0x3d3cead1	0.046122376
70	0xbc62da21	-0.013845951
71	0xbccbba74	-0.024869181
72	0xbc66bd42	-0.0140832085
73	0xbc581890	-0.01318945
74	0x3d87f933	0.06639328
75	0xbd34b49d	-0.04411756
76	0xbd22a233	-0.039705466
77	0xbd8ea777	-0.06965535
78	0xbcb5aae8	-0.022176221
79	0xbd8319ce	-0.06401406
80	0x3d0d751a	0.034535505
81	0xbc67e7e5	-0.014154409
82	0x3d196aad	0.03745525
83	0xbd24d4e2	-0.040242083
84	0xbdc0c097	-0.094117336
85	0x3d050d89	0.03248361
86	0xbd2377c6	-0.039909147
87	0xbd505c0d	-0.050869036
88	0x3cd7409d	0.026275927
89	0xbd930e03	-0.07180407
90	0xbd93b79c	-0.07212755
91	0x3d442334	0.047885135
92	0x3cfa9e4a	0.030593056
93	0xbd7b7a66	-0.061396025
94	0xbd488404	-0.048954025
95	0xbd3251d1	-0.043535057
96	0xbb8990a5	-0.004198151
97	0x3d84d94e	0.0648676
98	0x3c8f2d56	0.017477673
99	0x3d70b89c	0.058769807
100	0x3c5e0ff1	0.013553605
101	0x3ba0a24f	0.004902161
102	0x3c224fb7	0.009906701
103	0x3d8ebda1	0.069697626
104	0xbd8f4616	-0.0699579
105	0x3ab49649	0.0013777699
106	0x3bf91a11	0.0076019843
107	0x3d0fdb09	0.035120998
108	0x3d6bf404	0.05760576
109	0xbd52cb72	-0.05146355
110	0xbd3caa91	-0.046061102
111	0x3d057515	0.03258236
112	0xbca57b74	-0.020200469
113	0xbc508aa1	-0.012728364
114	0x3d0a9317	0.033831682
115	0x38976c38	7.2203984e-05
116	0xbb18fabd	-0.002334281
117	0x3d374b05	0.04474928
118	0xbd30b070	-0.043137014
119	0xbcf1075d	-0.029422456
120	0x3d86a571	0.06574524
121	0x3d864a37	0.06557124
122	0x3d637441	0.05553079
123	0x3d6f9441	0.058490995
124	0x3d38f6bb	0.045157176
125	0x3bc771ee	0.0060865795
126	0x3d5fdea5	0.05465569
127	0xbc5d8ae9	-0.013521888

FC2.weight f4 [64, 128]
0	0xbd42a3a6	-0.04751935
1	0xbd141edc	-0.036162242
2	0xbd490fb3	-0.049087238
3	0xbcb0a9be	-0.021565314
4	0x3bd696b5	0.0065487274
5	0xbd8b8a33	-0.06813469
6	0xbcdada6b	-0.026715478
7	0xbd4812e2	-0.048846133
8	0x3d4e65c7	0.05039003
9	0x3e096f2c	0.13421315
10	0xbd00c5fe	-0.03143882
11	0x3b900256	0.0043948097
12	0xbe20851b	-0.15675776
13	0x3d078652	0.033087082
14	0xbd1039f1	-0.035211507
15	0x3c80acda	0.015707422
16	0x3d40fead	0.047117878
17	0xbcb7d53c	-0.022440545
18	0x3dcf08ab	0.10109075
19	0xbcae6ee8	-0.021293119
20	0xb8250471	-3.9343202e-05
21	0xbdc1c250	-0.0946089
22	0xbddaa1b0	-0.10675371
23	0x3cde0b47	0.027104987
24	0xbd310104	-0.04321386
25	0x3c75b9f0	0.014997944
26	0xbd1df3fb	-0.038562756
27	0xbe4a76f0	-0.19771934
28	0x3c2c6525	0.010522162
29	0x3ca1e5a7	0.019762827
30	0xbc4147e5	-0.011796926
31	0xbd6799f4	-0.056543306
32	0xbdc74d0f	-0.09731495
33	0x3d40bdbf	0.047055956
34	0xbd93a7b3	-0.072097205
35	0xbd828485	-0.06372932
36	0xbd3244a4	-0.043522492
37	0xbd91aa15	-0.07112519
38	0x3da0b045	0.07846121
39	0x3d556699	0.052099798
40	0xbca71f70	-0.020400733
41	0xbd7e6c66	-0.062115096
42	0xba98ba2b	-0.0011652162
43	0x3c509088	0.012729771
44	0xbcf7594c	-0.030193947
45	0xbda1dc3a	-0.07903333
46	0xbdc555e5	-0.09635524
47	0xbc4e49e3	-0.012590858
48	0x3c31f4db	0.010861601
49	0xbc7d0d91	-0.015445129
50	0x3d40c6b5	0.0470645
51	0xbd87453c	-0.06605002
52	0xbe876e7c	-0.2645148
53	0x3c92eaba	0.017934192
54	0x3da40b83	0.08010008
55	0x3cb2e6b5	0.021838525
56	0xbd54d1d9	-0.05195794
57	0x3d763e0d	0.06011777
58	0x3d7e6e72	0.062117048
59	0xbd33b19a	-0.043870546
60	0x3d9aa5f0	0.07551181
61	0xbd650b38	-0.055918902
62	0xbe6d0e72	-0.23150042
63	0xbd8c387e	-0.068467125
64	0xbc36514b	-0.01112778
65	0xbc157baa	-0.009123722
66	0x399eeb08	0.0003031122
67	0x3dacbf8c	0.08434972
68	0x3cf29a42	0.029614571
69	0x3cf9014f	0.030396132
70	0xbd24953b	-0.04018138
71	0x3daa9c5b	0.08330604
72	0x3d68711e	0.056748502
73	0xbc41739b	-0.011807348
74	0x3d7c6c34	0.061626628
75	0xbd794b89	-0.06086305
76	0xbdab475c	-0.0836322
77	0x3d61db44	0.05514075
78	0x3db77a44	0.08958867
79	0xbe00e229	-0.12586273
80	0xbd841c38	-0.06450695
81	0xbdd712d8	-0.10501641
82	0xbd87c35c	-0.06629059
83	0xbeb32d2b	-0.34995398
84	0x3c00c28d	0.0078588845
85	0x3d6addff	0.05734062
86	0xbcc0e9f7	-0.023549063
87	0x3c8697ea	0.01642986
88	0x3daf6696	0.085644886
89	0xbd9b72b8	-0.0759024
90	0x3b153744	0.0022768537
91	0xbdd0c398	-0.101935565
92	0x3b68accf	0.0035503393
93	0xbd403b49	-0.04693154
94	0xbe439fe3	-0.1910396
95	0x3ca59f0e	0.020217445
96	0xbdd4b732	-0.10386504
97	0xbb06e957	-0.0020585859
98	0xbc2eb763	-0.01066384
99	0x3d12eb43	0.035868894
100	0xbe14c478	-0.14528072
101	0x3e1897ea	0.149017
102	0x3d49b0ca	0.049240865
103	0x3dc67af7	0.096914224
104	0xbc67c389	-0.01414574
105	0x3de65f2e	0.11248623
106	0x3d3eb9ab	0.046563786
107	0x3d903498	0.070412815
108	0xbdde75d6	-0.10862319
109	0x3cffde42	0.03123391
110	0x3d0e6e3e	0.034773104
111	0xbc052831	-0.008127258
112	0xbe972524	-0.29520524
113	0xb9cafc63	-0.00038716485
114	0xbbeef377	-0.007292207
115	0x3d1c2ea2	0.03813041
116	0xbd69ef2c	-0.057112858
117	0x3cf11421	0.029428544
118	0xbcb9cda9	-0.022681074
119	0xbd28097c	-0.04102467
120	0x3c4045f6	0.01173543
121	0x3d658a88	0.056040317
122	0xbd396f84	-0.045272365
123	0x3b526c36	0.0032107956
124	0xbdb68e28	-0.08913833
125	0x3e12e4b5	0.14345057
126	0xbdbde450	-0.09272063
127	0xbd8bd53e	-0.06827782
128	0xbe672cdc	-0.22575706
129	0xbd919305	-0.0710812
130	0x3d70efa0	0.058822274
131	0xbd160d2b	-0.03663365
132	0xbe182acd	-0.14860077
133	0xba44817e	-0.00074961025
134	0x3e007855	0.12545903
135	0x3d4616ba	0.048361517
136	0x3c10a20e	0.008827699
137	0xbb4bdfca	-0.003110873
138	0x3dd0cc1b	0.1019518
139	0x3d64cd6c	0.055859968
140	0xbe44e2f6	-0.19227204
141	0xbcfe0573	-0.031008458
142	0xbd255cb0	-0.040371597
143	0xbd192209	-0.037385974
144	0x3cd55172	0.026039813
145	0xbdea9a9d	-0.114552714
146	0xbddcdd05	-0.10784344
147	0x3bdd7b85	0.0067591094
148	0xbc0230fd	-0.00794625
149	0xbe5d0620	-0.21584368
150	0xbe350849	-0.17678942
151	0x3d870e54	0.0659453
152	0xbb7b5d9d	-0.0038355358
153	0xbd59e7a0	-0.05319941
154	0xbd2a8983	-0.041635048
155	0x3db842c4	0.089971095
156	0xbd8f4ee4	-0.06997469
157	0xbd0ddc08	-0.034633666
158	0x3d3a7a99	0.045527074
159	0x3d2ae508	0.041722327
160	0xbd498762	-0.049201377
161	0xbcae31ae	-0.021263923
162	0xbd49819d	-0.049195874
163	0x3dabdb6e	0.08391462
164	0xbdaba8c2	-0.083817974
165	0xbcf80c7f	-0.030279396
166	0xbd4276f1	-0.047476713
167	0xbd11136c	-0.035418913
168	0xbd2d3bc7	-0.042293336
169	0x3d5a2564	0.053258315
170	0x3d1bcf9f	0.0380398
171	0xbcf358ab	-0.029705366
172	0x3b2456ca	0.0025076144
173	0xbd23da96	-0.04000338
174	0xbd05a0ba	-0.032623984
175	0x3d0cca52	0.034372635
176	0x3e03f530	0.128865
177	0xbe0f84d7	-0.14015518
178	0x3c9c948f	0.019113807
179	0xbd9469b4	-0.07246724
180	0xbd171d5b	-0.03689323
181	0xbbbe40c1	-0.005806059
182	0xba229f53	-0.0006203551
183	0xbe2e9e92	-0.17052677
184	0xbc91becd	-0.017791176
185	0x3ab77a2b	0.0013998201
186	0xbe5965a7	-0.21230184
187	0x3b0b15cc	0.0021222709
188	0x3c94ec78	0.018179163
189	0xbda9a243	-0.08282902
190	0xbddfc044	-0.10925344
191	0xbe19ea84	-0.15030867
192	0xbe1899e4	-0.14902455
193	0x3c0c6cd2	0.008570867
194	0x3d9ffd8c	0.07812032
195	0xbd82af12	-0.06381048
196	0xbd5cbaea	-0.053889193
197	0x3e0f3cd4	0.13988048
198	0xbd9c7db5	-0.07641164
199	0xbd3271ed	-0.04356568
200	0xbcbe0437	-0.02319537
201	0x3de7fbd9	0.11327333
202	0xbde4f72e	-0.11179958
203	0xbe3dd3c0	-0.18537807
204	0xbe120624	-0.14260155
205	0xbd0e3c7d	-0.034725655
206	0xbe6981a3	-0.22803359
207	0xbbad35a1	-0.005285934
208	0xbd11adda	-0.03556619
209	0xbd6088db	-0.054818016
210	0xbd974fc3	-0.0738826
211	0xbd2a8567	-0.04163113
212	0xbe378df6	-0.17925248
213	0x3d338491	0.043827597
214	0x3d4a2f3a	0.049361445
215	0x3d8f149b	0.06986352
216	0xbd92601d	-0.071472384
217	0xbd968444	-0.073494464
218	0x3ba2ea80	0.0049718022
219	0x3ccbd7fe	0.024883267
220	0xbd42b9f3	-0.047540616
221	0xbd60c43f	-0.054874655
222	0x3e06f5b3	0.13179664
223	0x3d321b30	0.04348296
224	0xbda80538	-0.082041204
225	0xbd526811	-0.051368777
226	0xbb451b53	-0.00300761
227	0x3c8216fa	0.015880097
228	0xbc828d09	-0.015936391
229	0xbe5fc0f2	-0.21850947
230	0x3be72a9e	0.007054641
231	0xbcdb89e3	-0.026799148
232	0x3cc6ec3d	0.024282569
233	0xbd8a1809	-0.067428656
234	0xbe285b52	-0.16441086
235	0xbdee0963	-0.11622884
236	0x3de5256e	0.1118878
237	0xbe8e6b4c	-0.27816236
238	0xbb4598ee	-0.0030150968
239	0x3d63943c	0.05556129
240	0xbe096ff9	-0.1342162
241	0xbd5da564	-0.054112807
242	0xbd886614	-0.06660095
243	0xbddf7a49	-0.10911996
244	0xbd169ff4	-0.036773637
245	0x3b91c8b4	0.0044489745
246	0xbce18dfd	-0.027533526
247	0x3e0ae2e6	0.13563117
248	0xbd7b2f05	-0.06132414
249	0xbe1107c0	-0.14163113
250	0xbc8fa27d	-0.017533535
251	0x3dfafba4	0.12255028
252	0xbb1bfc05	-0.0023801338
253	0xbc8c4e7d	-0.01712727
254	0xbe3afce6	-0.18260536
255	0xbe27ba00	-0.16379547

FC2.bias f4 [64]
0	0xbd0bef91	-0.034164015
1	0x3d2bd032	0.041946597
2	0xbd721f24	-0.05911173
3	0xbb363555	-0.0027802784
4	0x3d61f11a	0.055161573
5	0xbcd68b8b	-0.026189586
6	0x3d3c9369	0.04603902
7	0x3c19c880	0.009386182
8	0xbd34a6b1	-0.04410428
9	0xbd02ed96	-0.03196486
10	0x3d25ed87	0.040509727
11	0xbdec3a4f	-0.11534559
12	0x3d9e3161	0.07724262
13	0x3b8e6bd6	0.004346351
14	0x3d049f69	0.032378588
15	0xbdda28fa	-0.10652347
16	0xbc6295f3	-0.013829696
17	0xbd74b8e5	-0.05974664
18	0xbd410906	-0.047127746
19	0xbbcfba13	-0.0063393204
20	0x38be79ed	9.0826165e-05
21	0x3d8c1490	0.068398595
22	0xb96efd20	-0.00022791745
23	0x3ca8f7fd	0.020626063
24	0xbd00681e	-0.031349294
25	0x3d3f7d52	0.046750374
26	0x3d8757b3	0.06608524
27	0xbd974fef	-0.07388293
28	0xbceae97e	-0.02867579
29	0x3b051f85	0.0020312977
30	0xbcc896da	-0.024485994
31	0xbd866e8e	-0.065640554
32	0xbd0cc1e1	-0.034364585
33	0xbc352da6	-0.011058247
34	0x3cb488b4	0.022037841
35	0x3d33d3da	0.04390321
36	0xbd006966	-0.031350516
37	0xbdf9cd3e	-0.1219735
38	0xbb5357f0	-0.003224846
39	0x3d09e668	0.033667
40	0x3d6078fe	0.054802887
41	0xbe05ba3a	-0.13059321
42	0xbcc26653	-0.023730433
43	0x3c928777	0.01788686
44	0x3d0c6055	0.034271557
45	0xbd92cedf	-0.07168364
46	0x3d643083	0.055710327
47	0xbcc8f286	-0.024529707
48	0xbd9deae1	-0.07710815
49	0xbd983939	-0.07432789
50	0x3ca30dd9	0.019904064
51	0xbdb0df86	-0.08636384
52	0xbd56b2c3	-0.052416574
53	0xbd783c9e	-0.060604684
54	0xbc91447e	-0.017732855
55	0xbd39b969	-0.045342837
56	0xbd737d3a	-0.059445597
57	0xbcbafdaf	-0.022826044
58	0xbdc1344d	-0.09433804
59	0xbcfad9bc	-0.030621402
60	0xbb74612a	-0.003728936
61	0xbd8fa5e2	-0.070140615
62	0x3d98f804	0.0746918
63	0xbbe15f9e	-0.0068778535

FC3.weight f4 [2, 64]
0	0x3c2da2d0	0.0105979
1	0xbe1c6737	-0.15273748
2	0xbe00819b	-0.1254944
3	0xbdfd8462	-0.12378766
4	0xbe985f53	-0.29760227
5	0xbe286ccb	-0.16447751
6	0x3dc61a9b	0.09673043
7	0xbd78e5c1	-0.060765985
8	0x3e09da26	0.13462123
9	0xbe2b2ace	-0.16715547
10	0x3d998eb9	0.07497925
11	0xbe679d07	-0.22618495
12	0xbd89c455	-0.067269005
13	0xbd351226	-0.04420676
14	0xbdcb6ecf	-0.099332444
15	0xbe9ef4f8	-0.3104627
16	0x3e16c425	0.1472326
17	0xbda2132a	-0.079138115
18	0xbd9f6189	-0.07782275
19	0xbd4ef850	-0.050529778
20	0x3e047195	0.12933953
21	0xbd50eb7a	-0.051005818
22	0xbe20354b	-0.1564533
23	0xbd9d793e	-0.07689141
24	0xbe75bb40	-0.23997211
25	0xbd95f45f	-0.07322001
26	0x3d5403be	0.05176138
27	0xbe2e214c	-0.17004889
28	0xbe12a0e7	-0.14319192
29	0x3dc2456d	0.09485898
30	0x3e4687cf	0.19387744
31	0x3d62aa35	0.055338103
32	0xbe9f828c	-0.31154287
33	0x3e8f49b2	0.27985913
34	0xbdb886fb	-0.090101205
35	0xbdfe0a08	-0.12404257
36	0x3e163466	0.14668426
37	0x3c29eb61	0.01037106
38	0x3d822876	0.063553736
39	0x3db3d9d3	0.08781781
40	0x3b71ad3d	0.003687694
41	0x3e1bf8ef	0.1523168
42	0xbe219a61	-0.15781547
43	0xbdd07de9	-0.101802655
44	0xbde1529e	-0.11002086
45	0x3debfc6b	0.11522754
46	0x3e159e46	0.14611158
47	0xbcea6fd1	-0.028617771
48	0x3e3abc02	0.18235782
49	0x3d6619de	0.056177013
50	0xbdb8005f	-0.08984446
51	0x3df97f35	0.12182466
52	0xbdcc6971	-0.09981049
53	0xbc5872ba	-0.013210947
54	0x3cb6534f	0.022256522
55	0x3e1caf8d	0.15301342
56	0xbd89a987	-0.06721788
57	0x3de3084a	0.110855654
58	0x3d9dbf71	0.0770253
59	0xbd34c8a6	-0.044136666
60	0x3e3a201d	0.18176313
61	0x3e4e7889	0.20163168
62	0xbd9eac61	-0.077477224
63	0xbddbad20	-0.1072638
64	0xbdd544b6	-0.10413496
65	0xbcd247de	-0.025669035
66	0xbe104376	-0.14088234
67	0xbbd9bd6a	-0.0066448944
68	0xbd976f5f	-0.07394289
69	0x3e20e2bd	0.15711494
70	0xbde56ba4	-0.112021714
71	0x3db4e0b9	0.08831925
72	0x3d77063b	0.060308676
73	0x3ca948df	0.02066463
74	0xbd39f838	-0.045402735
75	0x3dcdc671	0.10047615
76	0xbd7aad94	-0.061200693
77	0x3d7cad43	0.061688673
78	0xbd95d1e9	-0.07315428
79	0xbdb94ec4	-0.090482265
80	0xbd86c1d6	-0.0657994
81	0x3cfdf1e6	0.030999135
82	0x3dae2e6d	0.08504949
83	0xbdc2dbf5	-0.0951461
84	0x3d812190	0.0630523
85	0x3ddd4467	0.10804062
86	0xbdeff1fa	-0.11716075
87	0x3e3985f4	0.18117505
88	0x3dbe805b	0.093018256
89	0x3e1fb062	0.15594628
90	0x3da233ea	0.07920058
91	0x3d5bc43a	0.053653933
92	0x3d6b2957	0.05741247
93	0xbd8fefb2	-0.0702814
94	0xbdb551d5	-0.08853499
95	0xbd5da9a6	-0.054116867
96	0xbcdb0531	-0.026735874
97	0xbc8e8e28	-0.01740177
98	0xbd388046	-0.045044206
99	0xbc9da8a1	-0.019245448
100	0x3e0ab01d	0.13543744
101	0xbe212de6	-0.15740165
102	0x3d78df0d	0.060759593
103	0x3dd9c558	0.106333435
104	0xbdfe077e	-0.12403773
105	0x3cfca1bd	0.030838842
106	0xbd4be55f	-0.049779292
107	0xbe099512	-0.13435772
108	0x3d55c623	0.05219091
109	0xbcd159d3	-0.025555527
110	0x3c5d7963	0.01351771
111	0xbde53a54	-0.11192766
112	0x3da24f6b	0.07925304
113	0xbdf86913	-0.12129416
114	0xbc98b866	-0.018642616
115	0x39b6a1a9	0.0003483419
116	0x3daa3308	0.08310515
117	0xbe0af4a8	-0.13569891
118	0xbe04f5a1	-0.12984325
119	0xbd381799	-0.04494438
120	0xbe06a646	-0.13149366
121	0x3d440b0d	0.0478621
122	0xbdc79fb0	-0.09747255
123	0x3d66d406	0.056354545
124	0xbd114a8e	-0.03547149
125	0x3c840693	0.016116416
126	0x3e0a0265	0.13477476
127	0xbc6bc8b6	-0.014391115

FC3.bias f4 [2]
0	0x3c3e3426	0.011609113
1	0x3c5e7b90	0.013579264
