hcanet-3.27_maddpg_old/data/test_model/model_2900.pt (torch, 268587 bytes, 16 tensors)

FC1.weight f4 [128, 180]
-0.0661277 0.017670048 -0.0053566755 0.06907873 -0.021277001 -0.11935436 -0.0634451 0.12511149
-0.03359917 -0.033073064 0.10750646 -0.08305284 0.15300275 -0.024846444 -0.0017425388 0.17088294
0.0857086 -0.06686926 0.10170555 0.0054800133 0.043349326 -0.03501846 0.023274673 -0.10528552
-0.13002709 -0.065570965 0.08886895 -0.20334235 -0.33796138 -0.3005003 0.10158941 -0.08912849
0.04684791 0.14823759 0.12669022 -0.0145007325 -0.36305338 -0.14044419 -0.19805421 -0.19416794
-0.004802968 -0.013060007 0.123298004 -0.18202148 -0.1837866 0.2791195 -0.31887376 -0.08898982
0.070872724 0.09984547 0.0050347624 -0.19688651 0.031228064 -0.4502597 -0.44761577 -0.04798035
0.17477585 -0.0022596556 0.05193025 0.03400028 -0.018383319 -0.02377672 -0.045656506 0.027383974
0.12265891 -0.07744803 -0.027359294 -0.08443774 -0.11150433 -0.092313945 -0.11368241 0.07829735
-0.10093392 -0.0035231474 0.024683267 -0.020866578 -0.05833683 -0.004516676 0.07349218 0.16287686
0.06393621 -0.022954011 0.03605306 0.12857969 0.15323085 -0.04059597 0.07315771 -0.05637654
0.018420173 0.1114104 0.14841053 -0.0010792677 -0.02455909 0.053383134 0.17218524 0.13071443
-0.020960182 -0.007241916 0.08797645 -0.02394014 0.06585086 -0.024584545 -0.040071204 0.029751632
0.040982943 0.03757571 0.0067720274 0.080223136 0.07179879 0.057803676 0.013315585 -0.026388431
-0.032711152 -0.056525405 0.014068695 -0.12697655 0.017771082 -0.083525516 -0.05013869 0.07019501
0.015713327 -0.040258974 -0.055211827 0.04731768 -0.019753937 0.085704975 0.021212589 0.07366995
-0.02424045 -0.053704888 -0.05665055 0.06977194 -0.043839514 -0.099266775 0.037013806 0.015676072
0.104407184 0.03277377 -0.01610405 -0.07406373 -0.029087905 -0.03292286 -0.04003947 -0.05861878
0.058957025 0.045760326 -0.041918024 -0.018580588 0.053423744 0.017456112 -0.009503779 -0.013610989
0.02830364 -0.011383869 -0.04277528 -0.012462605 0.06595987 -0.035654295 -0.04142726 -0.016783973
-0.021764608 -0.04899376 -0.008740409 0.03711891 0.06881519 0.028326184 0.055226285 0.021576617
-0.020454837 -0.058605354 -0.031593245 0.022946563 0.0037571646 -0.030911671 -0.014069484 0.015156057
0.021947159 -0.004775573 0.17543352 0.008867601 0.025168607 0.17914405 0.072388165 0.017667336
-0.14990892 -0.29746777 -0.24801192 -0.28092545 -0.14506462 0.05459716 -0.32951474 -0.0049146204
-0.20516123 0.056856394 -0.023226246 -0.005337097 0.076018505 -0.05525272 0.049371406 -0.10204436
0.18615232 -0.051022235 0.16874894 0.0024848147 0.031483736 -0.0035442945 -0.027794851 0.10410361
0.18160093 0.042565286 0.06535865 0.0031350385 -0.04786122 -0.14035052 -0.07657391 -0.0350585
0.09985475 0.18261889 0.0049503855 -0.11413212 0.04705128 -0.05527626 0.08526205 0.073391885
0.011791957 0.050164785 0.086646505 0.10917317 -0.03697241 -0.057853736 0.22394976 0.008731761
0.09585133 -0.06231417 -0.05652145 0.0015509174 0.20430097 0.25347495 0.21308045 0.10487486
0.08752417 0.24331848 0.10053521 0.001657211 0.0091499295 0.07365367 -0.05453107 0.016028062
0.058884904 0.1099766 -0.015389423 -0.021624263 -0.088833675 -0.037678096 -0.04164378 0.00068584195
00000000: f66d 87bd c7c0 903c 0d87 afbb 2679 8d3d
00000010: 1b4d aebc 0f70 f4bd 81ef 81bd 3a1d 003e
00000020: 499f 09bd 9f77 07bd 592c dc3d 9b17 aabd
00000030: c1ac 1c3e c58a cbbc e665 e4ba f0fb 2e3e
00000040: fe87 af3d c0f2 88bd 004b d03d af91 b33b
00000050: 108f 313d 846f 0fbd 87aa be3c ef9f d7bd
00000060: d225 05be 124a 86bd ed00 b63d fa38 50be
00000070: 4609 adbe 2ddb 99be 1c0e d03d ff88 b6bd
00000080: 98e3 3f3d 98cb 173e 15bb 013e 7b94 6dbc
00000090: 22e2 b9be 9ad0 0fbe b9ce 4abe f6d3 46be
000000a0: 3762 9dbb a4f9 55bc aa83 fc3d d763 3abe
000000b0: 8e32 3cbe c0e8 8e3e 6c43 a3be 4b40 b6bd
000000c0: b825 913d c87b cc3d a6fa a43b 9e9c 49be
000000d0: ffd1 ff3c 7088 e6be e52d e5be 0b87 44bd
000000e0: 71f8 323e bb16 14bb d0b4 543d e143 0b3d
000000f0: 9d98 96bc 65c7 c2bc 5102 3bbd 5b54 e03c
00000100: 9834 fb3d 139d 9ebd 9920 e0bc b2ed acbd
00000110: 625c e4bd 180f bdbd 53d2 e8bd 5c5a a03d
00000120: 71b6 cebd 9be4 66bb 9034 ca3c 63f0 aabc
00000130: 9af2 6ebd a000 94bb 1183 963d 31c9 263e
00000140: fdf0 823d 0d0a bcbc 60ac 133d 65aa 033e
00000150: 8ce8 1c3e f647 26bd b6d3 953d 16eb 66bd
00000160: e7e5 963c 232b e43d eef8 173e 3776 8dba
00000170: 2530 c9bc 46a8 5a3d 5451 303e 01da 053e
00000180: b0b4 abbc 984d edbb ff2c b43d 1d1e c4bc
00000190: d1dc 863d 8765 c9bc b421 24bd b2b9 f33c
000001a0: bbdd 273d fde8 193d e2e7 dd3b 074c a43d
000001b0: 3e0b 933d 8cc3 6c3d 9d29 5a3c 8d2c d8bc
000001c0: 21fc 05bd 2f87 67bd 6280 663c 2406 02be
000001d0: a994 913c 6d0f abbd 3a5e 4dbd 67c2 8f3d
000001e0: 3cb9 803c 98e6 24bd cc25 62bd 2fd0 413d
000001f0: 02d3 a1bc 1786 af3d 06c6 ad3c 45e0 963d
00000200: e893 c6bc a8f9 5bbd 680a 68bd 97e4 8e3d
00000210: 1091 33bd 614c cbbd ca9b 173d 1b6b 803c
00000220: 6fd3 d53d ca3d 063d a4ec 83bc baae 97bd
00000230: c249 eebc 1fda 06bd 6d00 24bd 3f1a 70bd
00000240: ec7c 713d 2e6f 3b3d 3cb2 2bbd 5136 98bc
00000250: dbd2 5a3d 1f00 8f3c bdb5 1bbc a000 5fbc
00000260: 09dd e73c 6883 3abc 2235 2fbd f42f 4cbc
00000270: f815 873d 3d0a 12bd a1af 29bd 8b7e 89bc
00000280: b14b b2bc aead 48bd ef33 0fbc 000a 183d
00000290: faee 8c3d 500c e83c f534 623d 72c1 b03c
000002a0: e790 a7bc 2b0c 70bd eb67 01bd 6efa bb3c
000002b0: c33a 763b 793a fdbc b183 66bc 1c51 783c
000002c0: 87ca b33c 697c 9cbb d8a4 333e 6a49 113c
000002d0: 652e ce3c 8a71 373e 3f40 943d 17bb 903c
000002e0: b981 19be b24d 98be d6f6 7dbe 76d5 8fbe
000002f0: d28b 14be 46a1 5f3d 28b6 a8be d30a a1bb
00000300: c915 52be 40e2 683d f844 bebc d1e2 aebb
00000310: 97af 9b3d ad50 62bd ac39 4a3d a2fc d0bd
00000320: b79e 3e3e b1fc 50bd 86cc 2c3e 46d8 223b
00000330: 17f5 003d 6547 68bb 07b2 e3bc 4634 d53d
00000340: 98f5 393e f058 2e3d c2da 853d 3875 4d3b
00000350: 200a 44bd 0cb8 0fbe c8d2 9cbd 8099 0fbd
00000360: a680 cc3d 7200 3b3e d836 a23b 1abe e9bd
00000370: d8b8 403d 5c69 62bd df9d ae3d 7c4e 963d
00000380: 0d33 413c 9779 4d3d b973 b13d 2f96 df3d
00000390: 6270 17bd 0af8 6cbd 1653 653e a90f 0f3c
000003a0: b44d c43d 253d 7fbd 0983 67bd 2748 cb3a
000003b0: 4634 513e 78c7 813e c331 5a3e a1c8 d63d
000003c0: df3f b33d 7b28 793e 67e5 cd3d c636 d93a
000003d0: 96e9 153c bcd7 963d f95b 5fbd 484d 833c
000003e0: 4c31 713d 693b e13d eb23 7cbc 5e25 b1bc
000003f0: 6eee b5bd 5954 1abd ab92 2abd 13ca 333a

FC1.bias f4 [128]
0.047284596 -0.008620055 -0.082682006 -0.077326395 -0.033498142 -0.048157346 -0.052672833 -0.08156485
-0.0036709716 0.057597343 0.042554095 -0.07842105 -0.020747097 -0.060941078 -0.00048476784 -0.005557807
0.041567978 -0.020818904 0.023351755 0.06716697 0.04160485 -0.01231268 -0.033834204 -0.028230611
0.017881574 -0.02033495 0.06296116 -0.076107144 -0.012817604 -0.046747766 0.025879046 -0.08391205
-0.046893314 0.08321995 -0.061783515 0.042203777 -0.032387104 -0.04065876 0.057109643 0.061421774
0.04305349 0.0010843021 0.008990899 0.049566235 0.031032514 -0.04240334 -0.06554763 0.044828776
0.010646947 -0.07197112 -0.06278502 -0.037266616 0.026805442 -0.06380644 0.041901227 0.0012422317
-0.028294425 -0.033592906 0.06762984 -0.0053150165 0.039603304 -0.0063098976 0.026146756 -0.019576745
-0.024556296 -0.015289105 -0.012066139 -0.029021835 -0.051575325 0.022868086 -0.07658934 -0.05187188
0.023857882 0.04046334 -0.0140604125 0.058204975 -0.08075791 -0.024410078 0.024496648 0.053767648
-0.0067938487 0.040684555 -0.028670345 0.038578376 0.005390898 0.019358482 -0.038940955 -0.01632707
-0.00755128 0.06366955 -0.034189943 0.0691543 -0.046203703 0.060809854 0.07363812 0.017602876
-0.06935028 0.06062612 -0.04716676 0.049223598 0.062375046 -0.03668218 0.05907041 0.010094831
-0.026720151 0.0077376873 -0.010764385 0.03520594 -0.019917903 -0.03861878 -0.017348558 -0.00944215
0.018069375 0.04029327 -0.03206383 -0.008243135 0.06649031 -0.036269274 0.04547601 -0.05161889
-0.00914848 0.027293468 -0.00991467 -0.03914276 -0.026277563 0.055391006 -0.05188397 -0.08246105
00000000: 7ead 413d 223b 0dbc 2f55 a9bd 4d5d 9ebd
00000010: 5935 09bd a340 45bd 78bf 57bd 790b a7bd
00000020: af94 70bb 31eb 6b3d 344d 2e3d 379b a0bd
00000030: d1f5 a9bc 5a9d 79bd 7028 feb9 441e b6bb
00000040: 2f43 2a3d 688c aabc 2e4c bf3c d68e 893d
00000050: d969 2a3d 1fbb 49bc bc95 0abd e243 e7bc
00000060: 617c 923c 7b95 a6bc c8f1 803d 10de 9bbd
00000070: ed00 52bc 967a 3fbd 4b00 d43c 15da abbd
00000080: 3413 40bd 396f aa3d b610 7dbd dedd 2c3d
00000090: 57a8 04bd cd89 26bd cdeb 693d 6695 7b3d
000000a0: db58 303d 241f 8e3a 904e 133c f705 4b3d
000000b0: e637 fe3c 20af 2dbd d63d 86bd 619e 373d
000000c0: 8870 2e3c 9865 93bd 6f95 80bd e1a4 18bd
000000d0: 1697 db3c f3ac 82bd 9fa0 2b3d 61d2 a23a
000000e0: b6c9 e7bc b798 09bd 8381 8a3d 9729 aebb
000000f0: 1337 223d 42c3 cebb b931 d63c 695f a0bc
00000100: 492a c9bc 277f 7abc 0eb1 45bc 33bf edbc
00000110: a640 53bd da55 bb3c dfda 9cbd 9c77 54bd
00000120: 9b71 c33c e3bc 253d a55d 66bc 5768 6e3d
00000130: 6764 a5bd a5f7 c7bc 32ad c83c 773b 5c3d
00000140: ef9e debb d9a4 263d 12de eabc 5c04 1e3d
00000150: 21a6 b03b ae95 9e3c 8d80 1fbd 59c0 85bc
00000160: ba70 f7bb 2e65 823d c10a 0cbd c5a0 8d3d
00000170: 1840 3dbd c113 793d 95cf 963d e833 903c
00000180: 8507 8ebd 1853 783d ef31 41bd af9e 493d
00000190: fa7c 7f3d 0e40 16bd d0f3 713d ca64 253c
000001a0: 38e4 dabc 6d8c fd3b 1a5d 30bc 1b34 103d
000001b0: df2a a3bc ba2e 1ebd 901e 8ebc 3fb3 1abc
000001c0: 3a06 943c 8e0a 253d 5d55 03bd 370e 07bc
000001d0: 122c 883d 178f 14bd 0d45 3a3d 546e 53bd
000001e0: 82e3 15bc 8d96 df3c 2471 22bc 2954 20bd
000001f0: 0b44 d7bc aee1 623d 4984 54bd 57e1 a8bd

FC2.weight f4 [64, 128]
0.038480673 -0.06603302 0.06609591 -0.10237828 0.029911641 -0.059156444 0.067107305 -0.19345962
0.15135305 0.093049236 -0.056630116 0.006342964 0.049274918 0.005302117 -0.004393342 0.06594167
-0.113896094 -0.026635133 -0.07414388 -0.33011502 0.017171236 -0.21483672 0.07228219 0.11093068
0.050574824 -0.3408236 -0.08332668 0.112699695 -0.10626124 -0.10398305 0.095824346 -0.06229448
0.044210102 -0.048406377 -0.0038395424 0.03260532 0.14561656 0.04170819 -0.28496748 -0.15113363
0.03714487 0.04015584 -0.022839354 0.0113958595 0.04947439 -0.13607156 -0.11178587 0.22950129
-0.039937913 0.03526246 -0.011298347 -0.07591993 0.24912246 -0.0076576797 0.015409426 -0.039502136
-0.10689742 0.03188027 0.035913438 0.055356037 0.10336941 -0.06594135 -0.22474383 0.13034779
-0.0864601 0.13114066 0.20530991 0.12587608 0.081421606 -0.107726656 0.022177191 -0.22437207
0.0641367 -0.0036254441 0.035397254 -0.03640905 0.056088448 0.041774638 0.14871074 0.17616984
-0.03308261 0.16378006 -0.23312926 0.16616258 0.15320063 -0.25433862 0.042297713 0.08606553
-0.16562572 -0.15939301 0.080045104 0.037119247 0.04838158 0.00036596245 -0.032253042 0.059408206
0.028421035 0.052629057 0.029120388 -0.14391948 -0.008577438 0.0847029 -0.08586108 0.016458562
0.00866669 0.02344556 0.086949214 -0.17509772 -0.107737325 -0.07737115 0.032587513 -0.16898999
0.036521234 0.15977207 -0.067987606 0.057772208 0.09233812 -0.032795977 -0.058364596 -0.027424783
0.032361604 0.031516332 -0.028558474 0.07766353 -0.09304522 0.063889414 -0.23692943 0.08722681
-0.15735906 -0.0921618 -0.16613556 0.017602332 -0.07764537 -0.047993377 -0.013403183 0.13508642
0.015619688 0.10793775 -0.15495358 -0.003556851 0.06317628 -0.031018948 0.16913974 -0.21028222
-0.015800653 -0.0028113134 0.058127508 -0.06418386 -0.062162194 -0.043991882 0.0044448907 -0.0508156
-0.06254049 -0.01196675 -0.09478483 -0.21212327 0.07149581 0.0458541 -0.27804512 0.08013721
-0.12394532 0.034529366 0.03692322 -0.09046566 0.12515934 0.12297607 -0.13472436 -0.12236761
-0.074831605 0.14414483 -0.27369076 0.005400951 0.12045473 -0.019532574 -0.03660424 0.079497725
0.18718527 -0.08033857 -0.19460814 -0.032842986 -0.28297284 -0.06370762 0.07866068 0.014453918
0.12508215 0.046861432 -0.0042596525 -0.01670378 0.08799905 -0.20674804 -0.06419788 -0.050545335
-0.13335992 0.017792353 0.109945215 -0.0839394 0.12133294 0.14422432 -0.07917507 -0.21665253
0.07899897 -0.08683099 0.14970261 0.030655773 0.07930608 0.01122949 0.038017888 0.0669515
0.1727377 -0.010282571 -0.15706696 0.17551635 0.18076742 -0.08810095 0.0023995389 -0.11882241
0.047657337 -0.22921452 -0.21570511 0.051361516 0.059678048 0.1252107 0.022902932 0.01577252
0.025685355 0.25015074 0.055126034 -0.15443105 0.0991433 -0.25373 0.18260321 0.1398077
-0.10391091 0.06948207 0.14265114 0.06742812 -0.1273493 -0.101690516 -0.033726133 -0.21687761
0.22720137 0.090128444 -0.112942934 -0.083075374 0.123162016 -0.06632462 -0.01576832 0.006703664
0.107315354 0.058279857 0.014417805 0.106155284 -0.3165688 -0.103512056 -0.06390238 -0.010803026
00000000: e99d 1d3d 523c 87bd 4b5d 873d b4ab d1bd
00000010: 4209 f53c 074e 72bd 8e6f 893d 471a 46be
00000020: 4bfc 1a3e 9990 be3d fbf4 67bd a3d8 cf3b
00000030: 7fd4 493d 62bd ad3b 06f6 8fbb 6d0c 873d
00000040: 5b42 e9bd ec31 dabc bfd8 97bd d604 a9be
00000050: b1aa 8c3c 28fe 5bbe af08 943d a02f e33d
00000060: 8c27 4f3d 6e80 aebe 2ea7 aabd 19cf e63d
00000070: 7e9f d9bd 11f5 d4bd 8e3f c43d 7f28 7fbd
00000080: a715 353d c445 46bd d5a0 7bbb 288d 053d
00000090: 821c 153e 35d6 2a3d 42e7 91be c6c2 1abe
000000a0: 3825 183d 737a 243d 9919 bbbc b3b5 3a3c
000000b0: a8a5 4a3d 5856 0bbe fdef e4bd 6302 6b3e
000000c0: f095 23bd 5f6f 103d b41c 39bc e97b 9bbd
000000d0: f519 7f3e 46ed fabb d177 7c3c fecc 21bd
000000e0: 09ed dabd e394 023d f819 133d 03bd 623d
000000f0: 57b3 d33d 420c 87bd 3f23 66be e479 053e
00000100: fe11 b1bd bd49 063e c33c 523e a9e5 003e
00000110: 5fc0 a63d cb9f dcbd f1ac b53c cbc1 65be
00000120: 1a5a 833d dc98 6dbb b6fc 103d a821 15bd
00000130: 00bd 653d e21b 2b3d a147 183e de65 343e
00000140: a281 07bd f6b5 273e 70b9 6ebe 8626 2a3e
00000150: a0e0 1c3e ac38 82be 5e40 2d3d 2043 b03d
00000160: ca99 29be ec37 23be b0ee a33d 5a0a 183d
00000170: c32b 463d a6de bf39 c41b 04bd 0556 733d
00000180: 3bd3 e83c 9191 573d e18d ee3c a15f 13be
00000190: 6288 0cbc b778 ad3d efd7 afbd 1bd4 863c
000001a0: bcfe 0d3c e710 c03c 6e12 b23d d14c 33be
000001b0: 63a5 dcbd c474 9ebd 7c7a 053d b60b 2dbe
000001c0: 4a97 153d 4a9b 233e 163d 8bbd 8da2 6c3d
000001d0: c51b bd3d 1355 06bd b70f 6fbd f0a9 e0bc
000001e0: 9a8d 043d 4517 013d 76f3 e9bc 0f0e 9f3d
000001f0: 7e8e bebd 74d8 823d a19d 72be f8a3 b23d
00000200: bc22 21be 53bf bcbd 711f 2abe c432 903c
00000210: 8904 9fbd b494 44bd 0699 5bbc 1854 0a3e
00000220: b8e9 7f3c 780e dd3d 27ac 1ebe 0f1a 69bb
00000230: 9162 813d 731b febc f832 2d3e 3954 57be
00000240: 5f70 81bc 033e 38bb 1c17 6e3d d472 83bd
00000250: c99d 7ebd d530 34bd 72a6 913b 0524 50bd
00000260: 3a15 80bd 3010 44bc 8d1e c2bd d836 59be
00000270: 656c 923d 82d1 3b3d ee5b 8ebe fa1e a43d
00000280: 0bd7 fdbd aa6e 0d3d cd3c 173d 0f46 b9bd
00000290: c529 003e e1da fb3d 2ff5 09be df9b fabd
000002a0: 5041 99bd b49a 133e 3221 8cbe 76fa b03b
000002b0: f8b0 f63d c702 a0bc 54ee 15bd b4cf a23d
000002c0: 7fad 3f3e 8c88 a4bd 5b47 47be 5e86 06bd
000002d0: d1e1 90be 2479 82bd da18 a13d 20d0 6c3c
000002e0: 8915 003e c6f1 3f3d 8e94 8bbb 5ed6 88bc
000002f0: d938 b43d c2b5 53be 2e7a 83bd a008 4fbd
00000300: 818f 08be 45c1 913c f52a e13d 6ce8 abbd
00000310: 687d f83d 8aaf 133e 8a26 a2bd 29da 5dbe
00000320: 36ca a13d 72d4 b1bd a44b 193e d121 fb3c
00000330: 3a6b a23d e5fb 373c a5b8 1b3d de1d 893d
00000340: 27e2 303e 3b78 28bc 29d6 20be 8fba 333e
00000350: 181b 393e 456e b4bd 9541 1d3b 2a59 f3bd
00000360: 5734 433d 36b7 6abe cde1 5cbe 7460 523d
00000370: f870 743d 3c37 003e ee9e bb3c 5f35 813c
00000380: 186a d23c c213 803e d6cb 613d 2c23 1ebe
00000390: a40b cb3d e6e8 81be 56fc 3a3e c029 0f3e
000003a0: 3ecf d4bd 9e4c 8e3d 2413 123e c117 8a3d
000003b0: db67 02be 1e43 d0bd 6a24 0abd 2a15 5ebe
000003c0: 7aa7 683e 4395 b83d a04e e7bd 6c23 aabd
000003d0: 5e3c fc3d 34d5 87bd 902c 81bc 69aa db3b
000003e0: 27c8 db3d dcb6 6e3d a838 6c3c f167 d93d
000003f0: 4e15 a2be 21fe d3bd 40df 82bd 2dff 30bc

FC2.bias f4 [64]
-0.08258398 -0.0983933 -0.10037479 -0.13246965 -0.06058244 0.0004250471 0.005406506 -0.021142146
-0.038301762 0.05521628 -0.013904446 -0.07498309 -0.055300146 0.04715524 -0.017375836 0.02065062
-0.11390385 -0.04886141 0.009807562 -0.020142848 -0.08202395 -0.08284435 -0.08395587 -0.013171046
-0.0008177383 -0.047705613 0.027278148 -0.13647914 -0.031505827 -0.073837675 -0.10314825 -0.047033083
0.10867123 -0.063550815 -0.073133156 -0.053697456 -0.008824217 0.05854239 0.08857364 0.12624295
-0.026218032 -0.058084857 -0.044909444 0.026033286 0.018353388 0.04326835 0.018494168 -0.06001513
-0.01083195 -0.14146952 -0.02850338 0.014232813 0.13950524 0.03684765 0.029923778 0.036207072
-0.06552476 -0.012771462 -0.037253704 0.043819517 -0.015378314 0.07105143 -0.0034540459 0.05603308
00000000: ca21 a9bd 6d82 c9bd 4c91 cdbd 20a6 07be
00000010: 4b25 78bd dbd8 de39 0f29 b13b 4b32 adbc
00000020: 4fe2 1cbd 772a 623d 79cf 63bc bc90 99bd
00000030: 6882 62bd da25 413d c557 8ebc 7d2b a93c
00000040: 6c46 e9bd e722 48bd e6af 203c 9d02 a5bc
00000050: 2cfc a7bd 4caa a9bd 0ef1 abbd 5fcb 57bc
00000060: 7d5d 56ba f666 43bd 6c76 df3c 30c1 0bbe
00000070: 410c 01bd 3538 97bd 643f d3bd c3a5 40bd
00000080: 068f de3d ee26 82bd d6c6 95bd ddf1 5bbd
00000090: 7393 10bc 25ca 6f3d 1966 b53d d545 013e
000000a0: 33c7 d6bc 63ea 6dbd f7f2 37bd c243 d53c
000000b0: d859 963c 273a 313d 1581 973c 6dd2 75bd
000000c0: 7e78 31bc 63dd 10be ec7f e9bc bf30 693c
000000d0: 76da 0e3e 90ed 163d b622 f53c de4d 143d
000000e0: d831 86bd 653f 51bc 5797 18bd 187c 333d
000000f0: 53f5 7bbc 6a83 913d 465d 62bb f182 653d

FC3.weight f4 [2, 64]
-0.24324201 0.16206296 0.06135353 0.092792705 0.20328239 -0.28323007 -0.0628816 0.12759463
0.08571287 -0.05606548 0.35432723 0.28293762 0.09726531 0.079058886 0.024911575 0.10317953
0.36501458 -0.32988676 -0.092793696 -0.18874724 0.26200032 0.2619112 0.37044424 0.0940014
-0.12992516 -0.30589935 0.03008526 0.2502257 -0.096377 0.05462546 0.18365967 -0.03231477
0.013701935 -0.16421342 -0.17597179 0.110217735 -0.09753257 0.1763221 -0.062731266 -0.052745152
0.13178617 0.103879794 0.14531377 -0.15287554 -0.087192506 0.20043416 -0.30764908 0.038482063
0.13329458 -0.32973158 -0.058283128 -0.33298782 -0.06134929 -0.031924766 -0.039578598 -0.06916663
0.06276311 0.08926244 0.3250822 -0.04123484 -0.09793572 -0.035274263 -0.05806913 -0.07629672
-0.1080137 -0.29630798 -0.1562942 0.06746435 -0.12665446 0.0521277 -0.21980047 -0.09716096
0.07688273 -0.023941142 -0.027419968 0.33213657 -0.0262622 -0.07101327 -0.128168 0.19263892
0.25980335 -0.21835147 -0.020492569 -0.03561087 -0.13684976 0.08978586 0.18896826 -0.056360558
-0.034452844 -0.057242986 -0.12959632 0.08515562 -0.09013773 0.107340775 0.047198128 -0.047282286
0.07214348 -0.28359494 -0.11102973 0.07935994 0.0451594 0.053326055 0.0016768898 -0.034615196
-0.10681601 0.03744189 -0.036646344 0.037747964 -0.04042461 0.11805173 -0.10594162 0.062143184
0.04536757 0.16706166 -0.056361925 -0.02594441 0.018792313 -0.071561575 0.0355792 -0.039846003
-0.35447958 0.1323974 -0.099850796 0.03415902 0.035026856 0.08517935 -0.10646378 -0.04874511
00000000: 6f14 79be d5f3 253e d74d 7b3d 1a0a be3d
00000010: 4229 503e 8803 91be 11c8 80bd 2ba8 023e
00000020: 3b8a af3d eba4 65bd 616a b53e 33dd 903e
00000030: 0933 c73d a0e9 a13d 5c13 cc3c ca4f d33d
00000040: 31e3 ba3e ebe6 a8be 9f0a bebd f546 41be
00000050: e824 863e 3a19 863e deaa bd3e ce83 c03d
00000060: 1a0b 05be d79e 9cbe 5d75 f63c 951d 803e
00000070: 4e61 c5bd f2be 5f3d 4811 3c3e 7e5c 04bd
00000080: 157e 603c 9027 28be f331 34be d6b9 e13d
00000090: 28bf c7bd c88d 343e 4079 80bd 4d0b 58bd
000000a0: f4f2 063e eebe d43d 22cd 143e 688b 1cbe
000000b0: fc91 b2bd 9d3e 4d3e 2e84 9dbe 5e9f 1d3d
000000c0: 607e 083e 94d2 a8be 4aba 6ebd 617d aabe
000000d0: 6549 7bbd 8bc3 02bd 2b1d 22bd 3ca7 8dbd
000000e0: f289 803d 3acf b63d 2d71 a63e dde5 28bd
000000f0: 8692 c8bd bf7b 10bd e5d9 6dbd 7441 9cbd
00000100: 4936 ddbd aeb5 97be 960b 20be c02a 8a3d
00000110: b5b1 01be db83 553d 6013 61be 53fc c6bd
00000120: b174 9d3d 3720 c4bc d79f e0bc ce0d aa3e
00000130: d323 d7bc 686f 91bd 793e 03be 2343 453e
00000140: f204 853e 8797 5fbe 08e0 a7bc b4dc 11bd
00000150: 5822 0cbe a6e1 b73d e580 413e 54da 66bd
00000160: 6d1e 0dbd 9f77 6abd e6b4 04be 1266 ae3d
00000170: 219a b8bd 7bd5 db3d d352 413d 12ab 41bd
00000180: f6bf 933d 5b33 91be 8e63 e3bd 7787 a23d
00000190: 10f9 383d 6c6c 5a3d 16cb db3a aac8 0dbd
000001a0: 5ac2 dabd ab5c 193d 7a1a 16bd 9c9d 1a3d
000001b0: 4794 25bd 1bc5 f13d ecf7 d8bd da89 7e3d
000001c0: 58d3 393d 3612 2b3e c3db 66bd 5f89 d4bc
000001d0: 56f2 993c e08e 92bd 7fbb 113d 9035 23bd
000001e0: 597e b5be 2f93 073e 937e ccbd 54ea 0b3d
000001f0: 5278 0f3d 8372 ae3d af09 dabd f4a8 47bd

FC3.bias f4 [2]
0.056259304 -0.0017519376
00000000: 2870 663d 45a1 e5ba

FC1.weight f4 [128, 180]
-0.058324203 -0.022617003 -0.11055883 0.056857076 -0.0061731115 0.037305273 -0.004296913 0.23731121
-0.011104685 0.0054665925 -0.027638508 -0.036306143 0.064668216 -0.1266281 0.08594538 0.10579222
-0.045813385 0.060187288 -0.103041805 0.08233572 0.0608775 -0.020258062 0.012156675 0.18292207
0.17306496 -0.0023493434 0.052426476 0.0370416 -0.047290213 0.0054211654 -0.04430261 0.0007966772
0.12726218 0.1596845 0.22453354 -0.16271788 0.10097019 0.07268387 -0.23051867 0.053808216
-0.2502696 -0.0067076343 -0.06547838 -0.2645575 -0.16644248 -0.02915021 0.002196212 0.039087687
0.047415856 0.028804434 -0.049986053 0.028175794 0.005037328 -0.019904315 0.05046816 -0.0009978041
0.10103733 0.11733376 0.0013649538 -0.26945686 0.059642147 0.024607535 -0.10363422 -0.04676638
-0.021134296 -0.18963078 -0.1692607 -0.024870971 0.13948727 0.02830126 0.11727775 -0.11570109
0.060879454 -0.038867272 -0.08582757 0.046176758 -0.1416075 0.06318388 0.03383093 0.07783058
0.03291802 0.17459045 0.065389276 0.07455187 -0.083548926 -0.06604349 0.22438598 -0.012650139
-0.06480874 -0.15198053 -0.0981599 -0.1951478 0.017833607 -0.0065299403 -0.016966667 0.056200445
-0.0012238915 0.12509072 0.090182394 0.09335691 0.025346374 -0.018479783 0.030980617 0.091582365
-0.036444765 0.07583776 0.050095078 0.03326157 0.1185181 0.10113288 0.075483695 -0.08998748
-0.0127243325 0.0850555 0.059721548 -0.017907467 0.031082928 -0.15147871 -0.23572364 -0.3167825
0.026535364 -0.024249554 -0.0790588 -0.14405817 -0.18644379 -0.16942926 -0.20915292 -0.154608
-0.23025696 -0.17219445 -0.20867978 0.09324104 -0.06766823 -0.11287167 -0.094839476 -0.09706918
-0.14758915 -0.034308676 -0.14113925 -4.8772767e-05 -0.09491957 -0.10222686 0.084299795 -0.03942079
-0.24237308 -0.12563054 0.10049203 0.04273647 -0.0050035683 -0.024729982 -0.047702454 -0.0522376
0.02401413 0.0040516136 0.09574901 -0.025916621 -0.036575627 0.0011080944 -0.06305667 -0.027680697
0.06092477 -0.056079727 0.06628214 -0.08876749 -0.10608551 -0.08295006 -0.071281806 -0.04937832
0.017635886 0.0054741823 -0.0092988415 0.04750299 -0.09088193 0.022545004 -0.019241188 -0.031988975
0.052714568 0.10718347 0.2666328 0.06622686 0.0018205692 -0.004567169 0.05849336 -0.20310645
-0.16230735 -0.048693363 0.043993406 -0.25552744 -0.0026608366 -0.020749088 -0.014007751 -0.0021813102
0.032872792 0.0083678495 -0.114937514 -0.0062187365 0.2155134 -0.19001703 0.110437565 0.13791393
0.13579799 0.0076525193 -0.12867886 0.06960475 0.050337072 0.3056993 -0.112268575 0.094209194
0.2544345 0.26991794 -0.12579867 -0.06597345 -0.014786964 -0.17794655 -0.08018679 -0.028174054
-0.056545626 -0.03639594 -0.058777794 0.003867804 0.09982674 -0.06306771 0.060277272 0.10559731
0.10758752 0.18770993 -0.09865435 -0.060300045 -0.009565242 -0.0008696822 0.10744678 0.011351131
-0.012341224 -0.23298012 -0.18208493 0.17173111 0.03747268 -0.100273155 0.016799862 0.019545065
-0.00020097266 0.06290856 -0.10973437 -0.14169887 -0.09086058 0.057945244 -0.17548604 -0.12210099
0.14597957 0.034413103 -0.042269066 0.011855577 0.09163742 0.1830482 0.18170342 0.070947416
00000000: 5ce5 6ebd 4b47 b9bc ab6c e2bd f7e2 683d
00000010: d047 cabb 6acd 183d 1ecd 8cbb b601 733e
00000020: 6df0 35bc 1a21 b33b 276a e2bc c0b5 14bd
00000030: c570 843d ccaa 01be 2204 b03d 97a9 d83d
00000040: d1a6 3bbd f286 763d 9507 d3bd a19f a83d
00000050: af5a 793d 3cf4 a5bc ca2c 473c ec4f 3b3e
00000060: f137 313e 71f7 19bb 25bd 563d efb8 173d
00000070: 62b3 41bd 08a4 b13b a776 35bd 1ad8 503a
00000080: 0451 023e 5584 233e 1fec 653e 849f 26be
00000090: 75c9 ce3d 48db 943d 160d 6cbe 0166 5c3d
000000a0: 5623 80be b7cb dbbb 8719 86bd 1574 87be
000000b0: e66f 2abe 6ccc eebc 53ee 0f3b 691a 203d
000000c0: 2137 423d 47f7 eb3c 2dbe 4cbd ecd0 e63c
000000d0: 2c10 a53b 600e a3bc b4b7 4e3d c0c8 82ba
000000e0: a9ec ce3d af4c f03d 40e8 b23a 40f6 89be
000000f0: 534b 743d be95 c93c 2e3e d4bd 1b8e 3fbd
00000100: d521 adbc 922e 42be ad52 2dbe 35be cbbc
00000110: c0d5 0e3e 0bd8 e73c 512f f03d b1f4 ecbd
00000120: bc5c 793d 4a33 1fbd 5dc6 afbd d723 3d3d
00000130: 8e01 11be 8d66 813d 4d92 0a3d a465 9f3d
00000140: 0cd5 063d d7c7 323e d0ea 853d a7ae 983d
00000150: b31b abbd cf41 87bd 70c5 653e 8742 4fbc
00000160: 72ba 84bd c9a0 1bbe 0f08 c9bd d3d4 47be
00000170: c917 923c 1cf9 d5bb aefd 8abc 7032 663d
00000180: fc6a a0ba c817 003e 8cb1 b83d e831 bf3d
00000190: 33a3 cf3c ea62 97bc 10cb fd3c 898f bb3d
000001a0: 1b47 15bd d450 9b3d 7f30 4d3d 493d 083d
000001b0: 9eb9 f23d c11e cf3d 3297 9a3d 5b4b b8bd
000001c0: b879 50bc 9431 ae3d 959e 743d aeb2 92bc
000001d0: a0a1 fe3c 3c1d 1bbe 8a61 71be 5131 a2be
000001e0: b160 d93c 00a7 c6bc 95e9 a1bd fc83 13be
000001f0: 1feb 3ebe dd7e 2dbe 2f2c 56be 8f51 1ebe
00000200: 7bc8 6bbe be53 30be 27b0 55be 29f5 be3d
00000210: a495 8abd 4329 e7bd 333b c2bd 35cc c6bd
00000220: 9c21 17be 4187 0cbd cf86 10be 5c91 4cb8
00000230: 3165 c2bd 515c d1bd 5fa5 ac3d b277 21bd
00000240: a630 78be 4ba5 00be c4ce cd3d 700c 2f3d
00000250: f9f4 a3bb 8896 cabc a663 43bd 18f7 55bd
00000260: 48b9 c43c 66c3 843b 0f18 c43d 184f d4bc
00000270: 53d0 15bd 7a3d 913a db23 81bd a1c2 e2bc
00000280: 408c 793d dbb3 65bd eebe 873d bbcb b5bd
00000290: 5c43 d9bd b9e1 a9bd 32fc 91bd ec40 4abd
000002a0: 2279 903c c560 b33b 2b5a 18bc 7f92 423d
000002b0: 4e20 babd 4db0 b83c b29f 9dbc df06 03bd
000002c0: 3beb 573d 0283 db3d 1884 883e f3a1 873d
000002d0: 2aa0 ee3a 31a8 95bb bc96 6f3d 23fb 4fbe
000002e0: e633 26be b172 47bd 6e32 343d 7ed4 82be
000002f0: 6e61 2ebb fef9 a9bc c480 65bc 50f4 0ebb
00000300: 9fa5 063d 4e19 093c 5c64 ebbd 8bc6 cbbb
00000310: 8baf 5c3e d393 42be 172d e23d 4f39 0d3e
00000320: a10e 0b3e fcc1 fa3b 64c4 03be ef8c 8e3d
00000330: 3f2e 4e3d 9e84 9c3e 11ed e5bd c0f0 c03d
00000340: 3d45 823e af32 8a3e 5ed1 00be 171d 87bd
00000350: 0645 72bc 9f37 36be f938 a4bd 46cd e6bc
00000360: 639c 67bd e913 15bd fcc0 70bd fc7a 7d3b
00000370: f671 cc3d a529 81bd 4de5 763d 6743 d83d
00000380: d856 dc3d 0837 403e 4b0b cabd 2efd 76bd
00000390: 88b7 1cbc 62fb 63ba 0f0d dc3d 18fa 393c
000003a0: d832 4abc 5792 6ebe 7974 3abe 48da 2f3e
000003b0: f47c 193d 035c cdbd dd9f 893c f91c a03c
000003c0: 30bc 52b9 34d6 803d 6abc e0bd 8219 11be
000003d0: 1d15 babd fe57 6d3d 9db2 33be 1510 fabd
000003e0: ab7b 153e c1f4 0c3d 5422 2dbd e53d 423c
000003f0: 66ac bb3d fd70 3b3e 7610 3a3e e14c 913d

FC1.bias f4 [128]
-0.06999095 0.03379627 -0.098015316 0.007566576 -0.011250091 -0.028233442 -0.038664024 -0.020246645
0.028314924 -0.008590321 -0.05489934 -0.02919735 0.004491783 -0.056818333 -0.015513626 -0.037044827
-0.070466526 0.0012549803 -0.037059616 0.034905184 0.014368811 -0.015575325 0.0020615729 0.049380448
-0.05223489 -0.09819952 -0.025913607 0.04629338 0.020026425 0.041934337 0.06308978 0.04330507
-0.025899583 -0.058275215 -0.03371994 0.05104422 -0.04130687 -0.038922176 -0.04956504 -0.025104366
-0.05789314 -0.07734574 0.053628653 0.01980603 -0.01810983 -0.04353242 0.03492865 0.0635903
0.04459853 -0.0068954024 0.002180813 0.01974053 0.029743971 0.022152334 -0.07660919 0.0056258286
-0.06695799 -0.038979515 -0.027908724 -0.08949566 0.04014497 0.026540909 0.037193578 -0.0015700434
0.021297147 -0.037201736 -0.052728552 0.039922323 -0.023631949 0.029424945 -0.01439209 -0.02587598
-0.016159104 -0.019353302 0.06814175 -0.068741 -0.046836555 -0.09749971 -0.019610189 -0.061155926
0.034691285 -0.016766693 0.03567904 -0.0488754 -0.10479061 0.02383717 -0.05144641 -0.058218002
0.0342194 -0.07144251 -0.07941365 0.04478517 0.027489066 -0.067844205 -0.040299375 -0.04049083
-0.0054791304 0.07233598 0.00752087 0.048226442 0.013151395 0.003667193 0.018150633 0.06720093
-0.06907811 -0.0058892714 0.0038419892 0.034387648 0.05800903 -0.06004652 -0.045053396 0.056918684
-0.018595932 -0.031792935 0.025870193 -0.0033825857 -0.006922734 0.058259908 -0.039087456 -0.033292193
0.058922976 0.05953627 0.049566768 0.042687383 0.02942186 0.0076800087 0.06577111 -0.017811248
00000000: 6a57 8fbd f56d 0a3d 41bc c8bd 0af1 f73b
00000010: 4d52 38bc d249 e7bc 2b5e 1ebd 4bdc a5bc
00000020: b3f4 e73c 6bbe 0cbc 21de 60bd 482f efbc
00000030: cf2f 933b 57ba 68bd dd2c 7ebc 51bc 17bd
00000040: c150 90bd 277e a43a d3cb 17bd bdf8 0e3d
00000050: 296b 6b3c a62f 7fbc 741b 073b 2743 4a3d
00000060: 41f4 55bd d41c c9bd c648 d4bc 219e 3d3d
00000070: 750e a43c 57c3 2b3d 3735 813d a860 313d
00000080: 5d2b d4bc feb1 6ebd eb1d 0abd be13 513d
00000090: 6431 29bd dc6c 1fbd b604 4bbd aca7 cdbc
000000a0: 5b21 6dbd 7167 9ebd b8a9 5b3d 4140 a23c
000000b0: 115b 94bc 0d4f 32bd 5811 0f3d a23b 823d
000000c0: f3ac 363d d4f2 e1bb f9eb 0e3b e4b6 a13c
000000d0: a1a9 f33c d078 b53c 47e5 9cbd df58 b83b
000000e0: 4521 89bd fca8 1fbd d6a0 e4bc 8049 b7bd
000000f0: 0d6f 243d 526c d93c 4b58 183d eac9 cdba
00000100: 5b77 ae3c d960 18bd e5f9 57bd 9785 233d
00000110: ca97 c1bc 950c f13c cdcc 6bbc ddf9 d3bc
00000120: 1960 84bc d18a 9ebc e78d 8b3d 15c8 8cbd
00000130: b0d7 3fbd eead c7bd 8ca5 a0bc a37e 7abd
00000140: 7318 0e3d 4e5a 89bc 2f24 123d 9231 48bd
00000150: 769c d6bd 2b46 c33c 79b9 52bd 0076 6ebd
00000160: a429 0c3d 7350 92bd a0a3 a2bd a870 373d
00000170: c030 e13c e7f1 8abd f510 25bd b6d9 25bd
00000180: 478a b3bb e324 943d a171 f63b 1789 453d
00000190: f378 573c 4a55 703b a3b0 943c a4a0 893d
000001a0: d378 8dbd cafa c0bb e2c9 7b3b 10da 0c3d
000001b0: e09a 6d3d 57f3 75bd e989 38bd 9123 693d
000001c0: 7f56 98bc 4f39 02bd baed d33c 5fae 5dbb
000001d0: 1ad8 e2bb f1a1 6e3d 2b1a 20bd 655d 08bd
000001e0: 3859 713d 4edc 733d 8606 4b3d f7d8 2e3d
000001f0: 1d06 f13c 95a8 fb3b 01b3 863d e5e8 91bc

FC2.weight f4 [64, 128]
-0.21125634 0.118518054 -0.069064334 0.059714954 0.011562589 -0.0020691392 0.02612833 -0.10256318
-0.08746694 0.25500026 0.049073044 0.1311733 -0.19722864 0.027025279 -0.021881448 0.09896242
0.018972235 -0.115386896 0.068411745 -0.06756904 -0.036177542 0.034798387 -0.080135375 0.013602861
0.0606268 -0.043489557 -0.0489775 -0.20659192 -0.039796 0.23608564 -0.06196469 0.17713459
-0.13839915 -0.083126836 -0.16593453 -0.033162694 -0.09210007 0.031928953 0.040150363 0.0974569
0.0013850816 -0.14812961 0.0073114163 0.11686963 0.026843531 -0.09876627 -0.0493434 0.07602256
-0.03452353 0.018620495 0.07046772 0.0393037 -0.3681372 0.08471111 0.1259161 -0.015542726
-0.024100494 0.13463001 0.12531711 -0.0025002698 0.023407545 0.008730022 -0.11752143 0.062265005
-0.07182386 -0.045804754 0.011143475 0.08705578 0.012171206 0.048503533 0.040574476 -0.18386112
0.051922366 0.08220109 -0.10856866 0.026976908 -0.089537784 -0.047678266 0.14196257 -0.088432245
-0.03136377 -0.09861077 0.0035202736 -0.23085248 -0.104687236 -0.014347893 -0.02862929 0.0044101533
0.035187475 -0.027786728 -0.044327077 0.029275935 -0.12026611 0.056800276 -0.076298654 0.056323595
-0.033721227 -0.10540325 0.052832674 0.05688758 -0.16698165 0.0904113 0.057711728 0.11640578
-0.07418887 0.11451935 0.14102446 0.03513585 0.04135075 0.055487912 -0.011914589 -0.11491054
-0.21190926 0.0030529203 0.057371467 0.01797996 -0.079127446 0.016915577 -0.08094659 -0.0067827287
0.0081409095 0.05646877 0.08429679 0.08481948 0.013810003 0.18346444 -0.074614376 0.090349816
-0.4116654 -0.06347928 -0.026024131 0.0205186 -0.121884204 0.04703748 0.12987953 0.078324474
0.05304948 -0.048112422 0.12835166 0.076792635 -0.18871734 0.02996582 -0.022783646 0.0031815288
-0.37339675 -0.23572545 -0.074704304 0.0064878715 -0.085068114 -0.2504214 -0.19314213 0.073506124
-0.039922386 -0.08840297 -0.041540705 0.019321403 -0.068674594 -0.39859864 -0.041517712 0.049689934
-0.01976879 -0.06799979 -0.104374036 0.060871575 -0.1278727 -0.053884443 0.028530791 0.019691758
-0.028643643 -0.0026008745 -0.12117222 0.0414481 0.03484747 -0.022928521 0.01790974 -0.00625244
0.122884795 -0.15258351 0.013968418 -0.12947074 -0.15128487 -0.035767835 0.01475682 -0.059518404
-0.012687991 -0.14036863 -0.10466739 0.055720214 0.06778763 -0.01994052 -0.08013296 -0.26016217
-0.18487799 0.042037684 0.0033858637 0.019985465 -0.14534806 0.19541843 0.02110322 -0.29130605
0.08429367 -0.0064721676 -0.08792809 -0.25506157 -0.11315714 -0.16796204 -0.099409685 -0.08844954
0.027236018 0.05261902 -0.07896297 -0.03705115 -0.37902272 0.09459807 0.09535197 -0.0337506
-0.2649094 -0.13643892 0.07516192 -0.09612018 -0.20064025 -0.18387416 0.14457978 -0.017803464
-0.111293584 -0.04277123 0.060679637 -0.03604046 -0.073752195 -0.21259527 -0.020098245 -0.032947432
-0.22497366 -0.0921407 -0.18598588 -0.30526376 0.08134795 -0.3185249 0.022603756 0.06403459
-0.009183815 -0.3163633 -0.11917524 -0.11137539 -0.18937756 -0.11119409 -0.0030959987 0.124144636
-0.020758172 -0.038915608 0.0802749 0.04809505 0.016511586 0.014915311 -0.0148454355 -0.13047671
00000000: 9553 58be 98b9 f23d 9a71 8dbd ab97 743d
00000010: 0371 3d3c 659a 07bb 140b d63c a50c d2bd
00000020: de21 b3bd 658f 823e d100 493d 4b52 063e
00000030: 4ef6 49be 1e64 dd3c b940 b3bc cfac ca3d
00000040: a96b 9b3c f74f ecbd 751b 8c3d a361 8abd
00000050: e72e 14bd c188 0e3d 041e a4bd 89de 5e3c
00000060: cf53 783d 1b22 32bd a29c 48bd d58c 53be
00000070: 2101 23bd 6fc0 713e b0ce 7dbd c562 353e
00000080: 82b8 0dbe 673e aabd beea 29be 9bd5 07bd
00000090: f69e bcbd efc7 023d b574 243d 7c97 c73d
000000a0: a08b b53a 4aaf 17be 9b94 ef3b 5859 ef3d
000000b0: f7e6 db3c f845 cabd 4e1c 4abd b7b1 9b3d
000000c0: 8c68 0dbd 028a 983c 6151 903d ebfc 203d
000000d0: 7b7c bcbe 057d ad3d 26f0 003e eba6 7ebc
000000e0: 666e c5bc 73dc 093e 2153 003e 91db 23bb
000000f0: 2ec1 bf3c 5e08 0f3c 13af f0bd 9709 7f3d
00000100: 6318 93bd c49d 3bbd 1f93 363c 4d4a b23d
00000110: bd69 473c a4ab 463d 6c31 263d 1746 3cbe
00000120: 8cac 543d 0c59 a83d 3f59 debd adfe dc3c
00000130: 965f b7bd 494a 43bd a35e 113e f71b b5bd
00000140: 4c77 00bd 72f4 c9bd 64b4 663b 9864 6cbe
00000150: 4366 d6bd 6d13 6bbc f987 eabc 0c83 903b
00000160: be20 103d fea0 e3bc 4f90 35bd 16d4 ef3c
00000170: 144e f6bd 68a7 683d 7842 9cbd 92b3 663d
00000180: 451f 0abd a9dd d7bd 1367 583d f302 693d
00000190: 3dfd 2abe 8f29 b93d 2263 6c3d 2766 ee3d
000001a0: 56f0 97bd 1f89 ea3d b768 103e 9cea 0f3d
000001b0: 675f 293d 4b47 633d 6935 43bc 3856 ebbd
000001c0: befe 58be 8113 483b 58fe 6a3d b64a 933c
000001d0: 920d a2bd 8992 8a3c 53c7 a5bd a741 debb
000001e0: 7361 053c cc4b 673d cca3 ac3d d6b5 ad3d
000001f0: 5a43 623c 1ade 3b3e 6ccf 98bd 5309 b93d
00000200: cfc5 d2be 6d01 82bd 8f30 d5bc 9f16 a83c
00000210: 6d9e f9bd 5faa 403d 24ff 043e 9568 a03d
00000220: 694a 593d 8811 45bd 9e6e 033e 7545 9d3d
00000230: 1e3f 41be e17a f53c c5a4 babc 3281 503b
00000240: dc2d bfbe 0362 71be 92fe 98bd 3698 d43b
00000250: 3138 aebd 3c37 80be 0dc7 45be 618a 963d
00000260: a885 23bd 9e0c b5bd 9626 2abd eb47 9e3c
00000270: 44a5 8cbd 1f15 ccbe 7a0e 2abd ac87 4b3d
00000280: 28f2 a1bc 7943 8bbd 0ec2 d5bd 7954 793d
00000290: 10f1 02be efb5 5cbd 68b9 e93c 9c50 a13c
000002a0: 13a6 eabc 6f73 2abb 2429 f8bd 7cc5 293d
000002b0: 38bc 0e3d 98d4 bbbc 72b7 923c 45e1 ccbb
000002c0: 06ab fb3d da3e 1cbe cbdb 643c fa93 04be
000002d0: 6cea 1abe 4b81 12bd 97c6 713c 92c9 73bd
000002e0: 4be1 4fbc cbbc 0fbe db5b d6bd e13a 643d
000002f0: 3ed4 8a3d 4d5a a3bc c01c a4bd fa33 85be
00000300: a850 3dbe b52f 2c3d 5ee5 5d3b 8fb8 a33c
00000310: 1fd6 14be c51b 483e a9e0 ac3c 1126 95be
00000320: 29a2 ac3d 7a14 d4bb a413 b4bd 6e97 82be
00000330: eebe e7bd 3efe 2bbe 4e97 cbbd 0825 b5bd
00000340: 121e df3c 0b87 573d 56b7 a1bd f2c2 17bd
00000350: 440f c2be a2bc c13d e547 c33d 123e 0abd
00000360: 34a2 87be a5b6 0bbe 7eee 993d a8da c4bd
00000370: a374 4dbe 8249 3cbe b90c 143e 92d8 91bc
00000380: e4ed e3bd e330 2fbd 368b 783d 299f 13bd
00000390: 640b 97bd 93b2 59be 13a5 a4bc e3f3 06bd
000003a0: 7f5f 66be 43b4 bcbd 1573 3ebe 884b 9cbe
000003b0: c199 a63d b215 a3be 832b b93c 9124 833d
000003c0: b677 16bc 5ffa a1be 2612 f4bd c818 e4bd
000003d0: 31ec 41be bab9 e3bd 3de6 4abb 8b3f fe3d
000003e0: 0b0d aabc f965 1fbd 2b67 a43d 51ff 443d
000003f0: 4e43 873c 595f 743c 453a 73bc b09b 05be

FC2.bias f4 [64]
-0.022015367 0.010231052 -0.11415176 0.009413862 -0.05231273 0.014483555 0.05248788 0.025128797
-0.06747276 -0.009646556 0.041815832 -0.11806419 0.09657116 0.0053230454 0.00575398 -0.10813407
-0.0786142 -0.08762979 -0.09284063 -0.076505296 -0.011488145 0.06683916 -0.04990398 -0.014864452
-0.061823297 -0.016619809 0.03938579 -0.1142586 -0.045646857 -0.00771281 -0.04707759 -0.040253375
-0.06797342 -0.040622637 0.026068876 0.08111349 -0.046506457 -0.18111058 -0.02112828 -0.013632939
0.087108985 -0.13162549 -0.0066244346 -0.05362028 0.049230814 -0.093369275 0.035976656 -0.058673613
-0.10947698 -0.08025638 -0.0026048573 -0.12145108 -0.07079568 -0.06013027 -0.03845112 -0.07281455
-0.07517675 -0.020532394 -0.08106754 -0.095441505 -0.08382756 -0.054072276 0.12573206 0.029117376
00000000: 9259 b4bc 24a0 273c 66c8 e9bd 993c 1a3c
00000010: e045 56bd 6f4c 6d3c 88fd 563d e8da cd3c
00000020: 292f 8abd 970c 1ebc 1447 2b3d a3cb f1bd
00000030: 1ac7 c53d f16c ae3b e28b bc3b 6575 ddbd
00000040: 7b00 a1bd 3f77 b3bd 3a23 bebd cfae 9cbd
00000050: c638 3cbc f8e2 883d 1e68 4cbd 088a 73bc
00000060: 6d3a 7dbd 4426 88bc fe52 213d 6a00 eabd
00000070: 33f8 3abd bdbb fcbb 6ed4 40bd b9e0 24bd
00000080: a635 8bbd ec63 26bd 658e d53c d41e a63d
00000090: 8e7d 3ebd 0d75 39be 3715 adbc b15c 5fbc
000000a0: 3266 b23d d5c8 06be c911 d9bb f0a0 5bbd
000000b0: 40a6 493d 6438 bfbd 425c 133d be53 70bd
000000c0: 7835 e0bd 755d a4bd 41b6 2abb 58bb f8bd
000000d0: 53fd 90bd 284b 76bd ec7e 1dbd cb1f 95bd
000000e0: 45f6 99bd 8d33 a8bc bd06 a6bd d676 c3bd
000000f0: c9ad abbd e47a 5dbd e8bf 003e 9087 ee3c

FC3.weight f4 [2, 64]
-0.025920304 -0.17167138 -0.11171279 -0.106512524 -0.30642322 -0.07660678 0.087614015 -0.013087864
0.18024872 -0.11446658 0.096024066 -0.3437927 -0.106997356 -0.041802015 -0.15525335 -0.2645325
0.14159562 -0.09718893 0.037016284 -0.10844351 0.1425447 -0.14515765 -0.28695032 0.06664257
-0.1715051 -0.021337591 0.055419832 -0.3369106 -0.082270265 0.06578071 0.21702883 0.060042243
-0.19475806 0.17225629 -0.14472713 -0.1112684 0.16757339 -0.040492993 0.14520425 0.1144503
0.045725282 0.216344 -0.12528338 -0.17275026 -0.07009768 0.18659276 0.14175692 0.05219963
0.27185705 0.20901348 -0.12737858 0.10874787 -0.25695604 -0.10528184 0.0041087912 0.13400996
-0.032241777 0.20743102 0.08195726 -0.11157331 0.16745813 0.15972443 -0.029554596 -0.118392974
-0.07942238 -0.064090304 -0.09924468 -0.03281852 0.02266265 0.14898132 -0.033559605 0.09941903
0.061843775 0.07196455 -0.028572645 0.2223271 -0.057064876 0.0891429 -0.12608954 -0.07818646
-0.107803784 0.03196489 0.16876741 -0.13270253 0.076543495 0.19766922 -0.21700685 0.16020621
0.16794167 0.21539202 0.10064332 0.07935628 0.15847044 -0.10930966 0.10497982 -0.066991225
0.10005546 0.057373907 -0.045283854 -0.0261792 0.19450477 -0.17301463 0.116330184 0.14997989
-0.07421714 0.07040799 -0.06549398 -0.19152158 0.14811602 0.06907925 0.13949841 -0.09115791
0.013524685 0.07901678 -0.11907766 0.0852418 0.201351 -0.101301275 -0.11868188 -0.11023108
-0.22263056 -0.009803799 -0.052094493 0.21281701 -0.059153754 -0.057824053 0.20569654 -0.0037097358
00000000: d156 d4bc 9fca 2fbe adc9 e4bd 3d23 dabd
00000010: 81e3 9cbe 04e4 9cbd fa6e b33d 7b6e 56bc
00000020: 1f93 383e 746d eabd 44a8 c43d 9905 b0be
00000030: 6e21 dbbd 9738 2bbd bcfa 1ebe ce70 87be
00000040: 71fe 103e fd0a c7bd 639e 173d a217 debd
00000050: 3df7 113e 35a4 14be 27eb 92be e67b 883d
00000060: 089f 2fbe 2ccc aebc e8ff 623d 8c7f acbe
00000070: 507d a8bd 09b8 863d ce3c 5e3e dbee 753d
00000080: a86e 47be f463 303e 5933 14be b0e0 e3bd
00000090: 5c98 2b3e fbdb 25bd 6cb0 143e eb64 ea3d
000000a0: 6f4a 3b3d 4889 5d3e 494a 00be 72e5 30be
000000b0: 5f8f 8fbd 2c12 3f3e ba28 113e 47cf 553d
000000c0: d930 8b3e a107 563e 886f 02be 34b7 de3d
000000d0: be8f 83be 019e d7bd 0aa3 863b e839 093e
000000e0: f40f 04bd cc68 543e 35d9 a73d 8c80 e4bd
000000f0: 257a 2b3e cd8e 233e 7b1c f2bc 0478 f2bd
00000100: 33a8 a2bd c741 83bd cb40 cbbd b66c 06bd
00000110: 06a7 b93c 8f8e 183e cc75 09bd 349c cb3d
00000120: e64f 7d3d 2662 933d 2e11 eabc b7a9 633e
00000130: dcbc 69bd 8e90 b63d 9e1d 01be 3920 a0bd
00000140: 3bc8 dcbd 9eed 023d 5dd1 2c3e 2ce3 07be
00000150: d6c2 9c3d cd69 4a3e 0b37 5ebe 190d 243e
00000160: e7f8 2b3e ba8f 5c3e 161e ce3d 8c85 a23d
00000170: 1346 223e bedd dfbd a9ff d63d b232 89bd
00000180: e1e9 cc3d e700 6b3d 907b 39bd c375 d6bc
00000190: 422c 473e bf2a 31be 853e ee3d 5494 193e
000001a0: 28ff 97bd 1032 903d b521 86bd 3c1e 44be
000001b0: baab 173e 6c79 8d3d acd8 0e3e 00b1 babd
000001c0: a496 5d3c 8dd3 a13d fdde f3bd 4193 ae3d
000001d0: f52e 4e3e 0b77 cfbd 7c0f f3bd d5c0 e1bd
000001e0: 44f9 63be 1da0 20bc 0961 55bd b4ec 593e
000001f0: 354b 72bd ead8 6cbd 1da2 523e 0a1f 73bb

FC3.bias f4 [2]
-0.00023964369 0.026636152
00000000: dd48 7bb9 0f34 da3c

FC1.weight f4 [64, 40]
0.08097423 -0.051137485 0.047488615 -0.10550754 -0.10237234 -0.027264401 -0.10806015 -0.034394395
0.086095564 0.014834095 0.086418726 0.17490295 0.1107608 0.0962227 0.09755212 0.056601875
-0.13230233 -0.0073742513 -0.12377635 -0.038279947 -0.002420613 0.063699365 -0.101981655 0.08751716
0.011186142 -0.09062804 -0.014630659 -0.18109152 -0.1249824 0.07313844 -0.012210593 0.015019504
0.028473416 -0.01281287 0.09666946 0.3479315 0.26676536 0.14286327 -0.031262055 0.12311916
-0.07383386 -0.056750145 -0.030685807 -0.13617867 -0.078565344 -0.06462766 0.14921233 0.021033114
0.06499817 0.042211365 0.215512 0.26819906 0.09316978 -0.007683423 -0.08118193 0.044648226
-0.03870761 0.037939403 -0.12070054 -0.1739735 -0.063483365 0.008875128 -0.06735764 0.10277831
0.0745021 0.078527 -0.1387773 0.010839906 0.011287474 -0.1081234 -0.025947474 0.043813366
0.03364483 0.05914687 -0.09228642 0.09283516 -0.0078032906 -0.06273252 -0.009689256 0.035508636
-0.09687548 0.11755491 0.14827695 0.07771814 0.09887785 -0.09013262 -0.027485743 0.123880036
0.06938516 -0.10279748 -0.044078648 -0.0472716 -0.11661664 0.051064555 -0.011672771 0.06996986
0.09955091 0.16570282 0.040344074 -0.041972414 0.045197386 -0.1595773 0.12370526 -0.063718
-0.13103811 -0.0641751 -0.46816224 0.05037369 -0.10702526 0.023586614 -0.06074412 0.09823566
-0.095698744 -0.2482516 0.04495254 -0.3193726 -0.094307594 -0.0045630666 -0.052618124 0.13492595
0.061490145 -0.027249731 -0.14753914 -0.0573384 -0.00011227541 -0.055935938 -0.11325344 -0.0844205
0.03501077 0.014795719 -0.024853228 0.14920354 -0.15573251 -0.36845034 -0.20577495 0.034273755
0.009327814 0.1337586 -0.15126447 -0.1684974 0.008285342 -0.154083 -0.20455727 -0.0746423
0.05584463 -0.079561464 0.04400231 -0.24784388 -0.26602674 -0.06947432 0.011226417 0.07661952
0.005186312 0.042020295 -0.027788166 0.093373835 -0.29494345 -0.063737944 -0.11871322 0.09072149
0.059735116 -0.14115754 0.013771255 -0.018529058 0.03025549 -0.006432732 0.0553461 -0.11869333
-0.12374045 0.02273578 -0.21735358 -0.08065133 -0.04298949 0.13001734 0.066071324 0.0025726825
-0.15457188 -0.056874674 -0.05701195 0.0070681944 0.03744058 0.122128986 0.026135089 0.01950558
-0.0009580663 0.11172137 -0.07769539 0.059091363 0.13086729 -0.049649395 0.10392429 -0.13318607
-0.17571792 -0.4656855 -0.071428016 0.10860611 -0.10316371 -0.103502035 -0.17095998 -0.067259945
0.20130433 0.10721255 0.14418079 -0.09073031 -0.09525834 -0.11801227 0.11132778 -0.015335658
0.12535042 -0.054557208 0.07138797 -0.014854371 -0.08707309 -0.10456497 0.09227431 0.02190999
0.13477997 0.113545075 -0.06640402 -0.12262125 -0.052428085 -0.042776473 0.23238155 0.12293536
-0.060054723 -0.074529104 -0.11644911 -0.20971487 0.08464682 0.08726004 0.08184572 -0.0074503967
-0.01400011 -0.06368344 0.067481235 0.21002737 0.112002335 -0.17613634 0.017934524 -0.067417115
0.008838916 -0.11444559 0.31923822 -0.7348996 -0.5263609 0.051081635 -0.046349317 0.16791506
0.058046654 0.06514716 -0.008118313 0.085264355 0.0919072 0.011999535 -0.010243676 -0.18906502
00000000: d1d5 a53d 8a75 51bd 6c83 423d 5614 d8bd
00000010: 97a8 d1bd 9859 dfbc a44e ddbd 23e1 0cbd
00000020: df52 b03d b40a 733c 4dfc b03d c219 333e
00000030: 8fd6 e23d 6810 c53d 68c9 c73d 5ed7 673d
00000040: 437a 07be b4a3 f1bb 747e fdbd 6fcb 1cbd
00000050: 26a3 1ebb d074 823d c2db d0bd 323c b33d
00000060: 1546 373c 329b b9bd 6eb5 6fbc 0e70 39be
00000070: c6f6 ffbd 9bc9 953d f00e 48bc 5e14 763c
00000080: 1541 e93c 12ed 51bc a3fa c53d 1424 b23e
00000090: 7895 883e c04a 123e a40c 00bd e625 fc3d
000000a0: 3536 97bd d772 68bd cd60 fbbc 6c72 0bbe
000000b0: dee6 a0bd 825b 84bd 1ecb 183e a34d ac3c
000000c0: c31d 853d d3e5 2c3d 2daf 5c3e 6351 893e
000000d0: cccf be3d 39c5 fbbb b642 a6bd 0fe1 363d
000000e0: df8b 1ebd 5966 1b3d d831 f7bd 1c26 32be
000000f0: 9103 82bd fc68 113c cdf2 89bd 6f7d d23d
00000100: 8f94 983d c4d2 a03d a31b 0ebe dc99 313c
00000110: 19ef 383c cd6f ddbd cc8f d4bc a575 333d
00000120: 29cf 093d fd43 723d aa00 bdbd 5c20 be3d
00000130: bfb2 ffbb e879 80bd afbf 1ebc 8171 113d
00000140: a766 c6bd a1c0 f03d ead5 173e b02a 9f3d
00000150: 7880 ca3d 7397 b8bd c829 e1bc d1b4 fd3d
00000160: cf19 8e3d 7c87 d2bd d08b 34bd de9f 41bd
00000170: b4d4 eebd 1129 513d 263f 3fbc 5c4c 8f3d
00000180: 59e1 cb3d 00ae 293e d43f 253d 44eb 2bbd
00000190: e520 393d 3b68 23be 2f59 fd3d 957e 82bd
000001a0: db2e 06be 3c6e 83bd f6b2 efbe a454 4e3d
000001b0: 0f30 dbbd b738 c13c d4ce 78bd c72f c93d
000001c0: b4fd c3bd ab35 7ebe 2820 383d ce84 a3be
000001d0: 5724 c1bd c785 95bb 1a86 57bd 072a 0a3e
000001e0: 17dd 7b3d d43a dfbc 8014 17be acdb 6abd
000001f0: 6775 ebb8 151d 65bd 6bf1 e7bd a8e4 acbd
00000200: 7467 0f3d be69 723c ff98 cbbc d0c8 183e
00000210: 5878 1fbe 86a5 bcbe abb6 52be a362 0c3d
00000220: b0d3 183c 04f8 083e 13e5 1abe 958a 2cbe
00000230: 3ebf 073c efc7 1dbe 7677 51be 10de 98bd
00000240: 57bd 643d 1ff1 a2bd c43b 343d c9ca 7dbe
00000250: a834 88be 8d48 8ebd 01ef 373c b2ea 9c3d
00000260: f0f1 a93b 791d 2c3d 02a4 e3bc c83a bf3d
00000270: d402 97be 0a89 82bd eb1f f3bd 30cc b93d
00000280: cfac 743d 9a8b 10be d4a0 613c 40ca 97bc
00000290: 5dda f73c abc9 d2bb 98b2 623d 7d15 f3bd
000002a0: a26b fdbd 6340 ba3c f091 5ebe 862c a5bd
000002b0: bf15 30bd 4423 053e 6750 873d 739a 283b
000002c0: 1748 1ebe 6bf5 68bd 5d85 69bd 509c e73b
000002d0: 4b5b 193d c31e fa3d 4119 d63c 2bca 9f3c
000002e0: be26 7bba 2cce e43d c31e 9fbd c909 723d
000002f0: 1302 063e 2a5d 4bbd 42d6 d43d ee61 08be
00000300: 66ef 33be 546e eebe da48 92bd e16c de3d
00000310: 7f47 d3bd e0f8 d3bd 2210 2fbe 95bf 89bd
00000320: b922 4e3e 4192 db3d 21a4 133e d0d0 b9bd
00000330: ce16 c3bd 6bb0 f1bd d2ff e33d 6942 7bbc
00000340: dc5b 003e 6177 5fbd db33 923d bf5f 73bc
00000350: 6053 b2bd 2926 d6bd 50fa bc3d 947c b33c
00000360: c303 0a3e 528a e83d d5fe 87bd da20 fbbd
00000370: d5be 56bd 6236 2fbd 6ef5 6d3e 89c5 fb3d
00000380: f1fb 75bd b7a2 98bd df7c eebd 7fbf 56be
00000390: 505b ad3d 64b5 b23d bb9e a73d 7522 f4bb
000003a0: b860 65bc 776c 82bd 9a33 8a3d 6a11 573e
000003b0: 7b61 e53d 165d 34be 6ceb 923c fc11 8abd
000003c0: 1ad1 103c 7362 eabd 3173 a33e 6122 3cbf
000003d0: 97bf 06bf fa3a 513d c8d8 3dbd edf1 2b3e
000003e0: 54c2 6d3d e06b 853d ac02 05bc 149f ae3d
000003f0: d839 bc3d b399 443c 17d5 27bc 439a 41be

FC1.bias f4 [64]
-0.10966234 0.10457065 -0.045212112 0.06408334 0.09518303 -0.12804824 -0.010782462 -0.016930234
0.08319626 -0.031320464 -0.14428721 -0.06085907 0.12217127 0.15606903 0.20408453 -0.16703475
0.026078794 -0.04992982 0.00821555 -0.012894952 0.098644145 0.021948017 -0.010820543 -0.07119213
-0.010692564 -0.06769329 0.14403175 -0.15220265 -0.18777274 -0.05864855 -0.10844812 -0.12001942
0.00865228 -0.08139135 -0.13942154 0.040900204 -0.14424616 0.15491438 0.0174562 -0.03785457
-0.07745649 -0.17486319 -0.0807068 0.14605176 -0.12789601 -0.11513403 0.103570305 0.07732393
-0.08242923 -0.1462156 -0.011436343 0.15208454 0.049707726 0.038780775 -0.108833656 -0.00075571326
-0.021240307 0.06879684 0.16893525 0.1427575 0.10721736 0.07696332 0.012973835 -0.095036045
00000000: a696 e0bd 2329 d63d 5630 39bd 203e 833d
00000010: 52ef c23d 141f 03be eca8 30bc 46b1 8abc
00000020: cd62 aa3d e349 00bd 07c0 13be 5c47 79bd
00000030: ee34 fa3d 8fd0 1f3e 89fb 503e 280b 2bbe
00000040: 32a3 d53c 3683 4cbd 849a 063c 5945 53bc
00000050: f105 ca3d 54cc b33c a648 31bc 2ecd 91bd
00000060: dd2f 2fbc c8a2 8abd 0f7d 133e 03db 1bbe
00000070: 7f47 40be 7639 70bd 0c1a debd becc f5bd
00000080: 4bc2 0d3c 82b0 a6bd 85c4 0ebe f986 273d
00000090: 44b5 13be e0a1 1e3e 4e00 8f3c 650d 1bbd
000000a0: 82a1 9ebd 560f 33be 9b49 a5bd 988e 153e
000000b0: 2cf7 02be 64cb ebbd ab1c d43d 025c 9e3d
000000c0: a8d0 a8bd 8bb9 15be 805f 3bbc 0dbc 1b3e
000000d0: 549a 4b3d 97d8 1e3d 2ee4 debd 0f1b 46ba
000000e0: 2700 aebc 5ce5 8c3d 5dfd 2c3e 062f 123e
000000f0: c694 db3d f29e 9d3d 3590 543c 42a2 c2bd
