hcanet-3.27_maddpg_old/data/test_model/model_1600.pt (torch, 268587 bytes, 16 tensors)

FC1.weight f4 [128, 180]
0	0xbd81b2f3	-0.0633296
1	0x3d5771e0	0.052598834
2	0x3cfed24c	0.031106137
3	0x3ce50068	0.027954295
4	0x3b6ac6be	0.0035824026
5	0xbda097cd	-0.07841454
6	0xbd92765d	-0.07151482
7	0x3de033e5	0.10947398
8	0xbd1f17df	-0.038841125
9	0xbd5a5f45	-0.053313512
10	0x3e00c8e9	0.12576641
11	0xbda45d33	-0.08025589
12	0x3d27e820	0.040992856
13	0xbd2a6b78	-0.041606396
14	0x3c66b859	0.014082038
15	0xbcc85d4f	-0.024458556
16	0x3d6d201c	0.05789195
17	0xbe05919e	-0.1304383
18	0x3d8bb6ba	0.06821962
19	0x3d687be4	0.056758776
20	0x3d00416d	0.031312395
21	0xbd5da05a	-0.054108
22	0x3d567730	0.05235976
23	0x3d1cca26	0.03827872
24	0x3c206c83	0.009791496
25	0xbe0099b1	-0.12558629
26	0x3c2dba98	0.010603569
27	0xbe27ee56	-0.16399512
28	0xbe7cad46	-0.24675474
29	0xbe631d4a	-0.22179142
30	0x3def5b10	0.11687291
31	0x3c804bf1	0.015661212
32	0x3dbe4ee2	0.092923895
33	0x3d87d267	0.06631928
34	0x3dcee6dd	0.101026274
35	0xbd8b3879	-0.06797881
36	0xbe4ff61c	-0.20308727
37	0xbdc16a85	-0.09444145
38	0xbe33aaef	-0.17545675
39	0xbe2c32d5	-0.16816266
40	0x3d9160e2	0.07098557
41	0x3db4c63e	0.08826874
42	0x3d9d9dd5	0.0769612
43	0xbd129516	-0.03578671
44	0x3d521983	0.05129386
45	0x3e57768c	0.21041316
46	0xbdaa1757	-0.08305233
47	0xbdc6a0ed	-0.09698663
48	0x3d958d8b	0.07302388
49	0x3d50b5ff	0.050954815
50	0x3cd075e6	0.025446843
51	0xbd9018f4	-0.070360094
52	0x3c9f8237	0.019471271
53	0xbdbf5843	-0.093430065
54	0xbd609e85	-0.054838676
55	0xbc88c181	-0.016693832
56	0x3c985fcd	0.018600369
57	0xbd01c528	-0.031682163
58	0x3d8cd8e0	0.06877303
59	0x3d81182b	0.06303438
60	0xbded3ae3	-0.115834974
61	0xbdd01eda	-0.101621345
62	0x3bec425d	0.0072100596
63	0x3d71a9ee	0.05899995
64	0x3dcb5cd2	0.099298134
65	0xbdc44a15	-0.095844425
66	0xbd6d13d0	-0.057880223
67	0xbd8f01b0	-0.06982744
68	0xbdcacadc	-0.099019736
69	0xbdbb3aa9	-0.09142048
70	0x3ab3edb8	0.0013727462
71	0x3d88ac7b	0.06673523
72	0xbd8f95e0	-0.07011008
73	0x3cce948b	0.025217315
74	0x3c399dbd	0.011329112
75	0xbbb6463c	-0.005562572
76	0xbc6e92e0	-0.014561385
77	0xbc1b2a38	-0.009470515
78	0xbca7a41b	-0.020463994
79	0x3d95459c	0.072886676
80	0x3d5f2021	0.054474
81	0xbc82e15c	-0.0159766
82	0x3d2e1a3a	0.04250548
83	0x3ce7c40b	0.028291723
84	0x3d3a6e31	0.045515243
85	0x3d879e88	0.06622034
86	0xbb2d857d	-0.002647727
87	0xbd907586	-0.07053666
88	0xbc1940f0	-0.009353861
89	0x3d9f4c72	0.07778253
90	0x3cd58be7	0.026067687
91	0xbd9385fd	-0.072032906
92	0xbda77f98	-0.081786335
93	0xbd43af82	-0.0477748
94	0x3d90f709	0.07078368
95	0x3e011f30	0.12609553
96	0xbd915a5e	-0.07097314
97	0x3ca8ccaf	0.020605413
98	0x3d27f612	0.041006155
99	0xbd1b28a9	-0.037880573
100	0x3dc5537e	0.096350655
101	0x3cff211a	0.031143714
102	0xbd83f5df	-0.064433806
103	0x3cf91768	0.030406669
104	0x3ce860df	0.028366504
105	0xbd4fc312	-0.050723143
106	0xbd3326ce	-0.04373818
107	0x3d550191	0.052003447
108	0x3d342b41	0.043986563
109	0x3ce3fb6f	0.027829854
110	0x3d5a74a0	0.05333388
111	0x3ca506d8	0.020144865
112	0x3bf284f2	0.007401102
113	0xbd53e2c9	-0.05172995
114	0x3c90943e	0.017648812
115	0xbd797475	-0.060902078
116	0x3d82c54c	0.06385288
117	0xbd39414b	-0.045228284
118	0xbd5aca76	-0.053415738
119	0x3d93c4b4	0.072152525
120	0xbc4d141f	-0.012517004
121	0xbd746103	-0.05966283
122	0xbd8b6362	-0.06806065
123	0x3cd7fb17	0.026364846
124	0xbd39d414	-0.04536827
125	0x3d8a956a	0.0676678
126	0x3c763f73	0.015029776
127	0x3d8e9b91	0.06963266
128	0xbceac22b	-0.02865704
129	0xbd672dbb	-0.056440096
130	0xbd19acc8	-0.037518293
131	0x3d6f28b4	0.058388427
132	0xbcf83563	-0.030298894
133	0xbd87e111	-0.06634725
134	0x3d7b5778	0.061362714
135	0x3cfc3621	0.03078753
136	0x3d89a8b5	0.067216314
137	0x3d44a246	0.04800632
138	0x3b9dd601	0.004816771
139	0xbd70086f	-0.058601793
140	0xbd566522	-0.05234254
141	0xbd399da9	-0.045316372
142	0xbd433d5e	-0.047665946
143	0xbd85d4ad	-0.06534705
144	0x3d4ae9fd	0.049539555
145	0x3d52b7aa	0.051444687
146	0xbd5d2498	-0.053989977
147	0xbc3f12de	-0.011662213
148	0x3d82aefd	0.063810326
149	0x3ce7e765	0.02830858
150	0xbcb62fd9	-0.022239612
151	0xbcd7a565	-0.026323983
152	0x3d01e5b0	0.031713188
153	0xbd131117	-0.03590497
154	0xbd826fbb	-0.06368967
155	0xbcb03c05	-0.021512995
156	0x3d3e2835	0.046425063
157	0xbcfdae04	-0.030966766
158	0xbd58f19d	-0.052964795
159	0xbcea4f70	-0.028602332
160	0xbcf2e3e6	-0.029649686
161	0xbd65c8f0	-0.056099832
162	0xbb2244ba	-0.0024760203
163	0x3d164995	0.036691267
164	0x3d8c4663	0.06849363
165	0x3c9e48ca	0.019321818
166	0x3d6de3ee	0.0580787
167	0x3ce7866b	0.028262338
168	0xbca5ee93	-0.020255363
169	0xbd6bfdc0	-0.05761504
170	0xbca74231	-0.020417305
171	0x3d0d3504	0.034474388
172	0x3c706afa	0.014673943
173	0xbcab93c7	-0.02094449
174	0xbb887cab	-0.004165252
175	0x3cc7ca29	0.02438839
176	0x3d75c367	0.060000803
177	0x3d6b4de1	0.057447318
178	0xbd4fc4d4	-0.05072482
179	0x3c11496a	0.008867601
180	0x3d6da816	0.058021627
181	0x3df8f8a2	0.12156798
182	0x3d905904	0.070482284
183	0x3d9440f9	0.07238955
184	0x3d8975aa	0.06711896
185	0xbdf16b33	-0.11788025
186	0xbdb24a5f	-0.087055914
187	0xbd8b32a5	-0.06796769
188	0x3c8ac1c8	0.016938105
189	0x3c8be57b	0.017077198
190	0xbe60d209	-0.21955122
191	0x3ce4df35	0.027938465
192	0xbdf666d3	-0.12031331
193	0x3d28c7b4	0.041206077
194	0xba9503e6	-0.001136896
195	0x3bdf6c07	0.006818298
196	0x3d78164b	0.060568135
197	0xbd29e377	-0.041476693
198	0x3ce6b344	0.028161652
199	0xbd206355	-0.03915723
200	0x3d488852	0.04895813
201	0x3c82b171	0.015953751
202	0x3d94e3f3	0.0727004
203	0xbcda9ac5	-0.026685128
204	0x3d1a86cf	0.03772622
205	0xbdc53659	-0.096295066
206	0xbd8a50bb	-0.06753679
207	0x3cf54de0	0.02994436
208	0x3e38da65	0.18052061
209	0x3d5fbe3e	0.05462479
210	0x3cca61fa	0.024704922
211	0x3c764e27	0.015033281
212	0xbdc67a41	-0.09691287
213	0xbd3c6ee3	-0.046004187
214	0xbb91dc47	-0.004451308
215	0xbd5ff726	-0.05467906
216	0x3d45b40c	0.04826741
217	0x3da6e025	0.08148221
218	0x3d463163	0.048386943
219	0xbd99c95f	-0.075091116
220	0x3cdc1234	0.026864149
221	0xbdc0e8f5	-0.09419433
222	0x3c027fd1	0.007965044
223	0x3dab8999	0.08375854
224	0x3a8be3f7	0.0010672797
225	0x3c4a4f0d	0.012347949
226	0xbcdd8074	-0.02703879
227	0x3cdb273d	0.026752109
228	0x3cf68182	0.030091051
229	0x3c4067db	0.011743511
230	0x3dea4270	0.11438453
231	0x3de40601	0.11133958
232	0x3d17c856	0.03705629
233	0xbcc46d17	-0.0239778
234	0xbc36533f	-0.011128246
235	0xbcc20363	-0.023683256
236	0x3df5a0ba	0.11993547
237	0x3e0641ba	0.1311101
238	0x3d892377	0.066962175
239	0xbd0eba08	-0.034845382
240	0x3ca1db1c	0.0197578
241	0x3ddbfd8e	0.10741721
242	0x3d9f556c	0.07779965
243	0x3d66fe05	0.056394596
244	0x3d91dbf0	0.07122028
245	0x3d99b826	0.07505827
246	0xbd158930	-0.036507785
247	0xbcc03993	-0.023464954
248	0x3dded1db	0.108798705
249	0x3e15a306	0.1461297
250	0xbd66b9d1	-0.056329552
251	0x3cdab4f9	0.026697623
252	0xbd9ea774	-0.07746783
253	0x3d3c862e	0.0460264
254	0x3d30c1c8	0.043153554
255	0xbb2578c1	-0.0025248977

FC1.bias f4 [128]
0	0x3d7284eb	0.05920879
1	0xbbc3cb17	-0.005975138
2	0xbda62006	-0.08111577
3	0xbd9d2596	-0.076731846
4	0xbcbceafd	-0.02306127
5	0xbd3348e5	-0.04377069
6	0xbd2f40c3	-0.04278637
7	0xbdacf494	-0.08445087
8	0x3c9b6713	0.018970048
9	0x3d7abf2e	0.06121748
10	0x3d4067b6	0.046973906
11	0xbd909dc1	-0.07061339
12	0xbc01a48a	-0.007912764
13	0xbd8c0c1a	-0.06838246
14	0xbc0d96e1	-0.008641929
15	0xbbbfa78e	-0.0058488315
16	0x3d1e6383	0.03866912
17	0xbcb9eed7	-0.022696896
18	0x3d055b2d	0.032557655
19	0x3d83a011	0.064270146
20	0x3d2d2d96	0.042279802
21	0xbcadfa6e	-0.021237578
22	0xbd2dfb3e	-0.04247593
23	0xbd0a6356	-0.03378614
24	0x3c83072a	0.015994627
25	0xbcf0fdcf	-0.0294179
26	0x3d849ddb	0.06475421
27	0xbd764e80	-0.060133457
28	0xbbefeb75	-0.00732177
29	0xbd606c36	-0.054790698
30	0x3cd02c25	0.025411675
31	0xbd9b1d6a	-0.0757397
32	0xbd5923b7	-0.053012576
33	0x3d8dc046	0.06921439
34	0xbd6643f4	-0.05621715
35	0x3d223ee1	0.039610747
36	0xbd232ad3	-0.039835762
37	0xbd2fb1dd	-0.042894233
38	0x3d1f583e	0.038902514
39	0x3d6c9d3f	0.05776715
40	0x3d462f17	0.048384752
41	0xbb8fdd87	-0.004390422
42	0xbbb1a997	-0.005421828
43	0x3d4a0a97	0.049326506
44	0x3d052cc7	0.032513406
45	0xbcef362b	-0.029200634
46	0xbd970094	-0.07373157
47	0x3d6ccc8c	0.05781226
48	0x3c9155ac	0.017741047
49	0xbd91cbba	-0.07118936
50	0xbd74b41e	-0.059742086
51	0xbd32c1f5	-0.043642003
52	0x3cfc9306	0.030831825
53	0xbd7e7c88	-0.06213048
54	0x3d37558d	0.044759322
55	0x3bbda9d7	0.0057880688
56	0xbc959762	-0.018260662
57	0xbcf2f924	-0.029659815
58	0x3d8e4936	0.06947558
59	0x3aa84a9f	0.0012839622
60	0x3d2d406e	0.042297773
61	0xbb68f415	-0.0035545875
62	0x3cff7e31	0.031188102
63	0xbc34d0e7	-0.011036134
64	0xbbe4b34a	-0.0069793807
65	0xbca62805	-0.020282755
66	0xbc0636fa	-0.008191818
67	0xbd2a450c	-0.041569754
68	0xbd4288ae	-0.04749363
69	0x3cd2a2e5	0.02571244
70	0xbdacd950	-0.084398866
71	0xbd2ff1f7	-0.042955365
72	0x3c9f9d68	0.019484237
73	0x3cf56509	0.029955404
74	0xbad1345c	-0.0015961039
75	0x3d823221	0.063572176
76	0xbda60c41	-0.08107806
77	0xbcdc3380	-0.026880026
78	0x3c99b0aa	0.018760998
79	0x3d7ffce4	0.062497035
80	0xbc250554	-0.010072071
81	0x3d0be1d7	0.034150925
82	0xbd1c48af	-0.038155254
83	0x3d12b3af	0.03581589
84	0x3ba49d88	0.005023662
85	0x3c347078	0.011013143
86	0xbd3e87c9	-0.046516214
87	0xbca60c50	-0.020269543
88	0xbb52e734	-0.0032181265
89	0x3d847678	0.064679086
90	0xbce515a7	-0.027964426
91	0x3d78650f	0.060643252
92	0xbd1f23cd	-0.0388525
93	0x3d9239e8	0.07139951
94	0x3d8ab607	0.06773
95	0x3d11ca95	0.035593588
96	0xbd858735	-0.06519929
97	0x3d38daca	0.04513053
98	0xbd52cb5a	-0.051463462
99	0x3d6721f6	0.056428872
100	0x3d8d3b3d	0.068960644
101	0xbd25a70f	-0.040442523
102	0x3d8a0d4a	0.06740816
103	0x3d21bca5	0.039486546
104	0xbd04d75b	-0.03243194
105	0x3c17f3e0	0.009274453
106	0xbc409ab5	-0.011755635
107	0x3cd336f4	0.02578304
108	0xbcbe104e	-0.023201134
109	0xbd657425	-0.056018967
110	0xbc2f1464	-0.010686014
111	0xbc28a692	-0.01029362
112	0x3ce841d2	0.028351698
113	0x3d4b1d76	0.049588643
114	0xbcafad5e	-0.021444973
115	0x39e7fa84	0.00044246402
116	0x3d964311	0.07337011
117	0xbd1cc4bb	-0.038273554
118	0x3d5ae632	0.053442188
119	0xbd36cc39	-0.044628356
120	0xbb6a6721	-0.0035767036
121	0x3ce8f2a4	0.028436013
122	0xbb36aeab	-0.0027875106
123	0xbd0045a0	-0.0313164
124	0xbccb6726	-0.024829458
125	0x3d5d8f3f	0.05409169
126	0xbd65aaf3	-0.056071233
127	0xbd87a987	-0.06624132

FC2.weight f4 [64, 128]
0	0xbd0b5203	-0.03401376
1	0xbd42ce5d	-0.047560085
2	0x3d383894	0.044975832
3	0xbd9aa2c4	-0.07550576
4	0xbd8ca489	-0.0686732
5	0xbc893ab9	-0.016751634
6	0x3d01888c	0.031624362
7	0xbe2b69e1	-0.16739608
8	0x3e0d153a	0.13777629
9	0x3d87c6cb	0.066297136
10	0xbd588afa	-0.052866913
11	0x3b9ab8ba	0.004721728
12	0xbb94a8ea	-0.0045367377
13	0x3d9cc33f	0.07654428
14	0xbc8249cf	-0.015904335
15	0x3c785e8d	0.015159261
16	0xbe6ca77e	-0.23110768
17	0xbc336ec6	-0.010951703
18	0xbe1fa937	-0.15591894
19	0xbe2051ab	-0.15656154
20	0x3b16cf5d	0.0023011782
21	0xbdd10a9f	-0.10207104
22	0xbd115c9f	-0.03548872
23	0x3db44c49	0.08803613
24	0x3c7b3ff0	0.015335068
25	0xbe785c80	-0.24254036
26	0xbdaa5ee4	-0.0831888
27	0x3d94a54d	0.07258091
28	0x3d50e29c	0.05099736
29	0xbd8693f0	-0.065711856
30	0x3dc01ff1	0.09381092
31	0x3b5ca0a9	0.0033665097
32	0x3d4d3f8e	0.05010944
33	0xbd93760a	-0.072002485
34	0xbcac9441	-0.021066787
35	0xbb2bf20a	-0.0026236796
36	0x3dbf1ea1	0.09332014
37	0xbbc81422	-0.0061059156
38	0xbe78b91e	-0.24289367
39	0xbe078a21	-0.13236286
40	0x3d2e049f	0.042484876
41	0xbd1bae6d	-0.038008142
42	0xbd6aff89	-0.057372604
43	0xbc863d12	-0.016386542
44	0xbb92d141	-0.0044805114
45	0xbe297a0e	-0.16550466
46	0xbda1eb41	-0.07906199
47	0x3e4bc1af	0.19898103
48	0x3c509746	0.012731379
49	0x3c9819fa	0.018567074
50	0xbb468c95	-0.0030296196
51	0x3d615378	0.055011243
52	0x3e0d8542	0.13820365
53	0xbbf9a40f	-0.0076184343
54	0xbcb5dc59	-0.022199797
55	0xbd91f197	-0.07126158
56	0x3b8fe3aa	0.0043911533
57	0xbc9acb22	-0.01889569
58	0x3cf0927d	0.029366726
59	0xbc7fd385	-0.015614395
60	0x3d0aba09	0.033868823
61	0xbd7266d7	-0.059180107
62	0xbe046bbc	-0.12931722
63	0x3d1e8803	0.03870393
64	0xbd91f779	-0.0712728
65	0x3d5e199b	0.054223638
66	0x3e58295d	0.21109529
67	0x3daebac9	0.0853172
68	0x3dadf745	0.084944285
69	0xbd945338	-0.07242435
70	0xbd1f2d4e	-0.038861565
71	0xbda54d42	-0.080713764
72	0x3d40de9b	0.047087293
73	0x3d6789c8	0.056527883
74	0xbd1fff8e	-0.039062075
75	0x3b725788	0.0036978442
76	0x3d128936	0.035775386
77	0xbc8b5f85	-0.01701332
78	0x3e0ac6bf	0.13552378
79	0x3e038715	0.12844498
80	0x3aa47b40	0.0012548938
81	0x3db0f8be	0.08641194
82	0xbd9317ff	-0.07182311
83	0x3e03112e	0.12799522
84	0x3d2efffe	0.042724602
85	0xbd2402a9	-0.0400416
86	0xbcf16b1d	-0.02947002
87	0xbcde17ab	-0.027110895
88	0xbde880e2	-0.113527074
89	0x3b776026	0.0037746518
90	0x3d30d874	0.043175176
91	0x3bb7825e	0.005600258
92	0x3d4cea31	0.05002803
93	0x3d2220eb	0.039582174
94	0xbe66336c	-0.22480553
95	0x3c12eed7	0.008968077
96	0x3d7bfe95	0.061522085
97	0x3d93118f	0.071810834
98	0xbcccb6a8	-0.024989441
99	0xbd716692	-0.05893571
100	0x3cd5f219	0.026116418
101	0x3d2c29a0	0.042031884
102	0xbd278a8a	-0.040903606
103	0x3d32b675	0.043631036
104	0xbda6fc01	-0.08153535
105	0xbdc2d4b3	-0.095132254
106	0x3ca2a984	0.019856222
107	0xbdd8ebee	-0.10591875
108	0xbda03596	-0.07822721
109	0xbe1d1340	-0.15339375
110	0xbd7b5819	-0.061363313
111	0xbe2703a6	-0.16309986
112	0xbdbd579f	-0.09245228
113	0x3e16391c	0.14670223
114	0xbdae749e	-0.08518337
115	0x3d591296	0.05299624
116	0x3d9d1446	0.076698825
117	0x3da2bc16	0.07946031
118	0xbcff2137	-0.031143768
119	0x3c9cd31c	0.019143634
120	0xbcf789aa	-0.03021701
121	0xba2617c7	-0.00063359406
122	0xbe2dc89a	-0.16971055
123	0x3b38b517	0.002818411
124	0x3bef86cd	0.0073097707
125	0xbd7e1440	-0.06203103
126	0xbdad15b2	-0.08451404
127	0x3e0e7e3b	0.1391534
128	0xba93dd57	-0.0011281174
129	0xbd5bf149	-0.053696904
130	0xbcdef293	-0.027215278
131	0x3d24b803	0.04021455
132	0xbd82553c	-0.063639134
133	0xbcef1adb	-0.02918761
134	0x3c8efafb	0.017453661
135	0x3dcd2409	0.10016639
136	0x3d623296	0.055224024
137	0x3dbc75f0	0.09202182
138	0xbdd4ca6a	-0.1039017
139	0x3b378317	0.002800172
140	0x3d98f34f	0.074682824
141	0xbd3c0f3e	-0.045912974
142	0x3d89c215	0.06726471
143	0xbdd9a1d7	-0.106265716
144	0xbcb58035	-0.02215586
145	0x3d9284e6	0.071542546
146	0x3d28ef70	0.04124397
147	0xbe0b4540	-0.13600636
148	0xbd8866b9	-0.06660218
149	0xbb8f2bb8	-0.0043692254
150	0xbbca74e7	-0.0061784866
151	0x3cbe13de	0.023202833
152	0x3d4a4d57	0.049390163
153	0xbc82e16d	-0.015976632
154	0x3bfaa124	0.007648604
155	0xbd6372be	-0.05552935
156	0x3ca9c07a	0.020721663
157	0x3d515327	0.05110469
158	0xbd5fcb6c	-0.054637358
159	0xbddbc379	-0.10730643
160	0x3d255067	0.04035988
161	0x3d8bf684	0.068341285
162	0xbcb88df4	-0.022528626
163	0xbd2b1b01	-0.0417738
164	0x3d5dc03b	0.054138403
165	0x3dfb0a3f	0.12257814
166	0x3d5a2582	0.053258426
167	0xbdce9946	-0.10087828
168	0x3d53ff65	0.051757235
169	0x3c789024	0.015171085
170	0xbdcbd9bb	-0.09953638
171	0xbda44fd4	-0.080230385
172	0x3d3a6c71	0.045513574
173	0x3bc450a8	0.0059910603
174	0x3d9010d2	0.07034458
175	0x3dd0734a	0.1017824
176	0x3d8fc70c	0.07020387
177	0xbd2fa459	-0.042881344
178	0xbe39bf7f	-0.18139456
179	0x3ceaa3cd	0.02864256
180	0xbe0f7665	-0.14010008
181	0xb7253e5b	-9.849285e-06
182	0x3dc325ac	0.0952867
183	0x3d9adeb4	0.075620085
184	0x3d2a7386	0.041614078
185	0x3d53b815	0.051689226
186	0xbd80cce9	-0.062890835
187	0xbcdca8bf	-0.026935933
188	0x3dbe5db8	0.09295219
189	0xbd943000	-0.07235718
190	0xbdc68e5b	-0.09695121
191	0xbd0f6915	-0.035012323
192	0xbd44cfa0	-0.04804957
193	0x3c6523c7	0.013985581
194	0xbd6c6333	-0.05771179
195	0xbb827f49	-0.0039824587
196	0x3cf75d3f	0.03019583
197	0x3df2e907	0.11860853
198	0xbd40ebca	-0.047099866
199	0xbc8512d9	-0.016244339
200	0x3da19eb1	0.07891596
201	0xbda3dfe2	-0.08001687
202	0x3d71b4fa	0.059010483
203	0xbda63ced	-0.081170894
204	0x3d48994a	0.048974313
205	0xbcfec558	-0.03109996
206	0xbd296871	-0.04135937
207	0x3d0dfc03	0.034664165
208	0x3d0250e2	0.031815417
209	0x3d1c191d	0.038109887
210	0xbdbe6e5f	-0.09298395
211	0x3d949014	0.07254043
212	0xbbeb64ed	-0.007183662
213	0xbd0d054f	-0.03442889
214	0xbd69818b	-0.057008307
215	0xbcb327d3	-0.021869576
216	0x3d547f3c	0.051879153
217	0x3bb9e184	0.0056726355
218	0xbe86ede0	-0.2635336
219	0x3c12ac04	0.0089521445
220	0x3d4ab476	0.049488507
221	0x3cc213c2	0.023691062
222	0xbd33e72a	-0.043921627
223	0xbdc633ca	-0.09677847
224	0xbb6bfb9d	-0.0036008127
225	0x3d9259ae	0.07146011
226	0xbd9b4d13	-0.0758306
227	0xbe1fc1f8	-0.15601337
228	0x3d3794a2	0.04481948
229	0xbd60a7dd	-0.054847587
230	0x3cde4aec	0.027135335
231	0x3de4cfbe	0.11172436
232	0xbddc0c92	-0.10744585
233	0xba0b8ed9	-0.0005323715
234	0x3e078432	0.13234022
235	0x3d52be77	0.051451173
236	0xbd996c2f	-0.074913375
237	0x3dac83a4	0.08423546
238	0xbc480d16	-0.012210151
239	0xbde357c0	-0.11100721
240	0xbc6b69db	-0.0143685
241	0xbd12b459	-0.035816524
242	0xbc5a6304	-0.013329271
243	0x3d4a7b20	0.049433827
244	0x3dfa406e	0.1221932
245	0xbd96e974	-0.073687464
246	0xbc56b561	-0.013104768
247	0xbbd0a8fb	-0.0063678003
248	0xbd5a524d	-0.053301144
249	0x3d530d7f	0.051526543
250	0xbce5ef32	-0.028068159
251	0x3dab013a	0.08349843
252	0xbe1a388c	-0.15060633
253	0xbb266990	-0.002539251
254	0xbdfdf24f	-0.12399732
255	0xbd2c36a6	-0.042044304

FC2.bias f4 [64]
0	0xbcd0a3ac	-0.02546867
1	0xbd8ffc4a	-0.07030542
2	0xbd9b52dc	-0.075841635
3	0xbdd967e5	-0.106155194
4	0xbd152426	-0.036411427
5	0x3d87ec52	0.066368714
6	0xbccb7f2a	-0.02484091
7	0xbd041d23	-0.03225435
8	0xbd5c36ef	-0.053763326
9	0x3d128a44	0.03577639
10	0x3cc8af30	0.024497598
11	0xbda073cd	-0.07834587
12	0x3be4ca05	0.0069820904
13	0x3d9be04a	0.07611139
14	0x3cf12a08	0.029438987
15	0x3d0e9f97	0.034820165
16	0xbd8fcb59	-0.07021207
17	0xba3beb66	-0.0007168561
18	0x3d54bb9d	0.051936734
19	0x3ab45f31	0.0013761279
20	0xbd1db74a	-0.038504876
21	0xbd6061b2	-0.05478067
22	0xbd5e6746	-0.054297708
23	0x3b7ed05f	0.0038881523
24	0x3d8112d0	0.06302416
25	0x3d06b506	0.03288748
26	0xbc8ca414	-0.017168082
27	0xbdba77c7	-0.09104877
28	0xbc4892bd	-0.012242016
29	0xbd65c7b7	-0.056098666
30	0xbdbe8e4b	-0.09304484
31	0xbd3f7f7c	-0.046752438
32	0x3dd6487c	0.10463044
33	0xbd29dace	-0.041468434
34	0xbc85192c	-0.016247354
35	0xbdc1bb27	-0.094595246
36	0xbcfe1d78	-0.031019911
37	0x3d207a20	0.039178967
38	0x3dd7b636	0.10532801
39	0x3dd24df7	0.10268777
40	0xbd96f687	-0.0737124
41	0xbd7d3551	-0.061818425
42	0xbcb48d50	-0.02204004
43	0x3c48dac7	0.012259192
44	0x3cb6945a	0.022287536
45	0x3d9c9f19	0.07647533
46	0x3d2a5d7e	0.041593067
47	0xbcaaea7f	-0.02086377
48	0x3cd6e1ff	0.02623081
49	0xbd884118	-0.06653041
50	0xbc10f7a9	-0.008848109
51	0x3d6435c8	0.055715352
52	0x3dd1b1b8	0.10238975
53	0x3d547ff0	0.051879823
54	0xbd0562df	-0.032564994
55	0x3d4707de	0.048591487
56	0xbcc6fa30	-0.02428922
57	0x3b9fcf15	0.004876981
58	0xbc997393	-0.018731868
59	0xbc1a78fc	-0.009428259
60	0x3bd5e5d7	0.006527643
61	0x3d8ab0fd	0.06772039
62	0xbca9d01a	-0.020729113
63	0x3d92c9f0	0.07167423

FC3.weight f4 [2, 64]
0	0xbe1e1c0e	-0.1544039
1	0x3d92427a	0.07141586
2	0xbcc8da35	-0.024518112
3	0x3da1bc8a	0.07897289
4	0x3ddb1846	0.10697989
5	0xbddbf07e	-0.107392296
6	0xbcede5e3	-0.029040283
7	0x3e37816e	0.17920467
8	0x3da676ca	0.08128126
9	0xbdb31326	-0.08743887
10	0x3e606225	0.21912439
11	0x3dae50ab	0.0851148
12	0x3db94984	0.09047225
13	0xbcb9bea8	-0.02267392
14	0xbd14218e	-0.036164813
15	0x3e0aaa67	0.13541566
16	0x3e5d3d25	0.21605356
17	0xbeb325b0	-0.3498969
18	0xbe02e289	-0.12781729
19	0xbdcc1183	-0.099642776
20	0x3dd3c1b4	0.1033968
21	0x3e43f172	0.19135073
22	0x3ea99ec5	0.33128944
23	0x3d835491	0.06412614
24	0xbd7d2438	-0.06180212
25	0xbe07da7d	-0.1326694
26	0xbcfadf92	-0.030624185
27	0x3e469cce	0.19395754
28	0xbd310161	-0.043214206
29	0x3d882d68	0.066492856
30	0x3dd53d6c	0.10412106
31	0xbc75163b	-0.014958913
32	0xbb8f4558	-0.00437228
33	0xbe28548d	-0.16438504
34	0xbe1769a1	-0.14786388
35	0x3cbb7d85	0.022887
36	0xbdb278ad	-0.08714423
37	0x3e1c6da9	0.15276207
38	0xbda5431f	-0.08069443
39	0xbda73640	-0.08164644
40	0x3daf8cd0	0.0857178
41	0x3e25df02	0.16198352
42	0x3e0025fe	0.12514493
43	0xbd149f9f	-0.03628504
44	0xbcd789fe	-0.026310917
45	0x3951a1d6	0.00019992082
46	0xbe6f7e79	-0.23388089
47	0x3d45beba	0.048277594
48	0x3daf0235	0.08545343
49	0x3ce5d4d0	0.028055578
50	0xbd5fa638	-0.054601878
51	0xbdb583cf	-0.08863031
52	0xbd942a2d	-0.07234607
53	0xbd493efc	-0.049132332
54	0xbd227390	-0.03966099
55	0xbd88c9a5	-0.06679086
56	0x3dfa3604	0.12217334
57	0x3d102dac	0.035199806
58	0x3d97bd2e	0.0740913
59	0xbd851b53	-0.06499352
60	0xbd9c0025	-0.07617215
61	0xbd4f2a9d	-0.05057775
62	0xbd4fa7c9	-0.05069712
63	0xbd9ae6ab	-0.07563528
64	0xbdb10acd	-0.08644638
65	0xbddc5fed	-0.10760484
66	0xbe150cf4	-0.14555722
67	0x3d87ecfd	0.06636999
68	0xbd3956ef	-0.045248922
69	0xbd051a2e	-0.03249567
70	0xbe393035	-0.18084796
71	0x3d131318	0.03590688
72	0x3d889b9e	0.066703066
73	0xbca75074	-0.020424105
74	0x3e367cc6	0.17821035
75	0x3d5eccba	0.05439446
76	0x3d0ded28	0.034649998
77	0xbd4d4292	-0.050112315
78	0xbd70bc4c	-0.058773324
79	0x3d8e39c5	0.069446124
80	0x3e12e2e2	0.14344361
81	0xbe76745e	-0.24067828
82	0x3c9fc810	0.019504577
83	0xbe0cd8d7	-0.13754593
84	0xbd40df75	-0.047088105
85	0x3e27bbfd	0.16380306
86	0x3e5990b2	0.21246603
87	0xbd9392e3	-0.07205751
88	0xbcaf4920	-0.021397173
89	0xbdd33ae7	-0.10313969
90	0xbd4929c6	-0.049112104
91	0x3dc8370a	0.09776123
92	0xbdf59a02	-0.11992265
93	0x3e0022da	0.12513295
94	0x3dc66894	0.096879154
95	0xbd8ee970	-0.069781184
96	0x3d9aa804	0.07551578
97	0xbe6814fa	-0.22664252
98	0xbb6d174b	-0.0036177214
99	0x3e2a26dc	0.16616386
100	0x3dc07503	0.09397318
101	0x3e0a402b	0.1350104
102	0x3c884152	0.01663271
103	0xbd9e4cc8	-0.077294886
104	0xbda8807e	-0.08227633
105	0x3d90095f	0.070330374
106	0x3d893142	0.06698848
107	0xbdb855b5	-0.09000722
108	0xbde3b6f2	-0.111188784
109	0x3db7f8f9	0.08983035
110	0xbe4d32ef	-0.20038961
111	0x3cefa7e9	0.02925487
112	0x3d27f54c	0.041005418
113	0x3e16ee03	0.14739232
114	0xbd7c9547	-0.0616658
115	0x3bd90fe7	0.00662421
116	0x3c8a760e	0.016901996
117	0xbd15066c	-0.036383078
118	0x3d772ea6	0.06034722
119	0xbdff6e30	-0.124721885
120	0xbd868308	-0.06567961
121	0x3e4ca32e	0.19984123
122	0x3d283bb5	0.041072566
123	0x3b89f5f5	0.0042102286
124	0x3b88cf37	0.0041750926
125	0x3c6c7582	0.014432313
126	0xbdd46ed2	-0.103727
127	0xbd8b8ab5	-0.06813566

FC3.bias f4 [2]
0	0x3db029e2	0.086017385
1	0x3c1c1e74	0.009528745

FC1.weight f4 [128, 180]
0	0xbdb9e4d7	-0.09076851
1	0xbd2595c6	-0.04042604
2	0xbdca6388	-0.09882265
3	0x3d5ec814	0.054390028
4	0x3bbebf15	0.0058211186
5	0x3d23e24f	0.040010747
6	0xbc8cf53b	-0.017206779
7	0x3e2001bb	0.1562566
8	0xbca5dabc	-0.020245902
9	0x3d299e19	0.04141054
10	0x3cf79375	0.03022168
11	0xbd8cccfb	-0.068750344
12	0x3bd2d603	0.0064342036
13	0xbd56ab32	-0.05240936
14	0x3dbe0302	0.092779174
15	0x3d05f8e1	0.032708053
16	0x3d5316ed	0.051535536
17	0x3d3238ed	0.04351132
18	0xbdae988b	-0.08525189
19	0x3dc49efc	0.09600636
20	0x3d142ae8	0.03617373
21	0x3ae985c1	0.0017816351
22	0x3cbe6ddb	0.023245743
23	0x3d0b59f3	0.03402133
24	0x3bba1124	0.005678313
25	0x3cc0efe8	0.023551896
26	0xbd09aa94	-0.03360994
27	0x3d3b102d	0.045669723
28	0xbd34c7e0	-0.04413593
29	0xb9b3de71	-0.00034307272
30	0xbd06e29a	-0.032930948
31	0x3dec94fc	0.11551854
32	0x3d799b90	0.06093937
33	0x3cb9f04a	0.022697587
34	0x3dae835a	0.08521147
35	0xbd167cf4	-0.03674026
36	0x3d9f547a	0.077797845
37	0x3d581fa2	0.052764542
38	0xbe55aff7	-0.20867907
39	0x3d92fe41	0.07177401
40	0xbe054f13	-0.13018446
41	0x3d7509a0	0.059823632
42	0xbda3b0e0	-0.079927206
43	0xbe0af2d9	-0.13569202
44	0xbd8e1a38	-0.069385946
45	0xbd977dd6	-0.07397048
46	0xbc9cbbff	-0.019132612
47	0xba3d32c2	-0.00072173413
48	0x3da75860	0.08171153
49	0x3d493109	0.04911903
50	0xbdcf6fd7	-0.10128754
51	0x3d981f6d	0.07427869
52	0xbcae3047	-0.021263255
53	0xbd0bb1fa	-0.03410528
54	0x3d0d3d92	0.034482546
55	0xbda4438b	-0.08020695
56	0x3da0c783	0.07850554
57	0x3dad43af	0.08460175
58	0x3cfcf975	0.03088067
59	0xbddd359f	-0.10801243
60	0xbc5bc82d	-0.013414425
61	0x3c92b771	0.017909737
62	0xbd478ade	-0.04871642
63	0x3c48800b	0.012237559
64	0x3c241c0a	0.010016451
65	0xbd8641cb	-0.06555518
66	0xbd87696e	-0.06611906
67	0xbc038381	-0.008026958
68	0x3d5868db	0.052834373
69	0xbcafff2e	-0.021483984
70	0x3cd8048c	0.026369356
71	0xbc51cf21	-0.012805731
72	0x3da62d42	0.08114101
73	0xbc80f7a4	-0.015743084
74	0xbd083059	-0.033249233
75	0xbcd30dbd	-0.025763387
76	0xbd2c5771	-0.042075578
77	0x3cfd9e5e	0.030959304
78	0xbda55fca	-0.08074911
79	0xbd21f159	-0.039536808
80	0xbda393e5	-0.07987193
81	0x3d31b3d9	0.043384407
82	0x3c4a54f3	0.012349355
83	0x3ca02d3a	0.019552816
84	0xbdd4a558	-0.10383099
85	0x3ac53da3	0.0015048276
86	0x3dba573d	0.09098671
87	0x3cb9f994	0.022702016
88	0xbb89877a	-0.0041970583
89	0xbd85bc48	-0.065300524
90	0xbdec1510	-0.11527455
91	0xbe11aa91	-0.14225222
92	0xbcfa1e36	-0.030531984
93	0x3cbd199f	0.023083506
94	0x3d121077	0.035660233
95	0x3cf9cfa4	0.030494519
96	0x3c8067de	0.015674528
97	0x3db749b7	0.08949607
98	0xbd7325ba	-0.05936215
99	0xbd33a222	-0.043855794
100	0xbd7b0bab	-0.061290424
101	0x3c5d0ebe	0.013492284
102	0x3d44ef85	0.048079986
103	0x3de79319	0.113073535
104	0xbcb0751d	-0.021540219
105	0xbd4cd13c	-0.05000423
106	0xbc8f39a0	-0.017483532
107	0x3cdceacd	0.02696743
108	0x3d9818dc	0.074266165
109	0x3dab05c4	0.08350709
110	0xbc750516	-0.014954826
111	0xbdc6a1ce	-0.096988305
112	0x3d6f2275	0.05838247
113	0x3d647165	0.055772204
114	0x3d53f935	0.051751334
115	0xbd8dd161	-0.069247015
116	0x3c6cec81	0.014460684
117	0xbd8e4a12	-0.069477215
118	0xbe646543	-0.22304253
119	0xbe91fe63	-0.28514394
120	0x3d65d562	0.0561117
121	0x3da9fd50	0.08300269
122	0xbd49e19f	-0.049287435
123	0xbd30854d	-0.043095876
124	0xbd94dbc7	-0.07268482
125	0xbd7f310d	-0.062302638
126	0xbd7fad0d	-0.062420893
127	0xbe15fb96	-0.14646754
128	0xbdcac046	-0.098999545
129	0xbd2fec15	-0.042949755
130	0xbcc9632b	-0.02458342
131	0x3e01630c	0.1263544
132	0xbda70c7c	-0.08156678
133	0xbba099ed	-0.004901162
134	0xbd003fcb	-0.031310838
135	0x3d20789f	0.039177533
136	0xbdbe1bbb	-0.09282633
137	0xbd6b45a7	-0.057439473
138	0xbd8acc4b	-0.06777247
139	0x3d809999	0.062792964
140	0xbdc312d8	-0.095250785
141	0xbc51be69	-0.012801745
142	0x3c9482d3	0.018128788
143	0xbc852f88	-0.016258016
144	0xbe064bb8	-0.13114822
145	0xbdd1409e	-0.10217403
146	0x3becf1a9	0.0072309566
147	0x3d5c88e7	0.053841498
148	0x3cf6dea3	0.030135458
149	0x3d05d32c	0.032672092
150	0xbd50a732	-0.0509407
151	0xbad8818f	-0.0016518104
152	0x3d18c1ff	0.037294384
153	0xbc98b9f6	-0.01864336
154	0x3da30183	0.07959273
155	0xbcabaad8	-0.020955488
156	0x3b0d7d3f	0.0021589545
157	0x3d411e0b	0.04714779
158	0xbcec7729	-0.028865414
159	0x3c26ce9d	0.010181096
160	0x3d442bfa	0.0478935
161	0xbd3b93ed	-0.04579537
162	0x3d57446b	0.052555483
163	0xbd9f9511	-0.07792104
164	0xbd9f7748	-0.07786423
165	0xbd2700a0	-0.04077208
166	0xbd984491	-0.07434953
167	0xbd1e6ed8	-0.038679928
168	0x3cbae626	0.022814821
169	0x3c6a8f73	0.0143164275
170	0xbcd54e2e	-0.026038256
171	0x3c2f4cc1	0.010699452
172	0xbd9b9983	-0.075976394
173	0x3c7dc601	0.015489102
174	0xbce3fba1	-0.027829947
175	0x3cc0cc8e	0.02353504
176	0xbc7dd8a9	-0.01549355
177	0x3d1b1dc5	0.037870187
178	0x3dac166e	0.084027156
179	0x3d87a1f3	0.06622686
180	0xbbf2f88f	-0.0074148844
181	0x3cda4f5f	0.026649175
182	0x3b93f889	0.0045157117
183	0xbd837a80	-0.064198494
184	0xbc0c84fb	-0.008576627
185	0xbc3f84ef	-0.011689409
186	0x3d962225	0.07330731
187	0xbe4adc56	-0.19810614
188	0x3c4dcb41	0.012560667
189	0x3bbf7bf0	0.005843632
190	0xbbee9d30	-0.007281922
191	0xbc3b0caa	-0.011416594
192	0x3db1ef93	0.08688273
193	0x3d0217b5	0.03176089
194	0xbd685bb3	-0.056728076
195	0xbd5404bd	-0.05176233
196	0x3d50701c	0.050888166
197	0xbd829fab	-0.063781105
198	0x3e2033a9	0.15644707
199	0xbd077c51	-0.03307754
200	0x3e0d1237	0.1377648
201	0xbd11600a	-0.03549198
202	0xbd7a63ad	-0.061130214
203	0x3d023291	0.031786505
204	0x3cbbdc20	0.022932112
205	0x3e6e01c9	0.23242868
206	0xbbad5424	-0.0052895714
207	0x3d09b142	0.03361631
208	0x3d27bb54	0.040950134
209	0x3d4c5fc5	0.04989602
210	0xbe287d5a	-0.16454068
211	0x3dc8e59e	0.09809421
212	0xbd73126d	-0.059343744
213	0xbcef70fc	-0.02922868
214	0x3dad50da	0.08462687
215	0xbd1d6ee7	-0.038435843
216	0xbdca63d5	-0.09882323
217	0xbcc395c4	-0.023875125
218	0x3ce3e2bd	0.027818078
219	0x3dbe7468	0.092995465
220	0x3dfabe04	0.12243274
221	0xbe3889d5	-0.18021329
222	0x3d5e2e11	0.05424315
223	0x3ccc6030	0.02494821
224	0x3cfb779b	0.03069668
225	0x3d87d855	0.06633059
226	0xbd581977	-0.05275866
227	0xbddb479e	-0.10707019
228	0xbcf7720a	-0.030205745
229	0x3bd36978	0.006451782
230	0x3dd23546	0.10264067
231	0x3d0ee10c	0.03488259
232	0x3c93c969	0.018040376
233	0xbe3d0a00	-0.18460846
234	0xbdd608a9	-0.104508705
235	0xbbfa480d	-0.0076379837
236	0x3da3afec	0.07992539
237	0xbd4d10ca	-0.05006484
238	0x3d519807	0.051170375
239	0x3d999dca	0.07500799
240	0x3c7d29ef	0.015451892
241	0xbbd0b007	-0.0063686403
242	0xbd8ef474	-0.069802195
243	0xbd83fe0f	-0.06444942
244	0xbbc4473e	-0.005989938
245	0x3d26d70d	0.040732432
246	0xbd40a937	-0.047036376
247	0xbd86972b	-0.06571802
248	0x3de4648b	0.111519895
249	0xbbb3e3ba	-0.0054897936
250	0xbda892fa	-0.082311586
251	0xbdc2e576	-0.095164225
252	0x3d0dc674	0.034613088
253	0x3d21a421	0.039463166
254	0x3d559466	0.052143477
255	0x3d844a4e	0.06459485

FC1.bias f4 [128]
0	0xbd998d3c	-0.074976414
1	0x3d26e8b9	0.040749285
2	0xbd9c8645	-0.076427974
3	0x3b78221c	0.0037862128
4	0xbc255bb7	-0.010092667
5	0xbcfa9366	-0.030587863
6	0xbcf56b3e	-0.029958364
7	0xbc6acd03	-0.014331105
8	0x3cdd9204	0.027047165
9	0xbc8d3a6b	-0.01723977
10	0xbd2ac50f	-0.041691836
11	0xbd126e86	-0.035749935
12	0x3c886b58	0.016652748
13	0xbd4968d4	-0.049172238
14	0xbc9ff95c	-0.019528084
15	0xbc26c9b5	-0.010179927
16	0xbd8c3022	-0.06845118
17	0xbb8a69df	-0.0042240466
18	0xbd0e217b	-0.0346999
19	0x3d6ec520	0.05829346
20	0x3c2fe937	0.010736755
21	0xbbc8d616	-0.0061290367
22	0x3bb053e2	0.0053810934
23	0x3d6a6521	0.05722535
24	0xbd3a2308	-0.045443565
25	0xbd8fe8e4	-0.07026842
26	0xbc6ee721	-0.014581473
27	0x3d6ddd11	0.058072153
28	0x3c9c6f0f	0.019095926
29	0x3d4bf8b6	0.049797736
30	0x3d653b11	0.055964533
31	0x3d63cbda	0.05561433
32	0xbca83b59	-0.020536112
33	0xbd378738	-0.04480669
34	0xbd164e67	-0.036695864
35	0x3d7d9fe7	0.061920073
36	0xbd2f215b	-0.04275642
37	0xbcfe7343	-0.03106082
38	0xbd6d2da1	-0.057904843
39	0xbd2ceb4b	-0.04221658
40	0xbd6e5695	-0.05818804
41	0xbd810732	-0.063002005
42	0x3d61424f	0.054994877
43	0x3cccab11	0.024983915
44	0xbc9a176d	-0.018809998
45	0xbd129f16	-0.035796247
46	0x3d2a3cb6	0.041561805
47	0x3d4c7b1a	0.049922086
48	0x3d4fd90c	0.0507441
49	0x3c91a738	0.017779931
50	0x3c3cd443	0.0115252165
51	0x3d10509f	0.035233136
52	0x3d1e39d8	0.038629383
53	0x3d0e6047	0.034759786
54	0xbd8d8bd0	-0.06911433
55	0x3c1bb465	0.009503459
56	0xbd6a3163	-0.057176005
57	0xbcf6e1f2	-0.030137036
58	0xbd0850fa	-0.03328035
59	0xbda947b6	-0.08265631
60	0x3d361a87	0.044458892
61	0x3d01b754	0.031668976
62	0x3d0ae3db	0.033908706
63	0xbc29b619	-0.010358357
64	0x3d146275	0.03622671
65	0xbd0209e4	-0.031747714
66	0xbd57da21	-0.05269826
67	0x3d19aad7	0.03751644
68	0xbc2dbfbd	-0.010604796
69	0x3d448d97	0.047986593
70	0xbc2310cd	-0.009952736
71	0xbcc74cc8	-0.024328604
72	0xbc8205b1	-0.015871854
73	0xbbf8158f	-0.0075709294
74	0x3d7fe687	0.062475707
75	0xbd2baa97	-0.041910734
76	0xbd23ec60	-0.040020347
77	0xbd93714e	-0.071993455
78	0xbcb614db	-0.022226742
79	0xbd802fc0	-0.062591076
80	0x3d09ab55	0.03361066
81	0xbc5593ce	-0.013035728
82	0x3d176e44	0.036970392
83	0xbd1d452d	-0.03839605
84	0xbdb80b68	-0.089865506
85	0x3d0d7fdf	0.034545776
86	0xbd264405	-0.040592212
87	0xbd4f558d	-0.050618697
88	0x3cdf73c5	0.027276883
89	0xbd90c9a3	-0.07069709
90	0xbd925e8a	-0.07146938
91	0x3d4704d8	0.048588604
92	0x3cf7f536	0.030268293
93	0xbd771795	-0.060325224
94	0xbd4098d7	-0.04702076
95	0xbd29ee9a	-0.041487314
96	0xbbc44e8b	-0.0059908084
97	0x3d8dff86	0.06933503
98	0x3c790f9f	0.015201478
99	0x3d735bc4	0.059413686
100	0x3c5226fd	0.012826678
101	0x3b76871f	0.003761716
102	0x3c605a56	0.013693413
103	0x3d9914cc	0.0747467
104	0xbd90fd24	-0.07079533
105	0x3b9eaec9	0.0048426134
106	0x3c07c3bd	0.008286414
107	0x3d16a34e	0.036776833
108	0x3d702720	0.058631063
109	0xbd52077f	-0.05127668
110	0xbd3d1428	-0.0461618
111	0x3d0cfa74	0.03441854
112	0xbcabd606	-0.020976078
113	0xbc81f8f5	-0.015865782
114	0x3d254463	0.04034842
115	0xbab156d7	-0.0013529909
116	0x397a15a7	0.00023849924
117	0x3d3f2bbb	0.046672564
118	0xbd2b08d2	-0.04175646
119	0xbd05ce5f	-0.032667514
120	0x3d85f89c	0.06541559
121	0x3d8bbb86	0.06822877
122	0x3d681811	0.056663577
123	0x3d7085d1	0.058721367
124	0x3d36501e	0.04451
125	0x3c00d2ee	0.00786279
126	0x3d4a4704	0.049384132
127	0xbc34bd2f	-0.011031433

FC2.weight f4 [64, 128]
0	0xbd7c5dd5	-0.061612923
1	0xbd6298c6	-0.055321477
2	0xbd22075a	-0.039557792
3	0xbc826885	-0.01591898
4	0x3c85988f	0.016308097
5	0xbd084203	-0.03326608
6	0xbd60eef4	-0.054915383
7	0x3cf2098b	0.029545566
8	0x3d8cc8f2	0.06874265
9	0x3dfb7f78	0.12280172
10	0xbd8d4157	-0.06897228
11	0x3c095153	0.008381206
12	0xbe1f946f	-0.15583967
13	0x3d84de17	0.06487673
14	0xbd18efe1	-0.03733814
15	0x3931cee9	0.00016957115
16	0x3d80ddc4	0.062922984
17	0xbd896863	-0.06709363
18	0x3db9efb2	0.090789214
19	0xbd75ceed	-0.060011793
20	0x3c865964	0.016400047
21	0xbe0ffaaf	-0.14060472
22	0xbd27097d	-0.040780533
23	0x3cb9d9f6	0.02268694
24	0xbd7c9903	-0.06166936
25	0x3d243699	0.04009113
26	0xbd9fbb7a	-0.0779943
27	0xbdd1a7e3	-0.102371
28	0x3c12733f	0.00893861
29	0x3ca0f19d	0.01964646
30	0x3ccc4396	0.024934571
31	0xbd95d05e	-0.073151335
32	0xbd8e1094	-0.06936756
33	0x3d8bbf4b	0.068235956
34	0xbc97a540	-0.018511415
35	0xbd17e8cc	-0.037087247
36	0xbd758cda	-0.05994878
37	0xbd49f705	-0.04930784
38	0x3da3b372	0.07993211
39	0x3d14b878	0.036308736
40	0x3b9ad958	0.0047256164
41	0xbd2a5a5c	-0.04159008
42	0x3c52a623	0.012856993
43	0x3ce347e2	0.027744237
44	0x3cde2673	0.027117943
45	0xbe128a6b	-0.14310615
46	0xbdcc0558	-0.09961957
47	0x3c61b4c5	0.013776009
48	0x3b46b259	0.0030318706
49	0xbd47a2f1	-0.048739377
50	0x3d69e95a	0.057107307
51	0x3bb9928d	0.005663222
52	0xbe78387f	-0.24240302
53	0x3bcde053	0.006282845
54	0x3dca9bff	0.09893035
55	0x3d278c94	0.04090555
56	0xbc93441d	-0.017976815
57	0x3d635f1c	0.055510625
58	0x3d97b79a	0.07408066
59	0x3caca257	0.021073503
60	0x3d295184	0.041337505
61	0xbd9f3574	-0.07773867
62	0xbe4dcca8	-0.20097601
63	0xbda55728	-0.08073264
64	0xbcb0a6dc	-0.02156394
65	0x3ca790b0	0.020454735
66	0xbc1ba64a	-0.009500096
67	0x3dd81a3c	0.10551879
68	0x3cc131ec	0.023583375
69	0x3d038f47	0.03211906
70	0xbc9eec1c	-0.019399695
71	0x3dbe2b8d	0.092856504
72	0x3d39bd83	0.045346748
73	0xbb7577cc	-0.0037455438
74	0x3d748dc0	0.059705496
75	0xbdb58040	-0.08862352
76	0xbd8b40e1	-0.06799484
77	0x3d2467d4	0.04013808
78	0x3d897176	0.06711094
79	0xbd9e0b08	-0.07716948
80	0xbb16acc2	-0.0022991155
81	0xbd9d22ef	-0.07672679
82	0xbd6cac4e	-0.05778151
83	0xbea5466f	-0.322803
84	0x3cc557ed	0.024089778
85	0x3c11968c	0.008885991
86	0xb91ba7ba	-0.00014844435
87	0xbb36bb91	-0.0027882794
88	0x3d99c876	0.07508938
89	0xbc9681f3	-0.018372511
90	0xbacb2b62	-0.00155006
91	0xbdae9ffc	-0.08526608
92	0x3c903de0	0.01760763
93	0xbd6ece99	-0.058302496
94	0xbdfea1d1	-0.12433208
95	0x3c4b7ccf	0.012419893
96	0xbdffa3e8	-0.124824345
97	0xbd6343ab	-0.055484455
98	0xbc00fc45	-0.007872646
99	0x3d118432	0.035526462
100	0xbdc5e59d	-0.09662936
101	0x3dd4b97d	0.103869416
102	0x3caee262	0.021348182
103	0x3dae1c2d	0.08501468
104	0xbd302ba3	-0.043010365
105	0x3e028a99	0.12748183
106	0x3d06fe71	0.032957498
107	0x3d0e3b7d	0.0347247
108	0xbdaf27d4	-0.085525185
109	0xbc4e1649	-0.012578555
110	0x3d327932	0.043572612
111	0xbc13e7d0	-0.009027436
112	0xbe833be6	-0.25631636
113	0xbd364d67	-0.04450741
114	0x3ca6fa3f	0.020382999
115	0x3d7fb873	0.062431764
116	0xbcbc4be8	-0.022985414
117	0x3ce0f8fb	0.027462473
118	0x3b982c0d	0.004643923
119	0xbdb6a4a6	-0.08918123
120	0x3caebab3	0.02132926
121	0x3d29ad5f	0.041425105
122	0xbd623b6c	-0.05523245
123	0xbb2206d4	-0.0024723308
124	0xbddff93f	-0.10936212
125	0x3ddc4e85	0.10757164
126	0xbde3abca	-0.111167505
127	0xbd413314	-0.047167853
128	0xbe5be302	-0.21473315
129	0xbc075d15	-0.008261939
130	0x3d876d82	0.06612684
131	0xbdba1b92	-0.0908729
132	0xbe0724e1	-0.13197662
133	0xbcb65386	-0.022256624
134	0x3d7ef7f5	0.06224819
135	0x3d40a7e9	0.04703513
136	0x3b3623bb	0.0027792293
137	0xbcb0b181	-0.021569015
138	0x3d03a6cc	0.03214149
139	0x3d951f27	0.072813325
140	0xbe78f2d2	-0.24311379
141	0xbcb6b123	-0.022301262
142	0x3b62d5d0	0.0034612305
143	0xbd094658	-0.03351435
144	0x3c53ac09	0.012919434
145	0xbd7e4eed	-0.06208699
146	0xbdfd6e7e	-0.1237459
147	0x3c27979a	0.010229016
148	0xbbac70ef	-0.005262486
149	0xbe2d614c	-0.16931647
150	0xbe2d1a31	-0.16904522
151	0x3d386077	0.04501387
152	0xbc3576fc	-0.011075731
153	0xbd2c7d30	-0.042111576
154	0xbd520d1c	-0.051282033
155	0x3dbd9cd7	0.092584305
156	0xbd29810a	-0.041382827
157	0xbd5cdeab	-0.05392329
158	0x3d32c162	0.043641455
159	0x3cb7a391	0.022416862
160	0xbb9acaf8	-0.004723903
161	0xbc9a404f	-0.018829493
162	0xbd2b09a7	-0.041757252
163	0x3d055048	0.032547265
164	0xbda035a0	-0.07822728
165	0xbc2806e5	-0.01025555
166	0xbc8fd41a	-0.017557193
167	0xbce3cc23	-0.0278073
168	0xbda34386	-0.079718634
169	0x3da7fa86	0.082020804
170	0x3d0baad7	0.034098472
171	0xbdd546d8	-0.10413903
172	0xbbe7a73b	-0.007069496
173	0xbccc1a00	-0.024914742
174	0xbb0ebe2d	-0.0021780834
175	0x3d07df26	0.033171795
176	0x3df2cef6	0.11855881
177	0xbe0b4acd	-0.13602753
178	0x3d407487	0.04698613
179	0xbca6dd70	-0.020369262
180	0xbd954362	-0.07288243
181	0xbca5cb3e	-0.020238515
182	0x3c8f2a78	0.017476305
183	0xbe3d4eca	-0.18487087
184	0xbc5b21ba	-0.01337474
185	0x3c410ecc	0.011783313
186	0xbe321a9f	-0.17392968
187	0x3c0bda30	0.008535907
188	0x3cf2af55	0.02962462
189	0xbdb08c3a	-0.08620496
190	0xbe116ae0	-0.14200926
191	0xbd965c0a	-0.07341774
192	0xbe0df1c7	-0.13861762
193	0x3c6a98f3	0.0143186925
194	0x3dae9f6a	0.085264996
195	0x3b1c3ec4	0.0023841122
196	0xbc9e3361	-0.019311609
197	0x3e004d86	0.12529573
198	0xbdbdc4ef	-0.09266078
199	0x3c1454d8	0.009053431
200	0xbce9bddd	-0.028532917
201	0x3d6af35b	0.057360988
202	0xbe11d4c5	-0.14241321
203	0xbe69ee73	-0.22844867
204	0xbe072687	-0.13198291
205	0xbd0f193c	-0.034936175
206	0xbe5ea37f	-0.21742056
207	0xbdba6f86	-0.09103303
208	0xbc3896b0	-0.011266395
209	0xbce44335	-0.027864078
210	0xbd80ca82	-0.06288625
211	0xbc784b88	-0.015154727
212	0xbe2a565d	-0.16634507
213	0x3c87ce14	0.016577758
214	0x3d4261d9	0.047456596
215	0x3cda3fda	0.026641775
216	0xbdbd6168	-0.092470944
217	0xbd5cbe4c	-0.05389242
218	0xbc8f2b99	-0.017476844
219	0x3baef5de	0.0053393682
220	0xbd10f013	-0.035385203
221	0xbd9ec4a7	-0.07752352
222	0x3dee3351	0.116308816
223	0x3d8a7a9b	0.067616664
224	0xbd3efc34	-0.04662724
225	0xbd17c72d	-0.037055183
226	0xbbe03df6	-0.006843324
227	0x3c2a2a64	0.010386083
228	0xbd10e27b	-0.03537224
229	0xbe6f0874	-0.23343068
230	0xbc975884	-0.018474825
231	0xbb881fb8	-0.004154172
232	0x3d750f2c	0.059828922
233	0xbcef046c	-0.029176913
234	0xbe1e2aae	-0.15445969
235	0xbd482667	-0.04886475
236	0x3e021889	0.12704672
237	0xbea1caf1	-0.31600145
238	0xbd1ae3eb	-0.037815016
239	0x3d61c0f7	0.055115666
240	0xbe124b2a	-0.14286485
241	0x3c940db5	0.018072942
242	0xbc976086	-0.018478643
243	0xbe136bf1	-0.14396645
244	0x3bc46b8f	0.0059942673
245	0xbc9aa728	-0.018878534
246	0xbcbc59ec	-0.022992097
247	0x3df5128e	0.1196643
248	0xbd10071d	-0.035163034
249	0xbde0e5ba	-0.10981317
250	0xbd25a7a3	-0.040443074
251	0x3e15a45f	0.14613484
252	0xbd327659	-0.043569896
253	0x3c449ca2	0.012000235
254	0xbe486f56	-0.19573721
255	0xbe32b12e	-0.17450401

FC2.bias f4 [64]
0	0xbd2f115c	-0.042741165
1	0x3d1952c1	0.037432436
2	0xbd660efe	-0.05616664
3	0xbbcb9687	-0.0062130126
4	0x3d622ef3	0.055220556
5	0xbd0aa39c	-0.033847436
6	0x3d247fd2	0.04016096
7	0x3c18c9d0	0.00932546
8	0xbd0dde63	-0.034635913
9	0xbd076250	-0.033052742
10	0x3d1b059d	0.03784715
11	0xbdc778eb	-0.0973986
12	0x3d8a0d2d	0.06740794
13	0x3bbda44b	0.0057874075
14	0x3cd804bb	0.026369443
15	0xbdc8d282	-0.09805776
16	0xbb1bd312	-0.002377693
17	0xbd6cc417	-0.057804193
18	0xbd252d2b	-0.04032628
19	0xbc071485	-0.008244638
20	0xbaf21c9b	-0.001847166
21	0x3d622c8c	0.055218264
22	0xbb084035	-0.0020790223
23	0xbc60c4b3	-0.013718772
24	0xbd09fc97	-0.033688154
25	0x3d13922a	0.036028065
26	0x3d5cf786	0.053946994
27	0xbd8b3fe2	-0.06799294
28	0xbcdac009	-0.026702898
29	0x3b46cf3b	0.0030335921
30	0xbc938a94	-0.018010415
31	0xbd9ce1ca	-0.07660253
32	0xbcb4f524	-0.022089548
33	0x3c0c5c0d	0.0085668685
34	0x3c94da98	0.01817064
35	0x3d23b6cd	0.039969254
36	0xbcfccb1e	-0.030858573
37	0xbdeec33e	-0.11658333
38	0x3ac1b189	0.0014777641
39	0x3d20206c	0.03909342
40	0x3d500599	0.05078659
41	0xbe014b53	-0.1262639
42	0xbcc5e29c	-0.024155907
43	0x3cb321b5	0.021866659
44	0x3c951dfc	0.018202774
45	0xbd93342c	-0.07187685
46	0x3d906877	0.07051175
47	0xbccbd346	-0.024881016
48	0xbd984d03	-0.07436564
49	0xbd979981	-0.074023254
50	0x3cdd9820	0.027050078
51	0xbda8bff5	-0.08239738
52	0xbd4794ae	-0.048725776
53	0xbd988a9c	-0.07448313
54	0xbc87aad2	-0.016560946
55	0xbd0857bc	-0.033286795
56	0xbd8be1ea	-0.06830199
57	0xbca0d6b9	-0.019633638
58	0xbdd8f992	-0.10594477
59	0xbc9fbaef	-0.019498317
60	0xbc07865a	-0.008271778
61	0xbd8f1b3c	-0.069876164
62	0x3d638881	0.055550102
63	0xbc6f40a1	-0.014602811

FC3.weight f4 [2, 64]
0	0x3be0b295	0.006857226
1	0xbe24610e	-0.16052648
2	0xbe0bc3fd	-0.13648982
3	0xbde4f30e	-0.111791715
4	0xbea1bb9a	-0.3158844
5	0xbe2a0cea	-0.16606489
6	0x3dc3c438	0.0955891
7	0xbd907903	-0.07054331
8	0x3e17e515	0.14833482
9	0xbe388675	-0.18020041
10	0x3daa3875	0.083115496
11	0xbe56bfee	-0.20971653
12	0xbd7d4cd3	-0.061840843
13	0xbd4a3705	-0.049368877
14	0xbdad2562	-0.08454396
15	0xbe9598cd	-0.2921814
16	0x3e173874	0.14767629
17	0xbd808bcd	-0.06276665
18	0xbdaa6d39	-0.08321614
19	0xbd81b113	-0.06332602
20	0x3e16f86f	0.14743207
21	0xbcf7c2ba	-0.03024422
22	0xbe368da3	-0.17827468
23	0xbcf2e51f	-0.02965027
24	0xbe5f4d67	-0.2180687
25	0xbd9cbd57	-0.07653301
26	0x3d3391aa	0.043840088
27	0xbe2ffbbf	-0.17185877
28	0xbe25cc3b	-0.16191189
29	0x3db9e51f	0.090769045
30	0x3e2d1bb4	0.16905099
31	0x3d160135	0.036622245
32	0xbea0851d	-0.31351557
33	0x3e876df9	0.2645109
34	0xbdc78878	-0.09742826
35	0xbe078305	-0.13233574
36	0x3e33ddbb	0.17565052
37	0x3cba37b6	0.022731643
38	0x3d4a687a	0.049416043
39	0x3df169d4	0.11787763
40	0xbc3d9d30	-0.011573121
41	0x3e132e11	0.14373042
42	0xbe124964	-0.14285809
43	0xbdd7e400	-0.105415344
44	0xbdfa7ac6	-0.122304484
45	0x3dcd7387	0.10031801
46	0x3e2a6692	0.1664069
47	0xbd22e815	-0.039772112
48	0x3e35f1b4	0.17767984
49	0x3d53c4c6	0.05170133
50	0xbda7ef6a	-0.081999615
51	0x3e0e9bbe	0.13926598
52	0xbdb4066d	-0.08790288
53	0xbcd7411f	-0.02627617
54	0x3c294816	0.010332128
55	0x3e2de957	0.16983543
56	0xbdcd08bf	-0.10011434
57	0x3da92abd	0.08260105
58	0x3da02883	0.07820227
59	0xbd022309	-0.031771693
60	0x3e484824	0.1955877
61	0x3e294c57	0.16533028
62	0xbd98171a	-0.07426281
63	0xbe00777b	-0.12545578
64	0xbdcedf88	-0.10101229
65	0xbd9e940e	-0.07743083
66	0xbdfbcf05	-0.12295345
67	0xbcc4c733	-0.024020767
68	0xbdefaf39	-0.11703343
69	0x3db7f6e6	0.08982639
70	0xbdca5e9e	-0.09881328
71	0x3da459b1	0.0802492
72	0x3d52821f	0.051393624
73	0x3d0d8799	0.034553144
74	0xbd4b7b09	-0.049677882
75	0x3daa33b5	0.083106436
76	0xbd69a0b7	-0.057038035
77	0x3d922522	0.07135989
78	0xbd23bde1	-0.039976005
79	0xbd68f90b	-0.05687813
80	0xbd242a6e	-0.040079527
81	0x3cce4a47	0.025181903
82	0x3d8e82da	0.06958552
83	0xbda55a76	-0.08073895
84	0x3d3b64e6	0.04575052
85	0x3dc95895	0.09831349
86	0xbdcae3c0	-0.09906721
87	0x3e1961bc	0.14978689
88	0x3dd70085	0.10498146
89	0x3df83d84	0.12121108
90	0x3d8fdc56	0.070244476
91	0x3ce10776	0.027469378
92	0x3cea3dd0	0.028593928
93	0xbd240291	-0.04004151
94	0xbdc73c70	-0.097283244
95	0xbd1a527a	-0.037676312
96	0xbc746ba2	-0.01491824
97	0xbc2fd7d4	-0.01073261
98	0xbd44d79f	-0.048057195
99	0xbcf45832	-0.029827211
100	0x3dc2f0ab	0.0951856
101	0xbe1f2749	-0.1554233
102	0x3d098448	0.03357342
103	0x3dab0ba7	0.08351832
104	0xbdeed5ca	-0.11661871
105	0x3d198cfc	0.03748797
106	0xbd22badf	-0.039728995
107	0xbe09433e	-0.13404557
108	0x3d490c8b	0.049084228
109	0xbca29b72	-0.019849513
110	0x3d80d40a	0.06290443
111	0xbdbff2b1	-0.093724616
112	0x3d6f81e2	0.058473475
113	0xbdb56de1	-0.08858848
114	0xbcec7af4	-0.028867222
115	0x3c130aaa	0.0089747105
116	0x3d1ddbae	0.03853958
117	0xbe22258c	-0.15834635
118	0xbdec5d49	-0.1154123
119	0xbcbaf17d	-0.022820229
120	0xbde61c2a	-0.112358406
121	0x3d8fe69d	0.07026408
122	0xbdaffd45	-0.08593229
123	0x3d019438	0.031635493
124	0x3d3b183e	0.045677416
125	0xbd1bbf7a	-0.038024403
126	0x3dfb69db	0.1227605
127	0xbce824aa	-0.028337795

FC3.bias f4 [2]
0	0x3c95ca7d	0.01828503
1	0x3bab45db	0.0052268333
